fw_jsbgym/models/train_saves_extVa/uniform/ppo_fullrl_ts1e-2_extendedVa_uniform_tsteps2e6_1_46153_31-01_10:35:09.pt (torch, 62614 bytes, 14 tensors)

actor_logstd f4 [1, 2]
-0.0067579933 -0.1425442
00000000: 2872 ddbb 1bf7 11be

conv.0.weight f4 [3, 1, 5, 1]
-0.34141478 0.34843907 -0.7274908 0.6270799 -0.48361927 0.310278 0.015262846 -0.23280172
-0.62635773 -0.51318973 0.6944732 1.0011677 0.07450452 0.5194497 0.34125805
00000000: ebcd aebe 9b66 b23e d63c 3abf 4f88 203f
00000010: f29c f7be c2dc 9e3e 0411 7a3c 9363 6ebe
00000020: fb58 20bf 6760 03bf ffc8 313f 4326 803f
00000030: d395 983d a8fa 043f 60b9 ae3e

conv.0.bias f4 [3]
0.06197927 0.079336695 0.11675336
00000000: fadd 7d3d 477b a23d 631c ef3d

critic.0.weight f4 [64, 42]
-0.14506851 -0.1358715 0.031153003 0.097777 -0.12023684 0.3270311 -0.32827333 -0.22413713
0.17738399 0.15535228 -0.09958193 -0.04639875 -0.10805765 0.14703727 0.23698758 -0.34356347
0.117241226 -0.05059361 0.07603405 -0.028319055 0.16123872 -0.29495642 -0.016255282 -0.116730176
-0.121557996 -0.029912014 0.124747 -0.31038144 -0.014965862 0.066649504 -0.569819 0.16601439
-0.14824635 0.11642529 -0.24415864 -0.04807971 -0.108949915 -0.15316309 -0.07461976 -0.27334413
0.060009114 -0.09169082 0.0506635 -0.04219385 0.2234921 0.17314182 -0.11549039 0.10898592
0.12563121 0.15036027 0.35213736 -0.122018196 0.3282876 -0.060632214 -0.38279232 0.16100873
0.00030575227 -0.33559647 0.08671279 0.14289127 0.1347153 0.16741471 -0.4020334 -0.012136473
-0.097951636 -0.14321348 -0.13882442 -0.24773706 -0.0078307325 0.22268344 0.029811678 0.10621618
-0.22685046 -0.044497505 -0.07829479 -0.04147748 0.127648 0.09645292 0.24841163 -0.07593545
0.13221197 -0.15355171 0.021425372 -0.29850748 0.21262331 0.17690887 0.029530171 -0.10265005
0.11852611 -0.03125512 0.034850515 -0.14248909 0.20861375 -0.16897504 -0.0999731 -0.05311245
-0.45906904 0.069271 -0.08499891 0.18586321 0.25689873 0.02156149 -0.07752467 -0.024742702
0.38215277 0.23211318 0.26514184 0.25001913 -0.09794146 0.059273206 -0.08414971 -0.028721178
-0.12391293 0.17396468 0.10663863 -0.04027046 0.05354686 -0.028696978 0.19606236 -0.40589195
0.13406277 -0.14724837 -0.0068375147 -0.060684618 0.06951547 0.06714479 -0.004373542 0.24164222
-0.09466878 -0.033518355 0.11655345 0.38345185 0.021647597 -0.30352637 0.18060194 0.12334107
0.25209093 0.015087688 -0.015938902 -0.39396217 0.10959407 0.08963967 0.3147351 0.1082323
0.2906646 0.27397913 -0.463651 -0.23429479 -0.008685207 0.14507887 0.14448588 -0.044000298
0.13329357 -0.28265166 -0.043222576 0.068890065 -0.2531217 -0.12737145 0.025085693 0.046573956
-0.3182863 0.50611246 -0.3202407 -0.012859324 -0.07556275 -0.16344196 -0.35900217 0.06759362
0.099494986 -0.046736293 0.3751229 -0.34944293 0.22566058 -0.17115851 -0.02927114 -0.039187506
0.20038703 0.032818824 -0.11784416 -0.07684141 0.20263939 0.35687009 0.13063218 0.26659614
0.04290338 -0.088493444 0.113013335 -0.068371266 0.3520029 -0.22381644 0.08482107 0.1313859
-0.06540371 -0.026323915 -0.34513265 0.57472855 -0.07932988 0.19396143 -0.317251 0.08502442
0.23108649 0.22396275 -0.12662926 -0.044405866 0.0338797 0.067269206 0.0054496657 -0.09416755
-0.03607136 0.049839955 0.11558043 0.19818367 -0.1475434 0.08298526 -0.14590196 0.20537312
0.096748136 0.070830986 -0.124441825 -0.39651233 0.20782217 0.3754473 0.042174406 -0.083117135
-0.067018844 0.050288677 -0.31969222 -0.06974204 0.12535359 -0.03657276 0.008718723 0.2614423
-0.0955037 0.05496687 0.13861014 0.020056974 0.55469894 0.14270566 -0.3255325 -0.019459346
-0.026027668 0.07438758 -0.12209029 0.057711255 -0.13240121 -0.04565398 -0.013211182 -0.18394633
0.16060802 0.2802981 0.23050556 0.21242839 0.07952391 0.11670986 -0.09073604 0.3256525
00000000: d78c 14be e621 0bbe 9534 ff3c 4f3f c83d
00000010: bb3e f6bd 9f70 a73e 7113 a8be 3484 65be
00000020: 26a4 353e ab14 1f3e 9cf1 cbbd 9e0c 3ebd
00000030: 544d ddbd f090 163e dfac 723e 8de7 afbe
00000040: 2b1c f03d 3f3b 4fbd bdb7 9b3d 5dfd e7bc
00000050: c31b 253e 8704 97be cc29 85bc 3b10 efbd
00000060: 66f3 f8bd 0a0a f5bc 5b7b ff3d 51ea 9ebe
00000070: 6033 75bc 897f 883d a8df 11bf adff 293e
00000080: e4cd 17be 6270 ee3d b904 7abe 3bef 44bd
00000090: 2221 dfbd c9d6 1cbe 3fd2 98bd c3f3 8bbe
000000a0: 1ecc 753d 66c8 bbbd 8884 4f3d 75d3 2cbd
000000b0: 1ddb 643e 174c 313e 3a86 ecbd 0334 df3d
000000c0: 78a5 003e 0bf8 193e 594b b43e ade4 f9bd
000000d0: 5015 a83e 7c59 78bd 5bfd c3be 79df 243e
000000e0: 604d a039 4dd3 abbe 7a96 b13d 1752 123e
000000f0: cff2 093e c36e 2b3e 52d7 cdbe 0fd8 46bc
00000100: de9a c8bd 8ea6 12be fd27 0ebe c9ae 7dbe
00000110: 794c 00bc 2107 643e 9f37 f43c de87 d93d
00000120: 7d4b 68be 0443 36bd 0559 a0bd 4ae4 29bd
00000130: 28b6 023e 1c89 c53d 9e5f 7e3e 0c84 9bbd
00000140: 9362 073e a93c 1dbe 4384 af3c f9d5 98be
00000150: edb9 593e 9927 353e 42e9 f13c 303a d2bd
00000160: d1bd f23d 5e05 00bd 6abf 0e3d a9e8 11be
00000170: d89e 553e cb07 2dbe b2be ccbd 718c 59bd
00000180: 190b ebbe f4dd 8d3d e913 aebd ed52 3e3e
00000190: 3b88 833e b9a1 b03c 41c5 9ebd 35b1 cabc
000001a0: 87a9 c33e 14af 6d3e acc0 873e 8202 803e
000001b0: 8895 c8bd 76c8 723d af56 acbd ad48 ebbc
000001c0: 10c6 fdbd cc23 323e 5b65 da3d a3f2 24bd
000001d0: f453 5b3d ed15 ebbc 92c4 483e 12d1 cfbe
000001e0: c047 093e 47c8 16be 3b0d e0bb 6f90 78bd
000001f0: 205e 8e3d 3583 893d ee4f 8fbb 0f71 773e
00000200: b5e1 c1bd 8b4a 09bd 93b3 ee3d cd53 c43e
00000210: 4d56 b13c cf67 9bbe b7ef 383e 3e9a fc3d
00000220: 1012 813e 5a32 773c 4d92 82bc 69b5 c9be
00000230: db72 e03d 0195 b73d f624 a13e e5a8 dd3d
00000240: fed1 943e fe46 8c3e aa63 edbe f9ea 6fbe
00000250: 664c 0ebc 8e8f 143e 1bf4 133e a839 34bd
00000260: 1c7e 083e b8b7 90be 280a 31bd 3c16 8d3d
00000270: 2b99 81be a96d 02be 8380 cd3c 55c4 3e3d
00000280: 6cf6 a2be 9690 013f 97f6 a3be eaaf 52bc
00000290: a5c0 9abd 545d 27be 22cf b7be 866e 8a3d
000002a0: 07c4 cb3d 8e6e 3fbd 1c10 c03e 2fea b2be
000002b0: 9113 673e 2d44 2fbe 08ca efbc 1483 20bd
000002c0: 4232 4d3e 086d 063d 4758 f1bd 075f 9dbd
000002d0: b380 4f3e adb7 b63e 71c4 053e 4a7f 883e
000002e0: 74bb 2f3d 0d3c b5bd 8973 e73d 3c06 8cbd
000002f0: b939 b43e 2330 65be abb6 ad3d 068a 063e
00000300: 61f2 85bd 40a5 d7bc 3ab5 b0be 6921 133f
00000310: b477 a2bd d39d 463e b96e a2be 4821 ae3d
00000320: f0a1 6c3e 7e56 653e 1aab 01be ede2 35bd
00000330: 71c5 0a3d 70c4 893d 1c93 b23b ebda c0bd
00000340: 90bf 13bd fb24 4c3d 6fb5 ec3d a9f0 4a3e
00000350: 9e15 17be 2df4 a93d 5367 15be 554d 523e
00000360: e323 c63d d60f 913d 5bdb febd aa03 cbbe
00000370: 56cf 543e a13a c03e 12bf 2c3d 5139 aabd
00000380: 2d41 89bd 80fb 4d3d b3ae a3be ead4 8ebd
00000390: b15c 003e 52cd 15bd fad8 0e3c c4db 853e
000003a0: 7297 c3bd f124 613d d1ef 0d3e 864e a43c
000003b0: c000 0e3f 6f21 123e 32ac a6be 3569 9fbc
000003c0: fa37 d5bc 8458 983d 790a fabd a362 6c3d
000003d0: 2f94 07be abff 3abd b773 58bc 6d5c 3cbe
000003e0: 6e76 243e 3c83 8f3e a609 6c3e d486 593e
000003f0: 6fdd a23d 9405 ef3d d1d3 b9bd edbb a63e

critic.0.bias f4 [64]
-0.09002717 -0.18337715 -0.02097655 -0.10813521 -0.07167692 0.14865088 -0.0036994175 0.10133412
-0.040476352 0.059591208 -0.077480294 -0.030555174 -0.06825673 0.0039500035 -0.058539476 -0.034586888
0.039776273 -0.043931916 -0.042237524 -0.01463292 0.0442011 -0.12878446 0.101802334 0.049875095
0.008467383 -0.0045171822 -0.013668095 0.023568366 0.064558245 0.03303198 0.027417697 0.058882874
-0.039837528 0.11267104 0.019059109 -0.04370575 0.078157134 0.010208659 0.08876983 0.049288273
0.027472185 0.010150285 -0.002882857 0.008674554 0.024773503 -0.09186137 -0.017788846 -0.014473045
0.15498774 0.00772636 -0.043398134 -0.05038049 0.1292815 0.0032416384 0.009650884 -0.112817965
-0.04972618 -0.09996381 0.085305594 -0.060909554 0.027904 0.05680082 0.006808601 -0.10064517
00000000: 2a60 b8bd 38c7 3bbe 04d7 abbc fe75 ddbd
00000010: 59cb 92bd f037 183e ed71 72bb 4388 cf3d
00000020: 88ca 25bd e915 743d fdad 9ebd d84e fabc
00000030: 2fca 8bbd 086f 813b 17c7 6fbd fbaa 0dbd
00000040: 72ec 223d f4f1 33bd 4101 2dbd eabe 6fbc
00000050: 360c 353d 13e0 03be be7d d03d d449 4c3d
00000060: c7ba 0a3c df04 94bb 25f0 5fbc 7212 c13c
00000070: 1d37 843d 8b4c 073d 149b e03c 2b2f 713d
00000080: ad2c 23bd 13c0 e63d d921 9c3c cd04 33bd
00000090: d910 a03d 3842 273c f5cc b53d 80e2 493d
000000a0: 590d e13c 624d 263c 51ee 3cbb b71f 0e3c
000000b0: cdf1 ca3c d021 bcbd eab9 91bc 5a20 6dbc
000000c0: 1bb5 1e3e 682d fd3b 3ec2 31bd c65b 4ebd
000000d0: 5f62 043e ab71 543b be1e 1e3c 1b0d e7bd
000000e0: aead 4bbd d3b9 ccbd b3b4 ae3d 4c7c 79bd
000000f0: ee96 e43c faa7 683d af1a df3b 0e1f cebd

critic.2.weight f4 [64, 64]
-0.017176673 -0.15032057 0.044154067 0.014102362 0.11390367 0.23848258 0.002484624 0.047035094
0.06051152 0.10895368 -0.06428246 -0.076572254 0.18878268 0.042756148 0.12769394 0.18938792
0.21156709 -0.21654469 0.19197965 -0.1158761 -0.10752408 -0.34679198 0.15678735 -0.4750085
-0.14175776 0.19877481 -0.0703184 -0.07750162 -0.402748 0.051201813 -0.10144571 0.28284186
0.17321035 -0.16699727 0.21905012 -0.06911169 -0.13396612 0.10538387 -0.16191806 0.09012717
0.0089880945 0.11550427 0.059629224 -0.2649324 0.19182633 0.026203176 -0.36120707 -0.0375536
-0.008623501 0.13147227 0.15644458 0.26125804 -0.043012258 0.12761435 0.29816544 -0.06891738
0.21524818 0.02507129 0.008631866 0.1981446 0.46025044 0.20035307 -0.006603914 -0.1664484
-0.08424915 -0.027845262 0.2351805 -0.13987434 -0.008770066 0.1809084 -0.2925787 0.38391814
-0.12167313 0.14473356 -0.15646875 -0.16830155 -0.09361213 -0.08082932 0.30943534 -0.082327954
0.02493225 -0.105842955 0.30431923 -0.07538269 0.30609778 0.14877737 0.045656197 0.10403048
0.088213824 0.026431616 0.10284514 0.051697277 -0.13227922 0.074639715 -0.100407295 0.07880272
-0.09020859 -0.069329806 -0.11233427 -0.1655945 -0.3769259 -0.076580375 -0.21518672 0.09263284
-0.05194826 -0.12006683 0.032574292 0.025778979 0.14300694 -0.3233132 0.28048623 -0.16273555
0.03434324 -0.14841646 0.18911265 -0.11480425 0.009846927 0.42628244 -0.022619653 0.043251067
0.006689884 -0.14684406 -0.30017534 -0.120147616 -0.021252934 -0.025518205 -0.47087 -0.2506014
-0.33026522 0.08125467 -0.15895282 -0.048773933 0.061827708 -0.27613568 -0.003952167 0.18271032
0.092726976 -0.059246913 -0.14299078 -0.11424508 0.0875635 -0.04662048 -0.20391534 -0.07452782
-0.19684926 0.17934777 0.09728305 0.1492087 0.098572314 -0.018035473 0.42608526 -0.30876088
-0.2795206 -0.33392772 -0.025007265 -0.10740654 -0.03809917 -0.007523503 0.21243438 0.33573598
0.059485402 -0.0737686 -0.09814573 0.20453939 0.09725205 0.16514944 -0.064530954 -0.3264184
0.07443882 -0.0367985 -0.03836252 0.050319996 0.13706072 0.056800324 -0.060096942 0.2491126
0.039174367 0.06372005 0.14103566 0.1658255 0.18510464 -0.13061601 0.12005219 -0.070690356
-0.1671423 0.057606403 -0.010295478 -0.3047214 -0.30714008 0.031847104 -0.31710795 -0.26298225
0.12323027 0.34305987 -0.052741166 0.1793897 0.20843993 -0.04807575 -0.056380857 -0.16565908
0.18921024 0.26085463 -0.29496756 0.010713561 0.08035903 -0.042017076 0.45369196 -0.36314562
-0.20101774 0.06895232 0.09799421 -0.068968065 0.17136453 -0.4530399 0.009216469 0.29669374
0.25017324 0.19628173 -0.40573746 -0.026094189 0.18158188 0.053673856 0.0133416625 -0.008627063
-0.036123827 -0.008977684 -0.24270761 0.08244068 0.24251595 0.036604445 -0.31712952 -0.04130881
-0.0011815971 -0.04638472 -0.2373872 0.11426361 -0.2138781 -0.04857804 -0.100085974 -0.01133995
0.06193103 -0.08878509 -0.030768583 0.06372474 0.1488189 0.04202987 0.24581398 -0.041274607
0.30178264 0.031579632 0.15510409 -0.24631415 0.04104437 0.08468083 0.119357005 0.0060647605
00000000: 18b6 8cbc a3ed 19be e5da 343d 980d 673c
00000010: 5446 e93d c734 743e 13d5 223b dfa7 403d
00000020: edda 773d 1b23 df3d 86a6 83bd ead1 9cbd
00000030: 3f50 413e 1221 2f3d 33c2 023e e8ee 413e
00000040: 0ba5 583e e4bd 5dbe 5096 443e 7350 edbd
00000050: 9635 dcbd b88e b1be dd8c 203e 5034 f3be
00000060: f228 11be a08b 4b3e 1803 90bd 2bb9 9ebd
00000070: fc34 cebe feb8 513d c5c2 cfbd a6d0 903e
00000080: 0e5e 313e 5501 2bbe ad4e 603e 6e8a 8dbd
00000090: 6a2e 09be 80d3 d73d d9cd 25be 9894 b83d
000000a0: cd42 133c 818d ec3d c63d 743d 38a5 87be
000000b0: 1f6e 443e 0ba8 d63c 22f0 b8be ced1 19bd
000000c0: 9649 0dbc aba0 063e 0233 203e 9dc3 853e
000000d0: 9f2d 30bd 56ad 023e 24a9 983e 8e24 8dbd
000000e0: 056a 5c3e 4e62 cd3c ac6c 0d3c 6be6 4a3e
000000f0: f2a5 eb3e 5b29 4d3e a565 d8bb 7371 2abe
00000100: d18a acbd bf1b e4bc 28d3 703e 383b 0fbe
00000110: 53b0 0fbc 0d40 393e e0cc 95be eb90 c43e
00000120: c32f f9bd 0935 143e 5839 20be 3e57 2cbe
00000130: b7b7 bfbd d889 a5bd 4f6e 9e3e 8f9b a8bd
00000140: b83e cc3c 31c4 d8bd bbcf 9b3e 3d62 9abd
00000150: d9b8 9c3e 1859 183e fe01 3b3d ef0d d53d
00000160: 73a9 b43d 1e87 d83c 79a0 d23d 86c0 533d
00000170: 3474 07be b5dc 983d 57a2 cdbd 5263 a13d
00000180: 48bf b8bd c9fc 8dbd 820f e6bd 9b91 29be
00000190: 6efc c0be 2cd6 9cbd e859 5cbe 49b6 bd3d
000001a0: b3c7 54bd 99e5 f5bd 9f6c 053d 702e d33c
000001b0: 6970 123e 4f89 a5be e49b 8f3e 26a4 26be
000001c0: 7fab 0c3d 7cfa 17be bfa6 413e 7e1e ebbd
000001d0: 0155 213c b141 da3e da4c b9bc 0828 313d
000001e0: d036 db3b 4a5e 16be 95b0 99be f40f f6bd
000001f0: a21a aebc 8e0b d1bc df15 f1be d44e 80be
00000200: 8618 a9be d968 a63d 87c4 22be 2dc7 47bd
00000210: 0d3f 7d3d a861 8dbe 2e81 81bb 6a18 3b3e
00000220: a4e7 bd3d e4ac 72bd 2d6c 12be 53f9 e9bd
00000230: 7e54 b33d 1ef5 3ebd 2fcf 50be 0ba2 98bd
00000240: da92 49be f1a6 373e 563c c73d 2aca 183e
00000250: 48e0 c93d 21bf 93bc d927 da3e e815 9ebe
00000260: 531d 8fbe 93f8 aabe 09dc ccbc f6f7 dbbd
00000270: e00d 1cbd b887 f6bb 6688 593e 96e5 ab3e
00000280: f7a6 733d fe13 97bd a100 c9bd c672 513e
00000290: 152c c73d ef1c 293e ce28 84bd 5020 a7be
000002a0: 6173 983d 06ba 16bd 0522 1dbd 571c 4e3d
000002b0: a559 0c3e 75a7 683d 3628 76bd 6017 7f3e
000002c0: 4d75 203d a87f 823d a76b 103e 29ce 293e
000002d0: 128c 3d3e 34c0 05be ecdd f53d 1bc6 90bd
000002e0: 5a27 2bbe b1f4 6b3d 5dae 28bc 7104 9cbe
000002f0: 7741 9dbe 1c72 023d f95b a2be 9ca5 86be
00000300: 2760 fc3d 8ba5 af3e 1f07 58bd efb1 373e
00000310: 4771 553e 14eb 44bd 9def 66bd 89a2 29be
00000320: 54c0 413e bd8e 853e fd05 97be ef87 2f3c
00000330: 4693 a43d 191a 2cbd 504a e83e 39ee b9be
00000340: 98d7 4dbe e036 8d3d 30b1 c83d 213f 8dbd
00000350: 2f7a 2f3e d9f4 e7be ac00 173c 3ee8 973e
00000360: b516 803e 14fe 483e d2bc cfbe 7bc3 d5bc
00000370: 9af0 393e 1ed9 5b3d fd96 5a3c 8658 0dbc
00000380: 94f6 13bd 2317 13bc 5888 78be a9d6 a83d
00000390: 1a56 783e 8bee 153d cd5e a2be 6d33 29bd
000003a0: d2df 9aba e7fd 3dbd a115 73be 0a03 ea3d
000003b0: dc02 5bbe c4f9 46bd e0f9 ccbd 33cb 39bc
000003c0: 64ab 7d3d f5d4 b5bd 650e fcbc 1e82 823d
000003d0: fb63 183e 8327 2c3d a9b6 7b3e 900f 29bd
000003e0: 4183 9a3e a559 013d 9bd3 1e3e c739 7cbe
000003f0: 241e 283d 256d ad3d 7271 f43d e6ba c63b

critic.2.bias f4 [64]
0.06520525 0.06692286 0.030048402 -0.023472818 -0.10323907 -0.08416496 0.1339227 0.06696502
-0.061366394 -0.010545793 0.023806876 0.04069074 0.13703217 0.15582052 0.040924765 0.15694104
0.04556493 0.10751677 0.06929905 0.13667716 0.0034945072 0.033404227 0.11076315 0.064596795
-0.034069225 0.032853846 -0.03528546 -0.057911947 -0.022748766 -0.00089788873 -0.06375686 -0.04215982
0.008011404 -0.037895564 -0.049469505 -0.0664433 0.007487027 -0.011244021 0.05746247 -0.081035614
-0.0074479007 0.04350948 -0.027105639 0.032508686 0.024885127 -0.13955785 0.034044143 0.05567863
0.07049843 -0.061863475 0.04838389 -0.03281052 -0.03630236 0.041089404 0.015852371 0.13500687
-0.036801007 -0.15530482 0.055961717 -0.04618082 0.060141258 0.040413275 -0.021518692 0.03619932
00000000: 558a 853d da0e 893d 1128 f63c 114a c0bc
00000010: 016f d3bd ae5e acbd 0823 093e f524 893d
00000020: 545b 7bbd 43c8 2cbc a306 c33c 55ab 263d
00000030: 2952 0c3e 6a8f 1f3e baa0 273d 27b5 203e
00000040: 4ba2 3a3d c131 dc3d a9ec 8d3d 19f5 0b3e
00000050: 1a04 653b dfd2 083d cad7 e23d 534b 843d
00000060: 2c8c 0bbd c191 063d 7d87 10bd 1435 6dbd
00000070: 9f5b babc 4b60 6bba f592 82bd c7af 2cbd
00000080: 4442 033c 6138 1bbd 89a0 4abd 6d13 88bd
00000090: bc55 f53b d838 38bc c45d 6b3d 00f6 a5bd
000000a0: 850d f4bb ff36 323d a50c debc d427 053d
000000b0: e5db cb3c 41e8 0ebe df71 0b3d 460f 643d
000000c0: 7b61 903d 8e64 7dbd 302e 463d 5364 06bd
000000d0: c9b1 14bd 5d4d 283d d5dc 813c 3e3f 0a3e
000000e0: a7bc 16bd 3a08 1fbe 1d38 653d 1928 3dbd
000000f0: ae56 763d 6488 253d f847 b0bc bd45 143d

critic.4.weight f4 [1, 64]
-0.0932408 -0.03742283 -0.0015037983 0.07574566 0.044726226 0.19713846 -0.09253824 -0.020709243
0.038722575 0.075913414 -0.0067591523 -0.0068913223 -0.14542344 -0.19877693 -0.084093764 -0.19123562
-0.032205734 -0.1621491 -0.0723156 -0.20794375 -0.07010298 -0.18504488 -0.11002278 -0.22681993
0.28804547 -0.15097295 0.22195049 0.058662903 0.069335416 0.12360554 0.07773423 0.17650741
-0.23070091 0.016702015 0.14344892 0.031921327 0.19962683 0.34752175 -0.09496424 0.061355274
0.115915395 -0.011611152 -0.08521172 -0.07219659 -0.14721666 0.1419693 -0.03028318 -0.14602354
-0.052590102 0.1243838 -0.0807739 0.20745973 -0.011771032 -0.12729356 -0.023476299 -0.20866875
-0.11463999 0.20724908 -0.0637419 0.113576025 -0.33075246 -0.102740034 0.19652638 -0.12789933
00000000: 08f5 bebd ae48 19bd 191b c5ba 8a20 9b3d
00000010: d932 373d aade 493e b084 bdbd 6ea6 a9bc
00000020: 909b 1e3d 7e78 9b3d e17b ddbb 9ad0 e1bb
00000030: e2e9 14be 2e8c 4bbe 5a39 acbd 45d3 43be
00000040: 29ea 03bd 6a0a 26be 341a 94bd 35ef 54be
00000050: 2792 8fbd 687c 3dbe a053 e1bd 7c43 68be
00000060: b27a 933e a798 1abe fd46 633e 8348 703d
00000070: baff 8d3d e724 fd3d 2033 9f3d 5cbe 343e
00000080: dc3c 6cbe aad2 883c 46e4 123e f0bf 023d
00000090: fa6a 4c3e 5fee b13e 9d7c c2bd ab4f 7b3d
000000a0: 0d65 ed3d b43c 3ebc 7b83 aebd cedb 93bd
000000b0: f7bf 16be 6660 113e 6e14 f8bc 3287 15be
000000c0: b868 57bd efbc fe3d c96c a5bd 5370 543e
000000d0: 49db 40bc 3e59 02be 5e51 c0bc 43ad 55be
000000e0: 5fc8 eabd 1a39 543e 1d8b 82bd 8c9a e83d
000000f0: 6358 a9be 5e69 d2bd 363e 493e 0bf8 02be

actor_mean.0.weight f4 [64, 42]
-0.025551956 -0.24324349 0.011209045 0.016720554 -0.0152929025 0.42971647 0.0719174 -0.061032
-0.04988112 -0.13114823 -0.03019627 0.15017349 0.08831692 0.014728562 0.20313947 0.31438228
0.0024016195 0.22793233 -0.07947213 0.073344626 0.065751895 0.37230104 -0.05101972 -0.038707443
-0.32796788 -0.09617816 0.14307442 0.0105077345 -0.1903465 0.32694063 -0.12340581 -0.14875615
0.056917958 0.14302702 -0.33702436 -0.09797416 -0.1370494 0.19514611 0.21821193 0.067933284
0.14242773 -0.3847151 0.011082067 0.3229661 0.43342134 -0.29069757 0.03378681 -0.22948
0.21191916 0.10900762 0.11647109 0.12070742 0.21455672 -0.029487725 0.046185195 -0.007285141
-0.048696063 -0.027157405 0.26550496 -0.009270749 0.15680681 0.036643703 0.19464283 0.25430265
-0.18845639 0.14556691 -0.10835218 0.1324596 0.0680028 0.23823291 -0.13380618 -0.12133066
0.24748713 0.32446668 0.21702985 0.14038731 -0.26515952 -0.003736667 0.33096555 0.042737156
-0.04863216 -0.094245866 0.05175273 -0.15573324 -0.23189838 0.14957921 -0.12491551 -0.25567114
-0.04995352 -0.008944432 0.1880786 0.121662736 -0.21663399 0.18036613 0.12042524 -0.14684395
0.094540134 0.24099939 -0.10550904 -0.0065951715 -0.41522947 0.07993048 -0.08518866 -0.19871695
0.13439722 0.248935 0.22777334 0.039002135 -0.20344841 -0.023672722 -0.018961618 -0.30933654
0.2843516 -0.10578659 -0.2204886 0.21476828 -0.20443465 0.2514496 -0.16705771 -0.014964866
-0.124339655 0.31749523 -0.022094993 -0.109776154 -0.3806199 -0.005542454 0.022093805 0.05526773
0.3312983 -0.12465122 -0.17023219 -0.050991062 -0.014736567 0.06298435 -0.099358864 0.06569975
-0.38095704 -0.0045167725 -0.23282808 0.34120673 -0.35240737 -0.06593667 0.09326262 -0.0064007267
-0.17812683 0.0042775515 0.3038425 -0.23092327 0.1582422 0.012762334 -0.07082389 0.24085191
0.14954779 0.0055042584 -0.37007222 -0.18149918 -0.09679409 0.09414189 -0.28865364 0.15289848
-0.39948228 0.0015286845 0.027378952 0.04547413 0.05583981 0.12940472 0.12975848 -0.47868097
0.18075775 0.32215828 0.25134766 0.14462085 0.13108552 -0.11055231 0.1242855 -0.033556547
-0.04773023 0.0053619333 -0.059380535 0.1270638 -0.01970313 0.21373047 0.04603796 0.15245283
0.10868318 -0.02599509 -0.3212148 -0.0059665907 -0.32283622 -0.39241323 -0.1736182 -0.015842201
-0.31034517 0.042720076 0.05551491 0.23240747 0.06401757 0.27891192 -0.10834092 0.30852413
-0.23235816 -0.03286717 -0.24703999 0.16943212 0.0076081855 0.24847993 -0.13599429 -0.31145892
0.18377927 0.16725826 0.29547507 -0.058732476 -0.15045568 0.168807 -0.11584482 0.055495195
0.17199095 -0.03398258 0.029604718 0.23718034 0.014114076 -0.23235899 -0.09388676 0.18985072
-0.09634289 0.42823163 -0.10063132 -0.27839398 -0.056802172 -0.018509602 -0.15770449 0.015956175
0.22574027 0.33350214 -0.056498896 -0.029951308 0.19613986 0.017975498 -0.04935521 -0.039747793
0.14754033 0.00228742 0.07907646 -0.017336661 0.3457157 -0.4244753 0.16144809 0.18041553
0.059296433 0.40089372 -0.10826407 -0.13385239 -0.037747603 0.19840625 0.08707933 -0.10078112
00000000: 5652 d1bc d214 79be 24a6 373c 8bf9 883c
00000010: 158f 7abc cc03 dc3e 6e49 933d b1fc 79bd
00000020: 2550 4cbd b94b 06be 2b5e f7bc 14c7 193e
00000030: 80df b43d 1150 713c cb03 503e b7f6 a03e
00000040: 7d64 1d3b 1867 693e 49c2 a2bd b535 963d
00000050: eea8 863d 3e9e be3e 0efa 50bd b28b 1ebd
00000060: 68eb a7be 0ef9 c4bd 1a82 123e a228 2c3c
00000070: 31ea 42be c364 a73e 2fbc fcbd 8853 18be
00000080: ce22 693d ad75 123e 758e acbe ada6 c8bd
00000090: ae56 0cbe 62d4 473e f372 5f3e 9b20 8b3d
000000a0: 93d8 113e 61f9 c4be 8f91 353c d05b a53e
000000b0: 67e9 dd3e 50d6 94be 0a64 0a3d cefc 6abe
000000c0: 5601 593e 633f df3d 6588 ee3d 7435 f73d
000000d0: c2b4 5b3e 3e90 f1bc b02c 3d3d 31b8 eebb
000000e0: 8675 47bd 3579 debc 44f0 873e 57e4 17bc
000000f0: f791 203e b517 163d 7350 473e f533 823e
00000100: b6fa 40be 7e0f 153e bfe7 ddbd 7da3 073e
00000110: 0d45 8b3d 54f3 733e 7d04 09be 367c f8bd
00000120: 446d 7d3e 7f20 a63e 133d 5e3e b1c1 0f3e
00000130: fdc2 87be dfe2 74bb 5174 a93e 280d 2f3d
00000140: 8432 47bd fa03 c1bd acfa 533d 8978 1fbe
00000150: c576 6dbe 4b2b 193e b4d3 ffbd 54e7 82be
00000160: 109c 4cbd ab8b 12bc ad97 403e 502a f93d
00000170: 4dd5 5dbe e6b1 383e 82a1 f63d 435e 16be
00000180: 429e c13d 8bc8 763e 2015 d8bd 4f1c d8bb
00000190: f598 d4be 97b2 a33d 6477 aebd 757c 4bbe
000001a0: 6d9f 093e d1e8 7e3e 6a3d 693e b4c0 1f3d
000001b0: c854 50be 4ced c1bc 6555 9bbc 5c61 9ebe
000001c0: 8896 913e a4a6 d8bd c3c7 61be 37ec 5b3e
000001d0: 5157 51be 01be 803e 2d11 2bbe 332f 75bc
000001e0: caa5 febd bc8e a23e 8f00 b5bc 52d2 e0bd
000001f0: 9de0 c2be 799d b5bb 11fe b43c 6a60 623d
00000200: ee9f a93e 2449 ffbd 5951 2ebe 01dc 50bd
00000210: a471 71bc f0fd 803d a97c cbbd 978d 863d
00000220: cd0c c3be 6f01 94bb 7c6a 6ebe a6b2 ae3e
00000230: bd6e b4be ce09 87bd 7900 bf3d 30bd d1bb
00000240: e166 36be b42a 8c3b 3f91 9b3e 2677 6cbe
00000250: 3e0a 223e 1c19 513c 1e0c 91bd e2a1 763e
00000260: 0e23 193e 115d b43b 1b7a bdbe ecda 39be
00000270: fb3b c6bd 77cd c03d 69ca 93be 6b91 1c3e
00000280: f188 ccbe 245e c83a d349 e03c 1543 3a3d
00000290: 49b8 643d ac82 043e 68df 043e ac15 f5be
000002a0: 8f18 393e eef1 a43e a4b0 803e 7d17 143e
000002b0: 483b 063e 4069 e2bd 6589 fe3d 9772 09bd
000002c0: c680 43bd 28b3 af3b 0139 73bd 031d 023e
000002d0: 7568 a1bc 29dc 5a3e 4d92 3c3d 981c 1c3e
000002e0: 4995 de3d a8f3 d4bc 4476 a4be 6483 c3bb
000002f0: ca4a a5be 63ea c8be f8c8 31be 81c7 81bc
00000300: 90e5 9ebe 3ffb 2e3d 9a63 633d 39fc 6d3e
00000310: a51b 833d 8bcd 8e3e d8e1 ddbd e0f6 9d3e
00000320: 4cef 6dbe ba9f 06bd 0df8 7cbe 9d7f 2d3e
00000330: 164e f93b 8671 7e3e 1642 0bbe 8b77 9fbe
00000340: a230 3c3e c045 2b3e 8248 973e 7791 70bd
00000350: 0e11 1abe bedb 2c3e 0d40 edbd ee4e 633d
00000360: 651e 303e 5131 0bbd 9885 f23c 67df 723e
00000370: ba3e 673c 84ef 6dbe b447 c0bd 3a68 423e
00000380: 6c4f c5bd 2d41 db3e cb17 cebd a889 8ebe
00000390: 65a9 68bd 73a1 97bc 497d 21be 86b6 823c
000003a0: 7528 673e cbc0 aa3e 636b 67bd 725c f5bc
000003b0: e3d8 483e 5a41 933c b028 4abd 95ce 22bd
000003c0: d014 173e 8ae8 153b d7f2 a13d 9d05 8ebc
000003d0: a601 b13e d454 d9be a652 253e d9be 383e
000003e0: d1e0 723d f141 cd3e 8db9 ddbd 9a10 09be
000003f0: 3b9d 1abd 022b 4b3e a656 b23d 5566 cebd

actor_mean.0.bias f4 [64]
0.0026672566 0.032914754 0.018134346 0.021717353 -0.010944212 0.12235613 0.03642626 -0.0621233
0.05146076 0.037145965 0.026975568 0.019444672 -0.02644741 0.024672152 -0.0044293087 0.043908227
-0.038009606 -0.0004859843 -0.071769096 -0.023638988 -0.046079874 -0.07411702 -0.023547092 0.01816303
-0.012460794 0.0028134573 0.02867982 -0.028146436 -0.071354106 -0.03200833 -0.06852815 0.120394506
0.001903119 0.004481981 -0.03706519 -0.028251896 -0.04640783 0.016809128 -0.0029583012 0.007570811
0.041717734 -0.03192312 -0.0015318438 -0.019858407 0.10358683 -0.044053964 0.058093626 -0.009292528
0.11725018 -0.011034298 0.002438017 0.01406809 0.025525663 0.10316016 0.037375636 -0.075305566
0.1453469 -0.016565619 0.08307993 0.00673762 -0.056629356 -0.0074001825 0.059516307 -0.1076146
00000000: 24cd 2e3b 9fd1 063d 7b8e 943c 97e8 b13c
00000010: 5a4f 33bc da95 fa3d b433 153d 0075 7ebd
00000020: 85c8 523d 5e26 183d defb dc3c 6f4a 9f3c
00000030: 3da8 d8bc 411d ca3c bc23 91bb 1dd9 333d
00000040: f6af 1bbd b5cb feb9 adfb 92bd 8da6 c1bc
00000050: 40be 3cbd aaca 97bd d5e5 c0bc a2ca 943c
00000060: 5c28 4cbc fb61 383b f1f1 ea3c 5b93 e6bc
00000070: 1a22 92bd 2b1b 03bd 7d58 8cbd 6591 f63d
00000080: 1472 f93a 95dd 923b abd1 17bd 8570 e7bc
00000090: 2316 3ebd 4cb3 893c 0fe0 41bb 9114 f83b
000000a0: 37e0 2a3d d1c1 02bd 26c8 c8ba 19ae a2bc
000000b0: 5525 d43d ee71 34bd 95f3 6d3d b03f 18bc
000000c0: dd20 f03d 33c9 34bc 23c7 1f3b d97d 663c
000000d0: 321b d13c a245 d33d 3217 193d ce39 9abd
000000e0: d1d5 143e 9fb4 87bc cf25 aa3d 41c7 dc3b
000000f0: 2ff4 67bd 3b7d f2bb 5fc7 733d 0b65 dcbd

actor_mean.2.weight f4 [64, 64]
-0.12169933 0.20103838 0.021144884 -0.101747036 -0.2283161 -0.17376694 0.31365818 0.14061344
0.11054396 0.23312984 0.21171604 -0.006274743 -0.17320128 -0.23592417 -0.06156439 -0.12012131
0.056441765 -0.48038346 -0.21635143 0.27747732 0.49428466 0.0032701925 0.056443207 0.017560618
-0.15930027 -0.054720793 -0.07877783 0.052614454 0.014732667 -0.11320178 -0.10974966 0.2470005
0.17397387 0.1889069 -0.02548925 -0.21032083 -0.046405386 -0.26809844 -0.036160305 0.008459158
0.084621586 -0.29979295 -0.14844015 -0.39743313 -0.15862216 -0.23463821 0.06602531 0.13881023
0.08626537 0.07841579 -0.19063416 0.093614146 0.09251842 0.1485355 -0.14629678 0.12853557
-0.23574688 0.25263157 -0.07372004 0.12589933 -0.3977463 -0.47019458 -0.15097712 -0.2824329
0.24767236 -0.27127984 -0.2685242 -0.20516038 0.04944924 0.04738935 -0.29612806 0.09405791
-0.069561884 -0.29691464 0.07698819 0.1140526 -0.039418355 -0.052776374 -0.15215494 0.006331396
0.2773045 0.10988038 0.30438942 0.13050032 0.10659566 -0.07517407 0.37698904 -0.11681235
-0.010147432 0.12434637 -0.20113803 0.04860479 0.09826134 0.2615842 -0.005384924 -0.079515286
-0.06629692 -0.31021485 -0.10699828 0.10809046 0.005352909 0.1567965 -0.062421 0.12739168
0.22146532 0.44220445 -0.14109112 0.073143624 -0.11743654 0.049974535 0.31329507 -0.091785334
-0.017683007 0.2888844 -0.08454489 -0.060676638 0.012948884 0.532639 0.36111832 -0.11715329
0.11033084 0.16829015 0.026512865 -0.020156477 -0.028539151 -0.13679683 0.2571022 -0.1877306
-0.21290155 0.06922984 0.008123252 -0.005311574 -0.03601589 -0.20875113 -0.12719014 -0.049287453
-0.1150691 -0.13649727 0.035449766 -0.42232776 0.17133057 -0.16447616 -0.006565741 0.25312865
-0.058515493 -0.029651921 -0.13112219 -0.0419826 -0.026364245 0.054706607 0.26708096 -0.19889827
0.27589035 -0.11728756 0.006112971 0.02387848 0.059813943 -0.26503068 0.4705131 0.090774365
-0.08901058 0.18178467 0.21808246 0.4578305 0.026837118 0.25699604 0.09380753 0.3166099
0.15473749 0.3032069 0.07630021 -0.10803766 -0.31224096 0.26097697 -0.22009546 -0.09935027
0.021529375 -0.21399699 0.40946335 0.3014587 -0.019365462 0.09906254 -0.098905265 0.06829704
-0.45019525 0.19446868 -0.29531974 0.20664355 0.32638144 -0.08822391 0.2124662 -0.09088024
-0.13260314 -0.122281075 0.10200343 0.11950036 0.009133575 -0.101361595 0.30575442 0.11771904
-0.02860106 0.060716838 -0.3572227 -0.021658711 0.039198812 -0.2043274 -0.025652885 0.18399917
-0.26148885 -0.205832 -0.01664614 0.26430106 -0.18110713 0.20559873 0.210711 -0.0020324592
0.24674405 -0.32591137 -0.29282615 0.04113494 -0.048582863 0.32344475 0.10678415 -0.6285524
0.05862094 0.12867676 0.27239275 0.07216736 0.112459876 0.061641272 -0.085041344 0.19327958
0.10933482 0.15838914 0.24209784 0.04568259 -0.27097553 -0.31383935 -0.08060142 -0.0015376866
0.27002135 0.10306189 -0.25166818 0.12466594 0.1788638 -0.2285288 -0.06576422 0.101613075
0.003883942 0.17797114 -0.06951149 -0.08310894 0.12468316 -0.013110513 -0.21565785 -0.09882792
00000000: 803d f9bd 01dd 4d3e 0938 ad3c c060 d0bd
00000010: b2cb 69be f6ef 31be ce97 a03e f8fc 0f3e
00000020: df64 e23d 97b9 6e3e 17cc 583e 5c9c cdbb
00000030: ad5b 31be 1b96 71be f12a 7cbd 2902 f6bd
00000040: 7b2f 673d d2f4 f5be 3b8b 5dbe 8211 8e3e
00000050: e112 fd3e ba50 563b fe30 673d 49db 8f3c
00000060: 9c1f 23be e922 60bd 4556 a1bd 4182 573d
00000070: 4961 713c 56d6 e7bd 6ec4 e0bd b3ed 7c3e
00000080: 3526 323e cf70 413e d5ce d0bc 585e 57be
00000090: 9313 3ebd 3344 89be d41c 14bd 4898 0a3c
000000a0: 154e ad3d 767e 99be b200 18be 5b7c cbbe
000000b0: d96d 22be 0045 70be 4738 873d 4524 0e3e
000000c0: e6ab b03d 7598 a03d 9a35 43be c6b8 bf3d
000000d0: 4c7a bd3d b119 183e d3ce 15be d49e 033e
000000e0: a167 71be ed58 813e 88fa 96bd c1eb 003e
000000f0: 67a5 cbbe 58bd f0be bf99 1abe 0c9b 90be
00000100: d39d 7d3e 31e5 8abe 017c 89be 9015 52be
00000110: 498b 4a3d 561b 423d 199e 97be 6fa1 c03d
00000120: 7676 8ebd 3205 98be fcab 9d3d 6994 e93d
00000130: 2475 21bd 0a2c 58bd 81ce 1bbe 9977 cf3b
00000140: dbfa 8d3e f708 e13d eed8 9b3e e0a1 053e
00000150: d34e da3d ddf4 99bd b504 c13e 503b efbd
00000160: 6a41 26bc 4fa9 fe3d 21f7 4dbe d115 473d
00000170: 3e3d c93d 5dee 853e 0474 b0bb e9d8 a2bd
00000180: aec6 87bd 7bd4 9ebe ea21 dbbd 885e dd3d
00000190: 7567 af3b 438f 203e 2aad 7fbd f772 023e
000001a0: cec7 623e 9f68 e23e 317a 10be 53cc 953d
000001b0: 9282 f0bd 19b2 4c3d 3668 a03e f3f9 bbbd
000001c0: f4db 90bc a8e8 933e df25 adbd 1188 78bd
000001d0: 8e27 543c 085b 083f 80e4 b83e 10ee efbd
000001e0: 23f5 e13d 4154 2c3e 8231 d93c 321f a5bc
000001f0: f0ca e9bc 7814 0cbe e6a2 833e 733c 40be
00000200: dd02 5abe 60c8 8d3d 6317 053c b60c aebb
00000210: 6685 13bd dbc2 55be 223e 02be a4e1 49bd
00000220: 59a9 ebbd f1c5 0bbe c633 113d 583b d8be
00000230: 4871 2f3e 706c 28be 6d25 d7bb 149a 813e
00000240: f1ad 6fbd 96e8 f2bc e544 06be f2f5 2bbd
00000250: d4f9 d7bc 0914 603d d6be 883e fdab 4bbe
00000260: 8041 8d3e 7634 f0bd 514f c83b cd9c c33c
00000270: 77ff 743d 1ab2 87be 18e7 f03e e9e7 b93d
00000280: 2e4b b6bd c325 3a3e 0251 5f3e c268 ea3e
00000290: 84d9 db3c fc94 833e 2a1e c03d b11a a23e
000002a0: 8173 1e3e ef3d 9b3e 4943 9c3d d942 ddbd
000002b0: 0cde 9fbe c69e 853e b460 61be 2878 cbbd
000002c0: 5f5e b03c 0722 5bbe 2ea5 d13e cb58 9a3e
000002d0: 51a4 9ebc 4de1 ca3d d88e cabd 52df 8b3d
000002e0: fe7f e6be cc22 473e 2634 97be 5e9a 533e
000002f0: 781b a73e bdae b4bd bd90 593e 6b1f babd
00000300: 1ec9 07be 806e fabd 2de7 d03d 9bbc f43d
00000310: fda4 153c ab96 cfbd d88b 9c3e ae16 f13d
00000320: c54c eabc 38b2 783d e5e5 b6be 9c6d b1bc
00000330: ef8e 203d 343b 51be 0026 d2bc 476a 3c3e
00000340: dee1 85be a0c5 52be 7c5d 88bc 7852 873e
00000350: 2674 39be 7988 523e a0c4 573e 0233 05bb
00000360: 79aa 7c3e dbdd a6be 4fed 95be 1c7d 283d
00000370: d3fe 46bd 8d9a a53e a6b1 da3d cfe8 20bf
00000380: 831c 703d d7c3 033e 1077 8b3e 7bcc 933d
00000390: 5d51 e63d 8f7b 7c3d 282a aebd 15eb 453e
000003a0: efea df3d c330 223e 7fe8 773e ab1d 3b3d
000003b0: 4ebd 8abe 8daf a0be 5b12 a5bd 338c c9ba
000003c0: 3d40 8a3e 1d12 d33d a7da 80be db50 ff3d
000003d0: 1228 373e 7403 6abe 64af 86bd 841a d03d
000003e0: bc89 7e3b 113e 363e 0a5c 8ebd 0535 aabd
000003f0: e259 ff3d 7acd 56bc 69d5 5cbe 4b66 cabd

actor_mean.2.bias f4 [64]
0.002700692 0.037742704 -0.0887414 -0.01789878 0.09080163 0.00456696 0.008842251 -0.024211979
0.019680256 -0.07722605 -0.08720341 0.025240695 -0.008151334 -0.06691184 -0.0460757 0.01884739
0.046949446 -0.03956572 0.030654894 -0.07308698 -0.046532944 -0.07632718 0.036070485 0.0818345
-0.04503941 0.01363737 0.044198766 0.013722773 0.05100663 -0.0166154 -0.011223215 0.05792695
0.094428904 0.028856203 0.009082648 -0.028018046 0.014505091 -0.043296162 -0.110647395 0.0005199026
0.042838685 0.014757186 -0.056584224 0.02873474 0.04438881 -0.13201085 0.040308192 0.045647413
0.051576544 0.07404414 -0.015689507 0.05985416 -0.009849919 0.033614762 -0.035178646 0.005656365
0.036418524 -0.1038925 -0.013230254 0.011894409 0.017888568 -0.0022753715 -0.07962886 0.022683747
00000000: 18fe 303b 1898 1a3d 0dbe b5bd 76a0 92bc
00000010: 34f6 b93d 70a6 953b 17df 103c 3358 c6bc
00000020: 7d38 a13c b128 9ebd b497 b2bd 93c5 ce3c
00000030: 2c8d 05bc 1309 89bd e0b9 3cbd d765 9a3c
00000040: 104e 403d aa0f 22bd f91f fb3c a0ae 95bd
00000050: 5499 3ebd 6d51 9cbd a5be 133d d998 a73d
00000060: 3f7b 38bd 476f 5f3c c409 353d 7bd5 603c
00000070: 54ec 503d 051d 88bc 93e1 37bc cf44 6d3d
00000080: f163 c13d d863 ec3c 63cf 143c 1a86 e5bc
00000090: c3a6 6d3c 5157 31bd 1a9b e2bd 134a 083a
000000a0: 9e77 2f3d 20c8 713c dcc4 67bd 1e65 eb3c
000000b0: 0ad1 353d da2d 07be 341a 253d c8f8 3a3d
000000c0: ed41 533d 74a4 973d 4887 80bc a329 753d
000000d0: 8e61 21bc a2af 093d 7c17 10bd 0759 b93b
000000e0: 972b 153d 97c5 d4bd b5c3 58bc c4e0 423c
000000f0: 0c8b 923c 661e 15bb 7514 a3bd 44d3 b93c

actor_mean.4.weight f4 [2, 64]
-0.0752661 0.13155891 0.0508496 -0.07070738 0.10419921 0.086901434 -0.023809506 -0.035077043
0.20287347 -0.018109748 -0.06533056 0.028155647 -0.0095777605 0.04136696 0.11285224 0.013074276
-0.048135784 -0.062470827 -0.05762734 0.03141953 0.09645176 -0.009490995 0.20549369 0.076799676
0.041937057 0.09041807 0.07306566 -0.038702097 -0.018549426 0.008573976 -0.17573948 0.02089356
-0.1352366 -0.026376434 0.13410561 -0.11938901 0.014201578 -0.10121509 -0.11808071 -0.05027599
-0.037791494 -0.018071117 -0.11924012 -0.05752905 -0.056362037 0.08326545 -0.122319594 -0.057222497
0.076764695 0.10683923 0.0014467546 -0.021045562 -0.065259345 0.07437391 -0.078472875 0.14381564
-0.017032942 0.12756881 0.0215557 -0.024932396 0.07729889 0.07965807 -0.08314266 0.086696565
0.13288985 -0.032658115 -0.114054136 -0.055346802 -0.048536006 -0.0067256284 0.06741654 -0.107569836
0.010838129 0.07383756 -0.1097596 0.046781797 -0.10713664 0.117418945 0.061769553 -0.095218964
0.025272857 -0.0020419816 -0.015958095 -0.005237357 0.14106403 -0.119381204 -0.046136986 0.05788141
0.15588473 0.0141896885 -0.014721226 -0.10361819 0.15380523 0.029302476 -0.043867078 -0.10780463
-0.03994737 0.06992503 -0.009955486 0.058732368 0.104178324 -0.124174975 -0.017456533 -0.0310853
-0.10429073 -0.10867751 0.030744739 -0.06781083 -0.11385962 -0.124852784 0.08716392 -0.095679596
0.00878609 0.118276745 -0.05113396 -0.0055984072 0.063130334 0.040218577 -0.028895477 -0.054236
0.11337287 -0.011360711 0.0633157 0.14840277 0.02650796 -0.12140022 -0.0063373083 0.15262301
00000000: 1d25 9abd 61b7 063e ac47 503d 08cf 90bd
00000010: 6566 d53d 61f9 b13d 270c c3bc f2ac 0fbd
00000020: 10be 4f3e e55a 94bc 07cc 85bd aca6 e63c
00000030: 0aec 1cbc 6770 293d 131f e73d 7d35 563c
00000040: 072a 45bd 69e1 7fbd a50a 6cbd c4b1 003d
00000050: 8088 c53d 1e80 1bbc f06c 523e 2649 9d3d
00000060: 31c6 2b3d 1c2d b93d 73a3 953d 1786 1ebd
00000070: f7f4 97bc dd79 0c3c 0df5 33be f928 ab3c
00000080: 777b 0abe 6413 d8bc fb52 093e 3a82 f4bd
00000090: bcad 683c db49 cfbd 4dd4 f1bd 32ee 4dbd
000000a0: 41cb 1abd e109 94bc 2a34 f4bd 95a3 6bbd
000000b0: e1db 66bd 1487 aa3d b282 fabd 2362 6abd
000000c0: cf36 9d3d 87ce da3d 07a1 bd3a be67 acbc
000000d0: b1a6 85bd 5951 983d 63b6 a0bd 6844 133e
000000e0: ab88 8bbc 66a1 023e 9495 b03c 063f ccbc
000000f0: e14e 9e3d c523 a33d b346 aabd f88d b13d
00000100: 4714 083e 84c4 05bd 3795 e9bd 54b3 62bd
00000110: b1cd 46bd a962 dcbb af11 8a3d 934d dcbd
00000120: 6892 313c 2638 973d a4c9 e0bd 459e 3f3d
00000130: 746a dbbd 5879 f03d 1202 7d3d 2902 c3bd
00000140: 0609 cf3c c4d2 05bb 8dba 82bc 239e abbb
00000150: 1773 103e 227e f4bd 23fa 3cbd 0f15 6d3d
00000160: 3fa0 1f3e de7b 683c 4c31 71bc c635 d4bd
00000170: 1e7f 1d3e bf0b f03c f7ad 33bd adc8 dcbd
00000180: da9f 23bd db34 8f3d 561c 23bc 5a91 703d
00000190: 725b d53d 734f febd 0101 8fbc 99a6 febc
000001a0: 6196 d5bd 5092 debd 64dc fb3c 68e0 8abd
000001b0: 3c2f e9bd d1b2 ffbd ff82 b23d aaf3 c3bd
000001c0: 88f3 0f3c 143b f23d d871 51bd d872 b7bb
000001d0: 7a4a 813d 3cbc 243d 35b6 ecbc 9126 5ebd
000001e0: 0930 e83d 4722 3abc a9ab 813d e5f6 173e
000001f0: 3927 d93c aea0 f8bd 32a9 cfbb 3549 1c3e

actor_mean.4.bias f4 [2]
0.026710276 -0.057297
00000000: 82cf da3c 42b0 6abd
