jsbgym/models/train_saves_extVa/ppo_pidrl_capspid_ts1e-2_extendedVa_betacuri_tsteps2e6_1_73907_30-01_21:46:54.pt (torch, 73758 bytes, 14 tensors)

actor_logstd f4 [1, 6]
0.70208687 0.4102172 0.70467013 0.5061701 0.43888623 0.25805506
00000000: f7bb 333f fd07 d23e 4365 343f 5d94 013f
00000010: b2b5 e03e cb1f 843e

conv.0.weight f4 [3, 1, 5, 1]
0.15338844 0.25357497 0.31794024 0.30844638 0.20818108 0.23206273 0.37820736 0.450336
0.42523253 0.29031014 0.17181486 0.2999919 0.40000454 0.41535443 0.28671244
00000000: dc11 1d3e 94d4 813e 10c9 a23e afec 9d3e
00000010: 6c2d 553e daa1 6d3e 65a4 c13e 7192 e63e
00000020: 14b8 d93e 88a3 943e 3cf0 2f3e 8a98 993e
00000030: 65cd cc3e 56a9 d43e f9cb 923e

conv.0.bias f4 [3]
-0.24558634 0.49188003 -0.1399377
00000000: fc7a 7bbe b3d7 fb3e d44b 0fbe

critic.0.weight f4 [64, 60]
-0.031932816 0.07908551 0.38853708 -0.0648842 -0.07771958 -0.09997553 -0.4028065 -0.029097486
0.06586715 0.08221231 -0.012988015 -0.11502683 -0.017423669 -0.22755414 -0.05690008 0.02410919
0.033375565 0.046029367 -0.20834158 -0.07083016 -0.15348053 -0.11598136 0.14892589 0.22340289
0.04381467 0.16494934 -0.07662708 -0.325724 0.027638512 0.012292179 0.044256326 0.09819071
0.0709905 -0.1283019 0.17767502 0.005229549 0.16087703 0.028614013 0.36295474 0.21949197
-0.21271245 -0.027625594 0.5329691 -0.007446536 0.02910539 0.13829029 0.0029164883 0.021868825
-0.07624621 -0.13043253 -0.014123736 0.051023453 -0.027010668 0.11818428 -0.11293373 -0.06128538
-0.17383885 -0.037454206 -0.17552027 -0.0352276 0.2569706 0.15329728 0.14790237 0.24460636
-0.14460532 0.076030806 -0.098252565 -0.28811228 -0.103817016 -0.020183252 0.06750091 -0.27488774
-0.12201406 0.11642035 0.18880865 -0.0036154299 0.040470485 -0.32260546 -0.31041443 0.090466335
-0.019253163 -0.034825373 -0.055254012 0.110628106 0.10106463 0.20877187 0.12665054 -0.25687224
-0.4359904 0.21859205 0.051674023 0.13984922 0.16928516 0.025909947 -0.009060625 -0.024651848
0.073659934 0.0009897295 0.095327 -0.0010616491 0.17467932 -0.18742155 -0.31067044 0.089334555
0.13799429 0.05264267 0.117965885 -0.46269748 -0.1826199 -0.09669619 0.0590782 0.08535087
-0.029827934 -0.1271174 -0.17664382 0.05311173 -0.0765217 0.03388309 -0.2866818 0.032163396
0.6580951 -5.8045927e-05 -0.43524846 0.013758249 0.07788438 -0.004064672 0.12243807 -0.09106981
-0.0059869983 0.025762826 0.07724204 0.10740437 0.11341501 -0.12365005 -0.06583272 0.04421408
-0.08768091 0.13990551 -0.16442287 0.40461588 0.31606802 0.07918568 -0.25764674 0.12353852
-0.076582484 0.04862759 0.38066217 0.21439339 0.011791479 -0.13382237 0.10108216 -0.04863472
-0.050064735 0.10941701 0.027626082 -0.018193338 0.10600443 -0.0853088 0.23858488 0.35043204
0.2747673 -0.18015437 -0.029692726 0.11254226 -0.13094713 0.12147138 -0.103345245 -0.35320255
0.12745006 -0.05380595 0.010567527 -0.033453543 -0.054861866 -0.025766714 -0.029900948 -0.011335148
0.053470947 0.025770117 0.12455816 0.025260894 0.13282683 -0.036975436 0.11610674 -0.17813425
-0.31974936 0.09929152 -0.25270644 0.5114286 0.06516424 -0.11225439 -0.05015119 -0.013572419
0.013459419 0.021854712 -0.03217339 -0.053087678 -0.03504037 0.06312558 0.4833109 -0.055432793
-0.18015234 0.13242376 0.2951633 0.19043264 0.0076363035 -0.14418633 0.42992738 0.53535396
0.23939735 0.1712384 0.047967356 -0.022054689 -0.004312756 0.018489404 0.030965647 0.049782906
0.051261757 0.08302037 0.31693467 -0.14478287 0.34457323 -0.57064545 0.14329466 -0.054442436
0.013232034 -0.021625448 -0.11264375 0.002460298 0.19559069 0.009208063 0.004602456 0.026071407
-0.015669793 -0.004528626 0.021590495 -0.02193821 0.019961758 0.047842488 0.42622828 -0.31385246
-0.061381966 -0.12267201 -0.2597585 0.015301286 -0.030626522 -0.05242489 -0.23816589 -0.123828046
-0.044794977 0.0902307 0.1473803 0.10869375 -0.062673375 0.07826151 0.0695411 -0.032749314
00000000: fccb 02bd 95f7 a13d 55ee c63e 02e2 84bd
00000010: 712b 9fbd f8bf ccbd a73c cebe da5d eebc
00000020: 5be5 863d ed5e a83d afcb 54bc 3093 ebbd
00000030: 15bc 8ebc f403 69be 0f10 69bd a380 c53c
00000040: d1b4 083d 4a89 3c3d 7f57 55be 670f 91bd
00000050: 002a 1dbe a387 edbd 0780 183e bac3 643e
00000060: 0377 333d 7be8 283e a9ee 9cbd 4cc5 a6be
00000070: 296a e23c 2365 493c 1f46 353d 3618 c93d
00000080: 7863 913d 9361 03be 71f0 353e a35c ab3b
00000090: f3bc 243e ef67 ea3c 34d5 b93e 81c2 603e
000000a0: 4bd1 59be 124f e2bc aa70 083f 1202 f4bb
000000b0: 6d6e ee3c f89b 0d3e 8e22 3f3b 4026 b33c
000000c0: f926 9cbd 1b90 05be 3e67 67bc f8fd 503d
000000d0: 7a45 ddbc 9a0a f23d cd49 e7bd 6106 7bbd
000000e0: d002 32be 9569 19bd 96bb 33be d14a 10bd
000000f0: a791 833e f6f9 1c3e b873 173e 177a 7a3e
00000100: 6b13 14be 0ab6 9b3d a438 c9bd 7483 93be
00000110: 049e d4bd 5957 a5bc eb3d 8a3d 16be 8cbe
00000120: 82e2 f9bd cb6d ee3d 0e57 413e d9f0 6cbb
00000130: 61c4 253d 8b2c a5be a4ee 9ebe 6a46 b93d
00000140: cfb8 9dbc 0da5 0ebd 0852 62bd fd90 e23d
00000150: f9fa ce3d 4bc8 553e aeb0 013e c284 83be
00000160: 223a dfbe 98d6 5f3e 24a8 533d a234 0f3e
00000170: 1759 2d3e 1941 d43c 0473 14bc acf2 c9bc
00000180: 05db 963d d0b9 813a cd3a c33d 0827 8bba
00000190: 23df 323e 6feb 3fbe 3210 9fbe 09f5 b63d
000001a0: 604e 0d3e d79f 573d 1998 f13d afe6 ecbe
000001b0: b600 3bbe a708 c6bd fcfb 713d 70cc ae3d
000001c0: b659 f4bc 102b 02be 1ee2 34be af8b 593d
000001d0: 69b7 9cbd ffc8 0a3d f5c7 92be c4bd 033d
000001e0: ec78 283f 5776 73b8 e3d8 debe 476a 613c
000001f0: d981 9f3d f130 85bb d0c0 fa3d cf82 babd
00000200: 952e c4bb 900c d33c 1331 9e3d d3f6 db3d
00000210: 2146 e83d 3d3c fdbd 4ed3 86bd d319 353d
00000220: 0d92 b3bd 6443 0f3e 785e 28be d029 cf3e
00000230: abd3 a13e 1a2c a23d 46ea 83be c301 fd3d
00000240: 47d7 9cbd b92d 473d 27e6 c23e f189 5b3e
00000250: 0c31 413c bb08 09be 2a04 cf3d 3335 47bd
00000260: ae10 4dbd 0616 e03d 1850 e23c 320a 95bc
00000270: da18 d93d 61b6 aebd 984f 743e d46b b33e
00000280: 4dae 8c3e 637a 38be 293e f3bc 8e7c e63d
00000290: 0117 06be fdc5 f83d aca6 d3bd f7d6 b4be
000002a0: 4582 023e a163 5cbd 6c23 2d3c 9506 09bd
000002b0: d6b6 60bd b714 d3bc d5f2 f4bc 0eb7 39bc
000002c0: 5a04 5b3d da1b d33c 5918 ff3d efef ce3c
000002d0: c203 083e 8e73 17bd 5fc9 ed3d d368 36be
000002e0: 30b6 a3be 5a59 cb3d bd62 81be fcec 023f
000002f0: d474 853d a1e5 e5bd 566b 4dbd da5e 5ebc
00000300: e584 5c3c a708 b33c 3fc8 03bd 7772 59bd
00000310: 7e86 0fbd fc47 813d 8774 f73e 7f0d 63bd
00000320: db79 38be 189a 073e a51f 973e c600 433e
00000330: f539 fa3b 95a5 13be 711f dc3e f50c 093f
00000340: 9424 753e 1e59 2f3e 6b79 443d 09ac b4bc
00000350: 0552 8dbb 1777 973c abab fd3c 29e9 4b3d
00000360: d9f7 513d 9506 aa3d 4345 a23e f641 14be
00000370: e76b b03e d215 12bf d6bb 123e 08ff 5ebd
00000380: 2ccb 583c da27 b1bc c4b1 e6bd f33c 213b
00000390: ed48 483e 6add 163c 33d0 963b b493 d53c
000003a0: f05d 80bc de64 94bb 8dde b03c c3b7 b3bc
000003b0: d786 a33c 7cf6 433d 983a da3e 45b1 a0be
000003c0: a86b 7bbd 763b fbbd 11ff 84be 3fb2 7a3c
000003d0: 79e4 fabc 7bbb 56bd c2e1 73be 8f99 fdbd
000003e0: f07a 37bd e0ca b83d ddea 163e d49a de3d
000003f0: e65a 80bd 9247 a03d 906b 8e3d 2524 06bd

critic.0.bias f4 [64]
0.16910324 -0.01677215 -0.0574209 0.09505558 -0.1556137 -0.086976446 -0.19468915 0.050253626
0.04404372 -0.030872688 -0.03305784 -0.082379945 0.08162912 -0.06661063 0.034631606 -0.003855059
0.07302631 -0.146431 0.059066854 0.10480436 -0.07440895 -0.0017249172 0.0060198545 -0.12997492
0.0685428 0.021580582 -0.042595156 -0.061878853 0.1329107 0.035937473 -0.013151915 0.040735606
-0.03534104 0.0066331704 -0.02047864 0.10678472 -0.0085542 -0.014077145 0.006563586 0.06569581
-0.059749886 -0.12764336 -0.11965477 -0.09430842 -0.051160283 -0.025497615 -0.029013105 0.03699248
0.06930995 0.06916295 0.07555835 -0.11798372 0.055640645 0.007486083 -0.13925798 0.12350216
0.16138987 -0.04714831 0.030408645 0.045756664 -0.11809987 0.02910053 -0.16232793 -0.03719051
00000000: 6629 2d3e bf65 89bc 2d32 6bbd 80ac c23d
00000010: 3359 1fbe b520 b2bd 985c 47be bfd6 4d3d
00000020: 3067 343d b8e8 fcbc a867 07bd d1b6 a8bd
00000030: 2b2d a73d 276b 88bd dfd9 0d3d 28a5 7cbb
00000040: d18e 953d 02f2 15be 16f0 713d aba3 d63d
00000050: b863 98bd 9e16 e2ba 3342 c53b 2518 05be
00000060: 2b60 8c3d c3c9 b03c 4278 2ebd ae74 7dbd
00000070: be19 083e 2c33 133d 217b 57bc 61da 263d
00000080: c4c1 10bd 115b d93b d2c2 a7bc f3b1 da3d
00000090: ea26 0cbc d3a3 66bc 5a13 d73b 868b 863d
000000a0: 4cbc 74bd f1b4 02be 8f0d f5bd c624 c1bd
000000b0: 728d 51bd 60e0 d0bc e4ac edbc 6d85 173d
000000c0: 60f2 8d3d 4ea5 8d3d 56be 9a3d 73a1 f1bd
000000d0: 72e7 633d d14d f53b a599 0ebe b3ee fc3d
000000e0: 6343 253e 961e 41bd 8d1b f93c 576b 3b3d
000000f0: 58de f1bd 3c64 ee3c 4b39 26be 1455 18bd

critic.2.weight f4 [64, 64]
0.29927683 0.22488986 0.03038726 0.107438155 -0.18317653 -0.01827407 -0.005506401 0.14121026
-0.09938865 0.08535846 0.33130363 0.08673314 0.064088516 0.015286283 -0.044665825 0.06707509
0.049713437 0.064480826 0.06934968 0.08894384 0.16517323 0.33554995 -0.14853333 0.3582215
-0.11956685 -0.1107855 -0.06384677 -0.06911924 -0.24492426 0.10711921 -0.3043609 -0.22688778
-0.062728144 0.19946817 0.18395351 -0.16142522 0.19229539 0.42465574 -0.13677849 0.1846127
0.39903688 -0.23685859 -0.011952379 0.16272813 0.13260792 -0.06706234 -0.044202026 0.032750946
-0.24774332 0.08807291 -0.045797486 -0.2498272 0.24885711 -0.2212384 0.035553377 -0.33644453
0.045610353 0.11260482 -0.30856255 0.24994265 0.19805197 -0.006210527 0.013472502 -0.32329962
-0.07752696 -0.087254815 -0.26012343 -0.43942177 0.12649277 -0.51660204 0.07566706 0.1487833
-0.30810973 0.37396285 0.088892825 -0.105152935 0.20293279 0.24054886 0.3286454 -0.19855528
0.35938266 -0.14762126 0.042641252 0.08191452 -0.0713106 0.38182893 -0.0901327 -0.23158367
-0.1111 -0.10584421 0.08750279 -0.27216727 -0.029132767 0.02941434 0.29461995 0.051800016
0.10658646 -0.1468104 0.11108607 0.029197024 -0.15973563 0.14768133 -0.4052751 0.036871213
0.15482517 -0.3481415 -0.23308755 0.33792427 0.5700196 0.1691877 -0.3062374 0.06962889
0.36117265 0.20835672 0.09233937 0.19088355 -0.046000566 -0.22247623 -0.09903311 0.023801751
-0.072456025 0.0066972664 -0.3145556 0.1892183 0.29603204 0.168939 0.10993332 0.026531246
-0.019927418 -0.28864384 -0.26656544 0.40627202 0.30845013 0.21821076 -0.196412 0.13347448
-0.04399727 -0.20624612 0.4508203 -0.09407926 -0.0452077 0.13796556 0.054024637 0.20118877
0.298804 -0.18369159 0.13884673 0.088037655 0.013507394 -0.18612763 0.24235177 -0.23678237
-0.18804996 0.098414525 0.025473766 0.07188063 -0.14339174 0.05662805 -0.09866834 -0.06282257
0.15986085 -0.31053865 -0.1557566 -0.012358828 -0.045592926 -0.25915825 0.073548295 0.20593691
0.17577882 -0.11745798 -0.0046736994 -0.08407927 -0.17893754 -0.028244933 0.1759766 -0.38645226
0.11364541 0.26952904 -0.18769334 -0.23497029 0.23897849 -0.11554343 0.12703744 -0.057664856
-0.21963769 0.104567386 -0.3320342 0.12017542 0.05343111 -0.114083804 0.19008023 -0.09582499
-0.09373081 -0.079159 0.23211208 0.21268183 0.123294234 0.01428525 0.38954297 -0.30275646
0.08260615 0.07731818 0.103524566 0.1253601 0.121373974 -0.042823937 -0.13577089 0.136687
-0.40549257 -0.08840152 -0.46285185 -0.2527487 -0.053946998 -0.098535925 -0.51190776 -0.0037940824
-0.039238375 -0.038178544 -0.11453474 0.19725336 -0.04029304 0.13345732 0.21410674 -0.025848173
0.081444666 -0.2448445 0.051389974 -0.18277189 -0.32187378 -0.05929565 0.17400347 0.064383216
0.11238754 0.18495879 0.0033991958 0.20371413 0.31069145 -0.17885901 0.00689701 -0.047956824
-0.16359039 -0.043220837 -0.24403436 0.1083827 0.050383814 0.23694336 -0.076226704 -0.1494286
0.14939113 0.055248197 -0.04886978 -0.15844747 0.20819321 -0.0971455 0.0072115054 -0.05405055
00000000: d03a 993e 8749 663e b4ee f83c 8908 dc3d
00000010: a192 3bbe 81b3 95bc 0a6f b4bb 6c99 103e
00000020: 478c cbbd 6bd0 ae3d a1a0 a93e 25a1 b13d
00000030: d740 833d 5173 7a3c 83f3 36bd aa5e 893d
00000040: 51a0 4b3d 860e 843d 3407 8e3d 3028 b63d
00000050: 2c23 293e 34cd ab3e 1f19 18be cf68 b73e
00000060: 77df f4bd 82e3 e2bd 18c2 82bd 638e 8dbd
00000070: 6dcd 7abe 5161 db3d 31d5 9bbe 4555 68be
00000080: 9d77 80bd 6241 4c3e 4f5e 3c3e a74c 25be
00000090: 15e9 443e 7a6c d93e a90f 0cbe 1d0b 3d3e
000000a0: 904e cc3e 0f8b 72be e9d3 43bc 34a2 263e
000000b0: 5fca 073e fb57 89bd 2f0d 35bd db25 063d
000000c0: 6db0 7dbe 925f b43d 2596 3bbd b4d2 7fbe
000000d0: 66d4 7e3e 528c 62be 6ba0 113d 7542 acbe
000000e0: ecd1 3a3d 5b9d e63d e9fb 9dbe f7f0 7f3e
000000f0: 23ce 4a3e ad81 cbbb c5bb 5c3c 8787 a5be
00000100: 74c6 9ebd a7b2 b2bd e62e 85be e4fb e0be
00000110: 5287 013e 0840 04bf 55f7 9a3d a65a 183e
00000120: 8fc0 9dbe 0f78 bf3e 710d b63d 6c5a d7bd
00000130: 9dcd 4f3e 7152 763e 3644 a83e 1352 4bbe
00000140: 0101 b83e 072a 17be 98a8 2e3d cdc2 a73d
00000150: 4b0b 92bd 157f c33e 7e97 b8bd 4524 6dbe
00000160: 6688 e3bd d9c4 d8bd aa34 b33d 8259 8bbe
00000170: d7a7 eebc 58f6 f03c 6dd8 963e 412c 543d
00000180: 004a da3d 7755 16be 1881 e33d 992e ef3c
00000190: bd91 23be c639 173e 3880 cfbe 4506 173d
000001a0: 7d8a 1e3e 9a3f b2be 81ae 6ebe 6904 ad3e
000001b0: ceec 113f 8a3f 2d3e 26cb 9cbe 9799 8e3d
000001c0: 9feb b83e 775b 553e 6c1c bd3d fa76 433e
000001d0: 176b 3cbd cfd0 63be dfd1 cabd e4fb c23c
000001e0: d363 94bd be74 db3b 6e0d a1be 71c2 413e
000001f0: 8391 973e 58fe 2c3e b824 e13d 0e58 d93c
00000200: d33e a3bc 20c9 93be 447b 88be e302 d03e
00000210: 2ded 9d3e a472 5f3e 3a20 49be 89ad 083e
00000220: 7b36 34bd 2f32 53be ebd1 e63e a1ac c0bd
00000230: b62b 39bd d846 0d3e f048 5d3d 6e04 4e3e
00000240: d6fc 983e a619 3cbe d62d 0e3e 164d b43d
00000250: 1e4e 5d3c 3e98 3ebe 102b 783e 1477 72be
00000260: 2b90 40be 8e8d c93d 5cae d03c 2736 933d
00000270: 49d5 12be d0f2 673d a012 cabd 1fa9 80bd
00000280: 90b2 233e ecfe 9ebe a87e 1fbe af7c 4abc
00000290: a6bf 3abd 64b0 84be 7da0 963d 20e1 523e
000002a0: 5dff 333e cf8d f0bd d525 99bb c131 acbd
000002b0: 673b 37be eb61 e7bc 3633 343e 12dd c5be
000002c0: edbe e83d b6ff 893e af32 40be 0d9c 70be
000002d0: c7b6 743e 09a2 ecbd 1a16 023e fc31 6cbd
000002e0: b4e8 60be 6d27 d63d 6300 aabe 881e f63d
000002f0: 94da 5a3d c5a4 e9bd 64a4 423e e43f c4bd
00000300: f0f5 bfbd 1d1e a2bd caae 6d3e 44c9 593e
00000310: b081 fc3d ae0c 6a3c 2d72 c73e e502 9bbe
00000320: 6a2d a93d fe58 9e3d b004 d43d 665e 003e
00000330: eb92 f83d 2768 2fbd 8607 0bbe adf7 0b3e
00000340: b99c cfbe db0b b5bd ebfa ecbe 4768 81be
00000350: 87f7 5cbd 34cd c9bd 630c 03bf 24a6 78bb
00000360: 6bb8 20bd 1b61 1cbd 3191 eabd c9fc 493e
00000370: 510a 25bd 09a9 083e cc3e 5b3e 8cbf d3bc
00000380: 76cc a63d 84b8 7abe 4b7e 523d 8e28 3bbe
00000390: a4cc a4be ffdf 72bd f72d 323e 59db 833d
000003a0: 702b e63d d665 3d3e 0bc5 5e3b 709a 503e
000003b0: f312 9f3e d126 37be 5000 e23b 606e 44bd
000003c0: 3d84 27be 5508 31bd 25e4 79be c0f7 dd3d
000003d0: 425f 4e3d 48a1 723e bf1c 9cbd d003 19be
000003e0: fdf9 183e ef4b 623d ae2b 48bd 0e40 22be
000003f0: 9a30 553e 38f4 c6bd 7e4e ec3b 1c64 5dbd

critic.2.bias f4 [64]
-0.09102924 -0.080633946 -0.050023023 -0.15669598 0.10148444 -0.13800682 -0.13149145 -0.061723292
0.115636654 0.11503144 0.08161511 -0.19701996 0.048394177 0.08979564 -0.0905874 -0.06394324
-0.05081464 -0.14551751 -0.0916109 0.12237612 -0.0514471 0.051669195 0.11869233 -0.06920426
-0.06470962 -0.12861945 0.1222653 0.11214951 -0.108350545 -0.028668042 -0.12096848 0.12340496
-0.063022554 0.08755859 -0.15720822 0.095160216 -0.07655017 -0.01718527 -0.06677715 0.17957021
-0.16768436 -0.09912573 0.1126063 0.09719451 -0.07452289 -0.066174984 0.12429816 0.10010062
-0.05874031 -0.006597877 0.11016487 0.006712711 0.084577754 -0.19379513 0.036055204 0.052696515
0.14108147 -0.1533659 -0.12712112 0.077351876 0.10230373 -0.049984917 0.17884946 0.15355654
00000000: 8a6d babd 6923 a5bd f1e4 4cbd e974 20be
00000010: 13d7 cf3d a951 0dbe b2a5 06be 90d1 7cbd
00000020: e9d2 ec3d 9b95 eb3d d325 a73d 9abf 49be
00000030: f938 463d c7e6 b73d e385 b9bd acf4 82bd
00000040: 0323 50bd 8b02 15be 7f9e bbbd 55a0 fa3d
00000050: 32ba 52bd 14a3 533d f714 f33d f7ba 8dbd
00000060: 7a86 84bd d1b4 03be 3b66 fa3d a4ae e53d
00000070: e4e6 ddbd 3ed9 eabc 53be f7bd bdbb fc3d
00000080: f811 81bd eb51 b33d 31fb 20be 5ce3 c23d
00000090: 56c6 9cbd 20c8 8cbc 75c2 88bd 41e1 373e
000000a0: 73b5 2bbe 6e02 cbbd 229e e63d ea0d c73d
000000b0: 759f 98bd c086 87bd 0990 fe3d 8e01 cd3d
000000c0: ae99 70bd 0133 d8bb 1f9e e13d 4df6 db3b
000000d0: 1a37 ad3d 3b72 46be 9fae 133d 4dd8 573d
000000e0: a977 103e f30b 1dbe 0a2c 02be a96a 9e3d
000000f0: 9e84 d13d fcbc 4cbd 5024 373e ed3d 1d3e

critic.4.weight f4 [1, 64]
0.09561344 0.41417658 0.13781652 0.1313926 -0.084164396 0.110084884 0.33507022 0.16673529
-0.1781484 -0.11383124 -0.15210691 0.11950653 0.08419523 -0.17180443 0.0353304 0.13350858
-0.017489174 0.26697716 0.0925538 -0.22720027 0.0021041397 -0.19771224 -0.19142126 0.1220726
0.0983873 0.16505611 -0.084794976 -0.1424423 0.16003567 0.08667667 0.10010962 -0.13986774
0.3289873 -0.17384453 0.0987315 -0.2824097 0.12601703 -0.04270623 0.09538272 -0.15463233
0.109450884 0.04182905 -0.09794815 -0.28914818 0.068505265 0.14700925 -0.178806 -0.25775978
0.3457299 0.031712893 -0.22893661 -0.033073638 -0.13768916 0.1800805 -0.29659215 0.03860335
-0.073698536 0.18958263 0.17084032 -0.17076555 -0.2723263 0.20438686 -0.1005261 -0.11590374
00000000: fbd0 c33d f40e d43e c61f 0d3e c88b 063e
00000010: 625e acbd 2f74 e13d 538e ab3e a8bc 2a3e
00000020: 896c 36be 5a20 e9bd eac1 1bbe d7bf f43d
00000030: 8c6e ac3d 80ed 2fbe 9cb6 103d 79b6 083e
00000040: 7545 8fbc 3bb1 883e d98c bd3d 30a7 68be
00000050: 9be5 093b 1475 4abe ef03 44be 3301 fa3d
00000060: 487f c93d 7804 293e fda8 adbd 65dc 11be
00000070: 64e0 233e 8a83 b13d 4606 cd3d 7d39 0fbe
00000080: 0671 a83e 4d04 32be be33 ca3d 0198 90be
00000090: 9c0a 013e baec 2ebd 0458 c33d f057 1ebe
000000a0: c927 e03d f054 2b3d 0a99 c8bd 3b0b 94be
000000b0: 7d4c 8c3d 9889 163e ec18 37be 17f9 83be
000000c0: 8203 b13e 61e5 013d 5c6e 6abe 3978 07bd
000000d0: 63fe 0cbe 0667 383e edda 97be 8c1e 1e3d
000000e0: 42ef 96bd f321 423e c4f0 2e3e 2add 2ebe
000000f0: 5a6e 8bbe ca4a 513e a1e0 cdbd f15e edbd

actor_mean.0.weight f4 [64, 60]
0.12970166 0.06362027 0.0023097056 -0.051907297 -0.00421245 0.22198065 -0.17314892 0.026320502
-0.015080484 0.3651259 -0.0076324367 -0.028772572 0.00996459 0.16240753 -0.18560313 -0.1431474
0.014788687 0.43490425 0.08372367 -0.068756506 0.0056857574 0.22784178 0.051626675 0.16931991
0.022996228 -0.113821484 -0.1712116 -0.381032 0.2813619 -0.021700596 0.11245336 -0.00075570727
-0.020167662 -0.12990268 -0.06943563 -0.040724378 -0.24639261 -0.020730136 -0.12490069 0.07191513
0.46055 0.16221087 0.37868348 -0.04414981 -0.379251 0.15310542 -0.36980906 -0.113033615
0.22758736 -0.024378303 0.16702673 -0.07680144 -0.17631288 0.06837582 -0.19348545 0.04832097
0.12086318 -0.11333001 -0.19123112 -0.0948682 0.20292677 -0.16109642 -0.27263713 0.33365858
-0.047721613 -0.19150388 0.117203645 0.023836862 0.25997084 0.15343131 -0.21699922 -0.3204835
0.2877323 0.09093862 -0.23595966 -0.03537769 0.30422455 0.0627543 0.10909539 0.04645028
-0.007077446 0.12722026 -0.22979848 -0.15638337 -0.16860119 0.11264398 0.065978914 -0.0032518762
-0.1608581 0.24450414 0.021535559 -0.18142687 -0.037662763 0.04345995 -0.16677235 0.059341054
-0.117902726 -0.15075794 -0.32977 -0.05723079 0.17598563 0.26040035 -0.20325477 -0.041928627
0.032446686 0.048354894 0.23608829 0.24458456 -0.2784113 -0.047737535 -0.11653914 -0.047426883
-0.075616695 -0.14824478 -0.10318942 -0.16129872 0.05441293 -0.22404794 -0.040377803 0.4077244
0.045315776 0.2295028 -0.03034619 0.13321856 0.2185425 0.12993315 0.4514028 0.6865049
0.15307261 0.3648556 -0.033473376 -0.005482863 0.057853766 0.10204953 0.08683231 -0.24713422
-0.07519456 -0.33064693 0.3747249 0.12082064 0.0603668 -0.15189604 -0.05593332 -0.03462861
0.044566665 0.10108141 0.30348587 0.23756072 -0.12613088 -0.22589912 0.17420402 -0.01397435
0.0011910214 -0.08881664 -0.029181913 0.17022052 -0.020548284 -0.11061402 0.1942464 0.1246778
0.0912303 -0.27386394 0.07062979 0.06812932 0.12500583 -0.13684565 0.2627969 0.23835301
0.115473725 0.30065158 -0.15453355 0.037197113 -0.08083488 0.1579481 0.07017997 0.1032763
0.055469256 0.08919089 0.46071723 0.2353972 -0.009030729 0.36943832 -0.048552636 0.05955073
0.16317059 0.092938736 0.03902669 -0.60979664 0.2292515 -0.5232248 -0.040244687 0.2540603
0.05949919 0.009167637 -0.115845844 -0.042201187 0.16562872 -0.012739259 -0.12606017 0.13383394
-0.004140684 0.5291442 0.17134605 -0.08279849 -0.23388812 -0.11229057 0.11449412 -0.40153494
0.077023774 -0.32970715 0.0012490228 -0.024363155 -0.028909948 -0.05273638 -0.031622093 -0.06949291
-0.17541943 0.0132808685 -0.26707375 0.10267327 -0.2592551 0.31978473 -0.056355968 0.054019865
0.101763085 -0.075250335 0.14656475 -0.9493202 0.25805923 0.2400611 0.032960497 -0.026490951
-0.028374253 0.11225593 0.020402757 0.00796361 0.056532286 -0.02168189 -0.06321106 0.08107087
-0.43775252 0.16246006 -0.12852943 -0.113530695 0.35547763 0.25730732 -0.052218664 -0.045486845
-0.2152855 0.15351637 0.06809265 0.015734082 -0.064854845 0.048511736 -0.1008988 -0.14994587
00000000: 83d0 043e 584b 823d 6e5e 173b bf9c 54bd
00000010: 9708 8abb e54e 633e f34d 31be 189e d73c
00000020: 2214 77bc c8f1 ba3e 8519 fabb 75b4 ebbc
00000030: 8542 233c 294e 263e bf0e 3ebe 3b95 12be
00000040: 404c 723c c5ab de3e 5177 ab3d 36d0 8cbd
00000050: 974f ba3b 5b4f 693e 7e76 533d 3362 2d3e
00000060: 9662 bc3c 3d1b e9bd 1852 2fbe a016 c3be
00000070: ab0e 903e 73c5 b1bc f24d e63d a81a 46ba
00000080: a736 a5bc 3505 05be 4534 8ebd 9bce 26bd
00000090: 584e 7cbe 3fd2 a9bc efcb ffbd 3d48 933d
000000a0: 36cd eb3e 9b1a 263e cde2 c13e 6ed6 34bd
000000b0: 302d c2be abc7 1c3e 9d57 bdbe 2b7e e7bd
000000c0: a90c 693e 02b5 c7bc 0e09 2b3e 134a 9dbd
000000d0: 5d8b 34be 9f08 8c3d 0d21 46be 36ec 453d
000000e0: 1d87 f73d 9019 e8bd 17d2 43be 424a c2bd
000000f0: 09cc 4f3e 76f6 24be 1897 8bbe 4cd5 aa3e
00000100: bd77 43bd 9819 44be 7708 f03d 8645 c33c
00000110: e61a 853e 191d 1d3e 0b35 5ebe 6a16 a4be
00000120: a651 933e 073e ba3d 699f 71be 32e8 10bd
00000130: 52c3 9b3e 5485 803d 676d df3d a642 3e3d
00000140: ece9 e7bb 0746 023e 4b50 6bbe f622 20be
00000150: caa5 2cbe e3b1 e63d f41f 873d 6e1d 55bb
00000160: fcb7 24be 4b5f 7a3e 576b b03c f7c7 39be
00000170: 4544 1abd 0f03 323d 5fc6 2abe 9b0f 733d
00000180: fc76 f1bd 4a60 1abe 9dd7 a8be d56a 6abd
00000190: 9435 343e 3253 853e 0522 50be 5abd 2bbd
000001a0: d1e6 043d c80f 463d 21c1 713e 6074 7a3e
000001b0: ed8b 8ebe 6f88 43bd 13ac eebd b142 42bd
000001c0: eddc 9abd 7bcd 17be fa54 d3bd 7e2b 25be
000001d0: 18e0 5e3d d36c 65be 3263 25bd 41c1 d03e
000001e0: 099d 393d c802 6b3e 9398 f8bc 726a 083e
000001f0: 9bc9 5f3e 320d 053e 451e e73e c9be 2f3f
00000200: 11bf 1c3e 5ace ba3e 611b 09bd 97a9 b3bb
00000210: 12f8 6c3d 58ff d03d 23d5 b13d c110 7dbe
00000220: 9bff 99bd 8e4a a9be f1db bf3e d070 f73d
00000230: 2d43 773d a38a 1bbe 561a 65bd bbd6 0dbd
00000240: 898b 363d c503 cf3d 8062 9b3e 1e43 733e
00000250: 7428 01be 1952 67be 8a62 323e acf4 64bc
00000260: 0c1c 9c3a 80e5 b5bd e80e efbc 4a4e 2e3e
00000270: e054 a8bc 9a89 e2bd 87e8 463e 1357 ff3d
00000280: f4d6 ba3d e537 8cbe 5aa6 903d 6387 8b3d
00000290: 8701 003e 4421 0cbe 518d 863e d012 743e
000002a0: 7d7d ec3d 01ef 993e 0b3e 1ebe 005c 183d
000002b0: c28c a5bd 26bd 213e 84ba 8f3d 8682 d33d
000002c0: bb33 633d b7a9 b63d 21e3 eb3e f70b 713e
000002d0: 9ff5 13bc 0527 bd3e 21df 46bd 77eb 733d
000002e0: 3116 273e aa56 be3d 73da 1f3d a21b 1cbf
000002f0: e8c0 6a3e 0ff2 05bf 9dd7 24bd 3114 823e
00000300: 6cb5 733d db33 163c 9640 edbd 27db 2cbd
00000310: 939a 293e 53b8 50bc eb15 01be c40b 093e
00000320: 93ae 87bb ff75 073f 5775 2f3e 4192 a9bd
00000330: 5e80 6fbe 99f8 e5bd e57b ea3d fd95 cdbe
00000340: a4be 9d3d 60cf a8be 40b6 a33a 3d95 c7bc
00000350: 8ed4 ecbc 1a02 58bd 2b86 01bd 4c52 8ebd
00000360: 27a1 33be 0098 593c e4bd 88be 5d46 d23d
00000370: 16bd 84be d3ba a33e 84d5 66bd ef43 5d3d
00000380: 2a69 d03d d91c 9abd 1215 163e a606 73bf
00000390: 5720 843e 94d2 753e 9601 073d 8d03 d9bc
000003a0: 1f71 e8bc 70e6 e53d af23 a73c cd79 023c
000003b0: 668e 673d 389e b1bc cd74 81bd 7c08 a63d
000003c0: 1921 e0be ee5b 263e 389d 03be c882 e8bd
000003d0: 2a01 b63e c9bd 833e 3de3 55bd 6a50 3abd
000003e0: cd73 5cbe 6533 1d3e 2974 8b3d c3e4 803c
000003f0: 9ed2 84bd 3eb4 463d 08a4 cebd 698b 19be

actor_mean.0.bias f4 [64]
0.029505538 -0.11598469 -0.03237197 -0.0065652956 0.0365856 0.09698233 -0.054955255 -0.06181937
-0.01402561 0.06556566 -0.02892555 0.060757488 -0.049653694 0.05365148 0.046651196 -0.012923765
0.025706317 -0.10159108 -0.030655237 0.03140856 0.0021656519 -0.043809257 0.07861465 0.0019502355
0.08486866 0.07677378 -0.057356194 -0.097404666 0.07812655 -0.017961282 0.18877743 0.032246813
-0.03135235 0.011641545 -0.00017730123 -0.009161974 -0.049425185 -0.028298784 0.035495304 -0.054312468
0.022783352 -0.0051809 -0.085699566 0.10573459 -0.09955146 -0.01866286 -0.059647053 -0.07261167
0.0462285 0.09131962 -0.04392395 -0.00033587049 -0.06283793 -0.022443855 -0.1487579 -0.07208948
0.07981683 0.034758523 -0.0068783215 0.026382266 0.053574365 0.10294634 0.055354405 0.010345268
00000000: 99b5 f13c 6289 edbd 7998 04bd b121 d7bb
00000010: c8da 153d ac9e c63d c318 61bd 4f36 7dbd
00000020: accb 65bc 4a47 863d 46f5 ecbc d8dc 783d
00000030: ac61 4bbd a7c1 5b3d 5315 3f3d 33be 53bc
00000040: 0e96 d23c fc0e d0bd b120 fbbc 43a6 003d
00000050: 9ced 0d3b 5671 33bd b800 a13d 0b9f ff3a
00000060: 9fcf ad3d 923b 9d3d 54ee 6abd 197c c7bd
00000070: d000 a03d 8a23 93bc df4e 413e 3c15 043d
00000080: 526b 00bd 2ebc 3e3c f0e9 39b9 1b1c 16bc
00000090: 1072 4abd dad2 e7bc 8663 113d c076 5ebd
000000a0: 27a4 ba3c 8ac4 a9bb 4183 afbd 608b d83d
000000b0: a3e1 cbbd dbe2 98bc 7850 74bd 6db5 94bd
000000c0: 185a 3d3d c805 bb3d 9ae9 33bd c617 b0b9
000000d0: 2cb1 80bd 2ddc b7bc fe53 18be a6a3 93bd
000000e0: 0277 a33d f45e 0e3d 8b63 e1bb 9f1f d83c
000000f0: cb70 5b3d 88d5 d23d 4dbb 623d 337f 293c

actor_mean.2.weight f4 [64, 64]
-0.041438475 0.2714733 0.2222597 -0.2906744 -0.19516435 -0.20946395 -0.010664172 0.30779308
-0.26175547 -0.13916549 -0.12538084 -0.19812928 -0.07739814 0.09639388 -0.27209404 0.12655814
-0.3047378 -0.066429585 0.044625808 -0.23003507 -0.057901353 0.12912568 -0.117601596 -0.059555802
0.2895023 0.17824872 -0.05071194 -0.04583238 0.17366388 0.09544232 0.24188589 -0.080437034
0.42248195 -0.029724216 0.23317799 -0.044004913 0.22133778 0.03028498 0.2041085 -0.025432615
-0.3128429 -0.36539114 -0.19421147 -0.22896 0.06308253 0.31074736 -0.17894371 0.051352292
-0.16966633 0.38841197 -0.12536319 -0.524856 -0.1444123 0.0029365406 0.090553045 0.0078270435
-0.29026833 0.06737649 -0.32143608 -0.20057252 -0.19848764 -0.0016423546 -0.051632255 0.3953105
0.3299895 0.30011874 0.14735048 -0.14963976 -0.15211804 -0.2977715 -0.2740748 -0.29919848
-0.07619335 -0.2021392 0.2113448 -0.07827915 -0.09055861 -0.043827053 0.041638784 0.012908636
-0.08716107 -0.099265665 -0.043284092 0.07801045 -0.20407662 0.023144353 0.15240544 0.1977333
0.15766747 0.067796886 0.06035071 0.091878764 -0.13588578 0.07336517 -0.051953398 0.084380634
0.029483557 0.31146926 0.19107242 0.044421885 -0.40560186 0.41521892 0.04868639 0.17280744
-0.09115242 -0.11941304 -0.0753935 0.15081662 -0.23363814 -0.17525297 -0.07639896 -0.17093538
0.032276157 0.04157692 -0.29776186 -0.024073208 0.088292435 0.21518518 -0.34186774 -0.3814363
0.03312939 -0.19224182 -0.093108095 0.16094576 0.28079385 0.071902424 0.013780309 -0.08879711
0.14628553 -0.14156677 -0.05041315 0.22578003 0.24695915 0.010409412 0.15041962 -0.37035185
-0.18967777 0.050754268 0.24578223 -0.16281517 0.3473254 -0.004978492 0.25356504 0.14748822
0.088204674 0.27433276 0.17655225 -0.11140926 0.2099152 -0.19437227 -0.34604833 0.058389343
-0.082523294 0.24636574 -0.19950397 0.17508265 0.1183622 0.3797782 -0.26041257 0.39467818
-0.039659638 -0.27764145 -0.19691019 0.0706053 0.16759692 0.21029992 0.11064613 0.10010466
-0.10142442 -0.078577295 -0.22116992 0.23117338 0.24992822 0.13454536 -0.013199206 -0.05501086
-0.22159834 -0.043876488 0.22926277 -0.19425292 -0.1410919 0.03013725 -0.0010939315 0.31661776
-0.18799528 0.061794806 -0.49034593 -0.34019783 0.06715736 0.013993748 0.09245966 -0.22978905
-0.00924297 -0.16362283 -0.66572946 0.08949843 0.1335815 -0.04302198 -0.16140269 -0.17105657
-0.10230353 -0.28468537 -0.30421266 -0.21992119 0.09631368 -0.02985382 0.080404975 -0.19824907
0.24968348 -0.44407064 0.14715539 -0.026718354 0.07283774 0.048731223 0.07480619 0.14911316
0.10618313 -0.1609641 -0.14046751 -0.008709792 0.29495436 -0.032082193 0.20297049 0.07602776
0.09767624 -0.34321457 -0.09626097 -0.09911104 -0.051333617 -0.2123057 -0.14003195 0.1647092
0.11009167 -0.14033419 0.054358706 0.16848978 0.16778208 -0.022023104 0.15263022 -0.094190225
0.0577315 0.0901946 0.23327655 -0.031382393 0.3013717 0.26165527 -0.21960197 -0.33655554
-0.018665403 0.05615204 0.02906279 -0.08880812 -0.016039524 0.023920465 -0.058367305 -0.16408457
00000000: 64bb 29bd 8cfe 8a3e 0c98 633e 46d3 94be
00000010: 2ad9 47be b87d 56be c7b8 2ebc 0e97 9d3e
00000020: d004 86be 6681 0ebe d663 00be 67e2 4abe
00000030: eb82 9ebd 286a c53d e94f 8bbe 7598 013e
00000040: 9806 9cbe 3c0c 88bd 8dc9 363d 508e 6bbe
00000050: f829 6dbd 8639 043e 1bd9 f0bd c9f0 73bd
00000060: a539 943e d586 363e 53b7 4fbd bcba 3bbd
00000070: f2d4 313e 4377 c33d efb0 773e 2cbc a4bd
00000080: 8e4f d83e 3380 f3bc 36c6 6e3e 7f3e 34bd
00000090: 5fa6 623e 3518 f83c d201 513e 0f58 d0bc
000000a0: f22c a0be 8c14 bbbe 5fdf 46be 7e74 6abe
000000b0: 6a31 813d 471a 9f3e 053d 37be c856 523d
000000c0: 03bd 2dbe efdd c63e 355f 00be f65c 06bf
000000d0: d1e0 13be fa72 403b e073 b93d 003d 003c
000000e0: 0d9e 94be affc 893d 4593 a4be e262 4dbe
000000f0: 5840 4bbe 4744 d7ba 587c 53bd 2366 ca3e
00000100: 62f4 a83e 2aa9 993e 0be3 163e 2a3b 19be
00000110: d5c4 1bbe 8275 98be 8853 8cbe 8b30 99be
00000120: 420b 9cbd 94fd 4ebe c56a 583e d250 a0bd
00000130: cb76 b9bd ff83 33bd 6e8d 2a3d be7e 533c
00000140: 8181 b2bd cc4b cbbd a94a 31bd f1c3 9f3d
00000150: 76f9 50be 3a99 bd3c 2c10 1c3e 997a 4a3e
00000160: 9573 213e 18d9 8a3d 4e32 773d ef2a bc3d
00000170: a425 0bbe 7a40 963d 16cd 54bd c1cf ac3d
00000180: 8087 f13c e678 9f3e 7da8 433e b9f3 353d
00000190: 0cab cfbe 9397 d43e 616b 473d 6ff4 303e
000001a0: 1fae babd d38e f4bd e867 9abd ac6f 1a3e
000001b0: d63e 6fbe 8475 33be 0f77 9cbd af09 2fbe
000001c0: 0134 043d 8f4c 2a3d 3e74 98be 2d35 c5bc
000001d0: aad2 b43d 8159 5c3e 4a09 afbe 9e4b c3be
000001e0: afb2 073d 0adb 44be 75af bebd f7ce 243e
000001f0: 36c4 8f3e 9441 933d cec6 613c 42db b5bd
00000200: e0cb 153e e1f6 10be 057e 4ebd e132 673e
00000210: dce2 7c3e 3d8c 2a3c 9a07 1a3e c29e bdbe
00000220: e43a 42be b5e3 4f3d 56ae 7b3e 05b9 26be
00000230: a3d4 b13e 9e22 a3bb 47d3 813e 2707 173e
00000240: a7a4 b43d 5875 8c3e 1dca 343e 8a2a e4bd
00000250: 03f4 563e 8609 47be 3f2d b1be aa29 6f3d
00000260: f901 a9bd 4d47 7c3e c54a 4cbe de48 333e
00000270: e267 f23d 4a72 c23e cc54 85be 4213 ca3e
00000280: 2572 22bd 0527 8ebe d3a2 49be 8399 903d
00000290: 879e 2b3e dd58 573e 709a e23d ac03 cd3d
000002a0: 9bb7 cfbd 22ed a0bd 5e7a 62be b7b8 6c3e
000002b0: 2fed 7f3e 42c6 093e 7c41 58bc 1153 61bd
000002c0: adea 62be d5b7 33bd dcc3 6a3e 3dea 46be
000002d0: 657a 10be 65e2 f63c 4062 8fba b91b a23e
000002e0: d681 40be 8d1c 7d3d 9f0e fbbe 692e aebe
000002f0: cc89 893d 0946 653c 7d5b bd3d d24d 6bbe
00000300: d36f 17bc be8c 27be 3f6d 2abf f44a b73d
00000310: 97c9 083e d137 30bd bf46 25be 7429 2fbe
00000320: 8384 d1bd 48c2 91be c3c1 9bbe 0533 61be
00000330: 1b40 c53d 0090 f4bc 5dab a43d ce01 4bbe
00000340: 07ad 7f3e 3a5d e3be e7af 163e 73e0 dabc
00000350: f42b 953d 649a 473d fd33 993d 1fb1 183e
00000360: 8a76 d93d c6d3 24be b7d6 0fbe 84b3 0ebc
00000370: 4204 973e 9e68 03bd 7fd7 4f3e 71b4 9b3d
00000380: 7b0a c83d d2b9 afbe 7924 c5bd bbfa cabd
00000390: 3343 52bd aa66 59be 8964 0fbe 87a9 283e
000003a0: be77 e13d c4b3 0fbe 3ca7 5e3d 9688 2c3e
000003b0: 11cf 2b3e cc69 b4bc 194b 1c3e cee6 c0bd
000003c0: de77 6c3d f2b7 b83d 0ce0 6e3e d38a 00bd
000003d0: 644d 9a3e aef7 853e 57df 60be 0251 acbe
000003e0: 30e8 98bc aeff 653d 1715 ee3c 08e1 b5bd
000003f0: 5265 83bc daf4 c33c 8e12 6fbd c905 28be

actor_mean.2.bias f4 [64]
-0.07658165 0.07896491 -0.042362396 0.089116976 -0.08149867 -0.15027371 0.044287965 -0.124024466
-0.092795685 0.14219739 0.1377838 -0.10254702 0.107355945 -0.06153852 0.07621303 -0.09819962
-0.08236396 -0.008429417 0.0058975047 0.048821587 0.06673212 -0.08089968 -0.12916578 0.1368757
-0.0580056 -0.018465655 0.062467027 -0.12650004 0.11274329 -0.019423375 0.105555765 -0.045189593
0.037681334 0.10185735 0.029466609 0.09727704 -0.10469368 -0.05312684 -0.075236775 -0.009623922
-0.06848062 0.084000155 0.09430536 -0.026477536 -0.11252374 -0.11203953 -0.107073426 -0.07425832
0.06206273 0.115149915 -0.061169036 0.05436944 -0.13887742 -0.116863996 -0.11525317 0.047050703
-0.10121349 0.057648845 0.10738761 -0.119936205 -0.07584757 -0.022278324 0.059844553 -0.07173848
00000000: d7d6 9cbd 5bb8 a13d 3184 2dbd f682 b63d
00000010: c6e8 a6bd 5ae1 19be 4c67 353d 8a00 febd
00000020: aa0b bebd 319c 113e 3217 0d3e 2c04 d2bd
00000030: 6fdd db3d d10f 7cbd 9415 9c3d e21c c9bd
00000040: 70ae a8bd 8a1b 0abc db3f c13b 25f9 473d
00000050: daaa 883d bbae a5bd 0944 04be 2529 0c3e
00000060: 4897 6dbd 4945 97bc 6ddd 7f3d 3a89 01be
00000070: f4e5 e63d c51d 9fbc 9f2d d83d b918 39bd
00000080: be57 1a3d 969a d03d f563 f13c 2f39 c73d
00000090: a469 d6bd 889b 59bd bd15 9abd a8ad 1dbc
000000a0: 913f 8cbd 4608 ac3d 2b23 c13d 6be7 d8bc
000000b0: d972 e6bd fb74 e5bd 5049 dbbd bf14 98bd
000000c0: 7d35 7e3d b8d3 eb3d 628c 7abd 7db2 5e3d
000000d0: e235 0ebe 6456 efbd db09 ecbd 3db8 403d
000000e0: 0549 cfbd 3221 6c3d 09ee db3d 1da1 f5bd
000000f0: f955 9bbd 0881 b6bc 901f 753d a0eb 92bd

actor_mean.4.weight f4 [6, 64]
0.15836255 0.15607113 -0.11271744 0.0013808857 -0.08490268 -0.019963682 0.05814138 -0.12551782
-0.059993822 0.10147677 0.022817312 -0.16016483 0.052084606 -0.0063099866 0.084703006 -0.027900342
-0.1123321 0.007826591 0.03616921 0.023176052 0.001498679 -0.066966146 -0.07651809 0.09000124
-0.0764268 -0.21010786 0.059206735 -0.13215566 0.085837126 -0.072983794 0.048440523 -0.15503383
0.0060131545 0.11974764 0.07798748 -0.020867895 0.005629596 -0.028527576 -0.05147308 -0.09537304
-0.10271999 0.020329595 0.09792921 -0.097194605 -0.15331206 -0.15096338 0.07539145 -0.05658161
0.074327506 0.11071661 -0.025885135 0.08464499 0.044337053 -0.06627807 0.07069432 0.12790759
-0.021977875 0.18522215 0.02450064 -0.02500419 -0.106899224 -0.0348575 0.030567145 -0.13603823
0.041940533 0.04340317 0.04496511 0.04698523 -0.014071 -0.0016357267 0.0984789 -0.0038438549
0.05591675 0.04391822 -0.16310138 -0.12741964 0.10465856 0.075508155 0.08440113 0.0125576565
-0.059090123 -0.006796441 0.14458574 -0.10905739 0.17859814 -0.04990284 -0.022986066 0.052021556
0.07092732 -0.045093596 0.114859894 0.05243826 -0.17161646 -0.14076301 -0.036294933 -0.0642148
0.096472055 -0.04755248 0.16130431 -0.06799959 -0.19155706 -0.012114784 -0.06979697 0.022117864
0.05856988 0.084888875 0.01619695 -0.03774862 -0.05555546 -0.046150908 0.19101518 0.2069212
0.018061148 0.0050612236 -0.20392548 -0.009078238 0.2755942 0.016290467 0.22277349 0.06074126
-0.013446299 0.096620195 -0.263351 0.009494032 0.045700796 0.018397387 -0.12074097 -0.03754434
-0.014798256 -0.007495263 0.003364045 0.0062826076 -0.0012922417 0.00085177517 0.008592304 0.0021985827
-1.4835715e-05 0.0048139915 0.002658366 0.0026312943 0.008119962 -0.0020030246 0.0011543742 -0.0068715084
0.0064524133 0.01018616 0.003913604 0.0044425824 0.010284281 -0.0045097866 0.008408832 -0.0036283145
-0.00051539147 -0.008236183 0.0019142886 -0.01198846 -0.0012401646 0.0021416422 -0.0044400054 -0.005895702
0.0055364743 0.007866327 -0.0015311156 -0.0009409275 0.004918653 -0.0029978608 -0.0034965093 0.0029701209
0.001284723 -0.007238599 -3.269965e-05 0.0013910291 1.7746421e-06 0.0034624427 -0.005827711 0.009353982
0.003530335 -0.002352163 0.012142736 -0.00048559622 -0.0041986466 0.0062711993 0.0073146108 -0.0014818752
-0.0053341473 -0.00042540388 -0.005471949 -0.002810563 -0.0036900216 0.00840797 0.0070063397 -0.0031913246
-0.00032106243 0.025870387 -0.13069661 -0.12724814 0.08408509 -0.031134702 -0.15197992 0.05741482
0.118851624 -0.0014164521 -0.029010694 0.08348613 -0.13762477 0.075837374 -0.09407622 0.1533285
0.13798214 0.17839657 0.10895297 -0.08899524 -0.09558147 0.16843452 0.1057742 -0.10893895
-0.0816543 -0.020604044 0.029369306 0.09081764 6.2253207e-06 0.094480276 -0.08958784 0.04674097
0.073963344 -0.08653035 0.0983266 -0.068671875 0.13261504 -0.00012118195 0.060150634 -0.04646752
0.09933221 -0.13499434 -0.10886233 -0.034634594 0.009714221 0.045366433 0.021735316 -0.0050896103
-0.09086809 -0.09273203 0.12903573 -0.071628034 0.02598667 -0.0005005415 0.081837855 -0.12458768
0.12370503 0.023042614 -0.044555224 0.13963749 0.073046535 0.048814256 0.011369508 0.12332856
00000000: cb29 223e 1cd1 1f3e 67d8 e6bd d6fe b43a
00000010: 75e1 adbd e08a a3bc a825 6e3d be87 00be
00000020: 15bc 75bd 0ed3 cf3d 5feb ba3c 4002 24be
00000030: ab56 553d 01c4 cebb c578 ad3d 428f e4bc
00000040: 5f0e e6bd 1a3b 003c 2a26 143d b4db bd3c
00000050: 536f c43a 8c25 89bd 84b5 9cbd 9252 b83d
00000060: a785 9cbd 8426 57be c382 723d d053 07be
00000070: 60cb af3d 8778 95bd 9269 463d 30c1 1ebe
00000080: ff09 c53b 403e f53d e6b7 9f3d 26f3 aabc
00000090: 7978 b83b aab2 e9bc 70d5 52bd f152 c3bd
000000a0: dc5e d2bd 408a a63c 1c8f c83d f70d c7bd
000000b0: d6fd 1cbe 2596 1abe d566 9a3d 1ec2 67bd
000000c0: 0539 983d 64bf e23d 100d d4bc 5a5a ad3d
000000d0: c59a 353d ccbc 87bd 2fc8 903d 35fa 023e
000000e0: f20a b4bc e0aa 3d3e 91b5 c83c 96d5 ccbc
000000f0: fbed dabd bdc6 0ebd f367 fa3c 9b4d 0bbe
00000100: d6c9 2b3d 86c7 313d 562d 383d 9673 403d
00000110: 0d8a 66bc e165 d6ba 4eaf c93d 2fe9 7bbb
00000120: f608 653d 97e3 333d 0c04 27be 4b7a 02be
00000130: 3a57 d63d 05a4 9a3d 80da ac3d a1be 4d3c
00000140: 7c08 72bd aeb4 debb 490e 143e 7b59 dfbd
00000150: 6ee2 363e ec66 4cbd 464d bcbc 8e14 553d
00000160: 5842 913d 10b4 38bd aa3b eb3d 80c9 563d
00000170: 3abc 2fbe 2e24 10be ffa9 14bd 0d83 83bd
00000180: 2493 c53d 64c6 42bd f52c 253e 5e43 8bbd
00000190: 8927 44be 167d 46bc b7f1 8ebd 8630 b53c
000001a0: f8e6 6f3d 38da ad3d 77af 843c 4c9e 1abd
000001b0: 1f8e 63bd bc08 3dbd 7c99 433e 27e3 533e
000001c0: f9f4 933c 9fd8 a53b d7d1 50be e4bc 14bc
000001d0: af1a 8d3e 9673 853c bc1e 643e d4cb 783d
000001e0: de4d 5cbc cfe0 c53d f1d5 86be db8c 1b3c
000001f0: c230 3b3d 1eb6 963c 0b47 f7bd 18c8 19bd
00000200: 6274 72bc d39a f5bb 4f77 5c3b 55de cd3b
00000210: 7060 a9ba aa49 5f3a bcc6 0c3c 1916 103b
00000220: e9e6 78b7 b0be 9d3b fb37 2e3b cb71 2c3b
00000230: 9709 053c 2d45 03bb 5f4e 973a 642a e1bb
00000240: c46e d33b dae3 263c b13d 803b 1593 913b
00000250: 677f 283c d5c6 93bb 33c5 093c 04c9 6dbb
00000260: 561b 07ba 0ef1 06bc dee8 fa3a 3f6b 44bc
00000270: 058d a2ba cb5a 0c3b 777d 91bb bc30 c1bb
00000280: 506b b53b c4e1 003c b7af c8ba 93a8 76ba
00000290: a72c a13b c277 44bb b125 65bb 5ca6 423b
000002a0: 2764 a83a c531 edbb fb26 09b8 3153 b63a
000002b0: 3d30 ee35 26ea 623b 62f6 bebb 7241 193c
000002c0: 315d 673b bf26 1abb 54f2 463c 9f97 feb9
000002d0: cd94 89bb a27e cd3b 67af ef3b 7b3b c2ba
000002e0: 12ca aebb be08 dfb9 094e b3bb 6c31 38bb
000002f0: 4ad4 71bb 95c1 093c 7095 e53b 8b25 51bb
00000300: 4554 a8b9 22ee d33c 55d5 05be 564d 02be
00000310: ce34 ac3d 340e ffbc a0a0 1bbe cd2b 6b3d
00000320: 7b68 f33d 3fa8 b9ba d6a7 edbc c7fa aa3d
00000330: 82ed 0cbe a050 9b3d 09ab c0bd 2502 1d3e
00000340: 314b 0d3e 97ad 363e bc22 df3d 2343 b6bd
00000350: 38c0 c3bd 197a 2c3e 25a0 d83d 621b dfbd
00000360: 5f3a a7bd d0c9 a8bc e697 f03c 99fe b93d
00000370: 19e3 d036 e07e c13d d479 b7bd 7673 3f3d
00000380: 187a 973d d336 b1bd 755f c93d d7a3 8cbd
00000390: 3dcc 073e 1023 feb8 8360 763d ba54 3ebd
000003a0: b06e cb3d f53b 0abe 37f3 debd 01dd 0dbd
000003b0: 6528 1f3c 27d2 393d 430e b23c bfc6 a6bb
000003c0: 0d19 babd 4aea bdbd f121 043e b8b1 92bd
000003d0: ffe1 d43c c536 03ba 9b9a a73d d327 ffbd
000003e0: 1059 fd3d ddc3 bc3c 8a7f 36bd 21fd 0e3e
000003f0: 6c99 953d 75f1 473d 2c47 3a3c af93 fc3d

actor_mean.4.bias f4 [6]
0.11508745 0.153859 0.0014824006 -0.117079146 -0.10780483 -0.0008448255
00000000: f8b2 eb3d 378d 1d3e 1c4d c23a 31c7 efbd
00000010: c7c8 dcbd 4877 5dba
