jsbgym/models/train_saves_extVa/pidrl/ppo_addpidrl_capspid_ts1e-2_extendedVa_betacuri_tsteps2e6_1_12746_30-01_21:42:36.pt (torch, 73809 bytes, 14 tensors)

actor_logstd f4 [1, 6]
0.6023199 0.5582918 0.63523006 0.6160681 0.65225345 0.34551367
00000000: a331 1a3f 36ec 0e3f 709e 223f a4b6 1d3f
00000010: 15fa 263f 2be7 b03e

conv.0.weight f4 [3, 1, 5, 1]
0.036765113 0.09518241 0.17964615 0.25202435 0.21709226 0.1342739 0.18712845 0.18542767
0.14622131 0.07747364 -0.0016511751 -0.064545296 -0.17348327 -0.28462648 -0.2605895
00000000: 0497 163d ffee c23d 29f5 373e 5609 813e
00000010: 6f4d 5e3e 197f 093e 9a9e 3f3e c0e0 3d3e
00000020: 0abb 153e 80aa 9e3d 3e6c d8ba 5330 84bd
00000030: 99a5 31be 90ba 91be fd6b 85be

conv.0.bias f4 [3]
0.18164635 -0.028662156 0.1774739
00000000: 8001 3a3e e6cc eabc b8bb 353e

critic.0.weight f4 [64, 60]
-0.14236625 -0.05176515 -0.17316008 -0.2845118 -0.14026797 -0.08231435 0.116281375 -0.18757007
0.28552905 0.3864034 0.004360471 0.017761284 0.07417936 -0.0036689767 0.04286808 -0.12215556
-0.005776345 -0.18561612 -0.31010512 -0.33956128 -0.3105855 0.2641105 -0.46349424 -0.41786537
0.034339868 -0.16189289 0.0012391366 -0.07361272 -0.064008765 0.08173247 0.0025690678 0.0020670395
-0.09443868 0.0048410078 0.036863554 0.059869245 -0.11990269 -0.07315085 -0.26827496 -0.6176203
0.27374384 -0.2961966 0.1039247 0.12843625 -0.37548894 0.25725055 -0.8115157 0.08562734
0.061050184 -0.25148383 0.004169784 0.054247886 0.016263688 0.0073823985 0.0079654325 -0.06164205
-0.0577652 0.04136628 0.25970584 0.22188401 0.037007634 -0.64665246 0.11136477 0.17536663
-0.051158875 0.013053098 0.2665508 -0.8153766 0.044892926 0.026385373 -0.10493836 0.06566226
-0.048887663 -0.021614976 -0.064771995 0.009011884 -0.03151766 -0.02030966 -0.36210543 0.47614005
-0.032137252 -0.6238591 -0.082410865 -0.01990686 -0.21960004 0.11381342 -0.25033277 -0.444685
-0.05665602 -0.07515624 0.061495963 -0.0026162062 -0.039320838 -0.033291087 -0.023090728 -0.038399532
0.021046266 -0.01574096 0.25860697 -0.11287376 0.09387632 0.06173778 0.0261747 -0.19060886
-0.15975139 -0.11859782 -0.39984766 0.92364043 -0.27491862 -0.22837164 -0.08080817 0.015997093
-0.035611946 -0.005532784 -0.049541797 -0.036485247 -0.08270572 0.04097687 0.3672916 0.013735878
0.002248979 -0.19294745 0.18033452 0.13486278 0.24297641 0.23623616 1.0136667 0.061749015
-0.099694766 -0.124876864 0.013092067 -0.0047934125 0.017163694 0.055395056 0.03016361 0.017761556
0.054701146 -0.11048884 0.19523592 0.2450018 0.02306489 -0.058218267 0.10020281 -0.27076077
-0.19326401 -0.22814183 0.021958338 -0.113563955 -0.06044925 -0.34469053 0.00043869304 0.0065837423
0.0009938775 0.0011546169 -0.009329368 0.010791062 -0.03207415 0.1327939 -0.0042289123 -0.16108884
0.15855007 0.27261522 -0.3170021 0.3572572 -0.0051676664 0.4008411 -0.65861326 0.32211688
-0.34952408 0.031184327 0.00072197866 -0.006133494 0.008452313 0.029776003 0.022599507 -0.000100473044
-0.042774644 -0.029119384 0.034632526 -0.19129883 -0.27375227 -0.191321 0.2209823 0.21238278
-0.037022438 -0.07704819 0.37000018 0.9132652 -0.036898997 -0.110143594 0.08212149 0.0209394
-0.037952747 0.018705362 -0.11687285 0.010087491 -0.026472997 0.023644248 -0.67157304 0.3442261
0.006526453 0.15485372 0.32259265 -0.31554917 -0.0108897695 -0.29756394 0.1898973 0.26405755
0.036040146 -0.03162182 -0.008547565 -0.0012004451 0.011766187 0.028644258 -0.005723674 -0.02865671
0.04604612 0.088819124 -0.81091917 -0.036527857 0.030396868 0.13242003 -0.25084502 0.08759184
-0.09751153 -0.21657103 -0.23026124 -0.667307 -0.2644948 0.19653553 0.015766924 0.033606075
-0.039476126 0.05955788 -0.06269614 0.0074028014 0.033466134 0.061476246 0.9066319 -0.23056869
-0.19529702 0.2845019 0.43503034 0.007745051 0.12417532 0.21594697 -0.014606743 -0.29618067
0.08547666 -0.3519682 -0.16593643 -0.028616605 0.027011156 -0.026661605 0.13803908 -0.06806765
00000000: 75c8 11be b207 54bd e050 31be 88ab 91be
00000010: 68a2 0fbe 6d94 a8bd ee24 ee3d 5e12 40be
00000020: dd30 923e abd6 c53e 48e2 8e3b 1d80 913c
00000030: 59eb 973d 3773 70bb 7196 2f3d b22c fabd
00000040: 7e47 bdbb 2712 3ebe 19c6 9ebe fada adbe
00000050: 1005 9fbe 7e39 873e 1e4f edbe 73f2 d5be
00000060: f6a7 0c3d 40c7 25be 866a a23a 44c2 96bd
00000070: 0717 83bd 5a63 a73d ce5d 283b 2b77 073b
00000080: 1169 c1bd 51a1 9e3b 3dfe 163d 7439 753d
00000090: 8b8f f5bd 1dd0 95bd 565b 89be 5d1c 1ebf
000000a0: 2728 8c3e 15a7 97be 79d6 d43d cb84 033e
000000b0: 1640 c0be 58b6 833e 7ebf 4fbf 635d af3d
000000c0: c20f 7a3d 7dc2 80be afa2 883b 0833 5e3d
000000d0: 6d3b 853c 0ce8 f13b 7281 023c 607c 7cbd
000000e0: 349b 6cbd b06f 293d 2af8 843e 9035 633e
000000f0: 5195 173d 048b 25bf 3613 e43d 4f93 333e
00000100: f88b 51bd a9dc 553c 5979 883e 85bc 50bf
00000110: a5e1 373d 2326 d83c ece9 d6bd ef79 863d
00000120: 6e3e 48bd e411 b1bc 2ea7 84bd 95a6 133c
00000130: a918 01bd 7260 a6bc e265 b9be a1c8 f33e
00000140: 5aa2 03bd 3bb5 1fbf 07c7 a8bd b613 a3bc
00000150: d5de 60be 0317 e93d 9e2b 80be c1ad e3be
00000160: 2510 68bd 84eb 99bd 31e3 7b3d a874 2bbb
00000170: e30e 21bd 3c5c 08bd c428 bdbc d448 1dbd
00000180: 3869 ac3c 30f3 80bc 2268 843e 5c2a e7bd
00000190: 3a42 c03d c1e0 7c3d 536c d63c f82e 43be
000001a0: de95 23be 6ae3 f2bd d5b8 ccbe b373 6c3f
000001b0: 22c2 8cbe 41da 69be c17e a5bd 560c 833c
000001c0: d5dd 11bd 5b4c b5bb 57ec 4abd 8e71 15bd
000001d0: 9e61 a9bd 5dd7 273d a50d bc3e 730c 613c
000001e0: 9b63 133b 0494 45be 9da9 383e 7819 0a3e
000001f0: cfce 783e e4e7 713e d5bf 813f 89ec 7c3d
00000200: c52c ccbd 71bf ffbd 1c80 563c 0f12 9dbb
00000210: e09a 8c3c ede5 623d ad19 f73c af80 913c
00000220: 4f0e 603d f947 e2bd edeb 473e c0e1 7a3e
00000230: 95f2 bc3c 4776 6ebd 2137 cd3d 28a1 8abe
00000240: 00e7 45be 039e 69be f9e1 b33c 3894 e8bd
00000250: a299 77bd 477b b0be 6200 e639 6fbc d73b
00000260: ff44 823a 8456 973a 35da 18bc ffcc 303c
00000270: 2f60 03bd 20fb 073e b092 8abb 79f4 24be
00000280: f35a 223e 3994 8b3e 194e a2be 6aea b63e
00000290: 8755 a9bb 0b3b cd3e e19a 28bf 81ec a43e
000002a0: d2f4 b2be 4676 ff3c 2b43 3d3a 7afb c8bb
000002b0: 927b 0a3c ceec f33c 9a22 b93c 0eb5 d2b8
000002c0: 7734 2fbd c68b eebc d6da 0d3d d7e3 43be
000002d0: 4229 8cbe a7e9 43be 2f49 623e df7a 593e
000002e0: d7a4 17bd 71cb 9dbd aa70 bd3e c0cb 693f
000002f0: 6723 17bd f792 e1bd 502f a83d 1b89 ab3c
00000300: 5774 1bbd fd3b 993c 085b efbd 0146 253c
00000310: e6dd d8bc 95b1 c13c 36ec 2bbf 673e b03e
00000320: dbdb d53b f991 1e3e dd2a a53e a98f a1be
00000330: 016b 32bc 4d5a 98be 7074 423e 8d32 873e
00000340: d59e 133d e285 01bd 160b 0cbc 4158 9dba
00000350: f7c6 403c 5da7 ea3c a88d bbbb 7ac1 eabc
00000360: db9a 3c3d cde6 b53d 6698 4fbf 3c9e 15bd
00000370: da02 f93c 1e99 073e c26e 80be 5a63 b33d
00000380: 20b4 c7bd ccc4 5dbe 9ac9 6bbe a2d4 2abf
00000390: dd6b 87be 9c40 493e a329 813c 86a6 093d
000003a0: b8b1 21bd f7f2 733d d566 80bd 3393 f23b
000003b0: c913 093d 84ce 7b3d 0719 683f 331a 6cbe
000003c0: f1fb 47be 3caa 913e 4cbc de3e 32ca fd3b
000003d0: a14f fe3d 3421 5d3e 1f51 6fbc fea4 97be
000003e0: 630e af3d 2d35 b4be 3deb 29be 5f6d eabc
000003f0: 8046 dd3c 7069 dabc 1e5a 0d3e 0d67 8bbd

critic.0.bias f4 [64]
-0.15342277 0.022303937 0.23028754 0.13793054 0.045165095 0.13685276 -0.10816454 0.10765967
-0.0654206 -0.16657478 -0.06066024 0.021772206 -0.054744247 -0.08642304 -0.035624772 0.028031645
0.008311926 -0.084522404 0.0934981 0.009791311 0.04852666 -0.040233623 -0.093193844 0.09094782
0.01653674 -0.029958915 0.02802276 -0.009098516 0.04680152 0.10700299 -0.36425915 -0.17257047
-0.11220759 0.21715264 -0.016155478 -0.16911618 -0.0845595 -0.090194926 0.03355032 0.09199981
-0.0367551 -0.23920551 0.05346669 0.10439047 -0.14932016 0.24047536 0.055681534 0.0313344
0.058468983 0.23962972 0.16612548 -0.11284219 0.07623167 0.026907953 -0.27043808 -0.12778443
-0.026230501 0.012242241 0.059575934 -0.10425958 -0.18831722 0.0064611984 0.08374705 -0.105513275
00000000: dc1a 1dbe bfb6 b63c 7fd0 6b3e aa3d 0d3e
00000010: 09ff 383d 2123 0c3e 5f85 ddbd ac7c dc3d
00000020: 3cfb 85bd 9492 2abe df76 78bd a05b b23c
00000030: 813b 60bd 90fe b0bd 48eb 11bd 9fa2 e53c
00000040: bf2e 083c 151a adbd ef7b bf3d bc6b 203c
00000050: e4c3 463d 03cc 24bd 6adc bebd da42 ba3d
00000060: 0f78 873c 666c f5bc fd8f e53c f111 15bc
00000070: f3b2 3f3d 6224 db3d 2d80 babe 50b6 30be
00000080: 18cd e5bd 435d 5e3e 7e58 84bc cb2c 2dbe
00000090: 882d adbd 1eb8 b8bd 0f6c 093d 656a bc3d
000000a0: 848c 16bd 4af2 74be e3ff 5a3d acca d53d
000000b0: 62e7 18be 2c3f 763e 5212 643d 8058 003d
000000c0: 2c7d 6f3d 7e61 753e cc1c 2a3e ce19 e7bd
000000d0: 5a1f 9c3d 116e dc3c dc76 8abe ecd9 02be
000000e0: 59e1 d6bc ae93 483c e505 743d 0c86 d5bd
000000f0: 3bd6 40be 76b8 d33b 9383 ab3d 5817 d8bd

critic.2.weight f4 [64, 64]
-0.009598715 -0.110904254 -0.2602523 -0.10853125 -0.17328309 -0.3447967 -0.34374145 -0.4063495
0.30283386 -0.12205883 -0.025466707 0.36432004 -0.013324621 0.04316759 -0.07757148 0.116383456
-0.35386428 0.22242558 -0.12424656 0.362094 0.05273552 0.039447058 -0.36031112 0.27717453
-0.105261914 -0.28968796 0.07536301 0.060705144 0.06927861 0.30306032 -0.35863194 0.3196977
0.06079938 -0.1753986 -0.10292285 0.28020078 -0.08613022 0.118093506 -0.22533154 0.112811714
0.19048697 -0.023111915 0.016305974 -0.00298324 0.054023728 0.13634984 -0.053031173 0.3074557
-0.08121939 0.34227964 -0.25687212 -0.12870555 -0.10477736 0.21317814 -0.22900407 0.39021215
0.00486625 0.19801167 -0.044330157 0.06703924 0.0032931443 -0.2007455 -0.06226118 0.043152634
-0.17782025 -0.39198568 -0.019856583 0.12766548 -0.1771042 0.16363974 -0.16055568 0.12080221
-0.0022198532 -0.16529013 0.04435558 0.15612863 0.20985807 -0.045217976 -0.019032244 -0.1854489
-0.2881037 0.1490183 -0.031386886 0.34727454 -0.11252747 -0.036802918 -0.32241035 0.23504154
0.24828967 -0.16689469 0.54650456 0.26370496 0.020759195 0.19900958 0.044384446 0.100869596
0.042986088 0.22845164 0.13086195 -0.046234265 -0.3994649 0.22907834 -0.37871987 0.5413236
0.18263273 0.022265065 0.42397705 -0.20007846 -0.057383906 -0.0836709 0.16833769 -0.01716808
0.3303263 -0.109142475 -0.059668876 0.13082442 -0.10887886 0.43351215 0.04303345 -0.4266735
-0.037735507 0.20056199 -0.35377812 -0.06567536 0.04658418 0.31096858 0.2700143 0.3039926
-0.08067119 0.059521433 0.23240255 0.011553786 0.05224333 0.20949073 -0.42485437 0.1732721
-0.044090714 0.15276365 -0.21499701 0.31250283 -0.18737975 0.15496978 -0.5425833 -0.0043311627
0.2298797 -0.38305295 0.10513684 0.05947003 0.08466157 -0.46110487 0.022744711 0.055605754
0.090245046 -0.052713774 -0.02220671 0.2362323 -0.055353068 0.09696857 -0.43147048 -0.079210036
-0.16328602 0.30386662 -0.22725432 -0.17637908 -0.2088015 -0.11807264 0.17119832 0.20390597
-0.19191255 -0.3518602 0.25419447 0.26628512 -0.31475332 0.025408851 0.27448922 -0.21420479
0.14635696 -0.008855566 0.027685367 0.03402993 0.22170372 -0.07783081 -0.35827944 -0.22172716
-0.10170035 0.36561996 -0.10793782 -0.2744161 -0.28295758 -0.05484182 0.12247021 0.0136436885
-0.3686581 0.1554952 0.12405953 0.038016334 0.33587164 -0.0062901396 -0.10364392 -0.19657585
0.33917964 0.053689923 -0.09826116 -0.17473419 -0.008715515 -0.14417166 0.110618696 -0.32109547
0.024870282 -0.13417023 0.62635636 0.3034501 -0.23788142 0.27455524 -0.05397867 -0.040119555
0.02158265 -0.28732297 -0.32915446 0.091936596 -0.034593537 -0.05115877 -0.02432636 -0.34175295
-0.021167446 0.010847234 -0.18084215 -0.3717167 -0.23100455 0.19224663 0.15372021 0.59670824
-0.34027067 -0.16662395 0.021115046 0.26071134 0.12777436 -0.13192207 0.35253957 0.14724971
-0.03319156 0.05264938 0.6736068 -0.07635619 -0.14815962 0.21833956 0.15856305 -0.061314173
0.2519144 -0.0059465445 0.3149401 0.08184075 0.09194843 0.19575521 -0.025630865 0.14047009
00000000: ee43 1dbc c521 e3bd ca3f 85be a245 debd
00000010: 1f71 31be 3189 b0be e1fe afbe 0b0d d0be
00000020: 0a0d 9b3e fbf9 f9bd 8e9f d0bc 2888 ba3e
00000030: 834f 5abc 80d0 303d ccdd 9ebd 735a ee3d
00000040: b32d b5be 88c3 633e fb74 febd 6364 b93e
00000050: 3301 583d 3d93 213d b37a b8be d2e9 8d3e
00000060: 8f93 d7bd fb51 94be ec57 9a3d f5a5 783d
00000070: f2e1 8d3d b92a 9b3e 9b9e b7be 6baf a33e
00000080: c508 793d b19b 33be 37c9 d2bd 7a76 8f3e
00000090: 0a65 b0bd 02db f13d 50bd 66be d409 e73d
000000a0: 040f 433e 3355 bdbc 1b94 853c 7682 43bb
000000b0: fc47 5d3d 4b9f 0b3e 3737 59bd d56a 9d3e
000000c0: 5a56 a6bd 473f af3e be84 83be 63cb 03be
000000d0: 8395 d6bd 5f4b 5a3e 0b80 6abe e3c9 c73e
000000e0: 1075 9f3b 92c3 4a3e 8a93 35bd de4b 893d
000000f0: cbd1 573b 3a90 4dbe 9405 7fbd d1c0 303d
00000100: 8316 36be 59b2 c8be 46aa a2bc bdba 023e
00000110: ce5a 35be 2d91 273e b568 24be 2667 f73d
00000120: f57a 11bb d141 29be 32ae 353d 2fe0 1f3e
00000130: 09e5 563e 7c36 39bd 82e9 9bbc 51e6 3dbe
00000140: 5482 93be 4198 183e 898f 00bd f8cd b13e
00000150: cd74 e6bd a8be 16bd f812 a5be bbae 703e
00000160: a63f 7e3e 71e6 2abe b9e7 0b3f 5604 873e
00000170: 300f aa3c 2bc9 4b3e 77cc 353d b894 ce3d
00000180: 2e12 303d 3aef 693e ad00 063e 2460 3dbd
00000190: aa86 ccbe 8393 6a3e 92e7 c1be 2f94 0a3f
000001a0: 1304 3b3e 3a65 b63c 8513 d93e 5ee1 4cbe
000001b0: 630b 6bbd a65b abbd b760 2c3e 13a4 8cbc
000001c0: 8720 a93e 1786 dfbd 5a67 74bd d6f6 053e
000001d0: e1fb debd 4ef5 dd3e d843 303d f374 dabe
000001e0: 8c90 1abd 1f60 4d3e 6822 b5be ce80 86bd
000001f0: 0ecf 3e3d 4637 9f3e 503f 8a3e eba4 9b3e
00000200: f036 a5bd bfcc 733d effa 6d3e 174c 3d3c
00000210: 1afd 553d bd84 563e 8386 d9be 3e6e 313e
00000220: 7798 34bd 136e 1c3e 2d28 5cbe 5f00 a03e
00000230: 7ae0 3fbe 66b0 1e3e bde6 0abf 6dec 8dbb
00000240: 9665 6b3e 841f c4be fc51 d73d d996 733d
00000250: 0c63 ad3d f015 ecbe 1e53 ba3c dcc2 633d
00000260: 65d2 b83d 66ea 57bd d9ea b5bc e1e6 713e
00000270: e6b9 62bd 7597 c63d b3e9 dcbe df38 a2bd
00000280: 7334 27be 6894 9b3e 5bb5 68be b89c 34be
00000290: 0fd0 55be 11d0 f1bd 9d4e 2f3e bacc 503e
000002a0: b984 44be 0527 b4be c725 823e 8656 883e
000002b0: 5927 a1be 3926 d03c da89 8c3e 8058 5bbe
000002c0: 99de 153e f016 11bc 6ccc e23c f862 0b3d
000002d0: 4d06 633e c265 9fbd 6770 b7be 720c 63be
000002e0: 4648 d0bd 8a32 bb3e 810e ddbd 4480 8cbe
000002f0: d1df 90be d1a1 60bd a9d1 fa3d c789 5f3c
00000300: c1c0 bcbe 223a 1f3e ec12 fe3d 04b7 1b3d
00000310: 5ef7 ab3e 841d cebb 4343 d4bd 2e4b 49be
00000320: f4a8 ad3e f7e9 5b3d 263d c9bd 85ed 32be
00000330: 85cb 0ebc bca1 13be 0e8c e23d a066 a4be
00000340: c3bc cb3c ec63 09be e458 203f d05d 9b3e
00000350: 3097 73be 8192 8c3e bd18 5dbd 6754 24bd
00000360: 19ce b03c ff1b 93be ef86 a8be 4149 bc3d
00000370: f4b1 0dbd dc8b 51bd 1348 c7bc 3efa aebe
00000380: 5a67 adbc 99b8 313c af2e 39be a751 bebe
00000390: 758c 6cbe 4ddc 443e d568 1d3e dfc1 183f
000003a0: f537 aebe 789f 2abe 76f9 ac3c f57b 853e
000003b0: 48d7 023e 9416 07be 1180 b43e a1c8 163e
000003c0: e0f3 07bd e0a6 573d 7f71 2c3f a260 9cbd
000003d0: 28b7 17be 6894 5f3e 5a5e 223e 9224 7bbd
000003e0: edfa 803e 3bdb c2bb d43f a13e 209c a73d
000003f0: 754f bc3d 0e74 483e d2f7 d1bc 64d7 0f3e

critic.2.bias f4 [64]
0.093579456 -0.031151127 0.21067078 -0.09574942 0.15239334 -0.06033981 -0.094649084 0.18555628
-0.0418528 -0.03630612 -0.08112257 -0.14869335 0.040601052 0.27015057 -0.27288964 0.16970456
0.09506614 0.00928853 -0.21454175 -0.08740224 0.09657465 0.19377822 0.14774032 0.16703123
0.29238555 0.023043983 -0.23496504 -0.1996767 0.22650826 -0.16066945 0.08270094 0.04419416
-0.13787359 0.12364931 0.14056852 0.1463506 -0.1305624 -0.15822196 -0.04402694 0.12428713
0.12000993 -0.025945153 -0.17125927 0.15207067 0.12658931 -0.15788801 0.18280949 -0.12896372
-0.15638772 -0.20796302 -0.13772151 -0.035429202 0.13544416 0.09521031 0.18015592 0.21344608
0.13411339 0.06226286 0.10799763 0.116565906 -0.052889075 0.14737919 0.104391485 0.16033499
00000000: 96a6 bf3d a630 ffbc 15ba 573e 4618 c4bd
00000010: 000d 1c3e e026 77bd 61d7 c1bd 7702 3e3e
00000020: d76d 2bbd bab5 14bd 9723 a6bd 1243 18be
00000030: 4a4d 263d 2d51 8a3e 31b8 8bbe 08c7 2d3e
00000040: 09b2 c23d eb2e 183c d5b0 5bbe f2ff b2bd
00000050: eec8 c53d cc6d 463e 3d49 173e 3c0a 2b3e
00000060: 8fb3 953e bcc6 bc3c ad9a 70be 0d78 4cbe
00000070: c8f1 673e 8886 24be 1c5f a93d ef04 353d
00000080: bc2e 0dbe d93b fd3d 32f1 0f3e efdc 153e
00000090: 26b2 05be f004 22be 9855 34bd 408a fe3d
000000a0: c4c7 f53d ee8a d4bc 975e 2fbe 6ab8 1b3e
000000b0: a1a0 013e 65ad 21be 6932 3b3e 110f 04be
000000c0: 1a24 20be 42f4 54be de06 0dbe 361e 11bd
000000d0: e0b1 0a3e 9ffd c23d cb7a 383e 9c91 5a3e
000000e0: 0555 093e 5707 7f3d dd2d dd3d 1bba ee3d
000000f0: 37a2 58bd 92ea 163e 34cb d53d db2e 243e

critic.4.weight f4 [1, 64]
-0.3316778 0.16954538 -0.27940285 0.28350103 -0.21530052 -0.014031089 0.33617538 -0.14795828
0.41458267 0.23383538 0.3165924 0.25903788 -0.35309705 -0.18136963 0.19937097 -0.12729958
-0.15873052 0.4202658 0.3541656 0.6178442 -0.21264404 -0.17999293 -0.3385 -0.24309401
-0.19350176 -0.36068806 0.24105988 0.3329722 -0.17729522 0.109566316 -0.2597578 -0.100725144
0.14968796 -0.15037875 -0.24326387 -0.1798453 0.34715402 0.2840917 0.3110855 -0.2129197
-0.23950894 0.25692323 0.19558938 -0.17731261 -0.1633793 0.4477112 -0.16320352 0.1704042
0.1284131 0.14887275 0.23456836 -0.15658136 -0.31283584 -0.08737011 -0.18089287 -0.30956483
-0.2532435 -0.15891367 -0.2684522 -0.114577 0.39873818 -0.60265666 -0.30973458 -0.29563186
00000000: acd1 a9be 4e9d 2d3e e40d 8fbe 0c27 913e
00000010: bd77 5cbe a7e2 65bc 2e1f ac3e 6082 17be
00000020: 2e44 d43e 8b72 6f3e 6618 a23e 9da0 843e
00000030: 23c9 b4be f6b8 39be e727 4c3e d25a 02be
00000040: 418a 22be 142d d73e 3255 b53e 0a2b 1e3f
00000050: 5cbf 59be 1150 38be df4f adbe a3ed 78be
00000060: 5325 46be 1bac b8be 67d8 763e 557b aa3e
00000070: e18c 35be 4e64 e03d f9fe 84be fc48 cebd
00000080: cd47 193e e3fc 19be 2a1a 79be 5e29 38be
00000090: 2cbe b13e 7874 913e 9946 9f3e 9f07 5abe
000000a0: d541 75be 718b 833e 9548 483e 7091 35be
000000b0: e74c 27be 673a e53e d31e 27be 707e 2e3e
000000c0: b97e 033e 1972 183e b032 703e dd56 20be
000000d0: 052c a0be 1aef b2bd fb3b 39be 487f 9ebe
000000e0: 22a9 81be 44ba 22be 9172 89be 59a7 eabd
000000f0: 6927 cc3e b547 1abf 8895 9ebe 0f5d 97be

actor_mean.0.weight f4 [64, 60]
-0.044006843 0.027716566 0.48041564 -0.1322023 -0.20630953 -0.13725108 0.1418865 0.13952854
0.15250535 0.1622945 0.2840358 0.1453824 -0.12434877 -0.04095563 0.0938539 0.050365698
0.052150592 0.27561334 0.15001976 0.34464434 -0.10210817 0.16473615 0.4127529 -0.024584658
-0.07134527 0.15652226 0.054456577 -0.13143328 0.2838475 0.2970609 0.008091312 0.08031467
-0.020008834 0.023043057 0.017321233 0.06379137 -0.24618834 0.06034987 0.40737587 0.08797483
-0.16305564 0.25673294 -0.06474316 -0.21219741 -0.26190278 0.030861726 -0.052884053 0.14197892
0.39262858 -0.044519685 0.12937249 0.16393426 0.057090107 0.016505677 0.20552628 0.18922307
0.06285787 -0.09572127 -0.05499607 0.5519088 0.03394256 0.03438673 -0.3603879 0.032539293
0.14957657 -0.07970213 -0.41457444 -0.015540512 0.163714 0.17308612 -0.08150826 -0.030812347
-0.10801345 -0.103846796 -0.1310728 0.16702928 -0.07428138 -0.0646223 -0.06335815 -0.27396375
0.63095236 0.29212293 0.19683318 0.19960888 1.47936125e-05 0.2017681 -0.18078664 0.24271548
0.11227775 0.24032131 0.046823785 -0.08287488 -0.08993164 -0.008484527 0.024703965 0.1523015
0.008717908 -0.07747394 -0.15159975 -0.5030648 -0.35194647 -0.2349957 0.28072116 0.21939707
0.10180904 -0.0022800858 0.06491701 -0.09233382 0.031789977 -0.033116184 0.08079382 -0.08621489
-0.21714148 -0.14941108 -0.04273045 0.1571969 -0.2629366 -0.07321926 -0.040445235 0.040729307
-0.019030739 0.07226667 0.055609073 -0.06308417 0.42789984 -0.31109896 -0.19923112 0.20032965
-0.34035248 0.2956159 0.0009855465 -0.22172554 -0.16632691 -0.007963793 0.27018484 0.04642726
0.42839342 0.11877623 0.13846754 0.03303339 -0.079928756 -0.1829301 -0.058371753 -0.27929538
-0.13292621 -0.23469725 -0.24462058 0.16231331 -0.09452537 0.2726854 -0.08354143 -0.1085733
-0.11036385 0.0045679677 -0.039137606 0.14549801 0.10768764 -0.012343232 -0.15046875 -0.057982527
0.23762773 0.1625604 -0.06855053 0.048527434 0.047195055 0.3009574 -0.034130383 -0.095387086
0.5630244 -0.0018695442 0.0042161616 0.0008102859 0.059531875 0.1752283 0.032956805 0.13087039
0.15823466 0.19941834 -0.23411575 -0.30280873 0.06874404 0.4123219 0.16895302 -0.11104325
0.17980824 0.0148271285 0.19043104 0.15665016 -0.10265175 -0.026630914 0.102245644 0.07841305
0.10686919 0.22056924 -0.058959 0.11350964 -0.07323144 0.08447568 0.13062625 -0.07548899
0.15481676 0.52224255 -0.16202119 -0.07337902 0.17683269 -0.29890487 -0.058266465 0.09176131
0.30340913 0.2424351 0.110720605 -0.21883763 -0.13915546 0.027506303 0.100429915 -0.12417073
-0.3237209 0.121068485 -0.19838415 0.02846158 -0.26722386 -0.5592092 -0.0070957677 -0.14942317
0.16807309 -0.2356679 0.22617054 0.22985125 0.17871702 0.093419805 0.0800379 -0.0057587633
-0.01998105 0.24693972 -0.059716135 0.09915599 0.0058946665 0.099298745 0.0077128815 -0.05483777
-0.2238931 0.19585963 0.36719707 0.071278505 -0.21237579 0.38001844 0.2178704 -0.17943558
-0.41725686 -0.37159625 -0.02910351 0.22424668 0.042340383 0.02493015 -0.03667358 0.068866976
00000000: 8540 34bd da0d e33c 0af9 f53e 0a60 07be
00000010: ce42 53be 8c8b 0cbe b24a 113e 92e0 0e3e
00000020: 5d2a 1c3e 8830 263e 246d 913e 20df 143e
00000030: 91aa febd 17c1 27bd 7936 c03d 434c 4e3d
00000040: dc9b 553d 311d 8d3e c89e 193e 3975 b03e
00000050: 171e d1bd 98b0 283e 5954 d33e c465 c9bc
00000060: 781d 92bd 5f47 203e dc0d 5f3d 7296 06be
00000070: 7654 913e 5e18 983e 6c91 043c 057c a43d
00000080: 91e9 a3bc cbc4 bc3c 42e5 8d3c 0da5 823d
00000090: cc18 7cbe 6d31 773d 9293 d03e 262c b43d
000000a0: 0ff8 26be 8072 833e 1098 84bd 474a 59be
000000b0: 1f18 86be bbd1 fc3c f39c 58bd ec62 113e
000000c0: 9d06 c93e 465a 36bd 397a 043e 62de 273e
000000d0: 51d7 693d ea36 873c 7b75 523e b1c3 413e
000000e0: a0bb 803d 8309 c4bd 8f43 61bd e549 0d3f
000000f0: 5b07 0b3d 1ad9 0c3d c384 b8be ec47 053d
00000100: 9a2a 193e df3a a3bd 1a43 d4be a29d 7ebc
00000110: a5a4 273e 7d3d 313e cded a6bd 2d6a fcbc
00000120: 2836 ddbd a1ad d4bd f337 06be b909 2b3e
00000130: d620 98bd b258 84bd ebc1 81bd fa44 8cbe
00000140: 1886 213f 2391 953e a38e 493e 4566 4c3e
00000150: 1532 7837 4c9c 4e3e 2220 39be 688a 783e
00000160: e1f1 e53d ca16 763e 4cca 3f3d 4eba a9bd
00000170: 142e b8bd af02 0bbc f85f ca3c edf4 1b3e
00000180: 8ed5 0e3c a8aa 9ebd f73c 1bbe dbc8 00bf
00000190: 5432 b4be b6a2 70be afba 8f3e a0a9 603e
000001a0: 4281 d03d 7e6d 15bb 36f3 843d 8419 bdbd
000001b0: 3536 023d d6a4 07bd 3b77 a53d 6f91 b0bd
000001c0: 565a 5ebe 38ff 18be 2006 2fbd 39f8 203e
000001d0: a09f 86be fbf3 95bd e7a9 25bd c6d3 263d
000001e0: 5ae6 9bbc 8c00 943d 57c6 633d 4632 81bd
000001f0: b015 db3e 5d48 9fbe 3e03 4cbe 3723 4d3e
00000200: ae42 aebe f85a 973e 742d 813a 050c 63be
00000210: 9a51 2abe 927a 02bc ab55 8a3e 832a 3e3d
00000220: 6256 db3e f440 f33d 6fca 0d3e 054e 073d
00000230: b0b1 a3bd 0752 3bbe 3817 6fbd ceff 8ebe
00000240: cf1d 08be 7a54 70be d17d 7abe 7635 263e
00000250: 8496 c1bd 6c9d 8b3e c517 abbd ae5b debd
00000260: 7106 e2bd e4ae 953b c14e 20bd 6efd 143e
00000270: 568b dc3d 443b 4abc 7b14 1abe 167f 6dbd
00000280: af54 733e 3c76 263e 3864 8cbd b4c4 463d
00000290: 9a4f 413d 1717 9a3e 4dcc 0bbd 4e5a c3bd
000002a0: 5e22 103f 7e0b f5ba ba27 8a3b 5e69 543a
000002b0: b2d7 733d 0c6f 333e b7fd 063d e302 063e
000002c0: 4408 223e 5234 4c3e 0abc 6fbe bf09 9bbe
000002d0: adc9 8c3d db1b d33e 0502 2d3e a56a e3bd
000002e0: a71f 383e 7ced 723c 5b00 433e e668 203e
000002f0: 153b d2bd 1329 dabc 2a66 d13d 0597 a03d
00000300: 3cde da3d e7dc 613e fe7e 71bd be77 e83d
00000310: 5dfa 95bd 9601 ad3d e3c2 053e f999 9abd
00000320: 4988 1e3e b0b1 053f e2e8 25be bd47 96bd
00000330: a113 353e 0f0a 99be d1a8 6ebd 5bed bb3d
00000340: 7158 9b3e e840 783e 7cc1 e23d f916 60be
00000350: c57e 0ebe e654 e13c 33ae cd3d 394d febd
00000360: bfbe a5be c1f2 f73d 3725 4bbe 4228 e93c
00000370: 91d1 88be 5628 0fbf 9d83 e8bb 6302 19be
00000380: 5a1b 2c3e ed52 71be 4099 673e 205e 6b3e
00000390: 9801 373e e252 bf3d e9ea a33d 02b4 bcbb
000003a0: 4daf a3bc c4dd 7c3e e898 74bd 4c12 cb3d
000003b0: 0c28 c13b 245d cb3d 57bc fc3b 929d 60bd
000003c0: 3c44 65be 6d8f 483e 4101 bc3e 77fa 913d
000003d0: 0a79 59be c791 c23e 6b19 5f3e f6bd 37be
000003e0: b1a2 d5be dd41 bebe 7c6a eebc eca0 653e
000003f0: 1c6d 2d3d 503a cc3c 0937 16bd 210a 8d3d

actor_mean.0.bias f4 [64]
0.21112604 -0.04092047 0.054662198 -0.0054633743 0.074216716 0.01942156 0.016856413 -0.016224837
-0.08169592 -0.055723418 -0.017287236 0.035105553 -0.063908115 0.10375501 0.051450077 -0.12670073
-0.059284203 0.06740434 0.016603604 -0.13699116 0.06554699 -0.02139525 0.03020149 -0.022939565
-0.046849646 -0.0410658 -0.053713255 0.060748972 0.11639923 -0.048961423 0.037496578 0.06661915
0.047702093 0.13896614 -0.017077565 0.072581045 -0.030096838 0.08334704 0.1066154 0.083348
-0.0031611184 0.020976622 -0.062831 -0.07122019 0.008719153 0.06559185 0.061737787 -0.0077158515
0.013120353 -0.011603895 -0.046595614 0.07449742 0.029404853 0.09247968 0.038833227 -0.1082396
0.06202325 -0.0033743167 -0.008738354 -0.14260443 0.10239476 0.024805602 0.06300364 0.027867103
00000000: 6d31 583e 399c 27bd 78e5 5f3d 1b06 b3bb
00000010: effe 973d f719 9f3c 7616 8a3c f3e9 84bc
00000020: 3150 a7bd 3d3e 64bd f69d 8dbc d7ca 0f3d
00000030: 42e2 82bd 827d d43d 51bd 523d d6bd 01be
00000040: fed3 72bd 490b 8a3d 4804 883c 6947 0cbe
00000050: 803d 863d 1745 afbc 1d69 f73c c1eb bbbc
00000060: 6ae5 3fbd 9d34 28bd 6e02 5cbd ead3 783d
00000070: b862 ee3d c68b 48bd 0396 193d 9f6f 883d
00000080: 4563 433d 244d 0e3e 40e6 8bbc 5fa5 943d
00000090: a58d f6bc dab1 aa3d 2d59 da3d 5bb2 aa3d
000000a0: c42a 4fbb 2ad7 ab3c 8aad 80bd e4db 91bd
000000b0: c7da 0e3c 0555 863d c3e0 7c3d 41d5 fcbb
000000c0: c0f6 563c 431e 3ebc 0bdb 3ebd 1a92 983d
000000d0: 72e2 f03c fd65 bd3d 970f 1f3d b9ac ddbd
000000e0: 170c 7e3d a423 5dbb 502b 0fbc e506 12be
000000f0: 58b4 d13d 1e35 cb3c 0d08 813d 8d49 e43c

actor_mean.2.weight f4 [64, 64]
-0.3268364 -0.1628866 -0.073046476 0.10041808 -0.22634429 -0.0048727584 0.12219959 0.09869066
0.05536229 -0.1323551 0.17681536 -0.1396215 -0.24634612 0.14740455 -0.1511786 -0.0043598767
0.087222286 -0.10032572 -0.060619716 -0.0006303166 -0.1601046 0.03237914 -0.17003003 -0.0977285
0.27226123 0.45094368 -0.03230241 -0.0508164 -0.3216423 0.1611449 -0.10877524 -0.034026023
0.19016497 -0.17654772 -0.18558772 -0.36441082 -0.024678504 0.05579601 -0.07287679 -0.13907951
-0.36176464 0.038547434 -0.024710037 -0.021375557 -0.4128939 -0.20434812 -0.10614933 -0.34548113
0.09842499 -0.14942555 0.07729609 -0.36216414 -0.08004451 0.29111782 -0.060784236 -0.034469012
0.25050053 0.025823789 -0.00085518794 -0.06673999 0.199548 0.16431895 -0.0705413 0.02408382
0.10280677 -0.03854716 0.3670565 -0.013682566 -0.17646757 0.006912932 0.093737245 -0.029154362
0.14749607 -0.090983644 -0.31448367 0.11451152 0.01913529 -0.064826 -0.37247503 0.16912742
-0.27042177 0.1850187 0.20600982 -0.11048135 0.22871993 -0.19630787 -0.11959385 0.02352935
-0.07831927 -0.025589732 0.114390746 0.09869793 0.06904481 0.3417076 0.23575243 0.060042355
0.40358135 0.39185295 -0.14496846 0.24612167 -0.07480955 0.18712749 0.2876907 0.12689844
-0.020584418 0.18975604 -0.1292575 0.18650405 0.003204951 -0.08502917 0.21260364 -0.24222808
0.020758983 -0.06761027 -0.3105839 0.06406324 -0.1671286 -0.2755066 -0.06084715 0.31130725
0.22149087 -0.0074811946 -0.25102013 0.1465222 -0.21794266 0.19202457 -0.5336458 -0.232617
0.041300967 -0.0012015773 0.14578561 0.114737704 0.050600413 -0.2546075 -0.04452267 -0.11402562
0.10713125 0.0035347405 -0.123816885 -0.05577005 0.25468802 0.021552308 0.32831097 -0.009822723
0.27770314 -0.12012913 0.014458998 -0.16700648 0.12553865 0.0037328366 0.0356819 -0.2136814
0.0628295 0.17134266 -0.22420006 0.08891214 -0.52683526 -0.21768767 -0.11410256 -0.39467695
-0.09829555 0.11829114 0.0059190528 0.04330448 0.27917254 0.07302285 -0.05779671 -0.07276363
0.31133178 -0.20971388 0.19769631 0.047736317 -0.11303412 0.11732575 -0.033412907 -0.19510886
0.33962145 0.08269978 -0.28359255 -0.38750505 -0.13039123 -0.27319562 0.056740403 -0.03287272
0.011556613 0.058856282 0.12535562 0.09211269 -0.0052785417 0.11618811 -0.18280047 -0.2874101
0.31329003 -0.22640182 -0.047487054 -0.040804982 -0.036170583 -0.09600712 0.35137877 -0.109627694
-0.15067638 -0.45910278 -0.16530435 0.15857156 -0.104694605 0.08500736 -0.25763205 0.411915
0.12579231 0.09567877 -0.23470819 0.12716138 0.27743304 -0.16744278 0.139051 -0.05063241
-0.0766719 0.2755431 0.21860962 0.01676595 0.18686534 -0.2959311 -0.15345205 0.14748438
0.1157439 0.32774225 -0.23608683 -0.16445184 -0.08768586 0.26362705 -0.19360423 -0.013488508
0.15010571 -0.022563221 -0.16033101 0.13915646 -0.0010365923 -0.09190729 0.07383567 0.22424597
-0.071742184 0.036711548 -0.22660878 0.20901848 -0.038687788 0.04672659 -0.046011087 -0.0765614
0.02863744 0.25525415 -0.0717251 -0.2246504 0.20958297 0.05469456 0.19946834 -0.2200864
00000000: 1a57 a7be bfcb 26be 6499 95bd ffa7 cd3d
00000010: ccc6 67be a9ab 9fbb c743 fa3d 541e ca3d
00000020: 92c3 623d 1888 07be 160f 353e f0f8 0ebe
00000030: 2842 7cbe 38f1 163e 90ce 1abe 4cdd 8ebb
00000040: 99a1 b23d 9277 cdbd 614c 78bd d53b 25ba
00000050: 76f2 23be fd9f 043d 5a1c 2ebe e125 c8bd
00000060: d365 8b3e 17e2 e63e 884f 04bd dc24 50bd
00000070: 4dae a4be 2b03 253e 8ec5 debd df5e 0bbd
00000080: 9bba 423e edc8 34be b50a 3ebe 0e94 babe
00000090: 932a cabc 5b8a 643d 6d40 95bd dc6a 0ebe
000000a0: 3739 b9be eae3 1d3d b46c cabc cb1b afbc
000000b0: d466 d3be a240 51be d264 d9bd e7e2 b0be
000000c0: 0b93 c93d 0303 19be 6a4d 9e3d 946d b9be
000000d0: 60ee a3bd 650d 953e e4f8 78bd 612f 0dbd
000000e0: 9b41 803e 698c d33c b12e 60ba faae 88bd
000000f0: 5056 4c3e 3a43 283e f577 90bd 6e4b c53c
00000100: 5b8c d23d a0e3 1dbd d4ee bb3e d72c 60bc
00000110: eab3 34be e085 e23b 50f9 bf3d 21d5 eebc
00000120: 3609 173e a255 babd 0104 a1be 0485 ea3d
00000130: 9dc1 9c3c 7ec3 84bd 0cb5 bebe bd2f 2d3e
00000140: b974 8abe 8b75 3d3e 3df4 523e 0c44 e2bd
00000150: 8f35 6a3e ee04 49be 9fed f4bd a0c0 c03c
00000160: da65 a0bd 8fa1 d1bc b245 ea3d 2422 ca3d
00000170: 5e67 8d3d 4cf4 ae3e 1669 713e f9ee 753d
00000180: 37a2 ce3e f3a0 c83e 9d72 14be 5207 7c3e
00000190: c035 99bd 599e 3f3e 324c 933e aaf1 013e
000001a0: a7a0 a8bc 684f 423e 145c 04be ebfa 3e3e
000001b0: 280a 523b c623 aebd c5b4 593e a30a 78be
000001c0: be0e aa3c 4177 8abd da04 9fbe 9733 833d
000001d0: c223 2bbe 330f 8dbe dc3a 79bd aa63 9f3e
000001e0: 81ce 623e cf24 f5bb b685 80be ea09 163e
000001f0: 5c2c 5fbe 17a2 443e 039d 08bf 2733 6ebe
00000200: 342b 293d 3e7e 9dba d348 153e 9afb ea3d
00000210: 6142 4f3d ea5b 82be 675d 36bd 4486 e9bd
00000220: a167 db3d 1ba7 673b b593 fdbd 236f 64bd
00000230: 7866 823e 778e b03c 6018 a83e 7def 20bc
00000240: 1b2f 8e3e 4306 f6bd 6fe5 6c3c bf03 2bbe
00000250: 348d 003e 9ba2 743b 2f27 123d 4ccf 5abe
00000260: c1ac 803d 7374 2f3e b394 65be 9117 b63d
00000270: adde 06bf 84e9 5ebe 9aae e9bd 1913 cabe
00000280: 2d4f c9bd a042 f23d 9df4 c13b 0a60 313d
00000290: b4ef 8e3e 018d 953d 3ebc 6cbd 1905 95bd
000002a0: e166 9f3e 3cbf 56be e770 4a3e 2887 433d
000002b0: 6f7e e7bd 7c48 f03d f9db 08bd 9eca 47be
000002c0: dde2 ad3e 815e a93d 0b33 91be 1067 c6be
000002d0: 4785 05be 4ce0 8bbe a068 683d 8ca5 06bd
000002e0: f357 3d3c 4913 713d 395d 003e 94a5 bc3d
000002f0: 9ef7 acbb 08f4 ed3d 0c30 3bbe 6b27 93be
00000300: 8d67 a03e e1d5 67be c981 42bd 2023 27bd
00000310: 9b27 14bd 629f c4bd ebe7 b33e 7c84 e0bd
00000320: e94a 1abe 850f ebbe 8b45 29be 9560 223e
00000330: 206a d6bd 5718 ae3d 59e8 83be 86e6 d23e
00000340: b3cf 003e 3bf3 c33d 5857 70be 9836 023e
00000350: b40b 8e3e 1f76 2bbe 6363 0e3e ee63 4fbd
00000360: 2806 9dbd fc13 8d3e 33db 5f3e bf58 893c
00000370: a159 3f3e 4884 97be 8922 1dbe 2506 173e
00000380: 230b ed3d d5cd a73e bfc0 71be 1066 28be
00000390: a594 b3bd 20fa 863e 3040 46be e7fe 5cbc
000003a0: 50b5 193e 81d6 b8bc d02d 24be 087f 0e3e
000003b0: 44de 87ba e439 bcbd 2837 973d bca0 653e
000003c0: 91ed 92bd d95e 163d 220c 68be f108 563e
000003d0: 1677 1ebd 6164 3f3d 1f76 3cbd 39cc 9cbd
000003e0: 1199 ea3c acb0 823e 9ce4 92bd c10a 66be
000003f0: eb9c 563e 6707 603d 6e41 4c3e 545e 61be

actor_mean.2.bias f4 [64]
-0.055767655 0.086677104 -0.12488041 0.16066474 0.037204698 -0.10569935 0.015419048 -0.013930317
0.09163375 -0.040814318 0.013986655 -0.10841603 -0.01999477 -0.04499772 0.04966397 0.0019402673
-0.060511857 -0.004923295 -0.07642483 0.04595454 -0.021755924 0.0025450026 0.13782692 0.01471965
-0.005951129 0.06727983 0.02940625 0.15644889 0.1744502 -0.10123198 0.21887422 -0.001170322
0.0991444 0.15468599 -0.07490561 -0.062412944 0.051393796 -0.045029312 -0.0929126 0.17514248
0.18116501 -0.0964106 -0.07801367 0.26570615 -0.028893096 0.030516747 -0.10724072 0.14028463
0.02936528 0.0030775727 -0.09138327 0.06481115 0.00082596834 -0.010401841 0.0038098283 0.074439324
-0.018287834 0.016802981 0.011925381 -0.06549267 0.12628019 0.14514533 0.15198036 -0.10083737
00000000: a06c 64bd c483 b13d 4dc1 ffbd 4c85 243e
00000010: f463 183d e778 d8bd 2da0 7c3c fc3b 64bc
00000020: 7aaa bb3d ea2c 27bd 4828 653c 3909 debd
00000030: 12cc a3bc 874f 38bd 726c 4b3d 9150 fe3a
00000040: 48db 77bd 9853 a1bb 9f84 9cbd d43a 3c3d
00000050: 7b39 b2bc 0fca 263b 8022 0d3e b02a 713c
00000060: b001 c3bb 02ca 893d 60e5 f03c 2334 203e
00000070: 13a3 323e b652 cfbd 9020 603e 7d65 99ba
00000080: 380c cb3d 0166 1e3e 1d68 99bd b7a4 7fbd
00000090: 4d82 523d a870 38bd f648 bebd 8d58 333e
000000a0: 5283 393e ec72 c5bd a2c5 9fbd a30a 883e
000000b0: 37b1 ecbc 42fe f93c 06a1 dbbd c6a6 0f3e
000000c0: 758f f03c 1ab1 493b 2727 bbbd b5bb 843d
000000d0: cc85 583a 7c6c 2abc 50ae 793b a573 983d
000000e0: 5ed0 95bc 68a6 893c ac62 433c 0521 86bd
000000f0: 984f 013e faa0 143e bda0 1b3e d383 cebd

actor_mean.4.weight f4 [6, 64]
-0.023789639 -0.034666948 -0.11281237 0.07656669 0.04249065 0.038053054 0.08044262 -0.036072355
-0.0056696353 -0.021287346 -0.040965367 -0.051881887 -0.01857559 -0.00043495942 0.033489823 0.008293038
-0.0055034314 -0.049910314 0.042099923 -0.027889973 0.0027538624 -0.04811508 0.022890028 -0.01627231
0.0062833168 -0.026103526 -0.038141385 0.043159936 0.0981273 0.0105610145 0.11541494 0.031439126
0.058528546 0.105499975 -0.04845562 -0.018930757 -0.038394332 0.04249637 -0.073298775 0.095696434
0.0774293 0.04347713 -0.053049814 0.13446996 0.013989219 -0.058733635 -0.0731338 0.061701957
0.09716343 -0.029756207 0.0066001196 -0.0622473 -0.02994521 -0.08403344 -0.02979553 0.0060744686
0.029302785 0.012263648 -0.05777107 -0.0110027185 -0.09368935 0.10725193 0.025781916 -0.055386048
0.07403923 0.09975094 0.06432518 0.011185969 0.022043383 0.025895381 -0.04376731 -0.04315576
0.029765148 -0.018509677 0.08696165 0.028511357 0.014746013 -0.024414703 -0.018225515 0.010599054
0.045260876 -0.0040292908 -0.06378184 0.014332978 0.025431085 0.0452526 0.12265514 0.053983636
-0.041687164 0.015861832 -0.012957837 -0.009381876 0.0070939125 -0.051455587 -0.01999122 0.08465992
0.022656854 -0.03860184 0.032299396 0.0104640545 0.043102663 -0.018822102 -0.027014056 -0.0028411034
-0.054175958 0.0040982724 0.0053188126 -0.002570165 -0.02829669 0.04067456 -0.030721232 -0.044428814
-0.04825092 0.015625339 0.027930547 -0.019826213 0.07984429 -0.019769225 -0.019251944 0.049610816
0.07025918 -0.0040852814 0.0320795 -0.016458837 0.19610144 0.0040686377 0.10880159 0.03778065
0.0036499894 -0.0024125988 0.001579524 -0.0024891146 0.0020272597 0.0003927263 0.0029758571 0.000559388
0.00012907978 -0.0028285075 0.0050754207 0.000444968 0.00061125774 -0.0014051782 -0.0025867622 -0.0025267052
-0.0020668982 0.0010359538 0.00092435454 0.002901943 0.0005827713 0.001047993 -0.0012551745 -0.000569431
-0.004356419 -0.00012243004 0.002769167 -0.00082951324 0.002764286 0.0035340495 0.006199017 -0.0033984117
-0.0025976019 0.0058826962 -0.0005993541 0.0009873906 0.0001377654 -0.0021825214 -0.0062305816 0.000109754794
-0.0036415043 -0.0017767443 -0.0029405023 0.0020264664 -0.001670787 -0.005870337 0.0004048347 0.00026649373
0.005848152 -0.00011607432 0.002042702 -0.0017610005 -0.0053997547 -0.0021516609 -0.00021243379 0.0011119051
0.0022720383 -0.0033093877 -0.004611202 0.0032154531 0.00091517833 0.0015347584 0.0008068103 -0.0040321597
0.10902003 0.039221868 0.07534433 -0.12948644 -0.082995236 0.070592724 -0.10244135 -0.0014759676
0.059055787 0.0124046225 0.038165856 0.0698311 -0.02660117 0.048210748 -0.07885908 0.06698906
-0.016641384 -0.019833919 0.028888498 0.031400334 0.032630164 0.030597478 -0.014573712 -0.0413655
0.046072543 -0.07851604 0.067996554 -0.1174707 -0.11812807 0.08872662 -0.13722214 -0.034838043
-0.00011620736 -0.060349915 -0.019762281 0.089607336 -0.037855245 0.06846905 0.09553091 -0.021107478
-0.019680317 -0.043953612 0.019091181 -0.08385562 -0.020098843 -0.043806665 0.05586443 -0.043799754
-0.012014433 0.12609047 -0.029154 0.0022091847 0.01912585 -0.009304297 0.019747566 -0.012538545
0.040606007 -0.06867648 -0.04885315 0.07543331 0.011118392 -0.14424485 -0.004204584 0.033896655
00000000: 7de2 c2bc eefe 0dbd 2c0a e7bd ffce 9c3d
00000010: ad0a 2e3d 85dd 1b3d 1abf a43d 9bc0 13bd
00000020: 59c8 b9bb cd62 aebc 4dcb 27bd 1a82 54bd
00000030: d62b 98bc 440b e4b9 a02c 093d 86df 073c
00000040: 2156 b4bb c26e 4cbd f870 2c3d 8379 e4bc
00000050: 257a 343b 5114 45bd de83 bb3c 824d 85bc
00000060: 48e4 cd3b 10d7 d5bc 243a 1cbd 79c8 303d
00000070: f7f6 c83d 1b08 2d3c ab5e ec3d 50c6 003d
00000080: a1bb 6f3d 5f10 d83d 6679 46bd ad14 9bbc
00000090: 6043 1dbd ac10 2e3d ab1d 96bd 7efc c33d
000000a0: 4193 9e3d 1315 323d c34a 59bd 7eb2 093e
000000b0: 0a33 653c ae92 70bd 2cc7 95bd 31bb 7c3d
000000c0: 9ffd c63d 4ac3 f3bc d145 d83b 06f7 7ebd
000000d0: a84f f5bc b919 acbd c115 f4bc 560c c73b
000000e0: 650c f03c 78ed 483c 5ca1 6cbd bf44 34bc
000000f0: 34e0 bfbd e6a6 db3d 9934 d33c 7bdc 62bd
00000100: e1a1 973d 394a cc3d ecbc 833d 5b45 373c
00000110: 5394 b43c 8d22 d43c 5a45 33bd 18c4 30bd
00000120: 0ad6 f33c 9ba1 97bc f318 b23d a690 e93c
00000130: 4399 713c 5801 c8bc ad4d 95bc a8a7 2d3c
00000140: 7863 393d 2408 84bb 0ea0 82bd ded4 6a3c
00000150: da54 d03c ca5a 393d 9e32 fb3d f21d 5d3d
00000160: 29c0 2abd acf0 813c 1c4d 54bc 71b6 19bc
00000170: 0d74 e83b 18c3 52bd a1c4 a3bc 2e62 ad3d
00000180: de9a b93c f71c 1ebd 5f4c 043d 6d71 2b3c
00000190: 6b8c 303d cf30 9abc 954c ddbc ce31 3abb
000001a0: 9ce7 5dbd cd4a 863b 6f49 ae3b 3770 28bb
000001b0: 76ce e7bc 5e9a 263d 18ab fbbc fdfa 35bd
000001c0: c2a2 45bd b600 803c 9ace e43c 956a a2bc
000001d0: 6785 a33d 12f3 a1bc 41b6 9dbc b634 4b3d
000001e0: 0ce4 8f3d d3dd 85bb cb65 033d afd4 86bc
000001f0: d1ce 483e 3552 853b 5ed3 de3d e2bf 1a3d
00000200: a934 6f3b b11c 1ebb 0808 cf3a 6a20 23bb
00000210: c6db 043b d5e6 cd39 9906 433b e5a3 123a
00000220: 9759 0739 7b5e 39bb b74f a63b 984a e939
00000230: d03c 203a f52d b8ba ab86 29bb 1497 25bb
00000240: cc74 07bb d7c8 873a 6250 723a 862e 3e3b
00000250: 1fc5 183a cf5c 893a ab84 a4ba de45 15ba
00000260: 4bc0 8ebb 9060 00b9 ea7a 353b b173 59ba
00000270: 0629 353b 839b 673b 2021 cb3b e3b7 5ebb
00000280: 873c 2abb a2c3 c03b f91d 1dba 556b 813a
00000290: 1e75 1039 a208 0fbb e829 ccbb 282c e638
000002a0: 4ea6 6ebb a5e1 e8ba 71b5 40bb 77ce 043b
000002b0: 4ffe daba f55b c0bb fe3f d439 2fb8 8b39
000002c0: dba1 bf3b ed6c f3b8 dade 053b 5fd1 e6ba
000002d0: 6df0 b0bb e102 0dbb c3c0 5eb9 58bd 913a
000002e0: 7ae6 143b 50e2 58bb 9119 97bb 5aba 523b
000002f0: 94e8 6f3a f229 c93a 1f80 533a 3520 84bb
00000300: e545 df3d 1ca7 203d 214e 9a3d 1898 04be
00000310: 68f9 a9bd eb92 903d c5cc d1bd 4175 c1ba
00000320: 7be4 713d c23c 4b3c cd53 1c3d 9c03 8f3d
00000330: b2ea d9bc a278 453d df80 a1bd 8f31 893d
00000340: 8353 88bc be7a a2bc 92a7 ec3c a39d 003d
00000350: 35a7 053d 90a7 fa3c 94c6 6ebc df6e 29bd
00000360: 90b6 3c3d 05cd a0bd c741 8b3d 7a94 f0bd
00000370: 21ed f1bd 4db6 b53d f683 0cbe 56b2 0ebd
00000380: 5ab4 f3b8 7931 77bd 82e4 a1bc 0d84 b73d
00000390: 1a0e 1bbd 8039 8c3d b6a5 c33d 97e9 acbc
000003a0: 9e38 a1bc b408 34bd 1c65 9c3c 7fbc abbd
000003b0: 54a6 a4bc 9e6e 33bd 1ad2 643d 5f67 33bd
000003c0: 2fd8 44bc dc1d 013e 5fd4 eebc f8c7 103b
000003d0: d1ad 9c3c 0d71 18bc a6c5 a13c 786e 4dbc
000003e0: 7c52 263d 41a6 8cbd 3e1a 48bd c77c 9a3d
000003f0: eb29 363c ecb4 13be 9bc6 89bb 38d7 0a3d

actor_mean.4.bias f4 [6]
0.11932985 0.02430569 0.0027476542 -0.1027688 -0.1531907 0.019724384
00000000: 3563 f43d ba1c c73c fd11 343b 7378 d2bd
00000010: 06de 1cbe 0895 a13c
