jsbgym/models/train_saves_extVa/pidrl/ppo_addpidrl_capspid_ts7e-2_extendedVa_betacuri_tsteps2e6_1_46203_30-01_21:43:34.pt (torch, 73809 bytes, 14 tensors)

actor_logstd f4 [1, 6]
0.7209053 0.39217162 0.48385265 0.7118731 0.40426654 0.45943922
00000000: 408d 383f b8ca c83e 89bb f73e 513d 363f
00000010: 06fc ce3e 9e3b eb3e

conv.0.weight f4 [3, 1, 5, 1]
-0.021850444 -0.00025270737 -0.01750099 -0.11669274 -0.33738685 0.024172314 0.008513398 0.031627007
0.12988971 0.3410313 0.02563032 0.0007157439 0.016375005 0.12244044 0.36284417
00000000: b4ff b2bc cf7d 84b9 3c5e 8fbc 9afc eebd
00000010: f8bd acbe 0405 c63c c77b 0b3c 528b 013d
00000020: cf01 053e a89b ae3e adf6 d13c c3a0 3b3a
00000030: e024 863c 0ec2 fa3d b6c6 b93e

conv.0.bias f4 [3]
-0.080956765 0.2270773 -0.20358434
00000000: a9cc a5bd f486 683e 6a78 50be

critic.0.weight f4 [64, 60]
0.20415647 -0.21303289 -0.009461756 -0.058259156 0.003566858 -0.11444053 0.13361308 -0.65769094
-0.06334958 -0.11486696 0.20367032 0.13328195 0.11522682 0.11684292 -0.2548322 -0.052596547
0.14663905 0.123825766 -0.07203633 0.20496008 0.00023169431 0.43482405 -0.35215387 0.05930775
0.14607649 -0.1870032 0.27578193 0.25889468 0.034916755 -0.023326317 0.050389137 0.06841022
0.0041282973 -0.015312773 -0.13143176 -0.11586763 0.24665947 0.17456467 0.20816845 -0.032000996
0.29533586 0.2392757 0.09900327 -0.1824093 0.0015450182 -0.08025962 -0.16583861 0.2643495
-0.41184375 -0.32318017 0.02590928 0.05747463 0.12744518 0.16693585 -0.11936263 -0.036585644
-0.014601892 -0.038423847 -0.03461447 -0.23963407 -0.057447378 -0.16045445 0.0007253806 0.15300861
0.21544404 0.114030324 -0.498232 -0.5831371 0.05804064 -0.09582764 -0.13907893 0.012802925
-0.03763435 0.14488599 0.051659636 -0.0548765 0.0061458154 -0.056088086 -0.3190486 -0.7548343
-0.302065 -0.022902697 0.02859382 0.0067883646 0.21169746 0.032988936 0.3193402 0.18309529
0.22965355 -0.022717947 -0.011311362 -0.044934146 -0.004635241 -0.00611898 0.17223829 0.020465652
-0.09767125 -0.06514429 0.05862067 0.3570746 0.42378032 0.30922872 0.29258588 -0.11505577
0.12835728 -0.17041776 0.5563132 0.06278435 -0.12536417 0.29407972 -0.09946772 0.12249901
0.039314304 0.17984831 -0.08388623 -0.034072988 -0.07230818 0.028382644 -0.005060698 0.6014829
-0.08656777 0.04478465 -0.21857435 -0.08582323 -0.04873174 0.027997592 0.11198702 0.14997582
-0.41699675 0.14177282 -0.20280437 -0.07376424 0.013206528 -0.05879081 0.121771716 -0.103293225
0.10592329 -0.19831084 -0.030092828 -0.14201413 -0.22262065 -0.040859055 0.50810254 0.024628699
0.009372667 0.06419678 0.19747709 -0.19104187 -0.27048036 0.35449108 -0.13475928 0.0333382
0.024098132 0.062141046 0.023964413 0.05895086 0.008762098 0.14816211 0.28576282 -0.05940086
0.0025496215 0.06380994 0.3416517 -0.007894821 0.00085199054 -0.020631779 0.08069845 0.18488413
-0.109611474 -0.23258664 -0.05895225 -0.045356583 0.04366696 -0.023170648 -0.031814158 -0.23309022
0.01760542 -0.22507675 -0.23750585 -0.08847753 -0.3539418 0.24474423 -0.021639258 0.18666221
-0.02685169 -0.053765062 -0.28093377 0.3647876 0.220115 0.3819553 -0.05206984 0.044841513
-0.086893976 0.36819324 -0.15687707 -0.13370177 0.0074651306 0.13174923 0.16718009 -0.42995557
0.05617808 -0.16343956 -0.17642957 0.06955554 -0.030575112 -0.17859758 0.038988076 -0.058557577
-0.04375058 0.0016263004 -0.26040247 -0.0003678164 -0.11156034 0.25634173 -0.030410044 0.01041837
-0.060459305 -0.03344083 -0.21071619 0.4573838 -0.2290863 -0.17362875 0.018536361 -0.22933501
0.078202434 -0.23739825 -0.057288967 -0.7442071 0.085625485 -0.053919923 0.15465257 0.041539162
0.12117838 0.100693084 -0.043544106 -0.12285416 -0.14921427 0.0186763 -0.19031762 0.079528406
-0.23178196 -0.2753756 0.08486366 -0.34616104 -0.47736478 -0.11220388 -0.10623857 -0.12511571
0.06767666 0.034476664 -0.103579745 -0.08200061 0.1781011 -0.23823856 -0.10470577 -0.018290406
00000000: 650e 513e 4b25 5abe 7b05 1bbc 27a1 6ebd
00000010: f2c1 693b cc5f eabd ded1 083e 6f5e 28bf
00000020: 6dbd 81bd 5e3f ebbd f48e 503e 107b 083e
00000030: 0afc eb3d 574b ef3d 5e79 82be 7a6f 57bd
00000040: 8c28 163e 5d98 fd3d c987 93bd 0ee1 513e
00000050: f8f2 7239 42a1 de3e 834d b4be afec 723d
00000060: 1395 153e c47d 3fbe 4a33 8d3e d88d 843e
00000070: df04 0f3d d516 bfbc d764 4e3d a81a 8c3d
00000080: ab46 873b 6de2 7abc 0c96 06be 024c edbd
00000090: 4d94 7c3e 15c1 323e 1c2a 553e 7a13 03bd
000000a0: 4336 973e b004 753e 3ac2 ca3d 81c9 3abe
000000b0: 3582 ca3a 285f a4bd 99d1 29be d158 873e
000000c0: 2fdd d2be df77 a5be b33f d43c 856a 6b3d
000000d0: fd80 023e 3bf1 2a3e 6574 f4bd d4da 15bd
000000e0: c63c 6fbc 5362 1dbd e7c7 0dbd a262 75be
000000f0: f14d 6bbd 2c4e 24be 7827 3e3a 4aae 1c3e
00000100: 5d9d 5c3e bb88 e93d 4418 ffbe 7948 15bf
00000110: 06bc 6d3d 4841 c4bd b56a 0ebe 5cc3 513c
00000120: 7a26 1abd fe5c 143e 0e99 533d 2ec6 60bd
00000130: d662 c93b 9fbc 65bd 575a a3be d23c 41bf
00000140: 44a8 9abe 709e bbbc 963d ea3c ee70 de3b
00000150: 38c7 583e 681f 073d 8f80 a33e 557d 3b3e
00000160: 4d2a 6b3e fd1a babc 4a53 39bc de0c 38bd
00000170: 38e3 97bb b981 c8bb 3c5f 303e 95a7 a73c
00000180: dd07 c8bd 5f6a 85bd 3a1c 703d 7bd2 b63e
00000190: bcf9 d83e 3a53 9e3e d1cd 953e 5ca2 ebbd
000001a0: 1770 033e fe81 2ebe 8b6a 0e3f 1595 803d
000001b0: 775f 00be 9e91 963e bbb5 cbbd c3e0 fa3d
000001c0: 0908 213d 282a 383e 8bcc abbd 1e90 0bbd
000001d0: 5016 94bd b882 e83c 36d4 a5bb c9fa 193f
000001e0: 714a b1bd 1c70 373d f4d1 5fbe 17c4 afbd
000001f0: ef9a 47bd 355b e53c 7359 e53d 4393 193e
00000200: 9980 d5be e52c 113e f3ab 4fbe b511 97bd
00000210: 3160 583c a2ce 70bd 7363 f93d 668b d3bd
00000220: 4fee d83d ff11 4bbe 3c85 f6bc 276c 11be
00000230: abf6 63be d35b 27bd 0213 023f 20c2 c93c
00000240: d18f 193c 9a79 833d 6f37 4a3e 7ba0 43be
00000250: 677c 8abe db7f b53e 56fe 09be a38d 083d
00000260: 7269 c53c 9c87 7e3d 0451 c43c 7576 713d
00000270: e78e 0f3c cfb7 173e 814f 923e 514e 73bd
00000280: 8d17 273b c9ae 823d f9ec ae3e 4859 01bc
00000290: 1e58 5f3a fa03 a9bc 3b45 a53d 4452 3d3e
000002a0: fb7b e0bd 312b 6ebe ea77 71bd d3c7 39bd
000002b0: 20dc 323d 5fd0 bdbc 904f 02bd 34af 6ebe
000002c0: 3e39 903c 857a 66be bc34 73be b533 b5bd
000002d0: dc37 b5be 3b9e 7a3e d044 b1bc 6124 3f3e
000002e0: 13f8 dbbc c138 5cbd 8dd6 8fbe 71c5 ba3e
000002f0: d465 613e a58f c33e 2f47 55bd bcab 373d
00000300: 78f5 b1bd d383 bc3e 62a4 20be 1ee9 08be
00000310: 0e9e f43b 45e9 063e 4231 2b3e 2323 dcbe
00000320: fd1a 663d b35c 27be f4a9 34be 2373 8e3d
00000330: a878 fabc 49e2 36be f6b1 1f3d 12da 6fbd
00000340: cf33 33bd 9629 d53a 7953 85be 7bd7 c0b9
00000350: bf79 e4bd 393f 833e 7c1e f9bc d0b1 2a3c
00000360: 2da4 77bd 40f9 08bd fcc5 57be 362e ea3e
00000370: 9995 6abe bccb 31be 91d9 973c ccd6 6abe
00000380: 9928 a03d 8718 73be d6a7 6abd 5b84 3ebf
00000390: 6a5c af3d 23db 5cbd 3e5d 1e3e f824 2a3d
000003a0: 5f2c f83d 2d38 ce3d 4e5b 32bd f69a fbbd
000003b0: a0cb 18be 0aff 983c 9fe2 42be cadf a23d
000003c0: 4058 6dbe 08fe 8cbe 00cd ad3d 053c b1be
000003d0: 2869 f4be 26cb e5bd 9b93 d9bd 551e 00be
000003e0: 109a 8a3d 6737 0d3d 9e21 d4bd f0ef a7bd
000003f0: 2260 363e cff4 73be fb6f d6bd c3d5 95bc

critic.0.bias f4 [64]
-0.0883947 -0.0002585204 0.14768726 -0.023899067 0.01901494 -0.090613194 0.034777567 -0.07783772
-0.015439845 -0.05762115 -0.0055261496 0.156882 -0.049315054 -0.042078447 -0.032628536 0.12708813
0.0019747058 0.008946237 -0.001237485 -0.072723255 -0.07799547 -0.1984145 -0.06426792 -0.05270959
0.18836662 -0.045071866 0.25570914 -0.07951921 0.09444411 -0.038878113 0.033654414 0.033355575
-0.10673809 0.22075623 0.04496576 -0.037971195 -0.030796444 -0.049913432 0.023726692 -0.13337237
0.039640408 -0.031417325 0.011145114 0.044188693 0.014990593 -0.11050196 0.05507326 0.12373955
0.03247262 0.000567502 -0.0740253 0.10689683 -0.05033423 0.103730276 -0.14856954 0.1182025
0.21556923 0.20115572 0.06623808 -0.031712286 0.05539415 -0.037131123 0.047621388 0.067028195
00000000: 4808 b5bd 058a 87b9 543b 173e fac7 c3bc
00000010: 38c5 9b3c 6993 b9bd ec72 0e3d 6269 9fbd
00000020: 67f7 7cbc 2804 6cbd b414 b5bb ada5 203e
00000030: 95fe 49bd 735a 2cbd 80a5 05bd 6423 023e
00000040: 116a 013b 3d93 123c 1b33 a2ba eeef 94bd
00000050: 17bc 9fbd 2c2d 4bbe e69e 83bd 03e6 57bd
00000060: 2ee3 403e 479d 38bd 4fec 823e f8da a2bd
00000070: ea6b c13d a83e 1fbd 36d9 093d db9f 083d
00000080: 8099 dabd ec0d 623e 042e 383d af87 1bbd
00000090: d348 fcbc 0772 4cbd 7b5e c23c c492 08be
000000a0: fb5d 223d 74af 00bd ff99 363c 34ff 343d
000000b0: 1b9b 753c da4e e2bd 8094 613d 296b fd3d
000000c0: 0302 053d 6ac4 143a 949a 97bd baec da3d
000000d0: 442b 4ebd 8a70 d43d 9d22 18be 2714 f23d
000000e0: 2ebe 5c3e c4fb 4d3e d5a7 873d bee4 01bd
000000f0: fae4 623d ce16 18bd a50e 433d 1446 893d

critic.2.weight f4 [64, 64]
-0.16053256 -0.1240376 0.16047135 0.12655483 0.5378272 0.16158198 0.12948096 -0.21553542
0.14565054 -0.03674941 0.032635078 0.18992603 0.34387013 0.13453656 -0.049685404 -0.2841399
-0.3847426 -0.08595795 0.10667643 0.036507726 0.15728122 0.13803713 0.024690136 0.023692172
0.009892646 0.36676526 0.27934194 -0.015071153 0.3522013 -0.15585376 0.0855815 -0.12390755
-0.07909111 -0.075449154 0.19410367 0.029535994 0.07258853 0.095328644 -0.45449737 0.2903301
-0.22809562 -0.03364944 -0.19779888 -0.4128107 -0.4012142 -0.10607216 -0.22132985 0.15156767
-0.23271523 0.31632808 0.2587063 -0.047128137 -0.28862265 0.0038130335 -0.08154247 -0.055311006
0.0385188 0.07087062 -0.035048362 -0.33177364 0.29060414 -0.20315497 -0.3539045 0.11127682
-0.43567446 -0.10386994 0.17852537 0.27786955 0.027042266 0.14349952 -0.21112655 -0.2171643
0.19329163 0.16240822 0.25803295 -0.25180596 -0.316069 0.31741047 0.16987167 0.22378345
-0.8279344 -0.1943203 0.07250594 -0.02120428 0.16271606 -0.12205675 0.28352538 0.007216644
-0.13325265 0.28075463 -0.2012299 -0.07253571 0.21961604 -0.07311435 0.034374006 0.10939435
0.2517929 -0.014970475 0.15467341 0.03191384 0.046921704 -0.15957019 -0.5376608 -0.33003676
-0.23971863 0.015641851 -0.02259605 -0.3844758 -0.32260692 0.036224302 0.20247424 0.17558058
-0.4584944 -0.08181933 0.018443605 -0.067659035 0.21861508 -0.38530326 -0.021768384 0.10816768
0.096426204 0.3778508 0.42850244 0.4206918 -0.011654108 -0.38868228 -0.15245938 0.0028083513
0.27815214 0.22300822 -0.30083287 0.16490828 0.032158803 0.13655971 0.11105396 -0.21443288
-0.15022896 -0.17262252 0.124122396 -0.28190702 -0.021450235 0.19809376 -0.21467414 0.11471371
-0.19996849 -0.11680838 0.11400217 0.03517696 -0.06904629 -0.0015760656 -0.10849484 0.045298602
-0.15870497 0.041071534 -0.3396217 0.16860546 -0.107001685 -0.03666991 -0.15024488 -0.22147636
0.23004752 -0.32046443 -0.31657952 -0.07651677 -0.15730734 0.18503541 0.3909912 -0.16930106
0.33315974 0.18838136 -0.13290323 0.09490894 -0.15155582 -0.06271084 -0.031298917 -0.12959953
-0.12290283 0.049713664 0.11750685 -0.20427383 0.08844931 -0.053906087 -0.13397008 -0.016845947
-0.13166268 0.092005834 -0.054421313 0.132311 0.26892483 -0.054149218 -0.11412579 -0.08354871
0.37165454 0.18068884 -0.04033015 0.08014942 -0.3470039 0.014581763 -0.24653663 0.29716963
-0.06912075 -0.014555456 0.025125846 -0.24169978 -0.038718224 0.10049375 -0.08585819 -0.023458993
0.4293787 0.14885592 -0.060809128 0.37915093 0.0030561402 0.071207955 0.0057739336 0.1340105
-0.12183894 0.3386594 0.0584115 0.11028349 -0.1703366 -0.05438631 -0.10016976 -0.15282623
0.26509726 -0.021979148 0.09777905 0.046653017 -0.29515332 0.3414225 -0.027267847 -0.03691489
-0.31732985 -0.10421437 0.16649823 -0.1672519 -0.36221808 0.05299788 0.22113375 0.26075682
0.010191682 -0.109918006 -0.07831949 -0.13545881 0.40320733 0.13550912 0.06702528 0.12854387
-0.19755983 -0.2814806 0.2492191 -0.09061794 0.17708877 0.3074991 0.07002846 -0.12153184
00000000: a662 24be 6d07 febd 9a52 243e 9797 013e
00000010: 0baf 093f bf75 253e a896 043e 51b5 5cbe
00000020: 6a25 153e 8d86 16bd 5cac 053d f87b 423e
00000030: bf0f b03e f4c3 093e ec82 4bbd c97a 91be
00000040: fbfc c4be b90a b0bd 2c79 da3d 2089 153d
00000050: 540e 213e 9b59 0d3e f842 ca3c 1616 c23c
00000060: c414 223c a8c8 bb3e e805 8f3e ffec 76bc
00000070: bb53 b43e 2198 1fbe 5a45 af3d 3ec3 fdbd
00000080: 85fa a1bd 1685 9abd 1dc3 463e 78f5 f13c
00000090: 4ca9 943d aa3b c33d e1b3 e8be 26a6 943e
000000a0: e691 69be ffd3 09bd ca8b 4abe ed5b d3be
000000b0: f36b cdbe 5c3c d9bd 4ba4 62be 8e34 1b3e
000000c0: e74c 6ebe c1f5 a13e 2775 843e 6f09 41bd
000000d0: 59c6 93be 16e4 793b bdff a6bd cb8d 62bd
000000e0: e4c5 1d3d 9e24 913d df8e 0fbd 3cde a9be
000000f0: 11ca 943e db07 50be f832 b5be 1ae5 e33d
00000100: b910 dfbe c3b9 d4bd 5bcf 363e eb44 8e3e
00000110: be87 dd3c 8af1 123e 8f31 58be 5160 5ebe
00000120: 3eee 453e 574e 263e e51c 843e b6ec 80be
00000130: ccd3 a1be a083 a23e d7f2 2d3e 7d27 653e
00000140: 82f3 53bf e7fb 46be ff7d 943d 99b4 adbc
00000150: 0a9f 263e e4f8 f9bd 3d2a 913e 9979 ec3b
00000160: 6273 08be 12bf 8f3e 360f 4ebe 9a8d 94bd
00000170: 07e3 603e fabc 95bd c2cb 0c3d 250a e03d
00000180: 00eb 803e b946 75bc b562 1e3e 16b8 023d
00000190: f930 403d 5e66 23be 23a4 09bf 94fa a8be
000001a0: cd78 75be 5723 803c 5a1b b9bc 03da c4be
000001b0: bc2c a5be ef5f 143d 6855 4f3e 65cb 333e
000001c0: c7bf eabe e590 a7bd 0b17 973c d290 8abd
000001d0: a2dc 5f3e 7846 c5be 9c53 b2bc 0487 dd3d
000001e0: 1a7b c53d a975 c13e ac64 db3e ea64 d73e
000001f0: dff0 3ebc 5d01 c7be 501e 1cbe 510c 383b
00000200: f569 8e3e 445c 643e c406 9abe b7dd 283e
00000210: f3b8 033d 4fd6 0b3e 4270 e33d 4b94 5bbe
00000220: 9fd5 19be f5c3 30be e233 fe3d 1e56 90be
00000230: 67b8 afbc 17d9 4a3e 8ad3 5bbe 06ef ea3d
00000240: 8ac4 4cbe 3b39 efbd f879 e93d b715 103d
00000250: 2468 8dbd fc93 ceba 8b32 debd 078b 393d
00000260: 8e83 22be a03a 283d e5e2 adbe e9a6 2c3e
00000270: b323 dbbd 3033 16bd cbd9 19be b3ca 62be
00000280: 9491 6b3e ea13 a4be b616 a2be d3b4 9cbd
00000290: 2d15 21be ec79 3d3e 0030 c83e 425d 2dbe
000002a0: ea93 aa3e 0be7 403e c917 08be 9e5f c23d
000002b0: 7331 1bbe 8a6e 80bd 4b33 00bd bdb5 04be
000002c0: 7bb4 fbbd 8ea0 4b3d 6ea7 f03d 292d 51be
000002d0: e924 b53d a1cc 5cbd 742f 09be 8300 8abc
000002e0: 95d2 06be 8e6d bc3d e2e8 5ebd 897c 073e
000002f0: 84b0 893e 92cb 5dbd c8ba e9bd 961b abbd
00000300: 8149 be3e 7f06 393e 3a31 25bd 6125 a43d
00000310: 7faa b1be 59e8 6e3c 1974 7cbe 9e26 983e
00000320: 2e8f 8dbd 027a 6ebc b8d4 cd3c 2680 77be
00000330: 0097 1ebd abcf cd3d 6bd6 afbd 132d c0bc
00000340: 86d7 db3e b06d 183e fe12 79bd 1220 c23e
00000350: 8649 483b 7ad5 913d 4433 bd3b 0c3a 093e
00000360: b286 f9bd c464 ad3e e640 6f3d 4fdc e13d
00000370: b86c 2ebe 2ec4 5ebd ce25 cdbd 7b7e 1cbe
00000380: d4ba 873e 9d0d b4bc 6240 c83d 3c17 3f3d
00000390: 561e 97be eece ae3e d260 dfbc 1134 17bd
000003a0: 0f79 a2be 586e d5bd 837e 2a3e 1544 2bbe
000003b0: a674 b9be 4e14 593d e370 623e eb81 853e
000003c0: 03fb 263c b11c e1bd f865 a0bd b7b5 0abe
000003d0: 3171 ce3e e7c2 0a3e 8d44 893d 01a1 033e
000003e0: 204d 4abe 3a1e 90be 4b33 7f3e e695 b9bd
000003f0: c256 353e 8670 9d3e 156b 8f3d afe5 f8bd

critic.2.bias f4 [64]
0.10150599 0.049394634 -0.16326776 -0.09350492 -0.056888983 -0.22840793 0.18076701 0.07790986
-0.14970335 0.14618225 0.12626863 0.22861347 0.18890542 -0.21558891 0.112142645 0.069748186
-0.113998294 -0.12139805 -0.14001803 0.119375914 0.16049494 0.25986642 0.15256734 0.14491084
0.09811828 -0.23531385 -0.11008986 0.08460766 -0.10877309 0.18726167 0.2159774 0.106075466
-0.12435951 0.15277338 -0.24636734 -0.093759835 0.20802218 0.21603474 0.056331117 0.1317154
-0.22675344 0.21832073 -0.11834719 -0.07125425 -0.056224212 0.04873829 0.05009723 -0.12910189
0.09072366 0.026000457 -0.035249762 0.1306222 -0.16741708 -0.080254905 0.05091556 0.12541816
0.04941147 0.10952116 -0.08081512 0.19717763 -0.23321065 -0.15406755 -0.07783681 0.21208553
00000000: 5fe2 cf3d 0752 4a3d aa2f 27be 827f bfbd
00000010: 6c04 69bd c5e3 69be fd1a 393e 348f 9f3d
00000020: d64b 19be cdb0 153e 904c 013e a619 6a3e
00000030: 6c70 413e 57c3 5cbe 0bab e53d 23d8 8e3d
00000040: f077 e9bd 8a9f f8bd e360 0fbe 5c7b f43d
00000050: c958 243e 360d 853e 9d3a 1c3e 8263 143e
00000060: 3df2 c83d 1df6 70be cb76 e1bd c846 ad3d
00000070: 6dc4 debd 86c1 3f3e 2e29 5d3e 183e d93d
00000080: 33b0 febd a070 1c3e b847 7cbe 2805 c0bd
00000090: c403 553e 3638 5d3e 75bb 663d 67e0 063e
000000a0: 0e32 68be 788f 5f3e 0360 f2bd c0ed 91bd
000000b0: 5c4b 66bd cda1 473d c132 4d3d 4933 04be
000000c0: 54cd b93d e9fe d43c 0e62 10bd d3c1 053e
000000d0: 626f 2bbe af5c a4bd d68c 503d 9e6d 003e
000000e0: ae63 4a3d a14c e03d 6682 a5bd efe8 493e
000000f0: c6ce 6ebe e2c3 1dbe e868 9fbd f32c 593e

critic.4.weight f4 [1, 64]
-0.3184501 -0.40516648 0.18405016 0.21249129 0.640701 0.083717085 -0.15476595 -0.4885894
0.1676508 -0.33811647 -0.2951763 -0.13521679 -0.15711828 0.20163107 -0.16986097 -0.43190745
0.34742817 0.09470088 0.15814093 -0.2994922 -0.1551682 -0.07914771 -0.22623435 -0.11628998
-0.030116942 0.22887196 0.4286836 -0.27912825 0.3915782 -0.26096448 -0.21636817 -0.3128535
0.13836199 -0.41466865 0.08424933 0.29064086 -0.20920013 -0.15377948 -0.13125506 -0.4495551
0.22373462 -0.22729085 0.27218205 0.47581813 0.19238582 -0.5334476 -0.28226984 0.3327492
-0.30516648 0.05075471 0.4088654 -0.12798396 0.17868762 0.10525751 -0.22356929 -0.23592012
-0.20204 -0.26217622 0.10193719 -0.35879216 0.20504846 0.26763803 0.107922345 -0.23950545
00000000: e40b a3be fb71 cfbe a577 3c3e 5197 593e
00000010: fb04 243f dd73 ab3d f77a 1ebe 6428 fabe
00000020: a7ac 2b3e 9a1d adbe 5921 97be 4576 0abe
00000030: 9de3 20be 6078 4e3e 09f0 2dbe f922 ddbe
00000040: 1be2 b13e 89f2 c13d b2ef 213e 0b57 99be
00000050: 6ae4 1ebe 3218 a2bd faa9 67be 7129 eebd
00000060: ceb7 f6bc 695d 6a3e 6b7c db3e e6e9 8ebe
00000070: f07c c83e 239d 85be 9e8f 5dbe 552e a0be
00000080: c4ae 0d3e 734f d4be ea8a ac3d e1ce 943e
00000090: 8f38 56be 5e78 1dbe ba67 06be 162c e6be
000000a0: b01a 653e efbe 68be 725b 8b3e 6f9e f33e
000000b0: ca00 453e 0690 08bf ac85 90be 1a5e aa3e
000000c0: c83e 9cbe 2ce4 4f3d ce56 d13e 3a0e 03be
000000d0: e3f9 363e 4091 d73d 59ef 64be 0b95 71be
000000e0: 93e3 4ebe f63b 86be 72c4 d03d 9bb3 b7be
000000f0: 39f8 513e da07 893e 6406 dd3d eb40 75be

actor_mean.0.weight f4 [64, 60]
0.11411061 -0.18539825 0.17986824 0.20758274 -0.07681023 0.3712701 0.14150347 0.0853156
0.536437 -0.045806654 0.033568155 -0.048032854 0.09232396 0.016040808 0.13670535 -0.033156633
0.13689338 0.04945489 -0.12679403 -0.2089172 -0.0025088491 0.01961693 0.065945305 0.048460864
0.038930308 -0.110881396 0.1971874 0.15127617 -0.20751624 0.16297811 0.0058317576 0.031399827
0.03483148 0.019831931 -0.05042243 0.09117293 0.09770621 0.07813355 -0.2297275 0.258398
-0.21983643 0.61527765 -0.1192947 -0.119905844 -0.069137864 0.20046002 -0.2559977 -0.27430153
-0.75538254 0.031975158 0.026815774 -0.07362949 0.056455184 -0.004054424 0.18511423 -0.10930002
0.047639817 -0.019422906 -0.12671445 -0.13858238 -0.275062 0.4028472 0.03891663 0.02541777
-0.008308279 0.0010811905 -0.19296604 0.06418778 0.033727914 0.096184954 0.0005394734 -0.08608853
-0.021874174 -0.05697862 -0.059493672 -0.031449776 0.26168302 0.11312592 0.1878034 -0.08587825
-0.026390975 0.004999069 0.22462864 -0.0018093718 0.030524477 -0.19526696 -0.02778147 -0.7093908
0.048799414 -0.05980095 0.05239252 -0.007537045 -0.104602836 -0.001704857 -0.012294183 0.023516145
0.12886907 0.008301204 0.40430653 -0.029084528 0.1100017 -0.39140257 -0.17420027 -0.064213894
-0.009366551 0.10981905 0.35598636 -0.260212 -0.2684816 -0.38611844 -0.046807438 -0.07222246
0.07184251 -0.052907027 -0.045915585 -0.04858651 0.13094111 0.097038366 -0.06822542 0.000971544
-0.1126869 0.17763165 0.27203682 0.27945805 0.15001534 0.11687514 0.43651208 -0.17699948
0.13070914 -0.21944955 -0.00042358827 0.13205701 0.047069456 0.056496337 0.008179092 0.043037012
-0.056546714 -0.011990304 0.13535708 -0.019693624 -0.27251 0.0969869 -0.10926799 0.12427775
0.005787153 0.11514229 -0.541824 0.3413066 0.2545684 0.034450345 -0.05968806 0.082364
0.034665886 0.062382214 0.016625606 0.05093279 -0.114056185 0.05792878 0.097956724 0.039521016
0.0025202807 -0.28504565 -0.20547025 -0.028838122 0.096810214 -0.15704423 -0.12873112 -0.15419133
-0.17487395 -0.2597059 0.054518294 0.050886042 0.012565175 -0.0037028154 -0.007588929 -0.00670763
0.045668494 -0.062115192 0.021668654 -0.12139225 -0.059213843 0.23145832 0.09627304 0.007897814
0.124174155 -0.14687727 -0.16587882 0.3609556 -0.24052814 0.3584982 0.09350189 -0.006800651
0.02157581 0.03163744 0.090230584 0.009599223 -0.04097549 0.036158692 -0.015125175 0.14673376
0.24525312 -0.43647736 -0.25945404 0.18823852 0.149653 0.017323842 0.21772164 0.04148512
0.44109914 -0.083070226 0.057882983 0.012957684 0.045959294 -0.018235352 0.15506618 0.06441139
0.038400497 0.09537787 0.033382032 -0.47230262 -0.2778592 -0.31486177 -0.1389208 -0.0074950643
-0.026717814 -0.015405953 0.06811813 -0.09679749 0.21594019 -0.14360893 0.03662171 -0.018206144
-0.021886243 0.047087457 -0.064045094 -0.04865761 -0.07075919 -0.04608578 -0.0027931675 -0.15455441
0.105145514 -0.076067306 0.22541925 -0.14675234 0.07902314 -0.068110384 0.0002472562 0.019811679
0.2396867 -0.0723399 -0.009344929 0.080949254 0.14343825 0.09620173 -0.06571536 0.04240929
00000000: d3b2 e93d 0ad9 3dbe 612f 383e 9290 543e
00000010: af4e 9dbd 1d17 be3e 49e6 103e f2b9 ae3d
00000020: ef53 093f c29f 3bbd c37e 093d 19be 44bd
00000030: 5814 bd3d 0368 833c 7dfc 0b3e 40cf 07bd
00000040: c72d 0c3e 3691 4a3d 4bd6 01be 64ee 55be
00000050: 816b 24bb afb3 a03c 550e 873d e67e 463d
00000060: 6375 1f3d c915 e3bd 7eeb 493e 24e8 1a3e
00000070: 237f 54be bce3 263e 5418 bf3b 1b9d 003d
00000080: 74ab 0e3d 9376 a23c c087 4ebd e0b8 ba3d
00000090: 321a c83d 7c04 a03d b03d 6bbe be4c 843e
000000a0: cd1c 61be d682 1d3f c850 f4bd 3291 f5bd
000000b0: 2798 8dbd 6445 4d3e 2112 83be 4071 8cbe
000000c0: c060 41bf 62f8 023d c1ac db3c 0fcb 96bd
000000d0: 8d3d 673d f9da 84bb 968e 3d3e b0d8 dfbd
000000e0: f821 433d c91c 9fbc 6fc1 01be 8ae8 0dbe
000000f0: edd4 8cbe fd41 ce3e 0b67 1f3d ed38 d03c
00000100: 731f 08bc bcb6 8d3a e498 45be e274 833d
00000110: 4826 0a3d 9efc c43d 726b 0d3a 2f4f b0bd
00000120: 7831 b3bc 6a62 69bd a3af 73bd 7bd1 00bd
00000130: 51fb 853e 90ae e73d 894f 403e f0e0 afbd
00000140: e331 d8bc 3bcf a33b 0d05 663e 7128 edba
00000150: 780e fa3c 10f4 47be f795 e3bc a39a 35bf
00000160: e5e1 473d d7f1 74bd 8a99 563d 51f9 f6bb
00000170: 033a d6bd 8275 dfba 8a6d 49bc eea4 c03c
00000180: 41f6 033e c601 083c 4401 cf3e ad42 eebc
00000190: 9248 e13d eb65 c8be 8e61 32be 9382 83bd
000001a0: 2a76 19bc cfe8 e03d d843 b63e 823a 85be
000001b0: 6c76 89be 51b1 c5be 28b9 3fbd 5ee9 93bd
000001c0: 2a22 933d 0ab5 58bd fb11 3cbd a602 47bd
000001d0: 6d15 063e 0dbc c63d c5b9 8bbd 37af 7e3a
000001e0: 64c8 e6bd 12e5 353e 6948 8b3e 2015 8f3e
000001f0: 9f9d 193e 3c5c ef3d 837e df3e 5a3f 35be
00000200: 9ed8 053e 62b7 60be 0e15 deb9 f439 073e
00000210: e7cb 403d b468 673d 9901 063c 9447 303d
00000220: 879d 67bd fb72 44bc 0c9b 0a3e 8654 a1bc
00000230: 6e86 8bbe 11a1 c63d e5c7 dfbd 5585 fe3d
00000240: 28a2 bd3b b9cf eb3d fab4 0abf bdbf ae3e
00000250: ca56 823e ce1b 0d3d 787b 74bd 75ae a83d
00000260: d1fd 0d3d 7e84 7f3d 6c32 883c e79e 503d
00000270: 4a96 e9bd ba46 6d3d 899d c83d cae0 213d
00000280: 4b2b 253b 81f1 91be cb66 52be ed3d ecbc
00000290: 6f44 c63d 34d0 20be 17d2 03be 55e4 1dbe
000002a0: 2812 33be 2cf8 84be 934e 5f3d e26d 503d
000002b0: 2ade 4d3c efaa 72bb 8dac f8bb aecb dbbb
000002c0: e30e 3b3d 806c 7ebd 7682 b13c 809c f8bd
000002d0: 378a 72bd 6903 6d3e cd2a c53d d565 013c
000002e0: 054f fe3d ff66 16be 23dc 29be 2ccf b83e
000002f0: 024d 76be 138d b73e eb7d bf3d ffd7 debb
00000300: c1bf b03c 4396 013d d0ca b83d 0f46 1d3c
00000310: ead5 27bd 231b 143d 95cf 77bc 6041 163e
00000320: a223 7b3e f679 dfbe 29d7 84be 99c1 403e
00000330: a33e 193e bbea 8d3c 6cf2 5e3e 4dec 293d
00000340: bfd7 e13e b920 aabd b516 6d3d 774c 543c
00000350: d03f 3c3d 4e62 95bc abc9 1e3e 1eea 833d
00000360: d749 1d3d 7955 c33d 99bb 083d a6d1 f1be
00000370: 9043 8ebe 9035 a1be 4141 0ebe 2899 f5bb
00000380: 51df dabc 4069 7cbc 8581 8b3d c33d c6bd
00000390: 6d1f 5d3e 380e 13be a500 163d 0d25 95bc
000003a0: c74a b3bc c7de 403d 132a 83bd 344d 47bd
000003b0: 32ea 90bd 71c4 3cbd 930d 37bb 8343 1ebe
000003c0: 8856 d73d 2dc9 9bbd 4ed4 663e 3f46 16be
000003d0: e2d6 a13d 757d 8bbd 2aa2 8139 1a4c a23c
000003e0: 6e70 753e f126 94bd 791b 19bc b9c8 a53d
000003f0: 7ae1 123e 6a05 c53d c695 86bd 5db5 2d3d

actor_mean.0.bias f4 [64]
-0.049125157 0.07117275 -0.10522071 0.000778399 -0.06956707 0.039533168 0.008912078 -0.03872989
-0.022072038 0.04966725 0.008539056 -0.13428296 -0.13535663 0.046072885 0.1690559 -0.08267176
0.022708597 -0.15097794 -0.044710066 -0.074889444 0.09574137 -0.0050766566 0.08887876 0.047245275
0.029652085 -0.16207768 -0.05619942 0.031353064 0.02000591 -0.17773047 0.023119206 -0.025306905
0.04371108 -0.008914181 0.10386754 -0.03165574 0.02611094 0.029161695 -0.20912667 0.058600947
-0.06405096 -0.025589468 0.025180375 -0.005187453 -0.065327734 0.045984905 0.013259459 0.08732747
0.042207766 -0.035033926 0.04489446 0.035131786 0.054149594 -0.013656781 0.014315153 0.022830429
0.040794536 0.13688494 -0.038363848 0.13972062 -0.04378758 0.06267696 0.0010987945 0.023219114
00000000: 7637 49bd 05c3 913d f57d d7bd 790d 4c3a
00000010: 2e79 8ebd 88ed 213d f703 123c 3ca3 1ebd
00000020: 6bd0 b4bc e36f 4b3d 66e7 0b3c 7981 09be
00000030: ee9a 0abe ecb6 3c3d fd1c 2d3e d04f a9bd
00000040: 6107 ba3c f699 1abe e721 37bd a35f 99bd
00000050: 0d14 c43d 155a a6bb 1106 b63d 4384 413d
00000060: eee8 f23c b1f7 25be 5d31 66bd 126c 003d
00000070: 6fe3 a33c fafe 35be 7d64 bd3c 6d50 cfbc
00000080: 640a 333d c90c 12bc 81b8 d43d 73a9 01bd
00000090: 9ce6 d53c 82e4 ee3c 4d25 56be 8c07 703d
000000a0: 262d 83bd 01a1 d1bc 1347 ce3c 82fb a9bb
000000b0: 8cca 85bd ab5a 3c3d 343e 593c bfd8 b23d
000000c0: 0de2 2c3d bc7f 0fbd 41e3 373d 59e6 0f3d
000000d0: f7cb 5d3d b1c0 5fbc 1a8a 6a3c e106 bb3c
000000e0: 2c18 273d 912b 0c3e 6923 1dbd ec12 0f3e
000000f0: 9b5a 33bd c75c 803d 6d05 903a 0336 be3c

actor_mean.2.weight f4 [64, 64]
-0.3500371 -0.110076174 -0.063118204 0.24786548 -0.12727395 0.07849581 0.13863291 -0.040870328
-0.004340331 0.17403582 0.12064924 -0.41968742 -0.26899633 0.052943625 0.0803625 -0.09788065
0.012924934 0.12387843 -0.16245279 -0.032710582 0.12549184 0.173298 0.13443127 0.26223364
0.15377831 -0.17674583 -0.24199842 0.17601012 -0.03494615 -0.18478361 -0.15408961 -0.031039087
-0.02897012 -0.089201204 0.0352132 -0.07697327 -0.059255157 0.24850106 -0.3165606 -0.12693428
-0.19911946 0.02193926 0.20083629 -0.202437 0.18323639 -0.14011139 -0.13868949 0.015525842
0.21292801 0.11679984 0.31310648 0.1581702 0.17408788 0.048085347 0.14083058 0.25087094
0.07381043 0.2237556 -0.036124475 0.15334846 -0.093351565 0.0032788117 0.2440683 0.08471817
0.22947998 0.13161859 0.0043484676 0.04560765 0.052130416 -0.029951977 0.086622596 -0.001653993
0.15826906 0.25636426 -0.18533497 -0.10242797 0.19762382 0.018589726 -0.09250948 -0.13125469
0.0017480953 0.15413088 -0.026508251 0.060592942 -0.03342599 -0.015563868 -0.21341822 -0.18604754
0.18485032 -0.07215474 -0.12926249 0.027469123 0.095663875 0.024070563 -0.458899 0.1437466
-0.15372728 0.002694599 -0.05334873 -0.03271159 -0.124817 0.022148123 0.27034587 -0.2059696
0.03812803 -0.114559144 -0.12792036 -0.040091284 0.1919502 0.21910416 0.041882243 0.17752579
0.11440167 0.08437561 -0.11744858 0.05096028 -0.08332096 -0.096785925 0.07046808 -0.12871523
0.11349009 0.07113921 -0.14835262 0.1951485 -0.285036 0.4009942 0.22826545 -0.032034725
0.16337475 -0.28665745 0.04334504 0.10807317 0.0012961256 0.1683081 -0.011626632 0.13378291
0.012305205 -0.04896961 0.057043232 -0.28955704 -0.05578883 -0.100398 -0.082626686 0.10274868
0.051157378 -0.31649512 -0.10902616 0.10525314 -0.16557512 -0.028676603 0.05370033 0.099666946
0.055458244 0.06871898 0.061729696 0.048722744 0.019335685 0.25812733 -0.324675 -0.047966346
-0.30272147 -0.3226982 0.00035246517 0.0073689423 0.092177965 0.13854654 -0.083332464 0.13890064
0.07973713 0.090771765 -0.118237376 0.21882898 0.11050272 -0.06463899 -0.039163075 0.24805419
0.06976673 0.12579884 0.05760654 -0.04559864 -0.22782204 0.114068255 -0.07253428 0.09567541
-0.16466054 -0.12053223 0.12428522 -0.24765453 -0.48391378 -0.17848064 0.0056687696 0.19027875
0.022890281 0.026546385 0.24357216 0.07375095 0.10466426 -0.026427167 -0.12847002 -0.0380026
-0.118424445 0.024129875 0.019320866 0.08149762 0.3403508 -0.036667377 0.03596065 0.012362832
0.16550425 0.041218355 -0.07701414 0.18778223 -0.23225641 0.08473071 0.19492732 0.02334375
0.16482611 0.085018985 0.14132233 0.06764251 0.122248806 -0.060171973 0.16054405 -0.11919592
-0.080378145 -0.01669686 0.0126194535 -0.24230637 -0.17771602 0.004006221 0.04761101 -0.19406465
0.060588367 0.11718004 0.117618345 -0.004727733 -0.17446265 0.295863 0.02883634 0.14764139
-0.056537185 -0.18348636 0.03171021 0.15010971 -0.3585628 0.2330756 -0.043192532 -0.031046456
-0.18087488 0.2225453 -0.19070385 -0.024735704 -0.05059635 0.05078904 0.05947496 -0.008099388
00000000: 1038 b3be 9e6f e1bd 1e44 81bd 73d0 7d3e
00000010: 1a54 02be 69c2 a03d c9f5 0d3e a567 27bd
00000020: 5639 8ebb 7236 323e f316 f73d 45e1 d6be
00000030: e3b9 89be 6adb 583d 1895 a43d a675 c8bd
00000040: 1ac3 533c f9b3 fd3d 065a 26be 88fb 05bd
00000050: ef80 003e 0875 313e 5aa8 093e 7d43 863e
00000060: 1078 1d3e dcfc 34be 6fce 77be ff3b 343e
00000070: b223 0fbd ea37 3dbe abc9 1dbe af45 febc
00000080: bf52 edbc 1faf b6bd b73b 103d 29a4 9dbd
00000090: 89b5 72bd 1077 7e3e 3b14 a2be 0ffb 01be
000000a0: f9e5 4bbe f7b9 b33c 07a8 4d3e a54b 4fbe
000000b0: 52a2 3b3e 5c79 0fbe 9e04 0ebe 1a60 7e3c
000000c0: cd09 5a3e c134 ef3d 7e4f a03e 5ef7 213e
000000d0: 1844 323e 24f5 443d e435 103e 2872 803e
000000e0: ec29 973d 3020 653e 42f7 13bd 6107 1d3e
000000f0: 1b2f bfbd 55e1 563b 0aed 793e b880 ad3d
00000100: cdfc 6a3e 06c7 063e 977d 8e3b 16cf 3a3d
00000110: b486 553d d95d f5bc 3067 b13d ccca d8ba
00000120: 4911 223e 2d42 833e 73c8 3dbe c1c5 d1bd
00000130: e65d 4a3e 7b49 983c 9c75 bdbd a167 06be
00000140: 5820 e53a 7cd4 1d3e d527 d9bc 4e30 783d
00000150: b1e9 08bd 98ff 7ebc 4e8a 5abe 3f83 3ebe
00000160: 6749 3d3e ddc5 93bd 635d 04be ed06 e13c
00000170: 6ceb c33d a12f c53c cff4 eabe 4f32 133e
00000180: af6a 1dbe df97 303b 3384 5abd 97fc 05bd
00000190: 0ea0 ffbd fb6f b53c c66a 8a3e b2e9 52be
000001a0: 232c 1c3d fc9d eabd 8efd 02be c236 24bd
000001b0: 988e 443e d75c 603e b78c 2b3d 52c9 353e
000001c0: 6c4b ea3d 1fcd ac3d e288 f0bd babb 503d
000001d0: 2ea4 aabd b337 c6bd 9251 903d edcd 03be
000001e0: 7e6d e83d 6fb1 913d c0e9 17be 02d5 473e
000001f0: 3df0 91be 1d4f cd3e 6bbe 693e d836 03bd
00000200: b64b 273e c4c4 92be 928a 313d 7755 dd3d
00000210: c2e2 a93a f558 2c3e a17d 3ebc 63fe 083e
00000220: c59b 493c 5c94 48bd 2aa6 693d d240 94be
00000230: d482 64bd 779d cdbd 2e38 a9bd e66d d23d
00000240: 668a 513d a60b a2be 1b49 dfbd f58e d73d
00000250: 868c 29be 32eb eabc e1f4 5b3d 2f1e cc3d
00000260: 2f28 633d 89bc 8c3d 47d8 7c3d 8091 473d
00000270: df65 9e3c 4429 843e cd3b a6be 5c78 44bd
00000280: 4ffe 9abe b338 a5be 13cb b839 2b77 f13b
00000290: cdc7 bc3d 25df 0d3e 36aa aabd f83b 0e3e
000002a0: 384d a33d 8ce6 b93d 7026 f2bd b414 603e
000002b0: 404f e23d 7261 84bd 7669 20bd eb01 7e3e
000002c0: dce1 8e3d 69d1 003e d6f4 6b3d a4c5 3abd
000002d0: 2e4a 69be 9e9c e93d da8c 94bd 78f1 c33d
000002e0: c69c 28be 9ad9 f6bd 4089 fe3d 2699 7dbe
000002f0: 8cc3 f7be a1c3 36be 16c1 b93b 6fd8 423e
00000300: 6684 bb3c ce77 d93c fb6a 793e bd0a 973d
00000310: 375a d63d c97d d8bc a58d 03be 9da8 1bbd
00000320: 8488 f2bd 04ac c53c cb46 9e3c 39e8 a63d
00000330: 7642 ae3e 8830 16bd 794b 133d 7a8d 4a3c
00000340: f279 293e 94d4 283d 97b9 9dbd fc49 403e
00000350: a0d4 6dbe 4b87 ad3d 079b 473e 643b bf3c
00000360: 2dc8 283e 6f1e ae3d cdb6 103e 2888 8a3d
00000370: 955d fa3d e376 76bd a965 243e fe1c f4bd
00000380: 4c9d a4bd dac7 88bc d3c1 4e3c 291f 78be
00000390: 30fb 35be 9e46 833b c303 433d e2b8 46be
000003a0: 822b 783d 17fc ef3d e3e1 f03d 19eb 9abb
000003b0: 56a6 32be 5b7b 973e 303a ec3c 4e2f 173e
000003c0: 8993 67bd d9e3 3bbe 91e2 013d 5cb6 193e
000003d0: 8b95 b7be 5fab 6e3e a7ea 30bd 2355 febc
000003e0: 4437 39be eae2 633e df47 43be 88a2 cabc
000003f0: 1e3e 4fbd 2b08 503d 049c 733d 4cb3 04bc

actor_mean.2.bias f4 [64]
0.15089576 -0.011922959 0.012544408 -0.032219157 -0.01873188 -0.02255198 -0.005804766 -0.011245722
0.008762203 0.012365865 -0.007854054 0.018996237 0.08824583 0.004089587 0.016572827 0.007273393
0.0572134 0.0024070935 0.01196413 0.023264261 -0.017645918 0.017115701 0.06139706 0.023158744
0.012834974 0.018606443 -0.05133637 -0.007978687 0.0125156455 0.2136923 -0.017428514 0.03134111
0.0081474995 0.043399587 0.038392488 0.012152865 0.066022746 0.019693715 -0.00838288 0.05305206
-0.023513861 0.009214284 0.012722871 0.0064134086 0.018588645 0.002024929 0.01955608 0.0024539477
0.016142216 0.054608844 0.05838221 0.005284803 -0.019378344 -0.014605065 0.019290458 0.027285516
0.035871312 0.10749236 0.00083589763 -0.010685725 0.033280592 0.014545027 -0.17190793 -0.011671529
00000000: 6b84 1a3e 8458 43bc 1087 4d3c 3cf8 03bd
00000010: 9973 99bc eebe b8bc e835 bebb fa3f 38bc
00000020: 588f 0f3c 329a 4a3c 4aae 00bc ff9d 9b3c
00000030: 3bba b43d f101 863b bdc3 873c a555 ee3b
00000040: 9958 6a3d 54c0 1d3b 3305 443c b194 be3c
00000050: 2c8e 90bc 3a36 8c3c 7c7b 7b3d 68b7 bd3c
00000060: c849 523c 8a6c 983c 1646 52bd 0ab9 02bc
00000070: 6c0e 4d3c 27d2 5a3e 3ec6 8ebc 895f 003d
00000080: 177d 053c c4c3 313d 7141 1d3d cf1c 473c
00000090: ef36 873d b754 a13c 5958 09bc 1e4d 593d
000000a0: 24a0 c0bc 82f7 163c 9773 503c 9227 d23b
000000b0: 3747 983c acb4 043b 1334 a03c 69d2 203b
000000c0: ae3c 843c 86ad 5f3d 2f22 6f3d 242c ad3b
000000d0: 55bf 9ebc 154a 6fbc 0607 9e3c e085 df3c
000000e0: cced 123d f424 dc3d 2420 5b3a 2e13 2fbc
000000f0: 3b51 083d 444e 6e3c a208 30be f139 3fbc

actor_mean.4.weight f4 [6, 64]
0.012476545 -0.002059162 0.0011108937 0.000547939 -0.011159048 -0.02898611 0.00015222606 -0.010189609
0.010432 -0.009950195 -0.018651797 0.00033245905 0.008285174 0.0021633976 0.010193067 0.012002855
0.019704528 -0.005317674 0.0054347515 -0.008129517 -0.014206845 0.0014075427 9.207277e-05 -0.013354546
0.0047516627 0.0073989914 -0.0067737587 -0.01098167 -0.0033840423 0.0040854816 0.000292738 -0.018220447
-0.00010055989 -0.002301091 0.016007133 0.0053992565 0.0047993637 0.006527668 0.0022238207 -0.019641018
0.0077388515 -0.005128029 -0.001455537 -0.012821817 0.003048244 -0.0053864806 0.005207669 0.010821418
0.004979562 0.003924574 -0.0018920631 0.012390893 0.004142791 0.0036791977 -0.010626883 0.002125853
-0.013946832 -0.014674597 0.017307267 -0.01328172 -0.009654656 -0.0049552377 -0.014834353 -0.0005878326
-0.006471498 0.022153076 -0.022756988 -0.008738253 -0.030076116 0.032154866 0.04744449 -0.018167255
-0.033035967 -0.028187718 0.024416031 0.02182086 -0.024102276 0.0072784317 0.020180902 0.016551496
0.05474926 0.00489024 -0.037744176 -0.009789477 0.0028386402 0.026197799 -0.029927462 0.011131065
-0.0024744445 -0.03800005 -0.025093269 0.032270845 -0.014994335 -0.009226081 -0.022849152 -0.033624545
-0.060621176 0.027892439 0.004011369 0.04483914 -0.0035115886 -0.0058236895 -0.0658389 0.10772975
0.033420287 0.0013652239 0.031519856 -0.015716331 -0.038398452 0.0012054977 -0.07067601 0.03355106
0.004647766 -0.033927225 -0.03532153 -0.015653726 0.02435322 0.02851795 -0.0327489 -0.020204874
-0.023100192 0.10672454 -0.042778645 0.033485763 -0.05760129 0.02945769 -0.0084300125 -0.000623421
0.00074993586 -0.0013984619 -0.00054830406 0.0004289184 -0.000351593 -0.00018125575 0.00037056816 -0.0014504205
-0.0020180244 0.00045570135 -2.6559934e-05 -0.00071250787 -0.00028977907 -0.0011170544 9.105434e-05 9.850798e-05
-0.0007271385 -0.00054515194 0.00010194826 -0.00048445162 -0.0009007439 0.0001819357 -0.00014293437 -0.0019503232
0.0017454046 -0.0004568204 0.0015221051 1.7944667e-05 0.0003436003 0.00020953613 0.00048258476 2.1303888e-06
-0.0013719084 0.0005558538 0.0004534116 0.00020473117 0.00084017636 -0.0005218062 0.0010453421 -0.000121446064
0.0010006131 -0.0008177863 0.00020377341 0.00040027182 -0.00078925095 -0.0008760796 0.00041490383 3.4726676e-05
2.7078793e-05 0.0015239413 0.001013323 -0.0006495962 -0.0011473293 0.0004382148 -0.0007041409 6.134884e-05
0.0007147418 0.0005953772 0.001173527 0.00048716928 -0.0006692041 -0.0012577814 -0.0008031089 -0.0013254958
-0.0021334772 0.03167236 0.040211983 0.012234361 -0.02727295 -0.027220672 -0.0027234452 -0.012435392
0.031837735 -0.013214336 0.011916572 -0.012022956 -0.0016148413 -0.008997956 0.0038944653 -0.0044861105
0.01702256 0.0014868702 0.0002907943 -0.0018253992 0.0051476527 0.01298933 -0.0017223522 -0.00804085
0.024371922 -0.009928645 0.0016947438 -0.034857303 -0.013696231 -0.0021961313 0.015332026 0.02025945
-0.020970363 -0.0062125237 0.030158607 0.035201687 0.026413446 -0.01019165 -0.0070590335 -0.0030195576
0.038783494 0.010436745 0.014959206 -0.03597562 0.012994361 -0.022158723 -0.02032973 0.024479201
0.026126666 0.014436348 -0.001331008 0.031914227 -0.006131829 -0.005638709 -0.0076977513 -0.036838107
0.0517655 0.012945663 -0.0064076544 -0.02123618 0.0045017796 -0.000800572 0.0069675827 0.013958128
00000000: 6c6a 4c3c 01f3 06bb 689b 913a 90a3 0f3a
00000010: 71d4 36bc 4774 edbc df9e 1f39 51f2 26bc
00000020: fbea 2a3c 2506 23bc a7cb 98bc e64d ae39
00000030: 8abe 073c cac7 0d3b d200 273c 9fa7 443c
00000040: 646b a13c e23f aebb 0016 b23b aa31 05bc
00000050: d4c3 68bc 4c7d b83a 3117 c138 07cd 5abc
00000060: d6b3 9b3b 3d73 f23b 68f6 ddbb 76ec 33bc
00000070: cfc6 5dbb 81df 853b a17a 9939 0c43 95bc
00000080: aee3 d2b8 e7cd 16bb 6421 833c 3fec b03b
00000090: fb43 9d3b 0ce6 d53b 85bd 113b 33e6 a0bc
000000a0: 3196 fd3b 0609 a8bb b8c7 beba 9912 52bc
000000b0: 0cc5 473b 1381 b0bb 18a5 aa3b 514c 313c
000000c0: 982b a33b b699 803b 1aff f7ba 2c03 4b3c
000000d0: 40c0 873b b21e 713b 611c 2ebc e551 0b3b
000000e0: 4181 64bc b96d 70bc f8c7 8d3c 929b 59bc
000000f0: 902e 1ebc 8c5f a2bb c90b 73bc c718 1aba
00000100: dc0e d4bb 5e7a b53c dd6c babc e42a 0fbc
00000110: 3062 f6bc d2b4 033d 2755 423d 7fd3 94bc
00000120: b950 07bd eee9 e6bc 2104 c83c a9c1 b23c
00000130: 2372 c5bc e97f ee3b 6b52 a53c 0197 873c
00000140: c340 603d 4e3e a03b a399 1abd 0b64 20bc
00000150: 7b08 3a3b c49c d63c 702a f5bc 125f 363c
00000160: 4a2a 22bb f1a5 1bbd 6690 cdbc 6f2e 043d
00000170: cdaa 75bc fd28 17bc 252e bbbc e4b9 09bd
00000180: e94d 78bd af7e e43c cd71 833b 3fa9 373d
00000190: ae22 66bb a6d4 bebb 8cd6 86bd 6aa1 dc3d
000001a0: b6e3 083d 50f1 b23a f71a 013d 89bf 80bc
000001b0: b247 1dbd ca01 9e3a 95be 90bd d66c 093d
000001c0: 494c 983b 46f7 0abd 4fad 10bd 3e3c 80bc
000001d0: 6780 c73c 7a9e e93c b623 06bd b184 a5bc
000001e0: 9d3c bdbc 6592 da3d a938 2fbd 5e28 093d
000001f0: 55ef 6bbd 4151 f13c 091e 0abc 136d 23ba
00000200: 5897 443a 984c b7ba 10bc 0fba 74e0 e039
00000210: 0356 b8b9 780f 3eb9 d148 c239 091c beba
00000220: d540 04bb 33eb ee39 06cd deb7 98c7 3aba
00000230: 7ded 97b9 206a 92ba 6df4 be38 1296 ce38
00000240: 709d 3eba 87e8 0eba 0ecd d538 fffd fdb9
00000250: e61f 6cba fec5 3e39 a7e0 15b9 fda1 ffba
00000260: 0fc6 e43a 6581 efb9 5f81 c73a e187 9637
00000270: 4025 b439 edb6 5b39 6e03 fd39 cdf7 0e36
00000280: 9bd1 b3ba b8b6 113a e0b7 ed39 1bad 5639
00000290: 483f 5c3a d2c9 08ba dc03 893a dcb0 feb8
000002a0: 0127 833a b660 56ba 02ac 5539 93db d139
000002b0: bce5 4eba b5a8 65ba 7387 d939 7ca7 1138
000002c0: 4427 e337 fcbe c73a 7ad1 843a aa49 2aba
000002d0: fc61 96ba 32c0 e539 1996 38ba 68a8 8038
000002e0: 835d 3b3a 1613 1c3a 08d1 993a c16a ff39
000002f0: 876d 2fba 24dc a4ba ba87 52ba 42bc adba
00000300: cfd1 0bbb e0ba 013d 52b5 243d a172 483c
00000310: 866b dfbc e3fd debc d47b 32bb d0bd 4bbc
00000320: 4968 023d f180 58bc ba3d 433c effb 44bc
00000330: 15a9 d3ba 2a6c 13bc 493a 7f3b 3900 93bb
00000340: e572 8b3c 16e3 c23a c075 9839 3c42 efba
00000350: a4ad a83b 33d1 543c 8dc0 e1ba c5bd 03bc
00000360: a0a7 c73c c1ab 22bc 2a22 de3a 88c6 0ebd
00000370: 2866 60bc f8ec 0fbb 2e33 7b3c 25f7 a53c
00000380: 0aca abbc 6d92 cbbb 2f0f f73c a52f 103d
00000390: 0361 d83c e1fa 26bc 774f e7bb c5e3 45bb
000003a0: 71db 1e3d e2fe 2a3c 7517 753c 2c5b 13bd
000003b0: 4de6 543c 3686 b5bc 898a a6bc 9b88 c83c
000003c0: 9707 d63c 6f86 6c3c 3875 aeba 7eb8 023d
000003d0: 83ed c8bb ebc4 b8bb 6b3d fcbb 8ee3 16bd
000003e0: 1008 543d 0c1a 543c 4df7 d1bb 7ff7 adbc
000003f0: aa83 933b 7add 51ba 5250 e43b a2b0 643c

actor_mean.4.bias f4 [6]
-0.0016996389 0.004854576 -0.0013202773 0.0033699237 -0.0972141 0.00045465163
00000000: 6bc6 deba 2313 9f3b 280d adba f0d9 5c3b
00000010: 3018 c7bd 4f5e ee39
