fw_jsbgym/models/train_saves_extVa/beta_curi/ppo_fullrl_ts1e-2_extendedVa_betacuri_tsteps2e6_1_64322_30-01_21:44:55.pt (torch, 62631 bytes, 14 tensors)

actor_logstd f4 [1, 2]
0.14928584 0.06888173
00000000: 63de 183e dd11 8d3d

conv.0.weight f4 [3, 1, 5, 1]
-0.20737591 -0.11862967 0.2507795 0.38886535 0.87634367 -0.40165722 -0.5597485 -0.87347215
-0.54899436 -0.1532564 -0.6380999 0.110194005 0.10480948 -0.34252664 -0.0119956955
00000000: 5a5a 54be 1df4 f2bd 2c66 803e 5c19 c73e
00000010: 0f58 603f 04a6 cdbe ad4b 0fbf df9b 5fbf
00000020: e58a 0cbf 3fef 1cbe 845a 23bf 65ad e13d
00000030: 5aa6 d63d a75f afbe 9889 44bc

conv.0.bias f4 [3]
-0.01960848 -0.07076913 0.09030338
00000000: f7a1 a0bc 68ef 90bd faf0 b83d

critic.0.weight f4 [64, 42]
-0.12987922 -0.16118795 0.07360027 -0.007998697 0.32545376 0.021014355 0.55114394 -0.4560437
0.25097325 -0.028368741 0.10259046 0.015956558 -0.16848524 0.012445718 0.15194635 0.18433757
-0.15073237 0.15369004 0.1193411 0.3082517 0.17762423 -0.0682253 0.15393439 0.08537639
0.21564466 -0.08928 -0.01853049 -0.24670827 -0.09933361 -0.11831388 0.26454195 -0.18856257
-0.03180733 -0.118721984 0.2886747 0.18111268 0.15210311 -0.040338524 -0.15909128 0.04106557
0.014177512 0.038574252 -0.3338019 0.15452501 0.022263434 -0.044139598 -0.13004084 0.22716083
0.26951098 -0.21400526 -0.08896387 0.08369635 0.10356127 0.031962696 -0.30096266 0.43781507
0.18268232 -0.122803494 -0.15262657 -0.11601215 0.04278679 -0.0042754645 0.07716706 -0.5104597
0.009987993 0.02131847 0.12711623 -0.0842404 -0.13250539 -0.021094194 -0.1338162 -0.41513982
-0.23779275 0.29388112 -0.28636527 0.08853314 0.027726976 0.25044948 -0.008137055 0.3393759
0.0331076 0.045059603 -0.2783493 -0.10168753 0.1440995 -0.059037585 0.14505173 -0.10766998
0.0011993968 -0.0023714823 -0.16435705 0.2454403 -0.4034375 0.20694649 0.044579342 0.076207295
-0.0041044364 -0.21007381 -0.21218672 -0.16456419 -0.21190618 0.020112934 -0.15991518 -0.018398954
-0.11771846 0.079425275 0.27257964 0.106179334 -0.15780836 0.009898605 0.024275672 -0.04826374
0.18986519 -0.25874385 0.0951832 -0.017335264 0.07849496 -0.044907387 0.1293085 0.023533193
-0.20347165 -0.35695505 0.2123259 0.08069523 -0.1888266 0.008805474 -0.15060543 0.14964652
-0.275444 -0.07193583 -0.078528106 0.11187629 0.10717023 0.38784194 0.1990029 -0.055843387
0.18080048 -0.051787425 -0.40019497 -0.30944693 -0.054226417 0.14328608 0.20587975 -0.0030339446
0.0020498992 0.13706903 -0.08024191 -0.12650523 -0.068334945 0.1344088 -0.13345936 0.089951046
0.3719344 -0.115737595 0.05785307 -0.32502308 0.011567177 -0.061975632 -0.041138344 0.031575855
-0.42765915 -0.12097289 0.19146724 -0.42197138 -0.025781794 0.00206512 -0.15045142 0.15322226
0.099453144 -0.32041353 -0.090098694 -0.099902526 -0.047536932 -0.15770636 -0.114851594 0.21018888
0.19169803 0.20600213 -0.040849596 0.021690182 0.1607301 -0.6506733 0.008293019 -0.2854751
0.04403164 0.18415591 -0.0016557685 -0.061081998 0.07020395 -0.08399786 -0.25110915 0.0149447
-0.011224716 -0.071917556 0.031186245 0.09465739 -0.10914194 0.10525677 -0.2132853 0.17443281
0.083100215 0.29811445 -0.060688555 -0.19408438 0.0212231 -0.07347779 -0.20457356 0.16236973
-0.3582034 0.0107153095 -0.007017486 -0.087054536 0.2252469 -0.03402497 0.08892163 -0.0711392
-0.28237563 0.1681086 0.043087382 0.1640441 0.03053553 -0.09766049 0.051070392 0.14261885
0.31804597 -0.039240517 -0.30702665 0.17070487 0.1209881 0.18852936 -0.07057267 -0.049875736
0.20399325 0.21248609 0.010083131 -0.04642973 0.09877123 0.12716271 -0.1341892 0.068110414
-0.1115826 -0.34165737 -0.0125206 -0.28753754 -0.13858345 0.27344292 -0.0021755525 -0.18303731
0.052697442 0.12838441 -0.15298201 -0.17656545 0.166658 0.17535882 0.17385787 -0.15337819
00000000: 0fff 04be 740e 25be bdbb 963d f80c 03bc
00000010: e0a1 a63e 4c26 ac3c c517 0d3f 8f7e e9be
00000020: 917f 803e 9065 e8bc f21a d23d 54b7 823c
00000030: 6587 2cbe 20e9 4b3c d397 1b3e fdc2 3c3e
00000040: 9659 1abe ec60 1d3e 1b69 f43d 2bd3 9d3e
00000050: 20e3 353e b5b9 8bbd faa0 1d3e d1d9 ae3d
00000060: f4d1 5c3e 6fd8 b6bd 41cd 97bc 18a1 7cbe
00000070: 6b6f cbbd 8c4e f2bd 0b72 873e 8c16 41be
00000080: 6748 02bd 8324 f3bd 2ccd 933e 9a75 393e
00000090: ebc0 1b3e 023a 25bd d3e8 22be 5f34 283d
000000a0: cc48 683c 0900 1e3d 15e8 aabe ce3b 1e3e
000000b0: ce61 b63c b9cb 34bd 6d29 05be d99c 683e
000000c0: 58fd 893e 3224 5bbe b132 b6bd fe68 ab3d
000000d0: ee17 d43d 51eb 023d c717 9abe 4c29 e03e
000000e0: 1311 3b3e 6680 fbbd 244a 1cbe c797 edbd
000000f0: 3341 2f3d 3219 8cbb c309 9e3d 7dad 02bf
00000100: aea4 233c 12a4 ae3c c22a 023e 3b86 acbd
00000110: 7eaf 07be bbcd acbc 1d07 09be 358d d4be
00000120: f17f 73be 9677 963e 789e 92be dd50 b53d
00000130: af23 e33c ea3a 803e 4851 05bc aec2 ad3e
00000140: d69b 073d 6b90 383d cd83 8ebe 8d41 d0bd
00000150: d28e 133e 65d1 71bd 7188 143e 1482 dcbd
00000160: 1435 9d3a df6a 1bbb 374d 28be b454 7b3e
00000170: 5c8f cebe c8e9 533e d498 363d 9212 9c3d
00000180: 827e 86bb 971d 57be 7a47 59be 8483 28be
00000190: effd 58be e1c3 a43c cec0 23be 67b9 96bc
000001a0: 6016 f1bd b8a9 a23d 8f8f 8b3e 8d74 d93d
000001b0: 8498 21be c22d 223c c6dd c63c 33b0 45bd
000001c0: 056c 423e 137a 84be 69ef c23d af02 8ebc
000001d0: f7c1 a03d cff0 37bd 7369 043e afc8 c03c
000001e0: df5a 50be d0c2 b6be f66b 593e 8a43 a53d
000001f0: c35b 41be d644 103c 4f38 1abe f03c 193e
00000200: ff06 8dbe 1853 93bd 58d3 a0bd 651f e53d
00000210: 117c db3d 3893 c63e 6bc7 4b3e 09bc 64bd
00000220: c323 393e 0d1f 54bd 5be6 ccbe d46f 9ebe
00000230: 851c 5ebd 96b9 123e 24d2 523e 25d5 46bb
00000240: 9a57 063b d35b 0c3e df55 a4bd 968a 01be
00000250: 31f3 8bbd 76a2 093e 92a9 08be 4138 b83d
00000260: 306e be3e d507 edbd 57f7 6c3d 6d69 a6be
00000270: 4284 3d3c 29da 7dbd ae80 28bd af55 013d
00000280: 24f6 dabe a2c0 f7bd fd0f 443e a20c d8be
00000290: 5734 d3bc f756 073b f00f 1abe 4ce6 1c3e
000002a0: 17ae cb3d 3e0d a4be aa85 b8bd b299 ccbd
000002b0: 16b6 42bd c77d 21be 5037 ebbd c13b 573e
000002c0: 7d4c 443e 39f2 523e e851 27bd 9caf b13c
000002d0: 6e96 243e 8692 26bf 71df 073c cb29 92be
000002e0: 855a 343d 5e93 3c3e 5f06 d9ba 1e31 7abd
000002f0: 17c7 8f3d 1207 acbd 6191 80be 9dda 743c
00000300: dfe7 37bc 8349 93bd 4c7a ff3c bcdb c13d
00000310: cf85 dfbd dd90 d73d 7667 5abe 849e 323e
00000320: 7230 aa3d 75a2 983e 9094 78bd 0ebe 46be
00000330: 11dc ad3c 867b 96bd bb7b 51be 4044 263e
00000340: 7066 b7be 448f 2f3c f0f2 e5bb a649 b2bd
00000350: 20a7 663e c45d 0bbd 8b1c b63d 6eb1 91bd
00000360: 8a93 90be a924 2c3e 657c 303d 2dfb 273e
00000370: a625 fa3c 3902 c8bd 302f 513d ad0a 123e
00000380: ecd6 a23e aaba 20bd 9932 9dbe 42cd 2e3e
00000390: 9cc8 f73d d70d 413e 6788 90bd 804a 4cbd
000003a0: 9be3 503e f495 593e b733 253c 1a2d 3ebd
000003b0: 9248 ca3d f136 023e e568 09be 797d 8b3d
000003c0: 6b85 e4bd b7ed aebe 3423 4dbc 1f38 93be
000003d0: d2e8 0dbe b600 8c3e b793 0ebb 226e 3bbe
000003e0: 46d9 573d 3477 033e 51a7 1cbe 93cd 34be
000003f0: 65a8 2a3e 4391 333e cc07 323e 2c0f 1dbe

critic.0.bias f4 [64]
0.058046598 0.05047696 -0.026853912 -0.0392365 0.009097658 0.038789622 -0.08625577 0.18553798
-0.13359496 0.050588865 -0.076074004 -0.16245763 -0.0016383786 0.0495813 -0.0057631214 0.13026662
0.024724126 0.02820863 -0.009723519 0.14068812 0.038529154 -0.014406072 -0.026832681 0.11266962
0.12970622 -0.023728194 -0.06555804 -0.00093849725 -0.05171364 0.07453983 0.029783765 0.01478738
-0.10048699 -0.07553027 0.08768886 -0.01381534 0.054082755 -0.16245376 0.062039673 0.062852405
-0.01687186 -0.1374981 -0.05156724 -0.06309954 0.021559045 0.04136618 -0.0194819 0.018184224
0.138769 0.14217123 -0.065841205 0.06497714 0.0038991123 -0.0021858206 0.013123268 0.0863303
-0.018624483 0.06332587 -0.0568179 -0.039281487 -0.06364208 -0.073503666 -0.040923722 0.0040794546
00000000: 45c2 6d3d eec0 4e3d bcfc dbbc 74b6 20bd
00000010: 580e 153c dee1 1e3d dda6 b0bd abfd 3d3e
00000020: 1ecd 08be 4536 4f3d b0cc 9bbd 4b5b 26be
00000030: ddbe d6ba c315 4b3d 91d8 bcbb 9d64 053e
00000040: 408a ca3c c915 e73c 654f 1fbc 8c10 103e
00000050: bfd0 1d3d 7207 6cbc 36d0 dbbc 54bf e63d
00000060: b5d1 043e a161 c2bc 4b43 86bd 7c05 76ba
00000070: afd1 53bd 57a8 983d 15fd f33c c446 723c
00000080: 1fcc cdbd 9daf 9abd 3896 b33d bc59 62bc
00000090: e185 5d3d 475a 26be 501d 7e3d c3b8 803d
000000a0: db36 8abc 4dcc 0cbe 2c38 53bd 553a 81bd
000000b0: 989c b03c 956f 293d 8198 9fbc 15f7 943c
000000c0: 7619 0e3e 5695 113e c1d7 86bd bc12 853d
000000d0: 4088 7f3b fc3f 0fbb fa02 573c f1cd b03d
000000e0: 5f92 98bc feb0 813d e3b9 68bd a0e5 20bd
000000f0: c756 82bd 1789 96bd a29f 27bd f2ac 853b

critic.2.weight f4 [64, 64]
0.09101622 0.14288087 0.20682755 -0.10716062 0.08379002 0.19989112 0.012341191 0.073210314
0.055782333 -0.029031092 -0.18785982 -0.06555592 -0.08264341 -0.27313375 -0.03841096 -0.10995334
0.35433462 0.0030875015 0.24986249 0.49942467 0.14783885 0.13442934 -0.16967958 -0.20554991
-0.171382 -0.21950544 0.17358202 0.28972703 0.18823428 0.043216158 -0.15436876 -0.09607867
0.11316378 0.1969009 -0.36411503 -0.110435225 -0.040138654 -0.061227664 -0.2276454 -0.29912156
0.044273395 0.045482364 0.055003423 -0.022146504 0.0027655596 0.13033046 0.005647328 0.086940356
-0.02063262 0.16915224 -0.103872284 -0.2091301 0.26696515 0.08634448 0.10624417 0.09464512
-0.15462276 0.30280524 0.1960725 -0.24021019 0.054436743 -0.05181583 -0.002955607 0.14827614
0.2650177 -0.038671006 -0.22117041 -0.10593678 -0.01313054 -0.043017812 -0.11321396 0.043914158
-0.3255843 -0.17668435 0.24314235 0.2510139 0.15523578 0.060086533 0.09732322 0.19035135
0.122545555 0.20545901 -0.069090284 0.23825437 -0.202274 -0.058697388 -0.046368107 0.16078424
0.34036964 -0.0606508 0.22700976 0.1895207 -0.014637511 0.48535928 0.19930357 -0.0032570919
-0.31794837 -0.059533607 0.2778137 -0.16615014 -0.17603593 0.38553488 -0.34235704 0.0014803879
0.12556909 0.08229902 -0.08612995 -0.11644863 -0.3907918 0.08157767 -0.008719337 -0.06897591
-0.110168785 0.01394343 0.2072191 -0.14014529 0.12784185 0.24304017 0.018932262 0.046863094
0.09695271 -0.50208867 0.06753925 -0.07123149 0.032270297 0.10383984 0.219691 0.26783788
0.04731573 -0.050853427 -0.07370247 -0.16199224 -0.00082629436 0.45341745 -0.16157578 0.12106631
0.17556523 0.30039114 0.033710722 -0.019953908 -0.1436927 0.1286185 0.011694906 -0.03658959
-0.052344743 -0.0061720246 0.06610386 -0.046834 -0.17658886 -0.032249212 -0.058228128 0.22598891
0.037101954 0.23431145 -0.022861773 0.29981062 0.24467923 0.13182202 -0.101909444 -0.14490835
-0.18423942 0.18158533 -0.096571214 0.23401289 0.015398851 -0.006701153 0.23339577 -0.03719283
-0.13342282 -0.3383334 -0.014981868 -0.1960246 0.18660668 -0.4561024 0.42094073 0.063978195
0.029228324 0.27551922 -0.3400335 0.049317192 -0.1708708 -0.30650568 -0.19522534 0.14762472
0.016319629 -0.107788295 -0.09005459 -0.11494473 0.093836024 -0.10527024 -0.07468837 0.16599856
0.24577303 0.17412804 -0.18774728 -0.15604286 -0.24267527 -0.2629509 -0.15929675 -0.21461211
-0.3295188 0.13928412 -0.28733936 0.2559318 -0.20576243 -0.046398763 -0.1957796 -0.16858171
-0.00516859 0.1460905 -0.08410094 0.05861027 0.0069568655 -0.08318391 0.42871934 0.40688896
0.1126206 -0.17832637 -0.25888765 0.0893431 -0.097567104 -0.11096012 -0.053518888 0.2168996
-0.21851009 0.18988283 0.11004383 -0.2642981 0.21491659 -0.089636244 0.39504743 -0.05140186
0.023396775 0.21387169 0.18611634 -0.41782418 -0.048546266 -0.045439683 0.0911241 -4.81183e-05
0.17626573 0.30578506 -0.29602382 0.075172916 0.06831485 0.2673274 -0.18392563 0.12956576
-0.012469104 0.30005798 -0.07680989 0.25054252 0.13530445 0.29413566 0.4034656 0.10828628
00000000: b666 ba3d 5d4f 123e 9aca 533e 0777 dbbd
00000010: 1a9a ab3d 42b0 4c3e b532 4a3c 4aef 953d
00000020: 047c 643d 9dd2 edbc 535e 40be 2f42 86bd
00000030: f340 a9bd 30d8 8bbe d054 1dbd 372f e1bd
00000040: 596b b53e ae57 4a3b f4db 7f3e 97b4 ff3e
00000050: 1163 173e d8a7 093e 7cc0 2dbe ad7b 52be
00000060: c37e 2fbe 09c6 60be 7cbf 313e 1a57 943e
00000070: 7dc0 403e 6d03 313d d812 1ebe e5c4 c4bd
00000080: 69c2 e73d 64a0 493e 496d babe dd2b e2bd
00000090: 6e68 24bd dcc9 7abd e01b 69be 7626 99be
000000a0: 0558 353d b74b 3a3d 454b 613d 966c b5bc
000000b0: 643e 353b 5975 053e 390d b93b c90d b23d
000000c0: be05 a9bc 3f36 2d3e feba d4bd 3326 56be
000000d0: a8af 883e 60d5 b03d 8b96 d93d 4dd5 c13d
000000e0: 6e55 1ebe 4a09 9b3e 3bc7 483e a9f9 75be
000000f0: 10f9 5e3d d63c 54bd dbb2 41bb b3d5 173e
00000100: 66b0 873e 7d65 1ebd 7f7a 62be 62f5 d8bd
00000110: 7a21 57bc 7233 30bd b8dc e7bd 55df 333d
00000120: fcb2 a6be beec 34be 4ffa 783e e584 803e
00000130: 21f6 1e3e 4c1d 763d 6551 c73d 77eb 423e
00000140: 2af9 fa3d d963 523e 357f 8dbd f4f8 733e
00000150: ea20 4fbe ac6c 70bd 7cec 3dbd a0a4 243e
00000160: ee44 ae3e f96c 78bd 3f75 683e b711 423e
00000170: 2cd2 6fbc 0381 f83e 3c16 4c3e ef74 55bb
00000180: 21ca a2be 83d9 73bd 993d 8e3e 4323 2abe
00000190: c342 34be d464 c53e 6c49 afbe 9309 c23a
000001a0: 2f95 003e 638c a83d e664 b0bd 9f7c eebd
000001b0: dd15 c8be 3212 a73d 8ddb 0ebc 3e43 8dbd
000001c0: 2ca0 e1bd fc72 643c 3e31 543e 3f82 0fbe
000001d0: f9e8 023e 86df 783e d517 9b3c 84f3 3f3d
000001e0: 248f c63d e288 00bf 0552 8a3d d1e1 91bd
000001f0: dc2d 043d fba9 d43d adf6 603e 0c22 893e
00000200: 24ce 413d af4b 50bd 52f1 96bd 4be1 25be
00000210: ad9b 58ba 5526 e83e 1f74 25be 9df1 f73d
00000220: 5fc7 333e decc 993e 4114 0a3d 6176 a3bc
00000230: 2e24 13be 91b4 033e fe9b 3f3c f7de 15bd
00000240: 7167 56bd b23e cabb 7661 873d 02d5 3fbd
00000250: b6d3 34be c017 04bd 9e80 6ebd a369 673e
00000260: 38f8 173d 57ef 6f3e 9d48 bbbc c780 993e
00000270: 318d 7a3e 5afc 063e e6b5 d0bd db62 14be
00000280: 42a9 3cbe 81f1 393e 21c7 c5bd 13a1 6f3e
00000290: 764b 7c3c 5895 dbbb 4dff 6e3e 8257 18bd
000002a0: fe9f 08be 093a adbe 8276 75bc acba 48be
000002b0: d215 3f3e 4186 e9be 8b85 d73e 0007 833d
000002c0: 3d70 ef3c db10 8d3e df18 aebe d300 4a3d
000002d0: c1f8 2ebe 50ee 9cbe 27e9 47be ef2a 173e
000002e0: beb0 853c 1cc0 dcbd 8a6e b8bd 2568 ebbd
000002f0: 1a2d c03d ec97 d7bd 37f6 98bd 87fb 293e
00000300: edab 7b3e 9f4e 323e d340 40be b3c9 1fbe
00000310: de7f 78be 80a1 86be b01e 23be 47c3 5bbe
00000320: b0b6 a8be 7fa0 0e3e 251e 93be 7e09 833e
00000330: 63b3 52be a10c 3ebd 737a 48be afa0 2cbe
00000340: 475d a9bb bf98 153e 1d3d acbd 5311 703d
00000350: 6bf6 e33b 535c aabd 1a81 db3e c053 d03e
00000360: a1a5 e63d 309b 36be ec8c 84be 84f9 b63d
00000370: 43d1 c7bd 0f3f e3bd 9f36 5bbd ee1a 5e3e
00000380: 1cc1 5fbe a570 423e a95e e13d 1552 87be
00000390: 1813 5c3e 3593 b7bd a843 ca3e c28a 52bd
000003a0: 98aa bf3c 2e01 5b3e 4895 3e3e 0ded d5be
000003b0: 73d8 46bd f61e 3abd 469f ba3d a2d2 49b8
000003c0: 017f 343e dc8f 9c3e 6f90 97be 42f4 993d
000003d0: a8e8 8b3d 23df 883e 0057 3cbe e3ac 043e
000003e0: 364b 4cbc 33a1 993e 814e 9dbd 1c47 803e
000003f0: 408d 0a3e f398 963e 0b93 ce3e 32c5 dd3d

critic.2.bias f4 [64]
0.05667206 -0.011925101 0.0915894 0.060165375 -0.2085227 -0.063728645 0.09668164 -0.054708168
-0.1448982 -0.09528658 -0.19823274 0.036057293 0.03552415 -0.076547354 0.2082167 -0.11163828
0.03566575 -0.11077328 0.047969256 -0.041050762 -0.058618642 0.03297514 -0.061958283 0.024046948
0.056559462 0.13309358 0.07989421 0.069571845 -0.061506405 0.024739483 -0.07475619 0.03540533
0.035523687 0.00874952 0.18289898 0.060963627 -0.07463013 0.10687688 0.03238466 -0.025700202
-0.011873032 0.058563076 -0.033745598 -0.06603404 0.13455623 0.09387451 -0.057823285 0.053156193
0.06558338 0.092952 -0.108588584 0.14541177 0.06467986 0.03075031 0.041507352 0.030221915
0.03869244 0.12291938 -0.086503394 -0.04127844 0.051054522 0.018026903 0.16045924 0.084461406
00000000: f620 683d 8061 43bc 3993 bb3d f86f 763d
00000010: fa86 55be 2a84 82bd 0601 c63d ac15 60bd
00000020: 3260 14be 9c25 c3bd 86fd 4abe d0b0 133d
00000030: c581 113d dcc4 9cbd c236 553e 9ca2 e4bd
00000040: 4016 123d 1add e2bd 697b 443d d824 28bd
00000050: 1a1a 70bd f110 073d f8c7 7dbd 1bfe c43c
00000060: e5aa 673d af49 083e 939f a33d af7b 8e3d
00000070: 24ee 7bbd 75aa ca3c c619 99bd 2e05 113d
00000080: 4981 113d 265a 0f3c df49 3b3e ffb4 793d
00000090: aed7 98bd 44e2 da3d c7a5 043d 3b89 d2bc
000000a0: 1b87 42bc d6df 6f3d d338 0abd db3c 87bd
000000b0: 1cc9 093e 4741 c03d 1cd8 6cbd 4fba 593d
000000c0: 9450 863d 9e5d be3d b163 debd d3e6 143e
000000d0: e076 843d 13e8 fb3c 9d03 2a3d f393 f73c
000000e0: f77b 1e3d 28bd fb3d b128 b1bd 9513 29bd
000000f0: 8c1e 513d 28ad 933c 6d4f 243e 1afa ac3d

critic.4.weight f4 [1, 64]
-0.1508776 -0.052700523 -0.17432493 0.10830475 0.28946078 0.17906186 -0.103410974 0.08873724
0.14627233 0.17621489 0.09607746 -0.10890978 -0.042392693 0.20388912 -0.09442539 0.06867252
-0.1551085 0.21348354 -0.02850195 0.11475488 0.07383614 0.08754867 0.1584558 -0.13978894
-0.27792355 -0.088379644 -0.12577397 -0.32918206 0.05313777 -0.06935691 0.17977539 -0.13597678
-0.07004808 -0.2706731 -0.10626232 -0.0744469 0.21937773 -0.049563948 -0.035593465 0.004913219
0.06904724 -0.07054906 0.27480328 0.20172413 -0.20904249 -0.31146762 0.18067558 -0.11727133
-0.14590491 -0.21682967 0.33653083 -0.11290568 -0.12070437 -0.22193782 -0.11087628 0.026502045
0.0051152655 -0.06580716 0.07547576 0.4264329 -0.11719186 -0.005360694 -0.13618404 -0.08834056
00000000: a87f 1abe 81dc 57bd 3c82 32be e1ce dd3d
00000010: 3434 943e fe5b 373e 22c9 d3bd dfbb b53d
00000020: 6ac8 153e ad71 343e 42c4 c43d 170c dfbd
00000030: f6a3 2dbd 4fc8 503e 1962 c1bd 2ea4 8c3d
00000040: c3d4 1ebe 6e9b 5a3e ec7c e9bc 9b04 eb3d
00000050: 6737 973d b84c b33d 3d42 223e d524 0fbe
00000060: ff4b 8ebe 6300 b5bd e4ca 00be 8d8a a8be
00000070: fea6 593d ff0a 8ebd 0a17 383e 7f3d 0bbe
00000080: 5e75 8fbd aa95 8abe 0fa0 d9bd 9e77 98bd
00000090: 8ea4 603e 9103 4bbd 74ca 11bd 11ff a03b
000000a0: a468 8d3d 077c 90bd 04b3 8c3e c590 4e3e
000000b0: 3c0f 56be af78 9fbe 0503 393e f32b f0bd
000000c0: 1968 15be 9908 5ebe c54d ac3e 183b e7bd
000000d0: da33 f7bd ab43 63be 1a13 e3bd d11a d93c
000000e0: f59d a73b e8c5 86bd 0993 9a3d 6a55 da3e
000000f0: 4902 f0bd c3a8 afbb d473 0bbe e5eb b4bd

actor_mean.0.weight f4 [64, 42]
0.03948566 -0.15635355 0.18214458 0.06156494 0.10483133 0.2724765 0.1040133 -0.049721286
-0.098093405 -0.12813772 0.052140098 0.058895946 0.22530772 -0.30818895 0.11777801 0.32496887
-0.055467628 0.1326359 0.0366798 -0.27517805 0.46282822 -0.009243729 -0.2067033 0.25778633
-0.2582249 -0.21861127 -0.17473598 0.37240243 -0.0985858 -0.12576255 -0.10778031 -0.012769507
0.0043305582 -0.010251954 -0.098243594 -0.22830506 0.1582428 0.10978328 -0.24682432 0.14830042
0.30880383 -0.049185663 0.051044412 0.036477912 0.08845593 0.20558876 -0.14971411 0.15604757
0.56713873 -0.459465 0.3690298 -0.06567732 -0.060640518 -0.20217249 0.020769551 0.2508941
0.35847306 0.33673885 -0.053712413 -0.072457545 0.07440153 0.054045066 -0.43353608 0.14737317
0.2526606 0.13051695 0.20537612 0.20053552 0.58286595 -0.2742235 -0.04210321 0.036358964
0.0926661 -0.06953562 -0.16412203 -0.04320541 0.007861264 -0.0077230413 0.046561368 0.09077375
-0.17374487 7.886085e-05 0.10761511 0.10768387 0.16967502 -0.05612389 0.02788932 -0.19350408
-0.10488616 0.13571408 0.36102638 -0.16771613 0.13156177 0.34711617 0.13443117 -0.104778774
0.0741551 0.18197544 -0.11950385 -0.1892435 -0.29854134 -0.044959832 -0.16459177 0.12894537
-0.24533555 -0.30365846 -0.20423591 -0.04749749 0.022676697 0.24591473 -0.16279043 -0.03700727
-0.010251611 0.063935675 0.23638172 -0.09518375 0.0012006161 -0.22378123 -0.21570985 -0.2476324
0.0019312031 -0.27655837 0.054259997 0.009462896 -0.113261044 -0.10609765 -0.0052199173 -0.100539304
-0.55228776 -0.123859465 -0.10843809 -0.051158 -0.09329828 -0.02550306 0.22002359 -0.04359399
-0.009991472 -0.092319466 -0.14312205 -0.33663377 -0.06786924 -0.032038976 -0.09517874 -0.051510084
0.17308153 0.0066918787 0.53486836 0.3103825 -0.07226106 0.024232317 -0.073114395 0.050470974
0.096839935 0.30633947 -0.25236616 0.053072907 0.05488629 0.11617825 -0.2630874 0.007800126
0.36888483 0.041771207 -0.33639857 -0.26313832 0.11213141 0.037890866 -0.071356826 0.069808096
0.3020738 0.16667338 0.019469474 -0.010550156 0.073238544 -0.089497894 -0.2332914 0.4906618
0.22283998 0.08451438 0.06222097 0.07836224 -0.34526348 0.03582729 -0.022582425 -0.020656785
0.21265182 -0.053048514 -0.08964955 -0.061103337 -0.17007108 -0.41505098 -0.25529358 -0.017840631
0.037434928 0.36062172 -0.0153053645 -0.2914515 0.02994314 -0.33436966 0.09076043 0.08031376
-0.30947644 0.09827738 -0.003811021 0.050348043 0.09137216 -0.29121727 -0.05105405 -0.038709022
0.008502678 -0.106035694 -0.33135608 -0.15333019 -0.31408155 0.014081318 0.14759608 -0.1587541
0.2069435 0.17525151 0.17743923 0.40181214 0.1887238 -0.33966872 0.07165148 0.058753643
-0.10097746 -0.1735504 0.38964608 0.0032927091 0.059693 0.010939119 -0.2008809 -0.2845155
0.3122554 0.0715225 0.36010948 0.054222293 -0.40573716 0.2130475 0.009527763 -0.24526402
0.4225223 0.10308452 0.08235011 0.19224827 -0.10217168 -0.13242407 0.16423142 -0.14688179
-0.11323477 -0.0035822678 0.053137273 -0.15512347 -0.1291051 -0.07940695 -0.04074226 0.13787377
00000000: b7bb 213d 251b 20be 1c84 3a3e 852b 7c3d
00000010: cfb1 d63d 0a82 8b3e ed04 d53d 8ca8 4bbd
00000020: 32e5 c8bd 8936 03be db90 553d e03c 713d
00000030: 11b7 663e f1ca 9dbe 9935 f13d 5262 a63e
00000040: 0632 63bd b5d1 073e 8f3d 163d 23e4 8cbe
00000050: d2f7 ec3e 0273 17bc 08aa 53be 92fc 833e
00000060: 0e36 84be a2db 5fbe fded 32be 88ab be3e
00000070: 5ae7 c9bd e6c7 00be ecbb dcbd 3237 51bc
00000080: 5be7 8d3b d0f7 27bc f033 c9bd cdc8 69be
00000090: 670a 223e 0ed6 e03d 84bf 7cbe 11dc 173e
000000a0: 891b 9e3e e876 49bd f213 513d dd69 153d
000000b0: 6228 b53d dc85 523e a84e 19be efca 1f3e
000000c0: 0130 113f ff3e ebbe 79f1 bc3e d581 86bd
000000d0: 3162 78bd 4e06 4fbe e824 aa3c 3175 803e
000000e0: c889 b73e 0969 ac3e 8c01 5cbd 9f64 94bd
000000f0: d45f 983d 5c5e 5d3d 71f8 ddbe fee8 163e
00000100: bb5c 813e 3ca6 053e 1e4e 523e 2f59 4d3e
00000110: b436 153f 0667 8cbe 6a74 2cbd 23ed 143d
00000120: b9c7 bd3d b168 8ebd 9b0f 28be 28f8 30bd
00000130: 88cc 003c 9111 fdbb 22b7 3e3d 96e7 b93d
00000140: 2dea 31be 1962 a538 5065 dc3d 5c89 dc3d
00000150: 4abf 2d3e 2ae2 65bd 2578 e43c ef25 46be
00000160: 8ece d6bd a2f8 0a3e 73d8 b83e c7bd 2bbe
00000170: 21b8 063e 36b9 b13e 53a8 093e 4196 d6bd
00000180: a1de 973d c557 3a3e 6fbe f4bd 0cc9 41be
00000190: 69da 98be cd27 38bd bf8a 28be 410a 043e
000001a0: 3e39 7bbe 1f79 9bbe 3823 51be ba8c 42bd
000001b0: 7bc4 b93c 12d1 7b3e 89b2 26be ef94 17bd
000001c0: 5ff6 27bc b5f0 823d 0d0e 723e b3ef c2bd
000001d0: fe5d 9d3a e826 65be 0be3 5cbe 5993 7dbe
000001e0: 6c20 fd3a 0f99 8dbe bb3f 5e3d 430a 1b3c
000001f0: 68f5 e7bd ba49 d9bd d70b abbb 8de7 cdbd
00000200: bb62 0dbf 08aa fdbd ca14 debd 0d8b 51bd
00000210: 2b13 bfbd cbeb d0bc dd4d 613e 9d8f 32bd
00000220: 45b3 23bc fd11 bdbd 968e 12be 435b acbe
00000230: 07ff 8abd 4d3b 03bd 12ed c2bd 3dfc 52bd
00000240: 493c 313e 8c47 db3b 22ed 083f 74ea 9e3e
00000250: 9bfd 93bd da82 c63c 00bd 95bd a7ba 4e3d
00000260: 0454 c63d 87d8 9c3e 2336 81be fa62 593d
00000270: 72d0 603d ddee ed3d 64b3 86be 3398 ff3b
00000280: 79de bc3e 4918 2b3d 6f3c acbe 11ba 86be
00000290: 27a5 e53d 7433 1b3d 8723 92bd 8cf7 8e3d
000002a0: 6ba9 9a3e 6dac 2a3e 727e 9f3c 90da 2cbc
000002b0: 17fe 953d ac4a b7bd f1e3 6ebe 0638 fb3e
000002c0: 2a30 643e e015 ad3d 6adb 7e3d 627c a03d
000002d0: 60c6 b0be a3bf 123d c7fe b8bc 6b38 a9bc
000002e0: 66c1 593e 6649 59bd 2f9a b7bd 7e47 7abd
000002f0: 1d27 2ebe 9081 d4be d7b5 82be 8426 92bc
00000300: 5e55 193d 69a3 b83e 5ac3 7abc 2239 95be
00000310: 514b f53c 8032 abbe 9be0 b93d 8a7b a43d
00000320: b273 9ebe a745 c93d 53c2 79bb c039 4e3d
00000330: 5421 bb3d 6e1a 95be 0d1e 51bd 5a8d 1ebd
00000340: d14e 0b3c 3e29 d9bd 81a7 a9be 9702 1dbe
00000350: 4ccf a0be 54b5 663c 6d23 173e 6f90 22be
00000360: ffe8 533e 2275 333e a1b2 353e 52ba cd3e
00000370: d040 413e 0fe9 adbe 03be 923d a9a7 703d
00000380: 45cd cebd 32b7 31be b17f c73e 7eca 573b
00000390: a680 743d fe39 333c b9b3 4dbe 04ac 91be
000003a0: f1df 9f3e 637a 923d 4560 b83e 3218 5e3d
000003b0: c8bc cfbe 2029 5a3e 561a 1c3c 7e26 7bbe
000003c0: d854 d83e fa1d d33d 2da7 a83d bbdc 443e
000003d0: 633f d1bd 2d9a 07be 482c 283e 2e68 16be
000003e0: a2e7 e7bd 7bc4 6abb 78a6 593d b0d8 1ebe
000003f0: 2134 04be 1ca0 a2bd 5be1 26bd c82e 0d3e

actor_mean.0.bias f4 [64]
0.028994732 -0.07107236 -0.043842003 -0.072294794 -0.019397272 -0.07804663 0.029803341 -0.085962415
0.07852037 -0.055635918 -0.03163684 0.08072108 0.047279924 0.002745774 0.048486028 0.009486318
-0.006787551 -0.02879374 -0.10920603 -0.052993987 0.109063715 0.028637482 -0.08330583 -0.028172817
0.09960987 -0.007831394 0.008405727 -0.09336653 0.062982164 -0.047502384 -0.12824969 0.092622295
0.048342712 0.0014921691 0.018320093 -0.098169915 0.028758777 -0.008323544 0.036214292 0.043492246
0.025968267 0.015029129 -0.016685849 -0.07713202 -0.08733319 0.068074025 0.09549913 0.024896573
0.03433958 -0.04746825 -0.0026289881 0.03115032 0.06625755 0.028757147 0.0037864293 -0.06961507
-0.0047572614 -0.103228174 0.03137867 0.10589601 -0.026876327 -0.006934152 0.053526543 -0.0753771
00000000: 5c86 ed3c 638e 91bd ac93 33bd 4b0f 94bd
00000010: 07e7 9ebc e9d6 9fbd 2326 f43c 100d b0bd
00000020: 4acf a03d 7de2 63bd a295 01bd 1851 a53d
00000030: 98a8 413d 72f2 333b 4999 463d 806c 1b3c
00000040: 1b6a debb d9e0 ebbc 69a7 dfbd 3910 59bd
00000050: cc5c df3d 2799 ea3c 3f9c aabd aeca e6bc
00000060: 4200 cc3d 3f4f 00bc 2db8 093c f436 bfbd
00000070: cbfc 803d dc91 42bd e353 03be c2b0 bd3d
00000080: 0203 463d e394 c33a 0514 963c 4f0d c9bd
00000090: 8797 eb3c 795f 08bc 7055 143d ed24 323d
000000a0: 67bb d43c bc3c 763c c3b0 88bc 64f7 9dbd
000000b0: bedb b2bd 656a 8b3d 0c95 c33d e6f3 cb3c
000000c0: a9a7 0c3d 116e 42bd 1a4b 2cbb f52e ff3c
000000d0: 0ab2 873d 1c94 eb3c be25 783b 5992 8ebd
000000e0: cde2 9bbb 4b69 d3bd ec86 003d 02e0 d83d
000000f0: be2b dcbc e237 e3bb a63e 5b3d 4f5f 9abd

actor_mean.2.weight f4 [64, 64]
-0.025901595 0.19986384 -0.2960496 0.32992184 -0.29650515 0.20528951 0.05513318 0.05133268
0.11268534 0.07436331 0.29682353 -0.31288588 -0.37621322 0.06800816 -0.048565198 -0.220237
0.2633444 -0.06013192 0.12571894 0.07216251 -0.044541463 0.09902352 -0.27490717 -0.17737189
0.17183758 0.017717946 -0.08189584 0.10731178 -0.09141103 0.1084453 0.4440737 -0.16849309
0.14190495 0.19652934 0.27195278 -0.036536913 -0.077602714 -0.026302073 -0.10509758 -0.07751873
-0.293103 0.18379027 -0.14618348 0.056340363 -0.17612988 -0.26048774 -0.1649721 -0.04247125
-0.55831206 0.019947732 -0.23974013 -0.15792927 0.0769387 -0.024651712 0.045218717 -0.0133004775
0.16373338 0.101013966 -0.26769754 -0.0075183413 -0.13070317 0.1922039 0.19235997 0.06328869
-0.07559598 -0.032835826 0.004702036 0.28098023 -0.015607067 0.3319374 -0.4203559 0.5774892
0.06360933 0.39437237 -0.105631456 0.11844034 0.0813105 0.14236994 -0.25726646 -0.1992785
-0.07425793 -0.059143063 0.018667566 0.058597784 0.10648359 0.036930017 0.14028716 -0.08590489
-0.08536657 -0.09127888 0.30931413 0.025398424 -0.09025647 0.17077816 -0.06176315 -0.33711168
-0.09849931 0.09605014 0.13316308 0.17067696 -0.1618693 -0.024422219 -0.17283101 -0.16289784
0.006880695 -0.011898504 -0.16963018 0.22737919 0.10914537 0.3931213 -0.2060253 -0.06786987
0.2562324 -0.0023710977 0.26147375 -0.34523052 0.23188119 0.1463795 0.13102195 -0.24262695
0.02028441 0.39368144 0.21120936 -0.50146043 0.039951537 0.03308576 -0.2368456 0.48510602
0.15196134 0.002816496 -0.06161643 0.30491704 0.029000798 -0.004064911 -0.1910885 0.098194025
-0.056221813 -0.11016456 -0.3328184 0.12640844 -0.22015825 0.15760699 -0.14542204 0.07923587
-0.053351942 0.25959715 0.14936475 -0.39571446 -0.21672407 -0.10271209 0.2627264 0.13647445
0.1228547 -0.13711886 -0.13877234 -0.44423452 0.011977196 -0.24296036 0.19940297 -0.10855368
-0.25825942 0.020404074 0.22053795 -0.122991145 -0.112312555 -0.28020832 -0.022102345 -0.061888326
0.05896225 -0.07102781 -0.26107466 -0.18335184 -0.0041357544 -0.022761889 -0.28758082 -0.078278266
-0.06779451 0.32745028 -0.034442205 -0.13323522 -0.05153437 -0.15508537 -0.24637246 0.2305743
0.09708633 -0.031859916 0.3589894 0.26540485 -0.079271205 0.16740224 0.14250238 -0.32773104
-0.2162793 -0.17109562 -0.022367263 -0.47456107 -0.22441183 0.09733806 -0.10528375 -0.11170746
0.09535391 0.045778718 0.031632263 -0.19681317 -0.023368135 0.44694012 0.03276234 -0.047793526
0.109056 0.11722145 -0.12427157 0.27916715 -0.3558171 0.06106927 0.003354925 0.10903778
-0.05957203 -0.21971266 0.5761628 -0.24131241 0.08841302 0.17051625 0.030696878 0.22651567
0.1256098 -0.27989015 0.26620707 0.32008722 0.16564816 -0.051451113 0.022496475 -0.16640213
0.00021016595 0.13735792 0.08095565 -0.04252369 0.050978236 -0.15837699 0.17507342 -0.04781101
0.04574984 0.020413136 0.101282164 -0.11537301 -0.06436189 -0.031667605 -0.07450041 0.08965336
-0.23595832 -0.27282727 -0.053699985 -0.23925723 -0.1423065 -0.22612764 -0.45621398 0.07178587
00000000: 952f d4bc 1ba9 4c3e d093 97be 84eb a83e
00000010: 86cf 97be 6a37 523e 54d3 613d 3742 523d
00000020: 92c7 e63d cb4b 983d 41f9 973e 9432 a0be
00000030: 059f c0be dd47 8b3d 4dec 46bd cf85 61be
00000040: 14d5 863e e34c 76bd 77bc 003e f0c9 933d
00000050: 1c71 36bd d8cc ca3d a2c0 8cbe faa0 35be
00000060: 31f6 2f3e 3a25 913c 02b9 a7bd 47c6 db3d
00000070: b535 bbbd 9218 de3d a15d e33e 7489 2cbe
00000080: 884f 113e fd3e 493e 653d 8b3e bba7 15bd
00000090: 2cee 9ebd 7277 d7bc 663d d7bd 24c2 9ebd
000000a0: 9911 96be 8433 3c3e 1fb1 15be 27c5 663d
000000b0: 645b 34be a65e 85be 72ee 28be 55f6 2dbd
000000c0: 8aed 0ebf 6d69 a33c 707e 75be 36b8 21be
000000d0: 0a92 9d3d 63f2 c9bc 4337 393d 3fea 59bc
000000e0: b9a9 273e 69e0 ce3d a70f 89be 6b5c f6bb
000000f0: 0dd7 05be 19d1 443e 03fa 443e 809d 813d
00000100: 11d2 9abd dc7e 06bd 8913 9a3b a4dc 8f3e
00000110: c9b4 7fbc b3f3 a93e e338 d7be 55d6 133f
00000120: 9c45 823d 2deb c93e 4e55 d8bd d990 f23d
00000130: 1f86 a63d 6dc9 113e 6eb8 83be aa0f 4cbe
00000140: 8b14 98bd ff3f 72bd b9ec 983c 3b04 703d
00000150: 1214 da3d ee43 173d 70a7 0f3e e7ee afbd
00000160: abd4 aebd 6cf0 babd 6c5e 9e3e 5b10 d03c
00000170: 62d8 b8bd 78e0 2e3e 5bfb 7cbd e799 acbe
00000180: 02ba c9bd f0b5 c43d e75b 083e f1c5 2e3e
00000190: 11c1 25be 1b11 c8bc 9dfa 30be b1ce 26be
000001a0: 7477 e13b f1f1 42bc 89b3 2dbe 17d6 683e
000001b0: 9c87 df3d 3247 c93e 4cf8 52be 5cff 8abd
000001c0: e530 833e 6b64 1bbb e3df 853e 0ec2 b0be
000001d0: 4372 6d3e 82e4 153e 9e2a 063e 3373 78be
000001e0: 7e2b a63c 9d90 c93e 4447 583e b65f 00bf
000001f0: 39a4 233d ef84 073d a787 72be d15f f83e
00000200: c19b 1b3e f694 383b 8261 7cbd 161e 9c3e
00000210: 1593 ed3c f232 85bb b4ac 43be f319 c93d
00000220: d848 66bd f59d e1bd 2c67 aabe 3771 013e
00000230: 2a71 61be ba63 213e 84e9 14be 6a46 a23d
00000240: 9187 5abd ebe9 843e 13f3 183e 169b cabe
00000250: eaec 5dbe b75a d2bd 1384 863e f5bf 0b3e
00000260: 3f9b fb3d e368 0cbe 561a 0ebe b572 e3be
00000270: 003c 443c 9aca 78be 4b30 4c3e 6451 debd
00000280: 943a 84be 7226 a73c b3d4 613e c8e2 fbbd
00000290: 2004 e6bd 7777 8fbe fa0f b5bc 9d7e 7dbd
000002a0: 6682 713d 0777 91bd 94ab 85be 96c0 3bbe
000002b0: 3985 87bb 2477 babc cb3d 93be 5b50 a0bd
000002c0: d9d7 8abd 90a7 a73e 4513 0dbd d06e 08be
000002d0: b415 53bd b3ce 1ebe 1049 7cbe ab1b 6c3e
000002e0: 33d5 c63d 8b7f 02bd 75cd b73e 25e3 873e
000002f0: f158 a2bd 7e6b 2b3e 25ec 113e 5dcc a7be
00000300: 5278 5dbe b133 2fbe 8d3b b7bc abf9 f2be
00000310: 37cc 65be 2d59 c73d 029f d7bd e1c6 e4bd
00000320: e948 c33d 7782 3b3d d590 013d 6489 49be
00000330: 886e bfbc 56d5 e43e ce31 063d 25c3 43bd
00000340: c158 df3d cd11 f03d 1882 febd ffee 8e3e
00000350: a92d b6be c523 7a3d 4dde 5b3b 334f df3d
00000360: cd01 74bd 5bfc 60be 687f 133f 9a1a 77be
00000370: e311 b53d d09b 2e3e 0578 fb3c b9f3 673e
00000380: db9f 003e c34d 8fbe 4b4c 883e 79e2 a33e
00000390: ac9f 293e 67be 52bd 874a b83c 5265 2abe
000003a0: fe5f 5c39 8ea7 0c3e 13cc a53d 522d 2ebd
000003b0: 8ece 503d 942d 22be 7246 333e 7ad5 43bd
000003c0: 2f64 3b3d 7339 a73c 066d cf3d af48 ecbd
000003d0: 2bd0 83bd e4b5 01bd ac93 98bd 2e9c b73d
000003e0: 0f9f 71be 04b0 8bbe 84f4 5bbd d9ff 74be
000003f0: ccb8 11be 018e 67be e194 e9be 7804 933d

actor_mean.2.bias f4 [64]
-0.101151146 -0.10094055 -0.033646587 0.043495435 -0.069599204 -0.0014561121 -0.03370802 0.08338279
0.11393175 0.09551835 0.036145046 0.024863923 0.06404454 -0.077988476 0.015075198 0.021316867
0.014703637 -0.03435912 0.029906467 -0.046345904 -0.060125586 0.034742538 -0.052076332 -0.003272773
0.022083303 0.02874296 -0.043469224 0.078565575 0.03292527 -0.038536433 -0.04302464 -0.053275235
-0.055440307 -0.026554495 -0.05641965 -0.027586922 0.021017386 0.042809185 0.10042869 0.019177023
0.023177732 -0.053450778 0.0013442009 -0.022499397 0.008660311 0.060618326 0.07904939 0.0073269047
0.062157173 -0.09672409 -0.0894893 0.014935726 0.018765545 0.061785668 -0.0572472 -0.07218262
-0.033381097 -0.020279901 0.008313537 -0.03959699 -0.087942824 0.111374564 0.006746291 0.06310281
00000000: 5528 cfbd ebb9 cebd 01d1 09bd 4528 323d
00000010: 078a 8ebd 04db beba 6c11 0abd 99c4 aa3d
00000020: 0d55 e93d 209f c33d d40c 143d 6daf cb3c
00000030: c929 833d 6cb8 9fbd f7fd 763c b6a0 ae3c
00000040: 86e7 703c 26bc 0cbd 68fe f43c 34d5 3dbd
00000050: 3f46 76bd 314e 0e3d fe4d 55bd 057c 56bb
00000060: 0be8 b43c 5b76 eb3c c90c 32bd fde6 a03d
00000070: a6dc 063d 61d8 1dbd 9b3a 30bd 2237 5abd
00000080: 6015 63bd d088 d9bc 4a18 67bd f8fd e1bc
00000090: a72c ac3c af58 2f3d 8fad cd3d 2219 9d3c
000000a0: 3adf bd3c 34ef 5abd e62f b03a a850 b8bc
000000b0: fae3 0d3c ec4a 783d a6e4 a13d 8816 f03b
000000c0: 8598 7e3d 4817 c6bd 2b46 b7bd fab4 743c
000000d0: 33ba 993c f812 7d3d 0a7c 6abd 7bd4 93bd
000000e0: 9eba 08bd 0922 a6bc 8035 083c 7430 22bd
000000f0: 5e1b b4bd 5918 e43d fe0f dd3b 0c3c 813d

actor_mean.4.weight f4 [2, 64]
-0.017108386 -0.04661886 -0.044661272 0.054004148 -0.1319236 -0.10110895 -0.075658195 0.097077824
0.1425716 0.043688655 0.0037119046 -0.053549193 0.107560545 -0.09182163 -0.1278145 0.029254228
0.072159216 -0.13469452 0.05480838 -0.06634907 0.08016478 -0.003638112 0.15829746 0.04865352
-6.2327366e-05 0.031667687 0.085313074 -0.087486774 -0.03675516 0.032463282 -0.031741556 0.132845
-0.021103758 -0.028992604 -0.004131548 -0.0149172265 0.032235187 0.09915347 -0.008098408 0.06871178
-0.11806925 0.123116925 -0.09063249 0.19212385 0.058991898 -0.12660418 -0.09438601 0.05026624
0.06829722 -0.102518305 0.109453075 0.16205636 0.051808 -0.10645882 0.079656176 0.086343445
0.09752602 -0.09437096 0.014221289 -0.12685837 -0.055715065 -0.041205622 -0.10122134 -0.09934478
0.0685682 -0.107479624 0.12745853 -0.12445324 -0.02699906 0.097111635 -0.14626727 0.06749231
0.13551703 -0.074652165 -0.06885505 -0.04548158 -0.13752884 0.077615485 0.118202865 -0.10532666
0.06862857 0.07787576 0.08913944 -0.05838132 0.14167364 0.091500975 -0.022626737 -0.08620709
0.118846394 0.15701002 -0.053669274 -0.06314643 -0.09185215 0.016547851 0.086496174 -0.0778635
-0.015359457 0.1504499 -0.104816124 -0.11656823 0.15931252 0.028169747 -0.16486287 0.099928044
0.0139455255 -0.10733296 -0.119449235 0.029395523 -0.09704552 0.08581082 -0.032750674 -0.02951267
0.11821694 -0.016439743 -0.061721805 -0.028976865 -0.043658856 -0.1992918 0.05636921 0.11697118
0.027297227 -0.028577067 -0.031581234 0.059270047 0.15360127 -0.1345912 -0.05345379 -0.016752234
00000000: e326 8cbc 6bf3 3ebd bdee 36bd 7433 5d3d
00000010: fb16 07be 3612 cfbd aff2 9abd bdd0 c63d
00000020: 4afe 113e e0f2 323d 6d43 733b 6656 5bbd
00000030: b448 dc3d fb0c bcbd cee1 02be 90a6 ef3c
00000040: 36c8 933d 5ced 09be c07e 603d 05e2 87bd
00000050: 6f2d a43d 646d 6ebb bb18 223e ea48 473d
00000060: c0b5 82b8 fab5 013d 9fb8 ae3d 442c b3bd
00000070: 948c 16bd 38f8 043d 6f03 02bd 8508 083e
00000080: cae1 acbc e681 edbc f061 87bb 6267 74bc
00000090: 0b09 043d f910 cb3d 2faf 04bc c3b8 8c3d
000000a0: 4ace f1bd ba24 fc3d 879d b9bd 1dbc 443e
000000b0: 7da1 713d 87a4 01be 744d c1bd f9e3 4d3d
000000c0: 6adf 8b3d 1ef5 d1bd ef28 e03d 1af2 253e
000000d0: a034 543d 1507 dabd c722 a33d d5d4 b03d
000000e0: b9bb c73d 9045 c1bd 6900 693c 29e7 01be
000000f0: 7b35 64bd 3ac7 28bd 224d cfbd 4775 cbbd
00000100: 7c6d 8c3d 471e dcbd 7d84 023e 57e1 febd
00000110: 222d ddbc 77e2 c63d 16c7 15be 6939 8a3d
00000120: fac4 0a3e 3ce3 98bd e003 8dbd e54a 3abd
00000130: 5cd4 0cbe def4 9e3d 5814 f23d 81b5 d7bd
00000140: 238d 8c3d 547d 9f3d bd8e b63d 4021 6fbd
00000150: e512 113e dd64 bb3d b55b b9bc 588d b0bd
00000160: bd65 f33d 3cc7 203e 50d4 5bbd ea52 81bd
00000170: fb1c bcbd 5c8f 873c e824 b13d e676 9fbd
00000180: 3ba6 7bbc 8a0f 1a3e d6a9 d6bd 53bb eebd
00000190: d222 233e 3ec4 e63c d0d1 28be 13a7 cc3d
000001a0: c67b 643c 62d1 dbbd cda1 f4bd e1ce f03c
000001b0: cdbf c6bd 95bd af3d 9225 06bd 8ec4 f1bc
000001c0: b91b f23d a4ac 86bc 01d0 7cbd e460 edbc
000001d0: a1d3 32bd 2613 4cbe 67e3 663d 968e ef3d
000001e0: 6f9e df3c 741a eabc 535b 01bd 26c5 723d
000001f0: a749 1d3e 47d2 09be 5cf2 5abd fb3b 89bc

actor_mean.4.bias f4 [2]
0.009903489 -0.028877584
00000000: 3e42 223c af90 ecbc
