fw_jsbgym/models/train_saves_extVa/stall/ppo_fullrl_ts1e-2_betacuri_stall_tsteps2e6_1_8446_23-02_10:59:36.pt (torch, 62465 bytes, 14 tensors)

actor_logstd f4 [1, 2]
00000000: d520 6d3e edf4 1a3e
0.23157056 0.15132494

conv.0.weight f4 [3, 1, 5, 1]
00000000: 9716 19bd f5c1 42bd 5ebb 183f 099d 2ebf
00000010: 4b68 343f 1743 1c3f c096 08be 93c0 363f
00000020: 5227 28bd 9e3b ccbe 81bd a8be f5cd 0ebf
00000030: f496 0bbf 462b 84bf 8d75 03bf
-0.03737506 -0.047548253 0.596609 -0.68208367 0.7047164 0.6103987 -0.13338757 0.71387595
-0.041053124 -0.39889234 -0.3295708 -0.55783015 -0.5452721 -1.0325706 -0.51351243

conv.0.bias f4 [3]
00000000: c89d edbb 5fa8 ba3c c7d3 0b3d
-0.007251475 0.022785364 0.034137513

critic.0.weight f4 [64, 42]
00000000: 5d61 88bd a418 103e 38f6 053e cf5c 283d
00000010: f6e0 95be e88c e7bd 7d8d 093f 2ac5 abbe
00000020: 8274 453d f234 593d 3001 2a3e ec8e d43d
00000030: fe5a 66bf b3fe c33e 879a c2be fbc0 d9bc
00000040: 9fb4 81be 58c7 613e 81e8 763d b6bf 1a3e
00000050: 39e4 b6be d566 96be f20e 7e3d 1152 7a3e
00000060: 10b7 b83d ce24 2cbe 045c 483e f350 633d
00000070: a42c 10bc 2f4e 693e 94d5 b3bd a5b4 163d
00000080: f09f 0bbe de83 c93d f73a c2bd 2517 193e
00000090: 4364 9c3c a3e1 113e d0fb 393d 214e 1d3e
000000a0: f1c0 8e3d d986 1ebe 2475 903e 1085 bbbe
000000b0: 42a8 82be da78 86bc 5d50 02be e807 9dbd
000000c0: 2688 21bf 9d2c 6e3e 159b 74be 6052 87bd
000000d0: 6ce2 083e c7ec fa3d 1d9c af3e d9c5 dfbd
000000e0: cc06 5f3d dbd1 8f3e 5fdc 62be faa7 fbbd
000000f0: 9f2f 533d 9ba8 e4bd 62e8 21bf bb86 0f3e
00000100: 3652 8fbd f555 1d3d c384 2dbe 3d76 3e3e
00000110: ea6d e0bd 1a35 adbd 8035 133e 71fc 14bd
00000120: c99d ca3d c36c 08be 8c07 80bd f990 5abd
00000130: 2e05 333e e11b 3e3e 6036 893d f3ed bd3d
00000140: d8a8 213e 9b07 503e f0a3 65be def8 4cbe
00000150: ec4a 013f 02a5 f1be 3318 a5be 9fe4 b5bd
00000160: 8dc0 833c 542f 3a3b ec02 1dbe 72ff 613f
00000170: afb9 263e 211c 6d3e d4f7 c5bd 28a6 9abe
00000180: 1c0f af3d 93a9 283f 502c aa3d 9af0 ef3e
00000190: 4962 26be ec1b 0b3e 3c46 373d d2dd 4c3e
000001a0: 050d 2cbe b20d bb3e 172d 45bc 160a 633c
000001b0: 4dcb bfbd 0c2b 02be 9be7 cfbd 4834 233e
000001c0: fde4 be3c 547e e93d f563 1d3f 5ca4 0c3e
000001d0: 7783 c33c d0d8 1c3e a679 82bd 2702 1abe
000001e0: aef2 923c c161 cabd 4e63 bc3c 8075 37bd
000001f0: 793c 8a3d 0b41 7dbe e771 4abe 314c 493e
00000200: a5bc 093d 8f5b cebe 1dca 8c3e aad1 8dbe
00000210: 2666 943e 984a 9a3e d08e 5a3e 9717 87be
00000220: 5b1f 183e c987 3cbe 201e b93d d759 95be
00000230: e531 eebd 96d1 583e ae4d 8abe 3204 b1bd
00000240: fcc4 083e 414b fabc 36b5 94bd d8cf 133e
00000250: cfbe dc3d 2ef1 8dbd 80d5 8bbd 2de1 c9bd
00000260: df02 adbe 7e00 633e ba6f 4a3d 549a 5cbe
00000270: 3ef6 843c 4c33 3bbe cca6 bf3b 9a08 33bc
00000280: bba4 74bd 8cc4 6b3c c2ca f73c 9985 bebe
00000290: 4e3a 173d a7be 51be 0ec8 463e bd10 96bd
000002a0: a8d2 393e b950 92be 2d5b f8bd fb02 823e
000002b0: 5922 a1bd bd70 533e 2948 40bd f009 533f
000002c0: af01 f23e 4871 81bd 7e0a 553b c8c9 a23d
000002d0: 29fb 483f 862a bc3d ce5b bd3e 21f2 fa3c
000002e0: 3d49 a0be bde1 333e b0e1 99bc ed29 453e
000002f0: 5675 b0bd 26ae 3f3e e577 1cbd be0b 8a3d
00000300: 2ac7 ccbc 0720 9c3d 7366 8abe b001 923d
00000310: ad60 293e 3c16 ec3c 4a86 1a3e 6d15 fdbb
00000320: 7fd7 673c c8b2 983d 3661 99bd 4428 11be
00000330: 0a04 9d3e 423f 2fbe 090c b4bc fd47 78bc
00000340: 68fb 71be edde 67be a128 6f3e 4668 813e
00000350: f232 c63e d11e 2cba 7e97 9cbc 71c6 03be
00000360: ff3e d43d 1986 023d a101 88be 4298 8c3e
00000370: a98f d03d 2275 493e 69cd b33d 845c 8bbe
00000380: 1efa e33d 778f a53e 3643 703e 54ac ebbd
00000390: eff3 a63d 2b35 12be 541c 923e 25de 813d
000003a0: 97ef 943e 602f 853e 00c1 4cbe 731e ac3e
000003b0: 3cc9 463c d583 853d d6b3 02be cfae 05be
000003c0: 7765 2fbe 29be ab3d 058f 953c d172 4b3e
000003d0: c089 183e a989 1cbd 08a2 d53d 3251 07bb
000003e0: fe1c d7bc a8a1 543c 1291 acba 98ce e63d
000003f0: 0e94 8d3c 040e 3fbf 188a 103e b49c dd3c
-0.066591956 0.140719 0.13082206 0.041104134 -0.29273194 -0.113061726 0.5373152 -0.33548862
0.048206814 0.05302901 0.16602015 0.10378823 -0.89982593 0.38280258 -0.3800852 -0.026581278
-0.25333115 0.220487 0.060280327 0.15112194 -0.35720995 -0.2937533 0.06202597 0.24445368
0.090192914 -0.16810915 0.19566351 0.05549712 -0.008799706 0.22783731 -0.08780971 0.03679337
-0.1363523 0.09839605 -0.09483903 0.14950235 0.019090777 0.1424623 0.045406163 0.15361835
0.069703944 -0.15481128 0.2821437 -0.36624956 -0.25518996 -0.016415048 -0.12725969 -0.076675236
-0.6309837 0.23259206 -0.23887284 -0.06607509 0.13367623 0.12252193 0.34298792 -0.10926408
0.05444984 0.28089795 -0.22154377 -0.12287898 0.051559087 -0.111649714 -0.63245213 0.1401624
-0.06998102 0.038412053 -0.16945176 0.18599792 -0.109584644 -0.08457394 0.14375877 -0.03637356
0.098933764 -0.1332274 -0.062514395 -0.053360913 0.17482445 0.18565322 0.06699824 0.09273901
0.15787065 0.20315401 -0.22425818 -0.2001681 0.50504947 -0.47196203 -0.32245025 -0.08881497
0.016083026 0.0028409557 -0.15333146 0.88280404 0.1628177 0.23155262 -0.0966641 -0.30204892
0.08547804 0.6588375 0.08309233 0.46863252 -0.1624843 0.1358487 0.044744715 0.20006493
-0.16801842 0.36533886 -0.012034676 0.013857385 -0.093649484 -0.12711734 -0.10151597 0.15937912
0.02330255 0.11401048 0.6148065 0.13734573 0.023866398 0.15317082 -0.06370859 -0.15039884
0.017937984 -0.09881926 0.02299657 -0.04478979 0.067498155 -0.24731843 -0.19770013 0.19657971
0.03362717 -0.4030423 0.2749795 -0.27699023 0.28984183 0.30135036 0.21343541 -0.26385185
0.14855711 -0.18411173 0.09038949 -0.29170105 -0.116306104 0.211737 -0.2701239 -0.08643378
0.13356394 -0.030553462 -0.07261126 0.14434755 0.10778581 -0.06930767 -0.06827831 -0.09857402
-0.33791253 0.22168157 0.049422957 -0.21543247 0.016230699 -0.18281287 0.005848741 -0.010927344
-0.05972741 0.014390122 0.03024805 -0.37211302 0.036920838 -0.20482884 0.19412252 -0.07327411
0.18146765 -0.28577211 -0.121267654 0.253929 -0.078678794 0.20648475 -0.046943817 0.8243704
0.4726691 -0.06320435 0.0032507475 0.07948643 0.7850824 0.09187798 0.36984104 0.030633034
-0.31305876 0.17566581 -0.018784374 0.19254275 -0.0861613 0.18718776 -0.038200278 0.06740521
-0.024997313 0.07623296 -0.27031288 0.07129228 0.16540785 0.028819196 0.1509029 -0.0077235014
0.014150499 0.07455975 -0.07489245 -0.14175516 0.30667144 -0.17113975 -0.021978395 -0.015153882
-0.2363106 -0.22643633 0.23355342 0.25274867 0.38710743 -0.00065658713 -0.019115206 -0.12868668
0.10363578 0.031866167 -0.26563743 0.27459913 0.10183651 0.19673589 0.08779413 -0.2721902
0.111316904 0.32336017 0.23463139 -0.11507478 0.081519954 -0.14278094 0.28537238 0.06341199
0.29089043 0.26012707 -0.19995499 0.3361698 0.012132939 0.065192856 -0.12763914 -0.13054965
-0.1712855 0.083858795 0.018256674 0.19868018 0.14896297 -0.03821722 0.10431296 -0.0020647761
-0.026258942 0.012977995 -0.0013165793 0.112698734 0.017282512 -0.7463076 0.14115179 0.027052261

critic.0.bias f4 [64]
00000000: 1369 ac3c ffd2 82bd d15d 5bbe 1d24 d1bc
00000010: 2ea9 11be 5584 bf3d 24bf 4c3b 2891 9ebd
00000020: 4bbe 47be 729d 3d3b 2ba8 d6bc a50a c53d
00000030: 7449 b3bd 167d 70bd 4594 37bd 3745 f7bd
00000040: c4b5 b43d 9b61 393d 4a06 e3bd bf87 46bc
00000050: 0778 143d 9748 4e3d 4229 293d 5e8b ceb8
00000060: 0943 bcbd 9dcc 0ebe 3d43 4abd 18e7 c13d
00000070: bbbd 833e 4829 923d e2c0 2a3d 6341 893d
00000080: f361 4f3d dfdc 983d f87a 03be 7aa8 01be
00000090: 5ebe 5a3c 4a7f 1dbd 4790 6f3d 502c 14be
000000a0: 2bbf bd3c 4601 23be 1988 e3bd 1e87 5a3d
000000b0: 5156 e6bd ed6d 0fbd 97f5 2fbd 74f1 e3bc
000000c0: aa3c e3bd fb64 4ebe 1a6b 6cbd 9340 38bd
000000d0: 8218 d7bd 56ef 8a3d 0d2e 283e eeef 803c
000000e0: 0c70 68bc ac89 9b3d 9ff4 75bd 9cea b7bd
000000f0: 281b b03c 4666 0dbe 7b2f bcbd ad0f ca3c
0.021046197 -0.063879006 -0.21422507 -0.025529915 -0.14224693 0.09351412 0.0031241858 -0.0774253
-0.19506185 0.0028932956 -0.026203236 0.09621171 -0.087542444 -0.05871304 -0.044819135 -0.120737486
0.088237315 0.0452591 -0.11085184 -0.012117325 0.03624728 0.050362196 0.041299112 -9.8488046e-05
-0.091924734 -0.13945241 -0.04938053 0.09467906 0.2573069 0.0713678 0.041687854 0.06701925
0.05063052 0.07464003 -0.12839878 -0.12661925 0.013351051 -0.03845147 0.058487203 -0.14470029
0.023162445 -0.15918455 -0.11109943 0.053351514 -0.11246932 -0.035016943 -0.042958822 -0.027825095
-0.11095555 -0.20155708 -0.057719328 -0.044983458 -0.10502721 0.06783931 0.16423817 0.015739407
-0.01418687 0.07594618 -0.060047742 -0.08980295 0.021497324 -0.13808545 -0.09188744 0.024665678

critic.2.weight f4 [64, 64]
00000000: bbd1 803e 947f ab3e 4f5c 8b3e 806a 133c
00000010: 7d46 6a3e 22bf ab3e 3be3 94bd 174b 143e
00000020: 581e 31be c57c 003e 0e20 62be a58e 493c
00000030: 6661 8ebe 3d85 4c3e 3ed7 08bd 8c5b 80be
00000040: c00d 6fbe 97e8 4ebe a309 14be 98ba d9bd
00000050: 3459 b4be d360 cbbb b47d 4bbe 3f8d 4a3e
00000060: 9956 12be 168c d53d 93be 92be f856 d63e
00000070: 21dd a7bd aa3e 083d 5e45 1bbc 6878 0bbd
00000080: e03a 03bd 416d a53d 7dde 603d 7b0f f6bd
00000090: c6da 1cbe 6c61 aebe d95c 96be dac3 58be
000000a0: 5b92 adbd 9c60 07be 38c0 09be 93d6 adba
000000b0: 1654 45bd ba42 be3c 18b7 f3bc 1ef9 973c
000000c0: eab6 8fbe 18f0 9a3e 40b9 15bd 34dc e33c
000000d0: 6dbb acbe 91bc 923e 7638 953e 8a6f 17be
000000e0: cab7 753e 292a 05be 4bc1 713d 8600 a6be
000000f0: 60c3 b4be 63b2 8d3d 5f31 ed3d 3b47 4e3d
00000100: 13fa 8c3e 0978 60be eab4 2fbe 0cf3 5ebd
00000110: 39d3 dcbe 4cf4 99be 6a5b e0bd 88b5 de3d
00000120: bd6a 09be 7869 68be fd5a c1be 698a 083d
00000130: f851 00be 85dd 893d fd74 0b3e 8e92 9dbe
00000140: 4ec4 353e 1523 cabd 28f7 cfbd 67c2 bbbd
00000150: ee5d 503e 8648 1cbd 9283 853c 8885 27be
00000160: 74dd dfbd 8476 b1be 5772 cdbe e53b 44be
00000170: be31 1a3e faf3 063e 8ebc 13be a47c 6a3d
00000180: eefb df3d 4fa3 403e 1e81 cb3e 0f78 46be
00000190: a377 ef3d 1078 c23e 85de 353e dff2 f9ba
000001a0: 185f 07be b9ff 6fbc ac0d 84bd e952 ab3e
000001b0: d362 5f3e b8ae b6be 2dda 09be 365b c53e
000001c0: ea74 803e b803 a6be 8b1e b03e 55a4 c73e
000001d0: 7a83 a2be ad70 2dbe 0d58 233e 14a0 77be
000001e0: aed2 913e cf65 d73d 181f ffbe 1949 393d
000001f0: df37 40be a2fb 2dbe 95dc 85be dbef 8b3e
00000200: 74a9 0e3e 40c4 ffbd 5833 d6bd d831 a23e
00000210: 025c 3cbe 1927 26be 0fdb dabc db71 a8bc
00000220: 1228 aa3d bfc1 a53e 4653 13bd 4861 99be
00000230: eaa7 253e 9a5d d1bd 0f4a 96bd 0925 243e
00000240: 154e 173d b5bc f93d 98b5 ec3d 2011 463c
00000250: b524 f6b9 8dae 14be fd50 003e ce3a 233c
00000260: 25e6 56be cce7 d73d 0d1f ec3a 8914 083e
00000270: 53a8 78be 8a4e 093d 73ef 973e f8aa 683e
00000280: 15e4 1d3e a0fe 89bb 11a4 9abe b044 fa3d
00000290: a5c0 b7be 74ae 2c3e d78c 033e 6d0c 8fbe
000002a0: 4053 bdbd fe8d 8cbd 41c8 ad3d 8f09 9c3e
000002b0: 7d0e 59bd 1718 443e 60f6 bc3d c41f 4b3e
000002c0: 2ed8 8fbd cbd6 193e 5c18 92bc 611a 8f3d
000002d0: 1502 90be af30 05be e0c5 9cbd 95f0 e9bd
000002e0: 487b 09ba dca9 45be 447e e1ba 45f5 003f
000002f0: ca2d 493d 5229 41bd 1680 0abd dbb3 39be
00000300: 73bb debc cf94 3e3c 91e8 9fbd ee27 6dbe
00000310: 67e3 743d 7d73 a1bd b29d 583f b0a0 febd
00000320: 083e b8bc 7893 383e cc86 4d3e 802e 983e
00000330: 9547 853d 4b4e f23d 41ed 973d e4b5 c1bd
00000340: 1bc2 e3be b2b3 18be 4094 61bd cc84 043c
00000350: d258 5e3d 3a37 e43d d495 e43d eda3 7c3e
00000360: ddc2 b5be 6349 3e3d 58df 863d 1152 553e
00000370: 412b c63e c278 983d a836 9cbd 46f1 49bc
00000380: 3297 7cbc 1c83 193e 58fc 2ebd bcb6 b53d
00000390: 38af 853d 080d ecbd 8fea 2f3e b7ad 873e
000003a0: c9fb bb3d 0c28 ef3e ba76 3dbe 0c1f 333e
000003b0: 544b 083e ba81 603e a442 c0bd fc5b c1bd
000003c0: f570 ba3d af43 8e3d bdc2 843d fc3d b7be
000003d0: cd3c f7bd 20c0 e43a bc8b 973d 5e6b 32bb
000003e0: 6f36 40be 76ae 45bc f72a 14be 1d34 943e
000003f0: 5057 f93d 9c3c b3be 9247 a7bd 105b 56be
0.25160012 0.33495772 0.27218863 0.00899756 0.22878452 0.3354426 -0.07269903 0.1448177
-0.17296731 0.12547596 -0.2208254 0.0123020755 -0.27808684 0.19972701 -0.033408396 -0.25069845
-0.23345089 -0.20205913 -0.14456801 -0.10631293 -0.35224307 -0.0062066107 -0.1987217 0.19780444
-0.14290847 0.1042711 -0.28661022 0.41863227 -0.08196474 0.033262886 -0.009476988 -0.034050375
-0.03203857 0.08077479 0.05489968 -0.120146714 -0.1531783 -0.34058702 -0.29367712 -0.21168461
-0.08475181 -0.13220447 -0.13452232 -0.0013262801 -0.048175894 0.023225177 -0.029750392 0.018551406
-0.2806924 0.30261302 -0.03655362 0.027814962 -0.33736745 0.2865949 0.2914464 -0.14788643
0.23995891 -0.13004364 0.05902223 -0.32422274 -0.3530531 0.0691879 0.115816824 0.0503609
0.2753454 -0.2192079 -0.17158857 -0.054431006 -0.431299 -0.30069196 -0.10954936 0.10874468
-0.13419624 -0.22696483 -0.3776473 0.033335123 -0.12531269 0.067317046 0.13618846 -0.30775875
0.17750666 -0.098699726 -0.10154563 -0.09167939 0.20348331 -0.0381551 0.01629809 -0.16359532
-0.10930911 -0.34660733 -0.40126297 -0.19163473 0.15058038 0.13179007 -0.14427397 0.057247773
0.10936724 0.18812297 0.39746946 -0.19381736 0.11692741 0.37982225 0.17760666 -0.0019069574
-0.13219869 -0.014648371 -0.0644792 0.33461693 0.21815042 -0.35680175 -0.13462134 0.3854615
0.25089198 -0.32424712 0.34398302 0.38992563 -0.31740934 -0.16937514 0.15951557 -0.24182159
0.28481048 0.10517465 -0.4982841 0.045235727 -0.18771313 -0.16990522 -0.26144853 0.27331433
0.13931829 -0.124886036 -0.10459012 0.31678653 -0.18394473 -0.16225852 -0.026715783 -0.020562103
0.08308424 0.3237438 -0.035968088 -0.29957032 0.16177335 -0.10222931 -0.07338344 0.16029753
0.0369397 0.12194196 0.11558074 0.012089044 -0.00046948125 -0.14519711 0.12530895 0.009962751
-0.2098623 0.105422586 0.0018014625 0.13289084 -0.2428296 0.033522166 0.29674873 0.2272147
0.15419038 -0.004211262 -0.30203298 0.12220132 -0.35889164 0.16863424 0.12846695 -0.27939168
-0.09244394 -0.0686302 0.08485461 0.30476043 -0.052992333 0.19149815 0.0922668 0.19836336
-0.07023655 0.15023343 -0.017833881 0.06987453 -0.28126588 -0.13006853 -0.07654929 -0.114228405
-0.00052445056 -0.19303077 -0.0017203768 0.5037425 0.049115933 -0.047158547 -0.03381356 -0.18135016
-0.027188992 0.011632158 -0.078080304 -0.23159763 0.05978718 -0.07883356 0.84615624 -0.124329925
-0.022490516 0.18025005 0.20070952 0.29722977 0.06507794 0.118313394 0.074182995 -0.09458521
-0.44484028 -0.14912298 -0.055073023 0.008088302 0.054283924 0.11143346 0.1116139 0.24671908
-0.3550023 0.046456706 0.06585568 0.20832087 0.38704875 0.07444908 -0.07627612 -0.0123255905
-0.015416907 0.1499142 -0.042721123 0.088727444 0.06527561 -0.11525923 0.17179321 0.2649972
0.091788836 0.4671024 -0.18502322 0.17492312 0.13309985 0.21924487 -0.09387711 -0.09441373
0.09103576 0.06946503 0.06482456 -0.35789478 -0.12072144 0.0017452277 0.07399699 -0.002722464
-0.18770765 -0.0120655205 -0.14469515 0.2894601 0.12174857 -0.3500718 -0.08167948 -0.20933175

critic.2.bias f4 [64]
00000000: 30fa b13d 14c9 58bd 19c8 bfbd ac22 edbc
00000010: 6f38 9fbd 0010 05be 215c 2e3e 49aa 3fbd
00000020: a279 63bd 3fbf 4ebd eba6 b6bd b19b 8fbd
00000030: c854 82be 69e7 9ebd f73a 283e 6675 4a3e
00000040: 3a68 1f3d b7c1 eebd 6f19 febd e1b4 a83d
00000050: 7b01 993d 2461 d9bd e5c8 d03c c8db eebd
00000060: 03cd 723d 054a 373d db43 4e3c 3b11 413d
00000070: c977 c43d 0e2e 7e3e e19d 83be 735d 573d
00000080: 0fe6 803e 1b4d b9bd 7295 f73d 6637 5fbd
00000090: 89f2 98ba 93bc 7cbe d941 17be db6c f3bc
000000a0: 64c7 57be 36a0 8c3d 30ac aabd 38d2 443e
000000b0: a205 353d 8ebc 90bd 44ed 70bd 5487 87bd
000000c0: 24b7 d23c 7a3c febc 36b9 7cbd 7322 3c3e
000000d0: 4914 83bd 52ae 853d ca2c 93bd 8061 90bd
000000e0: d552 3e3d 92ae 78bd e00e 973d 8edd 15be
000000f0: 2b44 c1bd d7c1 ae39 e5e0 fd3d 2d01 23bd
0.086902976 -0.052926138 -0.093643375 -0.028947197 -0.07774436 -0.12994385 0.17027332 -0.046793256
-0.05553592 -0.050475355 -0.08918556 -0.07012118 -0.25455308 -0.07758982 0.16428743 0.19771346
0.038917758 -0.11658042 -0.12407195 0.08237625 0.074709855 -0.10614231 0.025486419 -0.11663014
0.059277546 0.044748325 0.01258942 0.047135573 0.0959316 0.24822256 -0.2570639 0.052579354
0.2517552 -0.0904791 0.12089051 -0.05449619 -0.0011668961 -0.2468131 -0.14771213 -0.029714992
-0.21072155 0.06866495 -0.083336234 0.19220817 0.044194825 -0.07067214 -0.058820024 -0.06617609
0.025722094 -0.031034697 -0.06170007 0.18372516 -0.064003535 0.065273896 -0.07186277 -0.07049847
0.046465714 -0.06071336 0.07375884 -0.14635298 -0.0943683 0.00033332288 0.12396411 -0.039796043

critic.4.weight f4 [1, 64]
00000000: 524a 41be df2b c33e df77 1a3e 16db ef3d
00000010: de60 cd3e 1a78 613e d894 bebd be4e 553d
00000020: ef34 f53d c25c d83d dcd6 ab3d aafa 163e
00000030: b679 c03e cab7 4f3d 7e27 a1be 45cb 97be
00000040: 4be1 1cbe a112 233e db77 f13d 55a1 b8bd
00000050: 1b51 99be fcc9 023e c5dd 9bbe 2edd f93d
00000060: 040b 9bbd 8a47 dbbd d75a f8bd 29b5 22be
00000070: 6105 6abe fbdc 7fbe 60f3 313e 268d cdbd
00000080: 5906 15be d2a3 cc3d cbc3 62be ad98 613d
00000090: 88bf a33e 57f4 043e 5d77 b83d 4696 8f3d
000000a0: 2409 4d3e aabf 57be d8bb 0e3e 5820 3cbe
000000b0: 0f14 c7be e6f2 3c3e d17c 583d 6e39 6b3e
000000c0: cf7d e3bd 19ee 2f3e 0388 6b3e cee0 56be
000000d0: 3826 c63d 0273 b0bd 31eb 6b3e 9f5a 333d
000000e0: 6530 04be a329 ac3e 61a9 86be 8699 3d3e
000000f0: 20e5 193e 249d 19bd ffb0 2abe 4106 983e
-0.18876007 0.38119408 0.1508479 0.11711709 0.40112966 0.22018471 -0.093057334 0.052077048
0.11972987 0.10564567 0.083905905 0.14744058 0.37592858 0.050712384 -0.31475443 -0.2964727
-0.15320317 0.15925075 0.11790439 -0.09015147 -0.2994469 0.12772363 -0.30442634 0.1220039
-0.075704604 -0.10707004 -0.12126701 -0.1588942 -0.22853614 -0.24986641 0.17377996 -0.100366876
-0.14553203 0.09992184 -0.22145002 0.055077244 0.31982064 0.12983833 0.09007142 0.07011084
0.20023018 -0.21069208 0.13938844 -0.18371713 -0.3888249 0.18452033 0.05285341 0.22971126
-0.111079805 0.17180671 0.23001103 -0.20984194 0.096752584 -0.08615686 0.23038937 0.043787595
-0.12909086 0.33625516 -0.263011 0.18515596 0.1502881 -0.037503377 -0.16669081 0.2969227

actor_mean.0.weight f4 [64, 42]
00000000: 7ecb edbe d012 91bd c66a 9a3d dbb9 d9bd
00000010: 364d 7a3c 9c28 78be 294f e3bb 98c2 aabd
00000020: 7c8e d73c 3aa5 47be 4eb0 893d 18d9 11bd
00000030: 36d7 5e3e 47b1 89bc e131 abbe d134 863d
00000040: 5170 8f3e 284e 30be 077f 30be 5f7b 95be
00000050: faf7 4f3e 5101 c03e edee b53d 69b0 9a3d
00000060: 12ff abbd 7ac2 0c3e 34db f5be c8ec 153e
00000070: c21a 053e 70db 123e fad7 10be e91a b83c
00000080: 1729 ed3c 707f 04be c53a d8be 61f7 bf3d
00000090: 603e 1fbd 192b 97bb abca 25be ba71 d4bd
000000a0: 55e3 943e 9da2 bbbd 8dd9 fc3e 6c57 053e
000000b0: 90cb ccbb e03b 8c3e 48df 84be 54ff d03e
000000c0: ff19 103e e686 da3e 6222 1dbe 0045 ef3c
000000d0: b31a 8bbd 5a1e f43d 0587 073e 3239 363e
000000e0: 1e08 1f3e 2bee 12bd d89b 0fbe 8b42 2cbd
000000f0: 99ed 65be eb17 f2bd dad3 87be b5be 45bb
00000100: 4c8a ed3e e92b 1dbe 1759 36bd 93b7 d23d
00000110: 0ff4 17bd 6146 423d 92f8 2dbe d632 813d
00000120: 22f9 c33e 38c6 28be 9c16 b3bd 9163 10be
00000130: f225 a93d 1039 aebe d7f8 c73d 67b6 c1bd
00000140: 1f8f 3a3e 12ea 083e 0aa7 993d 7471 34be
00000150: 67fe 30bd 00b3 1abe 23b3 a4bd 0b28 7abe
00000160: e81d 8e3d 88bd 8bbe e68c ae3b 3e44 773e
00000170: f30a 003e 4d06 1e3e 9528 86bd 5a09 f83c
00000180: 869a 95be 2e9b 0a3e 3c0d 223e 3ec0 993e
00000190: a281 6abd f41b 87bb 3a12 b5bd d315 623e
000001a0: 253e 2a3d b2f4 c73e 7cd7 ed3d 7d4b b9bd
000001b0: 85ad 433e a868 a13d 8d99 cebd 66a2 8a3e
000001c0: 642e dcbd 9af2 85bc 02b9 723e 0e4a 3b3d
000001d0: b6fe 84bd fd74 4abe 39c6 1a3e 46e3 c4be
000001e0: e1b7 37be 5058 f4bc f50d b83c 60b7 ae3d
000001f0: 1e4a 243d 717a 19bf f834 46be 967d 4cbe
00000200: a1d5 07be b451 453e 87c6 1b3e 8a96 d53e
00000210: 43ac f23d 4cbb d03e 0968 353e 947c ca3e
00000220: 4303 56be 295f d13b 69a4 d2bd f5bb fc3c
00000230: 6e0f 2d3e 5a57 89bd 37f6 32be 22c0 88bd
00000240: 2f87 8a3d 44ef 473d 11fd b73e 4233 8bbd
00000250: 6a08 fbbd 18c1 093d 15f6 0d3b 072b fa3d
00000260: 00e9 2cbe d1d5 3d3e 6448 523c 2f6f 95be
00000270: 4542 073e 7d32 0ebe 912f 573e 65cf 503e
00000280: 59d7 53be 42e6 a23c df48 06be 440e 40bd
00000290: 3e25 0fbd 8700 efbc 928e 713e 5edf 1abe
000002a0: c5c7 c7bc d4d7 37be 60b2 90be f3b0 c03e
000002b0: 5aa6 703d c2a9 823e c60a 7ebc 529b 1bbe
000002c0: dfc9 aebd 08ab 93be 0ed8 1bbe fa57 17be
000002d0: 1251 863d f12b 563d d408 043e fa11 573e
000002e0: 9261 df3d 9eb9 ee3d 1c2b 0f3d ba37 d03d
000002f0: c8ca 13bb c266 7b3e 277c a23d 6c7b b8bd
00000300: 3037 cc3d f59f 9dbe 6012 8f3d 9dce 34bd
00000310: 324f 9dbd b3a0 7fbe 5761 bf3e 51bc a83d
00000320: 18fc 7e3e 1d07 b4bd 034e 0b3f 5e83 c1bd
00000330: 349f 303d e394 f9bd f02d 8a3c ac22 17bc
00000340: 687b 1bbe 961f 063e 519b 1f3d 1f39 833e
00000350: 8f35 63be 5e2a 2e3e 1b50 fcbd 0e76 bdbd
00000360: 3b9f 95be b6c4 21bd de18 f9bd 26fc f53c
00000370: c2f4 8e3c 859a 4cbe d0de 0c3e a53f 1b3f
00000380: dc04 da3c 008d 863e 227e 36bd fd6b 353d
00000390: aaad d33d c5bc 1abe 767e 9e3e bcb2 43bc
000003a0: c264 e13d 8d72 ab3d 50ce ffbb 392d 2abe
000003b0: d200 f13d 0acc 4f3e 9181 57bd 0f8a 363d
000003c0: 7c34 fcbd a1e9 d0bc 96cc a8bc c606 053e
000003d0: 8a6c ddbe b83b 1b3d 86d2 0bbe a282 d9bd
000003e0: 89ba 683d 0fe9 69bd d1b6 583c 1936 bebb
000003f0: bccb 623d 78ab b73d 4022 8cbe f638 5bbe
-0.46444315 -0.07083666 0.07539897 -0.10631152 0.015277198 -0.24234241 -0.006936927 -0.08337897
0.026313059 -0.19496623 0.067230806 -0.035607427 0.21761784 -0.016808165 -0.33436492 0.06553043
0.28015378 -0.17217314 -0.17235957 -0.29195687 0.2030944 0.37501004 0.08883462 0.07553179
-0.0839826 0.13746062 -0.480188 0.14641106 0.12998489 0.14341521 -0.14144889 0.02247377
0.028950257 -0.12939239 -0.42232338 0.09373356 -0.038877845 -0.004613292 -0.16190593 -0.10373254
0.2907969 -0.091618754 0.49384728 0.1302163 -0.0062498525 0.2738943 -0.259516 0.408198
0.14072417 0.42681044 -0.15345147 0.029207706 -0.06792202 0.119198516 0.132351 0.17795256
0.1553044 -0.035871666 -0.14024293 -0.042055648 -0.22453918 -0.11820968 -0.26528817 -0.0030173485
0.46394575 -0.15348782 -0.044518556 0.1028892 -0.037097987 0.0474304 -0.16989353 0.06308524
0.3827601 -0.16481864 -0.08744547 -0.14100482 0.082591906 -0.3402791 0.09764259 -0.094586186
0.18218659 0.1337054 0.07502563 -0.17621404 -0.043211367 -0.15107346 -0.0804198 -0.24429338
0.06939298 -0.27293038 0.005326855 0.24147126 0.12504177 0.15432091 -0.06550709 0.030277897
-0.29219455 0.13535759 0.15825361 0.30029482 -0.057252534 -0.0041232053 -0.08841367 0.22078638
0.041563172 0.39053875 0.11613366 -0.09047601 0.19109161 0.0788129 -0.10087881 0.27077025
-0.10751036 -0.016351033 0.23703387 0.04572492 -0.06493895 -0.1977119 0.15114678 -0.38454646
-0.17941238 -0.029827267 0.022467593 0.0853107 0.040109746 -0.59952456 -0.19356143 -0.19969782
-0.13265087 0.19269449 0.15212451 0.41716415 0.118492626 0.40767896 0.17715468 0.3954817
-0.20899682 0.006389518 -0.10285265 0.030851344 0.16900417 -0.06706114 -0.17476736 -0.066772714
0.067640655 0.048812166 0.35935262 -0.06796886 -0.12257464 0.033631414 0.002166157 0.12215238
-0.16885757 0.18538596 0.012834642 -0.2918639 0.13208874 -0.13886447 0.21014239 0.20391615
-0.20687617 0.019885186 -0.13113736 -0.046888605 -0.034947626 -0.029175056 0.23589543 -0.1512427
-0.02438725 -0.17953426 -0.2826109 0.37635002 0.058752395 0.2552014 -0.015505498 -0.15195969
-0.085345976 -0.28841424 -0.15219137 -0.14779654 0.06558432 0.052288 0.12893993 0.21002951
0.10907282 0.116564974 0.03495322 0.10166879 -0.0022551287 0.24550918 0.079338364 -0.09007916
0.09971464 -0.307861 0.06985927 -0.044142354 -0.07681121 -0.24963646 0.37378952 0.082390435
0.24900854 -0.08790419 0.5441591 -0.094488844 0.043120578 -0.12186601 0.016867608 -0.009224575
-0.15183794 0.13097987 0.03896648 0.25629517 -0.221884 0.1700835 -0.123199664 -0.09251033
-0.29223046 -0.03949424 -0.12162946 0.03002746 0.017450694 -0.1998082 0.13756871 0.6064399
0.026613645 0.2627945 -0.044553883 0.04429244 0.10335858 -0.15111072 0.30955857 -0.011944469
0.11005546 0.08371458 -0.007806577 -0.16618814 0.117677346 0.20292678 -0.0526138 0.044565257
-0.12314698 -0.025502028 -0.020605367 0.12990865 -0.4324687 0.03789875 -0.13654527 -0.10620619
0.05681852 -0.057107028 0.013227181 -0.005804789 0.055370077 0.08968252 -0.2736988 -0.21408448

actor_mean.0.bias f4 [64]
00000000: 2dcc 113d a4a7 86bd dae0 17bd 7ce5 14bd
00000010: 4d19 dcbb 778a b2bd 7976 b83c 1e2c de3d
00000020: 5b0b 50bd 1040 bc3c b70f b53d d602 f53c
00000030: a81b 583d d2bd 103d a6e9 81bb e266 243e
00000040: b8ab 40bc 111b 29bd 7166 4bbd 3bfe 953b
00000050: bbe3 2e3d a519 00bc 9c82 e83d c8c8 99bc
00000060: 9cbd 89bd 57a6 6dbd 376a 81bc 453a 77bc
00000070: e856 38bc bbc2 313d bfde 433d 7cde 803a
00000080: 8199 893d 133f 14bd e5e1 973d e12a 873d
00000090: d81c a1bd 6354 bdbd a5ed 0e3d f87a bf3c
000000a0: 9dc7 33bd eae4 1e3d e1f4 473c 41af fa3d
000000b0: c3c9 b1bc 95a7 2ebd 6c94 303c a60c 393d
000000c0: 1441 1fbb df52 03bd f7d2 8e3d 2c59 203d
000000d0: c8e1 fd3d 8262 50bd 4a3a c73c 4647 9abd
000000e0: f39e 313d f9ac a43c cf73 213c 02d9 4d3d
000000f0: 4e0e 58bd 04fd 3a3d f201 e23c b3cc bebd
0.035595108 -0.06574944 -0.03707967 -0.036351666 -0.0067168833 -0.08717816 0.02251743 0.108482584
-0.05079208 0.022979766 0.08840888 0.029908579 0.05276075 0.035337277 -0.0039646206 0.16054872
-0.011759691 -0.04128558 -0.049658243 0.004577426 0.04269765 -0.007818614 0.11353037 -0.018772498
-0.06725618 -0.058019962 -0.015797717 -0.015089576 -0.011251189 0.0433986 0.04781985 0.000983193
0.06718732 -0.036192965 0.07416133 0.065999754 -0.0786683 -0.09244611 0.034894604 0.023374066
-0.043891538 0.03879253 0.01220438 0.12240458 -0.021702653 -0.042640287 0.010777574 0.045178078
-0.0024300264 -0.032061454 0.06973832 0.03914754 0.1239658 -0.050875194 0.024319787 -0.075331256
0.043364476 0.020102011 0.009854271 0.050255783 -0.052748017 0.04565145 0.027588818 -0.09316387

actor_mean.2.weight f4 [64, 64]
00000000: 0a09 86bc 99d7 993b cc83 bbbe 02ec a83d
00000010: f7b3 703e 9722 b8be 1a68 eabd 76c7 6abe
00000020: 595e a83d d9db c13e 9c03 fbbc a613 e13d
00000030: eaad 5e3e 30e8 1cbe 648b 8ebd e80f 1c3e
00000040: cbaa 98be a770 673e 88e2 f4bd 63a2 58be
00000050: 5428 89bc 84c1 bfbe 9947 8fbc 3617 a13e
00000060: 4996 82be 1eea 723d 45de 303e 6348 0dbd
00000070: 7785 883d 4576 07be 6958 20be 9a89 9b3e
00000080: ef4f f43d 3fc4 f93d 7723 24be 19cd 9ebe
00000090: 9fcd 4ebe e7ed f83d 9ea4 353e a7bf 6dbd
000000a0: 4d47 3abe cae4 593c 6acc 9b3e 7b4a 94bd
000000b0: 5422 be3e 6f47 8abe a2f8 47be d3eb 17be
000000c0: cd14 74be 0d35 433e 93e9 db3d ba8c 3ebd
000000d0: 3911 83bc 1cc7 dc3e 9434 90bd 4ced d23d
000000e0: c26d 903d b401 8b3c d8db b8bc 0d22 3ebe
000000f0: 4f8d 1abc 43b2 27bd f14d 01be f82a 0ebe
00000100: f7e0 b43e dfb8 ce3d 2cc2 88bd 2d49 a93d
00000110: 9315 86be f186 843d 9b1a c63e eac2 a63e
00000120: fe45 703e 928e 6ebd 60e0 c73e c9d6 203e
00000130: 3154 afbd 8751 173e 8a57 21bb adcf 673d
00000140: 2d95 54be 36db 8e3c b83c ae3d bbd6 b03d
00000150: 006e d63e b6ef 49bc f985 a93c 01fa 7f3e
00000160: 5a22 c5bd b149 58be e442 ad3c 1764 b1bd
00000170: 03d2 ca3c 56e4 b43e c7ef 713e f25b 63bd
00000180: b731 a13d 7b3d f93d bc2e b23e 4396 bfbc
00000190: d5c8 443e 1e38 6d3e c5e0 a63c ce1e da3d
000001a0: c7e2 8ebd e259 01bc f8a7 44be 920f bc3d
000001b0: e0e5 5bbc e879 1cbe 2436 fc3d 26c7 ab3e
000001c0: b16c 483e 32b3 373e c11c 3f3e 220c e7bc
000001d0: 1d0b d83d 7210 c4be fa17 bebe b7a2 a5bc
000001e0: 526a bd3e d7ac d3bc 3f3e ecbd 36ac 173f
000001f0: 922e 8b3e 8a83 693e bf62 e33c 1fa2 173e
00000200: bed3 673d b1e4 f2bd edab 863e 778e 173d
00000210: 2051 0ebd b93f 38be 06e0 793e 462a ad3e
00000220: 5cdb 28be a9af 11be 5f2c 4d3e 8e2c 87be
00000230: 63c4 b33e f375 84be 7b80 cc3d 36be 343d
00000240: 2f19 1e3e 3a56 3b3d cc22 a2bd 86f1 12be
00000250: 20f0 44bd bb09 85be 4a19 f8bc a836 8bbd
00000260: d7d6 cebe e462 cbbd 77d9 24be 344e 083d
00000270: dc75 b5bd 8e8a ec3c f07d d53d 0647 93be
00000280: 2c63 0b3e 2f29 9fbe 57a4 bc3d 1476 5fbd
00000290: bab1 94be 9a3c 8e3e 566f 9a3d 3014 70bd
000002a0: bab4 33be 9af2 cebd eade 873e ec18 2a3e
000002b0: 9fcc 433e a33d a23d b48c 163e 4824 96bd
000002c0: 972a 09bc 2a5b 063d 9e39 8a3d 3655 dbbe
000002d0: d8ab 453e 830e a8bc 84b4 ec3e f45b 2f3e
000002e0: c4a8 223e e6dd 0cbe ce41 7d3e 0f33 ffbe
000002f0: 94eb 113d 81af 16bd 6ba8 02be d9a7 82bd
00000300: 3c1c 503e e338 fdbe b3ba 79bd 5671 a2be
00000310: 2868 42be 9ef2 dfbd 0abd 2b3e 5649 99bd
00000320: 0230 943e 5634 22bc 7e98 bdbb 825c 533e
00000330: c83d 40bd c894 bd3d 4db5 513e 5cf5 c13e
00000340: 4e27 82bd 5517 c9bd 4872 9a3c 2baf ab3e
00000350: bea7 873e 2d7e d13c 6b8f b83d 6598 64be
00000360: 1988 8a3e 6112 8bbe f4c2 3ebe e16e 80be
00000370: f66a 9d3d d81d 16bd cd15 483e aeaf 583d
00000380: 2177 82bd 326e 08be f4ba d83e 91fe bdbd
00000390: 1649 0fbd 2bb0 fe3d 519a 173e af5d 8ebe
000003a0: 70c5 073e 05b0 2bbe fbdd 9d3e 70b7 913e
000003b0: e5df cc3b 3c36 a63d 0780 063e 5dd8 203e
000003c0: dd37 0e3e 0fcb 0bbe cf43 cdbe 28a7 973e
000003d0: 0883 343e 9463 a03c 1c83 153d 3e6f 983e
000003e0: 477d 8c3d ace5 9b3e c371 f93b 1ffb eb3c
000003f0: 3791 adbd 860a cd3e bc5b 783d 621a 953e
-0.016361732 0.0046948907 -0.3662399 0.0824814 0.23506151 -0.3596389 -0.11445637 -0.22927651
0.082211204 0.37863043 -0.03064137 0.10990076 0.2174603 -0.15322948 -0.069601804 0.15240443
-0.29817805 0.22601567 -0.1195727 -0.21155696 -0.016742863 -0.37452328 -0.017490195 0.3146302
-0.25505283 0.059305303 0.17272289 -0.03449286 0.066660814 -0.1322871 -0.15658726 0.3037842
0.119293086 0.12195634 -0.16029154 -0.31015852 -0.20195626 0.12154751 0.17738578 -0.058044102
-0.18191262 0.0132991765 0.30429393 -0.072407685 0.37135565 -0.27007625 -0.1952844 -0.14836054
-0.2383606 0.19063206 0.1073791 -0.046520926 -0.015999423 0.43120658 -0.070412785 0.10299167
0.07052185 0.016968586 -0.022565767 -0.18567677 -0.009433105 -0.040941488 -0.12627389 -0.13883579
0.35327885 0.10093855 -0.0667766 0.0826591 -0.26188335 0.064710505 0.38692173 0.32570583
0.234642 -0.058241434 0.39038372 0.15706934 -0.0856098 0.14777194 -0.0024618828 0.05659454
-0.20760031 0.017438512 0.08507675 0.086347066 0.41880798 -0.012325218 0.020693766 0.24997713
-0.09625693 -0.21121861 0.02115006 -0.08661669 0.024758345 0.35330456 0.23626624 -0.055507608
0.078708105 0.121699296 0.3480128 -0.02338708 0.19217236 0.23165938 0.02037085 0.10650407
-0.06976848 -0.007894965 -0.192047 0.09182657 -0.013421506 -0.15280879 0.12315014 0.33550376
0.19572712 0.17939451 0.18663312 -0.028204028 0.10548995 -0.38293797 -0.37127668 -0.02021919
0.36995178 -0.025839252 -0.1153531 0.5924715 0.27183968 0.22804084 0.027757047 0.14807938
0.056598417 -0.11860026 0.26303044 0.0370011 -0.034745336 -0.17993058 0.24401864 0.33821315
-0.16489929 -0.14227165 0.20036457 -0.2640118 0.3511077 -0.25871238 0.09985443 0.04412671
0.15439294 0.04573653 -0.07916793 -0.14349946 -0.048080564 -0.25983986 -0.030285496 -0.06797534
-0.40398285 -0.09930971 -0.16098581 0.033277705 -0.088603705 0.028874662 0.10424411 -0.28765124
0.1361205 -0.31086108 0.09211033 -0.054555967 -0.29041845 0.2778061 0.07540767 -0.058613002
-0.1754941 -0.10104866 0.26537257 0.1661107 0.19121026 0.079219125 0.14702111 -0.07331139
-0.008371971 0.032801785 0.06749271 -0.42838448 0.19303834 -0.020514732 0.46231472 0.17124921
0.15884691 -0.13756523 0.24732134 -0.49843642 0.035625055 -0.036788467 -0.12759559 -0.06379671
0.2032327 -0.49457464 -0.060969066 -0.31727093 -0.18985045 -0.109349474 0.16771331 -0.07484691
0.28942877 -0.009900173 -0.0057860008 0.20640758 -0.04693392 0.092568934 0.20479317 0.37882507
-0.06355153 -0.09818903 0.018853322 0.3353208 0.26495165 0.02557286 0.0901173 -0.22323759
0.2705696 -0.2716246 -0.18629056 -0.25084594 0.07686417 -0.036649555 0.19539566 0.052901916
-0.06370378 -0.13323286 0.42330134 -0.0927707 -0.03498181 0.12435945 0.14804961 -0.2780585
0.1325891 -0.16766365 0.3083342 0.28460264 0.0062522762 0.08115813 0.13134776 0.15707536
0.13888498 -0.1365168 -0.40090796 0.29619718 0.1762811 0.019578733 0.03650199 0.2977237
0.06859832 0.30448663 0.0076124384 0.028806267 -0.08474963 0.4004709 0.06063436 0.2912169

actor_mean.2.bias f4 [64]
00000000: 9757 3cbd 0e41 3d3d 0386 973d b3f6 463d
00000010: 6365 54bc 9335 75bc 6b52 c6bd 3f38 e3bb
00000020: 2d39 a13c cb36 d33c 9352 223e 6808 693d
00000030: 93c6 70bd 6295 2dbd e1ed 33bd da34 d73c
00000040: 25c3 cdbc fdc0 bc3d 1a9c 9b3d 5251 10bd
00000050: 6d36 913b d378 4bbd 800d ba3d 2041 5d3d
00000060: a250 873d 6f6b b2bc 8279 6dbb 0e54 8d3d
00000070: 3a80 a33d 7ae6 9abd d022 adbc 40b9 2b3d
00000080: cc0f b4bd 01c2 33bd 598b e9bb 017a 51bd
00000090: c822 883c 3711 0fbd 5e74 783d 9395 423d
000000a0: 9abc 883d d435 f1bd 1f88 ac3d 53ed 2bbd
000000b0: 9a19 f4bd 5a7c 6d3b ab25 6cbc 5119 823c
000000c0: 9f15 753b 6c9e 843b b1d4 213c e59f 753d
000000d0: 5210 f739 1ec6 81bd c23c 8639 77f4 8c3c
000000e0: 7b65 153d c100 f7bc 1867 d4bd 4b0b 9a3d
000000f0: 646b b9bd 63f0 c03a 5cd2 1cbc dfad 2b3d
-0.04598197 0.04620462 0.073986076 0.048575114 -0.012963626 -0.014966386 -0.09683689 -0.0069341953
0.019680584 0.025782963 0.15851812 0.056892782 -0.058783125 -0.04237879 -0.04392803 0.026270319
-0.025117466 0.09216497 0.075981334 -0.035233803 0.004431537 -0.049675774 0.09084606 0.054017186
0.06607176 -0.021779744 -0.0036235754 0.06900798 0.07983442 -0.07563491 -0.021134764 0.041924715
-0.087920755 -0.04388619 -0.0071272072 -0.051141743 0.016618147 -0.034928527 0.06065785 0.047505926
0.06676598 -0.11777845 0.084244005 -0.041974377 -0.119189456 0.003623745 -0.014413278 0.015881212
0.003739692 0.0040472057 0.00987737 0.05996694 0.0004712367 -0.06336616 0.0002560374 0.017206414
0.036473732 -0.030151727 -0.10371226 0.07521685 -0.09053686 0.0014720078 -0.009571638 0.041913863

actor_mean.4.weight f4 [2, 64]
00000000: 9ae4 14be e32c 423e c546 d6bc 989f ca3c
00000010: d71d 023e d785 a13c a48c d3bc 5036 e83d
00000020: 4854 b23d b93b e43c 31cd 17bd 1604 a3bb
00000030: c97c 593d ff08 08bd 01a3 f3bd edc2 263d
00000040: fb47 143e 5f2f 18bc 1b27 d83a 2b32 a43d
00000050: 3b73 ab3d f7ae 05bd 4beb 4dbc 769a c8bc
00000060: 68d1 f9bc e838 19bd a8a9 383d fa41 673c
00000070: 283f 01bd 5e41 133c 5a7b 9a3d 418a a7bd
00000080: 027e 293e c77d d6bd eebd 7ebd f1a5 06bd
00000090: 636a 0b3d fd3c 08be eb73 373e c18d 52bd
000000a0: 9e1b b23d 7927 82bc c1f3 cabd 9c37 a2bd
000000b0: 9583 4e3d c396 b33d 85e1 92bc c80c 00be
000000c0: 1e87 8bbd d001 debd 716b aabd 9dbf 1f3d
000000d0: 2af1 013e 9a7e 953c 1969 05be d21e 4dbd
000000e0: ab9e 0ebd d7bf c03d f162 d53c b8be 23be
000000f0: ffc8 b0bb 55f6 b4bd 9c7d 06bc 5e35 c13c
00000100: b60e 8cbc ca24 bd3c 141e 903d e1cd 0f3e
00000110: 24bc 0cbd 293a 93bc 3d6f a83d 398a 86bd
00000120: a383 45bd 8adb 533d 1f03 83bd 1dc4 a6bd
00000130: 53dc 8d3d 1f31 b63d 8f67 2a3d 8f23 0bbd
00000140: 4ee6 bf3c ac0b a8bd 874c 62bd 90e0 ba3c
00000150: 7e3b 473c a090 9b3c f34d d8bd f18b 75bd
00000160: 43a2 02be b5a3 9c3d 86a8 5ebb ceac bf3d
00000170: 7765 c83d 67e7 a23c 9b70 08be e921 19bc
00000180: d056 92bd b456 b83c 4dcc a3bd 4f0b 883d
00000190: 2277 00be 1176 edbd 9fca 82bd 1a83 ba3d
000001a0: 40ca 95bc f8f1 40be 70c2 093e 4dc2 cb3c
000001b0: e4ed 0ebe 429e ddbb 6fff 23bd 43a9 6cbc
000001c0: 22a2 02bd e0fc 21bd a541 35bd 8e66 e6bd
000001d0: 426c 613d 3577 113d 8a7a e23c ce9b 98bd
000001e0: c82a 61bc ec92 7cbc 3c35 843d 6b51 723d
000001f0: 9397 b83d 4368 9cbd f94c 69bd 12c4 d53d
-0.1454033 0.18962435 -0.026156792 0.024734303 0.12706695 0.01971714 -0.025823899 0.11338484
0.087074816 0.02786051 -0.03706092 -0.0049748523 0.05309752 -0.033211704 -0.11896325 0.04071324
0.14480583 -0.009288638 0.0016491147 0.08017381 0.08371588 -0.032637563 -0.012568305 -0.024487715
-0.03049536 -0.037407786 0.04508367 0.014114851 -0.03155437 0.008987753 0.07543059 -0.08180667
0.16551974 -0.10473209 -0.06219285 -0.032873098 0.034037005 -0.13304515 0.17915313 -0.05140472
0.08696674 -0.015887963 -0.099097736 -0.07920763 0.050418455 0.0876899 -0.017929802 -0.12504876
-0.06812881 -0.108401895 -0.08321274 0.039001096 0.12689653 0.018248845 -0.13028373 -0.05007822
-0.034819286 0.094115905 0.026048156 -0.15990722 -0.0053950544 -0.088360466 -0.008208659 0.023585018
-0.017096858 0.023088831 0.07036987 0.1404338 -0.034359112 -0.017972069 0.08224342 -0.06569333
-0.04822124 0.05172304 -0.0639708 -0.081428744 0.06926789 0.08896088 0.041602667 -0.03396946
0.023425248 -0.08205351 -0.055248763 0.022812158 0.01216018 0.018989861 -0.10561743 -0.05994791
-0.1275721 0.07648412 -0.003397496 0.09359132 0.09784978 0.019885732 -0.13324206 -0.009346464
-0.071454644 0.02250228 -0.07997952 0.06642782 -0.12545446 -0.11594785 -0.06386303 0.09107037
-0.018284917 -0.18842304 0.13453078 0.024872923 -0.13957936 -0.0067632506 -0.040038522 -0.014444652
-0.031892903 -0.0395478 -0.044252057 -0.112500295 0.055034883 0.035514075 0.027646322 -0.074515924
-0.01374311 -0.015415888 0.06455466 0.059159677 0.090132855 -0.07637074 -0.056958172 0.10437788

actor_mean.4.bias f4 [2]
00000000: ddf5 4a38 9f37 72bd
4.838953e-05 -0.059135076
