jsbgym/models/train_saves_extVa/stall/ppo_fullrl_ts3e-2_betacuri_stall_tsteps2e6_1_11815_23-02_11:00:11.pt (torch, 62482 bytes, 14 tensors)

actor_logstd f4 [1, 2]
00000000: 963b 793d cca3 9bbd
0.06084784 -0.07599601

conv.0.weight f4 [3, 1, 5, 1]
00000000: 2f06 cb3e 03f1 283f afeb f4bd 9365 563f
00000010: 1549 8d3c 7bcf 413e 1664 213d b73b 3e3f
00000020: 5707 50bd 01a7 45be cdea cebd b207 373d
00000030: a4bc 64be 4575 6d3e 7795 50bf
0.39653155 0.65992755 -0.119590156 0.8374874 0.017246762 0.18926804 0.03940209 0.7430987
-0.05078825 -0.19301988 -0.101033784 0.044685073 -0.22337586 0.23189266 -0.81478065

conv.0.bias f4 [3]
00000000: 6c99 7fbd d54c 31bd f651 273d
-0.062402174 -0.043286163 0.04084965

critic.0.weight f4 [64, 42]
00000000: fdbb 0d3d e704 d83e 63ad 2f3e 37a3 123d
00000010: 4795 ee3d fdb2 2f3d 1f23 13be 1bf7 c2be
00000020: bff5 413e f0fc 183e 67df 63bd 50be ccbb
00000030: c712 433e fe3a 3b3e 3fbd 143e 45ad cebd
00000040: 4b06 cfbe 88dd 973c ac4b bd3d 5ecf 64bc
00000050: da6b afbe 9407 603e 45ce 173d 61e5 873e
00000060: 1484 46be 0b27 883d fb9b 303e b814 023e
00000070: aead 303e d303 87bd 9bf2 683e 9217 9abe
00000080: 505a 723e 5cf6 20be 41de fa3d 3133 643c
00000090: 76b9 a5be f8e4 bbbd e51e a13c 9040 003e
000000a0: eebc e6ba 0b8d c83e 1d64 f2bd 9537 33be
000000b0: 6962 dd3d 98c4 0f3d d095 803e be2c d3bd
000000c0: fb3e 5fbd 4749 abbd b7c0 2a3d 39d6 b1be
000000d0: f11c 533e 82fb edbd f78c 49be 2871 b7be
000000e0: 71f0 3c3d ef87 bcbd 766a 96be e18e 1bbe
000000f0: 2360 a73d 55c4 61bc 59ba 54bc d30b 5cbd
00000100: 5a49 503d cd79 cfbe a69c cebd 6647 cebc
00000110: 9704 f2be 111d 063e 08c3 e73d 500f e73d
00000120: 98de 69be 4709 10bd a890 0f3e ace3 023e
00000130: 7115 233e 1ed4 923e 5997 9d3d 5d10 50ba
00000140: c348 703e 8069 3cbd 5530 9bbe cf6a 443f
00000150: 3210 03be 8769 303c 1317 26bd 2632 7fbc
00000160: 1dc2 09be 20ae 20bd 5c86 6cbe c52e 903e
00000170: 0995 343e aa9b 2a3d 565a c6be 35a9 a9bc
00000180: f907 113e dc0c 74be 38d9 8dbe e383 123e
00000190: 3893 77be eccd 6cbe 5e90 e03d ca46 77be
000001a0: 218f 86be e33f 8cbe 0113 363e eefe 4fbd
000001b0: 40b0 21be f1df e03d ee5b c5be 57eb 3ebc
000001c0: be73 233e f22a 283d 2f78 3e3d 2c62 c73d
000001d0: 277d ff3d c31a d43d cd6f 57be 3a96 243d
000001e0: e1d7 a33d 6961 4bbc 7bb8 cfbd 179b 653c
000001f0: 96e2 3fbf 8a5d 17bd f1bd eabe 69ed 033f
00000200: 4d34 293e bb13 12be 3252 2d3e cc06 f4bd
00000210: ef42 b5be dc0a cc3c a60b 72be 5554 593e
00000220: 4152 313e b58c b73d f29f 19bd da54 18be
00000230: fbad a8bd 288f 923e 2416 64bc cdea 2dbd
00000240: 8dfe 04be f869 613c fe97 783e 7c80 a63e
00000250: 8a3c 7a3c 67ae 0ebe a05f d43d 7295 f23d
00000260: 98ec 7d3d 12a9 763e ea04 553e e740 d4be
00000270: 9cb6 45be da24 8c3d 6179 46be 6dea 91bd
00000280: 84c9 27be daec 15bc 501b 9dbc c928 e13d
00000290: be7d 253c 88b6 fb3d 24a7 cf3d 87db 443e
000002a0: 6ad9 9a3e 286c cabd 9f5e f6bd e5a1 8bbd
000002b0: 39e2 c9bd d34f 32be 3349 39be 6df9 083e
000002c0: 754f 013e bb80 563e 6e29 2f3d 8b72 bbbd
000002d0: 9bce eebd 8f17 02be dfab b7bd 393f f03d
000002e0: fcd4 3dbe b140 84be 8751 eabd 23a6 a03d
000002f0: 4541 3e3e 114b e13d 1e63 19be 8ee8 6bbe
00000300: 71cd 9abd 9edc 133e ef7f 86bd 0d49 433d
00000310: a25f cabd eb03 06be 2dac e53e dedf 0ebe
00000320: dea8 1bbe e5bb 023e 5a8e bbbe 056e d33d
00000330: 93f4 163d 63f1 483e 9bf7 223e 879a c33c
00000340: 575d 1ebd 9444 1a3d 7e4c aa3d a18f c73c
00000350: b371 e4bd 1018 8bbe 2abc e23d 83c8 4f3e
00000360: 4eb4 90be 8224 f3bc 7094 78bd 1af8 83bd
00000370: 0b10 cc3c 9e50 0f3e 3c89 46be bc94 2fbd
00000380: e37c 34bb c529 dbbd 49d6 a3bd a644 a73e
00000390: af56 8dbc 8fce 75bd bdb3 0a3e 860f 073f
000003a0: 98d9 46be b851 16bd cc81 b5bd 39b6 073e
000003b0: 4655 f1bd 0581 bd3d abc9 ee3d f5ea 8ebd
000003c0: 4a3d 00bd 8d14 7cbe 98be d23c b09d b73d
000003d0: bdab d83e e68e fabe 14d8 5cbd 079c 53bd
000003e0: f017 b1bd 605b 19bd f23d f1be bf41 1d3e
000003f0: a7ba 283d e9c0 29be 765b e1be 4128 13be
0.034603108 0.4219124 0.17155986 0.035800185 0.11649566 0.042895306 -0.14368866 -0.38079152
0.18941401 0.14940238 -0.055632975 -0.006248273 0.19050132 0.18284222 0.14525317 -0.10091642
-0.4043449 0.018538252 0.09242949 -0.013965456 -0.34261972 0.21877891 0.03706195 0.2654219
-0.19386321 0.06648072 0.17247002 0.12703216 0.17253754 -0.06592526 0.22748797 -0.30096108
0.23667264 -0.15718979 0.12249423 0.013928221 -0.32368058 -0.09174532 0.019668052 0.12524629
-0.0017603913 0.39170107 -0.11835501 -0.17501672 0.10809786 0.035099596 0.25114298 -0.10311268
-0.054503422 -0.08363586 0.041687693 -0.3473375 0.20616509 -0.11620237 -0.1968268 -0.3582852
0.04612774 -0.09205615 -0.29378098 -0.15191223 0.081726335 -0.013779719 -0.012983882 -0.053722214
0.050851204 -0.40522614 -0.10088472 -0.02518053 -0.47269127 0.13097025 0.11316496 0.112822175
-0.22838819 -0.035165098 0.14020026 0.12782162 0.15926148 0.28677458 0.07694883 -0.00079370086
0.23465256 -0.04599905 -0.30310312 0.76725477 -0.12799147 0.010767347 -0.04054935 -0.015575921
-0.13452955 -0.03922856 -0.23098129 0.28160682 0.17634977 0.04165236 -0.38740796 -0.020710567
0.14163198 -0.2383303 -0.27704787 0.14308123 -0.24177253 -0.23125428 0.10965036 -0.24148098
-0.26281074 -0.27392492 0.17780687 -0.05078023 -0.1578989 0.109802134 -0.385467 -0.011652789
0.15962121 0.04105658 0.046501335 0.09735522 0.12475043 0.10356667 -0.21038742 0.04018233
0.0800016 -0.012413361 -0.10142609 0.014014027 -0.7495512 -0.03695444 -0.4584804 0.51534134
0.16523857 -0.14265339 0.16925886 -0.11915359 -0.3540263 0.024907522 -0.23637256 0.21223576
0.17316534 0.089623846 -0.03750605 -0.14876118 -0.08236309 0.28624845 -0.013921294 -0.04246025
-0.12987728 0.013758175 0.2427673 0.325199 0.015273223 -0.13933717 0.103698015 0.11844911
0.06199321 0.24087933 0.20802656 -0.41455767 -0.19307941 0.068429664 -0.1938224 -0.07124791
-0.16385466 -0.009150708 -0.019178063 0.10994107 0.01010078 0.122906744 0.101393014 0.19224368
0.30244 -0.098839104 -0.12029766 -0.06817988 -0.09857602 -0.17413263 -0.1809433 0.13376398
0.12627967 0.20947544 0.04276412 -0.09152707 -0.116605006 -0.127043 -0.08968329 0.11730809
-0.18538278 -0.25830606 -0.11441331 0.07844188 0.18579586 0.11000646 -0.14979216 -0.23037931
-0.07558716 0.14439628 -0.0656737 0.04767709 -0.09881522 -0.13087432 0.44857922 -0.13952586
-0.15201136 0.12766989 -0.36632043 0.10323719 0.036854338 0.19623332 0.15914766 0.023877395
-0.038663235 0.037663057 0.08315371 0.02436048 -0.11154499 -0.27166796 0.11071046 0.20291333
-0.28262562 -0.029680494 -0.060688436 -0.06443806 0.024909994 0.13995597 -0.19388288 -0.042866454
-0.0027540259 -0.10701326 -0.07999856 0.32669562 -0.017253248 -0.060011443 0.13545127 0.5275806
-0.19418943 -0.036699027 -0.088626474 0.13253106 -0.11783843 0.09253124 0.11659559 -0.06978408
-0.03130845 -0.24617215 0.025725648 0.089656234 0.42318526 -0.48937148 -0.053917006 -0.05166247
-0.08647144 -0.037440658 -0.47117573 0.15357111 0.04119363 -0.16577496 -0.44015092 -0.14370824

critic.0.bias f4 [64]
00000000: 8e95 91bd 29db 1e3d 4f06 86bd da6a a23d
00000010: 6ae3 febd 76b2 7ebc 0177 45bd 7b0a 5fbd
00000020: 5ea6 833d 576e f5bd 3caf 343d dd0d bdbd
00000030: 6612 29bb f937 8f3c 6710 22bd 34c8 393d
00000040: a77c bcbc 2137 43bc 0ae8 05be 9b22 043d
00000050: 814b d7bd de62 04be 8f89 8ebd 41e3 dfbd
00000060: 9edd 9cbd 1990 f7bd 1ec3 0f3c 0d11 fbbd
00000070: 2603 b0bd 49ba f6bd a6ce a23c 0921 1dbe
00000080: f60e adbc bd0f 623c 773b 273e edbb be3d
00000090: 0f2d 0c3d 287f f4bd f9d7 033e d00d c5bc
000000a0: d9f9 f2bd d1db 98bd dc3b 1c3d 0f1c 3dbe
000000b0: a70a 273d 372e 0c3e 1237 673d f29d 1a3e
000000c0: 5f25 a2bd 1228 5abc b830 83ba c75d 18be
000000d0: f010 e53b e12a 1c3d 914a a03d 14fd ec3c
000000e0: 878b 5d3d 187a 9fbd f41d bbbd ec13 0a3e
000000f0: 94ce 87bc 187b 4a3e f68d f33d 00b9 723c
-0.071086034 0.038783226 -0.06544172 0.079305366 -0.124457195 -0.015545478 -0.048209194 -0.054453354
0.064282164 -0.11983936 0.04411243 -0.0923116 -0.002579832 0.017482745 -0.039566424 0.045356944
-0.023008658 -0.011914999 -0.13076797 0.032259565 -0.10512448 -0.1292834 -0.06959831 -0.10932017
-0.076594576 -0.12088031 0.008774547 -0.122591116 -0.085943505 -0.1204725 0.019873928 -0.15344633
-0.021125298 0.013797698 0.16331278 0.09313188 0.03422266 -0.11938316 0.12875356 -0.024054438
-0.11864061 -0.07463802 0.038143024 -0.18467735 0.040781643 0.13689505 0.056449004 0.15099314
-0.07917284 -0.013315218 -0.0010009026 -0.14879523 0.0069905445 0.03812683 0.078267224 0.02892927
0.05408814 -0.077869594 -0.091365725 0.13484162 -0.016577996 0.19773519 0.11892311 0.014814615

critic.2.weight f4 [64, 64]
00000000: d6ae 383e 1264 8ebd eba7 82be ebe3 94bd
00000010: 943c 5abe d696 9d3e 23ac 6abd 7694 e53d
00000020: 7ca4 c83d a881 793e 7790 b53d caaf 9e3e
00000030: af3f 323e cf42 41be d7b2 b13c 289c 90be
00000040: e9f2 893e 245b 2abe 8093 cd3d 3776 95bd
00000050: f57e 603e 1365 cdbd e288 fb3d a93f 3fbc
00000060: 004c 16be d0a1 31bc 77d5 963d 65ee b83e
00000070: 28cf 99be 165c a53d adf4 c63e bb80 203e
00000080: 7e54 debd b291 cbbe c43f 24bd 3d11 41be
00000090: 8d51 44be fa9e 15be f054 863d b388 6f3d
000000a0: eb2a 233d e9c0 4dbe ddd5 80bd 80e9 d23d
000000b0: 1c96 55bd e998 dbbc 45bf 36bd 090c f1bc
000000c0: 8efe 6f3e 84ff f83e 7b67 f63e 37a7 d23e
000000d0: f1f3 923e 29ce f5bd af3a 2bbe 7a3a efbd
000000e0: a1d1 45be 706f a8bd b204 d33e 6fe4 603e
000000f0: 2f2e fb3d 5942 8abe ac6c 3e3e 510f 67be
00000100: 7c45 8bbd 9ec6 b4bd 1711 383e d243 7a3e
00000110: 1abf 84be 36cb c3be f841 623e a6a7 b0bc
00000120: 13d9 b8be 22cf cc3c 822e bc3e c6c7 e6bd
00000130: 760a debc b92f 86bd 1a16 4a3e 3b30 77bc
00000140: ec7a 6ebd defa d33e f3ff 5ebc a400 02bc
00000150: 9945 75be 255a 9fbe a1fe 533e ccaa 9bbd
00000160: aae1 9a3d 34b8 25be 6fc5 b3bd 6cb0 a1be
00000170: 2858 993e d565 7dbd 11db 43be f7f3 f5bd
00000180: 107c ddbd 1b9e b83e 759d 4b3d fe4a 653e
00000190: ee70 3ebe 70c8 4fbe 0065 fe3d 95e4 0b3d
000001a0: 65f2 58bd 93e5 5cbe e1eb 34be c4f2 c8bc
000001b0: 3f19 5ebe 82e1 6cbc 278f 103e 4415 343e
000001c0: a84e 163e 8dc2 483e 9d86 d93d e26e 0dbe
000001d0: a1d9 553e bcc9 b13d 6480 28bd b96e dc3e
000001e0: 0e86 89be 58ec 033e 652a abbd 23a4 b33d
000001f0: 837c 44bd 6e0c b5bd 9061 8a3b 7a9b 1bbd
00000200: 526a 8abd 1a20 19be fec4 85be bbe0 32be
00000210: 0f53 0fbd 0243 e0be 4a40 073e 35bc e93d
00000220: ffe9 70bd 640a 993d f6f2 9fbd 61d5 d2be
00000230: eedb 173e 08cc 883e 2469 93be f322 633e
00000240: df76 bf3d 01e3 563e 4723 c8bd 8de6 873e
00000250: c702 5ebe dcd6 133e b534 af3e 5bdc 4cbe
00000260: f7cf bbbd 0a1d a5be 4e9c 00bd 514d 17be
00000270: 257f 5c3e 41c0 613e 2393 8abd 53c3 59be
00000280: b5d7 053f 8be6 f23e 8305 ec3d a4ae 9d3e
00000290: b223 813c 2e29 1ebf 5e6b 49be 5a10 95be
000002a0: 46d0 1fbe 4232 2fbe 3db3 ab3d a429 b9bd
000002b0: 778c 40be 2304 183e a5e6 8b3e e463 673e
000002c0: dcbc 49be 6a31 b83d dd85 7dbe 06eb a0be
000002d0: d488 863e c081 6a3e e923 ba3d cdf0 403d
000002e0: 2a3e 6e3e 192d 0abe be56 86be 77b1 b8be
000002f0: 2330 82be 1dd5 8e3e f48b 9e3e e766 85bd
00000300: 82fd b93d cad7 783e eb9f 753e 961b 393d
00000310: 3457 023f d125 9d3e d2fe 883e d67f f3bc
00000320: 571f 4abe e6f1 513e b12e 21be a280 ccbd
00000330: 5447 f73d 166e d13d aba5 2a3e b0a1 20be
00000340: bee4 edbd 5e49 9f3e ef4f 063d 3fd0 4fbd
00000350: 6ca6 4e3e 815f ae3e 24d0 a13e eb42 863d
00000360: 3063 4a3e 9b79 d13e 447f cdbd d55f e9bd
00000370: 8125 d43d 15ae 073e 9627 6b3e ecc8 923d
00000380: 6d83 233e ed4b 37be eacf 8fbe eb70 8dbe
00000390: b145 2c3e 059e e43e 11d9 aa3d 46f0 c4bc
000003a0: 5a21 063e 5eca 49be 9c2f e8bd ee4f cc3e
000003b0: d89b 9fbe 238b 2ebe eeca 37be 8ea0 e1be
000003c0: 7063 633d 85e2 1e3e fc7d 053e 88fe 3a3e
000003d0: e644 383e ef6e 343e 6986 8bbe a2c5 36bd
000003e0: 52a5 9ebe b828 c3bd 8390 413c 1250 a9be
000003f0: 82b4 393e 587f 07be 410d 8ebc f1b2 0e3d
0.18035445 -0.06952681 -0.25518736 -0.072700344 -0.21312171 0.3077914 -0.05729307 0.11209957
0.09796998 0.24365866 0.08865445 0.3099349 0.17407106 -0.18873142 0.021691723 -0.28244138
0.26943138 -0.1663633 0.10037899 -0.07297938 0.2192343 -0.10029044 0.12281968 -0.011672893
-0.14677429 -0.010841802 0.07364934 0.3611938 -0.3004086 0.080742046 0.38858548 0.15674107
-0.10855959 -0.39759594 -0.040099874 -0.18854232 -0.19171734 -0.14611426 0.06559169 0.058479976
0.03983585 -0.2009312 -0.06290791 0.10298443 -0.05214511 -0.026806312 -0.044616003 -0.029424684
0.23436949 0.48632443 0.48125824 0.411432 0.28701738 -0.120022126 -0.16721605 -0.116810754
-0.19318248 -0.0822438 0.4121452 0.2196214 0.12264668 -0.27003744 0.18596143 -0.22564436
-0.068003625 -0.08826946 0.1797527 0.24439934 -0.2592705 -0.38240975 0.22095478 -0.021564316
-0.36103114 0.025001112 0.36754233 -0.112685725 -0.027104598 -0.06552071 0.19734994 -0.015087183
-0.058222696 0.41402334 -0.013610828 -0.007934723 -0.2395233 -0.31123462 0.20702602 -0.07600936
0.07562573 -0.16183549 -0.08777892 -0.31579912 0.2995007 -0.061864693 -0.19126536 -0.12009423
-0.10814679 0.36058125 0.04971071 0.22391888 -0.18597767 -0.20291305 0.12421608 0.03415354
-0.05296554 -0.2157195 -0.17668106 -0.024529822 -0.21689318 -0.014458062 0.14117108 0.17586237
0.14678442 0.19605465 0.106213786 -0.1381183 0.208838 0.08681056 -0.041138068 0.43053225
-0.26860088 0.12883127 -0.083576955 0.08771541 -0.047970306 -0.088402614 0.004223056 -0.03799007
-0.0675856 -0.14953652 -0.26126856 -0.1746854 -0.03499132 -0.43801123 0.13208118 0.11412851
-0.058816906 0.07472685 -0.07810013 -0.4117842 0.1482999 0.26718163 -0.28791153 0.22181301
0.09348845 0.20985033 -0.097723536 0.26543084 -0.21680747 0.14437431 0.342199 -0.20005934
-0.091705255 -0.32248718 -0.031399064 -0.14775588 0.21532877 0.22045995 -0.06766345 -0.21265917
0.5228227 0.47441515 0.11524489 0.30797303 0.015764091 -0.61781585 -0.19669864 -0.29114038
-0.15606794 -0.17109016 0.08383796 -0.090411454 -0.18803583 0.14845328 0.27324405 0.22596699
-0.1970095 0.089938 -0.24758096 -0.3142931 0.26276267 0.22901058 0.090888806 0.047104646
0.23265901 -0.13493766 -0.26238054 -0.36072895 -0.2542735 0.27896968 0.3096615 -0.06513768
0.09081556 0.24301067 0.23986785 0.045192324 0.5091431 0.30692914 0.26756912 -0.029724043
-0.19738518 0.20502433 -0.15740468 -0.09985472 0.12074152 0.10226075 0.1666476 -0.15686679
-0.11615895 0.31110662 0.032791074 -0.05073571 0.20180672 0.3405724 0.3160411 0.06555732
0.197644 0.4091309 -0.100340396 -0.11395232 0.10358716 0.13250001 0.2296432 0.07167229
0.15968104 -0.17900057 -0.28088313 -0.27625212 0.1682346 0.4465181 0.083421834 -0.024040353
0.1309866 -0.19706103 -0.11337206 0.39904732 -0.31173587 -0.17045264 -0.17948505 -0.44067806
0.055514753 0.15516098 0.1303634 0.18261158 0.17995033 0.17620443 -0.27250984 -0.04462207
-0.30985504 -0.09529251 0.011814239 -0.330689 0.18135265 -0.13232172 -0.017340304 0.03483862

critic.2.bias f4 [64]
00000000: 8c4c 8c3d 9d3a 4bbd dc81 01bd 3093 73be
00000010: b2a2 5c3d da4a d03d bca7 3e3d 5316 c23d
00000020: 41cf 2cbe ceec b2bd 771a c93d 8218 aabd
00000030: 2f2c a53d 9ef0 d6bd 9b30 bbbc e59b d5bd
00000040: f195 24bd 28c5 5b3c bbc1 833d bfb7 5ebc
00000050: 0a46 df3d 9a00 9d3d 72e5 0bbe dfe1 da3d
00000060: 0d8f 713e 1dd7 a23d c2be d7bd cc0c ffbd
00000070: b211 5f3e 2a15 50be 3d32 fabd 3bd0 183d
00000080: 58b0 58be ecab 143e b2ac 33bd a7f2 9fbd
00000090: 506b f2bd 55b2 013e c24f b43d 6d7a 6fbe
000000a0: e07d 0f3e 1608 a2bd c36d 4ebd 52ad 65be
000000b0: ae87 2dbe 501b 363d 9170 383d 2929 aebd
000000c0: 7a03 503e 6a29 97bd b914 81bc c319 37bd
000000d0: c48e dc3d 612f 0a3b 47fd ddbd 2f6f 443d
000000e0: 6d0c d93c 3389 be3d ed5a 85bc a66a 24bd
000000f0: 82a5 963d f3f0 70bd d93b 04bd acae 40bd
0.06850538 -0.049616445 -0.031617984 -0.23786616 0.053866096 0.10170527 0.046546683 0.09476914
-0.16875936 -0.08736573 0.09819501 -0.08305456 0.08065068 -0.10495113 -0.022850325 -0.10430125
-0.040182058 0.013413705 0.064334355 -0.013593613 0.10902031 0.0766613 -0.13661745 0.10687613
0.23589726 0.07951186 -0.10534431 -0.12453613 0.21784094 -0.20320573 -0.122166134 0.03730796
-0.2116102 0.14518708 -0.043865867 -0.07809954 -0.118368745 0.12665685 0.08804275 -0.23386545
0.14012861 -0.079116985 -0.050397646 -0.22429398 -0.16946289 0.04445964 0.045029227 -0.085039444
0.20313826 -0.07380946 -0.015756952 -0.044702303 0.10769418 0.002108537 -0.108393244 0.047957595
0.026495183 0.093035124 -0.016278708 -0.04014077 0.07355787 -0.058823537 -0.032283638 -0.04704158

critic.4.weight f4 [1, 64]
00000000: 599a a7be 5959 ec3d d1cc ac3e 3225 6c3e
00000010: b883 1fbe 09af 73be 3975 6cbe 91e0 21be
00000020: 08f9 593e 769e 663e 5dcf 9cbe 6415 513e
00000030: cc4b 7bbe d981 bd3e 02f1 7b3e 1c7c c73d
00000040: 1f19 543d a1b6 7abe ebbe 55be 3217 7a3e
00000050: eaff 14be 43d6 53be fb0b 633e c1f5 62be
00000060: 23eb c2be fe99 53be 821d d03c 56a6 3a3e
00000070: f67f 34be 7c05 533e aa9d 573e ac64 8bbe
00000080: 04bb 173e 450c afbe 7380 b73e 2cd1 b13d
00000090: 6900 283e eb8b 13be 122c 7cbe 4b81 2b3e
000000a0: ed6c b7be db04 a23e 777d 003e 70dd 223e
000000b0: 6429 693e 8c59 b1bd d9e9 11be d9da 273e
000000c0: 983b 2bbe 8bfe 693e 08a1 433d d80a 153e
000000d0: 5ca8 c7bd d69c e33e 8e7c 683e 6158 9cbe
000000e0: b03d 0fbe 787c 93bd 289b 423e 1261 c73d
000000f0: 16a9 45be dd8c e63d 6239 e23d 45bd 0f3e
-0.32734945 0.11540479 0.33750013 0.23061064 -0.1557759 -0.2379724 -0.23091592 -0.15808322
0.21286404 0.22521386 -0.30626956 0.20418316 -0.24540633 0.37013128 0.24603656 0.09740469
0.05178177 -0.2448373 -0.2087361 0.24422911 -0.14550748 -0.20687203 0.22172539 -0.2216406
-0.3807002 -0.20664212 0.025404695 0.18227515 -0.17626938 0.20607561 0.21056238 -0.27225244
0.14817435 -0.34189048 0.35840186 0.086824745 0.16406406 -0.14408843 -0.24626186 0.1674854
-0.3582529 0.3164433 0.12547861 0.15904784 0.22769696 -0.08659658 -0.14249362 0.16392078
-0.16721952 0.22851007 0.047760993 0.14554918 -0.09748909 0.44455594 0.22703764 -0.30536178
-0.13988376 -0.07201475 0.190045 0.097353116 -0.19302782 0.11257336 0.11046101 0.14037044

actor_mean.0.weight f4 [64, 42]
00000000: 4093 2dbc 13b1 093e 8a75 123e b171 83bd
00000010: d35e 08be 6ca4 90bc 84e1 56be 55ae 80be
00000020: efaa 20be 5191 c53e faf2 27bc 7f24 f3bd
00000030: 01f3 18bf dd21 85be 0fd3 823d bdab b63d
00000040: 7deb babd 9896 1ebe 9e0a 7f3d 7ab1 d4bd
00000050: df56 c33c 6348 d6be 83f0 a13c 0f34 66be
00000060: 490a ec3d ecc8 d4bd 2acb 24be 5501 19bf
00000070: 7ffc d93d 10f0 563e ef83 05bc 78ad 05bd
00000080: 3a2f f9bc 33b0 e7bd d953 b1bd 79c7 a33e
00000090: 6cd5 f0bd 95d8 6d3e 9f73 30bd f9b1 613d
000000a0: dd5b 093e 4920 7f3e c96f f93d 3c77 803e
000000b0: 4334 07bf 29e7 203d 2506 02be a856 20bd
000000c0: 9a56 b0be bd09 6f3d e462 90be dff9 ab3d
000000d0: 5661 09bd ffda aabd d326 c2bd 0f3c 2ebe
000000e0: afd5 8fbd 5bd2 a53e 9fa3 bdbe c184 cbbd
000000f0: 0ffa 16bd b0c3 d8bd ded1 833e 3cac 323d
00000100: 73c8 f6be b152 3f3e 37f0 1e3e 715e 033e
00000110: 35b9 11be 1fda 453d 1890 61bd 3409 ebbe
00000120: 7a11 1bbd 5b18 143e f7fe 733d fbfc 113e
00000130: 33a1 af3d eb24 62be 9d69 ae3d c736 e23d
00000140: 350f 22be 0095 8f3c 51a7 acbc 30d2 103c
00000150: 8e42 64be 71a3 013e 774f 193e 0edb 32bd
00000160: 0cc6 13be 7bbd 5c3e 6608 023e d44d c43e
00000170: 444c 88bb 5982 a23e 19f6 a8bd 8698 bcbd
00000180: b0e0 ba3d 88bf 5a3c 9aa4 19be eb8f 583e
00000190: 3cea 90be 763c 823e 8dab 153e 978f 87bc
000001a0: 108d 363e 9794 413e 9711 9e3c 249c 793d
000001b0: 5dfd b23c 80a3 f63d 65f1 1a3e 4088 39bd
000001c0: 0eed 853e b9bf 11bc 19b5 3cbe 1c72 d6bd
000001d0: 5995 39bd d1db b73c edfa 2a3e d224 a1be
000001e0: 3505 213d bb58 073e 11a3 04be f582 35be
000001f0: fafb bcbe 65d0 d4bd 6d79 ac3d b99f 0a3e
00000200: ceed f53d a34c f93c 009a fabd 87ed 16be
00000210: 6b1c a93e f616 02bf b77f 2abe 72ac 83bd
00000220: 8b7b e7bd 4c4d 3f3d ef88 443e cf73 f8be
00000230: 345f a73d d59a 8abe 4787 5ebe c96c 4e3d
00000240: b53a 7b3d ca23 1c3e f960 f43e e656 38bd
00000250: 7ce7 e1bb 635e 893d 3c61 45bd 9fda a3bc
00000260: 1802 143c 78b7 8abe df52 2ebd dff5 1ebe
00000270: 35e3 1ebd f560 1b3e 3f68 4bbe d22b 173e
00000280: 68cd 873d 97ce c23e 4538 96bd bc84 183e
00000290: 6391 c23d a61d 8b3b 9f73 b83e dce0 103e
000002a0: 5c0b f4be 2f7e 4a3d 7fc2 78be dafe dcbe
000002b0: a2b4 683e 1f89 c4bd c4e9 2fbe 94e1 153e
000002c0: 6288 95be 5d97 c0bd 6ebb 2bbe d713 23be
000002d0: 277a dd3a 3d2a 843d 3b8b 9e3e a67d 623d
000002e0: 4d5f 92bd de60 993d cef4 6fbe 46c4 dfbc
000002f0: 11a0 9abe 4b75 80be 2ed6 babd bea0 bdbd
00000300: 9ba0 d73d 6aae e43c 6ff5 18be 925e 5c3d
00000310: 3d57 5139 baee ccbd 0f7d 283e 88ca 0abe
00000320: e414 3abe 6797 2e3e b914 2e3e 6c1f 053e
00000330: 4d00 5b3d 73f0 653c d6e1 fb3d dc2f 3b3d
00000340: a39c 9b3e c812 eabd d324 df3d d6d0 c3bd
00000350: e431 00be 6184 053c a0ba 813d e109 3a3e
00000360: ef5f cc3e 1940 47bf cf92 14be f780 34bb
00000370: 5018 fabc 7060 ccbd f358 1bbe 3728 88bd
00000380: 6401 00bd 95a5 fd3c 5fcc 783d 9d8e 293e
00000390: d006 c53d 7be3 5a3c f1af 823d 0640 3fbe
000003a0: c4f9 b43d 994e 05be 04a3 5fbe b476 31bb
000003b0: 9562 a3be f8ec 003d 711b 793e 0b33 02be
000003c0: e295 95be dc85 20be 961b c53d 7f17 873d
000003d0: 701a 5bbe aebe ca3e f144 5c3e fbc4 ee3d
000003e0: 27b9 8b3d 798d c33d ac1e 703e 9fd4 be3d
000003f0: 0bff 7bbe 29e8 6ebe b7a0 36be a01a 033e
-0.010594189 0.13446455 0.1430265 -0.06418169 -0.13317423 -0.017656527 -0.20984465 -0.25133005
-0.15690206 0.3858743 -0.010250801 -0.118721955 -0.59745795 -0.26002398 0.063879125 0.08919475
-0.09126947 -0.15487134 0.062265985 -0.103854135 0.023845134 -0.41852102 0.019768005 -0.22480796
0.11525399 -0.10389885 -0.16093126 -0.5976766 0.10643863 0.20990014 -0.008149131 -0.032636136
-0.030418027 -0.11312904 -0.08658571 0.31988123 -0.11759457 0.2322715 -0.043079015 0.05510137
0.1341395 0.2491466 0.121795245 0.2509097 -0.5281412 0.03928295 -0.12697656 -0.03914514
-0.34441072 0.058358897 -0.28200448 0.083972685 -0.033540092 -0.083425514 -0.094800614 -0.17015098
-0.07023179 0.3238705 -0.37038895 -0.0993743 -0.03685957 -0.105841994 0.25746053 0.043621287
-0.48199806 0.18683888 0.15521322 0.12828995 -0.14230807 0.04830372 -0.05506906 -0.4590546
-0.037858464 0.14462416 0.059569325 0.1425666 0.08575668 -0.22084396 0.08516238 0.11045604
-0.15826114 0.017527103 -0.021075876 0.008839175 -0.22291014 0.12660004 0.1497172 -0.043665938
-0.14431018 0.21556656 0.12698516 0.38340628 -0.004159482 0.31740072 -0.082500644 -0.09208779
0.09124887 0.013351329 -0.15004197 0.2114865 -0.28303707 0.25436753 0.14616223 -0.016547961
0.17827249 0.18904339 0.019295497 0.060939923 0.021849329 0.12042904 0.15131147 -0.045295954
0.2615742 -0.008895808 -0.18428458 -0.104709834 -0.045308445 0.022443684 0.16697283 -0.31473404
0.039311606 0.13217442 -0.1295283 -0.17725737 -0.36910993 -0.103913106 0.08421598 0.13537492
0.12008248 0.030432051 -0.122364044 -0.14739047 0.33029494 -0.50816286 -0.16650282 -0.06429376
-0.11302861 0.046704575 0.19192861 -0.48525855 0.081724554 -0.27071252 -0.21731292 0.050396714
0.061335284 0.15248027 0.47730234 -0.045004748 -0.00689405 0.06707456 -0.048188433 -0.020001708
0.009033702 -0.270931 -0.0425595 -0.1552348 -0.0387909 0.15173705 -0.19863985 0.1476281
0.06630975 0.3804824 -0.07334951 0.14894384 0.095003866 0.0042454777 0.36025712 0.14148277
-0.47664917 0.049436744 -0.24292944 -0.43163186 0.22725156 -0.09596466 -0.17179018 0.14636832
-0.29205614 -0.0940387 -0.16770718 -0.15925537 0.0016897366 0.06453369 0.309656 0.05529561
-0.071470834 0.07489179 -0.2343323 -0.02731527 -0.30200246 -0.25089487 -0.09122883 -0.09259175
0.1052868 0.027915198 -0.14937375 0.053801127 0.00019964292 -0.10006471 0.16453956 -0.13553822
-0.18172032 0.17049943 0.17000093 0.13000268 0.053467084 0.014034378 0.12298934 0.04569994
0.30392942 -0.114293635 0.108956955 -0.09561317 -0.12519032 0.008149237 0.06334424 0.18167831
0.39916942 -0.7783218 -0.14509128 -0.002754269 -0.030529171 -0.099793315 -0.1517065 -0.066482954
-0.031251326 0.030962745 0.06074178 0.16558309 0.0962044 0.0133599 0.063812144 -0.18676767
0.088367015 -0.13018264 -0.2183953 -0.002707881 -0.3191115 0.03147599 0.24326874 -0.12714784
-0.29215914 -0.15676063 0.09624402 0.065962784 -0.21396804 0.39598602 0.21510674 0.11658665
0.068224244 0.09548468 0.234492 0.09317898 -0.2460901 -0.2333075 -0.17834745 0.12803125

actor_mean.0.bias f4 [64]
00000000: 1198 d3bc 6b81 c2bd d836 c5bc e13a 673d
00000010: 0894 cbbd 95df 5c3b 73d8 cc3b 42b0 83bd
00000020: bfc9 82bd 6c9a 9fbd d47d 38bd 2f4b 9eb9
00000030: f120 343d 3f61 903d 4576 0f3d 9793 7f3c
00000040: 38b9 303d 5600 8cbc a675 8abd 691b 003d
00000050: f70c 74bb 6773 5cbd 44a8 913d 5510 ffbc
00000060: 048d 71bc 6a53 be3d 9a82 d7bb ce1c 843d
00000070: 8c0c 05bc 7d77 cfbc 78b7 44bd c69e af3c
00000080: ddf5 89bd 405d b43c afa8 523d 8d5b 57bd
00000090: 1903 fbbb 6f7a b8bd 06c7 f13d 38eb 5dbc
000000a0: b44a d7bd 0a36 eb3d ec62 bcbc 9c93 2ebd
000000b0: 0dde 83bc f02c 403d 0ca5 823d 2156 c63d
000000c0: 65e0 8a3d 9f10 0fbd 1637 dfbc ef64 96bc
000000d0: 2a38 bf3d b12c c0bc f665 d9bc 100f 67ba
000000e0: b346 993c 20c1 b23d 7ef5 ad3b 032a f4bc
000000f0: 2674 1ebd 00b1 0bbd d0fb d33c 12d7 80bc
-0.025829347 -0.09497341 -0.024074003 0.056452636 -0.09940344 0.0033702601 0.0062513887 -0.06430103
-0.06386136 -0.077931255 -0.045041874 -0.00030192125 0.043976728 0.07049798 0.0350249 0.015599153
0.04314539 -0.017090004 -0.06760721 0.03127614 -0.0037239173 -0.053820994 0.07112172 -0.031135717
-0.014743093 0.09293254 -0.006576848 0.064508066 -0.008120667 -0.025325531 -0.048026532 0.021438014
-0.06736348 0.022017121 0.0514304 -0.052577544 -0.0076602814 -0.09007727 0.11805539 -0.01354485
-0.10512295 0.114849165 -0.022996388 -0.04262124 -0.016097093 0.046917856 0.063791364 0.096843965
0.06781081 -0.03492796 -0.027247947 -0.018358676 0.09336884 -0.02345881 -0.026537877 -0.0008814195
0.01871047 0.08728242 0.005308806 -0.029805189 -0.038684987 -0.034104347 0.02587691 -0.015727554

actor_mean.2.weight f4 [64, 64]
00000000: bc61 8c3c ea06 6fbe 22a5 7f3e 0264 853e
00000010: ef02 06bd 6548 50bd a3f5 16be cdc3 c2bd
00000020: 79c5 3b3e d29a 843e 00c5 fdbc ef02 17bd
00000030: 658f 333d d506 4dbc b400 323b 5e60 55be
00000040: 0627 efbd 07e1 48be 9522 ecbe e36d 54bd
00000050: 01ce 64be 7721 24be 45b6 5e3e cb07 4e3e
00000060: 6b1b f1bc 1f3b 94bc dbf7 003e 7f3a 83be
00000070: d60b 203d 618c 543e eb6f a33d b66e c9bd
00000080: a3dd c93d 5ff3 123d 582f 3abd 2b7e c1bd
00000090: 27a2 5ebe be5b 53be 4ea0 4fbe 986f 023e
000000a0: fdd5 193e 9dc4 3f3c 8fe1 aabd 7c01 a6be
000000b0: f5d5 41be 27fb 55be b007 fdbb 8f44 693e
000000c0: a333 543e 06dc 443e 4493 dfbc 1d15 02be
000000d0: 43fe f3bc 3ee6 acbc adeb 9abe 5b37 d43e
000000e0: 8429 db3d 4bcb 5a3d cc88 fd3a 6413 5a3e
000000f0: 8545 71be 323f 2dbd 82bd 503e 1d4a c2bd
00000100: 59c6 843c 6644 33be 03bb 8fbe 2c13 2abe
00000110: 4552 823d cb0d 983d 384c ed3c 0652 adbe
00000120: 5267 fc3d 8c58 9e3d dab8 453e 41f9 b63e
00000130: def7 d6be 6ec2 413d 7412 b5be 5d33 603e
00000140: f195 223e 26a9 9e3e 8642 883e b09b 303e
00000150: ab90 3bbc a7ca bdbd 837c 77bd 1433 6c3e
00000160: 694e 903d c673 79be 0181 83bc 819c 03bc
00000170: 8532 893e e8c2 7f3e 1c2c 2cbd 6093 6f3e
00000180: fd26 083f 8091 163d 5597 44be bdd8 533e
00000190: b232 cfbd bdf4 8fbe 793b b73d e5a8 e43d
000001a0: 8d2f eabc 8a8c ba3d 4865 0f3c 5ad7 1a3e
000001b0: 911a 043e e6a6 583d 7120 5d3b 8156 52be
000001c0: c26c 6b3c a39c 573e f9fa 0f3d ddfa 7dbc
000001d0: 49f3 4a3d b3ed 2fbe 8d66 50be 9ad6 b03d
000001e0: 63aa 86bd 48a9 193e b334 6f3e c9c8 82bd
000001f0: a572 47be 7916 82be 0289 913d d841 fabd
00000200: 3cca d83c 0fdb 143e 8285 ac3d 2087 14be
00000210: b0bd 4b3d 9c53 d5bc 201f 47be 8a90 f23e
00000220: d4d6 003e 9195 1a3e fab0 7bbe e89f 783c
00000230: 7b31 85bd ba0f 27be e831 86bc 764a 603e
00000240: a2e1 d1be 0c9e 80be c405 9e3e d618 38be
00000250: c378 9ebd 7cde 74be 54d6 85be 9d0f 68bd
00000260: 39bc 9a3e 86fc febe fd6b bebe 1f81 62be
00000270: 6b00 c63d 0b01 e5bd ae3c 7f3d f078 6e3b
00000280: 23f4 a73e 1fdb 8fbe c969 233e 793b 71be
00000290: 709f 22be 4535 933d 8db3 e9bd 4123 3f3e
000002a0: 6c8a debc 1e29 9d3e 7e1b ddbe f87e 55be
000002b0: 3558 8dbb e131 1abe 0cb5 1fbd 6c68 ebbd
000002c0: 2e27 91be e038 553e cbf3 22bd 32fa fc3b
000002d0: 9823 1c3e 9f38 a13c fbda 39bc eb53 4b3d
000002e0: b534 99be 86a6 84be ae67 513e 8c68 2d3d
000002f0: d0b2 d93d 88c8 8fbd 1da9 52be acbb f23d
00000300: 9d29 dc3e cb5f e8be 4c9a 4c3d 5a2d 683d
00000310: 3893 c0bd 7118 d23d 127f 6ebd 5a5c a93e
00000320: 8e1a 50bd f39a d6bc 5ed1 ba3d c1e0 523d
00000330: cf0e af3b 3bb6 163e fc3c b83e 7f69 e6bd
00000340: 6414 1a3d e6dc 2a3e 3db7 883e cb32 563e
00000350: f18a 8e3b 90e3 663e 42f0 83be 3308 e03d
00000360: f32b 45be 39a9 64be 113d 8a3e 5809 03be
00000370: a68d e93d cc19 193d 08f3 84bd af6a d2bd
00000380: 1524 253d 4117 f93b 09eb 333d 8cd8 9f3e
00000390: f81e f0bd 35c1 743e bd9f 14bd 4330 e0bd
000003a0: 81ac b0be f2e6 003d 8608 173c 2302 98bd
000003b0: c379 1f3e 7c51 06bc 0d39 d3ba 4a58 6b3d
000003c0: 7ba9 1cbe e0f8 373e 3189 4abe 8ce2 ba3d
000003d0: a7cd b53d ed2f 7abe a18d 183e 5f4b 453e
000003e0: ccaa e23d beeb e2be ccb1 8b3d 0a2a 1e3c
000003f0: 6508 ff3c 8614 d3bd 1b3b 7f3e 9e05 ec3c
0.017136447 -0.23342481 0.24965337 0.26052862 -0.03271764 -0.05085029 -0.1474214 -0.09510002
0.18337049 0.2589937 -0.030977726 -0.036868032 0.043837924 -0.012513836 0.0027161064 -0.20837542
-0.11677365 -0.19617091 -0.46120134 -0.05186261 -0.22344209 -0.16028391 0.21749218 0.2012016
-0.02943202 -0.018094597 0.1259455 -0.25630566 0.039073788 0.20756675 0.07980331 -0.098355696
0.09856727 0.035876628 -0.045455307 -0.09447893 -0.21741544 -0.20640466 -0.20275995 0.12737882
0.15023036 0.011704591 -0.08343803 -0.32423007 -0.18929274 -0.20896588 -0.0077218637 0.2278006
0.20722823 0.19224557 -0.027291901 -0.12703367 -0.029784327 -0.021105882 -0.3025793 0.41448483
0.10701278 0.05341653 0.0019343137 0.2129646 -0.23561676 -0.042296596 0.20384791 -0.09486792
0.01620786 -0.1750656 -0.28072366 -0.16608876 0.06363348 0.07424506 0.028967008 -0.3385164
0.12324394 0.07731733 0.19308797 0.3573704 -0.41985983 0.047304563 -0.3536564 0.21894594
0.1587751 0.30988425 0.26613253 0.1724689 -0.011448066 -0.092671685 -0.060421478 0.2306636
0.070462056 -0.2436057 -0.016052725 -0.008032919 0.26796356 0.24976695 -0.042034253 0.23396063
0.5318449 0.036759853 -0.19198354 0.20688148 -0.10117091 -0.28116408 0.089468904 0.111650266
-0.028587127 0.09108837 0.008752175 0.15121213 0.1290076 0.05289354 0.003374126 -0.20540811
0.014369192 0.21055846 0.035151456 -0.015501705 0.04954842 -0.17180519 -0.2035162 0.08634682
-0.065754674 0.15005982 0.23359947 -0.06385953 -0.19477327 -0.2540777 0.0710621 -0.1221959
0.02646362 0.14536689 0.08423902 -0.14504671 0.049741447 -0.026040845 -0.19445467 0.473759
0.1258195 0.15096118 -0.2457923 0.015174843 -0.06503578 -0.16314593 -0.016381219 0.21903405
-0.40992457 -0.2512058 0.30863774 -0.17978224 -0.07737877 -0.23912996 -0.26140082 -0.056655515
0.30221727 -0.49802035 -0.37191764 -0.22119568 0.096680485 -0.111818396 0.062313728 0.0036388002
0.3280345 -0.28096864 0.15958323 -0.23557843 -0.15881133 0.07187895 -0.114112 0.18665792
-0.027165614 0.30695432 -0.43185037 -0.20849216 -0.0043134936 -0.1505809 -0.03899102 -0.11494526
-0.28350204 0.20822477 -0.03978328 0.0077202553 0.15247953 0.01968032 -0.011343713 0.049640577
-0.29923025 -0.25908297 0.20449707 0.04233603 0.10629809 -0.0702067 -0.20572324 0.11852202
0.43000498 -0.45385584 0.049951836 0.056683876 -0.0940308 0.10258568 -0.058226652 0.3307827
-0.050806575 -0.026196932 0.09121965 0.051483873 0.0053423415 0.14717953 0.35984027 -0.112505905
0.037617102 0.16685829 0.267023 0.20917813 0.004350059 0.22547746 -0.2576924 0.10939064
-0.19255047 -0.22330178 0.26999715 -0.12796533 0.114039704 0.037378117 -0.06491667 -0.102742545
0.040317614 0.007601649 0.04392532 0.312199 -0.11724657 0.23901828 -0.03628515 -0.10946705
-0.3450661 0.031470247 0.009218341 -0.074222825 0.15573792 -0.008198138 -0.0016115025 0.057457246
-0.15299027 0.17966032 -0.19778897 0.09125242 0.08877116 -0.24432345 0.14897777 0.19267033
0.11067733 -0.44320482 0.068210214 0.009653578 0.031131933 -0.10306649 0.2492489 0.028811272

actor_mean.2.bias f4 [64]
00000000: 29be 96bb d059 3dbd c9ae e4bd be20 c5bb
00000010: adc6 0cbb e68e f03c 0b03 093d 683b eb3c
00000020: c783 9bbd 1a34 89bc ed45 a73c c753 b93d
00000030: 0521 e7bd 56f8 963c 4584 91ba a6f8 883d
00000040: 00d5 353c 0c9a cf3d 83f8 4bbd c759 4ebd
00000050: 6960 a23d feb5 0abd 87fe b73d 4b6f 313d
00000060: 3ad8 863d 4c2d 973d 8114 e03d eeda ab3c
00000070: 0a65 70bd 294b e43c d6f0 b03c fd1d 99bd
00000080: 347e 2bbd 312d 79bc 5f4f cf3d 8185 cbbd
00000090: c433 6cbd 55d7 abbc b394 4c3d 10f2 d73c
000000a0: 300c e2bc 64a6 ab3d 779a 8bbd fe5f aabb
000000b0: 5530 883d 9858 313d b08a 1abc 645d 3b3d
000000c0: 1ea8 543d cc8b 33bd 22d4 923d 8a4b f13c
000000d0: cfb9 913c 874a d9bc 182f 1a3d 2048 563d
000000e0: e91b cc3c 7e57 9a3d 444e 5fbd 5ed3 03bd
000000f0: 37be 3cbd 7b83 6d3c f203 a03b c67d 09bd
-0.0046003056 -0.04622823 -0.1116615 -0.006015866 -0.0021480725 0.029365014 0.033450168 0.02871485
-0.07593494 -0.016748477 0.020419085 0.090491824 -0.11285595 0.018428963 -0.0011102041 0.06688051
0.011098146 0.10136804 -0.049797546 -0.050378587 0.07928545 -0.033864968 0.08984094 0.043319028
0.06584211 0.073816866 0.10941411 0.020978417 -0.05869011 0.02786787 0.021599215 -0.07476423
-0.041868404 -0.015208528 0.10122561 -0.09937573 -0.057666555 -0.020976702 0.049946498 0.026360542
-0.027593702 0.08381346 -0.06816571 -0.0051994314 0.066498436 0.04329738 -0.00943248 0.04574336
0.05191814 -0.043834493 0.071693674 0.029454965 0.017788796 -0.026524795 0.03764257 0.052314878
0.024915652 0.07536219 -0.054518 -0.032183997 -0.04607984 0.014496679 0.004883283 -0.033567213

actor_mean.4.weight f4 [2, 64]
00000000: 51fa 313d e67a a9bd bac5 01bc 9340 aabd
00000010: d7da d3bd e576 aa3d fa39 af3c aa97 ca3c
00000020: 9e1f aa3d 5552 e2bb cd97 e3bd 2560 42bc
00000030: 5c18 903d cb6a 1a3d b76c 44bd 2021 f53c
00000040: deef 4c3d 8198 0d3d 2438 d23b ca3b c1b8
00000050: 5bb8 c53d dbc3 1ebd 2ed2 543d f8e0 3e3c
00000060: dcf9 89bd 55a9 503d cc3b de3c 206a 523d
00000070: 5706 9ebd 50a4 9dbd 972d 0b3c f6d7 ae3d
00000080: aa28 43bc c9c5 5ebd fcc7 67bb 951c a43d
00000090: 920a ffbc 05fe eabd 979f 64bd a20a c4bc
000000a0: ed55 72bd c8c5 df3c c5b2 1f3d dbbd 093d
000000b0: 35a3 15bc 3249 873d ff9f 473d 1e08 973d
000000c0: e48b ef3c 147d 92bd 1099 0abd 6247 5cbd
000000d0: d65b 84bd d7cf 90bd 1ba6 e73b 870f 063d
000000e0: 1ed1 a13d bd34 cc3c 26e9 7d3d e627 7c3d
000000f0: 95d6 51bc b425 583c 9ea1 2abd 0ade c7bd
00000100: 5c72 0f3d fcd5 033d 2615 b7bd 4d78 d83b
00000110: dda4 953c e2dd 063d 22cf c1bd cd14 463d
00000120: 6ac3 53bd 6243 653d 2178 5cbc 26b5 fcbd
00000130: 959b 99bd 4fc1 8c3d e65a 8abc 771f 4b3d
00000140: 799b 6abd c370 67bd 5aa1 8f3d 94af a83c
00000150: 3c5d 5b3b 3be0 f13c fe6e 503d f27d b7bd
00000160: d740 3bbd 213e 633d b197 64bd d08e 8ebb
00000170: 9c02 6a3d 8c38 8dbd fb50 ab3d 8bb5 febd
00000180: f2e8 473d 5eea caba 68ee d53d 5420 d43c
00000190: b5ef 603d 9d18 89bb b959 b63c 9f06 afbc
000001a0: b30c 79bd 70de 553d 2394 83bd 214b 323d
000001b0: d138 24bc ed14 f53c 9035 afbd b77d 7d3d
000001c0: 10dd 79bd 6b53 a23d 8d2a 5f3d 42bc e2bd
000001d0: d327 d2bc 117e 9b3d 25b2 8dbd 43d5 00bd
000001e0: 2e73 79bc 01fe 02bd 491b e33d ad1b 373c
000001f0: 5dbb c63d ac33 18bd 5f4f b53c 0c6e 2dbd
0.04345161 -0.08275394 -0.007920677 -0.08313098 -0.10344475 0.083234586 0.02138995 0.024730522
0.08306812 -0.0069067874 -0.11112938 -0.011863743 0.07035896 0.037699502 -0.04795524 0.029923022
0.050033443 0.034569267 0.006415384 -9.214094e-05 0.09654304 -0.038761 0.051958255 0.011650316
-0.0673711 0.050942738 0.027128123 0.05137074 -0.07716053 -0.07697356 0.008494756 0.08537285
-0.011911551 -0.05438784 -0.0035367003 0.08013264 -0.03113297 -0.11474232 -0.05581626 -0.023930851
-0.059163976 0.02731599 0.038988847 0.033628326 -0.00913315 0.06605758 0.04873657 0.07374595
0.02924151 -0.07152763 -0.033837378 -0.053779013 -0.06462829 -0.07070892 0.007069362 0.03272965
0.07901214 0.024927491 0.061989926 0.061561488 -0.012807508 0.013192583 -0.041658036 -0.097591475
0.03502117 0.032186493 -0.089395806 0.006606138 0.01826709 0.032926448 -0.094633356 0.04835968
-0.051700033 0.055972464 -0.013456375 -0.12339239 -0.07500378 0.06872808 -0.016889047 0.049590554
-0.057277177 -0.056504022 0.07013197 0.020591535 0.003347232 0.029525867 0.0508871 -0.08959569
-0.045716133 0.055479173 -0.055808727 -0.0043505207 0.057131395 -0.06895551 0.08365055 -0.1243697
0.04880614 -0.0015481224 0.10445863 0.025894322 0.054916102 -0.0041838423 0.02225958 -0.021365462
-0.060803127 0.052214086 -0.06424739 0.04352868 -0.010023312 0.029917205 -0.08555138 0.06188747
-0.061001837 0.07926067 0.05448394 -0.110710636 -0.025653755 0.07592405 -0.06918744 -0.031453382
-0.015225215 -0.03198052 0.110891886 0.011176032 0.097037055 -0.037158653 0.022132574 -0.042341277

actor_mean.4.bias f4 [2]
00000000: 932a 96bb 184a b0bc
-0.004582712 -0.021519706
