fw_jsbgym/models/vanilla_tests/ppo_vanbeta_noatmo_nocaps_3277_30-04_19:16:57.pt (torch, 54376 bytes, 14 tensors)

actor_logstd f4 [1, 2]
00000000: 18cf db3e 8fb4 833e
0.42931437 0.25723693

conv.0.weight f4 [3, 1, 1, 1]
00000000: f99d 0640 76bf 41bf 6cfa c93e
2.103392 -0.7568277 0.3944887

conv.0.bias f4 [3]
00000000: 4c02 2e3d 57df 12bd 45b4 babb
0.04248266 -0.035857525 -0.0056977593

critic.0.weight f4 [64, 27]
00000000: 8ebf 00be ea5b 84be 4fee 8fbe 6598 943e
00000010: c82f 473d 193a 21bd bd86 aabd 9e95 4ebe
00000020: 79bb e63d 1f7f f8bd 1594 a93d c5a8 b9bc
00000030: 8daa e63d 782f e7bb 0687 edbd 2cd8 cf3e
00000040: ab5a ec3e 031f 913d 9ef3 b8be 8902 4ebd
00000050: 613e 9b3d e6fe 51be 8233 e13d 81b9 883e
00000060: e269 a13b b400 6dbd 6cb5 533e 472f 19be
00000070: 2b32 023e 37ba 643d aba1 5d3d 9d67 ab3d
00000080: ed83 693e 3ab9 1fbe b35b 93be 2ec0 8abe
00000090: b240 003e 807b 5e3e e2dc 02be c8ed 053e
000000a0: f326 6f3e 8958 423e b558 773d d216 9d3d
000000b0: f06c 22bd d2a8 20be adc9 0d3e fae5 0e3c
000000c0: 7965 903d 7a5f e2bd 4307 d8be 6f39 ca3d
000000d0: 8e3a 17bf e51b f1bb 9f4d bcbd 55f5 2b3e
000000e0: 0f6e 08be 1d2d bebd 9264 b4bd 5a74 fe3c
000000f0: d67a 25bd 6c7f 5bbb 2cbe 81be b0e2 5ebe
00000100: 4a3b d63e 5a69 a13d 362b 9abe fb23 f0bc
00000110: 8170 dbbd df50 8b3e c37d 543d 5966 d5bc
00000120: 6b89 613e 696b 90be 7bf6 92be f5e1 adbc
00000130: da45 6d3d 8793 523e dbb3 a03d b82c a2be
00000140: 2f3e 4a3d ada0 55be 5b44 fcbd 66ad 473e
00000150: fc18 09bc 3cc1 133e cc96 1ebe 4aba 5bbe
00000160: 023d 59be a13c 1a3e cfb1 abbc 5a75 323e
00000170: 9337 34be 6a42 ccbd a79f ce3d 7bb7 363e
00000180: 3424 80be 460f b73e 2a06 4e3e 70da c2be
00000190: 8503 0f3e cfc6 9b3e 7ba8 6dbe fecc 283e
000001a0: 4556 803d c5c3 94be 2d90 693e 66d1 6f3e
000001b0: 4947 823e f307 553d 74cc f93b a75e 6dbd
000001c0: e4b7 2fbe 524d f63d 4a94 ef3d c941 b43e
000001d0: 0dc1 083e 6ab3 843d eda2 18bc 0853 1e3f
000001e0: 4a3a c0bd fd7f dd3c 5c52 3c3e d137 48be
000001f0: 0eee 2fbd 7f43 8a3d 7b3d fd3d a5ea 8a3d
00000200: 061c 843d 7be5 243d ef24 903d 1bec 053e
00000210: b3f5 413e 8cfb 873d f743 173e 2814 8c3e
00000220: 4604 19be 315d 5d3d dc8f e93d 85b7 fd3d
00000230: 0c24 1b3e cf5b 40bd 6f42 3bbd d219 ce3d
00000240: 20e0 8bbe 9039 fd3e 29c7 35be 7a2c ddbe
00000250: 9a0a 4bbe 1624 debe 3da4 dabe fc18 56bd
00000260: c189 80bd 74be 433e 34d6 bc3e de33 a23e
00000270: e554 3b3e 724d 99bd 71c4 d43e 555b 153e
00000280: 481e 79be 34bd 93be 5f08 34be 8865 3b3e
00000290: 9815 bcbd faf3 06be 83a3 53be ce30 093c
000002a0: 9057 173f cc8c a9be 5fa7 0b3e 4b07 4cbd
000002b0: 3499 863e 950a 023e 1111 323d 8499 363d
000002c0: 7929 163b 46a8 f0be a835 2c3e e393 9f3d
000002d0: cbf1 a63e e0a5 57bd 2ac0 63bd 8d78 0dbe
000002e0: 77a0 053f a4d1 113e c9fa acbd 22dd e2bd
000002f0: b0bd 20bd c15f 0e3d 23a3 d93b b6f1 68be
00000300: 88d9 a2be 20ff 853c df96 92bc 4ce6 debe
00000310: e9d9 823d 4570 a8bd 01ae 333e c40b 15bd
00000320: 8067 89ba bfee 23be 29e9 43be 691e 113e
00000330: 3839 e03e 6b5c 5e3d 11b3 8d3e dea5 6abe
00000340: 6aa1 843d 1275 a4bd 7634 d7bd f800 ea3d
00000350: e6ce 35be 7dd0 12bd 5c03 13be 8ed4 a13d
00000360: 8b57 a33e 03a7 43be 45ba 203d 5c82 84be
00000370: 1bf2 4a3e 43bf 593e cfb8 763e 4f44 0ebe
00000380: 2221 a73e eeb3 4dbe db2a 91bd df39 8cbe
00000390: 6efe 5fbe 2b67 7c3e 57c8 81bd 8896 05be
000003a0: e2a6 613e 556e 553e a85b cabd aff1 01bd
000003b0: b7e4 803e 8a5d 193e 6019 c03d c9ba 3fbe
000003c0: 50d2 473d e4b3 b2bd 91f2 a5be 857e 6d3c
000003d0: 5717 29be 80b3 f8be 61c7 0abe 2870 3d3b
000003e0: e917 69be 1f31 98bd 4b2c 96be 6e50 9cbe
000003f0: 23b3 9abe c809 08be 5ec2 bebc 4279 563d
-0.12573072 -0.25851375 -0.28111503 0.29022518 0.048629552 -0.039362047 -0.083264805 -0.20174262
0.11266226 -0.121336214 0.082801975 -0.022663483 0.11262999 -0.0070552193 -0.11598019 0.40594614
0.46162924 0.07085993 -0.36123365 -0.050295386 0.07580257 -0.20507392 0.109961525 0.26704028
0.0049259523 -0.057862 0.20674676 -0.14959441 0.1271445 0.05584165 0.054109257 0.08369372
0.22804232 -0.15598002 -0.28780898 -0.27099746 0.1252468 0.21726799 -0.12779573 0.13078988
0.23354702 0.18979086 0.060387332 0.07670368 -0.039654672 -0.156894 0.13846464 0.008721823
0.070506044 -0.11053367 -0.4219304 0.09874236 -0.5907372 -0.0073580616 -0.091944925 0.16792805
-0.13323234 -0.092859484 -0.08808245 0.03106134 -0.04040035 -0.0033492697 -0.25340402 -0.21766162
0.4184211 0.07881422 -0.30111092 -0.029314032 -0.10714818 0.27210137 0.05187775 -0.02604978
0.22025077 -0.28206947 -0.28703675 -0.021225909 0.057927944 0.2056409 0.07846805 -0.31674743
0.04937571 -0.20862074 -0.12317725 0.1949974 -0.008367773 0.14429182 -0.15487212 -0.21457782
-0.21214679 0.1506219 -0.02095881 0.17427579 -0.17599325 -0.09973605 0.10089045 0.1784343
-0.2502762 0.3575384 0.20119539 -0.3805728 0.13966186 0.30425116 -0.23208801 0.16484448
0.062664546 -0.2905561 0.22808905 0.23419723 0.2544501 0.052009534 0.0076232497 -0.057951596
-0.17159992 0.120264664 0.11698206 0.3520644 0.13354893 0.06479533 -0.009316188 0.61845446
-0.09386118 0.027038569 0.18390793 -0.19552542 -0.042951636 0.06751155 0.12365242 0.06783036
0.064506575 0.040257912 0.070382945 0.13078348 0.18941383 0.06639776 0.1477202 0.27359128
-0.14943036 0.054043952 0.11404392 0.12388519 0.1515047 -0.046962555 -0.045717653 0.100635186
-0.2731943 0.4945798 -0.17751755 -0.43197995 -0.19828263 -0.43386906 -0.4270343 -0.05226992
-0.062762745 0.19115621 0.36882174 0.31680197 0.18294103 -0.07485475 0.41556123 0.14585622
-0.24327958 -0.28855288 -0.17581318 0.1830045 -0.09183806 -0.13179007 -0.20667844 0.008373452
0.59117985 -0.33115232 0.13638066 -0.049811643 0.2628876 0.12699349 0.043473307 0.044579998
0.0022912903 -0.47003382 0.16817343 0.07791879 0.32606348 -0.052648425 -0.055603184 -0.13815518
0.52197975 0.14240128 -0.08446271 -0.11077334 -0.0392434 0.034759287 0.006641762 -0.22748455
-0.31806588 0.016357005 -0.017894207 -0.43535078 0.06389219 -0.08224539 0.17546846 -0.036388174
-0.0010483116 -0.16009043 -0.19131912 0.14171757 0.43793654 0.054287355 0.2767568 -0.22914836
0.064761 -0.08030142 -0.10508053 0.11425966 -0.17754707 -0.03584336 -0.1435675 0.0790187
0.31902727 -0.19106679 0.03924014 -0.25880706 0.19818918 0.21264367 0.24093936 -0.13893245
0.32642466 -0.20088169 -0.07088252 -0.27387902 -0.21874401 0.2464873 -0.0633704 -0.13045704
0.22036317 0.2084287 -0.09880763 -0.031724628 0.25174496 0.14977089 0.0937984 -0.18723597
0.048784554 -0.08725718 -0.32411626 0.014495497 -0.1651281 -0.48574448 -0.1355262 0.0028905962
-0.22763027 -0.07431244 -0.29330668 -0.30530113 -0.30214795 -0.13284981 -0.02328604 0.052361734

critic.0.bias f4 [64]
00000000: f2b7 f43c 68af 3b3d ca57 6bbc 9b1e 6a3d
00000010: 52d6 d0bc 50ec 083e 209d adbd 81a8 c8bc
00000020: 558f a13d 32fa c7bd 6051 6a3d 8cf8 afbd
00000030: 37ad 2e3c 8505 b23b 17b3 61bd 7b07 41bc
00000040: 0f30 ad3a 3ddd ca3c 7c70 ebbc 11a0 debc
00000050: e807 c73d 3b4c 973d 1830 0bbc d8ba c13d
00000060: 1c42 823d 316c 4f3d 8c6f 33bc 36c9 463d
00000070: b461 19bd c071 79bd 3814 f13b d943 5dbc
00000080: 2e9d 213c 1aee 1ebd 1583 2ebd c394 d03c
00000090: bce2 0bbe c91d 32be f842 93bc 84bd 9f3c
000000a0: 14f2 61bd 5144 b7bc 4f5c 113d 087e f7bc
000000b0: 437a 12bd 818b 35bd 5e47 ecbb 3ad8 f9bd
000000c0: c996 993c da52 d9bc 6a06 c4bd 2553 66bc
000000d0: 49cf 223d 3e68 da3c da32 ed3d fa9e 5c3d
000000e0: 231c 803d 787e a3bd 9283 06bd 204a 87bd
000000f0: ff5d e43c 790c cdbc 099c 493d 4c11 3fbd
0.029872868 0.045821577 -0.014364192 0.057158094 -0.02549282 0.13371396 -0.08477235 -0.024494411
0.078886665 -0.09764518 0.05720651 -0.085923284 0.010661415 0.005432787 -0.055102434 -0.011781569
0.0013213175 0.024763698 -0.02874016 -0.027175935 0.09718305 0.07387587 -0.008495353 0.09459466
0.063602656 0.05064029 -0.010951888 0.048531733 -0.037446693 -0.060899496 0.0073571466 -0.013504946
0.009864135 -0.03880129 -0.04260548 0.02546156 -0.13660711 -0.17394175 -0.01797627 0.019499548
-0.055162504 -0.022371443 0.035488423 -0.030211464 -0.03576113 -0.044322494 -0.007210656 -0.12199445
0.018748658 -0.026528765 -0.09571536 -0.014057909 0.039748464 0.026661035 0.11581965 0.05386255
0.06255367 -0.079831064 -0.03284032 -0.06605935 0.027876852 -0.025030361 0.049221072 -0.046647355

critic.2.weight f4 [64, 64]
00000000: 00f5 463e 9de0 5cbe 3cfc dcbe 167e aebe
00000010: 0cc9 29be 73f7 453e 5c86 e1be 2c2c 34be
00000020: 227d ba3e bd8c b4bc 2934 48bd 466c 083b
00000030: 455d cbbd 3260 d8bd 2583 b13d c09c 43be
00000040: e99c 7abd 1432 723d b6e2 a2bd 509a 22be
00000050: bf0b e43d 9339 ea3d ad21 32bd e219 e9bc
00000060: 271f b43e 5862 99be 06ed 003d efaa cf3e
00000070: c6cb 42be 1b79 553e 16ae 6bbe ec51 0ebc
00000080: a132 e33d 8499 c43c c23d 68be de72 af3d
00000090: 5c01 7ebd ff86 b83d 96fb 283e e563 adbd
000000a0: 966a d2bd 6137 65be b26e f13d 1a8f 2e3d
000000b0: 9c68 833d e97a 84be 0abb 84bd 32a1 783e
000000c0: ad03 bb3e 9af5 07bc 9164 60be 7919 8f3e
000000d0: 104f a13d a2c7 71bc e440 6c3d f861 aebd
000000e0: e54c 30be 44bf aebd 8bc7 bfbd 0b67 72bd
000000f0: 3906 fdbd ec62 62be 2724 463e de09 29be
00000100: 2b22 933e a338 b7bd f068 0f3e 6d8c 35be
00000110: 7e11 57bd 8e68 01be 1b55 1abe 54c3 c53d
00000120: 8564 d63b d11a 913e fa8a 79bd fe07 573e
00000130: 5cb3 dbbd 1a83 823e cc7e 233b 4bcd bb3d
00000140: adf3 41be 254d 973e 95fb b8be ae1b fabd
00000150: aa65 43be 2199 97be 32ce 963d 2e90 963e
00000160: 4699 93be 2b1b 733e c52e 1c3e 92f0 c7bd
00000170: 541e e43d 4f98 99be 0a65 983e 077e 1b3e
00000180: abbe 2c3e 48d9 2ebe 9cce 74be 5a41 65bd
00000190: 156e 5abd a44f 853e f2ec fcbd 6d49 65bd
000001a0: 7b4d a0bc a5ce 0c3e 791f a53d 3bef ae3d
000001b0: 56f8 593e 659d 323d 3813 4bbe 07fb b2bc
000001c0: a44c efbd de21 ad3d 8de5 ad3d 3c8c 403e
000001d0: fce6 a63e b7d5 f43c 998d 53be 507d d5ba
000001e0: f811 14be f248 febd 6250 43be 7d59 e23e
000001f0: d402 0ebc 28ef fdbd aa28 1d3d a940 29be
00000200: 4708 13be 0cd6 92be e490 f13c bf36 b5be
00000210: 94e2 213e 18b9 aebd e855 9c3d 67d9 c8bd
00000220: df51 933d 32fd 78be 3f3e 58bd 39ce 1abe
00000230: ea2d 23bf 5ef5 883e 7bae be3d 4bb4 75be
00000240: cb6c 39be ce42 96bd eecc 403e ac79 59be
00000250: 26ae 49be 4fa0 4e3e 0b44 30be 5e4b 083e
00000260: 1619 85bc c528 fbbd 2d01 dd3e 3784 debd
00000270: 6927 713d f0b8 85bd 6a9c 97be eb54 d8bc
00000280: fba6 dc3d 9bc4 dcbd 4323 12bd 8cf5 0b3e
00000290: c82c abbd b06a 9e3d 8afd 773d 297b 823e
000002a0: af6a c13c 440b 29be 32ea 853d a1bd e83c
000002b0: d2c6 abbd c59c 533d 43ed 8a3e 345d a3be
000002c0: d547 b8bc c726 683e 8cdd 963d dfd3 04bd
000002d0: 3cdc d63d b79f 4f3e b906 0b3c f769 bb3e
000002e0: 1a7c 533d f58a 37be 5343 09be 2d41 f83d
000002f0: d7d1 d23e d3b4 473d 4002 79bc d7c0 403e
00000300: de03 82be 0b29 d43c 5d40 a1be 78fd c9bd
00000310: 35a2 88bd 59fd 363d 6ccf a4bc d264 5c3c
00000320: a9ba 8e3c ea5b 4b3e 4c4c d43d accc 6ebd
00000330: 3e6e 42be a99d 84be ea8e 263d cdee ae3e
00000340: 932d 0fbe 675d e7be 6ab8 adbe 884a 3c3e
00000350: dadc 85be 49d1 e3bd 2ec6 cabe 4118 5fbe
00000360: 491c 633d 0116 e53d b62e 353d eb06 febd
00000370: 8e48 b6be c9c7 2c3d 78d4 4e3c 96be 33bb
00000380: 974f 9f3e a7b6 f23d 859a bd3b edcd ad3d
00000390: 5b43 0e3e b3e6 5ebd 6cfe 093c c431 323e
000003a0: ab72 d63d 0831 973d 8ffc fa3d eb87 a0bd
000003b0: 226c e5bd 9f34 943e af49 22be 9d17 233e
000003c0: a9b2 6ebe 6adf 0fbd c7cd ca3d cc2e d93d
000003d0: 9d5f 6a3e 8a4e db3d 27db be3e 3a99 f03c
000003e0: 94f9 8a3d b8c1 23be 9765 ac3d fd58 02be
000003f0: af84 3a3e eb8c 0ebe 2983 343e fb52 73bd
0.19429398 -0.21570058 -0.4316119 -0.3408057 -0.165806 0.19332676 -0.4404782 -0.17594975
0.36423594 -0.022039765 -0.04887787 0.002081649 -0.09929899 -0.10565223 0.08667592 -0.19102764
-0.061184797 0.05912979 -0.07953398 -0.15879178 0.11135053 0.11436763 -0.043489147 -0.028454725
0.35180017 -0.29957843 0.031476043 0.405601 -0.19023046 0.2084698 -0.23015627 -0.008686524
0.11093641 0.023998983 -0.22679809 0.08566831 -0.062013015 0.090101235 0.16502222 -0.08466319
-0.10274236 -0.22384407 0.117886916 0.04261694 0.06416437 -0.25875023 -0.06480987 0.24280241
0.36526242 -0.008298302 -0.21913363 0.27949122 0.07876408 -0.014757069 0.057679072 -0.0851478
-0.17216833 -0.08532575 -0.09364232 -0.0591803 -0.123547025 -0.22108048 0.19349729 -0.1650767
0.28737006 -0.089463495 0.14004874 -0.1772935 -0.052506916 -0.1263754 -0.15071528 0.096563965
0.0065427446 0.28340772 -0.060923554 0.20999143 -0.107275695 0.25490648 0.0024947403 0.09170016
-0.18940611 0.29551044 -0.36129442 -0.12212311 -0.1908175 -0.29609016 0.073635474 0.29406875
-0.28827876 0.23740833 0.15252216 -0.09762682 0.11138597 -0.29999015 0.29764587 0.15184794
0.16869609 -0.17075074 -0.2390694 -0.055970527 -0.05332764 0.26037323 -0.12349881 -0.055978227
-0.019568196 0.13750704 0.080626436 0.08541723 0.21286139 0.043607134 -0.1983155 -0.021848215
-0.1168454 0.08453725 0.08491049 0.18803495 0.32598102 0.029887063 -0.20659484 -0.0016287956
-0.1445998 -0.12416257 -0.19073632 0.442089 -0.008667666 -0.12399131 0.03836886 -0.16528572
-0.14358626 -0.2867893 0.029488035 -0.3539333 0.15809089 -0.085313976 0.07633573 -0.09807091
0.0719335 -0.24315336 -0.052793738 -0.1511773 -0.63741934 0.267497 0.09310623 -0.23994558
-0.18107907 -0.07336961 0.18828174 -0.2123782 -0.19695339 0.2017834 -0.17213456 0.1331
-0.016247313 -0.122636355 0.4316496 -0.10865062 0.058875475 -0.06529415 -0.29611522 -0.02640768
0.107740365 -0.10779687 -0.03567816 0.13667887 -0.08358151 0.07735193 0.060544528 0.2548459
0.023610441 -0.16508204 0.0653881 0.028410735 -0.08387531 0.05166318 0.2713414 -0.31907046
-0.02249519 0.22671042 0.073664755 -0.03242862 0.10491225 0.2027577 0.0084854895 0.36604282
0.051632024 -0.17924102 -0.13404588 0.12121806 0.4117572 0.04875643 -0.01519829 0.18823563
-0.25393575 0.025898477 -0.31494418 -0.098627985 -0.066715635 0.044675205 -0.020118438 0.013451772
0.01742299 0.19859281 0.10366115 -0.05830066 -0.18987367 -0.25901535 0.040663637 0.34166566
-0.13982229 -0.45188448 -0.3392976 0.18387806 -0.2614506 -0.11123902 -0.39604324 -0.21786596
0.055446897 0.111858375 0.044234 -0.12403663 -0.3560223 0.042182717 0.012623899 -0.002742683
0.3111541 0.118512444 0.0057862424 0.08486543 0.13892882 -0.05441923 0.008422475 0.17401797
0.1047109 0.07382399 0.12255203 -0.07838424 -0.11202265 0.28946397 -0.1584842 0.15926977
-0.23310341 -0.035125174 0.0990253 0.10604629 0.22888036 0.107083395 0.37276575 0.02936994
0.067858845 -0.15991867 0.08417814 -0.12729259 0.18214677 -0.13920943 0.17628159 -0.05940531

critic.2.bias f4 [64]
00000000: 9fbb 923d 6990 99bc 9170 14bc 3040 113d
00000010: 73cf 3cbd 063d 0dbd 9798 0b3a 3c69 cebd
00000020: 4043 013d 1e32 28bd 8344 993d 680f 3dbc
00000030: bc91 2bbd fdd2 a8bc fbc0 fa3b 81a9 623d
00000040: 0f6b 0ebd a636 943c f872 a8bc fcde 48bb
00000050: 4633 0a3d d6f6 a53c 4688 7e3c c522 f73d
00000060: 7d44 9d3c 1026 53ba 29d9 b5bc 819d 26bb
00000070: 4a81 4b3d ddaf 48bd d083 10bd b424 91bd
00000080: ad76 8a3d 5e02 a83d b2c5 24bc b6be 073c
00000090: 3b6c 803c 824f 703a b137 c33c 2b28 a2bd
000000a0: d11f c63c 883f d13d 27c0 003b cac8 883c
000000b0: b72f 0a3d 0dde c03c da91 b83c 6ac5 b8bd
000000c0: 164e ccbd ded9 cfbc b6ee f4bb e7c5 04bd
000000d0: 0deb c23d 2566 93bd 7fec 7ebc 1410 e73c
000000e0: ee4d 853c e618 843d a6dc 323d e91d 9fbd
000000f0: 4452 69bc 80b0 1c3d f895 8f3d 532d 373c
0.07164692 -0.018745618 -0.009060041 0.035461605 -0.046096276 -0.034482025 0.0005325167 -0.100786656
0.031558275 -0.04106342 0.07483771 -0.011539318 -0.04188703 -0.02060842 0.0076523996 0.055337433
-0.034770068 0.018092465 -0.020562634 -0.0030650487 0.033740304 0.020259302 0.01553542 0.12067179
0.019197697 -0.0008054683 -0.022198277 -0.002542347 0.049683847 -0.04899584 -0.035281956 -0.07087079
0.06760917 0.082035765 -0.0100569 0.008285215 0.015676608 0.0009167121 0.023830267 -0.07917818
0.024185093 0.10217196 0.0019645782 0.016697306 0.03373691 0.023543382 0.022530485 -0.09022029
-0.09975831 -0.025372442 -0.0074747456 -0.032415297 0.09517489 -0.07197217 -0.015559315 0.028205909
0.016272511 0.064500615 0.043667458 -0.07769377 -0.014240805 0.03825426 0.07011026 0.01118024

critic.4.weight f4 [1, 64]
00000000: b28b f5bd c639 0dbd 6a74 b23d bc33 bcbc
00000010: 13ee c53d 6bcd a3bc 5a75 10be 70b1 163e
00000020: dfad 7dbd 2558 133e 5d65 05be 8f17 093e
00000030: bd05 f63d 33d3 ee3c 92a6 323d fb7d 27bd
00000040: 0a4d e93d c0f1 26bd 0930 ff3c 37a0 673e
00000050: 1305 8a3e c08b d9bc e6fe 25bd ed41 dfbd
00000060: 9afd a7bd 811f 73bc 4e25 9f3d bb1b f23c
00000070: aca3 29be 2769 583d 4f6d 9e3d 2061 4c3e
00000080: 6d93 7dbe 2b15 16be 674c 673e 523f bf3d
00000090: a140 d3bd 4b33 573e 7784 a3bc 4bdc 9a3d
000000a0: 2171 edbd 8835 41be 6cfb 47bd b5cb 18be
000000b0: c6bf 9fbe 5c14 f3bb c6aa b3be 7d84 7a3d
000000c0: b62d 4e3e c198 f93d 6a02 4ebe 76fa 073e
000000d0: 6517 1cbe 3bb3 dc3c 8c9d debe eb9e a2be
000000e0: 71af 53bd 3883 45bd 8096 11be 6e4a e43d
000000f0: 0cb1 853e a65d 94bd 86d6 f1bd e85c efbd
-0.119895354 -0.034478925 0.087136105 -0.022973888 0.0966455 -0.019995412 -0.14107266 0.14716125
-0.061933395 0.14389093 -0.13026948 0.13387893 0.12012813 0.029153442 0.043615885 -0.04089163
0.11391647 -0.040757895 0.031150835 0.22619711 0.26956996 -0.026555896 -0.040526293 -0.10901246
-0.082026675 -0.014839054 0.07770787 0.029554239 -0.16566342 0.052834656 0.07735693 0.19958925
-0.2476327 -0.14656512 0.22587739 0.09338249 -0.10315061 0.2101566 -0.019960625 0.07561549
-0.11593843 -0.18868077 -0.04882376 -0.14921458 -0.31201 -0.0074181985 -0.35091227 0.061161507
0.20134625 0.121873386 -0.20118108 0.13279137 -0.152433 0.026940932 -0.43479574 -0.3176187
-0.051680986 -0.048220843 -0.14217567 0.11147009 0.2611164 -0.072444245 -0.11808495 -0.11687642

actor_mean.0.weight f4 [64, 27]
00000000: 0b91 fcbd d1d5 bf3e d080 933c b50c bdbd
00000010: 286d ccbc 38fd f0bd ed9e 143d 445e c13d
00000020: 662b 923d 1e79 07be 2f6f 133d 9975 7fbe
00000030: 1e7b 5b3d 7ce9 1ebe 9efd 1f3e 44f9 41be
00000040: 171c 8abd 51f0 4bbd b23e 8e3e 7573 073f
00000050: 3959 ea3d ed86 1c3e eec4 d3be 5a2e 3bbc
00000060: 4c0d 00bd 8506 0abd 57c1 b1be 85bf d1bd
00000070: fa78 dfbd b121 febc ae57 0d3e 49d7 fbbc
00000080: e87b d03d abfa 303f 916b 3fbe 8568 283e
00000090: a8f4 15be e4e9 793e e7a5 563e 3300 3ebe
000000a0: e75f 2abe 081a b1be 6ff9 cd3c 6bed 883e
000000b0: 45ab f9bd 2425 a1bd 8b2c 9abe 3d3d dcbc
000000c0: 8138 df3d fd94 873e 5984 a93a 905b f93d
000000d0: 27e1 7a3d 1066 b13d cb99 48be 9c1c 253e
000000e0: 4ce5 a83d f327 ad3e 2108 023f e949 39be
000000f0: af2c fb3b d1ab 08bf eed0 28be 3707 52be
00000100: c89f f2bc a537 083e 3215 6abd 88be 92be
00000110: 48ec e4bd f6cf 03bd 201c 103f b9f0 853e
00000120: 8da2 b9bd 7aee b83d 17df b2bc de05 98be
00000130: 1d8b e63d 69db 67bd 6866 963d d89a debe
00000140: 5b5b 31be cbaa 7bbe db3d aabe f535 97be
00000150: 03e7 103e de2d 3e3d 7c99 1fbd 6ac7 78be
00000160: da4e a5bd eb4d 223e 9f78 4d3e 2051 0a3f
00000170: 8c15 c83c 82a5 753e b9f2 c83e d268 0a3e
00000180: bef4 dd3c b6b0 383e e268 4bbe 1172 10be
00000190: 44b1 37be a527 803d 7641 bc3b 9785 e4bc
000001a0: c08b af3d fdb9 dcbe 0a9a 5dbd adef bbbd
000001b0: 65d7 eebc ed59 47be 7f66 d93d ebd2 0cbc
000001c0: 2f3d 453d 79ce 693e 28b4 febe fb65 13be
000001d0: f390 91be e78f adbe ffe9 2b3e e6a3 9bbd
000001e0: a7f3 783e 85b6 d03b 929c 113e b708 1bbd
000001f0: 6824 883c 1e07 aabd e964 59bd ed30 ddbc
00000200: 4379 4f3e 8065 9abe c528 37be cc6d 8bbe
00000210: ab2b c1bd 18ae 07bd d53b 323e 49b9 703e
00000220: 1718 97bd 59d4 16be 91ee a73e b4a6 f0bd
00000230: 0b15 b4bd 23b2 a83e 1f5a fcbe 9c7d 9cbd
00000240: 450e 423d 2bdc 2b3e e793 e63d 714f 1f3e
00000250: b246 fdbd 1609 403d 02e1 05bd a4d0 a43e
00000260: d74e 85bb c717 5c3e 06f4 febd 0f21 44bc
00000270: f5af 0e3e 7ae1 253e e2b5 2fbe b604 1c3e
00000280: ab4c 18be e445 4d3e 4536 f0bd 9f97 0a3d
00000290: 8a3f a4be 92cb debd fa85 173e 73ca cfbd
000002a0: 78d9 b43e 7160 e4be dae4 cc3b 0f85 893e
000002b0: 3822 cabd 6f30 48be 4c2a 3dbd 0609 40be
000002c0: 8949 883b dae6 3ebd c2a2 9c3e 67b8 7bbe
000002d0: 22bc dcbd cbdf 2cbe f5b4 973e e4a6 11be
000002e0: 94a6 153e a819 2f3d a701 a43b 4d81 5cbe
000002f0: 58b4 8a3d 5188 0cbf 01a4 a03e 2c1b 5f3d
00000300: d8e7 a13d e866 dabe 4581 29bc cbfd 443e
00000310: ba05 34bd 22cc 81be 3857 9c3e e7e0 753e
00000320: f2bd 8dbe 6ca5 adbd c842 4b3e 8195 5ebd
00000330: 695a 61be d6ed e8bd 4737 633d 03da 843d
00000340: 0e98 2b3e eef9 f63d 35cc b0be 1846 8fbe
00000350: d112 a1bc 57f2 883e f12d b83e 9ff3 e23d
00000360: e7ce 393d 6e72 ccbd b59f d0bd 95b8 ac3d
00000370: 1681 05be 1b4c 20be 4c9e bbbd 949f 10bf
00000380: 6f6c 583e 1f35 2e3e ef86 f43d 0d62 c0bd
00000390: ed1f 3a3e 316b 54be 1bb8 a33d 7ddd e43d
000003a0: 0df6 f73e e3eb 063e 0001 f8ba 94d9 4f3e
000003b0: 2d6c ec3d 3513 bcbd e8ae 593e 68b0 a3bd
000003c0: f16c 473e 127c 99be 161d e43d f7d1 2abe
000003d0: 67cf f53d 1483 563e 28a5 1abd 961e 793d
000003e0: 61e3 8b3e b8de 02be ac89 8a3e 21e3 9abe
000003f0: ce81 b23e d5ce 81bd b934 953e 8d38 07bf
-0.12332352 0.37467816 0.018005759 -0.09230939 -0.024954394 -0.11767048 0.036284376 0.09441808
0.07137184 -0.13229796 0.035994705 -0.24947204 0.05358421 -0.15518755 0.15624091 -0.18942744
-0.06743639 -0.04978973 0.27782208 0.5291055 0.11442799 0.15285845 -0.41361183 -0.011424625
-0.03126268 -0.033697624 -0.3471782 -0.102416076 -0.10911746 -0.031021925 0.13802978 -0.030742304
0.10179883 0.6913249 -0.18693377 0.16446121 -0.1464411 0.24405628 0.20961724 -0.18554763
-0.16638146 -0.34590173 0.025143353 0.26743636 -0.1219087 -0.07868412 -0.3011211 -0.02688467
0.10899449 0.26480857 0.001293312 0.12175667 0.06124988 0.08662045 -0.19589917 0.16124195
0.0824686 0.3381954 0.50793654 -0.180946 0.007665239 -0.5338717 -0.1648595 -0.20510565
-0.029617205 0.13302477 -0.05714912 -0.2866099 -0.111778796 -0.03218075 0.56292915 0.2616022
-0.09064207 0.09029861 -0.021834893 -0.29691976 0.112570025 -0.05660573 0.07343751 -0.4347751
-0.17320006 -0.24576871 -0.33250317 -0.29533353 0.14150624 0.04643046 -0.038964733 -0.2429482
-0.0807168 0.15850036 0.20065545 0.54030037 0.024424337 0.23988917 0.39247683 0.13516548
0.027094241 0.1803616 -0.19864228 -0.14106013 -0.17938715 0.062575616 0.0057451082 -0.027895732
0.08571577 -0.43110648 -0.05410198 -0.09176574 -0.029155442 -0.19467898 0.10615253 -0.008595209
0.048154052 0.2283267 -0.49746823 -0.14394371 -0.284309 -0.3389885 0.16788481 -0.075996205
0.24311696 0.0063694143 0.14219883 -0.037850108 0.016618922 -0.08302139 -0.05307475 -0.027000869
0.20261101 -0.30155563 -0.17886646 -0.27232206 -0.09432157 -0.033125013 0.17405637 0.2350818
-0.07377642 -0.14729442 0.327992 -0.11750546 -0.08793076 0.32948408 -0.49287507 -0.076411456
0.04737689 0.16783206 0.11258679 0.15557648 -0.12367 0.046883665 -0.032685287 0.3219043
-0.0040682363 0.21493445 -0.124488875 -0.011970772 0.1393431 0.16199294 -0.17159227 0.15236172
-0.14872997 0.20046192 -0.11729101 0.033836003 -0.32079726 -0.10878672 0.14797202 -0.10146036
0.35322165 -0.4460483 0.006252867 0.26859328 -0.09869808 -0.19549726 -0.046182916 -0.18753442
0.0041591567 -0.046606876 0.30592924 -0.24582063 -0.10778071 -0.16882245 0.29630247 -0.1422382
0.14614326 0.042749077 0.00500508 -0.215337 0.06772679 -0.548955 0.31375125 0.054469272
0.07905549 -0.42656636 -0.010345762 0.1923744 -0.043950774 -0.25351053 0.30535293 0.24011575
-0.2768398 -0.08478817 0.19849694 -0.054341797 -0.22007145 -0.113734886 0.05547264 0.06486895
0.16757223 0.12059389 -0.34530798 -0.27983165 -0.019662293 0.2674739 0.3597255 0.11081623
0.045363333 -0.09982763 -0.10186712 0.08433644 -0.13037524 -0.15654032 -0.09161052 -0.56493497
0.21135114 0.17012452 0.11939799 -0.09393702 0.18176241 -0.20744015 0.079941 0.11175058
0.4842991 0.13175921 -0.0018921196 0.20297843 0.115440704 -0.09183351 0.21258128 -0.07992631
0.19475152 -0.2997747 0.1113836 -0.16681658 0.120024495 0.2094844 -0.03775516 0.060820185
0.27321914 -0.12780273 0.2705816 -0.3025141 0.34864658 -0.06338278 0.29141787 -0.52820665

actor_mean.0.bias f4 [64]
00000000: c377 16bb dbca 8739 acff 4abd 8ed0 5dbd
00000010: e4d8 ac3d 4ce5 94bb 8303 8fbd 8da1 d33c
00000020: e594 403c 4114 fe3b dc76 e3bc e906 243c
00000030: f126 0c3d e7b8 50bd eacc d2bc fc2a 863b
00000040: eedb c5bc 9d88 443c 5195 b5bc 8bf4 21bb
00000050: 13b5 363d d3a8 4e3d 3603 ef3b 6a1d 253d
00000060: 7f66 50bd 0939 febc d375 0a3c b203 653d
00000070: 94fc 74bc a0fd 1abb 1062 e1bb 4ef6 8e3d
00000080: 54c0 b23c 56b2 7d3c 568f 503d ab60 eebc
00000090: 6fb6 f43c 80c1 743c 7b17 b2bc 0b9f 97bd
000000a0: 7ab2 07bd 1586 c1bd 7eaa 6ebc 1b1f f7bd
000000b0: 8ca1 90bd 28d3 213d 70f5 d13c bfaa ceba
000000c0: 56c9 743a 1265 843b 6a07 bd3c 99a1 4ebb
000000d0: b748 5c3c 38c9 35bd 185a 003d 97e2 a53c
000000e0: 5071 c3bb 335f 503d 352c 1a3c 2d84 c33b
000000f0: f6ed 4a3c e010 543d 9787 64bd 095b 043d
-0.0022959567 0.00025900346 -0.049560234 -0.05415397 0.08439806 -0.004543936 -0.06983092 0.02583387
0.011754249 0.0077538793 -0.027766638 0.010011413 0.034216825 -0.050957587 -0.025732476 0.0040944796
-0.024152722 0.011995462 -0.022165926 -0.002471241 0.04460628 0.050453972 0.007294084 0.040311255
-0.050878998 -0.031033056 0.008450943 0.055911727 -0.014952797 -0.0023649707 -0.006878145 0.06980573
0.021820225 0.015484413 0.050917946 -0.02909883 0.029872147 0.014938712 -0.021739712 -0.07403382
-0.033129193 -0.09449402 -0.014567016 -0.1206648 -0.070620626 0.039508015 0.025629729 -0.0015767439
0.0009337863 0.004040369 0.023074824 -0.0031529425 0.013445071 -0.04438135 0.03133592 0.020249648
-0.0059644356 0.05087204 0.009409954 0.0059666843 0.012385836 0.051773906 -0.05579337 0.03231338

actor_mean.2.weight f4 [64, 64]
00000000: 605d 873d bd0f ecbe a6cf 043e 4a6c c3bd
00000010: 5ad7 3a3e 9860 f7bd 9e0b 88bd a96f 14be
00000020: 5151 e0bd 1cc6 143e b417 d2be 51d4 edbe
00000030: 41b4 b3bd 53ac 973e 1f5c a13d 5cc9 b4bd
00000040: 1642 be3e 0a37 dc3e 8f6d a23d e7e0 febb
00000050: 6b52 8e3d bc74 22be 01ec 43be 5451 ad3e
00000060: ae33 97be 2585 813d e03b 5d3e c9d5 65bd
00000070: 6f2e acbe c666 dabc ac91 143e f026 25be
00000080: f2ad d5bd 2ec0 8bbe da82 603d bc76 3d3e
00000090: 60a9 08bd 1371 e3be cc41 0dbd 3a4a e03d
000000a0: 4407 91be 5b3c ee3c beeb 87be 2e1f 9e3e
000000b0: b6ac 283e f1b1 883e 3424 0a3e d379 93bd
000000c0: 7bf0 133e 6247 33be 90a3 8ebe 4a4a ffbd
000000d0: 8e29 0cbe 9efd 1abd a99b acbd 06f5 80be
000000e0: ad4c d93c 0bba 66be 157e 24be f96c 273e
000000f0: 4d93 35bd 3bfa 48bd a040 74be 1655 0ebd
00000100: 5696 8e3e 64c5 95be a3fe 4bbd 873b 8fbe
00000110: a81e ec3c 2a2d d4bd 84de 88bd cc18 5bbe
00000120: 31a4 60be a6c4 163e 216e 9cbd 6f0f 883e
00000130: 78be f6bd 7eb6 12be f635 043e 6d5f 7fbc
00000140: 743f b73c 70bc 0abd 1735 213e a8fe 0c3e
00000150: 246b 99be c8fb 91be 7961 c7be dd73 23bb
00000160: c3f0 b23e aece 053e 8179 a23e 9874 05bb
00000170: 5759 b9bd 9986 f7bd 6830 e63e bfe0 40bd
00000180: 57ae b73d 59d2 a43e 6bec 20be f188 a13d
00000190: 3ba2 623e 629d 1e3e 9fab f3bd ebe9 783d
000001a0: 7be3 98bd 697c 563d e991 6e3e 4310 66be
000001b0: e751 f43d d947 973e 2c67 ab3c 9d1d 64bd
000001c0: 2d5e 1f3d d19b ebbd b29b 423c 2ab0 8dbc
000001d0: e4be b4be b9e2 c23d bea3 02be a13e fbbc
000001e0: ee36 e7bd 8f5c 6bbd 61c1 863c 8cf6 853d
000001f0: adc8 26bd 9dfc 20be 16a6 b93e 555b 333e
00000200: 28c5 51be f3f0 b13e 2db0 9d3d 9718 bc3c
00000210: bd33 b4be 54bc 573e 999f 733e c9e9 febc
00000220: 4750 2b3e 06d5 353e 9fbb 413e dc89 9e3c
00000230: d444 343e 7ab3 47be dc4d 9d3e ebd4 80be
00000240: 3fee 293e 6f93 97bc e3ee dc3d 1afb 7c3d
00000250: 94dc 403e 3125 86bb 02ed 7a3b ef47 ab3c
00000260: 5bdc 5c3d 48c1 063e 7306 d33c a459 72be
00000270: da96 03be 0e63 133e ea53 15be 47b7 213e
00000280: 88a7 b3be c960 9fbe d59c a23e 35af c23c
00000290: 6aeb 763e 3e29 61be 74ea 003f 0e74 fdbe
000002a0: 8386 ec3d 28e0 9abd 6bbe 9c3b 1c93 fcbd
000002b0: 323d 983d cc90 99bd 8876 bcbd 7d55 523d
000002c0: df0d c4bb 842d 353e bb31 063f 7906 0bbe
000002d0: 97e6 b0be 2868 073e 45a5 e0bd d750 a4be
000002e0: 0ed7 11be d6c3 993d c02a e9bd 0598 1bbe
000002f0: b734 8d3e a70b ef3e cc4f 7a3e 148a 373e
00000300: 5a9f 923d 3076 cb3d b326 c53e b918 db39
00000310: 1297 9dbe 94ed 1fbe 3703 8abd 115a 9cbd
00000320: 9c58 04bd 29c9 443e dfe7 ca3d 7d3a 4639
00000330: db8d 1cbe 604d 0abe a187 5ebd 70ef 353e
00000340: 9ab0 063e 4852 6bbe 2735 bdbd 4705 9ebd
00000350: 575c ba3e b7ef 7c3d 60f5 273e 09ab 8b3d
00000360: 80f1 debd 7da1 863e 47f5 06bf 2226 2e3d
00000370: 2e77 84be b2f6 053e 7540 543e 15b4 73be
00000380: 0750 393e 3d7d 01bd a08f 923e de92 603d
00000390: c318 a33d da19 a9ba 707e d73e dd49 2e3e
000003a0: 5e4f 833d a59d 813d 49c4 3a3e 24ed a9bd
000003b0: a9b6 51bc d278 3b3e 885d b83d aa39 71bd
000003c0: 00a4 bd3d 71c8 213e 653b c8be 86c5 503e
000003d0: 8f2b 1fbe 3666 8b3c bc87 4a3e 894f b33d
000003e0: 846e 903e c971 aebc 81f7 b8bd 944c 1f3e
000003f0: 85b5 7abe 2548 b3be cf5a 493d 3b7b 393d
0.06609607 -0.46105757 0.12969837 -0.09542139 0.18246213 -0.12078971 -0.06642841 -0.1449572
-0.1095301 0.14528698 -0.4103371 -0.46451047 -0.08774615 0.2962366 0.07878899 -0.08827469
0.37159795 0.4301074 0.07931053 -0.0077782753 0.06949314 -0.15864843 -0.19132997 0.3385111
-0.29531616 0.063242234 0.21604872 -0.056112085 -0.33629176 -0.026660334 0.14508694 -0.16128135
-0.10433568 -0.2729506 0.05481229 0.18502325 -0.033364654 -0.44422206 -0.034486577 0.109516576
-0.28325856 0.029081514 -0.26547045 0.30883163 0.16472134 0.2669826 0.13490373 -0.072009705
0.14447205 -0.17507699 -0.27859163 -0.124653414 -0.13687727 -0.037839524 -0.08428127 -0.25186938
0.02652582 -0.22531907 -0.16063721 0.16350164 -0.04432993 -0.049066763 -0.23852777 -0.034749113
0.27849072 -0.2925216 -0.049803387 -0.27975103 0.028823212 -0.10360177 -0.066830665 -0.21396178
-0.21937634 0.14723453 -0.07638193 0.26574275 -0.12048048 -0.14327428 0.1291121 -0.015586716
0.022369124 -0.033871114 0.15742908 0.13769019 -0.29964554 -0.28512406 -0.38941553 -0.0024940886
0.34949312 0.13067123 0.31733325 -0.0020363685 -0.09050243 -0.12086219 0.44958806 -0.047089335
0.089687996 0.32191733 -0.15715186 0.078874476 0.22132199 0.15489724 -0.118979685 0.060769957
-0.074652635 0.05236474 0.23297848 -0.22467141 0.11929684 0.29547003 0.02092322 -0.055692304
0.038908172 -0.11504329 0.011877941 -0.017295916 -0.35301888 0.095159 -0.12757775 -0.030669512
-0.11289774 -0.057461318 0.016449632 0.06541166 -0.040718723 -0.15721364 0.36259526 0.17515309
-0.20485365 0.34754142 0.076996185 0.022960944 -0.35195723 0.21067935 0.2379135 -0.031117337
0.16729842 0.17757043 0.18919228 0.019352846 0.17604381 -0.19502059 0.30723464 -0.25162444
0.1659479 -0.018502919 0.107877515 0.061762907 0.18834144 -0.004093789 0.003828824 0.020908324
0.053921085 0.13159668 0.025759911 -0.23667008 -0.12850514 0.14393255 -0.14582792 0.15792571
-0.35088754 -0.3112853 0.31760278 0.023765186 0.24113241 -0.21988389 0.5035775 -0.49502605
0.115490936 -0.07562286 0.004783442 -0.123327464 0.07433547 -0.07498321 -0.092022955 0.05135106
-0.005983099 0.17693144 0.5241963 -0.13576688 -0.34550926 0.13223326 -0.10969023 -0.32092926
-0.14242193 0.07508056 -0.11385107 -0.1519471 0.2757928 0.46688578 0.24444503 0.17923766
0.071593 0.09934652 0.38506088 0.00041789355 -0.3077932 -0.15617973 -0.067388944 -0.07634366
-0.032311067 0.19217362 0.09907507 0.0001890454 -0.15288489 -0.13506079 -0.054328565 0.1776712
0.13153306 -0.22980607 -0.09238654 -0.0771585 0.36398575 0.061752047 0.16402197 0.06819732
-0.10885906 0.2629508 -0.52718014 0.042516835 -0.25872177 0.13082388 0.20727713 -0.23799165
0.18096934 -0.031613577 0.28625202 0.054827563 0.07963707 -0.0012901381 0.42088652 0.17020364
0.064116225 0.063288964 0.1823894 -0.08297184 -0.012799897 0.18307808 0.09002215 -0.058892883
0.09259796 0.15799119 -0.39107814 0.20387849 -0.1554396 0.017016511 0.19778341 0.087554045
0.28209317 -0.021294491 -0.090315826 0.15556556 -0.24483307 -0.3501598 0.049158867 0.045283537

actor_mean.2.bias f4 [64]
00000000: f803 163d e0b6 e63c 8395 d9bc b2a5 6bbc
00000010: 9647 7dbd a83e 29bc 6719 dabd 650a 8e3d
00000020: 9838 383a 02ba 1d3d 7d44 3e3d c823 85bd
00000030: 2afb afb9 cfd5 763d 3e71 d2bc f3d4 3cbd
00000040: 69f6 46bc 4b12 c2bd 03c0 da3c 93ca 233d
00000050: 452f 29bc b693 ccbc 53f5 c5bd 8fb9 80bd
00000060: a895 76bd 43db 073d 17b4 31bd 6f8b 153d
00000070: 34fc f5bc 663c 263b 9757 693d bf8e 333d
00000080: 7933 2abd 354f 8ebc 51ef 14bc ad16 b1bc
00000090: ba75 07bd 992b c2bc cf27 513d d74b 9a3b
000000a0: addf 8fbb c0e5 793c f1e2 32bb 3d44 87bb
000000b0: 6642 403d 0a44 30ba e333 493d be3f 853d
000000c0: 5635 663b 02d1 27bd 195e 8f3c d281 223c
000000d0: 7256 1dbd 8847 8bbd c7c1 c4bc 8cf6 17bd
000000e0: c123 dd3a cd3d 423d 907c b3bc b2ee 053b
000000f0: 7816 9f3c 4c8b 5c3d 3033 96bd a596 d9bb
0.03662488 0.028163373 -0.02656055 -0.014382767 -0.061835848 -0.01032988 -0.10649376 0.06935576
0.0007027476 0.03850747 0.046452034 -0.06500965 -0.00033565733 0.060262498 -0.025688764 -0.04610152
-0.01214371 -0.09476145 0.026702886 0.03998811 -0.010326211 -0.024972778 -0.096659325 -0.062853925
-0.060201317 0.03316809 -0.043384638 0.036509927 -0.030027486 0.002536559 0.056968298 0.043837305
-0.041552994 -0.017371753 -0.009090261 -0.021617258 -0.033071257 -0.02370243 0.051063355 0.004708748
-0.004390678 0.015252531 -0.0027295912 -0.0041280077 0.046938322 -0.0006724006 0.04912175 0.065062985
0.0035127006 -0.04097081 0.017500924 0.009918647 -0.03841252 -0.06800753 -0.024018181 -0.03710036
0.0016871617 0.04742222 -0.021909982 0.0020436463 0.019419894 0.05384378 -0.07333982 -0.0066402727

actor_mean.4.weight f4 [2, 64]
00000000: c70b acbd 5b35 453c b651 353e 1787 a7bd
00000010: bc51 803d 94f8 b23d 3ef3 15bd 554f 14be
00000020: 80e8 5c3d 39f6 81bd 5030 8a3c c51b b93c
00000030: 8f19 94bd 5441 f9bc ebdd a73d 4354 463d
00000040: 9857 a13e 191f d63d 8320 08bd 37ee 3abe
00000050: a420 333d 6cdc 513e b4ea a13e 79d0 093d
00000060: edaf ff3d 6cb5 3c3c 1946 f6bd 331f 65bd
00000070: d963 b93c 44b4 98bd f3ea 94bd 10ce 79bd
00000080: 2c59 b63d 6c07 c43e 5257 33bd e030 a3ba
00000090: 6aa4 fc3d 5674 55be 1781 4f3a fe52 edbb
000000a0: 2747 b6bc 8ec4 01bd 81d8 773b 6a40 8ebd
000000b0: 813a 94be d1e5 a83d 484d cb3d 435d 523c
000000c0: 2b80 b73d 2985 053d ee99 023e 8093 c8bd
000000d0: 5d0d 8d3c 5113 fb3d 8367 cb3d a384 33bd
000000e0: 09ae 053d 3c84 a33c 0f02 0cbe eb23 16bc
000000f0: 981c 203e 94b6 b03d 2123 b13d b27c bfbd
00000100: 6432 89bd 59bb 40bd 7bb4 513e dd6b 493c
00000110: e61a 3d3d 17a0 2bbe c447 eebd 6ddd d73c
00000120: 17c6 aabd 8f5f 223e f092 5cbd b4de 7bbe
00000130: 97eb 4c3e aa31 73be 8aa5 643d ef01 ecbd
00000140: ed2b 263c 3db9 66be 6c2c 5a3e 08a3 dc3d
00000150: 2612 3e3d 36ef a6bd fb03 b63c 8571 543e
00000160: 5288 8eba b348 183e f8c1 c23d 67ed 50be
00000170: 3072 12be bf45 92be 32d0 323e 7665 083e
00000180: e4d1 2abd e651 53bb 9af2 b13d 93df 913d
00000190: 7700 763e b16d 6cbc c96a b33d adf8 bc3d
000001a0: 3634 54be e95d 893c 9725 893d fae6 f53c
000001b0: 3c09 fd3b 8964 3dbe e5d6 323e dc46 b23d
000001c0: c2d3 3dbd 7cb8 393e d926 043e 71e7 c63d
000001d0: ed9b 903d e1e1 2f3e 9daf 943d a8c2 353e
000001e0: 2bdc 05bd 75c7 423e d905 813d 9d63 b43d
000001f0: 9e0e 62bb f00c 4dbd 6f33 cdbb fb7f 28be
-0.08400684 0.012036647 0.17706951 -0.08180063 0.062655896 0.08738819 -0.036608927 -0.14483388
0.053932667 -0.06345791 0.01686874 0.02259625 -0.072314374 -0.030426659 0.08196624 0.048420202
0.3151214 0.1045515 -0.03323413 -0.18254934 0.0437323 0.2049424 0.31624377 0.03364608
0.12484727 0.011517864 -0.12025089 -0.055937957 0.022630619 -0.07456258 -0.072713755 -0.060987532
0.08903727 0.38286912 -0.043784447 -0.0012450479 0.12336047 -0.2084516 0.0007915659 -0.0072425595
-0.022250725 -0.03168159 0.0037818255 -0.0694588 -0.28950885 0.08246959 0.099268496 0.012839618
0.08959993 0.032597695 0.12754032 -0.097937584 0.017218286 0.12259544 0.09931853 -0.043827664
0.032636676 0.019960515 -0.1367266 -0.009163837 0.15635908 0.08628574 0.086492784 -0.093499556
-0.066990644 -0.04705367 0.20479004 0.012293783 0.04616823 -0.16760288 -0.11634782 0.026350701
-0.08338564 0.15856765 -0.053851068 -0.24596673 0.20011745 -0.23749414 0.055821933 -0.11523806
0.010142309 -0.225316 0.21306008 0.10773283 0.046404026 -0.081510946 0.022218695 0.2074643
-0.0010874367 0.14871483 0.09509653 -0.20403062 -0.14301372 -0.28568837 0.17462233 0.13319954
-0.041704074 -0.003224486 0.08688851 0.071227215 0.24023615 -0.014430449 0.08760602 0.09227119
-0.20723042 0.016768413 0.06696623 0.030017365 0.007722048 -0.18495382 0.17464788 0.087049216
-0.046344526 0.18136781 0.12905444 0.09712113 0.070609905 0.1717601 0.07260058 0.17750037
-0.03268067 0.190214 0.062999435 0.08808062 -0.0034493576 -0.050061166 -0.006262235 -0.1645507

actor_mean.4.bias f4 [2]
00000000: cb14 debc 5d00 9cbc
-0.027109524 -0.019043142
