fw_jsbgym/models/vanilla_tests/ppo_vanalphabeta_noatmo_nocaps_6462_30-04_19:17:31.pt (torch, 56125 bytes, 14 tensors)

actor_logstd f4 [1, 2]
0.31636035 0.5126362
00000000: fcf9 a13e 203c 033f

conv.0.weight f4 [3, 1, 1, 1]
-0.49825233 -0.7143739 -2.1532865
00000000: ee1a ffbe 35e1 36bf 72cf 09c0

conv.0.bias f4 [3]
0.007966318 0.014498914 -0.008538583
00000000: 2985 023c da8c 6d3c 6ae5 0bbc

critic.0.weight f4 [64, 30]
-0.11827028 0.017769577 -0.13552871 -0.44539487 0.1583412 -0.1453596 -0.09775333 -0.08667483
-0.41011712 -0.23302205 -0.26873323 0.24757993 -0.14175196 -0.009632214 0.20870396 -0.11179086
0.04356133 -0.09356574 -0.16902874 0.055681854 0.20059687 -0.19212024 0.27016738 0.13396494
-0.15103409 -0.094727725 -0.037846275 -0.21261632 -0.2236048 -0.010937157 0.15555003 -0.030637132
0.01153118 0.007608635 -0.06756505 0.61292756 0.12094158 0.31794623 0.1534958 0.44953215
0.1825598 0.10241557 -0.56482327 0.1514049 0.09236662 0.15064573 0.32989386 0.18498214
0.51999694 0.31829843 0.15008284 -0.043766078 -0.3093226 -0.0042925584 0.038157806 -0.040812746
0.103861086 0.14625959 0.07488618 0.3310573 0.12852646 -0.12569578 -0.11000723 0.11607826
-0.069236435 0.1580004 -0.34521815 0.010088229 0.07291287 0.19623807 0.08845975 -0.060012683
0.08314593 0.26289073 -0.06371851 0.385957 0.06126469 0.2250545 0.13821873 0.23863438
0.15581225 0.091886275 0.1718265 -0.017442144 -0.0785082 0.016110372 -0.095298655 0.51124424
0.14532143 0.03357837 -0.17208694 0.030680172 0.09951446 -0.18824919 -0.061904024 -0.33799687
0.07163541 -0.0019436752 0.14975697 -0.10867155 -0.19639373 -0.021791719 0.08121749 0.105221316
-0.3414179 -0.05171748 0.34992293 0.12763932 0.31161177 0.15151075 -0.06507911 0.17465074
0.028263064 -0.12440311 0.15553775 0.17368838 -0.13538264 -0.2297792 0.041697588 0.032199837
-0.11219624 0.15835388 0.033223536 -0.18777345 -0.060142692 -0.102873825 0.19946468 -0.7061748
-0.26835847 -0.20826165 0.10754106 0.143185 0.10209003 -0.10186162 -0.016526746 -0.20265837
0.058172826 -0.37998232 -0.21977383 -0.058596577 0.007234149 0.18058808 0.18558626 -0.06804853
0.22412765 -0.053258847 -0.301969 -0.21646799 -0.24528591 -0.15598232 -0.03172226 0.1383615
0.19608957 0.387598 0.06639777 0.08004962 -0.036598627 -0.20176378 -0.21917282 -0.14862531
0.15861493 -0.0730327 0.0534374 0.099593766 0.0071988353 0.036923155 -0.17248158 -0.154916
-0.46405724 0.070046574 0.11581611 -0.12344812 0.36435068 -0.14405699 -0.193558 -0.08754278
0.097608 -0.24749023 -0.36903465 0.06316576 -0.55950016 0.024806686 -0.066105165 0.0095731355
-0.18806086 -0.31523755 -0.11441385 -0.09067594 -0.21668857 0.21303058 0.08782976 0.33289135
-0.30864763 -0.45445672 0.20574482 -0.19977929 -0.13366775 0.33120036 -0.29533505 -0.26750836
-0.0916488 -0.06925108 -0.23431085 0.10023282 0.20894647 0.13895725 -0.010538684 0.079872355
-0.1306629 -0.2128696 0.07127471 0.16859564 0.29443058 0.31501707 -0.034603056 -0.019798884
-0.029056625 0.49566913 -0.056337148 0.05967102 -0.13004509 -0.17461511 -0.09342414 -0.1297246
0.09365093 0.19514486 -0.4540045 0.13233249 0.15210216 -0.24899393 -0.049613517 0.22939129
-0.14448093 -0.2036423 -0.08830652 -0.28595173 0.051246226 0.05168757 -0.0021282325 -0.057876185
0.40566397 0.087437674 0.06452026 0.17597364 0.11482163 0.15263014 0.040712886 -0.043877386
0.13504708 0.1503416 0.38558573 0.25012895 0.0037067742 0.19653687 -0.22022155 0.3102862
00000000: b037 f2bd 8191 913c 0ac8 0abe cc0a e4be
00000010: 3224 223e 26d9 14be e632 c8bd 9382 b1bd
00000020: dffa d1be 559d 6ebe 6797 89be 9885 7d3e
00000030: 6d27 11be 6fd0 1dbc 7eb6 553e 9bf2 e4bd
00000040: 5d6d 323d 659f bfbd df15 2dbe a812 643d
00000050: 4469 4d3e 2bbb 44be 6153 8a3e 1b2e 093e
00000060: aea8 1abe 9c00 c2bd b204 1bbd 18b8 59be
00000070: a8f8 64be c331 33bc 8248 1f3e b9fa fabc
00000080: 46ed 3c3c db51 f93b 8c5f 8abd d2e8 1c3f
00000090: 38b0 f73d d9c9 a23e 012e 1d3e 1429 e63e
000000a0: f5f0 3a3e 41bf d13d 4298 10bf e309 1b3e
000000b0: b62a bd3d e042 1a3e d9e7 a83e f56b 3d3e
000000c0: 851e 053f 03f8 a23e 51af 193e 0f44 33bd
000000d0: 885f 9ebe 97a8 8cbb 5c4b 1c3d 442b 27bd
000000e0: 1fb5 d43d 13c5 153e ed5d 993d 5880 a93e
000000f0: 719c 033e 65b6 00be 784b e1bd 70ba ed3d
00000100: d5cb 8dbd dbca 213e 6fc0 b0be 1949 253c
00000110: 5853 953d a2f2 483e 632a b53d dccf 75bd
00000120: 6a48 aa3d 9d99 863e da7e 82bd 289c c53e
00000130: aff0 7a3d b074 663e 3689 0d3e 925c 743e
00000140: 3f8d 1f3e df2e bc3d 49f3 2f3e d4e2 8ebc
00000150: e8c8 a0bd e6f9 833c f12b c3bd e7e0 023f
00000160: 24cf 143e 7989 093d 8f37 30be fc54 fb3c
00000170: 3dce cb3d 65c4 40be 138f 7dbd ed0d adbe
00000180: 96b5 923d ebc2 feba e459 193e 318f debd
00000190: 701b 49be 8c84 b2bc 5b55 a63d 467e d73d
000001a0: 54ce aebe b5d5 53bd 1929 b33e e2b3 023e
000001b0: 948b 9f3e a225 1b3e 3248 85bd a5d7 323e
000001c0: f187 e73c 0fc7 febd 4a45 1f3e 5edb 313e
000001d0: bfa1 0abe 3d4b 6bbe 17cb 2a3d fae3 033d
000001e0: 24c7 e5bd 8527 223e 6715 083d af47 40be
000001f0: 2f58 76bd 83af d2bd 7840 4c3e dfc7 34bf
00000200: 4866 89be 8b42 55be 7d3e dc3d 179f 123e
00000210: 9414 d13d d39c d0bd 1963 87bc ad85 4fbe
00000220: a146 6e3d 0b8d c2be 640c 61be f702 70bd
00000230: 710c ed3b 15ec 383e 530a 3e3e 075d 8bbd
00000240: b881 653e f325 5abd ae9b 9abe c9a9 5dbe
00000250: 3b2c 7bbe d4b9 1fbe 33ef 01bd a3ae 0d3e
00000260: b4cb 483e 3f73 c63e 8efb 873d 0ef1 a33d
00000270: 71e8 15bd 2a9b 4ebe d76e 60be 3c31 18be
00000280: f46b 223e 2b92 95bd 2de1 5a3d d1f7 cb3d
00000290: 35e4 eb3b bc3c 173d 039f 30be 4da2 1ebe
000002a0: e998 edbe 9474 8f3d ff30 ed3d 5ed2 fcbd
000002b0: 2c8c ba3e ad83 13be 1134 46be a149 b3bd
000002c0: b4e6 c73d 146e 7dbe 1cf2 bcbe 0d5d 813d
000002d0: 673b 0fbf 6437 cb3c 2562 87bd a4d8 1c3c
000002e0: 0793 40be d166 a1be cf51 eabd 4fb4 b9bd
000002f0: 9ce3 5dbe b024 5a3e 17e0 b33d bc70 aa3e
00000300: 1007 9ebe 8dae e8be c5ae 523e f192 4cbe
00000310: 33e0 08be 1893 a93e 2836 97be dbf6 88be
00000320: 5eb2 bbbd 83d3 8dbd 2fef 6fbe dd46 cd3d
00000330: 10f6 553e cf4a 0e3e 72aa 2cbc 1e94 a33d
00000340: 7fcc 05be 7dfa 59be 7af8 913d 56a4 2c3e
00000350: 9bbf 963e eb49 a13e efbb 0dbd 4531 a2bc
00000360: 2908 eebc 58c8 fd3e c8c1 66bd 9969 743d
00000370: 8a2a 05be 4ece 32be 2855 bfbd 87d6 04be
00000380: 0fcc bf3d 0ed4 473e 4773 e8be 2b82 073e
00000390: abc0 1b3e 44f8 7ebe 8b37 4bbd 8de5 6a3e
000003a0: cff2 13be 9b87 50be 0cda b4bd 4468 92be
000003b0: 90e7 513d 58b6 533d d179 0bbb 940f 6dbd
000003c0: 30b3 cf3e 8612 b33d 3323 843d 6f32 343e
000003d0: 9a27 eb3d 134b 1c3e 8ec2 263d c6b8 33bd
000003e0: c849 0a3e 26f3 193e 7e6b c53e e710 803e
000003f0: 5aed 723b f640 493e c281 61be d5dd 9e3e

critic.0.bias f4 [64]
0.008459346 0.13165645 0.05216488 -0.05686496 -0.102733776 -0.115625575 0.053381592 0.03544705
-0.03723455 -0.019445227 -0.060815454 0.0614849 0.04428538 0.07714022 0.08968286 0.07219656
0.05788792 0.099368624 -0.027748413 -0.10790737 0.057976928 -0.03705962 -0.11130715 -0.020095952
-0.041673854 0.010912377 -0.062109984 -0.09619695 0.08836986 0.03391016 -0.04978795 -0.03996516
-0.023518505 -0.0639853 0.06148816 -0.119353764 -0.08832458 0.037845477 -0.024501717 0.063827045
-0.17153771 -0.0124684675 -0.11590158 0.12840448 -0.08894778 -0.107327245 -0.050417308 0.033206172
-0.0082072625 0.06833428 -0.23152427 -0.081699535 0.06479577 -0.062008813 -0.07265975 0.026970766
-0.06529784 -0.009317325 0.05116855 0.052846644 0.035198566 -0.0031006043 -0.004114332 0.06419122
00000000: 1299 0a3c f3d0 063e d7aa 553d 3beb 68bd
00000010: 1666 d2bd 1acd ecbd a8a6 5a3d ed30 113d
00000020: 4183 18bd 994b 9fbc a019 79bd 97d7 7b3d
00000030: 9664 353d b1fb 9d3d a6ab b73d cadb 933d
00000040: e21b 6d3d c781 cb3d a450 e3bc 8afe dcbd
00000050: 3779 6d3d d4cb 17bd 01f5 e3bd 44a0 a4bc
00000060: 34b2 2abd d4c9 323c 0a67 7ebd e802 c5bd
00000070: 42fb b43d 61e5 0a3d 73ee 4bbd 82b2 23bd
00000080: e1a9 c0bc ba0a 83bd 02db 7b3d bf6f f4bd
00000090: 84e3 b4bd dc03 1b3d d3b7 c8bc c1b7 823d
000000a0: 95a7 2fbe 8b48 4cbc cf5d edbd 777c 033e
000000b0: 412a b6bd 63ce dbbd 6182 4ebd 3203 083d
000000c0: c177 06bc d8f2 8b3d b314 6dbe 1652 a7bd
000000d0: a5b3 843d f4fc 7dbd a3ce 94bd ccf1 dc3c
000000e0: e0ba 85bd b2a7 18bc 1d96 513d b975 583d
000000f0: 5f2c 103d 8233 4bbb 85d1 86bb b076 833d

critic.2.weight f4 [64, 64]
0.21838981 -0.1884666 0.10197269 0.13286658 -0.14471078 0.3609461 0.096196316 0.11150541
0.16004187 -0.08702723 0.01868841 -0.11277351 -0.23279181 -0.08572696 0.21193036 0.32545218
-0.10901067 -0.18652698 0.093269154 -0.091725655 0.03913109 -0.021913016 0.10718817 -0.22984031
0.3287188 0.2048219 -0.071764655 -0.039563186 -0.20990837 0.18695998 -0.2123445 0.08567085
-0.3558879 0.4216632 0.13747501 0.1469272 0.03799258 0.15828817 -0.039876122 -0.042056177
0.06706204 -0.11405346 -0.08635364 -0.058595996 0.15367703 -0.09800265 -0.25385866 -0.2682343
-0.032642413 -0.0961387 -0.034497816 -0.034654815 -0.2454542 0.20273282 0.2725119 0.043065216
0.09964788 0.0038259702 0.16035774 -0.06688241 -0.28436345 -0.24995819 0.0316684 -0.3947754
-0.013031637 0.06946796 0.082468465 -0.43682408 -0.51211566 0.15534465 0.3080362 0.01182871
0.030779958 0.12827033 -0.1366296 -0.12217184 -0.20679626 0.01937357 -0.18322091 -0.09660287
0.09714155 0.07694695 0.13414569 0.061161064 0.05205209 -0.2928019 -0.24286784 0.0111492155
-0.0058366447 -0.049731653 -0.34231928 -0.34254822 -0.07442231 0.061741434 0.19094451 -0.43806922
0.22946739 -0.3511057 -0.14770433 0.49155787 0.13347644 -0.26583177 0.24325545 0.1962871
0.009314046 0.03682749 -0.2301405 0.016630922 0.09161249 -0.23093379 -0.1763769 0.10971455
0.023330411 0.19469693 -0.30209178 0.11630446 0.04316554 0.077933125 -0.04048262 0.42504972
0.1664238 0.08803205 -0.12462662 0.3000753 0.036539868 -0.32443282 -0.200454 0.10399108
0.06825057 -0.10270599 0.2177893 -0.05302899 -0.17894244 0.20241271 -0.55884546 -0.106353976
0.49552658 -0.011794791 0.48047328 -0.31925726 -0.48793635 -0.21658783 -0.11187252 -0.3300152
0.08538169 -0.2496251 -0.06659249 0.16385996 -0.14540191 0.12431863 0.072287574 0.31908515
-0.52058256 0.06302347 0.4623683 -0.094137184 0.034238677 -0.2696784 -0.0957729 0.5810036
-0.019676264 -0.118637115 -0.2318484 -0.16743927 0.012872817 0.11313148 0.39773935 0.12599142
0.5141939 0.415448 0.7134887 -0.29394615 0.2892971 0.30226973 0.2680725 -0.005381795
0.009590935 -0.37987837 0.28227365 0.40472376 0.09591952 0.8216677 0.24691845 -0.44070658
0.27581352 0.35443902 -0.016019672 0.042887207 0.16390651 -0.24504057 -0.027006004 -0.5621218
-0.124531575 -0.18454556 0.049399495 -0.052807517 -0.1584307 -0.14612664 0.27268344 -0.03561956
-0.23880348 -0.106090665 0.26654088 0.0989403 0.031267855 0.23935358 0.1706291 -0.14741415
-0.0039156885 0.1507918 -0.12895408 0.29379457 -0.022745127 0.036481418 0.090716094 -0.036080133
-0.106696606 0.06440211 -0.13843593 -0.26026732 -0.21006605 0.030483628 -0.25953776 -0.12206039
-0.18869169 0.06739158 -0.26836237 0.02323536 -0.023568071 0.10658852 -0.10863166 -0.045850843
-0.42738926 -0.40840787 0.08658868 0.11888564 0.26353323 -0.11362072 0.062154185 0.14057235
0.07679601 0.07319465 -0.12309235 0.21434228 -0.12975225 -0.11758646 -0.13543877 -0.3705085
0.1974937 -0.14728518 0.1742671 -0.14132053 0.3278258 0.033612818 -0.035738 -0.4118402
00000000: 94a1 5f3e 63fd 40be 0fd7 d03d 2d0e 083e
00000010: 102f 14be edcd b83e 9302 c53d f35c e43d
00000020: 04e2 233e 553b b2bd 7018 993c ccf5 e6bd
00000030: fa60 6ebe 9e91 afbd 4604 593e aba1 a63e
00000040: fc40 dfbd ee00 3fbe e603 bf3d a9da bbbd
00000050: ec47 203d ed82 b3bc 7985 db3d 425b 6bbe
00000060: d54d a83e d5bc 513e 59f9 92bd 020d 22bd
00000070: 38f2 56be 7072 3f3e d670 59be 3374 af3d
00000080: f036 b6be 3de4 d73e 40c6 0c3e 1574 163e
00000090: 1c9e 1b3d 4b16 223e 2555 23bd 1943 2cbd
000000a0: d357 893d dc94 e9bd 2dda b0bd 5b02 70bd
000000b0: 835d 1d3e 9db5 c8bd c3f9 81be 0256 89be
000000c0: 0db4 05bd 5ee4 c4bd 954d 0dbd 35f2 0dbd
000000d0: 5958 7bbe 3199 4f3e ae86 8b3e 2765 303d
000000e0: 3014 cc3d 21bd 7a3b d234 243e a5f9 88bd
000000f0: 1698 91be 0af5 7fbe b9b6 013d 0020 cabe
00000100: a682 55bc 3845 8e3d 3ae5 a83d 68a7 dfbe
00000110: 031a 03bf ab12 1f3e ecb6 9d3e 35cd 413c
00000120: 4026 fc3c 4c59 033e a1e8 0bbe 3b35 fabd
00000130: 66c2 53be 52b5 9e3c 439e 3bbe bad7 c5bd
00000140: 26f2 c63d 5d96 9d3d 7d5d 093e 0684 7a3d
00000150: 9334 553d 21ea 95be 59b2 78be 33ab 363c
00000160: 5341 bfbb 6bb3 4bbd 7944 afbe 7b62 afbe
00000170: b96a 98bd 96e4 7c3d f586 433e 9c4a e0be
00000180: 80f9 6a3e 20c4 b3be ce3f 17be 79ad fb3e
00000190: 0cae 083e 1a1b 88be f517 793e 7cff 483e
000001a0: f199 183c 6cd8 163d f4a9 6bbe 923d 883c
000001b0: 549f bb3d e879 6cbe 259c 34be 06b2 e03d
000001c0: 6b1f bf3c a25e 473e c6ab 9abe 0831 ee3d
000001d0: 59ce 303d 679b 9f3d 1bd1 25bd 1ea0 d93e
000001e0: 006b 2a3e 264a b43d 3e3c ffbd 78a3 993e
000001f0: d4aa 153d 0f1c a6be d043 4dbe 46f9 d43d
00000200: f4c6 8b3d 8557 d2bd 2904 5f3e ed34 59bd
00000210: b03c 37be 4745 4f3e 7f10 0fbf 1dd0 d9bd
00000220: a9b5 fd3e f03e 41bc 9800 f63e b075 a3be
00000230: cbd2 f9be 33c9 5dbe 6b1d e5bd c1f7 a8be
00000240: 98dc ae3d b99d 7fbe a561 88bd e8ca 273e
00000250: 3de4 14be c49a fe3d 820b 943d 215f a33e
00000260: e644 05bf 7312 813d 8abb ec3e ffca c0bd
00000270: db3d 0c3d 4a13 8abe 9524 c4bd a7bc 143f
00000280: 1e30 a1bc 04f8 f2bd ab69 6dbe 3375 2bbe
00000290: 82e8 523c 7ab1 e73d 7ea4 cb3e e503 013e
000002a0: 36a2 033f 9ab5 d43e 32a7 363f 1c80 96be
000002b0: c01e 943e 19c3 9a3e cc40 893e c559 b0bb
000002c0: 4c23 1d3c 6b7f c2be 2c86 903e f437 cf3e
000002d0: 7471 c43d d058 523f 31d8 7c3e 4ba4 e1be
000002e0: 6e37 8d3e 0879 b53e b03b 83bc 7faa 2f3d
000002f0: 1cd7 273e eaeb 7abe b23b ddbc 37e7 0fbf
00000300: 690a ffbd 83f9 3cbe 2057 4a3d b24c 58bd
00000310: a83b 22be 39a2 15be 2a9d 8b3e d1e5 11bd
00000320: e688 74be 1046 d9bd 0c78 883e 36a1 ca3d
00000330: b912 003d 1b19 753e 65b9 2e3e bcf3 16be
00000340: 2d4f 80bb 2a69 1a3e 8a0c 04be 3e6c 963e
00000350: fd53 babc 8a6d 153d 5cc9 b93d c3c8 13bd
00000360: c083 dabd 41e5 833d 26c2 0dbe c241 85be
00000370: 8e1b 57be cdb8 f93c 22e2 84be ccfa f9bd
00000380: 6538 41be 9904 8a3d cb66 89be 1558 be3c
00000390: d411 c1bc 154b da3d 477a debd 18ce 3bbd
000003a0: c4d2 dabe d61a d1be 6855 b13d 507a f33d
000003b0: d4ed 863e fbb1 e8bd 6395 7e3d 33f2 0f3e
000003c0: 3a47 9d3d 14e7 953d d817 fcbd 8b7c 5b3e
000003d0: c6dd 04be 2cd1 f0bd 76b0 0abe 4ab3 bdbe
000003e0: ca3b 4a3e edd1 16be 1373 323e 54b6 10be
000003f0: c9d8 a73e 98ad 093d 0262 12bd b8dc d2be

critic.2.bias f4 [64]
-0.073401965 0.008135336 -0.036421392 -0.03436754 0.02237328 -0.04563773 0.009194707 -0.033741374
-0.0044015814 0.028320802 0.020991923 -0.0007921914 0.003782568 0.07629206 0.0010889011 0.05144389
-0.040005095 0.08926314 0.0054305284 0.037355624 -0.006558263 0.101824515 -0.10239347 0.004597133
0.030685592 -0.026981775 -0.028763587 0.038793307 0.12230502 -0.01922357 -0.08664072 0.10187763
-0.034927905 0.060642935 -0.11490403 0.017312381 -0.009457295 0.013391183 0.017925344 0.030575031
-0.025727486 -0.010478151 0.009466356 -0.0020695261 -0.10221933 -0.028703975 -0.022046864 0.006368203
-0.035483096 -0.006574955 0.027092561 0.022366704 -0.039162565 0.058957066 -0.069713734 -0.022530552
-0.09774915 -0.094952494 -0.061411202 0.04351672 0.1337341 -0.021110713 0.0055694315 -0.07337851
00000000: c553 96bd 134a 053c 992e 15bd fac4 0cbd
00000010: 2b48 b73c a1ee 3abd 65a5 163c 6534 0abd
00000020: 243b 90bb 0701 e83c 41f7 ab3c 11ab 4fba
00000030: f6e4 773b 033f 9c3d 75b9 8e3a d4b6 523d
00000040: 62dc 23bd 98cf b63d 93f2 b13b 3602 193d
00000050: b3e6 d6bb 5f89 d03d abb3 d1bd 8ca3 963b
00000060: 5a60 fb3c e208 ddbc 9da1 ebbc bbe5 1e3d
00000070: 0e7b fa3d c07a 9dbc b170 b1bd 38a5 d03d
00000080: 9010 0fbd ba64 783d ce52 ebbd b2d2 8d3c
00000090: c5f2 1abc b166 5b3c 2cd8 923c 7d78 fa3c
000000a0: 73c2 d2bc 8dac 2bbc c618 1b3c e3a0 07bb
000000b0: 5e58 d1bd 9924 ebbc a09b b4bc 5cac d03b
000000c0: b956 11bd b872 d7bb 38f1 dd3c 613a b73c
000000d0: ed68 20bd f77c 713d 13c6 8ebd fe91 b8bc
000000e0: b530 c8bd 7476 c2bd 508a 7bbd 973e 323d
000000f0: 98f1 083e 60f0 acbc c77f b63b 7947 96bd

critic.4.weight f4 [1, 64]
0.1772517 0.0756853 -0.37752032 0.0957631 -0.1399173 0.13632669 0.0043106806 0.1732956
-0.004032539 -0.12873517 -0.06484939 -0.13802043 0.13141616 -0.16924791 -0.023000238 -0.18330662
0.02047576 -0.22847052 0.23381782 -0.045915037 0.17278686 -0.29583126 0.36022082 -0.017755115
-0.24312437 0.23992519 0.0653814 0.19719622 -0.3113706 0.063298665 0.10291697 -0.22793257
0.025044825 -0.17680196 0.18414897 0.06999342 0.27885485 -0.14786497 -0.058239955 -0.11017483
0.1513447 0.029457651 -0.044737227 -0.17475198 0.18962435 -0.14346561 0.15941788 -0.30502874
0.15454543 0.35639468 -0.102854125 -0.020473633 0.055621743 -0.12037159 0.1475751 0.12799256
0.26755536 0.0963729 -0.28540716 -0.07468907 -0.31661507 0.011027492 -0.059057657 0.102394044
00000000: 7881 353e e500 9b3d 584a c1be 721f c43d
00000010: 7b46 0fbe 3999 0b3e 9c40 8d3b 6774 313e
00000020: 6423 84bb 27d3 03be c2cf 84bd 3a55 0dbe
00000030: f591 063e 534f 2dbe ff6a bcbc bbb4 3bbe
00000040: c8bc a73c 2df4 69be f06d 6f3e 6811 3cbd
00000050: 0aef 303e 3277 97be dd6e b83e 2d73 91bc
00000060: 98f5 78be f3ae 753e afe6 853d ceed 493e
00000070: f86b 9fbe bba2 813d 22c6 d23d 2867 69be
00000080: ce2a cd3c 930b 35be 8c91 3c3e b658 8f3d
00000090: 10c6 8e3e ea69 17be 058d 6ebd 57a3 e1bd
000000a0: 1bfa 1a3e 2c51 f13c 623e 37bd 2ff2 32be
000000b0: e32c 423e a6e8 12be 713e 233e ba2c 9cbe
000000c0: 2841 1e3e 5d79 b63e 2fa5 d2bd 52b8 a7bc
000000d0: a0d3 633d 6185 f6bd ed1d 173e 7b10 033e
000000e0: 04fd 883e 285f c53d e320 92be 95f6 98bd
000000f0: 5f1b a2be a7ac 343c 71e6 71bd f8b3 d13d

actor_mean.0.weight f4 [64, 30]
-0.24023455 -0.08194794 -0.090895474 -0.13489713 -0.2592246 0.08073326 -0.06525026 0.13302977
0.024456486 0.5790876 0.058648784 0.23748481 -0.3542759 0.09430034 0.04790061 -0.3182758
0.2563603 0.19351456 0.03490648 -0.21173204 0.035186116 0.12789059 0.064596675 0.23221354
0.3328743 0.06911429 0.25586185 0.43873194 0.022582015 0.020447636 0.060424946 0.3062055
0.074222416 -0.14619596 0.0712203 0.42173457 0.4992396 -0.1153697 0.11165289 0.04016781
-0.049430665 0.17628393 -0.0036006279 -0.049425174 0.13633665 0.47013444 0.19275154 -0.28678873
-0.09502226 -0.029721346 -0.023976827 0.3453855 0.2585086 0.15666425 0.05097437 0.14538528
0.66470486 0.07148252 -0.20445901 0.099161536 0.1877714 -0.13696104 -0.22274412 -0.024461783
0.010828937 -0.06634887 0.076501876 -0.14102483 -0.28941777 -0.056740474 -0.187921 0.15726149
0.046557028 0.010116528 0.303279 -0.20422967 0.012119137 -0.5465734 -0.1554336 0.0041040215
-0.37952185 -0.061637986 0.14158948 -0.11168465 -0.20625377 0.27255327 0.14951476 -0.4163218
-0.37662807 0.03435403 0.40444112 0.012066569 -0.018196357 -0.25407597 0.25873858 -0.026635695
0.057959527 -0.09976184 0.274085 -0.0278161 -0.012450972 0.21936929 0.020087747 -0.008967946
0.1668706 -0.0032234688 0.820702 -0.117827825 0.1464148 -0.16117123 0.46660218 0.081962295
0.24106994 -0.063897595 0.0062059844 -0.22118193 0.34341857 -0.39517185 -0.22397071 0.20879933
-0.037611194 0.07039651 -0.009992568 0.042140227 0.089234255 -0.07573754 -0.051016394 -0.06174486
0.11320827 -0.18175422 -0.20038854 0.025376773 0.066494584 -0.08926582 0.14627215 0.12607445
-0.3977293 0.5998664 0.22292419 0.003313893 0.17738889 0.0150961485 -0.09952662 0.47560167
-0.09914048 0.23075914 -0.34052622 0.5796262 0.020422231 0.008655298 0.1768859 -0.01964933
0.023719002 0.065014966 0.22995214 0.09164664 -0.011199406 -0.060315486 0.28086585 0.20348832
0.18610644 0.118633345 0.038663626 -0.16393587 -0.038608387 0.21178599 0.32508776 -0.05388803
0.038194913 0.6217213 0.48336208 -0.32072324 0.2678707 0.05264721 -0.05420442 0.15860634
0.16272317 -0.005431675 -0.05645918 0.21900447 0.010562535 0.02656891 -0.061093282 0.30237564
0.19964544 -0.09239076 0.35867473 0.07368001 -0.24759308 -0.0530986 0.30842543 -0.25063953
-0.25874907 0.08228791 0.060835384 0.04909776 0.25446162 -0.07716951 0.13849509 -0.056000702
-0.013354154 -0.1629373 -0.348337 -0.027890598 -0.16416758 -0.054103844 0.10856135 -0.5098203
-0.096624434 -0.15746468 -0.11175073 -0.1858104 -0.17497008 -0.1227147 -0.107406184 0.019099146
0.30803433 0.038684957 -0.2298172 0.27959058 -0.15253058 -0.274429 0.075869516 -0.13906649
0.21689779 0.38524213 0.4722317 -0.24931453 0.0832226 0.1887643 -0.15047505 0.35382336
0.030836513 -0.23583958 -0.18833894 -0.16684933 0.42270586 0.019509349 -0.12902753 0.05814697
-0.08897149 -0.058968514 0.016230527 0.2055696 -0.23201765 -0.08270254 -0.21969138 0.68336135
0.2881611 -0.021923669 -0.1921017 0.2951103 0.22028072 0.17546612 0.012859864 0.0076836287
00000000: 0c00 76be 52d4 a7bd 6827 babd 7922 0abe
00000010: 16b9 84be 7b57 a53d eea1 85bd f538 083e
00000020: f858 c83c 163f 143f b539 703d 382f 733e
00000030: a763 b5be 8920 c13d 6e33 443d 0cf5 a2be
00000040: a841 833e ae28 463e 19fa 0e3d 49d0 58be
00000050: 511f 103d c0f5 023e 434b 843d 63c9 6d3e
00000060: 806e aa3e cb8b 8d3d 5300 833e 79a1 e03e
00000070: ebfd b83c cd81 a73c 2680 773d f8c6 9c3e
00000080: ec01 983d 65b4 15be f3db 913d 98ed d73e
00000090: 559c ff3e f346 ecbd 45aa e43d 0087 243d
000000a0: cf77 4abd c683 343e 83f8 6bbb 0d72 4abd
000000b0: d69b 0b3e 76b5 f03e a960 453e f9d5 92be
000000c0: 089b c2bd 2e7a f3bc 0d6b c4bc 5ed6 b03e
000000d0: 3d5b 843e 986c 203e 80ca 503d e1df 143e
000000e0: 192a 2a3f 6d65 923d b45d 51be 3415 cb3d
000000f0: 2547 403e 843f 0cbe 0917 64be 1464 c8bc
00000100: db6b 313c ebe1 87bd 04ad 9c3d d068 10be
00000110: 912e 94be b368 68bd 5d6e 40be 2809 213e
00000120: 95b2 3e3d cbbf 253c 6347 9b3e 9521 51be
00000130: 588f 463c 3cec 0bbf fc29 1fbe 077b 863b
00000140: b050 c2be 1d78 7cbd d5fc 103e ecba e4bd
00000150: 3034 53be 1a8c 8b3e 661a 193e 2228 d5be
00000160: 65d5 c0be d0b6 0c3d e812 cf3e dcb2 453c
00000170: 8710 95bc 3f16 82be 6279 843e 1a33 dabc
00000180: f866 6d3d f04f ccbd de54 8c3e 97de e3bc
00000190: 29ff 4bbc 58a2 603e 0f8f a43c 4bee 12bc
000001a0: 20e0 2a3e d540 53bb 8719 523f b74f f1bd
000001b0: c3ed 153e 120a 25be 7be6 ee3e d9db a73d
000001c0: 0adb 763e bedc 82bd 925b cb3b 847d 62be
000001d0: 8fd4 af3e f753 cabe 9458 65be 7ecf 553e
000001e0: 320e 1abd 0c2c 903d deb7 23bc 3b9b 2c3d
000001f0: 73c0 b63d 491c 9bbd 91f6 50bd 2ee8 7cbd
00000200: bdd9 e73d c71d 3abe a732 4dbe f3e2 cf3c
00000210: 502e 883d 00d1 b6bd 5ec8 153e a919 013e
00000220: 2da3 cbbe d890 193f 3d46 643e e62d 593b
00000230: 6fa5 353e d655 773c 9dd4 cbbd 1082 f33e
00000240: 2a0a cbbd 204c 6c3e 7459 aebe 6262 143f
00000250: 864c a73c f3ce 0d3c 9421 353e a2f7 a0bc
00000260: 5a4e c23c 9126 853d 9378 6b3e 3cb1 bb3d
00000270: b77d 37bc 5f0d 77bd a6cd 8f3e 3e5f 503e
00000280: b092 3e3e 0af6 f23d c05d 1e3d cede 27be
00000290: d423 1ebd 6dde 583e e771 a63e b2b9 5cbd
000002a0: 4572 1c3d 2129 1f3f 3c7b f73e d635 a4be
000002b0: 5926 893e 9aa4 573d 7405 5ebd b369 223e
000002c0: e7a0 263e 31fc b1bb be41 67bd b542 603e
000002d0: 7c0e 2d3c 0ba7 d93c f33c 7abd fbd0 9a3e
000002e0: db6f 4c3e 5e37 bdbd 37a4 b73e 8ce5 963d
000002f0: 0a89 7dbe eb7d 59bd f0e9 9d3e d353 80be
00000300: c27a 84be 9086 a83d 862e 793d bc1a 493d
00000310: cb48 823e 0c0b 9ebd a8d1 0d3e fe60 65bd
00000320: 62cb 5abc 09d9 26be 3a59 b2be d37a e4bc
00000330: 8c1b 28be fe9b 5dbd 6a55 de3d 9583 02bf
00000340: 08e3 c5bd 6c3e 21be 91dd e4bd 1545 3ebe
00000350: 5b2b 33be d851 fbbd c6f7 dbbd d075 9c3c
00000360: adb6 9d3e 1e74 1e3d 3355 6bbe 7f26 8f3e
00000370: fa30 1cbe f581 8cbe 7a61 9b3d 7267 0ebe
00000380: 741a 5e3e 753e c53e 5ac8 f13e 4f4c 7fbe
00000390: 9c70 aa3d 6e4b 413e 2216 1abe 5628 b53e
000003a0: db9c fc3c ee7f 71be ecdb 40be 8dda 2abe
000003b0: e76c d83e 12d2 9f3c cb1f 04be 842b 6e3d
000003c0: af36 b6bd f888 71bd e2f5 843c d680 523e
000003d0: 0996 6dbe f35f a9bd c7f6 60be c5f0 2e3f
000003e0: da89 933e 4499 b3bc 4fb6 44be b218 973e
000003f0: 4591 613e 64ad 333e 2eb2 523c f3c6 fb3b

actor_mean.0.bias f4 [64]
-0.013894722 -0.038387656 -0.033281516 0.0017892973 0.008554246 -0.023911461 0.0077609136 -0.012924285
0.03532309 -0.030516872 0.004865329 -0.038671635 0.013265713 -0.013347401 0.0066823335 -0.025163442
-0.052733473 0.006452718 -0.023321087 -0.004465512 -0.012702041 -0.017561961 -0.0069892267 0.027622188
-0.010580027 -0.02898711 0.009644449 -0.0191004 0.038292296 0.015997013 -0.03735018 -0.03163568
0.0072801495 0.0046984246 -0.040883813 0.021661872 0.021007743 -0.011068581 -0.079380825 -0.046959728
0.010994885 0.003020946 -0.0039096246 0.08306354 -0.09820481 -0.0046405764 -0.050373707 -0.03604591
-0.01537404 -0.031328168 -0.0071400334 -0.031938832 0.072605476 0.0027182007 0.040429097 0.068649486
0.027200425 0.022061007 0.0034384457 -0.0090497825 -0.068901554 -0.020864272 0.036371995 0.0069028423
00000000: b0a6 63bc 603c 1dbd 3352 08bd db86 ea3a
00000010: 1c27 0c3c f8e1 c3bc 434f fe3b 61c0 53bc
00000020: f2ae 103d 85fe f9bc 566d 9f3b 2666 1ebd
00000030: 6f58 593c 0faf 5abc 7af7 da3b 9023 cebc
00000040: 0eff 57bd 5271 d33b dd0b bfbc 6e53 92bb
00000050: 391c 50bc 1ade 8fbc e205 e5bb ed47 e23c
00000060: d957 2dbc 6076 edbc c003 1e3c 7178 9cbc
00000070: 62d8 1c3d 2b0c 833c 81fc 18bd 6a94 01bd
00000080: 528e ee3b 3ef5 993b c975 27bd 3d74 b13c
00000090: 6e18 ac3c fe58 35bc 6a92 a2bd d858 40bd
000000a0: e423 343c 10fb 453b 4f1c 80bb 381d aa3d
000000b0: 9a1f c9bd fa0f 98bb a954 4ebd e0a4 13bd
000000c0: 66e3 7bbc f751 00bd f1f6 e9bb 4bd2 02bd
000000d0: 2eb2 943d d723 323b fb98 253d 1a98 8c3d
000000e0: 6dd3 de3c 49b9 b43c 8c57 613b 8a45 14bc
000000f0: 421c 8dbd 8deb aabc cdfa 143d 3d31 e23b

actor_mean.2.weight f4 [64, 64]
-0.11836991 0.029465728 0.024023654 0.15662515 0.13859898 0.012373839 -0.015958276 0.104537256
-0.25861788 0.13338782 -0.008081789 0.006292777 -0.58772576 0.029830674 0.22138985 0.36683545
-0.26888305 0.32649 0.08699249 -0.09178599 -0.054874934 0.27129403 0.025366094 0.0278012
0.004940967 0.08317109 0.23323312 -0.08547313 -0.3320306 -0.28464586 0.18657832 0.039525975
0.09117149 0.03001513 -0.12592737 -0.18850581 -0.34669432 -0.41004446 0.11147619 0.1396891
-0.3675091 -0.28963953 0.19023111 0.08329333 0.16425611 -0.16543567 0.009840772 0.2667031
-0.03745164 -0.068308234 0.1569838 0.07667077 0.17618255 -0.06579915 -0.21615835 0.26251748
-0.14304581 0.0006834433 0.25470397 -0.1124469 0.054027334 -0.1900539 0.118027024 0.18134333
-0.114451796 -0.039037663 0.024963565 -0.008650308 0.36767727 0.19020393 -0.2791842 -0.3007954
0.28575018 -0.13550337 0.40188804 -0.20243813 -0.07235129 -0.14740165 -0.2829881 -0.001055577
-0.286375 -0.3275437 -0.033886917 0.20015319 -0.5789224 0.20360982 -0.1295314 0.14862566
0.36241043 0.112171784 -0.015398779 -0.34087175 0.27516985 0.12436311 -0.088627845 -0.021185903
-0.034986105 -0.06961197 -0.12232412 -0.27144766 0.11571212 -0.09010169 -0.43774757 0.12349504
-0.21933244 -0.05359735 -0.21865457 -0.058667008 -0.05897666 0.0620627 -0.1341983 -0.014233584
-0.14445172 -0.065141715 0.2077422 -0.23568296 0.08791717 -0.01499908 0.11682374 0.348559
-0.20553958 -0.070879124 -0.033175506 -0.063077606 0.12782156 -0.043099023 -0.17557526 0.07776823
0.32853192 0.17369987 0.09324557 0.2761842 -0.12644675 -0.45450097 -0.039955404 -0.059544582
-0.16040389 0.21678047 0.04483512 0.18083206 0.068606354 0.040609147 0.21506496 -0.003220406
0.08552031 -0.10949691 -0.08390801 0.19490878 0.06177043 0.026922919 -0.035720736 0.17165145
0.12908027 0.3806298 -0.32426432 -0.31785187 -0.24071671 -0.4373655 -0.18274572 -0.2653959
-0.2689702 0.11731638 -0.20766166 -0.040093683 -0.06318842 -0.20576064 -0.3867737 -0.085993215
0.0071243686 0.07486479 0.046892926 0.05121963 0.20956069 -0.122526415 -0.06267614 -0.24850214
0.1351898 0.08762704 -0.31914833 0.015221455 0.19837321 -0.025261087 -0.0025193791 0.20850646
0.077607684 0.106928304 0.277117 0.25507274 0.14027055 -0.11091172 -0.020323016 -0.2338779
0.011914346 0.12284665 0.16856183 -0.076208256 0.029990152 0.06665869 0.09882687 0.5283747
0.0148953805 0.357467 0.08816458 -0.09305962 0.23573653 0.4896978 -0.13634299 -0.17195246
0.07305484 0.26804322 0.07644057 -0.19209531 0.02009533 0.17055099 0.022321684 0.068652056
-0.06620839 0.18506365 -0.07465907 0.04218318 0.16377291 -0.047537595 0.30346185 -0.2829196
0.1335891 -0.08813697 -0.3043744 0.21582231 0.22434627 -0.003939789 -0.1689904 -0.13331734
-0.316477 -0.2460723 0.23979175 0.28028116 0.38036612 -0.3618602 -0.02200249 -0.19864735
-0.02507346 -0.20205912 0.05440314 0.2959215 -0.20122112 0.034508146 -0.13442682 -0.023083914
0.15818724 -0.14347005 0.049428713 -0.32390505 0.058376916 0.0027448158 0.094727166 0.028578697
00000000: ec6b f2bd 1c62 f13c 41cd c43c 5862 203e
00000010: e4ec 0d3e a4bb 4a3c eeba 82bc a117 d63d
00000020: 9069 84be d196 083e 7b69 04bc a433 ce3b
00000030: 3275 16bf 755f f43c 05b4 623e dbd1 bb3e
00000040: 0aab 89be b329 a73e 1e29 b23d 4bfa bbbd
00000050: 8ac4 60bd 0de7 8a3e 8ecc cf3c 58bf e33c
00000060: d6e7 a13b 9b55 aa3d aad4 6e3e 890c afbd
00000070: eaff a9be 1abd 91be 630e 3f3e fde5 213d
00000080: 1eb8 ba3d 4ae2 f53c 1bf3 00be ab07 41be
00000090: eb81 b1be 59f1 d1be a14d e43d a90a 0f3e
000000a0: 272a bcbe a24b 94be f2cb 423e b295 aa3d
000000b0: c132 283e f867 29be 303b 213c 4f8d 883e
000000c0: e466 19bd 30e5 8bbd 5cc0 203e 9105 9d3d
000000d0: 3369 343e b4c1 86bd 9d58 5dbe b168 863e
000000e0: 9a7a 12be 1a29 333a 8f68 823e 8f4a e6bd
000000f0: c44b 5d3d 7d9d 42be 27b8 f13d 11b2 393e
00000100: b465 eabd f5e5 1fbd 6480 cc3c 05ba 0dbc
00000110: 3240 bc3e d2c4 423e 3bf1 8ebe db01 9abe
00000120: d94d 923e 65c1 0abe 45c4 cd3e f14b 4fbe
00000130: ea2c 94bd 75f0 16be d1e3 90be 495b 8aba
00000140: be9f 92be cfb3 a7be 02cd 0abd f5f4 4c3e
00000150: 4234 14bf 187f 503e e1a3 04be 5331 183e
00000160: dc8d b93e 52ba e53d 294b 7cbc be86 aebe
00000170: 10e3 8c3e 16b2 fe3d 8482 b5bd 0f8e adbc
00000180: 974d 0fbd b890 8ebd 1185 fabd 30fb 8abe
00000190: 7afa ec3d 3c87 b8bd 7320 e0be f8ea fc3d
000001a0: af98 60be e588 5bbd fce6 5fbe d14c 70bd
000001b0: 8391 71bd 7535 7e3d 476b 09be fa33 69bc
000001c0: 27eb 13be 0569 85bd 5fba 543e e056 71be
000001d0: eb0d b43d b4be 75bc 4941 ef3d 5376 b23e
000001e0: f878 52be 1329 91bd 0ae3 07bd d52e 81bd
000001f0: a8e3 023e 9a88 30bd 00ca 33be f344 9f3d
00000200: 5635 a83e 61de 313e 89f7 be3d 0468 8d3e
00000210: 427b 01be 5ab4 e8be 47a8 23bd 05e5 73bd
00000220: eb40 24be b3fb 5d3e 08a5 373d 0a2c 393e
00000230: 7d81 8c3d c755 263d fd39 5c3e 720d 53bb
00000240: 4625 af3d ea3f e0bd f6d7 abbd 2b96 473e
00000250: fe02 7d3d 748d dc3c e84f 12bd 66c5 2f3e
00000260: 9e2d 043e e9e1 c23e f905 a6be 7bbd a2be
00000270: 717e 76be 5fee dfbe b221 3bbe f9e1 87be
00000280: 76b6 89be 9243 f03d 42a5 54be 4639 24bd
00000290: ee68 81bd ebb2 52be 3407 c6be 361d b0bd
000002a0: 8973 e93b b652 993d cc12 403d adcb 513d
000002b0: 1497 563e 21ef fabd 595c 80bd 5877 7ebe
000002c0: 326f 0a3e ce75 b33d 6967 a3be 6963 793c
000002d0: 5922 4b3e 57f0 cebc 2b1c 25bb b882 553e
000002e0: c7f0 9e3d 3afd da3d 48e2 8d3e e598 823e
000002f0: 15a3 0f3e af25 e3bd 747c a6bc b07d 6fbe
00000300: 6434 433c 0697 fb3d 799b 2c3e 1313 9cbd
00000310: e8ad f53c 5a84 883d be65 ca3d 9043 073f
00000320: c10b 743c ea05 b73e a28f b43d 0b96 bebd
00000330: eb64 713e acb9 fa3e 7f9d 0bbe 4e14 30be
00000340: c79d 953d f63c 893e e08c 9c3d a2b4 44be
00000350: f69e a43c eba4 2e3e f7db b63c 7399 8c3d
00000360: 4498 87bd 5381 3d3e dbe6 98bd 45c8 2c3d
00000370: 16b4 273e c8b6 42bd 5a5f 9b3e d6da 90be
00000380: 95cb 083e 2881 b4bd f6d6 9bbe 8600 5d3e
00000390: 07bb 653e 5819 81bb d20b 2dbe 5784 08be
000003a0: 4609 a2be 61fa 7bbe f88b 753e 0381 8f3e
000003b0: 59bf c23e bd45 b9be 913e b4bc 366a 4bbe
000003c0: db66 cdbc 96e8 4ebe d4d5 5e3d 0683 973e
000003d0: e90c 4ebe 6a58 0d3d 2fa7 09be 7a1a bdbc
000003e0: d6fb 213e d0e9 12be c375 4a3d e2d6 a5be
000003f0: a21c 6f3d 5ee2 333b 5100 c23d df1d ea3c

actor_mean.2.bias f4 [64]
-0.050366413 -0.010757968 0.0017544444 -0.014777941 0.0106774615 -0.012748652 -0.001844497 0.037462715
-0.031091956 0.0018726803 0.06306787 0.093729824 0.0006848933 -0.019121712 -0.04025998 0.02883336
0.0005703526 -0.048961986 0.04949847 0.044251196 -0.097211406 0.010354005 0.026779944 -0.029022532
-0.0025627955 0.025917958 -0.017395895 0.012044926 0.024995461 -0.017008465 0.07643572 0.05128241
-0.02417067 1.131696e-05 -0.04028348 -0.0089264875 -0.06456542 0.057161983 0.00021442915 0.017518612
0.0044463333 -0.022692896 -0.03165347 0.0054150545 0.00095075276 0.046868607 0.01387083 0.025001757
0.03575139 -0.010120761 -0.017994843 -0.019543082 0.020084087 0.015518205 0.05650754 -0.011092275
-0.033862796 -0.0068586767 -0.043297976 0.020581258 -0.031203514 0.01976031 -0.080559716 0.018336557
00000000: 034d 4ebd 3042 30bc 63f5 e53a 2d1f 72bc
00000010: 85f0 2e3c b9df 50bc 0dc3 f1ba 8172 193d
00000020: 8fb4 febc b974 f53a ba29 813d 6cf5 bf3d
00000030: 698a 333a 23a5 9cbc a6e7 24bd f033 ec3c
00000040: b783 153a 5d8c 48bd e8be 4a3d be40 353d
00000050: c616 c7bd d8a3 293c 9d61 db3c a9c0 edbc
00000060: 93f4 27bb e651 d43c d681 8ebc 1558 453c
00000070: 48c3 cc3c 5655 8bbc 558a 9c3d 810d 523d
00000080: 9201 c6bc f9dd 3d37 4a00 25bd 6740 12bc
00000090: e03a 84bd af22 6a3d 63d8 6039 3183 8f3c
000000a0: 8cb2 913b 74e6 b9bc 12a7 01bd c570 b13b
000000b0: f03b 793a 4cf9 3f3d 7a42 633c 7cd0 cc3c
000000c0: 0d70 123d 8cd1 25bc ec69 93bc d018 a0bc
000000d0: 6287 a43c 1240 7e3c 7374 673d 60bc 35bc
000000e0: b7b3 0abd c0be e0bb 3859 31bd 079a a83c
000000f0: 839e ffbc 60e0 a13c 7efc a4bd 8c36 963c

actor_mean.4.weight f4 [2, 64]
-0.04333216 0.14589587 -0.060004614 -0.08893498 0.0853152 0.038173568 0.17602108 -0.034996588
0.12595053 0.13048075 0.10152171 -0.03799797 0.13314989 -0.11680548 -0.06616388 0.17291433
-0.22243062 -0.0552986 -0.060884714 0.07307084 -0.058782257 -0.005724479 -0.003191139 0.051023424
-0.18345307 -0.06044265 0.07815227 0.09527411 0.061192196 -0.1417539 -0.10526416 0.04284519
-0.007733167 0.019815411 0.2573242 -0.21250653 -0.048040513 -0.017965239 0.06982106 -0.060690694
0.026860654 0.058202 -0.070212245 -0.0638413 -0.15667365 -0.010324608 -0.016399266 0.07941656
0.05965595 0.05037847 -0.17556167 0.042661212 -0.08289527 0.0444494 0.074473 -0.17657562
-0.036081016 0.119196974 -0.035351653 -0.06022904 -0.14521329 -0.2809808 0.09417957 -0.052435
0.05197326 0.08789901 0.14608629 0.013686214 -0.0019742409 -0.0019482381 0.118630186 -0.22650309
0.13190754 0.124769166 -0.1602153 0.25027254 0.06289985 -0.0052799163 -0.07205673 0.12829801
-0.005275887 0.1522814 -0.17977567 -0.28841364 -0.21256089 0.3428831 -0.03163028 -0.13650143
0.068043336 -0.1988822 -0.051060617 0.18194541 -0.024775594 -0.053641237 0.058907263 0.103995316
0.24614228 0.075372934 -0.050663445 -0.045102447 0.12770712 0.124528736 0.1679538 -0.13437855
0.07223287 -0.047327008 0.2025055 -0.19880971 0.030517885 -0.063176304 -0.18552221 -0.026446896
-0.147697 -0.09046265 0.029910883 -0.08119644 -0.0413786 -0.11534861 0.0036384999 -0.061873198
0.103332154 -0.09874437 0.23125139 -0.16128184 0.05113739 -0.04740124 -0.23538157 0.21396342
00000000: 107d 31bd ba65 153e 66c7 75bd 8b23 b6bd
00000010: bcb9 ae3d e35b 1c3d df3e 343e 9558 0fbd
00000020: 2df9 003e bf9c 053e 9dea cf3d c2a3 1bbd
00000030: 7258 083e b637 efbd ee80 87bd 7410 313e
00000040: dac4 63be c980 62bd 4062 79bd 2aa6 953d
00000050: aac5 70bd 6994 bbbb 6e22 51bb f0fd 503d
00000060: 1fdb 3bbe b692 77bd 4c0e a03d 131f c33d
00000070: aba4 7a3d ef27 11be bc94 d7bd 707e 2f3d
00000080: 8266 fdbb ee53 a23c ffbf 833e 509b 59be
00000090: 21c6 44bd d62b 93bc 58fe 8e3d ce96 78bd
000000a0: e00a dc3c 3865 6e3d 70cb 8fbd 3abf 82bd
000000b0: 0f6f 20be 8b28 29bc c157 86bc 26a5 a23d
000000c0: cc59 743d a859 4e3d 70c6 33be 86bd 2e3d
000000d0: ffc4 a9bd 9310 363d 4d85 983d 3dd0 34be
000000e0: b0c9 13bd 8b1d f43d e5cc 10bd bab2 76bd
000000f0: cbb2 14be b7dc 8fbe 38e1 c03d 15c6 56bd
00000100: eae1 543d 6504 b43d a597 153e 243c 603c
00000110: 4462 01bb 065c ffba 62f4 f23d 6df0 67be
00000120: c512 073e fa86 ff3d 7b0f 24be b923 803e
00000130: a3d1 803d 2603 adbb 7b92 93bd 8e60 033e
00000140: 59e1 acbb a8ef 1b3e 1d17 38be f4aa 93be
00000150: 90a9 59be 608e af3e c18e 01bd 08c7 0bbe
00000160: 4e5a 8b3d c7a7 4bbe f024 51bd e64f 3a3e
00000170: 30f6 cabc eab6 5bbd be48 713d 7ffb d43d
00000180: b90c 7c3e 205d 9a3d 7984 4fbd 58bd 38bd
00000190: a8c5 023e ec08 ff3d 15fc 2b3e 889a 09be
000001a0: d4ee 933d f7d9 41bd 9a5d 4f3e c694 4bbe
000001b0: a500 fa3c 9462 81bd 89f9 3dbe 29a7 d8bc
000001c0: e23d 17be 7b44 b9bd ab07 f53c 524a a6bd
000001d0: 9b7c 29bd e43b ecbd e673 6e3b c06e 7dbd
000001e0: cf9f d33d 7d3a cabd 2acd 6c3e 1127 25be
000001f0: 7175 513d cd27 42bd de07 71be 3a19 5b3e

actor_mean.4.bias f4 [2]
0.012619761 -0.019938655
00000000: 1dc3 4e3c 6456 a3bc
