jsbgym/models/train_saves/ppo_ts2e-2_disturb_betacuri_tsteps2e6_1_95446_20-01_20:17:15.pt (torch, 62269 bytes, 14 tensors)

actor_logstd f4 [1, 2]
0	0xbdb6870c	-0.08912477
1	0xbda5f172	-0.08102693

conv.0.weight f4 [3, 1, 5, 1]
0	0xbf0049bc	-0.5011251
1	0xbe8d51c9	-0.2760146
2	0xbeff11d8	-0.498183
3	0x3e02b428	0.12764037
4	0x3e6c168b	0.23055474
5	0x3ec4ab65	0.38412014
6	0x3e0d403c	0.13794035
7	0x3f14b6ce	0.5809144
8	0x3f7a0bf9	0.9767452
9	0x3f218b64	0.6310332
10	0x3ea05d0a	0.31320983
11	0xbf34bd8a	-0.70601714
12	0x3eab51e9	0.3346093
13	0xbc74f38b	-0.014950643
14	0xbee75091	-0.45178655

conv.0.bias f4 [3]
0	0x3cd95ac3	0.026532536
1	0xbcfda1e7	-0.03096099
2	0x3be84084	0.007087769

critic.0.weight f4 [64, 42]
0	0xbd874dd2	-0.0660664
1	0xbe434450	-0.19069028
2	0xbe8b3a08	-0.27192712
3	0xbe0ae1d7	-0.13562714
4	0x3d52ec22	0.051494725
5	0xbe556c75	-0.20842154
6	0x3d128c61	0.035778407
7	0x3e96916f	0.29407832
8	0xbce74e8b	-0.028235694
9	0xbd6bcd30	-0.05756873
10	0xbe2cd8c9	-0.16879572
11	0x3cb93584	0.022608526
12	0x3bbf9064	0.00584607
13	0x3c0d2ea1	0.008617074
14	0x3ea8e2b6	0.32985467
15	0x3dba288a	0.090897635
16	0x3e9d9b81	0.30782703
17	0x3daaa799	0.08332748
18	0x3e2761a7	0.16345845
19	0xbd5d40f2	-0.054017015
20	0x3e3ca1d8	0.18421113
21	0x3cb41edd	0.021987373
22	0xbdac8fa8	-0.08425838
23	0x3e6f08d2	0.23343208
24	0xbd0a7109	-0.033799205
25	0xbda9f84f	-0.08299314
26	0x3d4d45bb	0.05011533
27	0x3dd1424e	0.10217725
28	0xbe964678	-0.29350638
29	0x3e80ea3b	0.25178704
30	0xbe8f29cf	-0.27961585
31	0x3e0a1882	0.13485911
32	0x3d830895	0.06398121
33	0xbe08275f	-0.13296269
34	0x3d9fdef7	0.07806199
35	0xbb6aab1d	-0.0035807558
36	0x3d9cf442	0.07663776
37	0x3e2b5d23	0.16734748
38	0xbda814aa	-0.08207066
39	0xbcf59436	-0.029977899
40	0x3df00f36	0.11721651
41	0x3e804565	0.25052944
42	0xbbba7209	-0.0056898636
43	0xbe3061d8	-0.17224824
44	0xbf21662b	-0.6304652
45	0xbdc979e2	-0.098377004
46	0x3d49058a	0.049077548
47	0xbdb44575	-0.088023104
48	0x3d52e2c6	0.0514858
49	0xbdb220f7	-0.08697694
50	0xbdb6017e	-0.08887003
51	0xbe0b2eb3	-0.13592033
52	0xbb340650	-0.0027469583
53	0x3d396169	0.045258913
54	0xbe2a44dd	-0.16627832
55	0x3ccbbb69	0.024869638
56	0xbc6d3e0d	-0.014480126
57	0x3d03a537	0.032139983
58	0x3e380fab	0.17974727
59	0xbe029fa3	-0.12756209
60	0x3dfd5664	0.12369993
61	0x3dbfcb10	0.09364903
62	0x3dac6787	0.08418184
63	0x3d0891f1	0.033342306
64	0xbdb78c5b	-0.089623176
65	0xbe2f333b	-0.17109387
66	0xbd0eb8c0	-0.03484416
67	0xbc9950f9	-0.018715369
68	0x3e01ef84	0.12689024
69	0xbd4b4b8a	-0.049632587
70	0xbda0d239	-0.07852597
71	0xbe4548ea	-0.19266096
72	0xbe4c434d	-0.19947548
73	0xbd943377	-0.07236379
74	0xbe372c46	-0.17887983
75	0x3e11d062	0.14239648
76	0xbe6a7873	-0.2289751
77	0xbe685bf1	-0.22691323
78	0x3d0569c3	0.032571565
79	0x3dd9586e	0.1061257
80	0x3da0a0f5	0.078432
81	0x3d830416	0.06397264
82	0x3ec615ca	0.386885
83	0xbe574d68	-0.21025622
84	0x3df3cd74	0.119044214
85	0x3e98ea36	0.2986619
86	0xbe97d4a3	-0.29654416
87	0x3e8eace6	0.27866286
88	0x3e2d4e7a	0.16924468
89	0x3e76d735	0.24105532
90	0xbdd428d5	-0.103593506
91	0x3ec21c60	0.37912273
92	0x3dbe48df	0.09291243
93	0x3a64e83a	0.0008732114
94	0x3d9a8ede	0.07546781
95	0x3da1dab8	0.079030454
96	0xbe63273a	-0.22182932
97	0x3e8ef0e6	0.27918166
98	0xbe12f26b	-0.14350288
99	0xbe6f3da4	-0.23363358
100	0xbe6f4bef	-0.2336881
101	0x3d90d49a	0.070718005
102	0x3e738277	0.23780237
103	0xbdf8f134	-0.12155381
104	0x3e54bdd9	0.20775546
105	0xbeca0d24	-0.3946315
106	0xbe355baf	-0.17710756
107	0xbda6087e	-0.081070885
108	0xbd84d193	-0.064852856
109	0x3e055711	0.13021494
110	0x3d0e8289	0.034792457
111	0xbd0311c0	-0.03199935
112	0xbe5412bb	-0.2071027
113	0x3d24e292	0.040255137
114	0xbd0f9f89	-0.035064254
115	0x3eb5b19d	0.3548707
116	0x3e0b4073	0.13598804
117	0x3edf595b	0.4362286
118	0xbf1957cf	-0.5989961
119	0x3e8f5ddd	0.280013
120	0x3e2c764f	0.16842006
121	0xbe2c8464	-0.16847378
122	0xbdb9530b	-0.09049042
123	0x3d14feee	0.036375932
124	0x3c556543	0.013024631
125	0x3ccd9855	0.025097052
126	0xbc377471	-0.011197195
127	0xbcb05dbb	-0.02152907
128	0x3e64b4e4	0.2233463
129	0x3e520e31	0.20513226
130	0x3e5e87a1	0.21731426
131	0x3d5b3431	0.05351657
132	0x3dac7ca5	0.084222116
133	0xbed3278d	-0.41241112
134	0x3e65c9e0	0.2244029
135	0x3e8202fb	0.253929
136	0x3dd9bb32	0.10631408
137	0x3e26a2dc	0.16273063
138	0x3d61870f	0.055060443
139	0xbeae507c	-0.3404578
140	0xbc834db6	-0.016028266
141	0xbd82fe39	-0.063961454
142	0xbe08fb5b	-0.13377135
143	0x3e93df31	0.2888122
144	0xbcd3451f	-0.025789795
145	0x3cd196e9	0.025584655
146	0x3e75e1c7	0.24011908
147	0x3e321afc	0.17393106
148	0xbd169bcf	-0.036769684
149	0x3d98a155	0.07452647
150	0xbe56c583	-0.20973782
151	0x3e950efc	0.29112995
152	0x3ecd96dd	0.40154162
153	0xbe2286e0	-0.15871763
154	0x3de13dd9	0.10998125
155	0x3d4fe3b8	0.05075428
156	0xbd2988ed	-0.04139035
157	0x3e3c7f38	0.18407905
158	0xbdd7102b	-0.10501131
159	0x3e9d8910	0.30768633
160	0x3d451321	0.048113946
161	0xbe2b699c	-0.16739506
162	0x3e0f45c1	0.13991453
163	0x3d1d3f5f	0.038390514
164	0xbe24644c	-0.16053885
165	0x3d9c8464	0.07642439
166	0xbd010aa4	-0.03150429
167	0x3e3c06df	0.18361996
168	0xbe59913c	-0.21246809
169	0xbe70cd15	-0.23515733
170	0xbe63fc45	-0.22264202
171	0xbd8b53bd	-0.06803081
172	0x3c52740a	0.012845049
173	0xbc8932d7	-0.016747875
174	0xbdffdbda	-0.12493105
175	0x3e42e260	0.19031668
176	0xbe8a17ac	-0.26971185
177	0xbe2f78f0	-0.17135978
178	0xba159937	-0.000570673
179	0xbe4174a9	-0.18892159
180	0x3e8adb7a	0.27120572
181	0xbe9aadee	-0.30210823
182	0x3e454580	0.19264793
183	0xbeab3fb2	-0.33447033
184	0xbdefe0b2	-0.11712779
185	0xbdb4b341	-0.088232525
186	0x3dd8b51f	0.10581421
187	0xbdbdeaf3	-0.09273329
188	0x3e43adf3	0.19109325
189	0x3e13e0d3	0.14441232
190	0xbdd90f2f	-0.10598599
191	0xbddb4d16	-0.10708062
192	0x3e197f9a	0.14990082
193	0x3d2a6eaf	0.041609462
194	0x3e738e5a	0.23784772
195	0x3e8fd65f	0.2809324
196	0xbea6cc57	-0.32577774
197	0x3ec3fb2b	0.38277563
198	0xbe644a46	-0.22293958
199	0x3d9a552d	0.07535777
200	0x3e7a1e39	0.24425592
201	0x3beee457	0.007290404
202	0xbeb9f39d	-0.36318675
203	0x3ebfe5e7	0.3748009
204	0x3d3809e0	0.044931293
205	0x3edb1b1c	0.4279412
206	0xbd051054	-0.032486275
207	0xbda15d11	-0.07879079
208	0xbe8dc3c9	-0.27688435
209	0xbd358651	-0.044317547
210	0x3d8e7be8	0.06957227
211	0x3db17104	0.08664134
212	0x3e81168a	0.25212508
213	0xbd58c0e0	-0.052918315
214	0xbe2a2776	-0.16616616
215	0xbc0adda9	-0.008475699
216	0x3e7cf1ea	0.24701658
217	0xbea48d87	-0.32139227
218	0x3da3fe6d	0.08007512
219	0x3d4febbb	0.05076192
220	0x3dac61ca	0.08417089
221	0x3d82e537	0.063913755
222	0x3e350341	0.17677023
223	0x3ca9d924	0.020733424
224	0x3e0a6a81	0.1351719
225	0xbd54876f	-0.051886972
226	0xbe1eb0f0	-0.15497184
227	0xbe579027	-0.21051084
228	0xbded67d4	-0.11592069
229	0xbe0b8cf4	-0.13627988
230	0xbcf94e09	-0.030432718
231	0x3e4f914f	0.20270275
232	0xbe4b9299	-0.19880141
233	0xbeb536f6	-0.35393494
234	0x3c40a9f0	0.011759266
235	0xbe25c3df	-0.16188
236	0xbf1f5987	-0.6224598
237	0xbcd3d989	-0.025860565
238	0x3d392cd1	0.045208756
239	0x3c263fd9	0.010147058
240	0x3e07672b	0.13222949
241	0xbdbd7994	-0.09251705
242	0xbdb54d0b	-0.088525854
243	0x3ee56c3c	0.4480914
244	0x3e145606	0.1448594
245	0xbe66ad90	-0.22527146
246	0xbe273e3a	-0.16332331
247	0xbe91e878	-0.28497672
248	0x3d8d27a0	0.068923235
249	0xbd967ee6	-0.07348423
250	0x3f021f05	0.5082858
251	0x3f340e81	0.7033463
252	0xbe717486	-0.23579606
253	0xbf055b64	-0.52092576
254	0x3e2d4c6d	0.16923685
255	0x3d9c3acc	0.07628402

critic.0.bias f4 [64]
0	0x3dc56936	0.09639208
1	0x3e025752	0.12728623
2	0x3d71ce6c	0.05903475
3	0xbd71a31b	-0.05899344
4	0x3de34ddf	0.11098837
5	0xbd1b8e7c	-0.03797768
6	0xbce12635	-0.027484039
7	0xbc005464	-0.00783262
8	0x3dcf407e	0.10119723
9	0xbd561942	-0.05227018
10	0x3ca77bd2	0.020444784
11	0x3d9c6bea	0.076377705
12	0x3d923d5e	0.07140611
13	0xbdc9fcb9	-0.09862656
14	0x3d1829ac	0.037149116
15	0x3dd1c60b	0.10242852
16	0xbcf69041	-0.030098082
17	0xbdf8e016	-0.12152116
18	0x3d504f72	0.050857015
19	0xbd69be19	-0.057066057
20	0xbd96a902	-0.073564544
21	0x3d96a27d	0.07355211
22	0xbe008f31	-0.12554623
23	0x3cb862ed	0.022508109
24	0xbe05141a	-0.1299595
25	0xbdb40c20	-0.08791375
26	0x3d49fdcf	0.049314316
27	0x3d8f70d4	0.07003942
28	0x3d4cc0c4	0.049988523
29	0x3c836c6f	0.016042916
30	0xbcf3c888	-0.029758707
31	0x3dbfef4f	0.09371816
32	0xbc16cda8	-0.009204306
33	0x3d81bc83	0.06334784
34	0x3d7935e2	0.060842402
35	0x3ced6c7e	0.028982397
36	0x3e2d6787	0.16934024
37	0x3df5c899	0.120011516
38	0xbd3c9f5d	-0.04605042
39	0x3dc0c24a	0.09412058
40	0x3cfda467	0.030962182
41	0xbd9b14ef	-0.07572352
42	0xbd3185d3	-0.043340515
43	0x3c56cec2	0.013110818
44	0xbd0c0689	-0.03418592
45	0x3dd82355	0.10553614
46	0xbd9480eb	-0.07251152
47	0x3d0b662d	0.03403299
48	0x3a2908d5	0.00064481545
49	0x3c0fc1a2	0.008774193
50	0xbd031b68	-0.03200856
51	0xbd090bb1	-0.033458415
52	0xbc2bd98a	-0.010488877
53	0x3d16bf93	0.036803793
54	0xbda30bcb	-0.07961234
55	0x3d35d0df	0.044388648
56	0xbb669035	-0.003518117
57	0xbb77c220	-0.0037804917
58	0xbc848aa9	-0.0161794
59	0x3bce8686	0.0063026575
60	0xbdac1e8e	-0.08404265
61	0x3cef520d	0.02921393
62	0x3b46ebe3	0.0030353002
63	0xbc3c83d8	-0.011506043

critic.2.weight f4 [64, 64]
0	0xbd302e19	-0.043012712
1	0x3e21e1d9	0.1580881
2	0xbeb70310	-0.35744524
3	0xbdf04af2	-0.11733045
4	0xbe885c16	-0.26632756
5	0xbe0d061f	-0.13771866
6	0xbe2da6cd	-0.1695816
7	0x3e6a5341	0.22883321
8	0xbe7e5e0d	-0.24840565
9	0x3dd3d8d2	0.103440896
10	0x3dc0e94b	0.09419497
11	0x3e052299	0.13001479
12	0x3e08a31e	0.13343474
13	0xbda3f1f0	-0.0800513
14	0xbe15eaa8	-0.14640296
15	0xbe4aba37	-0.19797598
16	0xbe8ac3f6	-0.2710263
17	0xbe5922ca	-0.21204677
18	0xbed312f2	-0.41225392
19	0x3e444957	0.19168602
20	0xbe6a367f	-0.22872351
21	0x3e309cda	0.17247334
22	0xbd0e511f	-0.03474533
23	0xbe0649d8	-0.13114107
24	0xbd75f0b8	-0.06004402
25	0x3ea06a48	0.31331086
26	0x3d87c5a4	0.06629494
27	0x3dbb15d1	0.091350205
28	0xbe101307	-0.14069758
29	0xbe4b0eff	-0.1982994
30	0xbdf55ff9	-0.11981196
31	0x3e0a1e50	0.13488126
32	0xbd5a8f10	-0.05335909
33	0xbe9802f5	-0.29689756
34	0x3b3b19d2	0.0028549326
35	0xbe7794a0	-0.2417779
36	0xbe468c0f	-0.19389366
37	0x3d50b078	0.050949544
38	0xbda558d7	-0.080735855
39	0xbe95c430	-0.29251242
40	0xbd2bb3b1	-0.041919414
41	0x3ddf82d5	0.10913626
42	0x3d27874a	0.040900506
43	0xbe2de30a	-0.1698114
44	0x3ec09c13	0.37619075
45	0xbd192c63	-0.037395846
46	0xbdb8b0b1	-0.09018076
47	0xbdb434d9	-0.087991424
48	0x3e46791e	0.1938214
49	0x3eb085e6	0.34477156
50	0x3e1be5e4	0.15224415
51	0xbe21b370	-0.15791106
52	0xbe21e123	-0.15808539
53	0x3ced5138	0.028969392
54	0xbccd5d30	-0.02506885
55	0xbc545d37	-0.012961677
56	0x3e9e03bd	0.30862227
57	0xbdaf1f31	-0.08550871
58	0xbc9ffa14	-0.019528426
59	0xbe602cb6	-0.21892056
60	0xbde0ee41	-0.10982943
61	0x3e270fd3	0.1631463
62	0xbe5a13c7	-0.21296607
63	0x3e5edd9d	0.21764226
64	0x3e034c4d	0.12822075
65	0x3c5d6811	0.013513581
66	0x3e06358c	0.13106364
67	0xbd99eba7	-0.0751565
68	0x3e4d55d0	0.20052266
69	0xbddea6d4	-0.10871664
70	0xbe1d8739	-0.15383615
71	0xbded391d	-0.11583159
72	0x3ef1c300	0.47219086
73	0xbe2ee679	-0.17080106
74	0xbc8ac9b5	-0.016941885
75	0x3e5eb2b4	0.21747857
76	0x3c2d72c2	0.010586442
77	0x3f1651d9	0.5871864
78	0xbdacb0ec	-0.08432183
79	0x3de26baf	0.11055695
80	0xbe10feb2	-0.14159659
81	0x3dd2bc8c	0.10289869
82	0xbe2a248b	-0.16615503
83	0xbe770acd	-0.24125214
84	0xbdfd1fdd	-0.12359593
85	0x3f00c904	0.50306726
86	0xbe05f62f	-0.13082193
87	0x3e0bf99f	0.13669442
88	0xbcefea8d	-0.029286647
89	0x3e84c345	0.2593023
90	0x3e03108f	0.12799285
91	0x3dd8487f	0.105607025
92	0x3cff31c9	0.03115167
93	0xbe92abef	-0.286468
94	0x3d805570	0.06266296
95	0xbc729269	-0.014805415
96	0xbe6e3d40	-0.23265553
97	0xbe144c4b	-0.14482228
98	0x3e64754e	0.22310373
99	0xbd85536c	-0.06510052
100	0xbe40cc08	-0.18827832
101	0xbdc329d2	-0.09529461
102	0xbce1fa98	-0.027585313
103	0xbc2d8c77	-0.010592571
104	0x3da280f2	0.079347506
105	0x3de8c4df	0.11365675
106	0x3d98d041	0.07461596
107	0xbdade5c1	-0.08491088
108	0xbe3ec5b8	-0.18630111
109	0xbe15ebf3	-0.14640789
110	0x3d7d736a	0.061877646
111	0xbdb4d158	-0.08828992
112	0xbd1ce1ac	-0.038301155
113	0xbeba7222	-0.364152
114	0x3b217794	0.0024637925
115	0xbde009b9	-0.109393544
116	0x3e0fc753	0.1404088
117	0xbe01e330	-0.12684321
118	0xbdf95b64	-0.121756345
119	0xbe108e8b	-0.14116876
120	0xbc14cb55	-0.009081681
121	0xbce73486	-0.028223287
122	0xbdee9745	-0.11649946
123	0x3e12c85c	0.14334244
124	0x3cfeec87	0.031118644
125	0x3e4c84eb	0.19972579
126	0x3d983172	0.07431306
127	0x3d7fb86a	0.06243173
128	0x3e207e6d	0.15673228
129	0x3ea7ffd1	0.3281236
130	0x3e8f5808	0.2799685
131	0x3d3f66d3	0.04672892
132	0x3dd90688	0.10596949
133	0x3e9d5ad3	0.30733356
134	0xbead8281	-0.3388863
135	0x3d3669d8	0.044534534
136	0x3da2ce63	0.079495214
137	0xbe5cfd2b	-0.21580951
138	0x3d6730b1	0.05644292
139	0x3e93c7b2	0.28863293
140	0x3ed62e21	0.4183207
141	0xbcda47a2	-0.026645485
142	0x3e772835	0.24136432
143	0xbe2229eb	-0.15836303
144	0xbd990f7e	-0.07473658
145	0xbc4687ae	-0.0121173095
146	0x3d9b198e	0.075732335
147	0x3e166470	0.14686751
148	0x3e28ff0c	0.16503543
149	0x3c2be91d	0.01049259
150	0xbd8c3b49	-0.06847245
151	0x3e4228a7	0.1896082
152	0xbbc3884c	-0.0059671756
153	0x3e4bcf65	0.19903333
154	0xbe69cb24	-0.22831398
155	0xbbf3d336	-0.00744095
156	0x3e73a597	0.23793636
157	0xbd1efe08	-0.03881648
158	0xbd233fb5	-0.039855678
159	0x3d97c361	0.074103124
160	0xbcb41d83	-0.021986729
161	0x3e37baa7	0.17942296
162	0xbea012bf	-0.31264302
163	0x3e424f0d	0.18975468
164	0x3e448ab3	0.19193535
165	0x3e1e2d4c	0.15446967
166	0xbcfca1a4	-0.030838795
167	0x3d2e8ef3	0.042616796
168	0xbe976852	-0.29571778
169	0xbda11aa3	-0.07866409
170	0xb812430d	-3.487156e-05
171	0x3c8ba20b	0.017045042
172	0xbe6cfd3b	-0.23143475
173	0x3e12f479	0.14351071
174	0xbdc72916	-0.097246334
175	0x3d8ec8dd	0.069719054
176	0xbe2e08fb	-0.16995613
177	0x3ef5405f	0.47900674
178	0xbd107a3d	-0.035272826
179	0xbdd5af32	-0.104338065
180	0x3db59595	0.08866421
181	0x3c4ebca0	0.012618214
182	0x3c12e13b	0.008964832
183	0xbc1f829f	-0.009735732
184	0xbd3561c6	-0.044282697
185	0x3eda8564	0.42679894
186	0xbe9a2364	-0.30105126
187	0x3d5b2866	0.053505324
188	0x3e518ea0	0.20464563
189	0x3e3c6065	0.18396147
190	0x3d258f53	0.040419888
191	0xbe078029	-0.13232483
192	0xbce03f54	-0.027373947
193	0xbc0e5e7e	-0.008689521
194	0xbe94af22	-0.29039866
195	0x3da38af9	0.07985491
196	0x3dbf5d58	0.09343976
197	0x3e849c2a	0.25900394
198	0x3e61f24c	0.22065085
199	0x3e4801c1	0.19531919
200	0xbd61e35d	-0.05514847
201	0x3dbf7c31	0.093498595
202	0xbcd08522	-0.025454108
203	0xbc06dd08	-0.008231409
204	0xbd555fbd	-0.052093256
205	0xbb55f84c	-0.0032649217
206	0x3e462895	0.19351418
207	0x3ea1fb33	0.31636962
208	0xbdfd3c19	-0.12364978
209	0x3e747707	0.2387353
210	0xbdef913d	-0.11697624
211	0xbe5e28d9	-0.2169527
212	0x3e039f9a	0.12853852
213	0xbdf20c89	-0.11818797
214	0x3db3c619	0.087780185
215	0xbea4bc0f	-0.32174727
216	0x3dccb896	0.099961445
217	0x3ceaa584	0.028643377
218	0x3db6066f	0.08887946
219	0xbe158b86	-0.14604005
220	0xbe0b8f10	-0.13628793
221	0x3d6acd75	0.057324845
222	0xbea1a2ea	-0.31569606
223	0xbd920107	-0.07129102
224	0xbe393937	-0.18088232
225	0x3dceb7bb	0.100936376
226	0x3e29c62e	0.16579506
227	0x3ec47f59	0.3837841
228	0xbed25286	-0.41078585
229	0xbcf77308	-0.030206218
230	0xbeb02a7a	-0.34407407
231	0xbdf7b561	-0.12095142
232	0x3de46323	0.11151721
233	0x3d79abb9	0.060954783
234	0x3e84a32e	0.25905746
235	0xbe826584	-0.25468075
236	0xbdad42ad	-0.08459983
237	0x3e7970e9	0.24359478
238	0xbb81f9e3	-0.0039665564
239	0x3e64a29d	0.22327657
240	0xbee44150	-0.4458108
241	0x3e6a865d	0.22902818
242	0x3e747f39	0.23876657
243	0xbdbee126	-0.093202874
244	0x3d799c22	0.060939915
245	0xbe590885	-0.21194656
246	0x3e1c51f1	0.15265633
247	0xbe5e146e	-0.21687481
248	0xbd427f5a	-0.047484733
249	0x3d8d277d	0.068922974
250	0x3e2519ef	0.16123174
251	0x3daac6bc	0.08338687
252	0xbe01d1a1	-0.12677623
253	0x3dd26b7f	0.102744095
254	0xbebecd41	-0.3726597
255	0x3d7d8533	0.061894607

critic.2.bias f4 [64]
0	0xbdbc2fab	-0.091887794
1	0x3d1500de	0.03637778
2	0x3d9f9a0c	0.07793054
3	0x3cca69e4	0.024708696
4	0xbd78f537	-0.06078073
5	0x3ca6bc9a	0.020353604
6	0x3ca9af1d	0.020713383
7	0xbd684d38	-0.056714267
8	0x3cdb7477	0.026788933
9	0xbdbf7ad3	-0.09349599
10	0xbd8a1e53	-0.06744065
11	0xbe1ae510	-0.15126443
12	0x3d730fb2	0.05934114
13	0x3d5a8405	0.05334856
14	0x3c0215b6	0.007939747
15	0x3e48cd2c	0.19609517
16	0xbd1e10e4	-0.038590327
17	0xbe42de8a	-0.19030204
18	0x3ca1976e	0.019725528
19	0xbe17eea1	-0.14837123
20	0xbda4a426	-0.08039121
21	0x3d5e3e27	0.05425849
22	0xbd926c8e	-0.071496114
23	0xbd789385	-0.06068756
24	0xbca949d2	-0.020665083
25	0xbcedacf5	-0.029013136
26	0xbcef55f6	-0.029215794
27	0x3d425a35	0.04744931
28	0xbc84a4ad	-0.016191805
29	0xbc411b96	-0.011786362
30	0x3c9b5a3a	0.018963922
31	0xbd23a405	-0.039951343
32	0x3d732c8b	0.05936865
33	0x3cd89270	0.026437014
34	0x3cf8f6a0	0.030391037
35	0x3ccf325e	0.025292572
36	0x3bd32efa	0.006444809
37	0xbb976501	-0.004620195
38	0x3d86870e	0.065687284
39	0x3c8275ed	0.015925372
40	0xbd879070	-0.06619346
41	0xbc07f404	-0.008297924
42	0xbd9a0aa6	-0.07521562
43	0x3c80fafd	0.01574468
44	0x3e22cbf1	0.1589811
45	0xbd731f45	-0.059355993
46	0x3de79f40	0.113096714
47	0xbd74f99a	-0.05980835
48	0x3d5ac89b	0.05341397
49	0x3ca5366b	0.02016755
50	0x3dbba969	0.09163172
51	0x3d1e8be3	0.038707625
52	0x3d289968	0.041161925
53	0xbbc3cf5f	-0.0059756483
54	0x3d7af352	0.061267205
55	0x3e026b93	0.12736349
56	0x3d33e13a	0.043915965
57	0x3e1aec4d	0.15129204
58	0xbd13bc71	-0.036068384
59	0xbd50c1ef	-0.0509662
60	0x3d948f72	0.072539225
61	0xbd149456	-0.036274277
62	0xbc85b7e9	-0.016323047
63	0xbdc104c0	-0.09424734

critic.4.weight f4 [1, 64]
0	0x3d9c9568	0.076456845
1	0xbd3e6305	-0.04648115
2	0xbe899c20	-0.26876926
3	0xbdfaa8b1	-0.122392066
4	0x3e150636	0.1455315
5	0xbd62d46b	-0.05537836
6	0x3b2bd1cb	0.0026217576
7	0x3e107eea	0.14110914
8	0xbe011462	-0.12605432
9	0x3e6fa099	0.23401107
10	0x3e34d1e9	0.176582
11	0x3e2b33d8	0.16718996
12	0xbda40402	-0.08008577
13	0xbdb648ba	-0.0890059
14	0xbe2ff539	-0.17183389
15	0xbe3d6f4a	-0.18499485
16	0x3e0f64ff	0.1400337
17	0x3e063c13	0.13108854
18	0xbe059a55	-0.13047154
19	0x3e89c762	0.2690993
20	0x3d642a3d	0.055704344
21	0xbd31f76f	-0.04344886
22	0x3e3f05c3	0.18654542
23	0x3deb4e3c	0.114895314
24	0x3e926e8c	0.28599966
25	0xbdad0f2b	-0.08450159
26	0x3d6ff475	0.05858274
27	0xbd58bba6	-0.05291333
28	0xbe19e375	-0.15028174
29	0x3dbe3d54	0.09289041
30	0x3e328951	0.17435195
31	0x3de7a148	0.11310059
32	0xbda7613a	-0.08172841
33	0xbd3996ac	-0.045309708
34	0xbe23d111	-0.15997721
35	0xbd408f96	-0.047011934
36	0xbca814fc	-0.020517819
37	0x3e277579	0.16353406
38	0xbe71443e	-0.23561189
39	0xbdc5ad8b	-0.09652241
40	0x3e0d7249	0.13813128
41	0x3e30173a	0.1719636
42	0x3d92ca21	0.07167459
43	0xbe294077	-0.16528498
44	0xbe8b50d5	-0.27210107
45	0x3d7699d9	0.060205314
46	0xbe4174ee	-0.18892261
47	0x3dad3407	0.08457189
48	0xbd9cf9b9	-0.07664818
49	0xbe29a75d	-0.1656775
50	0xbe4ed91c	-0.20200008
51	0xbec6bff3	-0.3881832
52	0xbdc10f1e	-0.094267115
53	0x3d91c39d	0.071173884
54	0xbe60e386	-0.21961793
55	0xbdea9fa1	-0.11456228
56	0xbdf4b6ed	-0.11948953
57	0xbe2bf81c	-0.16793865
58	0x3c96ca8b	0.018407127
59	0x3e37e6fc	0.17959207
60	0xbd3b2388	-0.045688182
61	0x3ea8af53	0.32946262
62	0x3d46dc7e	0.04855012
63	0x3e1b4aad	0.15165205

actor_mean.0.weight f4 [64, 42]
0	0xbec556ed	-0.38542882
1	0xbda83205	-0.082126655
2	0x3e8c2903	0.2737504
3	0x3cd961c9	0.026535885
4	0xbdbbb84e	-0.09166013
5	0xbd686524	-0.05673708
6	0xbdbe3955	-0.09288279
7	0x3ec40905	0.3828813
8	0x3c30f88f	0.0108014485
9	0xbecf2c03	-0.40463266
10	0x3d88b29b	0.06674691
11	0xbe07ce41	-0.13262273
12	0x3f2b0254	0.6680043
13	0xbbbeaf5d	-0.005819245
14	0xbc8c3a73	-0.017117715
15	0xbe13271a	-0.14370385
16	0xbde6feaf	-0.11279046
17	0x3df885bf	0.12134885
18	0xbe26db66	-0.16294631
19	0x3c4fd4d7	0.012685022
20	0x3e187230	0.14887309
21	0xbeb3b8b7	-0.35101864
22	0x3d11cfe8	0.035598665
23	0xbdb5642d	-0.08856998
24	0xbc354fe4	-0.011066411
25	0xbe273de9	-0.1633221
26	0xbe16de96	-0.14733347
27	0xbd6bd050	-0.05757171
28	0xbdc5e2ac	-0.09662375
29	0x3e268ead	0.16265364
30	0x3ea9abad	0.3313879
31	0x3dedd516	0.116129085
32	0x3e17f233	0.14838485
33	0x3e4980f2	0.19678095
34	0xbcbf78e8	-0.023373082
35	0x3d8b3cff	0.067987435
36	0xbd8f48fb	-0.06996342
37	0x3e273ec6	0.1633254
38	0x3d3e7281	0.04649592
39	0xbd53812d	-0.051636863
40	0x3e4c9c68	0.19981539
41	0x3ea9c381	0.3315697
42	0xbde6ff85	-0.11279205
43	0xbd8a928e	-0.06766234
44	0xbd957a7c	-0.07298753
45	0xbcbe897d	-0.023258919
46	0xbd70129a	-0.05861149
47	0x3d1e6c89	0.038677726
48	0xbc2fe09c	-0.010734703
49	0xbccccd9d	-0.025000388
50	0x3d47a1e2	0.048738368
51	0xbcb6544b	-0.02225699
52	0xbdc51abb	-0.09624239
53	0x3dec4d83	0.11538222
54	0x3e396411	0.18104579
55	0x3d18ae46	0.037275575
56	0xbcca6837	-0.024707897
57	0xbdb5fa26	-0.08885603
58	0x3e25174a	0.16122165
59	0xbe3217d8	-0.17391908
60	0x3cf7be6b	0.030242166
61	0xbe335c73	-0.17515735
62	0x3dd710f9	0.10501284
63	0xbf41959d	-0.75618917
64	0xbe3e174c	-0.18563575
65	0xbe85a964	-0.26105797
66	0xbe464b7a	-0.1936473
67	0x3d085ac2	0.03328968
68	0xbdfe4c5b	-0.124169074
69	0xbed8ed6d	-0.42368641
70	0xbd9389c5	-0.07204012
71	0xbce3c15b	-0.02780216
72	0xbe643acd	-0.22288056
73	0xbdc58fa1	-0.09646536
74	0xbd39ec31	-0.045391265
75	0xbd71eb7e	-0.059062473
76	0xbd79e0c5	-0.061005373
77	0x3dd5a279	0.1043138
78	0x3e3c99bd	0.18418022
79	0x3e111182	0.14166835
80	0x3ba61b38	0.0050691627
81	0x3bb342bb	0.0054706014
82	0x3ec3f05a	0.3826931
83	0xbc443315	-0.0119750695
84	0x3c369be9	0.01114557
85	0x3cf640c8	0.030060187
86	0xbd98ac75	-0.074547686
87	0x3a9d63c3	0.0012007881
88	0x3da6f0c3	0.081513904
89	0x3ebc653b	0.36795983
90	0xbcf10c38	-0.029424772
91	0x3e49f705	0.19723137
92	0xbde7ef38	-0.11324924
93	0xbdcaeee7	-0.09908848
94	0x3d814019	0.06311054
95	0x3db71ca9	0.08941013
96	0xbe384a13	-0.17997007
97	0x3de64933	0.112444304
98	0xbea92550	-0.3303628
99	0xbe1941ce	-0.14966509
100	0x3e6ec4ee	0.2331731
101	0xbc19cf54	-0.00938781
102	0x3ce2f0d8	0.027702734
103	0x3e8cf4fa	0.27530652
104	0x3d60a033	0.054840278
105	0xbec403be	-0.38284105
106	0x3d047688	0.032339603
107	0xbb5c347a	-0.0033600614
108	0x3ed9a297	0.4250686
109	0xbce3144d	-0.027719641
110	0xbe072169	-0.13196339
111	0xbeff402a	-0.4985364
112	0xbe52f50b	-0.20601289
113	0xbe0a78e9	-0.13522686
114	0xbeaa2383	-0.33230218
115	0x3caa3b5a	0.020780254
116	0xbd5b99a9	-0.05361334
117	0x3e299aa7	0.16562901
118	0x3d050531	0.032475654
119	0xbd554002	-0.052062996
120	0x3ed01f64	0.4064895
121	0x3e2653a8	0.1624285
122	0xbd102d14	-0.03519924
123	0xbdde2f8c	-0.108489126
124	0xbe666989	-0.22501196
125	0x3e6e0ee9	0.23247875
126	0x3e953ba0	0.29147053
127	0xbea67434	-0.3251053
128	0x3e087ede	0.13329646
129	0x3d8f29f1	0.069904216
130	0xbe439faf	-0.19103883
131	0xbd47c451	-0.048771206
132	0xbe815dce	-0.2526688
133	0x3e19be09	0.15013899
134	0xbdcf9f1d	-0.1013777
135	0x3e9311e0	0.28724575
136	0x3bbfd996	0.0058547957
137	0x3b8c88e3	0.004288779
138	0xbea711d5	-0.32630792
139	0x3e763929	0.24045242
140	0xbea7ffd5	-0.32812372
141	0xbe12cd75	-0.14336188
142	0xbc9f1d37	-0.01942311
143	0xbd6c8b71	-0.05775017
144	0x3e01c264	0.1267181
145	0xbc9e9aed	-0.019360984
146	0x3e3ff88e	0.1874716
147	0x3d5de9fd	0.054178227
148	0x3e506eb9	0.20354737
149	0xbe8d2ed1	-0.2757478
150	0xbe4cd89b	-0.20004503
151	0xbe83a7df	-0.25714013
152	0x3e742bbc	0.23844808
153	0x3dd1bbed	0.10240922
154	0xbdb03655	-0.08604113
155	0xbe122cc3	-0.14274888
156	0x3e901866	0.28143615
157	0x3dc42f8f	0.095793836
158	0x3da48bcf	0.08034479
159	0x3dd3dcfe	0.10344885
160	0xbeac661c	-0.33671653
161	0x3db752e2	0.089513555
162	0x3e9eb5fd	0.3099822
163	0xbca99712	-0.020701919
164	0xbd8b1b23	-0.06792285
165	0x3c9f357e	0.019434687
166	0x3e25fea1	0.16210414
167	0xbd5d67f1	-0.054054204
168	0xbec8f33e	-0.3924808
169	0xbdfc5c83	-0.12322333
170	0x3e14e4d7	0.1454042
171	0xbe15eb52	-0.14640549
172	0x3e1c3d2b	0.15257709
173	0xbd86c5d0	-0.065806985
174	0x3d172a01	0.036905292
175	0xbe9401cf	-0.2890763
176	0xbe0d047c	-0.13771242
177	0x3d2fbeb3	0.042906474
178	0x3d9d2427	0.07672911
179	0xbce0a0f6	-0.027420502
180	0xbe450be2	-0.19242814
181	0xbeb23b72	-0.34810978
182	0xbd17bab2	-0.03704328
183	0x3ef95bf6	0.48702973
184	0xbd9c40d7	-0.07629555
185	0xbda1a1b0	-0.078921676
186	0xbb3f00b4	-0.0029144706
187	0x3d830e09	0.06399161
188	0xbedb61c0	-0.42848015
189	0xbda24ea8	-0.07925159
190	0x3e96e27d	0.29469672
191	0x3cad5360	0.02115792
192	0xbe1b8a1a	-0.151894
193	0x3c69a02c	0.014259379
194	0x3e481bf0	0.19541907
195	0x3dc6514b	0.09683474
196	0xbe86b7ab	-0.26312003
197	0xbe45b267	-0.19306336
198	0x3e92574e	0.28582233
199	0xbecb589c	-0.3971604
200	0xbd257347	-0.04039314
201	0xbe299691	-0.16561343
202	0x3e20a8b0	0.15689349
203	0x3e2775fe	0.16353604
204	0xbd579bad	-0.0526387
205	0x3eacdf5c	0.3376416
206	0xbcb7327f	-0.022362946
207	0xbdc5e5ae	-0.096629485
208	0xbe4ec48a	-0.20192161
209	0xbe3cf98e	-0.18454573
210	0xbe45317f	-0.19257163
211	0xbd1dc071	-0.038513605
212	0x3db4169a	0.087933734
213	0xbd54a912	-0.05191905
214	0xbd6393b6	-0.05556079
215	0xbe52bac3	-0.20579056
216	0xbd302c2c	-0.043010876
217	0x3d5b7bd6	0.053584896
218	0xbe168cbc	-0.14702123
219	0x3e896ff9	0.2684324
220	0xbd983641	-0.07432223
221	0xbdc3783a	-0.09544416
222	0x3ead0954	0.3379618
223	0x3e9aa16b	0.30201277
224	0x3dea5cfe	0.11443518
225	0x3e573404	0.21015936
226	0x3e2b449a	0.16725388
227	0x3d7df5d8	0.062002033
228	0xbd96bd9a	-0.073603824
229	0xbd5d6b1b	-0.05405722
230	0xbe4cdaee	-0.2000539
231	0xbe0dad97	-0.1383575
232	0xbd8f0da5	-0.06985024
233	0xbe0ac942	-0.13553336
234	0xbca1c85b	-0.019748857
235	0xbe1d33a5	-0.15351732
236	0xbe4d1481	-0.20027353
237	0xbd02c70b	-0.031928103
238	0xbd14d59a	-0.03633652
239	0x3e40854e	0.18800852
240	0xbe43fb6c	-0.19138879
241	0x3decf6a7	0.11570483
242	0xbd84281f	-0.06452965
243	0xbd3bc79d	-0.045844663
244	0xbebe88fb	-0.37213883
245	0xbc5a3a6e	-0.013319595
246	0x3ec9bd40	0.394022
247	0x3e2df8ae	0.16989395
248	0xbdfcb550	-0.1233927
249	0x3ce8e95e	0.02843159
250	0x3e0f1ec7	0.13976584
251	0xbe90d10f	-0.282845
252	0x3dc615a3	0.096720956
253	0x3e85c9b1	0.2613044
254	0xbe930ce3	-0.2872077
255	0xbd03cea5	-0.032179493

actor_mean.0.bias f4 [64]
0	0xbda9f835	-0.08299295
1	0x3cfde5fd	0.030993456
2	0x3de4f7a5	0.11180047
3	0xbc9f26ef	-0.019427745
4	0xbd83aa9d	-0.06429026
5	0x3d7d553d	0.061848868
6	0x3ceed2df	0.029153286
7	0xbe060ec1	-0.13091566
8	0x3d69605e	0.05697667
9	0x3d638cfe	0.055554383
10	0x3c57653f	0.013146698
11	0xbd3c7e72	-0.046019025
12	0x3c2dda31	0.010611103
13	0xbc26eddb	-0.010188545
14	0x3d790265	0.0607933
15	0xbbf053a0	-0.0073341876
16	0x3dda1eba	0.10650392
17	0xbdc9c81e	-0.098526224
18	0x3e1b23ea	0.15150419
19	0xbb936082	-0.0044975886
20	0x3c06015d	0.008179036
21	0xbc844dee	-0.016150441
22	0x3d7c6e24	0.061628476
23	0x3c08ec66	0.008357143
24	0xbd483336	-0.048876964
25	0x3b25e98c	0.0025316207
26	0x3d81cb91	0.06337655
27	0xbd6098d9	-0.054833267
28	0x3d8b4b48	0.06801468
29	0xbb1beca5	-0.0023792174
30	0xbe2ec2b0	-0.17066455
31	0x3d299e88	0.041410953
32	0xbbf59664	-0.0074947346
33	0x3dcec44b	0.10096034
34	0x3cf89e1f	0.030348836
35	0xbd4e4a52	-0.050363846
36	0x3cc3494b	0.02383866
37	0x3c8eef33	0.017448043
38	0x38da6819	0.0001041444
39	0x3b8ccec2	0.0042971084
40	0xbd900bbc	-0.07033488
41	0xbd2ca975	-0.042153794
42	0x3d250d07	0.040295627
43	0x3d342fbb	0.04399083
44	0xbb4eebae	-0.0031573582
45	0x3d0a80aa	0.03381411
46	0x3d2db9f3	0.042413663
47	0x3cd6740d	0.026178384
48	0x3c2e4712	0.010637062
49	0xbd42a974	-0.047524884
50	0xbcc79b95	-0.02436618
51	0x3b0eeeea	0.0021809884
52	0xbde008da	-0.10939188
53	0x3dbe04ab	0.09278234
54	0x3d8e7c35	0.06957284
55	0x3ca45776	0.020061236
56	0x3c61fb7a	0.013792867
57	0xbd85ac4d	-0.065270044
58	0x3d53ea9d	0.051737417
59	0x3d391d9b	0.04519425
60	0x3cdcbaa4	0.026944466
61	0x3c958501	0.018251898
62	0x3d8cc17e	0.06872843
63	0xbda84885	-0.08216957

actor_mean.2.weight f4 [64, 64]
0	0xbe9a5dfc	-0.3014983
1	0x3e62b7b4	0.2214039
2	0x3e6da151	0.23206069
3	0x3d9e7c48	0.077385485
4	0x3d85d168	0.06534082
5	0xbccbe2ec	-0.024888478
6	0x3dadc197	0.0848419
7	0x3e690921	0.22757389
8	0x3c80a5ae	0.015704002
9	0xbe3dc2b2	-0.18531302
10	0xbd8d266b	-0.06892093
11	0xbd26a36a	-0.040683188
12	0xbc1d18ec	-0.009588461
13	0x3e1e80eb	0.15478866
14	0x3ddc8714	0.107679516
15	0x3e39dd71	0.1815088
16	0xbdd7a741	-0.10529948
17	0x3d184794	0.037177637
18	0x3d9d702c	0.07687411
19	0x3e581b88	0.21104252
20	0xbe9ef2e0	-0.31044674
21	0xbe11601e	-0.14196822
22	0x3e47ecd7	0.19523941
23	0x3d3e72f1	0.046496335
24	0x3de8f2ea	0.11374457
25	0xbed64bf8	-0.41854835
26	0xbef3bdd6	-0.4760577
27	0x3e99e1eb	0.30055174
28	0x3d5b7b25	0.053584237
29	0xbea7ce53	-0.327746
30	0x3e8bc6ea	0.27300197
31	0x3d2ddd24	0.042447224
32	0xbc66041e	-0.014039068
33	0xbd0c5b71	-0.034266893
34	0x3e2f8d86	0.1714383
35	0x3dab9dbc	0.08379695
36	0x3e20e619	0.15712775
37	0xbeaa5f27	-0.3327572
38	0xbd50a0bb	-0.050934535
39	0x3e502bda	0.20329228
40	0xbe15f63a	-0.14644709
41	0xbe28effe	-0.164978
42	0x3d1eafa6	0.03874173
43	0xbeecad92	-0.46226174
44	0x3deac9dc	0.11464283
45	0x3cf8009b	0.030273726
46	0xbdd397d3	-0.103316925
47	0x3c98c4f7	0.018648608
48	0x3e345259	0.17609538
49	0xbca13d37	-0.01968251
50	0xbc4a1af3	-0.012335527
51	0x3ddb86b7	0.10719054
52	0xbe0ecd0d	-0.13945408
53	0x3d59a875	0.05313917
54	0xbe9cfd4a	-0.30661994
55	0xbdd3a425	-0.103340425
56	0xbd8bf424	-0.068336755
57	0x3e8367ae	0.2566504
58	0xbdf419ce	-0.11918984
59	0xbeb68ddc	-0.35655105
60	0x3eb04441	0.34427074
61	0xbc6456b8	-0.013936691
62	0x3e4e31b4	0.20136148
63	0x3d0fd3ef	0.035114225
64	0xbd261e0b	-0.040555995
65	0xbdfd914e	-0.1238123
66	0x3e812b30	0.25228262
67	0xbe3731ea	-0.17890134
68	0xbdef063e	-0.116711125
69	0xbe82f909	-0.25580624
70	0x3e736fd2	0.23773125
71	0x3ded5477	0.11588376
72	0xbe0f8fd4	-0.1401971
73	0xbca9d36c	-0.020730697
74	0xbe9d14f9	-0.30680063
75	0x3e115678	0.14193141
76	0x3dd7fec4	0.105466396
77	0x3e13c127	0.1442915
78	0x3eb536c0	0.35393333
79	0x3e393630	0.18087077
80	0x3e9973e3	0.29971227
81	0xbe30fa4c	-0.1728298
82	0xbd809b22	-0.06279589
83	0x3d115667	0.03548279
84	0x3e3f789a	0.1869835
85	0x3e3b09e5	0.18265493
86	0x3da51d47	0.08062225
87	0x3ddfcca5	0.10927705
88	0xbc83364d	-0.016017104
89	0xbe193845	-0.14962871
90	0xbe03319b	-0.12811892
91	0x3e035df4	0.12828809
92	0xbe152b75	-0.14567359
93	0x3e448f76	0.19195351
94	0xbe5091cd	-0.20368119
95	0xbeb1c42a	-0.34719974
96	0xbe6befa5	-0.23040636
97	0xbe7ac17f	-0.24487875
98	0xbdbde25f	-0.092716925
99	0x3e4e601f	0.20153855
100	0x3e5a4176	0.21314034
101	0xbe23c10c	-0.1599161
102	0x3ea6db52	0.32589203
103	0xbe4f66ee	-0.20254108
104	0xbe468c29	-0.19389404
105	0x3e088b23	0.13334326
106	0x3bfdff48	0.007751379
107	0x3b47c64a	0.003048318
108	0x3e79fa0c	0.24411792
109	0xbd437b5c	-0.047725067
110	0xbd0256ba	-0.03182099
111	0xbe125924	-0.14291817
112	0x3d6fa742	0.05850912
113	0x3e72586b	0.23666541
114	0x3e49db74	0.19712621
115	0xbd14d90c	-0.036339805
116	0x3e82ecb5	0.25571218
117	0xbd29e687	-0.041479614
118	0xbe3f86a1	-0.187037
119	0xbe4f5cbd	-0.2025022
120	0x3e9bd911	0.30439046
121	0xbdcb869f	-0.09937786
122	0xbe93827b	-0.28810486
123	0x3e36734a	0.17817417
124	0xbdb8441f	-0.08997368
125	0xbdd90f63	-0.10598638
126	0x3ebd3d1f	0.36960694
127	0x3d28861f	0.041143533
128	0x3e5d1051	0.21588255
129	0xbe57c42c	-0.21070927
130	0xbba10005	-0.0049133324
131	0xbdaf2b7b	-0.08553215
132	0x3ce8e01b	0.028427174
133	0xbd2d1f5d	-0.04226624
134	0x3d96e96b	0.0736874
135	0x3e8493d5	0.25894037
136	0x3cd8f1bb	0.026482454
137	0x3e61113c	0.2197923
138	0xbdde5645	-0.10856298
139	0x3e7cbb84	0.24680907
140	0x3ce9c112	0.028534446
141	0xbee9f777	-0.45696613
142	0xbe02c077	-0.12768732
143	0xbe7b32bf	-0.24531077
144	0x3dfe6d8e	0.1242324
145	0xbde101d1	-0.109866746
146	0xbdd75975	-0.105151094
147	0xbd8c9792	-0.06864847
148	0x3d2bf0ae	0.041977577
149	0xbdd6e305	-0.10492519
150	0xbe853333	-0.26015624
151	0xbe2d68e7	-0.16934548
152	0xbd80c3e9	-0.06287367
153	0xbe2223f1	-0.15834023
154	0xbdd764ef	-0.105172984
155	0x3da8445f	0.08216166
156	0x3e47fec4	0.19530779
157	0xbdb08b1f	-0.08620285
158	0x3e88eb81	0.26742175
159	0xbd0eec68	-0.034893423
160	0x3e019d5b	0.12657683
161	0xbd9f379c	-0.077742785
162	0xbedd3126	-0.4320156
163	0x3e2bdb10	0.16782784
164	0x3e060b49	0.13090242
165	0xbebb41a0	-0.36573505
166	0x3d8cc093	0.06872668
167	0xbd99f5fd	-0.07517622
168	0xbe11b43d	-0.14228912
169	0x3d876738	0.06611484
170	0x3e0c97b8	0.13729751
171	0xbee090b8	-0.43860412
172	0xbe092cf4	-0.13396055
173	0xbeda03a1	-0.42580894
174	0x3e24d355	0.16096242
175	0x3deb1e09	0.11480338
176	0x3ddb022b	0.10693773
177	0x3e002a1b	0.12516062
178	0x3e3269f7	0.17423235
179	0x3da28b7d	0.079367615
180	0x3ea07e06	0.31346148
181	0xbe8b0659	-0.2715328
182	0x3d0fb33d	0.035083044
183	0xbe0c62c3	-0.1370955
184	0xbe6d4d5a	-0.23174039
185	0x3d19b14b	0.037522595
186	0x3da5bce9	0.080926724
187	0xbda1e5ba	-0.07905145
188	0x3d881f8e	0.066466436
189	0x3e2f98f3	0.17148189
190	0xbdd5dcdb	-0.104425155
191	0xbe549ccb	-0.20762937
192	0xbd7db408	-0.06193927
193	0xbe482fcc	-0.19549483
194	0xbd22374c	-0.039603516
195	0x3d8fdfef	0.07025134
196	0x3d12a16e	0.035798483
197	0x3d30f626	0.043203495
198	0xbe6c9b80	-0.23106194
199	0xbe239bc9	-0.15977396
200	0x3e52f76a	0.20602193
201	0x3e41ab41	0.18912984
202	0xbeb34296	-0.3501174
203	0xbdea864d	-0.11451397
204	0x3dc7def0	0.09759319
205	0x3e540810	0.207062
206	0x3db2bfb9	0.087279744
207	0xbe00deea	-0.12585035
208	0xbdca7f37	-0.098875456
209	0x3eeb59c5	0.45966926
210	0x3dbc29b5	0.091876425
211	0x3e79d547	0.24397765
212	0x3ca79a78	0.020459399
213	0x3d9f4c5d	0.07778237
214	0x3d64d66e	0.05586856
215	0x3e4a9db8	0.19786727
216	0xbd4ff709	-0.0507727
217	0x3dbc0c41	0.09182025
218	0x3dcf63e9	0.10126478
219	0x3dc1eaa4	0.09468582
220	0x3e87ddfb	0.26536545
221	0x3dd6ed72	0.10494508
222	0xbc71990d	-0.014745963
223	0xbe994178	-0.2993276
224	0xb869883e	-5.5678414e-05
225	0x3e518576	0.20461068
226	0xbea1cf36	-0.31603402
227	0xbdf887eb	-0.12135299
228	0x3e91e90f	0.28498122
229	0x3ca8e03a	0.020614732
230	0xbdcf8a31	-0.1013378
231	0x3de4a655	0.11164538
232	0x3dab7718	0.08372325
233	0xbd1ecc39	-0.03876898
234	0xbdd4bb27	-0.10387259
235	0xbe299e5d	-0.16564317
236	0x3deb7b2b	0.11498102
237	0xbdf7877d	-0.12086389
238	0x3d06e7cc	0.032935902
239	0xbdf2e92c	-0.1186088
240	0xbed69d8b	-0.4191707
241	0xbddb6bbb	-0.10713907
242	0x3caa5f77	0.020797474
243	0x3ea55922	0.32294565
244	0x3d9d20ce	0.076722726
245	0x3efab944	0.4896947
246	0x3d089cb2	0.03335256
247	0x3ee20d11	0.44150594
248	0x3d635fc1	0.05551124
249	0x3d59a3d8	0.05313477
250	0x3b8eed56	0.0043617887
251	0xbec8235a	-0.3908947
252	0x3ccc1d9d	0.024916464
253	0xbe0fb4b3	-0.14033775
254	0xbe368aae	-0.1782634
255	0x3daf818a	0.085696295

actor_mean.2.bias f4 [64]
0	0x3c03e8a5	0.008051072
1	0x39fd8c20	0.00048360322
2	0xbd38bc76	-0.045101605
3	0x3bd9fd33	0.006652498
4	0xbcc1bcad	-0.023649538
5	0xbc4c98f6	-0.012487641
6	0x3ca38645	0.019961486
7	0x3d77b4eb	0.06047527
8	0x3d561ac7	0.05227163
9	0x3bbcb7d2	0.005759218
10	0x3e104aba	0.14091006
11	0x3cb154cb	0.021646878
12	0xbd9dc80d	-0.07704172
13	0xbd96b180	-0.07358074
14	0x3dc90f67	0.09817391
15	0x3bd816a1	0.0065944945
16	0xbbf5220c	-0.0074808653
17	0x3d811922	0.06303622
18	0xbcd6a57d	-0.026201958
19	0x3d920995	0.07130734
20	0xbc44dc9e	-0.01201549
21	0xbb97f00d	-0.0046367706
22	0x3df13874	0.11778346
23	0xbd2fd614	-0.04292877
24	0x3c6a802f	0.014312788
25	0x3d8d0943	0.06886532
26	0x3d9f0dcc	0.077663034
27	0xbda3d04b	-0.07998713
28	0xbcc3653e	-0.023851987
29	0x3cf8585e	0.030315574
30	0xbcd248a8	-0.02566941
31	0xbd2caf72	-0.042159505
32	0xbd73157a	-0.059346654
33	0x3d6490cc	0.05580215
34	0xbb852230	-0.0040629134
35	0x3dcf7b1c	0.10130903
36	0xbc0e51c4	-0.008686487
37	0x3c31a989	0.010843643
38	0xbca26080	-0.019821405
39	0x3d92e230	0.07172048
40	0xbdba1ee1	-0.09087921
41	0x3e0de751	0.13857771
42	0xbc75b495	-0.014996667
43	0xbdabea0c	-0.0839425
44	0xbd8f954e	-0.070108995
45	0xbc19af86	-0.009380227
46	0x3c761952	0.015020685
47	0xbcda3674	-0.026637293
48	0xbca29cf8	-0.01985024
49	0xbb97e2f9	-0.0046352115
50	0x3d565798	0.05232963
51	0x3d7f10c4	0.06227185
52	0x3d8f0514	0.069833905
53	0xbce89e59	-0.028395819
54	0xbd5155de	-0.05110728
55	0x3ce28238	0.027649984
56	0x3d5b8074	0.0535893
57	0xbd2769db	-0.040872436
58	0xbd7b1026	-0.061294697
59	0xbcdeff7b	-0.027221432
60	0xbd50b73c	-0.050955996
61	0xbcc70dcf	-0.024298577
62	0x3c82046f	0.015871255
63	0xbb282fa1	-0.0025663155

actor_mean.4.weight f4 [2, 64]
0	0x3d262a51	0.0405677
1	0xbd999788	-0.074996054
2	0xbde64c2f	-0.112449996
3	0x3d9787b5	0.07398931
4	0x3d39d09b	0.045364957
5	0xbd82578e	-0.06364356
6	0x3d9060bf	0.07049703
7	0xbcce2e73	-0.025168633
8	0xbe300e53	-0.17192964
9	0x3d54c4b0	0.05194539
10	0x3d09f38a	0.033679523
11	0xbd78f646	-0.06078174
12	0x3cb51ac7	0.022107495
13	0xbbe53d1c	-0.00699581
14	0x3d5d49f5	0.05402561
15	0x3cd12212	0.025528941
16	0x3dfbc9f6	0.1229438
17	0xbd435fa4	-0.047698632
18	0x3da05361	0.07828403
19	0x3bc55e61	0.0060232137
20	0x3d14ba1e	0.036310308
21	0xbd5d52ae	-0.054033928
22	0xbd91b578	-0.071146905
23	0xbd240517	-0.040043917
24	0xbda974f8	-0.08274263
25	0xbbea3af4	-0.007148141
26	0xbe103cac	-0.14085644
27	0x3dfa59e6	0.12224178
28	0x3c2b470c	0.010453951
29	0xbd987ad8	-0.074453056
30	0x3da995a3	0.08280494
31	0x3ce971ed	0.028496707
32	0xbd9b40a1	-0.07580686
33	0x3d99101c	0.07473776
34	0x3dddf1a7	0.10837107
35	0x3d043aa8	0.0322825
36	0x3d2dfb33	0.04247589
37	0x3d7bc677	0.061468568
38	0x3c09b15f	0.008404105
39	0xbb3a75b5	-0.0028451507
40	0x3dbb5f57	0.09149044
41	0x3d229457	0.03969225
42	0x3db39574	0.0876874
43	0x3ddb6034	0.10711709
44	0x3d85eedc	0.065396994
45	0xbe02c078	-0.12768734
46	0xbdb57dd8	-0.088618934
47	0xbc3feb5c	-0.011713829
48	0x3ca9624a	0.02067675
49	0x3cdb3de8	0.026762918
50	0x3c862a9f	0.016377745
51	0x3cb4460a	0.022006053
52	0xbb7e7574	-0.0038827332
53	0xbc1bfb8c	-0.009520423
54	0xbbbe264b	-0.0058029047
55	0x3c984d89	0.01859166
56	0x3dfc0d17	0.12307184
57	0x3da7db31	0.08196104
58	0xbdadcfcc	-0.084869
59	0x3dd1ecdd	0.10250256
60	0xbda083b9	-0.07837624
61	0xbc9f2661	-0.01942748
62	0xbdee8304	-0.11646083
63	0xbd446956	-0.04795202
64	0xbdc3e204	-0.095645934
65	0xbd892524	-0.06696537
66	0x3c631c1c	0.013861682
67	0x3c949062	0.018135253
68	0xbd3ddd8d	-0.046353865
69	0xbd928f1c	-0.07156202
70	0xbcc4ddba	-0.024031509
71	0xbdaa8398	-0.08325881
72	0xbd5e3667	-0.0542511
73	0xbe06057f	-0.13088034
74	0x3de17a2c	0.110096306
75	0x3d8151bc	0.06314418
76	0x3dc383c3	0.09546616
77	0x3ddc67fa	0.107620195
78	0x3b8f6741	0.0043763225
79	0xbd91b09c	-0.07113764
80	0xbd87c485	-0.0662928
81	0xbc1418a9	-0.009039083
82	0xbcb6603e	-0.022262689
83	0x3e36f566	0.1786705
84	0xbd3ab9b2	-0.04558725
85	0xbe12139c	-0.14265293
86	0x3d1848a1	0.03717864
87	0x3d958d3d	0.0730233
88	0xbd29c6bb	-0.04144929
89	0x3dd73b94	0.105094105
90	0xbc32aea1	-0.010905893
91	0x3d8b53b5	0.06803075
92	0xbd276665	-0.040869135
93	0x3d042b01	0.032267574
94	0xbcd96800	-0.026538849
95	0xbd61798a	-0.05504755
96	0x3d71c074	0.05902143
97	0x3d440015	0.04785164
98	0xbd2d9311	-0.04237658
99	0xbd323776	-0.043509923
100	0xbd476786	-0.048682712
101	0xbd72816f	-0.05920547
102	0x3d514639	0.05109236
103	0xbdc78359	-0.097418495
104	0xbdbfa603	-0.09357836
105	0x3e13975f	0.14413212
106	0x3d40604d	0.04696684
107	0xbd05318b	-0.03251795
108	0x3c593b2d	0.0132587375
109	0xbc2887fa	-0.010286326
110	0x3bdee4c0	0.0068021715
111	0x3d88de16	0.066829845
112	0x3d82448f	0.06360733
113	0x3c718d37	0.014743141
114	0xbe033e7d	-0.12816806
115	0xbde83c58	-0.11339635
116	0xbdc183c8	-0.094489634
117	0x3ca8b40c	0.020593666
118	0x3dba9ec1	0.09112311
119	0x3cc3cc76	0.023901206
120	0x3d6e7f4c	0.05822687
121	0xbd7aa743	-0.06119467
122	0xbdb14bc2	-0.08657028
123	0x3d4d8c11	0.050182406
124	0x3dd41ec3	0.1035743
125	0x3c4e480d	0.01259042
126	0xbe15d2d6	-0.14631209
127	0xbc878032	-0.01654062

actor_mean.4.bias f4 [2]
0	0xbbc9b8d7	-0.006156068
1	0xbcca6556	-0.024706524
