jsbgym/models/train_saves/ppo_ts4e-2_81230_18-01_16:10:14.pt (torch, 62193 bytes, 14 tensors)

actor_logstd f4 [1, 2]
000000 ec d6 cf bd fc 94 2a be
       -0.10148415 -0.16658396

conv.0.weight f4 [3, 1, 5, 1]
000000 d9 fa 22 3f d3 e4 31 bf f3 41 ac 3e a6 57 0e 3f
       0.63664013 -0.69489783 0.33644065 0.5560249
000010 3f cd ba bd 1f 22 56 3f c3 f2 32 3f 99 ce 32 3e
       -0.09121179 0.83645815 0.69901675 0.17461623
000020 20 a7 a2 be 9f 08 45 3e 0c 32 e1 3c 74 d1 f8 3e
       -0.3176813 0.1924157 0.027489685 0.485973
000030 89 0c de 3e 25 2f 1d 3f 06 ee 1c 3f
       0.4336894 0.6140006 0.61300695

conv.0.bias f4 [3]
000000 e7 c5 01 be 7f ad 47 bd 05 37 be 3d
       -0.1267315 -0.048749443 0.09287838

critic.0.weight f4 [64, 42]
000000 e0 03 5b bc 4f 02 40 be c5 6e 2f 3d 9d 89 17 bd
       -0.013367623 -0.1875088 0.042830247 -0.036996473
000010 78 8e 68 be 14 b6 25 bd b6 da 64 bd cb 9b 88 3e
       -0.22710598 -0.040456846 -0.05587264 0.2668136
000020 30 55 f3 3e 3c 2e 55 bd 5c 79 53 3d a5 42 02 bd
       0.4752593 -0.052046046 0.05162941 -0.03180184
000030 19 a5 8a 3e d0 15 07 bf d7 59 a6 3d e5 52 3e be
       0.27079085 -0.5276766 0.08122604 -0.18586309
000040 25 1a 6b 3e 97 34 2e 3e 47 51 a2 bd cc 55 e1 3d
       0.22959192 0.17012249 -0.07925659 0.110026926
000050 48 30 9b 3d 58 51 36 3e a7 b8 96 bd ed 92 36 3e
       0.07577568 0.17804468 -0.073594384 0.17829485
000060 e3 98 2e 3c 54 39 ce bc 4e 43 94 3d ca ca 85 be
       0.010656568 -0.02517382 0.072394 -0.26131278
000070 77 49 aa bd 24 a7 18 3d 12 7a 93 3e 9d 9a 0c be
       -0.083147936 0.037268773 0.2880407 -0.13730855
000080 be 4a 19 3e b7 14 e8 bc 97 0d fc 3e 93 70 8e 3d
       0.14969918 -0.02833019 0.49229118 0.069550656
000090 f4 fa fc 3d 42 df b5 bd 7a 1f 9e bd 74 b6 59 3d
       0.12352553 -0.08880474 -0.077208474 0.053152516
0000a0 61 c9 0a 3f 07 b1 85 bd 2f 2b 43 be e4 03 4d be
       0.5421353 -0.06527906 -0.19059442 -0.20021015
0000b0 9c a2 c3 bd 23 fe e7 3d 6b af 8f bc 50 19 a6 bd
       -0.095525 0.113277696 -0.0175397 -0.08110297
0000c0 b4 43 9f 3d bc e5 be 3b 22 91 b8 be 88 2f 87 3e
       0.07776585 0.0058257263 -0.36048228 0.2640345
0000d0 95 e2 4a bd 15 85 fe 3c 05 19 db bd 14 8a 7c bd
       -0.04953249 0.031069318 -0.106981315 -0.06165512
0000e0 95 24 10 bd b4 6c 81 3d 5c 03 ac bd ee fb f8 3d
       -0.035191137 0.063195616 -0.08399078 0.12157427
0000f0 13 b5 f6 3c 5e a5 87 3c 3b f4 7f 3c 20 38 a4 3e
       0.03011564 0.016558345 0.015622194 0.3207407
000100 fb df 85 be 7a 31 ca 3d 5d ec 2f be 49 c7 30 3e
       -0.26147446 0.09872718 -0.17180009 0.17263521
000110 99 75 f6 3d 48 a5 9f bc bb e0 09 bf 9e b1 14 3d
       0.12034149 -0.019487992 -0.53858536 0.0363022
000120 b7 cc 2c be 93 61 ed bd b9 d9 5e bd 01 75 ad bd
       -0.16874968 -0.115908764 -0.054406855 -0.08469582
000130 3f 6e f7 bc 85 d9 b2 bd c2 96 90 ba 2c a8 14 3e
       -0.030203937 -0.08732895 -0.0011031257 0.14517277
000140 5b be 0a 3d cc 61 2b 3c 15 d9 9c 3d 6b f7 0a be
       0.033872943 0.010460328 0.076585926 -0.13570945
000150 53 fd 4b bc da 25 45 3e 25 ea 51 3e 36 16 7f 3d
       -0.012450534 0.1925272 0.20499475 0.06227704
000160 c6 d9 25 bd 32 db 36 3e 1d 2f 07 3e a4 39 08 3f
       -0.040490888 0.17857054 0.13201566 0.5321295
000170 ec fa 54 be e6 a1 6c 3e 46 4b 70 3e 34 7c 38 bc
       -0.20798844 0.23108634 0.23466215 -0.011260081
000180 ac 25 87 3e 78 9a a4 3d b1 e6 10 3e 17 2e ce bc
       0.2639593 0.08037275 0.14150502 -0.025168462
000190 b3 57 e0 bd 08 23 87 bd 6b 81 42 3e c4 ca 92 bd
       -0.10954227 -0.065984786 0.18994682 -0.07167581
0001a0 7a 7f e4 3e 11 a2 d4 3d af 6f c6 3d 56 55 0b 3e
       0.44628507 0.10382474 0.09689271 0.13606772
0001b0 5b 10 51 bb 46 21 88 be 2a 34 eb ba ad a5 4f be
       -0.0031900618 -0.26587886 -0.0017944623 -0.20278044
0001c0 67 70 18 3e 2d 16 de bd 23 92 99 be 77 32 36 3e
       0.14886628 -0.108440734 -0.29994306 0.17792688
0001d0 47 32 a9 bd a7 5e 63 bd 41 43 63 3e 06 c9 7b 3e
       -0.08261543 -0.05551019 0.22193624 0.24588403
0001e0 93 bf b9 bd 4e 3b e3 be d3 21 80 be 1b 1d b8 3d
       -0.09069743 -0.44381183 -0.25025806 0.089899264
0001f0 aa 8d 96 3d fc 50 2b 3e 18 82 ae 3e 72 ea a2 3d
       0.07351239 0.16730112 0.3408363 0.07954873
000200 a5 f2 ff bd 63 3f 3a 3d 26 ed 70 be a2 94 f6 3d
       -0.12497453 0.045470607 -0.23527965 0.12040068
000210 5d 17 87 3d 54 e3 b6 3d c2 91 29 3e fc b0 00 bb
       0.06596253 0.08930078 0.16559508 -0.001963674
000220 6f be 27 3c ea 2d ce 3d 25 5a 93 3d a5 4c bd 3e
       0.010238274 0.10067351 0.07194928 0.36972538
000230 4d 88 c5 3e 79 e7 65 3d 8c e7 b9 3d bc 6e 37 3e
       0.38580552 0.056128953 0.09077367 0.17913336
000240 d9 c8 c9 3d c1 b5 80 3e e5 90 33 be 19 20 11 bd
       0.09852762 0.25138667 -0.17535742 -0.035431
000250 d3 39 46 3c 5a dc b1 bd d6 93 3e bd 9f 80 e0 3d
       0.012098747 -0.08684607 -0.046527706 0.109620325
000260 e1 d7 58 3c 3a ff 0d be 30 f0 45 3e c2 ef 67 be
       0.013235063 -0.13866892 0.19329906 -0.22650054
000270 d0 0e b6 bd a7 19 e4 b9 f3 b6 0f be ae 95 71 bd
       -0.08889544 -0.0004350666 -0.14034633 -0.058980636
000280 9a 00 a5 bd 59 64 e5 3e ec 75 90 3d 4a 97 0f 3e
       -0.08056755 0.44803122 0.07053742 0.14022556
000290 9d d8 91 3e 93 fd 82 3e 3e ca 84 bd e8 3e 83 3e
       0.28485575 0.25584087 -0.06483887 0.2563393
0002a0 3a d5 87 3e 87 52 f0 bd a4 a6 45 3e e6 13 53 bd
       0.26529866 -0.11734491 0.1930185 -0.05153265
0002b0 dd 96 67 be ae 27 25 3d 40 36 eb bd 77 65 9c 3d
       -0.22616144 0.040321045 -0.11484957 0.076365404
0002c0 61 45 6f bd 47 16 29 3d 5f 22 19 3e 75 30 54 be
       -0.058415774 0.04128101 0.14954518 -0.2072161
0002d0 0d 56 78 3d b9 24 94 3d 2b 34 88 3d 64 23 96 3d
       0.06062894 0.07233567 0.06650575 0.07330969
0002e0 20 7f aa 3d c8 b6 0e 3e fe 33 45 be 0e 3d 8f 3d
       0.083250284 0.13936913 -0.19258115 0.06994067
0002f0 81 cf b6 3d 72 93 81 3e 58 33 b2 3d 5e 6c 50 bc
       0.08926297 0.25307804 0.08701199 -0.012721149
000300 cb 02 36 be ff bc 5e bd ec df b4 3d 32 7d 5b bd
       -0.17774503 -0.05437946 0.08831772 -0.053586192
000310 c4 f5 10 be 1d 17 9f 3d f3 3d 25 bd 69 8c 0d be
       -0.14156252 0.077680804 -0.040342283 -0.13823093
000320 1f 7b 52 3e 95 2c f3 3a d7 2c 63 3e 2e 2a 0b 3f
       0.2055478 0.0018552715 0.22185074 0.54361236
000330 1f 66 90 3e 72 6c 87 bd 8b c2 13 be 56 d3 a3 3d
       0.28202912 -0.06612481 -0.14429681 0.079992935
000340 1c 28 96 3e 9d d0 20 be 62 8c 27 3e ac 76 13 3e
       0.29327476 -0.1570458 0.16362146 0.14400738
000350 1c 8b 4b be 56 73 13 3d d2 bc 1d bb 44 de 66 3e
       -0.19877285 0.035998665 -0.0024068845 0.22545725
000360 07 05 fe bc 91 33 e9 3e f9 ba ea bd c9 3d 43 3e
       -0.031008257 0.45547155 -0.114614435 0.19066538
000370 78 fd 46 3e be 2b d8 bd cc e0 1a be d1 d4 83 3e
       0.19432628 -0.10555218 -0.15124816 0.25748304
000380 b3 c1 00 be c8 b1 6d 3d f8 08 24 3e 53 11 0a be
       -0.1257389 0.058030874 0.16019046 -0.13483171
000390 bf d5 3e bd af 43 45 3d a8 55 5a be 98 7c b3 3d
       -0.046590563 0.04816025 -0.21321738 0.08763999
0003a0 31 ff 6e be b4 e4 93 bc ce 74 e1 bd e4 80 2a be
       -0.23339535 -0.01805339 -0.11008607 -0.1665073
0003b0 7c 93 1e 3e 7c 9d 54 3c d2 38 47 be 21 5b 15 3e
       0.15485948 0.012977 -0.19455269 0.14585544
0003c0 e2 28 a1 bd ec 51 17 bc 25 ef 57 3e 12 6f 07 be
       -0.07869126 -0.00923584 0.2108732 -0.13225964
0003d0 2e c0 28 3e ee 0e 92 3c 45 5c 9c bc 2a c6 c6 bd
       0.1647956 0.017829385 -0.019086966 -0.097057655
0003e0 40 81 7e bd 79 bc 94 3c f5 16 47 be f8 be c9 bb
       -0.06213498 0.018156277 -0.19442351 -0.0061567985
0003f0 01 6a 61 3d f8 3f ce bd 36 44 29 3e b0 d8 fd 3d
       0.055032734 -0.10070795 0.16529927 0.123948455

critic.0.bias f4 [64]
000000 ec e5 25 3e 04 99 78 bd 55 3d 2f bd 0a d7 55 bd
       0.1620099 -0.060692802 -0.0427831 -0.05220703
000010 46 a4 0f 3d 0b 16 88 bd 81 7b cf 3c c0 09 07 be
       0.035068773 -0.06644829 0.025327446 -0.13187313
000020 4d 32 f5 bd 70 59 82 bd d4 72 58 3d 05 14 11 bd
       -0.11972485 -0.06364715 0.052843884 -0.035419483
000030 64 73 75 bc 62 2b a2 3d d2 9c a9 3d 32 bb 0c 3c
       -0.014981125 0.07918431 0.08281864 0.008589553
000040 1b 42 4f bd 71 58 fe 3c da 5c 5c 3d 63 f6 03 3d
       -0.050600152 0.031048032 0.053799488 0.032217395
000050 f6 b1 9d 3d e6 88 83 be 04 e7 88 3d 51 dc 0c be
       0.07699959 -0.25690383 0.06684688 -0.13755919
000060 28 dc 1c 3c 38 49 5f bd e8 2a 9d 3c 28 02 c3 3c
       0.009573974 -0.054513186 0.019185498 0.02380474
000070 50 14 a2 bd 7e d3 c8 bd a5 d8 8a 3d 3f af 2d 3d
       -0.079140306 -0.09805964 0.06779603 0.042403456
000080 57 4f 7a bd c8 81 ff bc a3 27 8e 3d 5b d5 b6 3c
       -0.06111082 -0.031189814 0.06941154 0.022318533
000090 f6 7b ab bc 27 79 d7 bd a2 91 0d 3c c5 0d c6 bc
       -0.020933133 -0.10521155 0.008640679 -0.024176488
0000a0 40 e3 b5 3d f9 16 84 3c e9 3c e1 bb df 96 d2 3b
       0.08881235 0.016124235 -0.006873716 0.0064266766
0000b0 b4 7e 12 3d d2 de 40 bd 37 67 01 3e 1d 0d 0c bd
       0.035765365 -0.047087498 0.1263703 -0.034192193
0000c0 14 40 25 bd f0 6c f9 bb b1 e3 8b 3d 44 37 f4 3d
       -0.040344313 -0.0076118633 0.06830538 0.119246036
0000d0 1e 1d c8 3b 39 99 da bd 63 9a 12 3d 0c 2b c3 bc
       0.0061069867 -0.10673756 0.035791766 -0.023824237
0000e0 74 bc 6c bc a8 5e 8d 3c f7 e2 ca 3d b0 c9 59 be
       -0.014449228 0.01725705 0.09906571 -0.21268344
0000f0 4b 4a bc 3c 0a f1 73 bd 22 26 a4 bd c8 e9 71 bc
       0.022984644 -0.059556045 -0.08015086 -0.01476521

critic.2.weight f4 [64, 64]
000000 82 a9 0e bd f7 d4 04 3e c4 e6 a5 be 18 67 67 be
       -0.034829624 0.12971865 -0.32402623 -0.22597921
000010 ad f6 ef be 17 da a4 3e 0f 4b 2e be 96 32 17 be
       -0.46867886 0.3219764 -0.1702082 -0.14765391
000020 ba 24 14 3e 52 55 17 3e 1e 46 0e 3e d2 fc 1a 3e
       0.14467135 0.14778641 0.13893935 0.15135506
000030 de 9d 8b 3d c6 f5 83 bd 7f 7a 05 bf b2 ff e1 3d
       0.0681722 -0.06443362 -0.5214004 0.11035098
000040 fb df 57 be aa 94 33 be 54 bf 5a be c8 46 6e be
       -0.21081536 -0.1753718 -0.21362048 -0.23269188
000050 cf ba 86 be 0f 59 f0 3d 81 9e d0 bd a8 7e 9c 3e
       -0.263144 0.117357366 -0.10186482 0.3056538
000060 f9 d8 a3 3d 00 09 b5 be 32 00 02 3e 0e ef 40 bc
       0.080003686 -0.3535843 0.12695387 -0.011775745
000070 29 94 a3 3e 9e 77 55 3e fc b4 9b 3d bd 6e 4e bd
       0.31948975 0.20846412 0.076028794 -0.050398577
000080 ad 45 c9 3e 68 20 de bd a2 23 c6 3b f7 90 39 3e
       0.3931097 -0.10846025 0.006046728 0.18121706
000090 74 8a 9d b9 f0 52 2e 3e c6 04 3c be 29 6f 58 3d
       -0.0003004853 0.17023826 -0.18361196 0.052840386
0000a0 b4 e9 09 be 36 fa 7a 3e bd 74 43 bd 39 c9 d3 bc
       -0.13468057 0.2450951 -0.047718752 -0.025852786
0000b0 a9 0e 06 be de d6 ee ba c7 dd a3 be 66 11 aa 3c
       -0.1309153 -0.0018221994 -0.3200514 0.02076025
0000c0 4f 47 e3 3d e7 ef b2 3d bc 0e 51 be 0c f0 76 bd
       0.110975854 0.08737164 -0.20415777 -0.06028752
0000d0 80 39 22 3e a6 8a c3 bd bb 90 19 be c7 2c 8a be
       0.15842247 -0.095479295 -0.14996617 -0.26987287
0000e0 08 c3 84 be 4d 02 10 3e 30 15 a2 be 9a da d7 3e
       -0.25930047 0.14063378 -0.3165679 0.42158967
0000f0 b8 3b a1 bc 7e c4 83 3e 29 9f d1 bd b7 5f 3e 3d
       -0.019681796 0.2573585 -0.102354355 0.046478
000100 01 69 4c be 46 c4 1c b9 0e 12 ad bd 8b 0e 0d bd
       -0.19961931 -0.00014950437 -0.08450709 -0.034437697
000110 44 86 90 3e 2a 10 93 3e 57 72 18 3e 38 81 99 be
       0.28227437 0.2872327 0.14887367 -0.299814
000120 61 09 1d 3e 42 9d 3e bc b5 f0 85 3e 26 7a 89 be
       0.15335609 -0.011634173 0.26160207 -0.26851004
000130 ff 0a d2 bd 95 9d 01 be d5 83 4e be 53 d7 c8 bd
       -0.102560036 -0.12657769 -0.20167477 -0.09806695
000140 dd 94 1c 3e 69 be a9 3e ba c6 ac be a6 12 8e bd
       0.15291162 0.33153084 -0.33745366 -0.06937151
000150 be 8b 46 3e 2c fc bd be 45 98 fa 3d 0a b3 10 3e
       0.19389245 -0.37106454 0.12236074 0.14130798
000160 4e 9d 11 be 77 7b 10 bb 48 57 e5 bd 1a 09 45 3d
       -0.14220163 -0.0022046247 -0.11198288 0.048104383
000170 98 24 88 bd c9 fb ac bd e7 f3 06 3e 98 c1 5b 3d
       -0.06647605 -0.08446462 0.13178979 0.053651422
000180 f8 2e 2e bc 9b d2 7c be e6 75 2b 3e ca f3 44 3e
       -0.010631315 -0.24689715 0.16744193 0.19233623
000190 d3 c8 18 3e db 3f 53 be 22 57 53 3d e2 67 0b bd
       0.14920358 -0.20629828 0.05159677 -0.034034617
0001a0 84 71 7f bd d6 2a 13 3d 3a 2e 0b be 09 9b f9 bd
       -0.062364116 0.035929523 -0.13591853 -0.12187774
0001b0 61 47 09 3d 50 cc 2e be 1a a8 26 3e 81 53 12 bc
       0.033515338 -0.17070127 0.16275063 -0.008931042
0001c0 3f 4e 88 bd c0 f9 a7 be 9a 22 fa 3c 8f b9 d5 3e
       -0.06655549 -0.32807732 0.030534077 0.41743132
0001d0 5b 53 b4 3d 92 b0 0c 3e 6f ad 3a 3e 0e d7 14 3d
       0.08804961 0.13739231 0.18230222 0.036337905
0001e0 97 e7 f5 bc 0b 9f 67 3e c8 a5 42 3e 85 1e 5a 3c
       -0.030017657 0.22619264 0.19008553 0.0133129405
0001f0 1d 56 79 be c6 d5 8c 3e f3 93 27 3e 16 3f 72 be
       -0.24349256 0.27506846 0.16365032 -0.23656878
000200 61 73 33 be dd 90 14 3d 31 c5 65 be ef ad 45 3e
       -0.17524482 0.036270965 -0.22438504 0.19304632
000210 10 2c 1a 3d ee 17 24 be 0e cb 14 bd 8a f2 1a be
       0.037639678 -0.16024753 -0.03632646 -0.15131584
000220 81 39 02 3e 4f d1 94 3d 3a ff 7c bd b8 2b f3 3d
       0.12717248 0.07266485 -0.06176684 0.11873573
000230 85 3b 16 be e3 0e bf bd 56 71 4c 3e 5c 8c 4a 3e
       -0.14671142 -0.09329011 0.19965109 0.19780105
000240 2d 64 35 3d 6e 08 9b bd 97 62 86 3e f5 69 fd bd
       0.04428499 -0.07569967 0.26247093 -0.12373725
000250 82 27 12 be e9 ee 75 be 2f 4d 56 3e 6d fb 02 be
       -0.14272884 -0.24016918 0.2092788 -0.12791224
000260 e1 a7 d3 3d 34 41 88 bd 33 b2 c4 3d 88 6e d9 bc
       0.10334755 -0.066530615 0.09604301 -0.026541963
000270 55 b2 35 3e d4 f4 ea 3e 06 93 d0 bd 6f e7 35 be
       0.1774381 0.45889914 -0.101842925 -0.17764066
000280 64 ce fb bd 39 78 94 be 9a 8f 98 bd f0 0e 14 3d
       -0.12295225 -0.28997973 -0.07449265 0.036147058
000290 8e e4 85 be f2 eb 3e 3e db 3b 92 be d2 f2 b8 be
       -0.26150936 0.18644693 -0.2856129 -0.36122757
0002a0 91 58 33 bd 65 76 b2 bd 66 7f 71 3e 85 ab ed bd
       -0.043785635 -0.08713988 0.23583755 -0.116049804
0002b0 96 29 73 be 7a 34 32 be be 6f 0e be 00 da 8e bd
       -0.23746333 -0.1740283 -0.13909814 -0.06975174
0002c0 49 63 8a be 2b 2a 1f 3d 87 b4 1c 3b af 00 7c 3e
       -0.27028874 0.038858574 0.0023911314 0.24609636
0002d0 3e 1e 88 be c4 5e 1e be e2 88 6b 3e 82 0c 9d 3d
       -0.26585573 -0.15465838 0.23001435 0.07668401
0002e0 6d 9d 3b be 20 e7 a4 3e 68 3b 38 3e 5b 98 85 bc
       -0.18321772 0.32207584 0.17991412 -0.016308
0002f0 9a 23 94 be 9a 62 b4 be e7 39 84 bd 2e 80 7f bd
       -0.28933412 -0.35231477 -0.064563565 -0.0623781
000300 c2 15 38 3e 44 24 7f 3d 25 ed 07 be b1 c0 18 bd
       0.1797705 0.062290445 -0.13274057 -0.03729314
000310 03 ea 91 bd 7f 88 3c 3e c2 f5 e6 3d 5a bc 78 be
       -0.07124712 0.18411444 0.11277343 -0.242906
000320 cd 23 a8 be d6 95 04 be 56 c2 b5 bd 2e ee ae 3d
       -0.32839814 -0.12947783 -0.08874957 0.08541523
000330 b0 2d 36 be e8 6b ca bd 53 37 86 3d be f1 30 be
       -0.17790866 -0.09883863 0.06553521 -0.17279717
000340 2d ba 57 be f7 44 7c be c5 c6 12 3e 0e f3 5e be
       -0.21067114 -0.24635683 0.14333637 -0.21772406
000350 01 87 5f bc d8 02 62 3e bf ba 66 bd 4d 4c 9d bc
       -0.013643027 0.22071397 -0.05633044 -0.019201422
000360 a3 31 9b 3e 16 37 1d be db ab 8e bd 02 0d c9 3d
       0.30311307 -0.15353045 -0.069663726 0.09816934
000370 c5 48 1c be c5 8a 8e be 64 e2 0b 3d 12 64 22 bd
       -0.15262134 -0.27840248 0.03415145 -0.039646216
000380 90 e4 12 be 43 ee b1 be 67 42 36 3c f0 79 27 3b
       -0.14345002 -0.34752092 0.01112423 0.0025554858
000390 dc 1d 2c be 98 f5 6c be 27 79 4c 3d 54 93 08 be
       -0.16808265 -0.23140562 0.049920227 -0.13337451
0003a0 ae 44 25 3e b3 78 b6 3d 3b 67 eb bd ec 8c 27 3e
       0.1613948 0.0890974 -0.11494299 0.16362351
0003b0 53 16 00 3e 07 47 8b 3b 6d 60 3b 3e 82 75 0c 3e
       0.12508516 0.0042504105 0.18298502 0.137167
0003c0 32 2a 9a be 1a 2c 2f bd 25 4d 0a 3e af 57 36 3f
       -0.30110317 -0.042766668 0.13505991 0.71227545
0003d0 80 01 e0 3c d8 1b 18 3e 13 70 d2 3c 59 ba c1 3d
       0.027344465 0.14854372 0.025688207 0.09459371
0003e0 1b 8c 3c 3c 45 c1 a3 bd 5a fe 01 3e 9b 2e 92 3d
       0.011508013 -0.079958476 0.12694684 0.071377955
0003f0 4f 55 8a 3d 5a 8e a2 3e 06 aa 22 bd 92 98 5b 3e
       0.067545526 0.3174923 -0.03971293 0.2144492

critic.2.bias f4 [64]
000000 e4 b5 95 bc 5d bb 91 3d 2e 10 97 3a dd af 84 3d
       -0.018275209 0.07115815 0.0011525208 0.06478856
000010 2a 4a 25 3d d8 45 52 bd 62 37 3d bd 45 1e c4 3c
       0.04035393 -0.05133614 -0.046195395 0.023940215
000020 53 97 74 bd 47 58 96 3d 2a 9d 01 3c 32 16 79 3d
       -0.059714627 0.07341056 0.007911006 0.060812183
000030 98 3d b4 bc d6 7b 9d bd 7b c8 2c 3d 93 82 ad bb
       -0.022002026 -0.076896355 0.04218338 -0.0052951067
000040 32 00 b7 3b 8b 5c 98 3c 88 dc 92 3d 92 48 bd bd
       0.00558474 0.018598815 0.07170969 -0.09242357
000050 82 8a ca 3c 76 58 c6 3d 01 36 9e 3c 64 5b 02 3d
       0.024724249 0.09684841 0.01931286 0.03182544
000060 31 4a 4c bd 70 fe b2 3c 4a 1f 95 3d e9 73 16 bc
       -0.049875442 0.02184984 0.072813585 -0.009182909
000070 fd e1 be bc 12 ad ab bd 12 5b 24 3d 68 85 e9 3c
       -0.023301119 -0.0838262 0.040125914 0.028505996
000080 6c b3 de bd bb 5b 76 3b ee ba a1 bc 86 f1 d5 bd
       -0.10874066 0.0037591297 -0.019742455 -0.104464576
000090 23 d3 a6 3c 34 a1 0f 3c 9f f7 69 3c 70 36 1c 3d
       0.02036435 0.008766461 0.014280229 0.038137853
0000a0 36 6a a0 bc 0d 59 b9 bc a0 ba 6e 3c 0b 34 1e 3d
       -0.019581895 -0.02262547 0.014570862 0.03862385
0000b0 58 57 56 bc c6 4c 73 bd 20 94 cc bc ca f1 f6 3a
       -0.013082348 -0.05939939 -0.024972975 0.0018840369
0000c0 89 65 dd bc c8 ec 86 3c ff 87 79 bc d3 17 f4 3c
       -0.027025955 0.016470328 -0.015230178 0.029796517
0000d0 b7 00 97 3c 3a f2 8c 3c 38 71 92 bc ce 06 02 b7
       0.018432958 0.017205346 -0.017876253 -7.750188e-06
0000e0 42 8a ed 3c dd 6c c3 3c 2f d2 b7 bc d1 7d 0c 3d
       0.02899659 0.023855621 -0.02243909 0.034299675
0000f0 72 ae 11 bd e9 f6 9a 3d 42 ac 1b 3c c7 7f 2a 3d
       -0.035566755 0.075666256 0.009501519 0.041625764

critic.4.weight f4 [1, 64]
000000 5e 26 0e be 91 d9 bd bd c7 96 cb 3c a6 6b 6e be
       -0.13881823 -0.09270013 0.02485217 -0.23283252
000010 c3 a1 0c be 93 41 b7 3d 3b 9b a3 3d 2e 46 82 bd
       -0.13733582 0.08948054 0.07988592 -0.06361042
000020 c4 41 06 3e 5b d3 88 be 5d 47 e4 bd d3 a7 a4 bc
       0.13111025 -0.2672375 -0.11146424 -0.020099556
000030 15 52 0a 3e ff 2b c5 3d 4d b4 36 bd 47 96 42 3e
       0.13507874 0.09627532 -0.044605542 0.19002639
000040 4b e8 04 be 3a 9b 2d be 0c 6e 7e bd b2 fe 4f 3e
       -0.12979238 -0.16953745 -0.062116668 0.20312002
000050 8b 36 2a bd 45 9a 81 be 2e 2e 25 3d 0b 00 a2 bd
       -0.041555922 -0.2531301 0.040327244 -0.079101644
000060 a7 6e ee 3d 66 36 ca bd 41 3f 82 bd 1e a7 a1 ba
       0.11642199 -0.09873657 -0.06359721 -0.001233313
000070 56 a5 42 3d c7 e2 8c 3d 00 e9 50 be 3d 57 e1 bd
       0.047520958 0.06879192 -0.20401382 -0.110029675
000080 8e ba 4e 3d bd ec 73 bd 6a 0f 47 3c 74 50 b8 3e
       0.05047088 -0.059551943 0.012149671 0.3599888
000090 b4 b9 7d be 88 f6 7b bd 41 4b b2 bd e9 8a 9e bd
       -0.24777871 -0.061514407 -0.0870576 -0.07741339
0000a0 0e e6 00 3d 90 8a fe bd 73 c7 25 be 53 49 a4 bd
       0.031469397 -0.124287724 -0.16189365 -0.08021798
0000b0 a7 f4 b5 3e 92 ec f7 3d 4d 9d 76 3e 9a 04 8d bd
       0.35538217 0.12105669 0.24083443 -0.06885643
0000c0 32 b7 a6 3d c0 51 9c bc f0 f3 2b 3d be 00 ef bd
       0.081404105 -0.01908195 0.041980684 -0.116700634
0000d0 f1 92 90 bd a2 67 de bb 98 96 17 3d f5 c4 2d bc
       -0.07059277 -0.0067872563 0.03700885 -0.01060604
0000e0 fd 11 07 3e 34 4b 00 3e b8 d1 5e 3d cf 31 e6 bc
       0.13190456 0.12528688 0.054399222 -0.028099922
0000f0 f6 9f 91 3d 85 02 68 be c4 e1 62 3e 2e 13 d5 bd
       0.07110588 -0.22657211 0.22156435 -0.10404049

actor_mean.0.weight f4 [64, 42]
000000 30 2d d1 3c 2a 76 8c 3e 07 ca d1 bd d3 e8 a0 3d
       0.025534242 0.27433902 -0.10243612 0.07856908
000010 ab ba 86 3e cf a8 5e 3d ba 52 2f 3e 1f 5e 1b be
       0.2631429 0.054360207 0.17121401 -0.15172623
000020 a1 59 52 be 24 3f 59 be ea f8 af 3c b9 5b 3d 3d
       -0.20542003 -0.21215492 0.021480996 0.04623005
000030 33 4c 00 bc 3a 6e 64 3c 21 9a 9b 3d 0c 84 1a 3d
       -0.007830667 0.013942296 0.07597757 0.037723586
000040 27 d8 d2 be c5 92 0a 3e ca 0e 2b 3e c0 86 24 3c
       -0.41180536 0.1353255 0.1670486 0.0100418925
000050 7b 25 12 be 72 fd 97 bc 22 6c d5 bd 89 76 05 3e
       -0.1427211 -0.01855347 -0.10421015 0.13033499
000060 a4 84 9c 3d ea 44 31 bc 41 59 b4 be 79 95 68 3e
       0.07642487 -0.010819653 -0.35224345 0.2271327
000070 0b 23 88 be 7d 95 e1 bd fa 76 e3 3c 83 5a 89 bd
       -0.26589236 -0.11014841 0.027766693 -0.06706717
000080 97 7b 10 be 3d 73 c4 bc ea 30 56 3e 87 99 a8 be
       -0.14109646 -0.023980731 0.20917097 -0.32929632
000090 c5 6b 66 bb c5 04 7e bd 4f 6b 30 bc dd 55 f5 bc
       -0.003515945 -0.062016267 -0.010767772 -0.02994817
0000a0 87 88 91 be 0c 96 8d 3e b6 50 86 bd b1 ec 8a 3e
       -0.28424475 0.2765354 -0.06558363 0.27133706
0000b0 86 64 8a be 8e f5 0f 3e ed 59 18 bb 03 06 76 3d
       -0.27029818 0.14058515 -0.002324696 0.060064327
0000c0 01 f2 2a 3d 4f 99 b4 bd 17 90 e6 3d 14 d9 c0 3d
       0.0417347 -0.08818304 0.11257952 0.09416404
0000d0 b1 7b c5 bd b0 a3 be 3c 9b d7 03 be 22 93 6d 3d
       -0.09642733 0.023271412 -0.12875216 0.058001645
0000e0 8c d6 3b be 99 33 a2 bd c5 50 e0 be f1 ce ba 3d
       -0.18343562 -0.07919998 -0.43811622 0.09121502
0000f0 1e ae 52 3d 43 bb 86 3d f9 70 2a be 90 0a d3 3d
       0.051435582 0.06578686 -0.16644658 0.10304749
000100 5c 0c c4 bd 94 f2 f4 3d 50 9d 76 be 4e 48 c1 bc
       -0.0957267 0.119603306 -0.24083447 -0.023594048
000110 c6 71 f2 3d 98 30 18 be f0 58 90 3d f3 b2 22 3e
       0.11838107 -0.14862287 0.070482135 0.15888576
000120 0b 3d b7 bc a7 e5 00 3b 33 4c 19 3e f2 cf e0 bc
       -0.022367975 0.0019668133 0.14970474 -0.027442906
000130 e1 29 4b be 83 0f ae 3d 75 89 00 be 83 a9 36 3e
       -0.19840194 0.084990524 -0.12552436 0.17838101
000140 6c f1 4a be b6 e2 62 3d f6 8d c1 be 8e ef 3b bd
       -0.19818658 0.05539199 -0.3780362 -0.045882754
000150 ce 2b cf be 96 e7 22 3c 52 ab 7b bd 0c d5 97 bc
       -0.40463108 0.00994291 -0.06144268 -0.018534206
000160 86 31 fc bc d5 8d ba bc bd 00 de 3c f6 be 02 be
       -0.030785333 -0.022772709 0.027099961 -0.12768158
000170 0d ff 08 3d fd ec 3a 3e f2 2e 1f bc 17 03 6b bd
       0.03344636 0.18254466 -0.0097157825 -0.057375994
000180 b2 67 da bd 5b 42 a3 bc ad 8d 32 3e 32 d8 0d bd
       -0.106643096 -0.019929102 0.17436858 -0.034630008
000190 1f 6b 42 3d 86 de 24 bd 08 d7 9e bd 8d 0c 27 3d
       0.04746544 -0.040251277 -0.07755858 0.040783454
0001a0 58 db 57 3e ad 73 0e be fc 50 91 bd dc f4 8c 3d
       0.21079767 -0.13911314 -0.07095525 0.06882641
0001b0 b9 40 37 3e 92 31 7d bb 51 01 9c 3e 0b 0c e2 3d
       0.17895783 -0.0038634283 0.30469754 0.11037453
0001c0 c3 fe 6c 3e 14 7c 11 3d b0 cb 81 be 33 fe 36 be
       0.23144059 0.03551872 -0.25350714 -0.17870407
0001d0 8c 97 07 3d e5 9e 08 be 28 a6 0b 3f 7c 11 8f be
       0.03310351 -0.13341863 0.5455041 -0.27943027
0001e0 e2 ef fb bd 02 a5 35 be ca 38 38 be df fb 2b be
       -0.123016134 -0.17738727 -0.17990413 -0.167953
0001f0 5c 60 14 3f 19 75 aa 3e 99 69 dc 3d 6e e6 78 3e
       0.5795953 0.33292463 0.10762329 0.24306652
000200 c5 ac 53 be f7 0a 51 3b 5b 80 25 3d 8a 93 ab bd
       -0.20671375 0.0031897405 0.040405612 -0.0837775
000210 16 2e 6a 3d fe 2e 13 3c d8 c4 07 be 9d a7 b6 3e
       0.057172857 0.008983372 -0.13258684 0.35674754
000220 dd a7 44 be e5 d3 6d bd 77 a7 85 3d a2 f4 7c 3e
       -0.1920466 -0.058063406 0.06526082 0.24702695
000230 34 4e fc 3e d2 f8 fe bd aa 61 05 bd 60 70 2d be
       0.49278414 -0.124498025 -0.032563843 -0.16937399
000240 61 1a 93 3c 52 ab 57 be 88 57 71 3d ff 68 88 3d
       0.017956914 -0.21061447 0.058921367 0.066606514
000250 42 0b 99 3b 45 9b 07 bd 8f 1c 57 be 89 6f 72 bd
       0.0046705315 -0.03310706 -0.21006988 -0.0591884
000260 64 c7 84 bb f6 89 83 3e 12 49 1d be 0e 33 fb bd
       -0.0040520895 0.25691193 -0.15359905 -0.12265597
000270 65 6d 67 be 12 c6 e1 bd 4c 56 0c bc 0a bf 62 bd
       -0.22600324 -0.11024107 -0.008565497 -0.05535797
000280 79 d9 44 be d4 d4 46 be 0c 38 c7 be 95 cb 08 be
       -0.19223584 -0.19417125 -0.38909948 -0.1335891
000290 ff b0 3f 3e f7 12 b4 3d 64 2a 30 3d 3c 9c cf be
       0.18719862 0.0879268 0.043009177 -0.40548885
0002a0 a3 61 27 be c2 af 97 3e 2f 9a 4c 3e 3f 7c 9b bd
       -0.16345839 0.2962628 0.19980691 -0.075920574
0002b0 b8 7b 89 3d a0 a0 2e 3d 15 2d 00 be cb 0d 32 be
       0.067130506 0.042633653 -0.12517197 -0.17388074
0002c0 82 b4 01 3e e1 c9 19 be e1 2f 2e 3c 5d a9 96 3d
       0.12666515 -0.15018417 0.010631532 0.07356522
0002d0 4e 29 a9 bd 8c e4 b9 3e 9d 10 7d 3d dd 08 cc ba
       -0.08259831 0.3630718 0.06178342 -0.0015566606
0002e0 a0 67 ef bc 9a 26 dc ba e8 77 f3 3d 13 ec a1 3d
       -0.029224217 -0.0016796172 0.11888105 0.07906356
0002f0 b0 6c df bc 1f 09 70 bc 9b b9 40 3f 59 02 a0 bd
       -0.027273506 -0.014650612 0.7528321 -0.07812948
000300 35 39 28 3e e8 58 cf 3c a2 48 f5 bd 27 f6 0c 3d
       0.16428073 0.025310948 -0.11976744 0.034414437
000310 b9 e2 13 3e 85 d7 0a 3e 91 0f 05 3d 10 da 23 3e
       0.14441957 0.13558777 0.03248555 0.16001153
000320 39 74 aa 3d b4 2a a8 3c a1 1b 27 be 66 68 b9 bd
       0.08322949 0.020528175 -0.16319133 -0.090531155
000330 42 29 c9 3d 87 8e 2b be 50 9a 0f be 26 18 a6 bc
       0.098223224 -0.16753589 -0.1402371 -0.020275187
000340 2a c0 3c 3e 87 b6 8d 3e 97 63 39 3d 4c fa e9 bb
       0.1843268 0.2767832 0.045260992 -0.0071404334
000350 5f 66 85 3e a1 95 af bd ce be 77 3c 91 6a 0a be
       0.26054665 -0.08573461 0.015121175 -0.13517214
000360 fc da 81 be 25 c8 ae bd 32 9a 71 be e5 79 70 be
       -0.25362384 -0.08534268 -0.23593977 -0.23483999
000370 6e b8 bf 3d 44 2f c3 3d 0f dc 90 3d b4 10 41 3e
       0.09361349 0.095304996 0.07073223 0.18854028
000380 f6 0e 19 3e 88 83 5e bd 4f 1b cd bd 90 86 53 bc
       0.14947113 -0.054324657 -0.10014974 -0.0129105
000390 d1 5c c9 3d 78 fd 74 3d 56 3a 97 be 03 76 b4 be
       0.098321564 0.05981204 -0.29536694 -0.35246286
0003a0 19 d5 c9 be 4a 06 5a 3d 01 96 eb 3c 50 12 c6 bd
       -0.39420393 0.053228654 0.02875805 -0.096714616
0003b0 d4 3a 18 be fa 99 a3 bd 5a 46 f7 bc 27 6c ac bc
       -0.14866191 -0.07988353 -0.030184913 -0.021047665
0003c0 09 ad 63 be 3f 16 61 bb 5b 36 2f be d0 38 10 3d
       -0.22233976 -0.0034345535 -0.17110579 0.03521043
0003d0 ac 81 6a 3d 80 f3 ce bc ad 92 53 3e e0 e1 e9 be
       0.05725257 -0.025262594 0.20661421 -0.4568014
0003e0 7b 25 74 bc 2b 1a bb be 2f 9b 33 be 69 0e ee be
       -0.014901514 -0.36543402 -0.17539667 -0.4649537
0003f0 05 10 09 3e 91 bd 7f be d7 b0 3b 3e be 70 95 3d
       0.13385017 -0.24974658 0.18329178 0.072968945

actor_mean.0.bias f4 [64]
000000 60 0a ea bc 88 9c 8c bd 70 38 18 3d d7 89 ea bd
       -0.0285694 -0.068657935 0.037163198 -0.11452072
000010 f2 80 65 3d 4b b5 2e bd e8 67 13 3d 0f 62 c0 bc
       0.056031175 -0.042653363 0.035987765 -0.023484258
000020 38 f5 94 3c c4 b0 55 bc 53 f1 de bd 24 1e ae bc
       0.018183336 -0.0130426325 -0.10885873 -0.021254607
000030 a3 8c 26 bc 4e 30 84 3d 3f 72 69 3c c6 b7 93 3c
       -0.010165366 0.06454526 0.01424843 0.018031966
000040 71 68 95 3c fd d7 a4 3d 63 98 af bd 99 52 cc 3b
       0.018238278 0.08049009 -0.08573987 0.0062354323
000050 90 27 ea 3d f2 d1 a9 bc a9 ba 98 3c a1 4c 78 3d
       0.11433327 -0.020729993 0.018643694 0.060619954
000060 d8 75 8b 3b b4 52 02 bd 86 9b 1c 3d 43 70 8e bc
       0.0042559914 -0.031817153 0.038234256 -0.017387515
000070 18 8d 8f 3b 29 c1 02 bd d2 8b 24 bb f7 6d 58 3d
       0.0043808334 -0.031922493 -0.0025107753 0.052839246
000080 ab a6 a1 bd 2b 5c 81 bc 3a b2 75 bd fd 6e a8 3d
       -0.078931175 -0.01579102 -0.059984423 0.08224294
000090 1b ce 86 3d 6d b5 ee bc 94 a0 d1 bc 68 ae 06 bd
       0.0658228 -0.029139245 -0.025589265 -0.03288117
0000a0 a0 07 ac 3c 67 5c 43 3d 0c 36 5c 3c bc 73 48 bc
       0.02099973 0.047695544 0.01344062 -0.0122346245
0000b0 88 09 28 bd 05 3b ad 3d 11 e6 52 3d 3a 1a e6 bd
       -0.041024715 0.08458523 0.05148894 -0.11235471
0000c0 0f 3b b4 3d 77 4a 51 bd 85 42 87 bd 8e 92 75 3d
       0.08800327 -0.051096406 -0.066044845 0.05995422
0000d0 36 f6 39 3c 84 c7 c4 3d 67 7c 6d bb 3e b1 bf bc
       0.011350205 0.09608367 -0.003623748 -0.023399945
0000e0 bd b3 72 bd 9b 58 55 3c 7c f7 57 3c bf 81 e0 bd
       -0.059253443 0.0130216135 0.0131815635 -0.10962247
0000f0 a3 df b4 3c 02 2d ff 3c 07 54 1e 3d 24 86 01 3c
       0.022079295 0.031149391 0.038654353 0.007905517

actor_mean.2.weight f4 [64, 64]
000000 fb 5b 38 be d2 38 6c be 30 1b 46 3d 39 44 7d be
       -0.18003838 -0.2306855 0.04836577 -0.24733056
000010 72 86 40 3d a4 90 c1 bd 2e b3 c5 3e e9 bf f0 3c
       0.047003217 -0.09451416 0.38613266 0.029388385
000020 c5 74 81 3e 09 61 00 3e d7 76 d4 bd 6e 03 83 be
       0.252844 0.12537016 -0.103742294 -0.25588554
000030 5a a8 04 be de 7f 2e 3e d6 d0 b3 3d c4 00 1c be
       -0.12954846 0.17040965 0.08780067 -0.15234667
000040 a8 8c 4c bd 31 b5 2f 3e 61 0a c5 3d c7 a2 34 3e
       -0.049938828 0.17158963 0.0962112 0.1764022
000050 c5 22 87 3d 8b e0 62 be 54 84 25 3d ed c8 56 be
       0.06598429 -0.22155969 0.0404094 -0.20975085
000060 67 d4 b8 bd f1 66 1a bd 62 cf 1c 3e c3 ae 6c 3d
       -0.090248875 -0.03769583 0.15313485 0.057783853
000070 5b 84 50 be 4a 76 41 3e 5d b4 35 3e 1c d8 67 3e
       -0.2036299 0.1889278 0.17744584 0.22641033
000080 b1 22 04 3e 28 0d ed 3e dd 24 6f be 04 8b 62 bd
       0.12903859 0.462991 -0.23353906 -0.055308357
000090 84 d3 39 be 8a 68 57 3d a4 34 1c 3b 91 58 62 bd
       -0.18147093 0.05258993 0.0023835087 -0.055260245
0000a0 39 47 62 bc 5d 93 7d 3e 89 20 5c be d9 ac b4 be
       -0.013810926 0.24763246 -0.21496786 -0.35288122
0000b0 1f a6 10 3d fc d6 ba be 93 7a a0 bd 7a f3 25 3c
       0.035314675 -0.36492145 -0.07835879 0.01012885
0000c0 10 9f a8 3d e8 26 33 3e 40 03 f8 3c e3 ba a1 3e
       0.08233464 0.1749531 0.030274987 0.31587896
0000d0 84 cc 76 bc f9 2f 8f 3e e2 95 1f be 21 04 e4 3d
       -0.015063409 0.27966288 -0.1558452 0.111336
0000e0 0d 7f 7d 3d 9a 3d 6d 3d 48 90 5a 3d c1 5f 4d be
       0.061888743 0.057920076 0.053360254 -0.20056058
0000f0 7e a0 1c 3d ca 5b cf bd f0 71 d3 3d a2 e7 ec bd
       0.038238995 -0.10124929 0.10324466 -0.11567618
000100 6f c5 37 be 3b d7 59 3d f1 e0 5f be e5 5e fe bc
       -0.17946409 0.053183775 -0.21863152 -0.031051109
000110 6c 6d 49 3e 47 c5 b1 3c 31 ec 49 3e d3 94 ae bd
       0.19670647 0.021700514 0.19719006 -0.0852448
000120 c0 0c 0d bd b3 ef e9 3c 58 ba d5 be 6d cf da bd
       -0.034435987 0.02855668 -0.41743731 -0.106840946
000130 03 ac a3 3e a7 40 f5 3c e3 30 84 3a 0c 68 3f bd
       0.31967172 0.029938055 0.001008537 -0.046730086
000140 f6 fb 14 3e 61 c0 a1 3d db b9 2a 3e 76 96 f4 bd
       0.1454924 0.078980215 0.1667246 -0.11942761
000150 45 01 75 3d eb 5a 35 be 23 80 6c be 13 dd 43 bc
       0.059815664 -0.17710464 -0.23095755 -0.011954564
000160 f1 a2 1a 3e cf f2 a5 3b 96 40 f0 bd 47 e5 8c 3d
       0.1510122 0.0050643454 -0.11731069 0.06879669
000170 32 44 7c 3e 7f eb 4a bd 4d a7 a5 3d 49 fb de 3d
       0.2463539 -0.049540993 0.08088551 0.108877726
000180 ee ed 01 3f 71 c6 d3 bc d1 e5 a1 3b fc 3e 55 bd
       0.50753677 -0.02585146 0.0049407263 -0.05206202
000190 31 4f 8f bd 19 a5 30 3e 56 c6 75 3e 32 b1 15 3e
       -0.069975264 0.1725048 0.2400144 0.14618376
0001a0 2b 38 03 3d a8 66 af 3e 06 8e c0 bc c9 c5 98 3d
       0.032035988 0.34258008 -0.023505222 0.074595995
0001b0 8c 73 d4 3d 7d 5f 39 be 96 df 90 bd fd a8 fe 3c
       0.10373601 -0.18102832 -0.07073896 0.03108644
0001c0 15 26 b6 be b4 d1 47 be 65 80 85 3e a9 8b c1 be
       -0.3557593 -0.19513589 0.2607452 -0.37801865
0001d0 ee 9e 80 be 92 19 5e be 5d b6 e1 3d 1b 51 ab 3c
       -0.25121254 -0.21689442 0.11021111 0.020912698
0001e0 6b b7 db 3d b5 e9 59 3e da a0 07 3f c7 5f 62 3d
       0.107283436 0.21280558 0.52979815 0.05526712
0001f0 32 3d 9f be 1a 6d 2c 3e a9 23 02 bc ac 69 bc 3e
       -0.31101376 0.16838494 -0.007943072 0.3679937
000200 de de 66 3e d5 b3 90 3d 25 69 93 3e 66 85 96 3e
       0.22545955 0.0706555 0.28791156 0.2939865
000210 d5 89 f3 bc ea 13 e7 bd b3 cd be bc 30 f5 11 3e
       -0.02972881 -0.11283095 -0.023291444 0.14253688
000220 68 1b 0e bd d7 44 b5 3d 84 0b 82 be 6b 9a a5 3d
       -0.034694105 0.08851021 -0.2539941 0.080860935
000230 2f 16 e5 3e 84 e5 e5 bd 0d 1e 27 3e 6f ba 1d be
       0.44743487 -0.11225417 0.16320057 -0.1540315
000240 a0 43 d4 3d 26 43 5d bd da 3b 5e be 11 d7 9a 3e
       0.10364461 -0.054019116 -0.21702519 0.30242208
000250 8f 38 3b be b2 ea bb bd 52 30 81 bd b1 04 c3 bd
       -0.18283294 -0.09175624 -0.063080445 -0.09522379
000260 d5 5a aa bd 24 ca 0e be 30 3d 93 3e 33 1b 45 3e
       -0.08318106 -0.13944298 0.2875762 0.19248657
000270 88 dd a9 3d d4 f4 30 be 88 00 2f 3e 7f 52 f4 bb
       0.08294207 -0.17280895 0.17090046 -0.0074561234
000280 f6 1b a7 3d ef 76 19 3d 1b 8e 85 be e3 15 86 3e
       0.0815963 0.03746694 -0.2608498 0.26188573
000290 25 23 d4 3d a7 41 05 3e 70 e0 ec 3d 73 b7 64 3d
       0.10358266 0.13013326 0.115662456 0.055839013
0002a0 3b af 1a 3e fd bc d2 bd 1c 0e b5 3e 48 73 5e 3e
       0.15105908 -0.10289953 0.35362327 0.21723664
0002b0 07 d0 30 3e e3 7c bb be 6c 6c d3 3e 60 0b 9f 3d
       0.17266856 -0.36618719 0.41293657 0.077658415
0002c0 11 7b fb bc df be 58 bd a7 9c ad bd e0 fc 90 bc
       -0.030698331 -0.052916404 -0.08477145 -0.017698705
0002d0 2a ab 49 bd 88 35 be 3d 7f 00 aa 3d d7 2a a4 3e
       -0.0492355 0.09287554 0.08300876 0.32063934
0002e0 b0 03 29 3e ff 4a 8b bd 1b ef cb 3d 79 e9 30 3e
       0.16505313 -0.06801414 0.09957715 0.17276563
0002f0 ad 1d 17 be a9 cc dc bc 40 12 87 3e 6a 0a c9 bd
       -0.14757414 -0.026953058 0.2638111 -0.098164394
000300 66 68 10 3e 72 7f ae 3d 40 07 c7 be 30 90 43 3d
       0.14102325 0.08520402 -0.3887272 0.04774493
000310 d9 9f 87 3e 5a 73 7a bb 53 44 98 be 18 c0 fb 3d
       0.26489142 -0.0038215728 -0.29739627 0.12292498
000320 0f 6f 2f 3d cb bf 8d be a3 31 15 3e a3 d3 ea 3b
       0.042830523 -0.2768539 0.14569716 0.0071663423
000330 6e 0a 81 be c3 c3 46 3e 24 84 e6 3d 4e de de 3d
       -0.2520327 0.19410615 0.112556726 0.10882245
000340 24 b4 ac bc f4 5c 21 be 92 95 58 be fc a3 7f 3e
       -0.021081991 -0.15758115 -0.21150807 0.24964899
000350 d1 58 95 bd 14 0e 12 bd 1b e0 2d 3e da f3 3b be
       -0.07292331 -0.035657957 0.1698002 -0.1835474
000360 b6 5d 41 be 19 9f 0b 3e 85 e1 29 bb a1 d0 17 3e
       -0.18883404 0.1363491 -0.0025921774 0.1482568
000370 b1 02 12 3e 65 e9 41 be 9c d8 e0 be f8 91 a7 3e
       0.14258839 -0.18936689 -0.4391526 0.32728553
000380 f9 b2 f6 3d c5 fd 2f 3e 27 43 b9 3d d3 63 9a bd
       0.12045855 0.17186649 0.090460114 -0.07538571
000390 f6 0f 32 3c 1a 7d 4b 3e 57 fc 7e be 4e 8f b3 3a
       0.010868063 0.19871941 -0.24900948 0.0013699324
0003a0 3a c4 5d 3e 4b 80 ed bc a3 f7 11 3e ad 80 d6 3d
       0.21656886 -0.028991839 0.14254622 0.10473762
0003b0 47 cd 9d bd 72 74 24 3d a2 63 a7 bd 51 a1 4d be
       -0.07705169 0.040150113 -0.081733 -0.20081069
0003c0 8b 1b b9 be 62 9e a3 be 96 da 1d 3e ca a0 5a bd
       -0.36153826 -0.31956774 0.15415415 -0.053375997
0003d0 16 c2 3a be bb f7 d5 3d df e6 20 3e 80 62 57 3d
       -0.182381 0.104476415 0.1571307 0.05258417
0003e0 9c 62 b2 3d 09 6b 90 bc d0 3b c6 3d 26 7e ec bd
       0.087102145 -0.017629163 0.09679377 -0.115474984
0003f0 8c 17 8c bd d5 bc 08 be 3f da 90 bd f1 09 c3 be
       -0.06840429 -0.13353284 -0.07072877 -0.38093522

actor_mean.2.bias f4 [64]
000000 d5 0c 8f 3d ab 37 07 3c 26 de 24 3c ba 67 cd bc
       0.069848694 0.008253018 0.01006273 -0.025073875
000010 fd 7a a8 3d 15 c8 32 bd 67 31 54 3d de f3 2d bd
       0.08226583 -0.043647844 0.051804926 -0.042468898
000020 f7 80 11 bd 7b 9f eb 3c 68 0a 2d bd 21 71 24 bd
       -0.03552338 0.02876257 -0.042246252 -0.04014695
000030 60 15 83 3d df ef b0 3d 9d 5c a8 3c fb 26 65 3c
       0.06400561 0.08639502 0.020551974 0.013986344
000040 6c 49 a0 3c 44 1d b7 3d 6d 2f 03 3c 19 92 68 bd
       0.01956626 0.08941129 0.008006913 -0.056779955
000050 f1 35 46 3d 80 de 38 bc 69 ff dd bd 55 76 c7 3c
       0.048391286 -0.011283517 -0.10839731 0.024348417
000060 89 8c 62 bb 56 8d f2 3c 2c 82 d6 3a 07 5d 54 bc
       -0.0034568629 0.02960841 0.0016365699 -0.012961633
000070 10 bb 2a bd fc 1e 8e 3d 9b 29 0a 3d 91 0a 28 3d
       -0.041682303 0.069395036 0.033731084 0.041025702
000080 56 6f 3e bd 84 41 8c bc cc 88 84 3d 97 98 ff 39
       -0.046492897 -0.017121084 0.064714044 0.00048751078
000090 72 a0 e3 3c dd ea 4d bb b2 eb 18 bd 0a ec 8d 3d
       0.027786467 -0.0031420507 -0.03733415 0.069297865
0000a0 26 ca cc 3c b1 0d 00 bb 2b 0f a1 bb 87 e3 35 bd
       0.024998736 -0.001953941 -0.0049151382 -0.04440644
0000b0 55 1b 0f 3c 0f ae d9 3b fa 62 ea bc 15 bc 52 3d
       0.008734544 0.006643064 -0.028611649 0.0514489
0000c0 fa dd 86 bd 7f 4b 0b bc 03 84 5a 3c b1 e0 41 bc
       -0.065853074 -0.008501886 0.013337138 -0.011833356
0000d0 ba 14 bc 3d 36 69 b8 bc 5e 60 ac bd 29 2e 11 3d
       0.09183641 -0.022511106 -0.08416818 0.035444412
0000e0 6e 4d 8f bd cb ca a6 3d aa ec 89 bd 18 6b 46 3c
       -0.069971904 0.081441484 -0.06734593 0.012110494
0000f0 df dc fc bc a9 2e 88 3d 57 2b db bc 07 68 aa 3d
       -0.030867038 0.06649525 -0.026754064 0.08320623

actor_mean.4.weight f4 [2, 64]
000000 4a 0c f5 3c 5f 86 ac 3c db d3 77 3c f0 d9 86 bd
       0.029913086 0.021060167 0.015126194 -0.06584537
000010 0e 54 96 3d cf 43 f7 3b b8 22 5c bd 28 53 f9 bc
       0.07340251 0.007545925 -0.053744048 -0.03043516
000020 88 7c 6c 3b 85 d4 39 3d d1 72 6d bd 9a 4b 02 bd
       0.0036084969 0.04536869 -0.057970826 -0.03181038
000030 50 50 ed bb bf 1a cc 3c 35 e2 af bb d3 c5 49 3c
       -0.00724224 0.024915097 -0.005367542 0.012315231
000040 7f 59 3b bd 09 21 ec 3c 7f 73 60 bb 1f e5 be 3a
       -0.045739647 0.028824346 -0.0034248529 0.0014564133
000050 b8 b2 9e 3d c8 48 1a bd 60 4d 2b 3b 8d 1c db bd
       0.07748932 -0.037667066 0.0026138648 -0.10698805
000060 96 f6 3e bd 99 ce 3c bd 51 96 6a bc 81 74 df bd
       -0.04662188 -0.046095464 -0.014318065 -0.10910893
000070 c6 a2 41 bd da 17 7e 3d 79 5e 54 bd 57 f1 87 bd
       -0.047274373 0.062034465 -0.05184791 -0.06637829
000080 cb 2e f7 3c ae 0c 93 bd ba ff 4c 3d 72 76 ac bd
       0.03017368 -0.07180153 0.050048567 -0.08421029
000090 38 9b 25 3d 5c 1d 00 3c cb 78 12 bb 6b ac 18 bd
       0.04043123 0.0078195 -0.002234983 -0.037273806
0000a0 37 08 e3 bb e2 69 35 3d bf 04 ce bc ee ad 4b bd
       -0.0069284695 0.04429043 -0.025148747 -0.04972642
0000b0 75 e0 51 3d 60 7b 00 3e 5f 26 45 3d a5 b9 2b bd
       0.05123945 0.12547064 0.048132297 -0.04192509
0000c0 3f 4a 0f bd 6d 84 c4 3d 66 69 7d bc 39 ab 90 bd
       -0.034982916 0.09595571 -0.0154670235 -0.07063908
0000d0 58 0d 9b 3b 19 e7 37 ba e9 1d 2b bd c5 93 a2 3c
       0.0047318153 -0.0007015332 -0.04177657 0.019845853
0000e0 b6 9d dd bc 97 69 39 3d 6f 6a ec 3d 9c c2 f0 3c
       -0.027052741 0.045266714 0.11543738 0.029389672
0000f0 c5 79 66 3d 62 cf d6 bc ae 89 8f 3d 3a 7d 9e 3c
       0.056268472 -0.026221935 0.07008682 0.019346822
000100 90 b3 47 bd 6b d1 b1 bd c2 b9 32 bd 4a 9b 30 3d
       -0.04875523 -0.086825214 -0.043634184 0.043116845
000110 88 0a d2 3d ac 42 0b 3d 59 7c 17 bd 65 d6 5d bd
       0.10255915 0.03399913 -0.03698382 -0.05415954
000120 33 41 02 be 39 6c 19 bc 5d 7e 9c 3b 21 5d 98 3d
       -0.12720184 -0.009364181 0.004775806 0.07439638
000130 90 81 a1 bd c7 76 ad bc 60 d6 9a 3d 63 9c 03 3d
       -0.0788604 -0.021174802 0.0756042 0.032131564
000140 71 db b5 bd bb 24 98 bd 6c de 17 be fd c9 8b bd
       -0.08879746 -0.07428881 -0.14830941 -0.068256356
000150 28 f8 03 bb be d5 f7 3b fd b4 6b 3d 7f a4 55 3c
       -0.0020136926 0.007563322 0.05754565 0.013039707
000160 42 4f c0 bc 9d 6c 40 bd 96 de 94 bd d1 d5 58 bc
       -0.023475293 -0.04697858 -0.072690174 -0.013234572
000170 42 90 87 3d eb 02 48 bd 5b 9d 68 3d 36 99 30 3d
       0.06619312 -0.048830908 0.05679069 0.043114863
000180 fb 44 be 3c b1 b7 22 3c de 54 1b 3d dd 1c 6e bd
       0.023226252 0.009931491 0.037922733 -0.058132995
000190 b1 44 28 3d f9 7e e2 bc b6 ae 56 3d 93 e5 7e bd
       0.041081134 -0.027648436 0.05241271 -0.062230658
0001a0 d6 1f 87 bc cd f3 0a bd 2d f7 56 3c f4 88 b5 bd
       -0.016494673 -0.033923913 0.013120455 -0.08864012
0001b0 f4 27 13 3c c0 f6 13 bc 09 b1 72 3c d8 53 72 bd
       0.008981694 -0.009030998 0.014812716 -0.05916199
0001c0 45 8d 30 3d c6 e2 ea ba d6 fc 55 3d 86 2d 0a 3d
       0.043103475 -0.0017920367 0.052243076 0.03373482
0001d0 9b c5 5d bd 58 0e a9 3d 83 2a d2 bd 82 8f 83 bd
       -0.05414353 0.08254689 -0.10262015 -0.06423856
0001e0 a9 dc 9b bc fe fa 4d 3c 0c e0 f1 bc 98 1c 3b bd
       -0.019026117 0.012572048 -0.02952578 -0.045681566
0001f0 27 a5 1a bc 1c 99 b0 bd 68 df 13 bc 79 6c 21 bd
       -0.009438789 -0.08622953 -0.009025432 -0.03941009

actor_mean.4.bias f4 [2]
000000 81 61 a1 bc aa 17 41 bd
       -0.019699814 -0.04714171
