jsbgym/models/train_saves/ppo_capsnosspa_ts4e-2_38276_10-01_23:08:12.pt (torch, 58827 bytes, 14 tensors)

actor_logstd f4 [1, 2]
0	0xbdb05afa	-0.086111024
1	0xbd1c89f5	-0.038217504

conv.0.weight f4 [3, 1, 5, 1]
0	0x3cbab587	0.022791637
1	0xbe82a2f2	-0.25514942
2	0x3ede80e3	0.43457708
3	0xbf4c0df7	-0.7970881
4	0xbe69ae9b	-0.22820513
5	0x3d132071	0.03591961
6	0x3e38e42c	0.1805579
7	0xbecbf0de	-0.39832205
8	0x3eeef3ee	0.4667048
9	0xbf4e54e3	-0.80598277
10	0xbf0d3cf3	-0.55171126
11	0xbf1ec704	-0.62022424
12	0xbe888ac3	-0.26668367
13	0x3ca66fa8	0.020316914
14	0xbe46bc5d	-0.19407792

conv.0.bias f4 [3]
0	0xbedcdfd6	-0.43139523
1	0x3e268e8d	0.16265316
2	0x3d9e52c3	0.07730629

critic.0.weight f4 [64, 36]
0	0xbe89379e	-0.26800245
1	0x3e4dbf05	0.200924
2	0x3ec8cb62	0.3921767
3	0x3de2a69e	0.11066936
4	0x3dc39670	0.09550178
5	0x3c628687	0.013826019
6	0xbd9b8b31	-0.07594908
7	0xbd98ab54	-0.07454553
8	0x3e3914e1	0.18074371
9	0xbea0dc14	-0.31417906
10	0xbe066c00	-0.13127136
11	0x3dae5f81	0.0851431
12	0xba7520df	-0.00093509065
13	0x3e9cdbed	0.3063654
14	0x3d5fa4ae	0.05460041
15	0x3d4403cd	0.047855187
16	0x3e5b3c17	0.21409641
17	0xbe5072fc	-0.20356363
18	0xbd541aee	-0.051783495
19	0x3da6cfa7	0.08145075
20	0x3bf27ab6	0.007399882
21	0xbe8e9882	-0.2785073
22	0xbc9e3801	-0.019313814
23	0xbd639d5c	-0.05556999
24	0xbd1a9b29	-0.03774563
25	0x3e8adffc	0.27124012
26	0xbdaec7cc	-0.08534202
27	0x3d972ee8	0.073819935
28	0xbdbef72f	-0.0932449
29	0x3e187079	0.14886655
30	0xbe1d1130	-0.15338588
31	0xbc1d0edc	-0.009586062
32	0xbdb9b1a5	-0.09067086
33	0xbe293297	-0.16523205
34	0xbdf74dcd	-0.12075386
35	0x3d962cb5	0.07332746
36	0x3dddbe98	0.108273685
37	0x3b9af6cc	0.0047291275
38	0x3e03a997	0.12857662
39	0x3eac241c	0.336213
40	0x3daca8db	0.08430644
41	0xbdd9e900	-0.10640144
42	0xbbec813a	-0.0072175534
43	0x3e466aa3	0.19376616
44	0x3dbdc8bf	0.09266805
45	0xbd40e341	-0.047091726
46	0x3d7cc9c9	0.061715875
47	0x3e506e31	0.20354535
48	0x3d02afdd	0.031905998
49	0xbe412a7b	-0.18863861
50	0xbe06cd59	-0.13164271
51	0x3c3f94af	0.011693164
52	0xbcf9a431	-0.0304738
53	0x3edb6ea9	0.42857864
54	0x3c274388	0.010208972
55	0xbcdade06	-0.026717197
56	0xbe8e8b2f	-0.27840564
57	0x3d3f1f3b	0.046660643
58	0xbc7e86fa	-0.015535111
59	0xbe53d6a5	-0.20687349
60	0xbe55f96e	-0.20895931
61	0xbdec818e	-0.11548148
62	0x3e192404	0.14955145
63	0xbdc527c0	-0.09626722
64	0xbaad7f86	-0.0013236857
65	0xbe1a948e	-0.15095732
66	0x3e190f7b	0.14947312
67	0xbef26cdf	-0.47348687
68	0xbe18171b	-0.14852564
69	0x3e7faca3	0.249682
70	0x3df1ddce	0.11809884
71	0xbe0bde45	-0.13659008
72	0x3e679d32	0.22618559
73	0xbeca6a63	-0.39534292
74	0x3ea17bec	0.31539857
75	0xbdec7a9c	-0.115468234
76	0x3e937c65	0.28805843
77	0x3d6bd8f8	0.057579964
78	0xbe27340c	-0.16328448
79	0x3ea5ac2b	0.32357916
80	0xbe8b06dc	-0.2715367
81	0xbebc6f35	-0.36803594
82	0xbe5128bd	-0.20425697
83	0x3c8d2661	0.017230215
84	0xbe28942e	-0.16462776
85	0xbdbbf40f	-0.0917741
86	0x3ea9c969	0.33161476
87	0xbc4fcb14	-0.012682695
88	0xbe9872b8	-0.29775023
89	0xbd5fef93	-0.054671835
90	0xbf109e0a	-0.5649115
91	0xbe233041	-0.15936376
92	0x3c03eee3	0.0080525605
93	0xbd2d579a	-0.04231987
94	0x3de0c3f5	0.10974876
95	0xbd49818c	-0.04919581
96	0xbdf36028	-0.11883575
97	0xbd4cfc39	-0.050045226
98	0xbde776b7	-0.1130194
99	0x3e4d26fd	0.20034404
100	0xbe4c83e9	-0.19972195
101	0xbc3e9664	-0.011632536
102	0xbe37a217	-0.17932926
103	0xbe28d77c	-0.16488451
104	0x3ec41d7e	0.3830375
105	0x3e15772b	0.1459624
106	0x3d8dfec9	0.06933362
107	0xbdfd9d0e	-0.123834714
108	0x3df83bcf	0.121207826
109	0x3cbb237f	0.022844074
110	0xbd572845	-0.05252864
111	0xbddb7c57	-0.10717075
112	0x3e734bbe	0.23759362
113	0x3e4de62c	0.20107335
114	0x3ef75118	0.48304057
115	0xbe1e777e	-0.1547527
116	0x3e0e81dc	0.13916725
117	0x3d8508a3	0.06495788
118	0xbd74348f	-0.059620436
119	0xbd20327d	-0.03911065
120	0x3e13593e	0.14389512
121	0xbd3cf6bf	-0.046133753
122	0x3e598ac6	0.21244344
123	0xbde7de07	-0.11321645
124	0xbdc9fb4d	-0.09862385
125	0xbe7dd3e6	-0.24787864
126	0xbd93af74	-0.072111994
127	0xbebcb2c0	-0.36855125
128	0x3e20e4bb	0.15712254
129	0xbe3e1e27	-0.1856619
130	0x3ef6276d	0.48076954
131	0xbe718106	-0.23584375
132	0xbcb82fa6	-0.022483658
133	0xbe0cc367	-0.13746415
134	0xbd73ce2f	-0.059522804
135	0x3c603007	0.013683326
136	0x3d39682e	0.04526537
137	0xbcae214a	-0.021256108
138	0x3d3d2a41	0.046182875
139	0xbe6bbfca	-0.2302238
140	0xbe35ac94	-0.17741615
141	0x3d3fe12e	0.046845607
142	0x3e169d66	0.1470848
143	0x3e0f37c9	0.13986124
144	0xbe1fd829	-0.15609802
145	0xbdf830de	-0.12118696
146	0x3e89bc91	0.26901677
147	0xbd950779	-0.07276816
148	0x3e73e039	0.23816003
149	0xbd5c6a1b	-0.053812128
150	0xbe424a82	-0.18973735
151	0x3d8db291	0.069188245
152	0x3e9b28b5	0.30304495
153	0xbd11f5cf	-0.035634812
154	0x3a1508c9	0.0005685208
155	0x3d9436e8	0.07237035
156	0xbe5b7e74	-0.21434957
157	0x3e3f1d14	0.18663436
158	0x3dd8f271	0.10593117
159	0x3e63f94e	0.22263071
160	0x3de38e58	0.11111134
161	0x3cc2f1b3	0.023796892
162	0xbe6ed777	-0.23324381
163	0x3e05a99f	0.13052987
164	0xbc442faa	-0.011974255
165	0x3ecb1e93	0.39671764
166	0xbb9200a1	-0.0044556414
167	0xbdfb0523	-0.12256839
168	0xbde570af	-0.11203133
169	0x3dff1797	0.12455671
170	0x3e6cd986	0.23129854
171	0xbcec99b3	-0.028881883
172	0xbe2f8989	-0.17142309
173	0xbc88736a	-0.016656596
174	0x3c4d3b79	0.012526386
175	0x3d2deed0	0.042464077
176	0xbd897ecb	-0.06713637
177	0x3d5e9ae9	0.054346953
178	0xbdc4c4df	-0.09607863
179	0xbdb7d49f	-0.08976101
180	0x3cdea107	0.027176393
181	0xbd95169b	-0.07279702
182	0xbe6259a4	-0.22104508
183	0xbda9011d	-0.082521655
184	0x3dc2ad04	0.09505656
185	0xbd3a08cb	-0.045418542
186	0xbe5f2e76	-0.21795067
187	0xbe8176ed	-0.25286046
188	0x3e176430	0.14784312
189	0x3bfdd295	0.0077460506
190	0xbed1b7e2	-0.40960604
191	0x3c178210	0.009247318
192	0xbe327238	-0.17426383
193	0xbe482acb	-0.19547574
194	0xbf22650d	-0.6343544
195	0xbd4cb460	-0.049976707
196	0xbda5e0f0	-0.08099544
197	0x3dae623b	0.0851483
198	0x3e264990	0.16239
199	0x3d7a255b	0.06107078
200	0x3d472bd6	0.04862579
201	0xbe2f87b3	-0.17141609
202	0x3e9047b9	0.2817972
203	0xbd49d0fe	-0.049271576
204	0xbd67d63c	-0.056600794
205	0xbea4ca94	-0.32185805
206	0xbeb6eff2	-0.3572994
207	0x3dd25c78	0.10271543
208	0xbd8ecae3	-0.06972291
209	0xbe083f26	-0.13305339
210	0x3db43591	0.087992795
211	0x3bbea41a	0.0058179023
212	0x3d527f77	0.05139109
213	0xbd9ee62c	-0.077587456
214	0x3d9b7fd5	0.075927414
215	0x3cb0d26e	0.021584716
216	0x3d06fbb1	0.032954875
217	0x3e6cc2b4	0.23121148
218	0x3de5eca6	0.11226778
219	0xbcc33407	-0.02382852
220	0x3e3ff528	0.18745863
221	0x3e95fcd4	0.29294455
222	0x3de9e7d4	0.11421171
223	0x3e9cbea0	0.30614185
224	0x3d5ec2cc	0.05438499
225	0x3dea86e9	0.11451513
226	0x3cd399c8	0.025830165
227	0xbdcef018	-0.10104388
228	0xbf081f89	-0.5317312
229	0xbdbfacd2	-0.09359135
230	0x3d852836	0.0650181
231	0xbed2f914	-0.41205657
232	0xbe304646	-0.17214307
233	0x3d0ad264	0.03389205
234	0x3e4d9c09	0.20079054
235	0x3c70644a	0.014672348
236	0xbe1e0f21	-0.15435459
237	0x3df83669	0.12119753
238	0x3d127328	0.035754353
239	0xbe216e00	-0.15764618
240	0xbd9f9ecc	-0.0779396
241	0xbdca774a	-0.09886034
242	0xbe49c114	-0.1970256
243	0x3da2c41d	0.07947562
244	0x3da4f003	0.08053591
245	0x3e0dbb5a	0.13841
246	0xbe9b8027	-0.3037121
247	0x3ea8751c	0.32901847
248	0x3e160761	0.14651252
249	0xbe06fbf2	-0.13182047
250	0x3defdaae	0.11711632
251	0xbdaa17a4	-0.0830529
252	0xbe7dac20	-0.24772692
253	0xbe7e7fa5	-0.2485338
254	0xbe090e47	-0.13384353
255	0xbd71229c	-0.058870897

critic.0.bias f4 [64]
0	0x3ae92f76	0.0017790634
1	0xbd2e6b2a	-0.04258267
2	0xbd925364	-0.07144812
3	0xbc600241	-0.013672412
4	0xbdbae30c	-0.09125337
5	0x3e0e4b5b	0.13895933
6	0x3c67f8ea	0.014158467
7	0x3d46745a	0.048450805
8	0xbd59fc73	-0.05321927
9	0x3df39888	0.118943274
10	0x3daedffb	0.08538815
11	0xbdf6f39b	-0.12058183
12	0x3d79e91b	0.061013322
13	0xbd2e6230	-0.042574108
14	0xbdc3998d	-0.09550772
15	0xbb8c8c32	-0.0042891735
16	0xbc81afa3	-0.01583082
17	0xbdfbab4b	-0.12288531
18	0xbb9c9a1b	-0.004779113
19	0xbe09bd53	-0.13451128
20	0x3d0e3496	0.03471812
21	0x3d9fbba1	0.07799459
22	0x3d551956	0.052026115
23	0xbd149de8	-0.036283404
24	0x3d055312	0.032549925
25	0x3c6d315c	0.0144771
26	0xbd7c8936	-0.061654292
27	0xbdd7ad1c	-0.10531065
28	0x3e0c5a95	0.1370643
29	0x3d90989b	0.07060357
30	0x3d650ffe	0.055923454
31	0xbd25b847	-0.040458944
32	0xbd27fd56	-0.041013084
33	0x3d9357e0	0.07194495
34	0xbdb4e710	-0.08833134
35	0x3da387a3	0.07984855
36	0x3dd62780	0.10456753
37	0x3e2bf2d6	0.16791853
38	0xbdd86ac4	-0.10567239
39	0xbda0e1ac	-0.078555435
40	0xbd4b81c7	-0.049684312
41	0x3dc8df3d	0.09808204
42	0x3d7f7771	0.062369768
43	0xbd0295ca	-0.03188113
44	0x3cc6428c	0.024201654
45	0xbdba0f2b	-0.09084924
46	0x3da792e8	0.08182317
47	0xbd4df04a	-0.050277986
48	0xbddbf3af	-0.10739838
49	0x3c225f3b	0.0099104
50	0x3c9c76b9	0.01909958
51	0xbd98c5e2	-0.07459618
52	0xbe00cd99	-0.1257843
53	0xbd022bbb	-0.031779986
54	0x3c561134	0.013065625
55	0x3d87bf64	0.06628302
56	0xbe10128c	-0.14069575
57	0x3e103c7e	0.14085576
58	0xbd6c0607	-0.057622936
59	0x3d92aefa	0.071622804
60	0xbd1bd6d1	-0.03804666
61	0x3e2f3691	0.17110659
62	0xbd5c9e54	-0.05386193
63	0xbd99d67e	-0.07511614

critic.2.weight f4 [64, 64]
0	0x3d8eba3b	0.069691144
1	0x3ce92c23	0.028463429
2	0xbe11e0c1	-0.14245893
3	0xbe596a90	-0.21232057
4	0xbe9aa88d	-0.3020672
5	0x3d87ad9f	0.066249125
6	0x3cb697df	0.022289215
7	0x3eff351a	0.498452
8	0xbe0070b7	-0.12542997
9	0xbe3461ee	-0.17615482
10	0x3d825cb3	0.06365337
11	0xbe7119fd	-0.2354507
12	0x3e2d7718	0.16939962
13	0x3e24a080	0.16076851
14	0x3e7673d7	0.24067627
15	0xbd870b02	-0.065938964
16	0x3e6a70bf	0.22894572
17	0xbe8c2259	-0.27369955
18	0x3e666081	0.22497751
19	0x3dc4adb8	0.09603447
20	0x3d2eaea8	0.042647034
21	0x3edc2b71	0.43001893
22	0x3ce07874	0.027401187
23	0xbda0f1b5	-0.07858602
24	0xbbf7a636	-0.0075576557
25	0x3e1d83ee	0.15382358
26	0xbe96abd1	-0.2942796
27	0xbe3a5fbc	-0.18200582
28	0x3d55a2ef	0.05215734
29	0x3dd08801	0.10182191
30	0x3d8eead3	0.06978383
31	0xbe12af8a	-0.14324775
32	0xbe19e8ec	-0.15030259
33	0x3e8c09a9	0.2735112
34	0xbe671161	-0.22565223
35	0x3e0b6746	0.13613614
36	0xbdc0ed67	-0.09420281
37	0x3db72d18	0.08944148
38	0x3e6bb16b	0.23016898
39	0x3d424d85	0.04743721
40	0xbda493fa	-0.08036037
41	0x3d82f3cb	0.06394156
42	0xbe8e1e43	-0.27757463
43	0x3e204c0f	0.15654014
44	0x3e726209	0.2367021
45	0xbe34e788	-0.17666447
46	0xbd8c7565	-0.06858329
47	0xbc8afafb	-0.01696538
48	0xbe763c1f	-0.24046372
49	0xbc8be570	-0.017077178
50	0x3c1dc0f6	0.009628525
51	0x3eca31fd	0.39491263
52	0xbec52299	-0.38502958
53	0xbc4d5824	-0.012533221
54	0x3e50b3a5	0.20381029
55	0xbde09dcf	-0.109675996
56	0xbe8e4c52	-0.27792603
57	0x3ee0e82a	0.43927127
58	0x3e72eab4	0.23722345
59	0x3e33cf32	0.17559507
60	0xbdb0e517	-0.086374454
61	0xbeba0fa6	-0.36340064
62	0x3e412b08	0.18864071
63	0xbd8c37a0	-0.06846547
64	0xbcaee909	-0.021351354
65	0xbcd21402	-0.025644306
66	0xbe91bc9e	-0.28464216
67	0x3cdf28cb	0.027241131
68	0xbdb5f079	-0.08883757
69	0x3d3acbcc	0.045604512
70	0xbd8b0e08	-0.067897856
71	0xbe32369d	-0.17403646
72	0x3e0fecdf	0.14055203
73	0xbccf49a7	-0.025303675
74	0xbe0b2dce	-0.13591692
75	0xbe887f3f	-0.2665958
76	0x3eaa4da4	0.3326236
77	0xbeb8fb06	-0.36129016
78	0xbefb00dc	-0.49024093
79	0xbe15fd51	-0.14647414
80	0x3e0ea653	0.13930635
81	0x3d8676a7	0.065656
82	0x3ddb7e2d	0.107174255
83	0xbdd8a333	-0.10578003
84	0xbd944817	-0.072403125
85	0x3eb926fa	0.3616255
86	0xbd5158c2	-0.051110037
87	0x3e984a81	0.29744342
88	0x3dd46e40	0.10372591
89	0xbc598cda	-0.013278211
90	0xbd92c5e0	-0.07166648
91	0x3d8423b6	0.06452124
92	0xbd7cd22b	-0.06172387
93	0xbc4a08dc	-0.012331214
94	0x3ebdf8a5	0.37103763
95	0xbe28c076	-0.16479668
96	0xbe1c3adc	-0.15256828
97	0xbea7aaa7	-0.32747385
98	0xbe6bfd52	-0.23045853
99	0x3d8dc9ee	0.06923281
100	0x3dac7ba4	0.0842202
101	0x3eb3279e	0.34991163
102	0xbd74e37e	-0.059787266
103	0x3e6fd066	0.23419341
104	0x3d01ef30	0.031722248
105	0x3e4998a0	0.19687128
106	0xbdcd6a26	-0.10030012
107	0xbd238c8f	-0.03992897
108	0x3d53a5e3	0.051671874
109	0x3e45b4f3	0.19307308
110	0x3b01c893	0.001980339
111	0x3deff314	0.11716285
112	0xbeaab3b0	-0.33340216
113	0x3ec309b1	0.3809333
114	0xbdd0cfa5	-0.10195855
115	0x3e877531	0.26456597
116	0x3e74ead8	0.23917711
117	0x3e4a4dea	0.19756284
118	0x3bc091d5	0.0058767595
119	0x3e499d29	0.19688858
120	0xbcc497af	-0.02399811
121	0xbbf753b0	-0.007547818
122	0xbd0f6f51	-0.03501827
123	0xb98bd1c3	-0.0002666843
124	0x3e84405d	0.25830355
125	0x3dafdae5	0.08586673
126	0xbe37932d	-0.17927237
127	0x3e97903e	0.29602236
128	0xbe27a9e1	-0.16373397
129	0x3dbf97eb	0.09355148
130	0x3e8a0e5d	0.26964083
131	0xbe90190b	-0.28144106
132	0xbe39a012	-0.18127468
133	0x3d8e6a61	0.06953884
134	0xbe775fcd	-0.24157639
135	0xbdab84d7	-0.083749466
136	0x3e8e355a	0.2777508
137	0xbd2d5577	-0.042317834
138	0xbde65b5a	-0.11247893
139	0x3d02b26f	0.03190845
140	0xbe1505bd	-0.1455297
141	0xbe1bda00	-0.15219879
142	0x3e90dab0	0.28291845
143	0xbdb2e5bf	-0.08735227
144	0xbca31e53	-0.01991192
145	0xbdcce5c3	-0.10004761
146	0xbe03cccb	-0.12871091
147	0xbd22e953	-0.039773297
148	0x3d0a5f14	0.03378208
149	0x3e3fa830	0.18716502
150	0x3d2c28ea	0.042031206
151	0x3e45e152	0.19324234
152	0x3e78a6f4	0.24282438
153	0xbcd02b46	-0.02541126
154	0x3ea489f6	0.32136506
155	0xbe4fbebf	-0.20287608
156	0xbd8af3e0	-0.06784797
157	0xbdde58e5	-0.10856799
158	0xbe15ab5a	-0.14616147
159	0x3e227e39	0.15868463
160	0x3d16b0af	0.036789592
161	0x3daf1dad	0.08550582
162	0x3d41aa57	0.04728159
163	0x3e4b99e1	0.19882919
164	0xbe8c8e18	-0.2745216
165	0x3e946572	0.28983647
166	0x3daa3a9f	0.08311962
167	0x3dc75ac2	0.097341076
168	0xbe702272	-0.2345064
169	0x3e537749	0.20650972
170	0x3ec8b12f	0.3919768
171	0xbe934de8	-0.28770375
172	0xbd368b0f	-0.04456621
173	0xbe6a07fb	-0.22854607
174	0x3d47f508	0.048817664
175	0xbe19e2a1	-0.15027858
176	0xbe40bb0d	-0.18821354
177	0x3d8697aa	0.065718964
178	0x3eb4ed8b	0.3533748
179	0x3dd629d0	0.10457194
180	0xbe26ad74	-0.16277105
181	0xbe05817e	-0.13037679
182	0xbd830459	-0.063973136
183	0x3ea0416b	0.3129991
184	0xbd914178	-0.07092565
185	0x3e9852f4	0.29750788
186	0xbdfe3d2c	-0.12414011
187	0xbe0150c3	-0.12628464
188	0xbea6dbe2	-0.32589632
189	0x3cfef46c	0.031122409
190	0xbdccae69	-0.099942036
191	0xbe74af2d	-0.2389495
192	0xbe122c84	-0.14274794
193	0x3e029578	0.1275233
194	0x3ee2b8be	0.44281572
195	0xbe9dc5f8	-0.308151
196	0xbec33822	-0.38128763
197	0xbcf8c751	-0.030368479
198	0x3e6dd0a8	0.23224127
199	0xbda75b19	-0.081716724
200	0xbe918cec	-0.28427827
201	0x3e80ddc9	0.2516921
202	0x3e3cd6ed	0.18441363
203	0x3dc76eeb	0.09737953
204	0x3ed3ed7f	0.41392133
205	0x3e6d0aef	0.23148702
206	0x3e000d09	0.12504973
207	0x3dbfe536	0.093698904
208	0xbced0e72	-0.028937552
209	0x3e84ae51	0.25914243
210	0x3e3a338a	0.18183723
211	0xbdd2219c	-0.10260317
212	0x3dfafd8e	0.12255393
213	0xbe9822f4	-0.29714167
214	0x3e5de905	0.21670921
215	0x3cef41ad	0.029206121
216	0x3c65dcd7	0.014029703
217	0xbd8416bc	-0.06449649
218	0x3dabf8fe	0.08397101
219	0xbe30feb8	-0.17284667
220	0x3e236cdc	0.15959495
221	0x3d122856	0.035683
222	0x3de82799	0.11335678
223	0xbe6bb62b	-0.2301871
224	0x3e78065e	0.24221179
225	0x3e4ad3d7	0.19807373
226	0x3cb2f156	0.021843594
227	0x3dac06a4	0.08399704
228	0xbc8de851	-0.017322691
229	0x3d5c92ca	0.053850926
230	0x3e4053bd	0.18781944
231	0x3e6553df	0.22395276
232	0xbd3ce769	-0.046119127
233	0xbdd4834d	-0.10376606
234	0xbe2ae9f1	-0.16690804
235	0xbc65c4ea	-0.014023999
236	0xbcf65baa	-0.030073006
237	0x3e632dad	0.22185393
238	0x3e3d1839	0.18466271
239	0xbe736349	-0.23768343
240	0x3e8867e9	0.26641777
241	0x3e5d64a4	0.21620423
242	0x3d633e4c	0.055479333
243	0xbdb00bac	-0.08595976
244	0xbd970bf4	-0.07375327
245	0x3e41edec	0.18938416
246	0xbd02f8a4	-0.031975403
247	0x3ead9352	0.3390146
248	0xba00152f	-0.0004885969
249	0x3dc0a2b2	0.09406032
250	0x3e436b3f	0.1908388
251	0xbe2b7c38	-0.16746604
252	0xbd21d618	-0.039510816
253	0x3cfb06cf	0.030642895
254	0xbe0465ae	-0.12929413
255	0x3e83e302	0.2575913

critic.2.bias f4 [64]
0	0x3e02957e	0.12752339
1	0xbcc7fdbb	-0.02441298
2	0x3da3596f	0.079760425
3	0xbc128872	-0.008943664
4	0xbd84d4b3	-0.06485882
5	0x3d9df7e1	0.07713295
6	0xbcc38d4a	-0.023871083
7	0x3cc1ff4f	0.023681311
8	0xbdc84a45	-0.09779791
9	0xbc816b9e	-0.015798386
10	0xbccc2e44	-0.024924405
11	0xbdf0a7c3	-0.11750748
12	0x3dbb0118	0.09131068
13	0x3c413c9b	0.011794235
14	0x3d22cc7a	0.039745785
15	0xbd1ac01c	-0.037780866
16	0xbc46b819	-0.012128853
17	0xbdf7c3a4	-0.12097862
18	0xbde14543	-0.10999539
19	0x3d729b4e	0.05923014
20	0x3d6fd05b	0.058548313
21	0x3cdd1548	0.026987687
22	0xbd6b38d8	-0.057427257
23	0x3d715557	0.058919277
24	0xbd01cf8e	-0.03169208
25	0x3c1ee558	0.0096982345
26	0x3caa8266	0.020814132
27	0x3dafb289	0.08578975
28	0xbd439566	-0.0477499
29	0xbbf29009	-0.0074024242
30	0xbd2d7692	-0.042349406
31	0x3dc9f407	0.09860998
32	0x3cf189af	0.029484598
33	0xbad9d1c4	-0.0016618301
34	0xbd29f067	-0.04148903
35	0x3ce4d5e6	0.027934026
36	0x3d13ec3d	0.036113966
37	0xbb8c757e	-0.004286467
38	0x3da6f437	0.08152049
39	0x3d871b18	0.065969646
40	0xbdba1395	-0.09085766
41	0xbdb49e8d	-0.08819304
42	0xbb5e3afc	-0.003390967
43	0xbde72226	-0.1128581
44	0xbdb423d2	-0.08795895
45	0xbd76d233	-0.060259055
46	0x3de13047	0.10995536
47	0xbd8ab613	-0.06773009
48	0x3da8c8df	0.08241438
49	0x3c86996e	0.016430583
50	0xbdacd5ce	-0.084392175
51	0xbdab252b	-0.083566986
52	0x3e048c80	0.12944221
53	0xbc9ba55c	-0.018999748
54	0xbc20870e	-0.009797825
55	0xbd9aebf0	-0.07564533
56	0x3db24fe8	0.08706647
57	0xbda28710	-0.079359174
58	0x3d9faf77	0.07797139
59	0x3d8a0769	0.067396946
60	0x3d7e2534	0.0620472
61	0x3dfa4688	0.12220484
62	0x3d93ec80	0.07222843
63	0x3d05bd3a	0.032651164

critic.4.weight f4 [1, 64]
0	0xbddd26eb	-0.10798439
1	0x3e5c9d10	0.2154429
2	0xbdbfda3c	-0.09367797
3	0xbdbc17ad	-0.09184203
4	0x3e23e7c8	0.16006386
5	0xbeb1a01a	-0.3469246
6	0x3e190bd4	0.14945918
7	0xbe03c002	-0.12866214
8	0x3d964892	0.073380604
9	0xbe80b3c1	-0.2513714
10	0x3e15b49b	0.14619677
11	0x3dfecabc	0.12441012
12	0xbdac3f2b	-0.08410486
13	0x3e0ab79c	0.13546604
14	0xbdc1d75e	-0.09464906
15	0x3dda1b4a	0.10649736
16	0x3e88eda7	0.26743814
17	0x3dde851d	0.10865233
18	0x3dc91eec	0.09820351
19	0xbd3356ec	-0.043784067
20	0xbd88c84f	-0.06678831
21	0xbd715436	-0.0589182
22	0x3e13ef52	0.14446762
23	0xbd87ada0	-0.06624913
24	0x3e21930b	0.15778749
25	0xbe16047e	-0.14650151
26	0xbeab04f4	-0.33402216
27	0xbe1ec4d5	-0.15504773
28	0x3e94e4f8	0.2908094
29	0xbdeb5c3d	-0.114922024
30	0x3d77ebc8	0.060527593
31	0xbe679f78	-0.22619426
32	0x3c9bda43	0.019024974
33	0x3d4277e7	0.04747763
34	0x3e5c3aa5	0.21506746
35	0xbe4e8571	-0.20168091
36	0xbbb29163	-0.0054494604
37	0x3ea92d3f	0.33042333
38	0xbe5162ee	-0.20447895
39	0xbe11ba08	-0.14231122
40	0x3e2842ab	0.16431682
41	0x3e35548c	0.17708033
42	0x3e078883	0.13235669
43	0x3e18af99	0.14910735
44	0x3e2c6da8	0.16838706
45	0x3e40309c	0.18768543
46	0xbe812084	-0.2522012
47	0x3d8428c6	0.064530894
48	0xbe5ecce2	-0.21757844
49	0xbe3e023b	-0.18555538
50	0x3e5dc2f2	0.21656397
51	0x3ea9a22d	0.33131543
52	0xbe2b156b	-0.16707389
53	0xbe22f44e	-0.15913507
54	0xbe5fbb01	-0.2184868
55	0x3da0a18d	0.07843313
56	0xbe3d416e	-0.1848199
57	0x3de614b6	0.11234419
58	0xbe037c74	-0.12840444
59	0xbe68f2f0	-0.22748923
60	0xbdd7c2dc	-0.10535213
61	0xbd8d92ab	-0.0691274
62	0xbdaa8d70	-0.08327758
63	0xbe86d95e	-0.26337713

actor_mean.0.weight f4 [64, 36]
0	0xbe1f7ec4	-0.15575701
1	0x3ea99832	0.33123928
2	0xbe232c03	-0.15934758
3	0xbd49ddf3	-0.049283933
4	0x3d131c82	0.03591586
5	0xbda4c3dd	-0.080451705
6	0xbea0c478	-0.31399894
7	0x3d11b018	0.035568327
8	0x3d4ffec2	0.050780065
9	0xbda414e0	-0.08011794
10	0xbd9a9beb	-0.0754927
11	0xba28e714	-0.0006443125
12	0xbdee7ea7	-0.11645251
13	0x3f0a116a	0.5393282
14	0x3e725b06	0.23667535
15	0xbcbc53fa	-0.022989262
16	0x3d1900f2	0.037354417
17	0xbd855503	-0.06510355
18	0xbde833f8	-0.11338037
19	0xbd5672d3	-0.0523556
20	0x3dabab06	0.083822295
21	0xbe5a1fad	-0.21301146
22	0x3e1058e7	0.14096414
23	0x3d766052	0.060150452
24	0xbe4b6b5a	-0.1986517
25	0x3de32c14	0.110923916
26	0xbdfe1221	-0.124058016
27	0xbd8917c0	-0.06693983
28	0x3bf22ba6	0.007390457
29	0xbd70ebe0	-0.058818698
30	0x3ee2d697	0.44304344
31	0xbedb37d0	-0.4281602
32	0x3e2ba1a1	0.16760875
33	0xbcb55ff4	-0.02214048
34	0x3e141946	0.14462766
35	0xbc602ff8	-0.013683312
36	0x3e552daf	0.20818208
37	0xbe8a38e9	-0.26996544
38	0xbe21f2fa	-0.15815344
39	0x3e0379eb	0.12839477
40	0x3e553065	0.20819242
41	0xbd923623	-0.07139232
42	0xbe250f86	-0.16119203
43	0x3dfbefa2	0.12301566
44	0xbcc85c41	-0.024458053
45	0xbcf17651	-0.029475363
46	0x393b8d21	0.00017886284
47	0xbcbebbe0	-0.023282945
48	0xbe04eacf	-0.12980197
49	0xbe5bee9a	-0.21477738
50	0xbd7fad72	-0.06242127
51	0x3d3c827f	0.04602289
52	0xbe8399f1	-0.25703385
53	0x3d5731f7	0.052537885
54	0xbe80619b	-0.25074467
55	0x3ef6c745	0.48198906
56	0xbe68c6fb	-0.22732155
57	0x3eba8ba7	0.3643467
58	0x3dbc4c2c	0.09194216
59	0xbddf93cf	-0.10916864
60	0x3ca94361	0.020662012
61	0x3d3b565a	0.04573665
62	0xbdbeb3c8	-0.09311634
63	0xbd8f6a2c	-0.070026726
64	0x3a457f3c	0.0007533913
65	0x3daba86b	0.083817326
66	0xbdd62548	-0.104563296
67	0x3e4611bb	0.19342701
68	0xbd902cc6	-0.0703979
69	0x3ea10922	0.3145228
70	0xbd989327	-0.07449942
71	0x3c6f7479	0.014615172
72	0x3e6a7677	0.22896753
73	0x3c6dc620	0.014512569
74	0xbdbe87f8	-0.09303278
75	0xbebf7714	-0.37395537
76	0xbd362af4	-0.044474557
77	0x3de7a57b	0.1131086
78	0x3e38c68e	0.18044493
79	0x3e13c7ca	0.14431682
80	0x3d731764	0.05934848
81	0x3e451a8f	0.19248413
82	0x3dcf3ca2	0.10118987
83	0x3ce29d7c	0.027662985
84	0xbb8c397f	-0.004279315
85	0xbdfe39e0	-0.124133825
86	0xbe2fc541	-0.1716509
87	0xbdffe6e4	-0.12495211
88	0x3c85ecae	0.01634821
89	0xbe72bc16	-0.23704562
90	0xbd9bd832	-0.07609595
91	0x3e63e165	0.2225395
92	0xbeb74665	-0.35795894
93	0x3d90c480	0.070687294
94	0x3cee0f86	0.029060137
95	0xbc9e82d3	-0.019349491
96	0xbe5764fd	-0.21034618
97	0xbdd29199	-0.10281677
98	0x3ea2c89f	0.31793687
99	0xbe9611c1	-0.2931042
100	0x3c368d61	0.011142106
101	0x3c65fdfb	0.014037604
102	0x3e90392f	0.28168628
103	0x3ebef619	0.37297133
104	0xbea0fa2a	-0.3144086
105	0x3e105adc	0.1409716
106	0xbd7d7c9b	-0.06188641
107	0x3d6c548a	0.05769781
108	0x3dd1b9fb	0.10240551
109	0x3e1444bf	0.1447935
110	0xbda91612	-0.08256163
111	0xbe267635	-0.1625603
112	0x3e147055	0.14495976
113	0xbd63b7b5	-0.05559512
114	0x3eb03b66	0.34420317
115	0xbd03e8ff	-0.032204624
116	0x3d824f8c	0.063628286
117	0x3ed7ef99	0.42174986
118	0x3c4b7ffe	0.012420652
119	0x3ced03dd	0.028932506
120	0xbe624c98	-0.2209953
121	0x3e11ec77	0.1425036
122	0x3e8ced0b	0.275246
123	0x3e95cdb2	0.29258496
124	0x3d0a79fe	0.033807747
125	0x3e3c0d5e	0.18364474
126	0xbdfcd47d	-0.123452164
127	0x3ea1d8f1	0.31610826
128	0xbc205d64	-0.009787891
129	0x3ec16bf7	0.37777683
130	0x3d363a11	0.04448897
131	0xbc0febc3	-0.008784237
132	0x3e7a3f8f	0.24438308
133	0xbe7028da	-0.23453084
134	0xbe517ab4	-0.20456964
135	0xbdbd607d	-0.09246919
136	0x3d295cf3	0.04134841
137	0x3e07a336	0.13245854
138	0x3db21f15	0.08697335
139	0xbe8d3389	-0.2757838
140	0xbb034b1f	-0.002003379
141	0x3ee82d8a	0.45347244
142	0xbd4e4867	-0.050362017
143	0xbdb91dfa	-0.09038921
144	0x3e1a60fa	0.15076056
145	0xbd81e5ed	-0.06342683
146	0x3cf6c7b8	0.03012453
147	0x3e132a66	0.14371642
148	0xbd049f93	-0.032378744
149	0x3e852158	0.26002002
150	0xbe1c3950	-0.15256238
151	0x3dd70a9f	0.10500073
152	0x3f0fbe96	0.56150186
153	0xbe65167a	-0.22371855
154	0x3ddbd56e	0.10734068
155	0x3d0e773f	0.03478169
156	0xbe73dfda	-0.23815861
157	0x3eacfd4a	0.33786994
158	0xbdd39fb4	-0.10333195
159	0x3df7febe	0.12109135
160	0x3dc853b2	0.097815886
161	0xbd470844	-0.048591867
162	0xbe607acf	-0.21921848
163	0xbd82afde	-0.063812
164	0x3cf0dad0	0.029401213
165	0xbe82358e	-0.25431484
166	0xbd1af29c	-0.037829027
167	0x3d594fd6	0.053054653
168	0xbcadbfc6	-0.021209609
169	0x3e568a9c	0.20951313
170	0x3d9000da	0.070314124
171	0x3da5b148	0.08090454
172	0x3d9f2ecf	0.077726
173	0x3d693c5e	0.056942336
174	0x3e464798	0.19363248
175	0x3e41957c	0.1890468
176	0x3e6844ee	0.22682545
177	0xbdebd761	-0.1151569
178	0xbe16623e	-0.14685914
179	0x3d0c4c37	0.03425237
180	0x3dec2778	0.115309656
181	0xbd81d315	-0.06339089
182	0x3e11dd2b	0.14244525
183	0x3d46fec0	0.048582792
184	0x3e717566	0.2357994
185	0xbd4130c6	-0.047165655
186	0x3e234c86	0.1594716
187	0x3e70f821	0.23532154
188	0x3e9c6d6f	0.3055224
189	0x3dcaae11	0.09896482
190	0xbd8e2c21	-0.06942011
191	0x3e1c7996	0.15280756
192	0x3e3b3a5c	0.18283981
193	0xbd4499ad	-0.04799812
194	0x3d9bec99	0.07613487
195	0x3e945fad	0.28979245
196	0xbe083649	-0.13301958
197	0xbe8139ec	-0.25239503
198	0xbdba42d8	-0.09094781
199	0xbeba5f2f	-0.36400744
200	0x3df16b98	0.117881
201	0xbdce49ae	-0.10072647
202	0x3dabcec8	0.0838905
203	0xbdb96a3b	-0.09053465
204	0xbe4c94d4	-0.19978648
205	0x3eb55207	0.35414144
206	0x3ea52415	0.3225409
207	0xbe2078a2	-0.15671018
208	0xbc01ed4f	-0.007930114
209	0xbc697344	-0.014248673
210	0xbdd527d6	-0.10407989
211	0xbe9929dc	-0.2991475
212	0x3e083659	0.13301982
213	0x3e7c0168	0.24609911
214	0x3ce9f8b0	0.028560966
215	0xbd96505f	-0.07339548
216	0x3b4e7f9c	0.0031509167
217	0xbdc2a92d	-0.09504924
218	0xbe42ff03	-0.19042592
219	0xbe7d9669	-0.24764408
220	0xbcbe5450	-0.023233563
221	0xbe16af3c	-0.14715284
222	0xbcf2349a	-0.029566098
223	0x3f0e44bd	0.55573636
224	0x3e17141f	0.1475377
225	0x3e3d3e55	0.18480809
226	0x3d486c5c	0.048931465
227	0xbe053832	-0.13009718
228	0x3eabe4f9	0.3357313
229	0x3ea1275e	0.31475347
230	0xbee679ca	-0.45014793
231	0x3e7f8c87	0.2495595
232	0xbdf93a54	-0.12169328
233	0x3e93ffde	0.2890615
234	0x3ae6c228	0.001760547
235	0xbd662f41	-0.05619741
236	0xbdcba706	-0.099439666
237	0x3ed63204	0.41835034
238	0x3ceca314	0.028886355
239	0xbd9f8bba	-0.077903226
240	0x3e9a9029	0.3018811
241	0xbdb052bd	-0.08609531
242	0x3e278a1c	0.16361278
243	0x3daf9ad4	0.08574453
244	0x3cb52a1e	0.02211481
245	0xbdb6a63d	-0.08918426
246	0x3d98cc6c	0.074608654
247	0x3d659776	0.056052648
248	0xbd9a51ba	-0.07535119
249	0xbcab6aa6	-0.020924877
250	0x3dbde79a	0.0927269
251	0x3e23fbab	0.16013972
252	0xbdf836cb	-0.12119826
253	0x3e2ff970	0.17184997
254	0x3e12b707	0.14327632
255	0x3e0bb8aa	0.13644662

actor_mean.0.bias f4 [64]
0	0xbb118cf9	-0.002220927
1	0x3d219cec	0.039456293
2	0x3a821adb	0.0009926216
3	0xbc0285af	-0.007966443
4	0xbd8931fc	-0.06698987
5	0xbde95a1f	-0.11394142
6	0x3b88fb72	0.0041803652
7	0x3bb499bd	0.005511491
8	0xbab8efda	-0.0014109567
9	0x3d382dfe	0.044965737
10	0x3ce9e2ae	0.028550472
11	0x3c17a78b	0.009256254
12	0xbcdfa36d	-0.027299607
13	0x3d8b2f74	0.0679616
14	0x3deb09de	0.114764914
15	0xbd7819c0	-0.060571432
16	0x3dcb9689	0.09940822
17	0x3bb1be41	0.0054242914
18	0x3d3910aa	0.045181908
19	0x3c8fc223	0.017548626
20	0x3df167ad	0.11787353
21	0xbd4d63fe	-0.050144188
22	0xbd896282	-0.06708242
23	0x3c28772b	0.010282318
24	0xbc7645c8	-0.015031286
25	0xbdad3392	-0.08457102
26	0xbbae8cde	-0.0053268513
27	0xbd99497d	-0.0748472
28	0x3c4f6e4a	0.012660572
29	0x3c8f769b	0.01751261
30	0xbdb34164	-0.08752707
31	0x3d3a68f7	0.04551026
32	0xbc94cf11	-0.018165143
33	0xbd29b564	-0.041432753
34	0xbda12dd2	-0.07870068
35	0x3dc94330	0.09827268
36	0x3e0f5918	0.1399883
37	0x3d20ef81	0.03929091
38	0xbd72dc02	-0.059291847
39	0xbdb7be17	-0.08971804
40	0xbd3120d8	-0.043244213
41	0xbd36fb39	-0.04467318
42	0x3cf90722	0.030398909
43	0xbcc3e8b9	-0.023914682
44	0x3d71890d	0.058968592
45	0x3cdf65ac	0.02727016
46	0x3d7b1aca	0.061304845
47	0x3d2a77fb	0.04161833
48	0x3ce1e4a3	0.027574843
49	0x3d04169d	0.03224813
50	0xbcd2b12f	-0.025719253
51	0x3caad54b	0.02085366
52	0xbcae05f4	-0.021243073
53	0xbe2dd25c	-0.16974777
54	0x3c19d492	0.00938906
55	0x3d19bac1	0.037531618
56	0xbbc7d929	-0.0060988856
57	0xbceebae2	-0.029141847
58	0xbdb9c927	-0.0907157
59	0xbd6c0b14	-0.057627752
60	0x3dab8751	0.08375419
61	0x3c70ac84	0.014689568
62	0x3cb1f61c	0.0217238
63	0xbdb20fb0	-0.086943984

actor_mean.2.weight f4 [64, 64]
0	0x3d9fd7e6	0.07804851
1	0x3d92677a	0.07148643
2	0x3dfe313b	0.12411734
3	0x3e24ed56	0.16106161
4	0xbd681b50	-0.056666672
5	0xbda5cda7	-0.08095866
6	0xbd2a439e	-0.04156839
7	0xbe60e70f	-0.21963142
8	0x3d4829b6	0.048867904
9	0x3dee40de	0.11633466
10	0x3e3bb465	0.18330534
11	0xbc55fade	-0.0130603
12	0x3e264f43	0.16241173
13	0x3e0671dd	0.13129373
14	0x3df85445	0.12125448
15	0xbd518de5	-0.05116071
16	0x3e1e85bd	0.15480705
17	0x3c70a13b	0.014686878
18	0x3d9ff38e	0.07810126
19	0x3e253247	0.1613246
20	0x3ef6e7fb	0.48223862
21	0xbe199bae	-0.15000793
22	0xbeafdf80	-0.34350204
23	0x3d42aa07	0.047525432
24	0x3cad3c4e	0.02114692
25	0xbe7c97b4	-0.24667245
26	0xbdb28c70	-0.087181926
27	0xbe95536e	-0.29165214
28	0xbe8877d7	-0.2665393
29	0x3e68fa1a	0.22751656
30	0xbdb57f4a	-0.08862169
31	0x3e5ac88e	0.21365568
32	0xbd8ae002	-0.06781007
33	0x3e1314ad	0.14363356
34	0xbdba81e5	-0.09106807
35	0x3e1e6456	0.15467963
36	0x3e80f2c3	0.25185212
37	0xbe1ff02e	-0.15618965
38	0x3e2aa127	0.16663037
39	0x3e5aa8bc	0.2135343
40	0xbe0b7d90	-0.13622117
41	0xbf18f2a6	-0.5974525
42	0x3d8c15b5	0.06840078
43	0xbd4509bc	-0.048104987
44	0x3ec10a95	0.37703386
45	0x3e8718b2	0.2638603
46	0x3e87ddb4	0.26536334
47	0x3dec7cde	0.11547254
48	0x3b9e5000	0.004831314
49	0xbd66d224	-0.05635275
50	0x3e9920e2	0.299079
51	0xbbfa5fbf	-0.0076408084
52	0x3e175f8f	0.14782546
53	0xbe2ef27e	-0.17084691
54	0xbe475bec	-0.19468659
55	0x3e5e3202	0.21698764
56	0x3e16f5f9	0.14742269
57	0x3df0df85	0.11761383
58	0xbe9cd887	-0.30633947
59	0xbee674c9	-0.45010975
60	0x3e82b2c9	0.25527027
61	0x3e1ee647	0.15517531
62	0xbe182172	-0.14856508
63	0xbdb9f277	-0.090794496
64	0x3e7b7295	0.24555428
65	0x3e60f4ce	0.21968386
66	0xbc956d10	-0.018240482
67	0xbd3188d4	-0.04334338
68	0x3d8c10f2	0.068391696
69	0x3e9780b7	0.2959039
70	0xbdbeac57	-0.09310215
71	0xbe809853	-0.25116214
72	0x3dff34a5	0.12461213
73	0xbedbeabf	-0.42952535
74	0xbe343b28	-0.17600691
75	0x3dc20925	0.094744004
76	0x3d8fed98	0.07027739
77	0xbd9ebb7e	-0.07750605
78	0xbcaabbb8	-0.020841464
79	0xbe448dd2	-0.19194725
80	0xbe8ba603	-0.27275094
81	0x3df6428e	0.12024413
82	0xbdd9f531	-0.1064247
83	0xbe12d6b2	-0.14339712
84	0xbd0f82df	-0.035036918
85	0x3e31c2a6	0.17359409
86	0x3cce2fcc	0.025169276
87	0x3e046ca8	0.12932074
88	0x3e9930a3	0.2991992
89	0x3e91af13	0.28453884
90	0xbdadec61	-0.08492351
91	0x3dd0026b	0.10156711
92	0x3d898bdb	0.067161284
93	0xbc9b32c2	-0.018945102
94	0x3e876dd1	0.2645097
95	0xbdabc9d7	-0.08388107
96	0x3defcf35	0.117094435
97	0x3ec5fcf0	0.38669538
98	0xbe21ce1e	-0.15801284
99	0xbead31c6	-0.33827037
100	0xbe8b86ae	-0.2725119
101	0xbe9fa1e9	-0.31178215
102	0x3c306af5	0.010767688
103	0x3e841888	0.25799966
104	0x3cda6945	0.026661525
105	0xbde79107	-0.11306959
106	0xbe3b2d8a	-0.1827909
107	0xbe8afec3	-0.27147493
108	0x3e5f562e	0.21810219
109	0x3d556950	0.052102387
110	0xbdb4b577	-0.08823674
111	0xbd4787db	-0.048713546
112	0xbe0a0b46	-0.13480863
113	0x3ed4ab08	0.41536736
114	0xbe732890	-0.23745942
115	0xbd8c6b78	-0.068564355
116	0xbd161dd7	-0.03664955
117	0x3e0f8e86	0.14019212
118	0x3d871415	0.06595627
119	0xbe86142e	-0.2618727
120	0xbe9f5453	-0.31119022
121	0x3da26b1b	0.07930585
122	0x3dacafff	0.08432006
123	0x3e83e968	0.25764012
124	0xbc793080	-0.015209317
125	0x3e41b85d	0.18917985
126	0xbec85f68	-0.3913529
127	0x3ebbecba	0.36704046
128	0xbeab20e1	-0.33423522
129	0x3e49ee70	0.19719863
130	0x3e655400	0.22395325
131	0x3d587093	0.052841734
132	0x3c9a1ec0	0.01881349
133	0x3e7d4d09	0.24736418
134	0x3e9a4757	0.30132553
135	0xbeac4864	-0.3364898
136	0x3dfb0645	0.12257055
137	0x3cd1beb0	0.025603622
138	0x3eec22a6	0.46120185
139	0xbe71ab89	-0.23600592
140	0x3cf76933	0.03020153
141	0xbca31898	-0.019909188
142	0x3c0ed265	0.008717154
143	0x3da5ebbb	0.08101603
144	0xbe73741b	-0.2377476
145	0xbecc7511	-0.39933065
146	0x3dccee69	0.10006411
147	0x3cc4fc80	0.024046183
148	0xbe37041c	-0.17872661
149	0xbe697542	-0.22798637
150	0x3dc3cff0	0.09561145
151	0x3dd6af66	0.10482673
152	0xbd03583b	-0.032066565
153	0xbea7257e	-0.32645792
154	0xbe0fa74c	-0.14028662
155	0x3e00b5a4	0.1256929
156	0xbe572a53	-0.21012239
157	0x3c043e45	0.008071487
158	0xbcbe2782	-0.023212198
159	0xbd055793	-0.03255422
160	0xbd8879e3	-0.06663873
161	0xbea619e7	-0.32441637
162	0xbddde06e	-0.10833822
163	0x3df04cb4	0.1173338
164	0xbdf237e2	-0.11827065
165	0x3cf1ea2a	0.029530603
166	0x3dde6586	0.10859208
167	0xbdab98c9	-0.08378751
168	0xbca84bdb	-0.020543983
169	0x3dede34c	0.11615619
170	0xbe04be1b	-0.12963144
171	0xbe1e49e3	-0.15457873
172	0x3d9f8a7f	0.07790088
173	0x3e4a8a14	0.19779235
174	0x3d53d3ae	0.051715545
175	0xbe379986	-0.17929658
176	0xbda65488	-0.08121592
177	0x3d8017ae	0.062545165
178	0xbdd3794b	-0.10325869
179	0xbe6f7d43	-0.23387627
180	0xbe4f07b4	-0.20217782
181	0xbe25b6f1	-0.16183068
182	0x3dc9b77d	0.09849451
183	0xbda35871	-0.07975853
184	0xbe946f6b	-0.28991255
185	0x3e0f5a74	0.13999349
186	0xbef6b344	-0.48183644
187	0xbd968fc7	-0.07351642
188	0xbe108eae	-0.14116928
189	0x3e650b56	0.22367606
190	0xbd45c52d	-0.048283745
191	0xbdaec2ed	-0.08533273
192	0xbd431ef1	-0.04763693
193	0x3e85bea6	0.26122016
194	0xbc53725e	-0.012905685
195	0xbdde7fb6	-0.10864203
196	0xbda54adb	-0.08070918
197	0xbc7f2201	-0.015572072
198	0xbdc2550f	-0.0948888
199	0xbe8abcff	-0.27097318
200	0xbe33effd	-0.17572017
201	0xbb16e893	-0.0023026809
202	0x3e8440d1	0.258307
203	0xbea3dc1e	-0.32003874
204	0x3d97ae73	0.074063204
205	0x3e920911	0.28522542
206	0xbe9e7ffc	-0.3095702
207	0xbe475d23	-0.19469123
208	0x3e87f107	0.26551077
209	0xbdf15612	-0.11783995
210	0xbe8e259a	-0.27763063
211	0xbd8bb770	-0.06822097
212	0xbe873295	-0.2640578
213	0x3e3b18e3	0.18271212
214	0x3de185c7	0.11011844
215	0xbda55fd7	-0.080749206
216	0xbdf5bf18	-0.11999339
217	0x3e68e581	0.22743799
218	0xbdc6f084	-0.097138435
219	0xbd3632c7	-0.04448202
220	0x3da1017e	0.07861613
221	0x3d9e3efe	0.077268586
222	0xbe0ea0e8	-0.13928568
223	0xbdd3a49c	-0.10334131
224	0x3e3bea17	0.18351017
225	0xbda1ed06	-0.07906537
226	0x3ecf1335	0.4044434
227	0xbd0bd813	-0.03414161
228	0x3d9f7e6c	0.07787785
229	0x3e994803	0.29937753
230	0xbde6ebf7	-0.112754755
231	0x3e926f95	0.28600755
232	0x3e4ba4ea	0.19887128
233	0xbdb7d028	-0.089752495
234	0x3d22e8f3	0.03977294
235	0xbe1f8650	-0.1557858
236	0x3e3775a2	0.17915967
237	0xbe617c8f	-0.22020172
238	0x3d665078	0.056229085
239	0x3d492019	0.049102876
240	0xbc838841	-0.016056182
241	0xbe71c50e	-0.23610327
242	0x3d2014f1	0.03908247
243	0xbe1c442a	-0.15260378
244	0xbcbb8f88	-0.02289559
245	0xbb27b292	-0.0025588614
246	0xbe8e5b27	-0.2780392
247	0xbe4d2847	-0.20034896
248	0xbb5f4fd8	-0.003407469
249	0x3e203259	0.15644206
250	0x3deb6846	0.11494498
251	0x3d1036b9	0.035208438
252	0x3e489601	0.19588472
253	0x3d09fcf0	0.033688486
254	0x3e05e037	0.13073812
255	0xbe1b77b6	-0.15182385

actor_mean.2.bias f4 [64]
0	0x3dc17a80	0.09447193
1	0xbe084001	-0.13305666
2	0x3b35ea15	0.0027757932
3	0xbc7a1335	-0.015263368
4	0xbd2b466e	-0.041815214
5	0xbd9a9274	-0.07547465
6	0x3c03dafb	0.0080478145
7	0x3c6b224f	0.0143514415
8	0xbd02959d	-0.031880964
9	0x3d4cc755	0.049994785
10	0x3ab9b2a9	0.0014167625
11	0xbbcf3001	-0.006322861
12	0xbc223a43	-0.009901586
13	0x3d3cd886	0.04610493
14	0xbd87a895	-0.06623951
15	0xbdb172dc	-0.08664486
16	0x3e0890da	0.13336506
17	0xbc1124da	-0.008858884
18	0x3bd362c2	0.006450982
19	0x3c3512f6	0.011051884
20	0x3b1bb705	0.0023760211
21	0x3c9ea8b3	0.019367551
22	0x3c952847	0.018207682
23	0xbb95d1eb	-0.0045721433
24	0x3d558918	0.052132696
25	0xbab42b9c	-0.0013745907
26	0xbb021c1f	-0.0019853187
27	0xbdf38bb9	-0.11891884
28	0x3d8ff2f0	0.070287585
29	0x3d85f0c2	0.065400615
30	0xbcb0144a	-0.02149405
31	0x3d5ab065	0.05339088
32	0xbb9b948d	-0.0047479332
33	0x3999c4a7	0.00029328951
34	0x3d2895ef	0.041158613
35	0xbcc3e457	-0.023912592
36	0xbc8bbdaa	-0.017058212
37	0xbc25cc06	-0.010119444
38	0x3d1d709d	0.038437475
39	0x3b8961df	0.0041925753
40	0xbbcc29f1	-0.0062305857
41	0x3d1cdc22	0.038295873
42	0xbb3eb073	-0.002909687
43	0x3bafc497	0.0053640115
44	0xbbbb0989	-0.005707924
45	0x3d02122e	0.03175562
46	0x3cc4049f	0.023927985
47	0xbcf52710	-0.029925853
48	0x3d42c1fc	0.04754828
49	0xbc6e0ac0	-0.01452893
50	0x3b8d6c5e	0.004315897
51	0xbc7ea4b1	-0.015542195
52	0xbd3dfadf	-0.046381827
53	0x3ce05784	0.02738548
54	0x3db29b57	0.08721035
55	0xbcc5979f	-0.02412015
56	0xbd1c74d7	-0.038197365
57	0x3d93f729	0.072248764
58	0x3d2a2c27	0.041546013
59	0xbb20a243	-0.0024510778
60	0xbdbec018	-0.09313983
61	0x3d9a5daf	0.075374
62	0x3c3bbeb7	0.011459044
63	0x3a9e45ce	0.0012075247

actor_mean.4.weight f4 [2, 64]
0	0xbdabcc43	-0.08388569
1	0xbd99be5e	-0.07507013
2	0x3d8eb6e7	0.069684796
3	0xbd00f023	-0.031479012
4	0x3d100201	0.03515816
5	0xbd2573c8	-0.04039362
6	0xbd60c928	-0.054879338
7	0x3d5006d2	0.050787754
8	0xbd67c588	-0.056584865
9	0xbcee97ba	-0.029125083
10	0xbda2f986	-0.07957749
11	0x3d2584c4	0.04040982
12	0x3da281fe	0.0793495
13	0xbdc55c40	-0.09636736
14	0xbd88274e	-0.06648122
15	0xbd56215c	-0.052277908
16	0x3d9ad8c5	0.07560877
17	0x3c30b3a9	0.010785022
18	0x3e064ab8	0.1311444
19	0x3d20c0a5	0.03924622
20	0x3c9f36d1	0.019435318
21	0xbc328459	-0.010895812
22	0xbda63a70	-0.08116615
23	0x3cabf8a2	0.02099258
24	0x3d0cae09	0.03434566
25	0x3d7521fa	0.059846856
26	0x3db90da5	0.090358056
27	0x3d8c6702	0.06855585
28	0xbd7d4600	-0.061834335
29	0xbcd75021	-0.026283326
30	0x3cf00d36	0.029303174
31	0x3d471f4c	0.04861383
32	0x3d145e31	0.03622264
33	0x3da15de8	0.07879239
34	0xbce4eff7	-0.027946455
35	0x3dc568c4	0.09639123
36	0xbd50e44f	-0.050998982
37	0x3def1fb2	0.11675967
38	0x3a520d76	0.000801287
39	0x3d25a296	0.040438257
40	0xbd394c28	-0.045238644
41	0x3db914cd	0.090371706
42	0xbc9cf6e5	-0.019160697
43	0x3d4865ac	0.048925087
44	0xbcc65593	-0.024210727
45	0x3d38c933	0.045113754
46	0xbd7995f1	-0.06093401
47	0x3cebd46a	0.02878781
48	0x3c685b40	0.014181912
49	0x3c94d156	0.018166225
50	0xbd8260ba	-0.063661054
51	0x3c9bdb5c	0.019025497
52	0xbce815bb	-0.028330674
53	0xbd84e08d	-0.06488142
54	0x3d7014f6	0.05861374
55	0x3d0f4db0	0.034986198
56	0x3d670c28	0.056408077
57	0xbc145b17	-0.009054921
58	0xbd1eb7de	-0.03874957
59	0x3c405781	0.011739613
60	0xbcee77a3	-0.029109782
61	0x3cb59920	0.022167742
62	0xbd1cfa50	-0.038324654
63	0xbcce6d53	-0.025198614
64	0xbc3ebd83	-0.011641863
65	0xbb9ba39f	-0.0047497298
66	0x3db3018e	0.08740531
67	0x3d0a6478	0.03378722
68	0xbc4bf0fd	-0.012447593
69	0xbc061423	-0.008183512
70	0xbdccf4ba	-0.100076154
71	0x3d4a64f4	0.049412683
72	0xbda11f16	-0.07867257
73	0x3d376355	0.044772465
74	0x3c46dc21	0.012137444
75	0xbd2060de	-0.03915488
76	0x3d7f86b3	0.06238432
77	0x3c2cf020	0.010555297
78	0x3b77f834	0.003783715
79	0xbc699ea5	-0.014259015
80	0x3bd64607	0.0065391096
81	0xbbaaac87	-0.005208555
82	0x3d5dd49a	0.05415783
83	0x3c45ff9e	0.01208487
84	0xbe037277	-0.12836634
85	0x3d7f1757	0.062278118
86	0xbd8704ae	-0.065926895
87	0xbd92e0b6	-0.071717665
88	0x3bbd529f	0.0057776715
89	0xbc46cb90	-0.012133494
90	0x3c87838f	0.016542224
91	0x39fa4000	0.000477314
92	0xbc071737	-0.008245281
93	0xbcd03a48	-0.025418416
94	0xbcc32d71	-0.02382538
95	0xbc14f57c	-0.009091731
96	0x3d23c94a	0.039986886
97	0xbe12b702	-0.14327624
98	0xbda30928	-0.07960731
99	0x3c547785	0.012967949
100	0xbcd3c114	-0.025848903
101	0x3d89abb3	0.06722202
102	0xbd2cd111	-0.04219157
103	0xbcfdf5df	-0.03100103
104	0xbd0e673f	-0.034766432
105	0x3d4b699a	0.049661256
106	0x3d372bae	0.04471939
107	0x3d383743	0.044974577
108	0xbd56d466	-0.052448653
109	0xbd5e6a04	-0.054300323
110	0x3c22eb3f	0.009943782
111	0x3c188309	0.009308585
112	0xbc494084	-0.012283448
113	0x3db5dbd7	0.08879822
114	0x3da51993	0.080615185
115	0xbd8e6e2e	-0.06954609
116	0x3cb3ea44	0.021962292
117	0x3d42ce32	0.047559924
118	0xbae3a124	-0.0017366749
119	0xbd259e99	-0.040434454
120	0xbd069df0	-0.032865465
121	0xbd14da36	-0.036340915
122	0xbae8d464	-0.0017763493
123	0xbd435c08	-0.04769519
124	0x3d71a430	0.058994472
125	0xbc21d07f	-0.0098763695
126	0x3d3b1a5c	0.045679435
127	0x3d94860f	0.07252132

actor_mean.4.bias f4 [2]
0	0x3d23856b	0.03992216
1	0xbc04b4ff	-0.008099793
