jsbgym/models/train_saves/ppo_capsnosspa_ts5e-2_simple6030_turbwind_4_80936_08-01_22:28:11.pt (torch, 59393 bytes, 14 tensors)

actor_logstd f4 [1, 2]
0	0xbdd14c22	-0.10219599
1	0xbe10af4e	-0.14129373

conv.0.weight f4 [3, 1, 5, 1]
0	0x3e8722f9	0.2639387
1	0xbe839485	-0.2569925
2	0xbf8c7611	-1.0973531
3	0xbc84713b	-0.016167274
4	0xbe978462	-0.29593188
5	0x3e149bf2	0.14512613
6	0xbf3e724a	-0.7439314
7	0xbdefb659	-0.11704702
8	0x3f0b3f28	0.54393244
9	0x3f2c4082	0.6728593
10	0x3e8d4323	0.27590284
11	0x3f1801f2	0.5937797
12	0xbeea2c7a	-0.45737058
13	0x3ebc14c1	0.36734584
14	0x3d74a16a	0.05972425

conv.0.bias f4 [3]
0	0xbd8648ae	-0.06556831
1	0x3df851f8	0.12125009
2	0xbe103094	-0.14081031

critic.0.weight f4 [64, 36]
0	0x3d8beed2	0.06832661
1	0x3e15e086	0.1463643
2	0x3e427140	0.18988514
3	0xbbccf386	-0.006254616
4	0x3c988372	0.018617366
5	0xbe89e917	-0.26935646
6	0xbeb0bc70	-0.34518766
7	0x3d12232e	0.03567808
8	0x3dac36c9	0.08408887
9	0xbe3ba861	-0.1832595
10	0x3e77e946	0.2421008
11	0xbdb0e0bb	-0.08636614
12	0x3eb15312	0.3463369
13	0x3d9ecf4f	0.07754385
14	0x3ed63bb8	0.41842437
15	0xbe8be23b	-0.27321038
16	0x3c77fa88	0.015135415
17	0x3e2e2a47	0.17008315
18	0x3e56ac77	0.20964228
19	0xbd9ab9eb	-0.07554992
20	0x3dee5cfb	0.11638828
21	0x3e808945	0.25104728
22	0xbd261f75	-0.040557344
23	0x3ddb5949	0.10710389
24	0xbde48e90	-0.11160004
25	0x3e2e26cf	0.17006992
26	0x3e97dee4	0.2966224
27	0xbd2bb549	-0.041920934
28	0xbd0b8ab2	-0.034067817
29	0xbc4683ec	-0.012116414
30	0x3dbe340c	0.09287271
31	0xbda2300a	-0.07919319
32	0xbebce3ab	-0.36892447
33	0x3d51d7ee	0.051231317
34	0x3e0ffa70	0.14060378
35	0x3eb66546	0.3562414
36	0x3d514fdd	0.051101554
37	0x3e2e255c	0.17006439
38	0x3dfeb578	0.12436956
39	0x3e8659b3	0.2624031
40	0xbc517383	-0.012783888
41	0xbdb501b9	-0.08838219
42	0x3e3bc216	0.18335757
43	0xbdf7b82d	-0.120956756
44	0xbdcaf88b	-0.09910687
45	0xbe4c1cb2	-0.19932821
46	0x3c3df3c3	0.011593762
47	0x3e7e48ae	0.24832413
48	0x3f1873cd	0.595517
49	0xbe01fd4b	-0.1269428
50	0x3db941ba	0.090457395
51	0x3ea30a92	0.31844002
52	0xbe401b57	-0.1876043
53	0xbc8fde77	-0.017562134
54	0xbe786191	-0.24255969
55	0x3ed974b6	0.42471856
56	0x3d82b2e0	0.06381774
57	0x3daa658e	0.08320151
58	0xbd8e5316	-0.06949441
59	0xbcce5fc8	-0.025192156
60	0xbcac9ccd	-0.021070862
61	0xbe9a0ee0	-0.30089474
62	0x3e75672d	0.2396514
63	0xbdbedd7c	-0.093195885
64	0x3dc5cfb6	0.09658758
65	0x3e699306	0.22809991
66	0xbc62b0d1	-0.013836102
67	0xbe8f84e9	-0.2803109
68	0xbc8781c9	-0.016541379
69	0xbf03be0c	-0.51461864
70	0xbe3f7611	-0.18697383
71	0xbe0ceda3	-0.13762526
72	0x3de72b3f	0.112875454
73	0xbe212398	-0.15736234
74	0xbdc75bdf	-0.0973432
75	0x3e48986e	0.19589397
76	0xbdef40dd	-0.116822936
77	0xbd4d88d8	-0.050179332
78	0xbe7f0d5a	-0.24907437
79	0xbe43f203	-0.19135289
80	0xbe1ef188	-0.15521824
81	0xbe7ec3af	-0.24879335
82	0xbd21a9ea	-0.039468683
83	0x3e82957a	0.25504667
84	0xbed293da	-0.41128427
85	0xbb94cf6f	-0.0045413296
86	0x3e38bf00	0.1804161
87	0xbe37e0e6	-0.17956886
88	0xbdf86547	-0.12128692
89	0xbd0840d2	-0.033264942
90	0x3e8cdf88	0.2751429
91	0xbe4dfc66	-0.20115814
92	0x3e5bb11b	0.21454279
93	0xbe82fefc	-0.25585163
94	0x3d3f4796	0.04669913
95	0x3cee9719	0.029124783
96	0xbe23c0f8	-0.1599158
97	0xbe11156a	-0.14168325
98	0x3deb1a97	0.11479681
99	0x3c0f49b8	0.008745603
100	0xbe39b128	-0.18133986
101	0x3e84df95	0.2595183
102	0x3e4de378	0.20106304
103	0xbe994425	-0.29934803
104	0x3e383a9f	0.17991112
105	0xbe513207	-0.2042924
106	0xbd913348	-0.07089859
107	0x3c14564a	0.009053776
108	0xbd177153	-0.03697331
109	0x3eacfb74	0.33785594
110	0xbe7a4436	-0.24440083
111	0x3d6a2f65	0.057174105
112	0x3e2639bf	0.16232966
113	0x3e1e55af	0.15462373
114	0x3e8e8663	0.27836904
115	0x3d0352a8	0.03206125
116	0x3d6dc4de	0.058049075
117	0xbd93e298	-0.07220954
118	0xbe1af6b8	-0.15133178
119	0xbe507d10	-0.20360208
120	0x3e33f89c	0.17575306
121	0x3e403b9b	0.18772738
122	0xbe077b0f	-0.13230537
123	0xbd5bc830	-0.05365771
124	0x3e1075b4	0.141074
125	0xbde5d018	-0.11221331
126	0xbf279036	-0.65454423
127	0x3e4c5b93	0.19956808
128	0xbdf4721f	-0.11935829
129	0x3e13c848	0.1443187
130	0xbcb36a7d	-0.021901364
131	0xbdbbca4e	-0.09169446
132	0xbc0085ea	-0.007844428
133	0xbdbd5fb3	-0.09246769
134	0x3e22ffe5	0.15917929
135	0x3df7cf6d	0.1210011
136	0xbe016a7f	-0.12638281
137	0xbd67c66e	-0.05658572
138	0x3a81952b	0.0009886374
139	0x3bf023cb	0.0073284856
140	0xbef5eb86	-0.48031253
141	0xbdecb16f	-0.1155728
142	0xbe1bd862	-0.15219262
143	0x3c1815ca	0.009282539
144	0xbe419e6d	-0.18908091
145	0xbe018566	-0.12648544
146	0xbe2db0ab	-0.16961925
147	0x3d8aacce	0.06771241
148	0x3e4edf32	0.2020233
149	0x3e1707c2	0.14749053
150	0x3e662727	0.22475873
151	0xbf177d85	-0.591759
152	0xbe5b29c0	-0.21402645
153	0xbe4328c3	-0.19058518
154	0xbc162830	-0.009164855
155	0x3e129034	0.14312822
156	0x3dd8b768	0.10581857
157	0xbcc37b91	-0.023862632
158	0x3e456b1c	0.1927914
159	0xbe810c85	-0.25204864
160	0xbe1fc1ae	-0.15601227
161	0x3e1f0251	0.15528227
162	0xbcbcd2c5	-0.023049721
163	0x3f03f664	0.5154784
164	0x3d7e549b	0.062092405
165	0xbe65d211	-0.22443415
166	0xbe5e4bba	-0.21708575
167	0xbd5e06d1	-0.05420572
168	0x3c2ea8f5	0.0106604
169	0xbe0671cb	-0.13129346
170	0x3eb19f78	0.34691978
171	0xbddf11b4	-0.108920485
172	0x3e4fd418	0.20295751
173	0x3d8bd853	0.0682837
174	0xbda1ded5	-0.0790383
175	0x3f4108b1	0.7540389
176	0xbe44818f	-0.19190048
177	0xbe00dfd1	-0.12585379
178	0xbe518eae	-0.20464584
179	0x3d8e4ae8	0.06947881
180	0x3e9db4fe	0.3080215
181	0x3d80ffb1	0.06298769
182	0xbe6b7a4d	-0.22995873
183	0x3d5bbdf9	0.05364797
184	0x3b0d9ec9	0.0021609536
185	0x3e5704c2	0.20997909
186	0x3df31890	0.11869919
187	0x3ee3086e	0.4434237
188	0x3dc344e2	0.09534623
189	0xbe938612	-0.28813225
190	0xbc5f86f4	-0.013643015
191	0x3e2ea296	0.17054209
192	0xbe07e545	-0.13271053
193	0x3e1954a6	0.14973697
194	0xbea048d0	-0.31305552
195	0xbe2362a0	-0.15955591
196	0x3f04a225	0.5180991
197	0x3e940991	0.2891355
198	0xba6d0b0a	-0.00090424775
199	0xbeede034	-0.46460116
200	0x3e040d6e	0.12895748
201	0xbb89c1f8	-0.004204031
202	0xbda76350	-0.08173239
203	0x3d05477a	0.03253887
204	0x3ec6393a	0.38715535
205	0x3ecea076	0.40356797
206	0xbea1754f	-0.31534812
207	0x3d276952	0.040871926
208	0xbc7c4137	-0.015396408
209	0xbddf3f08	-0.10900694
210	0x3d980b2e	0.07424007
211	0xbcf23c50	-0.029569775
212	0x3dd9aa94	0.10628238
213	0x3e4153f3	0.1887968
214	0xbc5d4ffc	-0.013507839
215	0x3e484656	0.19558081
216	0x3cbb16c7	0.02283801
217	0x3cebcafc	0.028783314
218	0xbe43ab9a	-0.1910843
219	0xbde57cb0	-0.11205423
220	0x3e5ade64	0.21373898
221	0x3e3c99bb	0.18418019
222	0x3e0d97c8	0.13827431
223	0x3e7837fa	0.24240103
224	0x3c086da1	0.008326919
225	0xbdb4919c	-0.08816835
226	0x3d90bcf5	0.07067291
227	0xbdad36b1	-0.08457697
228	0x3c85a889	0.016315715
229	0xbeb7938a	-0.3585475
230	0x3e37ce7e	0.17949864
231	0xbe37940b	-0.17927568
232	0x3dc54bf1	0.09633625
233	0xbe3b8510	-0.18312478
234	0x3e8c3a7f	0.2738838
235	0x3e1848df	0.14871548
236	0xbf02c61a	-0.5108353
237	0x3dd54725	0.1041396
238	0xbcfafb2e	-0.03063735
239	0xbe0200d6	-0.12695631
240	0xbe2d2fcd	-0.16912766
241	0x3ccb36fc	0.024806492
242	0xbda60bf0	-0.08107746
243	0x3e02e269	0.12781681
244	0x3e1d1739	0.1534089
245	0xbb2ecc84	-0.0026672194
246	0x3d698aa5	0.057016987
247	0xbe49764b	-0.19674031
248	0xbdd2c3c9	-0.10291249
249	0xbe771e80	-0.24132729
250	0xbc0d07b6	-0.008607795
251	0x3e071810	0.13192773
252	0xbda51dfd	-0.080623604
253	0xbe6a8996	-0.22904047
254	0xbcaf3e30	-0.021391958
255	0xbd402c9d	-0.046917547

critic.0.bias f4 [64]
0	0x3db0e615	0.08637635
1	0x3db97c7f	0.09056949
2	0x3d207590	0.039174616
3	0x3d40e2bb	0.047091227
4	0x3d6885ec	0.056768343
5	0xbde443d5	-0.111457504
6	0x3c39d127	0.01134137
7	0xbd543ad4	-0.051813915
8	0x3c9f6bb4	0.019460537
9	0xbcf2af33	-0.029624557
10	0x3d42b29f	0.047533628
11	0x3c72c336	0.01481705
12	0xbd47e86c	-0.04880564
13	0x3bec4a05	0.0072109723
14	0x3c46d8c4	0.012136642
15	0x3bb65aa1	0.005565003
16	0x3e07df4f	0.13268779
17	0xbd9a5cda	-0.07537241
18	0x3d010be9	0.0315055
19	0x3dc03dcd	0.093867876
20	0x3d3615b2	0.044454284
21	0x3ca86968	0.020558074
22	0xbcf0e998	-0.029408261
23	0x3d70bf60	0.05877626
24	0x3c98a679	0.018634068
25	0xbcba7c7c	-0.022764437
26	0x3d07a864	0.033119574
27	0xbd88f748	-0.0668779
28	0x3da52a6a	0.080647305
29	0xbe628653	-0.22121553
30	0x3b63fce5	0.0034788188
31	0xbc007a08	-0.0078415945
32	0x3ce7b6e1	0.028285446
33	0x3e0733ec	0.132034
34	0x3bfc02b2	0.007690751
35	0xbd91cf02	-0.07119562
36	0xbd186693	-0.037207197
37	0xbceffdfc	-0.029295914
38	0x3d0a4223	0.03375448
39	0xbd1e90db	-0.038712364
40	0x3d8b7b46	0.06810622
41	0xbd125644	-0.0357268
42	0x3d8eecfb	0.06978794
43	0xbc324cc5	-0.010882561
44	0x3d0dd7cc	0.034629628
45	0x3d395ce9	0.04525462
46	0x3c0853ea	0.008320788
47	0xbe07e94c	-0.1327259
48	0x3d510e2a	0.0510389
49	0xbd0b63f3	-0.034030866
50	0xbd3b489a	-0.045723535
51	0xbd9d3f70	-0.07678115
52	0xbdd3f0a8	-0.10348636
53	0x3c8c1ffe	0.017105099
54	0xbbd748c0	-0.006569952
55	0xbd658717	-0.056037035
56	0x3c3b5890	0.011434689
57	0xbbbb8104	-0.005722167
58	0x3dbf1b4b	0.093313776
59	0x3d1cd39b	0.03828774
60	0xbc87ef91	-0.016593726
61	0xbde2776c	-0.11057934
62	0x3c963b1a	0.018338729
63	0xbe282165	-0.16418989

critic.2.weight f4 [64, 64]
0	0x3e882879	0.26593378
1	0x3ee90e8f	0.4551892
2	0x3d62e7c8	0.055396825
3	0xbd576099	-0.052582357
4	0xbd9653bc	-0.0734019
5	0x3bdd07b0	0.006745301
6	0x3db63e0e	0.08898555
7	0x3d5d935c	0.05409561
8	0x3cfe7b37	0.031064613
9	0xbe7c4c26	-0.24638423
10	0xbe2cd7b7	-0.16879164
11	0x3e34a101	0.17639543
12	0x3ddbe0f1	0.107362635
13	0x3eb59a10	0.35469103
14	0xbe4a0e0f	-0.19731925
15	0xbda8bae2	-0.0823877
16	0x3e2bb10a	0.16766754
17	0x3e411e2a	0.18859163
18	0x3dcc940e	0.09989177
19	0xbda73bb8	-0.08165687
20	0x3e2ba71a	0.16762963
21	0x3c09f025	0.008419071
22	0xbe1e24eb	-0.1544377
23	0x3d5aed0b	0.053448718
24	0xbd371f90	-0.044707835
25	0x3ebfc9c3	0.3745862
26	0x3e37f527	0.17964612
27	0x3e6d7aa8	0.23191321
28	0xbe9fa134	-0.31177676
29	0x3cfc112d	0.030769909
30	0x3c5fba07	0.013655192
31	0x3d40f8ea	0.047112383
32	0xbe12abdf	-0.14323376
33	0xbcf5d9c4	-0.030011065
34	0xbe91b14d	-0.28455582
35	0x3e2f5374	0.17121679
36	0x3cbd0bfa	0.023077
37	0x3e8d5c42	0.2760945
38	0xbe939243	-0.28822526
39	0x3d1f87f5	0.038948018
40	0xbc3d158c	-0.011540782
41	0x3da09078	0.07840055
42	0x3c36b9ce	0.011152698
43	0xbe8fb0e0	-0.28064632
44	0xbcf081ce	-0.02935877
45	0x3d16e6eb	0.036841314
46	0xbe95d0b6	-0.29260796
47	0xbca33acb	-0.019925496
48	0xbcc67558	-0.024225876
49	0xbdaefca6	-0.085442826
50	0xbd38bf3d	-0.045104254
51	0xbd2e4ecd	-0.04255562
52	0x3d8f27b8	0.069899976
53	0xbbd9ea05	-0.0066502118
54	0x3dd37b47	0.10326248
55	0x3e096428	0.13417113
56	0xbe747cbb	-0.23875706
57	0xbe079bcf	-0.1324303
58	0x3dd0e0ea	0.10199149
59	0x3d86925d	0.06570885
60	0x3ec34aad	0.3814291
61	0x3da858c1	0.082200535
62	0xbed469cd	-0.4148697
63	0x3e6ae6ac	0.22939557
64	0x3e247752	0.16061142
65	0x3dc62b1b	0.096761905
66	0x3ddc6643	0.107616924
67	0xbe5059d0	-0.20346761
68	0x3e81287c	0.252262
69	0xbe1f6866	-0.15567169
70	0xbc117b24	-0.008879457
71	0xbc0c8f52	-0.008579092
72	0x3ce69bc0	0.02815044
73	0x3e83852e	0.25687546
74	0x3de3c8e0	0.11122298
75	0xbbbf2b1e	-0.0058339974
76	0x3cb66626	0.022265505
77	0xbe4691ad	-0.19391508
78	0x3d2f371d	0.04277717
79	0xbe3b19f9	-0.18271627
80	0xbd19dfd3	-0.03756697
81	0xbcab9d57	-0.020949049
82	0x3d85a026	0.065246865
83	0xbd2a9554	-0.041646317
84	0x3c08b086	0.008342868
85	0xbe488c74	-0.19584829
86	0x3e6a8fb0	0.22906375
87	0xbd2fef54	-0.04295285
88	0xbedb10fd	-0.427864
89	0xbd1f9773	-0.038962793
90	0xbda5c825	-0.08094815
91	0x3e48b7ef	0.19601415
92	0xbc4e39e1	-0.012587042
93	0x3e6dbb77	0.23216043
94	0x3dc2ff33	0.09521332
95	0xbdb81296	-0.0898792
96	0xbe2108bd	-0.1572599
97	0xbc3f70b0	-0.011684582
98	0x3e1d21c6	0.15344915
99	0x3ef0da2e	0.47041458
100	0x3e574bc9	0.21025003
101	0x3d44460c	0.047918364
102	0xbe1ac092	-0.15112522
103	0x3e899f31	0.26879266
104	0x3e6f0717	0.23342548
105	0x3c9ca237	0.019120319
106	0xbe447be4	-0.19187886
107	0x3d9ff28d	0.07809935
108	0x3e4958f8	0.19662845
109	0x3d3f85e9	0.046758566
110	0x3cf893ca	0.030343909
111	0xbe7d52d8	-0.24738634
112	0xbca4abc9	-0.020101445
113	0x3edfdb9a	0.4372223
114	0x3db93d60	0.090449095
115	0x3dbe4263	0.09290006
116	0xbe15d63d	-0.14632507
117	0x3dd2a18a	0.102847174
118	0x3e081088	0.13287556
119	0x3cbb6b38	0.022878274
120	0x3e1ec042	0.15503028
121	0x3ebc5cec	0.36789644
122	0x3eaf5cbd	0.3425044
123	0xbdcd7602	-0.10032274
124	0xbdb8323e	-0.08993958
125	0xbe82ea38	-0.2556932
126	0xbda2f727	-0.07957297
127	0x3e2bb56d	0.16768427
128	0x3c8d4c18	0.017248198
129	0xbe5c4290	-0.21509767
130	0x3c93d37d	0.018045181
131	0xbd9391da	-0.07205553
132	0xbdd06c50	-0.10176909
133	0x3ed122f6	0.40846986
134	0xbd8cb270	-0.06869972
135	0x3e47b5a4	0.19502884
136	0xbf026e41	-0.50949484
137	0x3d88dbaf	0.06682526
138	0x3e45dd05	0.19322594
139	0xbd406915	-0.046975214
140	0x3dbf4112	0.09338583
141	0x3dd80346	0.10547499
142	0xbd84a171	-0.06476105
143	0x3de48d06	0.111597106
144	0xbec4304b	-0.38318095
145	0x3e242703	0.16030507
146	0xbd93562e	-0.07194172
147	0x3e0314f3	0.1280096
148	0x3e02e90a	0.1278421
149	0x3efef2d2	0.49794632
150	0x3eeebe8e	0.46629757
151	0x3ddda268	0.10821992
152	0xbea23fa0	-0.31689167
153	0x3e520a9d	0.20511861
154	0x3e4acf3f	0.1980562
155	0xbe375f66	-0.17907485
156	0xbd96782b	-0.07347139
157	0xbdb73286	-0.089451835
158	0x3eb78e6d	0.3585085
159	0x3e79b4ca	0.24385372
160	0xbe74cb7c	-0.23905748
161	0xbe1c0ec8	-0.15240014
162	0x3e3d091e	0.18460509
163	0xbe36506a	-0.17804113
164	0x3db6ca0c	0.08925256
165	0xbe36f298	-0.1786598
166	0xbe11df54	-0.14245349
167	0xbb0eb756	-0.0021776757
168	0xbed5447a	-0.41653806
169	0xbef340e4	-0.47510445
170	0xbda3ad4d	-0.07992039
171	0x3d1574e2	0.03648842
172	0xbe1df647	-0.15425979
173	0xbe0ed2fb	-0.1394767
174	0xbe10bbbc	-0.14134115
175	0xbe91c4be	-0.28470415
176	0x3e772c20	0.24137926
177	0x3e01546b	0.12629859
178	0x3cb5553b	0.022135368
179	0x3e014171	0.1262262
180	0x3da2ed64	0.07955435
181	0xbd54f15a	-0.051987983
182	0x3d985446	0.07437949
183	0xbde6c5eb	-0.112682186
184	0xbdeab4e5	-0.11460284
185	0x3d909d34	0.07061234
186	0xbeb11e1a	-0.34593278
187	0xbcbc0eb4	-0.02295623
188	0xbeb123d1	-0.34597638
189	0x3e40969a	0.1880745
190	0xbe9fb1aa	-0.31190234
191	0x3e9164aa	0.28397113
192	0xbec17e37	-0.37791607
193	0x3e51ec87	0.20500384
194	0xbea333ce	-0.3187546
195	0x3dac6797	0.08418196
196	0xbd00952b	-0.031392258
197	0x3c381d57	0.011237464
198	0x3c5e8a75	0.013582815
199	0x3d5ce7b8	0.05393192
200	0xbe484174	-0.19556218
201	0xbe5a39c8	-0.21311104
202	0xbd21dc90	-0.039516985
203	0xbd305c82	-0.043056972
204	0x3d9289ba	0.071551755
205	0xbd4a99fa	-0.04946325
206	0xbd7bfe01	-0.061521534
207	0xbe5f12dd	-0.2178454
208	0x3ee93926	0.45551413
209	0xbcbcaff6	-0.023033123
210	0xbdc5be04	-0.09655383
211	0x3dc243a7	0.0948556
212	0x3e18e558	0.14931238
213	0xbdf1139f	-0.117713206
214	0xbdda66b1	-0.10664118
215	0x3dee77ff	0.11643981
216	0x3e260377	0.16212259
217	0xbd91b756	-0.07115047
218	0x3d03c0da	0.03216634
219	0x3dd4a0b8	0.10382217
220	0xbe4cc39c	-0.19996494
221	0xbe4108c2	-0.18850997
222	0xbdeec707	-0.11659055
223	0xbd65bda8	-0.056089073
224	0x3d57db8b	0.052699607
225	0x3e38e042	0.18054298
226	0x3bad2462	0.005283878
227	0xbda13e6f	-0.078732364
228	0x3ee06333	0.43825683
229	0x3ea152ec	0.31508577
230	0x3cc9254b	0.024553915
231	0x3da9dcb2	0.082940474
232	0xbe325bba	-0.17417803
233	0x3e145133	0.144841
234	0x3dd0df7a	0.10198875
235	0x3d090d15	0.03345974
236	0xbe3cb5ba	-0.18428698
237	0x3ea64aa9	0.32478836
238	0x3e1cf341	0.15327169
239	0xbe955ab6	-0.2917077
240	0x3d1ff0c6	0.03904798
241	0x3e84462b	0.25834784
242	0xbdb9d255	-0.09073321
243	0x3ccf37be	0.025295135
244	0xbeaed20f	-0.34144637
245	0x3cf0a027	0.029373242
246	0xbe794fb9	-0.24346818
247	0x3e3f3939	0.18674172
248	0x3da04a92	0.07826723
249	0xbe526a8e	-0.2054846
250	0x3e9d8747	0.3076727
251	0x3e29b8df	0.16574429
252	0xbe7babdc	-0.24577278
253	0x3d9351ff	0.07193374
254	0xbd7f775f	-0.0623697
255	0xbe52e5c6	-0.20595464

critic.2.bias f4 [64]
0	0xbc296da5	-0.010341083
1	0xbd8271c1	-0.06369353
2	0x3b33c074	0.0027427943
3	0xbcac09f3	-0.021000838
4	0x3d377fa7	0.044799473
5	0xbc54b8e8	-0.012983538
6	0xbd4f6271	-0.05063099
7	0xbd0c6b70	-0.034282148
8	0xbcf12636	-0.029437166
9	0x3cc96739	0.024585353
10	0x3db579ed	0.08861146
11	0x3d97454d	0.07386265
12	0xbda73350	-0.08164084
13	0xbd0eb7db	-0.034843307
14	0xbd24505e	-0.040115707
15	0xbd78b64f	-0.060720738
16	0xbdf50474	-0.1196374
17	0xbd23d9ec	-0.04000275
18	0x3cf71930	0.030163378
19	0xbd1cc3a0	-0.0382725
20	0xbcc6c268	-0.024262622
21	0xbd1342ff	-0.035952564
22	0x3dc6bdff	0.09704208
23	0xbd850c6c	-0.0649651
24	0x3d3125d2	0.04324896
25	0xbd93522e	-0.07193409
26	0xbb8e4aca	-0.0043424116
27	0xbcb1d054	-0.021705784
28	0xbdb02f34	-0.08602753
29	0x3d1f9f09	0.038970027
30	0xbd567cd6	-0.052365147
31	0x3d2204d0	0.03955537
32	0x3dae839a	0.08521195
33	0xbd52f82b	-0.051506203
34	0xbbf5f3b1	-0.007505857
35	0xbdeb7bb5	-0.114982046
36	0xbd8c2f6a	-0.06844981
37	0x3d2ccef9	0.042189572
38	0xbd7c6ee6	-0.0616292
39	0xbd9553fb	-0.07291409
40	0x3cb19623	0.021678036
41	0xbd3fbcff	-0.0468111
42	0x3d9f6c85	0.0778437
43	0x3cca5699	0.024699496
44	0x3c14410a	0.00904871
45	0x3c31e7dd	0.010858503
46	0xbd2026eb	-0.039099615
47	0x3d88c631	0.06678427
48	0x3dc59b5b	0.09648772
49	0xbd7e0a20	-0.062021375
50	0x3cfa5961	0.030560197
51	0xbca649b7	-0.020298822
52	0xbbdfbc4d	-0.006827867
53	0xbd0416af	-0.032248195
54	0x3d351a3e	0.04421448
55	0xbd9b2c3a	-0.07576795
56	0x3cb3d179	0.02195047
57	0xbbd03bfe	-0.006354808
58	0x3d336598	0.04379806
59	0x3cf82c57	0.03029458
60	0x3dc400bb	0.09570452
61	0x3c49ba71	0.0123125175
62	0x3d16497d	0.036691178
63	0x3d40cd32	0.04707069

critic.4.weight f4 [1, 64]
0	0xbbb9f812	-0.0056753242
1	0x3e333c6a	0.17503515
2	0xbea0fe97	-0.31444237
3	0x3d74eee9	0.059798155
4	0xbd8493f7	-0.064735346
5	0xbd7cd098	-0.061722368
6	0x3e361da3	0.17784743
7	0x3d3e6686	0.046484493
8	0x3df217e9	0.11820967
9	0xbdd2b092	-0.10287584
10	0xbd9e3771	-0.07725418
11	0xbdba9110	-0.091097
12	0x3e37fbc0	0.17967129
13	0x3e4fc4ae	0.20289871
14	0x3e337013	0.17523222
15	0x3de1d316	0.110265896
16	0x3dc8f6c9	0.098126955
17	0x3e562f3a	0.20916453
18	0xbdb1afd3	-0.08676114
19	0xbbc5a360	-0.0060314387
20	0x3e9bfea5	0.30467716
21	0x3d5ce6cc	0.053931043
22	0xbed1db59	-0.4098766
23	0x3df7e278	0.12103742
24	0xbcea0a03	-0.028569227
25	0x3d9d5ed2	0.07684101
26	0x3de4fa77	0.11180585
27	0x3da7b178	0.08188146
28	0x3d86accc	0.06575927
29	0xbe2f63d7	-0.1712793
30	0x3d9989a0	0.07496953
31	0xbe05cced	-0.13066454
32	0xbe5101a1	-0.20410778
33	0x3eadb328	0.33925748
34	0x3e05ac94	0.13054115
35	0x3e4f4aed	0.20243426
36	0x3e3c526b	0.18390815
37	0xbd90e9b1	-0.07075823
38	0x3e45aad6	0.1930345
39	0x3d5a8cde	0.053356998
40	0xbd1a49ca	-0.037668027
41	0xbc2c9225	-0.01053289
42	0xbe068a30	-0.13138652
43	0xbd72c03c	-0.05926536
44	0x3ca62af6	0.020284157
45	0xbe26eb22	-0.16300634
46	0x3d83bd09	0.0643254
47	0xbe1c9839	-0.15292443
48	0xbe952ddf	-0.2913656
49	0x3c4e64bb	0.012597258
50	0xbe056277	-0.13025843
51	0xbe0c1871	-0.13681199
52	0x3c07d38a	0.008290181
53	0x3dc9962e	0.098430976
54	0xbdb3c8a0	-0.087785006
55	0x3d6c8296	0.057741724
56	0xbe15898a	-0.14603248
57	0xbe9cb925	-0.30610004
58	0xbdfd5642	-0.12369968
59	0xbdfbc61e	-0.12293647
60	0xbe18b3ba	-0.1491231
61	0xbe2e98a6	-0.17050418
62	0xbdbdc335	-0.092657484
63	0xbe223db9	-0.15843858

actor_mean.0.weight f4 [64, 36]
0	0xbe87bc6c	-0.26510942
1	0x3d6b7437	0.057483878
2	0xbe6b2890	-0.22964692
3	0xbd21e2ae	-0.03952282
4	0x3ec8d672	0.3922611
5	0xbe53e9e9	-0.20694698
6	0x3ca1fd01	0.019773962
7	0x3dcd9014	0.10037246
8	0x3e3d4652	0.18483856
9	0x3e86c874	0.2632481
10	0xbe13ca48	-0.14432633
11	0xbda276f2	-0.07932843
12	0xbe4d75d8	-0.20064485
13	0xbc86906b	-0.016426286
14	0x3e76ca58	0.24100626
15	0xbcb03222	-0.02150828
16	0x3e1577be	0.1459646
17	0x3e0a6fb2	0.13519171
18	0xbc94b606	-0.018153202
19	0xbd0dc219	-0.034608934
20	0x3e8ba352	0.2727304
21	0x3e0d98e2	0.13827851
22	0x3d08126a	0.033220686
23	0x3e468402	0.19386294
24	0xba431ca6	-0.00074429286
25	0x3d10bbd3	0.035335373
26	0x3e2585e2	0.16164353
27	0xbde29bf9	-0.11064906
28	0x3e9014d7	0.281409
29	0xbdd183c5	-0.10230211
30	0x3e738f6b	0.23785178
31	0xbe86963d	-0.26286498
32	0x3db1b34b	0.086767755
33	0xbe292fca	-0.16522136
34	0xbcddb552	-0.027064
35	0x3e0d6905	0.13809593
36	0xbd5b6445	-0.05356242
37	0x3cae2a94	0.021260537
38	0xbe744e60	-0.23858023
39	0x3e6708d0	0.22561955
40	0x3d102d8c	0.035199687
41	0xbdf5f128	-0.120088875
42	0xbde107b8	-0.109878
43	0x3ea9bba6	0.33150977
44	0xbe4fd53f	-0.2029619
45	0x3e3da0a9	0.18518318
46	0x3dc0f473	0.09421625
47	0x3d31f32b	0.043444794
48	0x3e079085	0.13238724
49	0xbe236126	-0.15955028
50	0x3c9b177d	0.018932099
51	0xbd8fc0e6	-0.07019214
52	0xbd951983	-0.072802566
53	0x3da760c0	0.081727505
54	0x3e0e994a	0.13925663
55	0xbce70234	-0.028199293
56	0x3d36fcef	0.04467481
57	0x3dd5e4ba	0.10444017
58	0x3e055269	0.13019718
59	0x3da4e12f	0.08050763
60	0x3e970e75	0.29503217
61	0x3d18e8fa	0.03733156
62	0x3d72951c	0.059224233
63	0xbe1cdbb8	-0.15318191
64	0x3e982d6f	0.29722163
65	0x3e2901b6	0.16504559
66	0x3e26c4ec	0.16286057
67	0xbe4ce745	-0.20010097
68	0xbe899731	-0.26873162
69	0x3e27b87d	0.1637897
70	0xbe1ca9e9	-0.1529919
71	0x3d99adda	0.07503863
72	0x3de059f8	0.1095466
73	0xbe42fce9	-0.1904179
74	0x3dd5af12	0.10433783
75	0xbb055088	-0.002034219
76	0x3e1dd0ec	0.15411729
77	0x3e261ffd	0.1622314
78	0xbf16d360	-0.5891628
79	0x3e8e07e3	0.27740392
80	0xbdb404c3	-0.08789971
81	0x3d7a50cd	0.061112214
82	0xbcda2b2a	-0.02663191
83	0xbcf38a47	-0.029729022
84	0xbe215d8f	-0.15758346
85	0x3ce38895	0.027775088
86	0x3e2d4ab3	0.16923027
87	0xbd84c25f	-0.06482386
88	0xbd5f8481	-0.054569725
89	0xbca6bca0	-0.020353615
90	0xbdb0f80c	-0.08641061
91	0xbf0941a3	-0.5361578
92	0xbe40867e	-0.18801305
93	0x3d8c2840	0.068436146
94	0x3cbfcbe6	0.023412656
95	0xbd368894	-0.044563845
96	0x3e8eb06a	0.27868968
97	0x3c944a0c	0.018101715
98	0xbb8a735b	-0.004225177
99	0xbd2a7f38	-0.04162523
100	0xbd83c3f4	-0.064338595
101	0x3d0af201	0.0339222
102	0x3ec52865	0.3850738
103	0xbead4a9d	-0.33845988
104	0x3d547d82	0.051877506
105	0xbc6f12a9	-0.014591851
106	0xbda5d3a0	-0.08097005
107	0xbe087011	-0.13324
108	0xbe4f3f29	-0.20238937
109	0x3e5d7a81	0.21628763
110	0xbdc5e681	-0.09663106
111	0xbe4e8317	-0.20167194
112	0xbda162ef	-0.07880198
113	0x3e0658ca	0.13119808
114	0x3e42882d	0.1899726
115	0x3edaec5f	0.42758462
116	0x3db7dfad	0.0897821
117	0x3cc10c74	0.023565508
118	0xbd9e2291	-0.07721437
119	0x3c802ffb	0.015647879
120	0x3e4d1bd4	0.20030147
121	0x3d2f40c6	0.042786382
122	0x3e22fa78	0.15915859
123	0xbe98ff8e	-0.29882473
124	0xb955ce19	-0.0002039004
125	0xbd89530e	-0.067052945
126	0x3e3347bf	0.17507838
127	0xbe24b767	-0.16085587
128	0xbe17eca0	-0.14836359
129	0x3e3e7d27	0.1860243
130	0x3c436e2a	0.011928121
131	0xbd674bfc	-0.05646895
132	0xbe1382cf	-0.14405368
133	0xbea5cc0f	-0.32382247
134	0x3e75b968	0.23996508
135	0x3eb7fe32	0.35936123
136	0x3cf10b95	0.029424468
137	0xbe8d62e4	-0.2761451
138	0xbc7523cb	-0.014962147
139	0xbef9b903	-0.48773965
140	0xbe66cccb	-0.2253906
141	0xbcfe591f	-0.031048356
142	0x3cc21caf	0.023695318
143	0x3c71c352	0.014756041
144	0x3e9f5c51	0.3112512
145	0x3e954795	0.29156175
146	0x3d7d07b9	0.061774943
147	0x3ea828d6	0.32843655
148	0xbdebd5e1	-0.115154035
149	0xbd832bb2	-0.064048186
150	0xbd98a1fd	-0.07452772
151	0x3ecb500a	0.39709502
152	0x3cddfb6d	0.027097428
153	0xbd8cde9b	-0.06878396
154	0xbde7b0dc	-0.1131303
155	0x3d679efe	0.05654811
156	0xbeed6fd9	-0.46374395
157	0x3cb0cbfc	0.021581642
158	0xbd8d85fd	-0.06910322
159	0x3e1895aa	0.14900842
160	0xbd42b69f	-0.047537442
161	0xbe09d3e2	-0.13459733
162	0xbe4317fc	-0.19052118
163	0xbe98017e	-0.29688638
164	0x3e0696ca	0.13143459
165	0x3dbf6b47	0.093466334
166	0x3e1e0dc2	0.15434936
167	0x3dba3091	0.090912946
168	0x3d22e6bf	0.039770838
169	0x3e480471	0.19532944
170	0x3c7c18e2	0.015386792
171	0x3dde401b	0.10852071
172	0x3d0bfd20	0.034176946
173	0x3e10e071	0.14148118
174	0x3e6e10ac	0.23248547
175	0xbeaf5643	-0.342455
176	0x3d8457ae	0.06462036
177	0xbe1fc1dd	-0.15601297
178	0x3dc90ef9	0.09817309
179	0xbd270343	-0.040774595
180	0xba5c33b8	-0.00084000407
181	0x3d4636c5	0.048392076
182	0x3e66c56d	0.2253625
183	0xbe8fb21b	-0.2806557
184	0x3db7ad91	0.08968652
185	0xbd0d5728	-0.034506947
186	0x3e019d84	0.12657744
187	0xbe2587ff	-0.1616516
188	0x3e464055	0.19360478
189	0xbe68b66e	-0.22725841
190	0x3e101d19	0.140736
191	0x3e19e283	0.15027814
192	0xbe5f7042	-0.21820167
193	0xbeb735c2	-0.357832
194	0xbc603b9c	-0.013686087
195	0xb887ff70	-6.4848806e-05
196	0xbae67936	-0.0017583731
197	0x3dc66308	0.096868575
198	0x3d56aa7c	0.05240868
199	0xbc84003d	-0.016113395
200	0x3e77f3a4	0.24214035
201	0x3e1e3509	0.15449919
202	0x3e15a686	0.14614305
203	0xbd8df5e5	-0.06931666
204	0x3e878afe	0.2647323
205	0x3de1e339	0.110296674
206	0xbd9b8f62	-0.075957075
207	0xbca72687	-0.020404113
208	0x3e0bfc16	0.13670382
209	0x3e3a90c2	0.18219283
210	0xbe095f96	-0.1341537
211	0x3e9b8f5f	0.3038282
212	0xbe4cc4a4	-0.19996887
213	0x3ecfe30b	0.40602908
214	0xbc17a8da	-0.009256566
215	0x3d842cc5	0.064538516
216	0xbd94140d	-0.07230387
217	0xbd91b788	-0.07115084
218	0x3d40221a	0.04690752
219	0xbdccd285	-0.10001091
220	0x3ddbd0a0	0.107331514
221	0x3e24c3ab	0.16090266
222	0xbd639260	-0.055559516
223	0xbf4ab370	-0.7918005
224	0xbdcb591e	-0.09929107
225	0x3e9bb33c	0.30410182
226	0xbe0ef5f5	-0.13961013
227	0xbb83b2d5	-0.004019121
228	0x3e26e2bf	0.16297434
229	0xbe164baa	-0.14677301
230	0xbe71671e	-0.23574492
231	0xbd6e9fe7	-0.058257964
232	0x3e15457e	0.1457729
233	0x3d3da796	0.0463024
234	0x3e53b9d2	0.20676354
235	0xbdbb3305	-0.091405906
236	0xbcd62c96	-0.026144307
237	0x3e9b8b3e	0.3037967
238	0xbc84fab1	-0.01623282
239	0x3dc51e2e	0.09624897
240	0x3e0d8169	0.13818897
241	0xbcf4e752	-0.029895458
242	0x3e204fe1	0.15655471
243	0x3d147f6b	0.036254328
244	0xbe08d286	-0.13361558
245	0x3e8651c5	0.2623426
246	0xbe03e7e6	-0.12881431
247	0x3e76275f	0.24038456
248	0xbea434f9	-0.32071665
249	0xbd895ecb	-0.067075334
250	0x3e8e0e5b	0.27745327
251	0x3d091853	0.033470463
252	0xbd4eb91a	-0.050469495
253	0x3c98334a	0.018579144
254	0xbe2b5cdc	-0.16734642
255	0x3e2eb411	0.17060877

actor_mean.0.bias f4 [64]
0	0x3d725436	0.05916234
1	0x3d884577	0.06653874
2	0xbcfb0a3b	-0.030644527
3	0x3d4969ad	0.049173046
4	0xbd287369	-0.04112569
5	0xbdbe0fb0	-0.09280336
6	0x3d2644b1	0.040592853
7	0xbd9e1022	-0.07717921
8	0xbdb54e09	-0.08852775
9	0xbd836b9d	-0.0641701
10	0x3d9059f7	0.070484094
11	0x3d574d17	0.052563753
12	0xbc3a30a8	-0.01136414
13	0x3d54261d	0.05179416
14	0x3d5444eb	0.051823538
15	0xbc83aa08	-0.016072288
16	0xbd4f3204	-0.050584808
17	0xbbfef78c	-0.0077809747
18	0x3d72fad2	0.059321232
19	0x3a3ea0c3	0.000727188
20	0xbdf9628c	-0.121769994
21	0xbda5d1fb	-0.08096691
22	0xbd0528d3	-0.032509636
23	0x3d4f6d8c	0.05064158
24	0x3ca4d7ff	0.020122526
25	0x3d6edadd	0.058314193
26	0xbdd8cd1f	-0.10585999
27	0xbdb1a0ae	-0.08673225
28	0xbd44eb6c	-0.04807608
29	0xbda09166	-0.078402326
30	0xbc511d7d	-0.012763378
31	0x3b773d22	0.0037725647
32	0x3d7e83a4	0.06213726
33	0x3c99d07e	0.018776175
34	0x3c4bab89	0.012431034
35	0xbcaaaee2	-0.020835344
36	0xbdc4e540	-0.096140385
37	0xbdfe36d9	-0.12412805
38	0x3e09313b	0.13397686
39	0xbd429a28	-0.047510296
40	0x3d1acf93	0.037795614
41	0xbd645302	-0.055743225
42	0x3c96d8e8	0.018413976
43	0x3d5c03de	0.053714626
44	0xbda6a8ae	-0.08137642
45	0x3cd4dc92	0.025984082
46	0x3c82f65d	0.015986616
47	0xbddb6c2c	-0.107139915
48	0x3d7f7e5c	0.062376365
49	0xbb839022	-0.0040149847
50	0xbe0aaf9a	-0.13543549
51	0xbd9896ed	-0.07450662
52	0xbe1d2c0d	-0.15348835
53	0xbd955640	-0.072918415
54	0xbb2be891	-0.002623115
55	0x3d867f33	0.0656723
56	0xbd904c6f	-0.070458286
57	0xbc3887a9	-0.011262813
58	0x3cf213be	0.02955043
59	0x3d43f6b2	0.04784269
60	0x3db6db64	0.08928564
61	0x3d16a74d	0.036780644
62	0xbd507a04	-0.050897613
63	0xbcd23f88	-0.02566506

actor_mean.2.weight f4 [64, 64]
0	0xbe612a79	-0.21988858
1	0x3d0fd10f	0.035111483
2	0xbdbef86d	-0.09324727
3	0xbdb16f91	-0.08663858
4	0xbd2ef2da	-0.04271207
5	0xbd454338	-0.048159808
6	0xbd18a77d	-0.037269104
7	0x3aa32758	0.0012447638
8	0x3def0f74	0.11672869
9	0x3daf3ab3	0.08556118
10	0xbe3e99af	-0.18613313
11	0x3e00453a	0.12526408
12	0x3e4a7720	0.19772005
13	0xbe9160d8	-0.28394198
14	0xbd6ba14f	-0.057526883
15	0x3e04ad7a	0.12956801
16	0xbda176ff	-0.07884025
17	0x3c5a846f	0.013337239
18	0xbe247d11	-0.16063334
19	0xbde25454	-0.110512406
20	0xbdbef9e8	-0.093250096
21	0xbdb17cca	-0.0866638
22	0xbdae1320	-0.084997416
23	0xbd9e7b9b	-0.077384196
24	0x3f2a58aa	0.6654154
25	0xbdb0fa24	-0.086414605
26	0xbe8de712	-0.27715355
27	0x3d559ea8	0.05215326
28	0x3dbe24c6	0.09284358
29	0x3b184140	0.0023232251
30	0x3db5946e	0.08866201
31	0x3e26d871	0.16293503
32	0x3e5700c5	0.20996387
33	0x3e00adf5	0.1256636
34	0xbd7560e4	-0.059906855
35	0xbe7950af	-0.24347185
36	0xbd0f4afe	-0.034983627
37	0x3e45c33b	0.19312756
38	0xbe3d8b6e	-0.1851022
39	0xbe53458b	-0.20631997
40	0xbe701e59	-0.23449077
41	0x3e9e407a	0.30908567
42	0xbd0a94cc	-0.03383331
43	0x3e419212	0.18903378
44	0xbd4011f1	-0.04689211
45	0x3e132814	0.14370757
46	0x3dc18d8e	0.094508275
47	0xbd364718	-0.044501394
48	0x3e7a2024	0.24426323
49	0x3ca0bf64	0.019622512
50	0x3d984b1e	0.074362025
51	0xbe450598	-0.19240415
52	0xbe22e3c5	-0.159072
53	0xbd39940f	-0.045307215
54	0xbe76d76e	-0.24105617
55	0xbe2bdc55	-0.16783269
56	0xbe999e25	-0.30003467
57	0x3dc6ba91	0.097035535
58	0x3eb7c6db	0.35893902
59	0xbe22df85	-0.15905578
60	0xbe017557	-0.12642418
61	0x39f58633	0.00046830028
62	0x3dc7b38e	0.09751044
63	0x3e74595f	0.23862217
64	0xbdacfc5a	-0.0844657
65	0xbeb5f5a4	-0.3553897
66	0xbdee35a5	-0.11631326
67	0xbe7180b5	-0.23584254
68	0xbe7da31a	-0.2476925
69	0x3c6334aa	0.013867537
70	0x3e0d5523	0.13802008
71	0x3e2baa7a	0.1676425
72	0x3e1659a9	0.1468264
73	0x3d7c8f8e	0.061660342
74	0x3d43defb	0.047820073
75	0x3dee7734	0.1164383
76	0x3d376081	0.044769768
77	0xbec06b5b	-0.37581906
78	0x3d055abb	0.03255723
79	0x3d959361	0.07303501
80	0xbcdffc5e	-0.027342018
81	0x3e2dc408	0.16969311
82	0x3e00a6a2	0.12563565
83	0x3dfc8c9f	0.12331509
84	0x3e45e2bb	0.19324772
85	0xbd55a20d	-0.052156497
86	0xbd030bc7	-0.031993654
87	0xbdb04db4	-0.08608571
88	0xbebea35b	-0.37234005
89	0x3e2b7e4a	0.16747394
90	0x3e8e44ab	0.27786765
91	0x3e045e09	0.12926497
92	0x3c0084ab	0.0078441305
93	0x3e6fe8b3	0.23428611
94	0x3e6cc5ea	0.23122373
95	0x3ee24264	0.44191277
96	0xbd30e7e9	-0.043189917
97	0x3e334149	0.17505373
98	0xbe080328	-0.13282454
99	0x3cec2665	0.028826902
100	0xbe2a526f	-0.16633008
101	0xbbb9cdaa	-0.005670269
102	0x3e4bde30	0.19908977
103	0x3dd22ee0	0.10262847
104	0xbcfe9eb7	-0.03108154
105	0x3dcc25d3	0.09968152
106	0xbd9795ae	-0.07401596
107	0x3e6e129f	0.23249291
108	0xbd2f24d2	-0.042759724
109	0x3e679edf	0.22619198
110	0xbd91a416	-0.07111375
111	0x3e645d73	0.22301273
112	0x3e482a46	0.19547376
113	0xbe989ec4	-0.2980863
114	0x3cfca3f3	0.030839896
115	0xbdf012fc	-0.11722371
116	0x3e1bf555	0.15230305
117	0x3bdd5f93	0.006755778
118	0x3e0463cb	0.12928693
119	0x3e9142e7	0.28371355
120	0x3e08e2e0	0.13367796
121	0xbdb55fae	-0.0885614
122	0xbe1f399f	-0.15549324
123	0xbf0327ae	-0.5123242
124	0xbc9c9f5f	-0.019118963
125	0x3d5d7485	0.0540662
126	0x3e58ea06	0.21183023
127	0xbee8305f	-0.45349404
128	0x3bef39df	0.0073006
129	0x3e779d77	0.24181162
130	0x3da33463	0.07968976
131	0xbed21343	-0.4103032
132	0xbdc9e40c	-0.098579496
133	0xbe53f84c	-0.20700186
134	0x3ebf93a0	0.37417316
135	0x3e233889	0.15939535
136	0xbd5a269a	-0.05325947
137	0x3da11f30	0.07867277
138	0xbd605a82	-0.054773815
139	0x3deebdca	0.11657293
140	0x3da6fd60	0.08153796
141	0xbe23b8d6	-0.15988478
142	0x3bc2f2c4	0.00594935
143	0xbe20119a	-0.15631714
144	0x3e02f169	0.12787403
145	0x3e2aec68	0.16691744
146	0x3f16ae01	0.5885926
147	0x3cd34ef1	0.025794478
148	0x3e7ee2b0	0.24891162
149	0x3e1aac2a	0.15104738
150	0x3e19c694	0.15017158
151	0x3e627bb5	0.22117503
152	0xbda608ad	-0.081071235
153	0x3d920d41	0.07131434
154	0xbe1c1eb0	-0.15246081
155	0xbe590b08	-0.21195614
156	0xbe41eb88	-0.18937504
157	0xbe79e699	-0.24404372
158	0xbe54aec3	-0.20769791
159	0xbda02207	-0.0781899
160	0x3eb5a07d	0.35474005
161	0x3dbdb5a7	0.09263163
162	0x3e31a633	0.17348556
163	0x3e4b5999	0.19858398
164	0x3e70494f	0.23465465
165	0xbee51db5	-0.44749227
166	0xbe915035	-0.28381506
167	0x3d966ff3	0.07345571
168	0xbdb7e0be	-0.08978413
169	0xbdbc6c25	-0.092003144
170	0x3d7ff7e2	0.06249226
171	0x3d85fece	0.06542741
172	0xbd3301d3	-0.04370291
173	0x3e0f71df	0.14008282
174	0x3e877db8	0.26463103
175	0xbe86d2a4	-0.2633258
176	0x3d9a4e23	0.07534435
177	0xbe8015c2	-0.250166
178	0xbd57ab6a	-0.052653708
179	0xbda75958	-0.08171338
180	0x3e167b98	0.14695585
181	0xbe132353	-0.14368944
182	0x3e1a5d24	0.15074593
183	0x3e0f3180	0.13983727
184	0x3e39136f	0.1807382
185	0x3e1e95a0	0.15486765
186	0xbe31a47e	-0.17347905
187	0x3d1853fb	0.037189465
188	0xbe92345a	-0.28555566
189	0x3dae1e79	0.08501906
190	0x3e80f7e7	0.25189134
191	0xbd89bf72	-0.067259684
192	0x3e0423f1	0.12904336
193	0x3e973022	0.2952891
194	0x3e09f3c3	0.13471894
195	0xbd074cbe	-0.03303217
196	0xbe1ba4e7	-0.15199624
197	0xbe8f5e24	-0.2800151
198	0x3d4248ec	0.047432825
199	0xbe1f773e	-0.15572831
200	0xbe5c1b37	-0.21494757
201	0x3d3da274	0.046297505
202	0x3e9eef00	0.31041718
203	0x3cd1e92b	0.025623878
204	0xbe30a7c5	-0.17251499
205	0xbdf2d146	-0.11856322
206	0x3efcdbe2	0.49386507
207	0xbe4f1120	-0.20221376
208	0xbe0be162	-0.13660195
209	0x3dec1c0c	0.11528787
210	0xbec1dbf7	-0.37863132
211	0xbdb11a7c	-0.086476296
212	0xbea32dbd	-0.31870833
213	0xbdc07021	-0.09396387
214	0xbe9df00f	-0.30847213
215	0xbcf9a19a	-0.030472565
216	0xbe6f5ef0	-0.2337606
217	0x3ebbc2cb	0.36672053
218	0x3c8e89e0	0.017399728
219	0xbdc7db95	-0.09758679
220	0x3e850383	0.25979242
221	0xbd46a182	-0.04849387
222	0xbe9828b4	-0.29718554
223	0x3e3924e4	0.18080479
224	0x3d9baa3a	0.076008275
225	0x3e56b08b	0.20965783
226	0x3e3da274	0.18519002
227	0xbe9dafc6	-0.30798167
228	0xbead0838	-0.33795333
229	0xbe001384	-0.12507445
230	0x3e90149c	0.28140724
231	0xbe641bdc	-0.22276253
232	0x3e0297d3	0.12753229
233	0xbe34902a	-0.17633119
234	0xbea951d8	-0.33070254
235	0x3e4b0d0b	0.19829194
236	0xbe4d9073	-0.20074634
237	0xbe346e71	-0.17620255
238	0x3e2da665	0.16958006
239	0xbdfc8a9c	-0.12331125
240	0x3d361da2	0.044461854
241	0xbcda1d1e	-0.026625212
242	0xbd14c433	-0.036319923
243	0xbdd1e78b	-0.102492414
244	0xbd9bb1f3	-0.076023005
245	0xbe33c2e4	-0.17554814
246	0x3d407ef2	0.046996064
247	0xbe87d9f0	-0.2653346
248	0x3db6aeda	0.08920069
249	0xbc39324b	-0.011303495
250	0xbb4d746d	-0.0031349913
251	0xbcfa7c6d	-0.030576909
252	0xbe28e876	-0.16494927
253	0xbe20d704	-0.15707022
254	0x3d41acf5	0.047284085
255	0x3d9f4fba	0.077788785

actor_mean.2.bias f4 [64]
0	0xbcf3f42b	-0.029779514
1	0xbd65b6b1	-0.05608243
2	0x3d4bee8f	0.049788054
3	0x3da9b98e	0.08287345
4	0x3c46d6ba	0.012136156
5	0xbd1c1c76	-0.03811308
6	0x3d22b096	0.039719187
7	0xbdb9c7ac	-0.090712875
8	0xbc29b385	-0.010357742
9	0x3d7d56d3	0.06185038
10	0x3cadbc71	0.02120802
11	0x3d4f9aad	0.05068462
12	0x3c8c88bf	0.01715505
13	0x3cccc278	0.024995074
14	0xbd079346	-0.033099435
15	0xbd3bc99a	-0.04584656
16	0x3ced20f3	0.028946375
17	0x3d1c9765	0.03823032
18	0xbd9cca9b	-0.076558314
19	0x3c9ea35d	0.019365007
20	0xbd78159a	-0.060567476
21	0x3d94c4b2	0.07264079
22	0xbd5a64bb	-0.05331872
23	0x3d0b7a5c	0.034052238
24	0x3d9dce4b	0.07705363
25	0xbc227690	-0.009915963
26	0xbd0f8aea	-0.03504459
27	0xbd283644	-0.041067377
28	0x3cadd89f	0.021221457
29	0xbc41ba54	-0.011824209
30	0x3d06f73f	0.032950636
31	0x3d09af15	0.033614237
32	0xbc92cb51	-0.017919214
33	0xbd266bee	-0.040630274
34	0x3d773988	0.0603576
35	0xbc2ebffe	-0.010665892
36	0x3d2abe13	0.041685175
37	0x3bc3f104	0.005979659
38	0x3dc4725e	0.09592126
39	0x3c256231	0.010094211
40	0x3c0cded6	0.00859805
41	0xbde275f9	-0.11057658
42	0xbbf3819c	-0.007431222
43	0xbd6604cc	-0.05615692
44	0xbd376749	-0.044776235
45	0x3c5de37f	0.013543009
46	0xbcfa92f0	-0.030587643
47	0xbd80a816	-0.0628206
48	0x3d065967	0.032800104
49	0xbc1497fe	-0.009069441
50	0xbd07fedb	-0.033202033
51	0xbd9a4ec3	-0.07534554
52	0xbd11d44a	-0.035602845
53	0xbd612a99	-0.054972265
54	0xbd088897	-0.033333387
55	0xbb9c980b	-0.004778867
56	0x3d8099a6	0.06279306
57	0x3c3a6f8e	0.011379136
58	0xba8a573a	-0.001055456
59	0xbd29fd36	-0.041501246
60	0x3c8a7b85	0.016904602
61	0x3ce23257	0.027611895
62	0x3cfb2ec8	0.030661955
63	0xbd674fa7	-0.056472447

actor_mean.4.weight f4 [2, 64]
0	0xbcfdeb8c	-0.030996107
1	0xbcfc3148	-0.030785218
2	0x3de482f1	0.111577876
3	0xbd0296f1	-0.03188223
4	0x3c7930bf	0.015209376
5	0xbc625f70	-0.013816699
6	0xbb766fc3	-0.0037603236
7	0x3d9509df	0.072772734
8	0xbca4d1f4	-0.020119645
9	0x3bd4439b	0.0064777858
10	0xbc964408	-0.018342987
11	0xbc55a8dd	-0.013040748
12	0xbd7a0f73	-0.06104989
13	0x3c221cab	0.00989453
14	0xbd7cfa36	-0.061762057
15	0x3d1373a7	0.035998967
16	0xbc9d696b	-0.019215306
17	0x3d248ed8	0.04017529
18	0x3d03193b	0.032006484
19	0x3d8aebe5	0.067832746
20	0xbd208e17	-0.039198007
21	0xbcb892c3	-0.022530919
22	0x3c93c5c6	0.018038642
23	0xbd6ad559	-0.05733237
24	0xbd34b844	-0.044121042
25	0xbc3ce836	-0.011529973
26	0x3d226e95	0.03965624
27	0xbd3665f0	-0.04453081
28	0x3da19d23	0.078912996
29	0x3d75ba20	0.059991956
30	0x3d77661e	0.06040012
31	0xbc6e7ba0	-0.014555842
32	0x3c8118c6	0.015758883
33	0xbb8d7f5b	-0.0043181605
34	0xbcb5ee5d	-0.022208387
35	0xbb1676ae	-0.0022958922
36	0x3db530dc	0.0884721
37	0xbd83a799	-0.06428451
38	0xbd97f1f4	-0.07419196
39	0x3d3967a3	0.04526485
40	0x3d646c2e	0.05576723
41	0xbc9227ec	-0.017841302
42	0xbd15ce69	-0.0365738
43	0x3cd15704	0.025554188
44	0xbcfe56b2	-0.031047199
45	0xbc81148e	-0.015756872
46	0xbd184eb4	-0.037184432
47	0xbd2de184	-0.042451397
48	0xbd799f34	-0.060942844
49	0xb957bc92	-0.00020574246
50	0xba88613b	-0.0010404954
51	0xbd66dc83	-0.05636264
52	0xbd0d4fbb	-0.034499865
53	0xbd504b63	-0.050853144
54	0x3dd7eb33	0.105429076
55	0x3c78ee6d	0.015193564
56	0x3cf8e6e7	0.03038354
57	0xbd218e20	-0.03944218
58	0x3cfac2da	0.03061049
59	0x3d574a4a	0.052561082
60	0xbc4ebab0	-0.012617752
61	0xbb4a1999	-0.0030838011
62	0x3d2d1a88	0.04226163
63	0xbd4f2646	-0.05057361
64	0x3d3490e1	0.04408348
65	0xbd077988	-0.033074886
66	0xbd2f2d70	-0.042767942
67	0x3d4b9e8e	0.049711756
68	0xbba898ff	-0.0051451917
69	0x3ceb4346	0.028718602
70	0x3d4c3f2a	0.049864925
71	0x3bed8bd6	0.0072493358
72	0xbd82d954	-0.06389108
73	0x3dd43fec	0.10363755
74	0x3c32b524	0.010907445
75	0xbbf9eeae	-0.00762733
76	0x3d8f12cf	0.06986009
77	0x3e090144	0.13379389
78	0x3d0c8537	0.03430673
79	0x3dc81626	0.097698495
80	0xbcd50108	-0.026001468
81	0xbd13d6bc	-0.03609346
82	0x3c6fd658	0.014638506
83	0xbd33d901	-0.043908123
84	0xbd9752cb	-0.073888384
85	0x3cbba791	0.02290705
86	0xbd7f00f5	-0.062256772
87	0xbcb1c7f7	-0.021701796
88	0x3d174228	0.036928326
89	0x3d3f249e	0.04666578
90	0x3cd4b6b6	0.02596603
91	0xbc8a091d	-0.016850049
92	0xbbde6f10	-0.006788142
93	0x3d8b2779	0.06794638
94	0x3b980d1c	0.0046402346
95	0x3d9a92b1	0.075475104
96	0x3da85477	0.082192354
97	0xbd604819	-0.054756258
98	0x3d18a3ea	0.037265696
99	0x3d6de4bc	0.058079466
100	0x3adb005d	0.0016708482
101	0xbca046a8	-0.019564942
102	0x3d30f203	0.04319955
103	0x3b26c257	0.0025445425
104	0xbd7cc617	-0.06171235
105	0x3b752db0	0.0037411265
106	0x3d546c19	0.051860902
107	0xbc82525a	-0.015908409
108	0xbd2a9c56	-0.041653
109	0xbd89d849	-0.06730706
110	0xbd277955	-0.040887196
111	0xbbdfab7b	-0.006825862
112	0xbd1e52e7	-0.03865328
113	0xbb3f374e	-0.0029177251
114	0x3d55c9f4	0.05219455
115	0x3ce202f7	0.027589304
116	0xbd20f5e5	-0.039297003
117	0xbd535415	-0.05159386
118	0xbcca2156	-0.024674099
119	0x3d7f0faf	0.062270816
120	0x3d78940e	0.06068807
121	0x3d037af0	0.032099664
122	0xbc6482b9	-0.013947182
123	0x3de883a0	0.113532305
124	0x3d6393fc	0.05556105
125	0x3d0b4a26	0.03400626
126	0x3c9fdf39	0.01951562
127	0xbb69a33b	-0.0035650271

actor_mean.4.bias f4 [2]
0	0x3c184c48	0.009295531
1	0x3d138ad5	0.036021072
