jsbgym/models/train_saves/ppo_ts3e-2_disturb_betacuri_tsteps2e6_1_63229_20-01_20:17:30.pt (torch, 62269 bytes, 14 tensors)

actor_logstd f4 [1, 2]
000000 59 e7 41 bc f4 12 84 bd
       -0.011834943 -0.064489275

conv.0.weight f4 [3, 1, 5, 1]
000000 91 8b 1e 3f e7 0a 9a be c7 bd f9 3e bf 40 86 3e
       0.6193171 -0.30086443 0.487776 0.26221272
000010 13 fd c3 be ff 17 fb 3e c1 89 33 3f 77 c0 64 3e
       -0.38279018 0.49041745 0.7013207 0.22339045
000020 61 26 c1 3e 5b 3b 13 3f b2 0e 04 3f bb 3b 5f 3d
       0.37724593 0.57512444 0.51584923 0.054500323
000030 45 12 de be d1 65 07 bf cf d1 19 bf
       -0.43373314 -0.52889735 -0.6008577

conv.0.bias f4 [3]
000000 bc 47 34 bd 66 65 9c bd 28 2a 79 3d
       -0.044013724 -0.07636528 0.06083122

critic.0.weight f4 [64, 42]
000000 c6 33 b2 bd b4 5a 8d 3d f4 6e 11 be a1 8a 1a bd
       -0.08701281 0.06902066 -0.14202482 -0.037729863
000010 3a 73 cc bc 78 57 d2 bc c2 48 73 3c 94 f8 44 3d
       -0.024957288 -0.025676474 0.01484889 0.048088625
000020 25 fa 46 3e ef c8 ad 3c df 9b f7 3d a4 a4 92 bd
       0.1943136 0.021213977 0.12090277 -0.07160309
000030 ea 76 7c bd 49 50 67 3d 0e 3d bf 3e 2b 5d a5 3e
       -0.061636843 0.05647305 0.3735127 0.32297644
000040 c1 4f 1a 3e 5c 93 8d 3d 31 55 29 3e 0e 9c 33 be
       0.15069486 0.06912872 0.16536404 -0.17539999
000050 3b d6 49 bd bc 7c 50 3e f7 37 00 bd bc 27 00 be
       -0.04927657 0.20360082 -0.031303372 -0.12515157
000060 a3 ec c9 ba b3 08 f6 3c 13 d1 cd be 08 71 18 bc
       -0.0015405606 0.030033445 -0.40198573 -0.0093042925
000070 4d 8c 81 3d 8c 1e c6 3e cd 34 ee 3c fd 43 1a bd
       0.063255884 0.3869518 0.029077912 -0.037662495
000080 2b 11 1a 3e 9e f3 86 3b 8a 81 83 3e 39 6f ce be
       0.15045612 0.004118397 0.25684768 -0.4031923
000090 b2 a7 6c bd 44 ca 7a be 4f 36 3a be d6 80 e8 3d
       -0.057777114 -0.2449122 -0.1818478 0.113526985
0000a0 cd 63 10 3f 7a 34 fa bc 5d c0 16 be 39 4d ac bd
       0.56402284 -0.0305426 -0.14721818 -0.084131666
0000b0 09 c9 ee bd 93 6b ef 3d 67 9e ca bc 39 34 03 3e
       -0.11659438 0.1169044 -0.024733735 0.1281289
0000c0 37 e2 06 be a7 a6 4c be 50 c5 89 bd 9a 58 be bc
       -0.13172232 -0.19985448 -0.067270875 -0.023235608
0000d0 e1 ef 11 be e3 63 7e be d4 c2 58 bc f5 6d b8 bc
       -0.14251663 -0.24842791 -0.013230044 -0.02251337
0000e0 87 0a 29 3e dd 91 2c be 00 1b 9a bd fe 1f b6 3d
       0.16507922 -0.16852517 -0.07524681 0.08892821
0000f0 92 20 05 be ef 30 72 bd 61 b9 d3 3d ba c6 8d bd
       -0.13000706 -0.059128698 0.103380926 -0.0692267
000100 23 ca b7 be 27 57 11 bd 67 e8 2d be 91 6a f4 bc
       -0.35896406 -0.035483506 -0.16983186 -0.029835971
000110 b0 01 a4 bc d6 be 18 3e 5a 12 7d be ef ac 46 bd
       -0.020020336 0.14916548 -0.24714032 -0.048504766
000120 2d d6 04 be 7b cc 17 be d9 ca 6c 3b 6c 0f aa bd
       -0.12972327 -0.14824097 0.0036131649 -0.08303723
000130 04 b1 92 3e 01 6d 07 3f 52 4f 61 3d a1 60 4a 3e
       0.28650677 0.529007 0.055007286 0.19763424
000140 8f 4d f5 bc 7c 10 ac 3d ff 4b e6 3d 69 c1 a0 be
       -0.02994421 0.08401582 0.11244964 -0.3139756
000150 5b 09 37 be 2e 1f c7 3c 3b e0 09 3f 0e 1a 0c 3e
       -0.17874663 0.02430686 0.53857774 0.13681814
000160 5c 86 5a be 76 51 de 3e b2 92 05 be 4b a4 a4 3b
       -0.21340317 0.43421525 -0.13044241 0.005024468
000170 af 26 1a 3e 7c ae 8e 3d d2 cc 1e 3e a9 b6 85 3e
       0.15053819 0.06966874 0.1550782 0.2611592
000180 5f e0 96 be 6f 05 b6 3e 3d 13 b3 bc 53 bc 21 be
       -0.29468057 0.3555102 -0.02185976 -0.15794496
000190 c5 e8 5f 3e b9 68 29 3d f4 cf 4f 3d 1f e8 2d be
       0.21866138 0.041359637 0.05073543 -0.16983078
0001a0 0a c6 6f be 33 e7 aa bd 7c 5e 5c be b3 80 2b bd
       -0.2341539 -0.08344879 -0.21520418 -0.041870784
0001b0 d2 a2 80 bd 4a ae bc 3d 36 33 ce 3e 4b 16 0b 3f
       -0.062810555 0.092129305 0.40273446 0.5433089
0001c0 2b 3a 83 3e 9c 65 ad 3e 62 8b b5 bc 05 4b 59 be
       0.25630316 0.33866584 -0.02216119 -0.21220024
0001d0 a6 dd f1 bd 4f 77 8b be f6 87 e6 3e ab 61 79 be
       -0.11809854 -0.27239463 0.45025605 -0.24353664
0001e0 9e a5 54 be 09 7e a7 3e af 38 ba 3d a5 0e f4 bd
       -0.20766303 0.32713345 0.09092843 -0.11916856
0001f0 b8 da a1 be 9b 1a 60 be bd ec eb bd 5d 00 65 3c
       -0.31612182 -0.21885149 -0.115197636 0.013977137
000200 90 b7 e3 bc c5 5d a4 3e d5 3a 88 be f3 9e 91 3e
       -0.02779749 0.3210279 -0.26607385 0.2844158
000210 bd 86 f8 3d f5 92 f6 3d 5c f9 8b 3d d6 88 fe 3d
       0.12135074 0.120397486 0.06834671 0.12428443
000220 a2 e5 c7 3d 2b a1 95 3d cc 65 3c 3e e0 84 93 be
       0.09760596 0.07306131 0.18398207 -0.28812313
000230 6e 3e 08 3f f7 26 85 b7 9b 98 21 3e 7c da 19 be
       0.5322026 -1.587298e-05 0.1578087 -0.15024751
000240 f3 bf 4c 3e 8c 9b d1 bd 5b 7f 3b be cc 68 98 be
       0.19995098 -0.10234746 -0.18310301 -0.29767454
000250 55 ca 61 3c d7 6b 6e 3e 22 bb 13 be 8f f6 a9 3d
       0.01378115 0.23283325 -0.14426854 0.082989804
000260 aa c6 82 3e c4 eb a9 3d 2c 2c 14 bc 84 11 3d be
       0.25542194 0.08296922 -0.0090437345 -0.18463713
000270 cd 42 7d bd 63 2f da bc 54 c1 09 3e 7f 29 e9 3d
       -0.061831284 -0.026633924 0.13452655 0.11384868
000280 5e 2f b0 3e 91 93 04 be 03 8b 61 be 17 69 bb bd
       0.34411138 -0.12946917 -0.22025685 -0.09150904
000290 d7 74 01 be 0e d5 45 bd 17 6c df be 82 b9 8c be
       -0.12642227 -0.048298888 -0.43637154 -0.2748528
0002a0 04 41 91 be 5c a0 88 bd 6e 8a 36 3c 51 7a 11 3e
       -0.28369915 -0.06671211 0.011141403 0.14206816
0002b0 2d 1a 3c 3e 2a 2f a6 3d 8b 58 b8 be 82 ac 6a be
       0.1836936 0.081144646 -0.36005053 -0.22917369
0002c0 84 95 28 be ac d0 01 be 53 25 39 3d 4a 9a 0e 3e
       -0.16463286 -0.12677258 0.04520161 0.13926044
0002d0 2e d1 2a 3c aa 4f 26 3c 87 71 01 be f9 7a 00 3d
       0.010425849 0.010150829 -0.12640963 0.031367276
0002e0 c7 a5 0f bc 77 f7 85 bc 5b e6 11 be 90 4a ab 3d
       -0.008767552 -0.016353352 -0.1424803 0.08363831
0002f0 9a 2d 7a bc 95 c6 69 3e 41 79 0f be 96 d0 2a 3e
       -0.015269661 0.2282966 -0.14011098 0.16681132
000300 e1 26 ec 3d a2 f5 17 be bb d9 cc bc 2a 87 83 3e
       0.11530853 -0.14839795 -0.025006166 0.2568906
000310 22 42 a1 3e a5 5f a7 3e 43 c4 8b be b6 87 3c 3e
       0.31495768 0.32690158 -0.27298173 0.18411145
000320 d0 fb 4d 3e 3d 39 81 3c 50 0c 49 3e 8e e5 92 3e
       0.2011559 0.015774364 0.19633603 0.2869076
000330 f8 b8 fa bd f1 80 d7 3d 0d 67 8f 3d 73 a2 4c 3a
       -0.12242311 0.105226405 0.07002077 0.0007806189
000340 ce eb b9 bc b6 a7 94 3d 41 25 3f 3e 17 89 15 be
       -0.022695448 0.07258551 0.18666555 -0.14603077
000350 aa 9c b8 bd ab 00 2f 3e cf ab 0f 3d c1 e9 93 3e
       -0.09014256 0.17090099 0.03507596 0.28889278
000360 97 bf cb bb f7 c7 76 bd 37 53 68 be 48 94 83 3e
       -0.0062179076 -0.060249295 -0.22687994 0.25699067
000370 61 2a 38 be 99 9c e3 3d a9 4c 57 3e d0 68 94 be
       -0.17984916 0.11113853 0.21025337 -0.28986216
000380 76 f4 8e 3e 05 e8 a9 bd 2f 6c c5 3d ac ea 11 3e
       0.27920884 -0.08296207 0.09639775 0.14249676
000390 71 10 5a bd 24 29 ef bd 09 e1 2e 3e 64 e2 34 be
       -0.053238336 -0.11677769 0.17078032 -0.17664486
0003a0 57 56 ba 3c da 55 d0 3d ab 90 89 3b 3a 08 b8 be
       0.022746248 0.10172625 0.004198154 -0.35943776
0003b0 ce 90 cf be ca 59 22 3e 08 79 98 bc f1 99 e5 3d
       -0.40540165 0.15854564 -0.0186124 0.112110026
0003c0 d4 91 27 3c e3 63 c9 bd 60 ea 16 3e 80 a9 58 3e
       0.010227639 -0.09833505 0.14737844 0.21158409
0003d0 24 21 4a be b2 ab 25 be 88 18 9b bd 4d b5 ee bc
       -0.19739205 -0.16178778 -0.07573038 -0.029139185
0003e0 3e e0 96 3d 5c 4b 26 be 5a 1c 10 3e ff ae 3c 3f
       0.073669896 -0.16239685 0.14073315 0.7370452
0003f0 12 b9 05 3e e2 27 9e be e1 e3 11 3e ed d8 ad be
       0.1305888 -0.30889803 0.14247085 -0.33954564

critic.0.bias f4 [64]
000000 08 0d 08 bc b7 5e 5c bd cd c2 f7 3d 51 16 f9 3c
       -0.008303888 -0.053801265 0.12097702 0.03040615
000010 04 e2 2c 3d a9 5b b9 bc 55 18 ad 3d 3e 21 4c 3e
       0.042207733 -0.022626715 0.084519066 0.19934556
000020 ef a5 d9 3c 8e a9 3d 3a 39 22 ff 3a aa 15 7a bb
       0.026568381 0.00072350434 0.0019465155 -0.0038159885
000030 5e 8d 7c bc 25 df 89 3d a8 c4 55 bc 39 b5 b0 36
       -0.015414564 0.067320146 -0.013047375 5.266306e-06
000040 ad 66 04 3d 5d 39 82 3e d3 de 14 bd c2 31 bb 3b
       0.03232448 0.2543439 -0.036345314 0.0057127187
000050 9c 2d 00 bc 04 f7 06 bc 49 06 0d 3d 31 df eb bd
       -0.007823374 -0.008237604 0.034429822 -0.1151718
000060 53 3d a5 bd 5a 9d ef bc 60 25 ff 3c 0d ad 0b bd
       -0.08068337 -0.029249836 0.031145751 -0.03410058
000070 1f 88 05 3e 75 ae fa bb 81 f5 ba bd 0e ad b2 bd
       0.13040207 -0.0076501914 -0.091288574 -0.08724414
000080 0f 76 50 3d db 84 8a 3d 8a 43 d2 3d a0 ee 49 be
       0.05089384 0.067636214 0.10266788 -0.19719934
000090 f8 5d 9a bd f7 c5 d9 3b 23 9e f6 3c 43 41 e7 bc
       -0.07537454 0.0066459137 0.030104702 -0.028229361
0000a0 7d 6b 8f 3d 10 6a 20 3d d7 46 af 3b 81 2f 88 bd
       0.07002924 0.03916365 0.005349021 -0.06649686
0000b0 36 75 07 bd b0 b4 dc 3d e0 b1 4d 3d 4b 1c a9 bd
       -0.033070765 0.10776651 0.050218463 -0.082573496
0000c0 a6 2c ad bd 11 88 d8 bd 28 92 cd 3d 3e 67 8a bc
       -0.08455782 -0.105728276 0.10037643 -0.016894933
0000d0 60 f9 b1 bd 03 19 e2 3d 6a 49 4a bd 19 e1 95 bd
       -0.08690143 0.11039927 -0.04938642 -0.073183246
0000e0 e8 c7 94 3d a7 1a 41 bd 5c 48 d8 bc d3 15 83 3d
       0.072646916 -0.04714456 -0.026401691 0.06400647
0000f0 5a 67 0d bc b9 b4 a3 bd c1 ff 1c 3d 2e 04 f8 3d
       -0.008630598 -0.079934545 0.038329843 0.12110172

critic.2.weight f4 [64, 64]
000000 94 7e 2c 3e 19 77 02 3e e5 48 da bd cf 09 ed 3d
       0.1684516 0.12740745 -0.10658435 0.115741365
000010 e0 23 40 be 21 11 43 3e 8f 86 dc bd 98 cc 1d 3d
       -0.18763685 0.19049503 -0.107678525 0.038525194
000020 b4 e7 8e bd 70 e1 63 3d 10 d7 b3 3d 0e f2 41 bc
       -0.069777876 0.055634916 0.08781254 -0.0118374955
000030 f9 fe 35 3e 74 1e cb bd b7 5f 7f bd 44 50 46 be
       0.17773046 -0.09917918 -0.06234714 -0.19366556
000040 75 19 49 3e 5e 64 6b 3d 66 90 f4 bb 55 bd a1 be
       0.19638617 0.057468764 -0.0074635027 -0.3158976
000050 11 38 34 be f4 aa 9e 3d c0 45 00 bd d1 e2 5f 3e
       -0.17599513 0.077474505 -0.03131652 0.21863867
000060 49 fc 3d bd 8a 2f 6b 3e 29 ed 92 be 26 f7 b2 3e
       -0.046383176 0.22967353 -0.28696564 0.34954184
000070 fe 6f dc be aa 2e 8b bd da 2d 04 3d d8 74 1f be
       -0.43054193 -0.0679601 0.03227029 -0.15571916
000080 7a 9e a6 bc 0b a7 41 3e c3 12 77 3b e8 6a 0c 3e
       -0.02033924 0.18911378 0.0037700392 0.13712656
000090 60 1f 29 3e be e7 80 bd 76 03 57 3e 2c 7a 05 be
       0.16515875 -0.06294201 0.20997414 -0.13034886
0000a0 75 b0 39 3e da 6c 21 3e 03 2b ca bd d7 ed 7c be
       0.1813372 0.1576418 -0.09871485 -0.24700104
0000b0 bc 90 83 be 1a e5 59 3e 3f 26 d3 be 47 a3 81 3d
       -0.2569636 0.21278802 -0.41240117 0.06329971
0000c0 25 bc 54 bd 5b be 2c 3d 56 2a 34 3d 2a 6a f1 bd
       -0.05193724 0.042173725 0.043985687 -0.11787827
0000d0 9a 66 51 3d 54 25 0a bd 1b 06 c0 3e 4c 8a 3d 3e
       0.05112324 -0.033727005 0.37504658 0.18509787
0000e0 01 16 70 bd 8c 86 d9 3c 8b ac 19 3c 15 d7 55 3e
       -0.058614735 0.026553415 0.009379516 0.20882829
0000f0 1e 24 a1 3e 10 96 86 3e ba 8a 3d 3d 88 cc 01 3e
       0.31472868 0.26286364 0.046274878 0.12675679
000100 76 90 b4 3e 3a 28 a6 3c 99 44 fb bd 87 11 a1 3e
       0.35266465 0.020282853 -0.12268943 0.31458685
000110 78 3d 7c 3e 11 6e e5 3b f7 29 99 3e 91 9c 1c 3e
       0.24632823 0.0070016463 0.2991483 0.152941
000120 89 bc 05 3e 2d a6 9c bd 6b e9 88 bc 5a 78 2b bb
       0.13060202 -0.07648883 -0.016712865 -0.0026164264
000130 2e 2c 08 3e 1f 60 d5 bd 3f cc 22 3e e9 9e 44 be
       0.13298103 -0.10418724 0.15898226 -0.19201244
000140 75 06 60 3d e5 74 14 3d 52 77 33 be 4f 58 25 be
       0.054693658 0.03624429 -0.17525986 -0.16146968
000150 b5 84 d5 bd c1 fe ee be ee ca 89 3e 91 50 48 be
       -0.104257025 -0.46678737 0.26912636 -0.19561984
000160 61 2e 2a 3d 83 c2 03 bd 4d 25 89 3d 63 8c 18 be
       0.041548137 -0.032167923 0.06696568 -0.14897303
000170 b2 d5 40 3e bd 5c 51 bd fc c8 61 be 32 4f 3f bc
       0.18831518 -0.051113833 -0.22049326 -0.0116765965
000180 73 87 08 3e d8 bd 3a 3d 5e 40 a7 bd 26 49 0f be
       0.1333292 0.045591205 -0.08166574 -0.13992748
000190 cd 56 5b bd ca 08 7d bd 24 f8 04 be 00 69 0c be
       -0.053549577 -0.06177596 -0.12985283 -0.1371193
0001a0 b1 30 78 be 9c d4 ff 3c 35 9d 92 be 57 b1 3d be
       -0.24237324 0.03122931 -0.28635564 -0.18524681
0001b0 a1 c1 9e 3e 85 bb 28 3e 8a 8d 22 3e 55 c4 c1 3d
       0.31007102 0.16477783 0.15874305 0.094612755
0001c0 4f 78 21 bf 52 56 e4 3d fd 1a 94 bd ea ff 82 be
       -0.630742 0.11149277 -0.0723171 -0.25585872
0001d0 60 68 79 3d 7c a8 45 3e fa 22 b4 be 85 e0 8a bc
       0.060890555 0.19302553 -0.35182935 -0.016952762
0001e0 0e 96 07 3e 6c e8 1c 3d ff b3 13 be 20 8c 1b 3e
       0.13240835 0.038307592 -0.14424132 0.15190172
0001f0 f9 d0 5f 3e ba f1 00 3c a3 4c d9 3d a1 b4 4d 3e
       0.2185706 0.007870132 0.106103204 0.20088436
000200 8c 92 6b be 8a d6 40 3c b1 b0 d1 3e e7 7c 83 bd
       -0.23005122 0.0117699 0.40955117 -0.064203076
000210 4f 74 8e 3e 3d 61 b2 bc ad 98 9e bd 1c 6e f0 3d
       0.2782311 -0.021774882 -0.07743964 0.11739752
000220 83 76 63 3e dc 51 5c 3e 3a f7 0d be ea 51 2c be
       0.22213177 0.21515602 -0.1386384 -0.16828123
000230 c7 ab 9a 3d c2 47 66 be 99 2d 42 3e ff ed 85 be
       0.07552295 -0.22488311 0.18962707 -0.2615814
000240 8a eb 0b 3d 4c 5f 3e 3d d6 56 4c 3d 70 21 27 3c
       0.034160174 0.0464776 0.0498875 0.010200843
000250 83 89 40 3c ca a2 79 3d 8c f1 03 3d b5 72 8a bd
       0.011751535 0.060946263 0.03221278 -0.0676016
000260 f7 2d 8f be ff 81 c5 bb da 20 f7 bd 29 ff 8a be
       -0.27964756 -0.0060274596 -0.12066813 -0.27147797
000270 e4 0b 8f 3e f8 a5 e3 bd d6 a3 64 3e 34 05 8a be
       0.2793876 -0.111156404 0.22328123 -0.26957095
000280 4a 58 02 3e 12 91 c3 bd 49 c1 c3 be b0 3f ac bd
       0.12728992 -0.09549154 -0.38233402 -0.08410585
000290 c8 1d 4f be 19 be e6 bd dc ae 6c 3d 78 36 af 3d
       -0.20226204 -0.11266727 0.057783946 0.08555311
0002a0 2c d2 87 bd 0e a2 ad 3d b8 d0 0c 3e f0 2e e7 3d
       -0.06631884 0.08478175 0.13751495 0.112882495
0002b0 be 5a 99 be 8e 16 8f 3e a0 49 ab be 03 50 37 bd
       -0.29952043 0.27946895 -0.3345461 -0.04475404
0002c0 ad 70 0a 3d 33 25 d6 3c 8d 57 1b 3d 33 26 18 3e
       0.033798862 0.026140785 0.03792529 0.14858322
0002d0 ac aa 7d be 05 f0 f6 bc 6f a2 39 be d4 27 a5 3e
       -0.24772137 -0.030143747 -0.1812837 0.3225695
0002e0 3f 0b 58 be 4e da 64 bc 16 53 12 3e bc 05 9d 3e
       -0.2109804 -0.0139680635 0.14289507 0.30668437
0002f0 7f 28 0d 3e 12 a1 4a be fc 9a 6e 3e 60 20 1e be
       0.1378498 -0.19788006 0.2330131 -0.15442038
000300 43 6d 8e 3e d3 18 d9 be 41 d6 ce 3d 83 3c f5 3e
       0.27817735 -0.42401752 0.100994594 0.4789773
000310 45 d2 cd 3d ea 37 c3 3e 64 0d de 3c 4f 09 a6 3d
       0.10049871 0.38128597 0.027105995 0.08107244
000320 cc f3 92 bd 86 1c 8b 3e 0e dd cf 3d b1 44 0d be
       -0.07175407 0.271702 0.10149585 -0.13795735
000330 52 44 55 be cb 6b cc be 96 6a b5 be 7a 9c 27 be
       -0.20826843 -0.3992599 -0.3543288 -0.16368285
000340 92 1e 7c bd 77 69 8a bc a5 b8 9f 3e 60 db d6 3d
       -0.06155259 -0.016895993 0.3119556 0.10491061
000350 c0 1a 5b be 47 ee b8 3c b2 01 2f 3e f6 47 0f 3e
       -0.21396923 0.022574557 0.1709049 0.13992295
000360 ca af df 3d b8 0e 07 3c e4 7e a0 be 4b cb 7d bd
       0.10922201 0.008243255 -0.3134681 -0.061961453
000370 32 17 e1 3e 0e 8b 31 3d 54 78 05 be 41 1e 0e 3e
       0.4396301 0.043345504 -0.13034183 0.13878728
000380 0c 19 99 3c 6f 3a ca 3d b9 4c c0 3d 90 d1 43 3e
       0.018688701 0.098744266 0.09389634 0.1912291
000390 c1 c3 cc 3c ec 60 22 3e 17 58 8f bc c3 82 d2 3e
       0.024995686 0.15857285 -0.01749806 0.41115388
0003a0 56 e0 d8 3d 84 1d 16 bd d1 75 fe bd 3f ba 88 3e
       0.10589664 -0.036649242 -0.124248154 0.26704594
0003b0 7a cf 4c 3e bf b3 dd bc 1f f5 08 bd 3d 9a 98 3c
       0.20001021 -0.027063249 -0.03343689 0.018628234
0003c0 48 06 55 3e d2 73 fc bd 0b 22 ee 3d 06 26 80 be
       0.20803177 -0.123267785 0.11627587 -0.2502901
0003d0 bf 15 80 3d e2 a9 78 3e 30 2a 98 ba cf e2 49 be
       0.06254148 0.24283555 -0.0011609253 -0.19715427
0003e0 ef d7 47 3e 9f f6 ee bd 04 8e 8d 3d f8 ee 01 be
       0.19515966 -0.11668133 0.06911853 -0.12688816
0003f0 09 37 ab 3c 6f cb 14 3e 0f 12 40 3e 1e a4 c4 3d
       0.020900266 0.14530729 0.18756889 0.09601615

critic.2.bias f4 [64]
000000 a7 be 82 bd 94 d9 17 3e f0 0e df bc ee 51 e1 bc
       -0.0638402 0.14829093 -0.027228802 -0.027504887
000010 00 96 53 be 30 b1 f4 bc a8 82 32 3d 27 6d 40 3e
       -0.20662689 -0.029869646 0.043581635 0.18791638
000020 72 e0 2e 3e ab cc 6c 3d e7 e1 80 bd 75 34 44 3c
       0.17077807 0.057812374 -0.062930875 0.011975397
000030 46 69 22 3d b1 28 6d 3d 50 86 e9 3d a4 16 9f bd
       0.039651178 0.057900134 0.11402571 -0.0776799
000040 15 cd 15 3e 9f b3 a7 3d e3 62 2d bc 81 d4 3f 3d
       0.14629014 0.08188557 -0.010582658 0.04683352
000050 09 db 95 bd 95 54 ba 3d 96 ef f2 3c c8 23 1e 3d
       -0.07317168 0.09098164 0.02965526 0.038608342
000060 e7 4a 41 bd 7b 2b 50 3d 83 14 2f be 1c 7b 3a be
       -0.047190573 0.050822716 -0.17097668 -0.18211025
000070 92 eb 8d bd a8 fb d6 3d de 93 ac 3d 25 9c 34 3d
       -0.06929697 0.10497218 0.08426641 0.044094224
000080 78 74 13 3d 18 9d 0d 3d 34 f4 8f bb 8a e6 73 3c
       0.035999745 0.034573644 -0.004393125 0.014886508
000090 a8 71 35 bd cf 71 4a 3c 93 4f 95 bb 46 3f b6 3c
       -0.044297844 0.012356236 -0.004556605 0.022246968
0000a0 e5 f5 72 3d 1c e4 6d 3d 07 10 c6 3d 65 42 39 be
       0.059316535 0.05807887 0.09671026 -0.18091734
0000b0 05 56 93 3d ae e4 85 bd 33 41 e4 3d da 53 e7 bc
       0.07194141 -0.06537758 0.11145248 -0.028238226
0000c0 fe b1 83 bd 5f fd 42 3d 7b 68 a3 3d 7d ed 86 3d
       -0.06430434 0.047604915 0.079789124 0.06588266
0000d0 4f 5b 3b 3c cf 51 15 bd e5 11 fd 3c 44 64 61 bd
       0.011435344 -0.036454972 0.030892322 -0.05502726
0000e0 c6 09 c0 3c 8c 6b 79 bd b2 d2 f3 3d 03 01 0e 3e
       0.02344216 -0.06089358 0.11905421 0.13867573
0000f0 79 67 16 3e b1 e7 8f bd 30 23 a5 bd dc 02 b9 3d
       0.14687909 -0.070266135 -0.08063352 0.090337485

critic.4.weight f4 [1, 64]
000000 67 3d 9d 3d 9e f0 76 be 40 07 d0 3d 7c c5 e1 3d
       0.07677727 -0.24115226 0.10157633 0.11023995
000010 3d 45 24 3e 8a f9 1d 3e 71 c8 e8 bd 6b ae 20 be
       0.16042037 0.15427223 -0.11366356 -0.15691535
000020 94 b9 25 be 88 d3 8d bd 20 54 e7 3d 97 24 71 be
       -0.16184074 -0.06925112 0.112953424 -0.23549114
000030 56 e5 7b be 28 29 8c bd 9a 97 5a be 48 59 9b 3d
       -0.24599203 -0.068437874 -0.21346894 0.075853884
000040 19 6d 61 be e9 63 88 bd cd 96 3c 3e fa 2a 6e be
       -0.22014274 -0.06659681 0.18416901 -0.23258582
000050 a8 d5 d8 3d ad bb 83 be 24 b9 89 bd e6 7c fb bd
       0.10587627 -0.25729123 -0.06724766 -0.12279682
000060 21 a2 51 3e 1f 4d 3b be 06 8b 94 3e 93 ab 64 3e
       0.20472004 -0.18291138 0.29012316 0.22331075
000070 ff 8d da 3d ee 56 6e be d9 03 74 bd bb 0e 4e be
       0.10671615 -0.23275349 -0.059573982 -0.20122807
000080 c2 4b e3 bd ba bb 8e bc 31 ea 54 3d 44 f3 ad bd
       -0.11098434 -0.0174235 0.051981155 -0.08493665
000090 d1 b4 dd 3d 89 01 5f be 9f a3 09 be 4b 59 0f bd
       0.108255036 -0.2177793 -0.13441323 -0.034997266
0000a0 d0 6e 9a bd 0f f4 4e be 8b 60 5c bd db 43 9b 3d
       -0.07540667 -0.20210288 -0.053803008 0.07581302
0000b0 23 a1 1c be ce 79 4c 3e de 55 c5 bd 6b 62 65 bb
       -0.15295844 0.1996834 -0.096355185 -0.0035001289
0000c0 25 1b e9 3d aa 25 37 be 34 0a a5 bd 6b a3 7c be
       0.113821305 -0.17885461 -0.08058587 -0.24671714
0000d0 cb ab 22 3e db d3 83 3e 61 1c 46 be 2f 56 3c 3d
       0.15885846 0.2574757 -0.19346763 0.04598063
0000e0 c9 3a a6 bd 4b 19 3b 3e 26 b7 9d bd 2b b7 7b be
       -0.08116681 0.18271367 -0.077009484 -0.24581592
0000f0 b2 ca cc bd 42 42 ff 3c 47 4e 95 3d 12 4c 88 be
       -0.099995986 0.031159524 0.07290321 -0.26620537

actor_mean.0.weight f4 [64, 42]
000000 26 86 01 be 9b ce 3c 3e 75 65 62 be 33 9a fd bd
       -0.1264883 0.18438189 -0.22109015 -0.12382927
000010 7b 1a 03 3f 4e 6c 19 be 16 51 09 3e 94 c7 53 3b
       0.5121228 -0.14982721 0.13409838 0.0032315003
000020 70 d5 ca 3d 74 8a 4a bd 9e e3 98 bc 0f f4 ac bd
       0.09903991 -0.049448445 -0.018663224 -0.08444988
000030 1f 6d e5 bd 9c c8 38 be 59 eb 3d 3b 42 a4 47 3b
       -0.11202454 -0.18045276 0.002897939 0.0030462896
000040 32 af 8a 3e c5 da 87 3d 74 58 80 3d 4d 4e 2a 3e
       0.27086788 0.06633524 0.06266871 0.16631432
000050 b0 c0 b9 bc 1f 5e 9c 3d 93 57 46 be b2 db 7f bd
       -0.022674888 0.0763514 -0.19369344 -0.062465377
000060 75 20 05 3e 95 17 06 3d 2f ea 2b 3e 15 3b ab bc
       0.13000663 0.032737333 0.16788553 -0.020902196
000070 c7 1b 20 3d 7a fb 92 bc ec 15 d7 bd 25 af cc 3d
       0.03908899 -0.017942179 -0.10502228 0.09994344
000080 22 9c b8 be c2 46 96 3d 20 de f2 bd e5 8a 0a 3d
       -0.3605662 0.07337715 -0.11858773 0.033823866
000090 0e db 3d be f9 6d 27 be 3f 72 97 3d 96 a8 86 3e
       -0.18540594 -0.16350545 0.073948376 0.26300496
0000a0 0a 2a c4 bd 62 bb ba 3d 30 de 10 3e 94 44 36 3e
       -0.09578331 0.09117772 0.14147258 0.17799598
0000b0 6c d5 0a bf 45 2c eb 3d ff c0 d1 3c 32 10 0a 3e
       -0.54231906 0.11483053 0.025604723 0.1348274
0000c0 54 5e d5 be 80 d9 cf be 26 d5 c1 3c b0 b2 04 bd
       -0.4167353 -0.40595627 0.023661207 -0.032396972
0000d0 fd d8 e1 bd be 8f ae bd 24 1b 26 be 15 93 98 be
       -0.11027715 -0.085235104 -0.16221291 -0.29799715
0000e0 7b dc 8d bd f0 9f dc 3d 71 aa a5 be 00 ab df bc
       -0.06926819 0.10772693 -0.323566 -0.027303219
0000f0 0b b7 02 bd 74 f6 85 3d 55 8f b1 be 7d 83 c7 bd
       -0.031912845 0.06541148 -0.34679666 -0.09741876
000100 db d7 34 bd f3 42 75 3a d7 38 a5 3d c4 61 12 3e
       -0.04415117 0.00093559845 0.08067482 0.14295107
000110 63 42 a0 3e 28 67 ac be e7 f7 03 3d b6 f3 ec 3b
       0.3130065 -0.33672452 0.03221884 0.007231201
000120 0e bd 39 3e 3e ef 95 3d ee 0a 35 3e 18 4e 27 3d
       0.18138525 0.073210225 0.1767995 0.04084596
000130 4c 3d 3c 3e 3e 2a c0 be c6 aa 60 3b 68 bf c2 3d
       0.18382758 -0.37532228 0.0034281476 0.09509164
000140 96 c6 b2 3d 19 9a 80 bd 8f f0 a1 be 59 3b 71 3d
       0.087292835 -0.06279392 -0.31628844 0.05889449
000150 bb e4 10 be fa 27 28 bd 0f 01 78 bd b9 20 88 bd
       -0.14149754 -0.04105375 -0.060547885 -0.06646866
000160 32 5b 25 3c bd 4d 66 bd 16 a2 a0 be 8e 6c 61 be
       0.010092543 -0.05622648 -0.31373662 -0.22014067
000170 9f 14 a5 3e fd 80 db 3d 98 a0 ea 3a 76 3f 00 3b
       0.32242295 0.10717962 0.0017900644 0.0019569076
000180 4a 40 a2 3d 68 2e a0 be 1c 67 40 3d 0f bd 3c bd
       0.079224184 -0.31285405 0.046973333 -0.046078738
000190 0e 65 68 3e 84 69 b4 3d 91 b2 ad 3c be 01 45 be
       0.226948 0.08809188 0.021203311 -0.19238946
0001a0 04 7f 16 be cd 8d 9a bd 97 79 8b bd 65 d5 71 be
       -0.1469689 -0.075465776 -0.06810301 -0.2361656
0001b0 b4 da b3 bd 46 6d 9a 3c 67 4f d0 be 1f 1a a2 3e
       -0.08781949 0.018850934 -0.4068558 0.31660554
0001c0 03 51 f7 3c a2 06 0e 3e e0 d3 64 bc 5f 3d 73 3c
       0.030189997 0.13869718 -0.013966531 0.014846175
0001d0 5d 58 9b bd 51 20 71 bc f7 17 9f bd 08 ca 52 3e
       -0.07585213 -0.0147171775 -0.07768243 0.20584881
0001e0 29 a4 d8 bc 01 3c 48 be b4 84 04 bd 17 12 50 3c
       -0.026445465 -0.1955414 -0.032353118 0.012699625
0001f0 d8 10 ef 3e 96 9f 94 3e 3d 4d 0e 3d 81 ea 73 3b
       0.46692538 0.29028004 0.03474163 0.0037218633
000200 47 bd 19 be 83 ce bd bc fe 80 7f 3d 8b 0d ba bd
       -0.1501361 -0.023169762 0.062378876 -0.09084614
000210 bb d6 c9 be 25 7f 15 3e 02 3c 28 be 8f d5 8c bd
       -0.3942164 0.14599283 -0.16429141 -0.068766706
000220 c7 2c 65 bd 39 c2 b6 3d f0 ce db 3e 15 7c 8a bd
       -0.055950906 0.08923764 0.42931318 -0.06761948
000230 36 e4 c4 3d f7 a3 dc 3c fb 6d 3a 3e 7f 99 70 3d
       0.0961384 0.026933653 0.18206017 0.058740135
000240 b4 34 e2 bd fe 4a 95 3d ed b6 ae bd f4 7b ca 3e
       -0.110452086 0.07289694 -0.08530984 0.39547694
000250 c4 2a bd 3d 1a 4e 1d 3b 40 ad 05 be e4 6a 82 3d
       0.092366725 0.002400285 -0.13054371 0.06368044
000260 42 ba 42 3f e0 60 ca be 3c fd 4d 3e 18 4e 33 bd
       0.76065457 -0.39527035 0.20116132 -0.043775648
000270 c7 01 bc 3d 73 70 9d be 25 25 ef bc eb ef 82 be
       0.091800265 -0.30749854 -0.029192517 -0.25573668
000280 e9 1e 17 3b 7a 2c 08 be 19 a4 00 bd fb 4b ff ba
       0.0023059195 -0.13298216 -0.031406496 -0.00194776
000290 5a 43 3a be 5c b4 83 3d fd aa c2 bc 75 6d 0f be
       -0.18189755 0.06430885 -0.023763174 -0.14006598
0002a0 b3 ee 3f be 84 5c db 3d 1f e1 dc 3d 13 22 9c 3d
       -0.187434 0.10711005 0.10785126 0.07623687
0002b0 9f b7 ec 3d a1 6c 7c 3d ef 40 bd be 75 e4 60 be
       0.115584604 0.061627034 -0.36963603 -0.2196215
0002c0 99 41 05 bd b9 a7 1a 3e 13 b7 fe 3d da 40 b8 3d
       -0.032533262 0.15103044 0.124372624 0.089967445
0002d0 93 48 31 3c b7 eb 22 be ce b4 9b 3e 99 32 f9 bc
       0.010820526 -0.1591023 0.3041138 -0.030419635
0002e0 55 30 a4 be 56 81 af 3d 95 17 30 3d 78 0f 48 bd
       -0.32068124 0.08569591 0.04299124 -0.048842877
0002f0 4e e4 e5 bd d8 ba 92 be d6 38 64 3e 4c ef 00 bd
       -0.11225186 -0.28658175 0.22287306 -0.03147821
000300 e4 c1 31 be 61 be 88 3c 71 41 33 be 09 fa ef 3d
       -0.1735912 0.016692342 -0.17505433 0.11717612
000310 b8 1e 29 3e 62 4b a9 be da 5e ba bc 33 1e 40 3e
       0.16515625 -0.33065325 -0.022750307 0.1876152
000320 44 00 de 3c 87 e9 6c 3e e8 6f 2d be f9 01 a6 3e
       0.027099736 0.23135959 -0.1693722 0.3242338
000330 14 8b 30 3e 95 a5 06 be 08 15 bf bd b2 46 4a 3d
       0.17240554 -0.13149102 -0.09330183 0.049383827
000340 e3 b7 9f be cf 83 39 3e 74 cb 51 3d b7 74 b5 3d
       -0.31194982 0.18116687 0.05121942 0.08860152
000350 28 b8 41 be e5 01 aa be 35 0d 57 bd fc c8 a7 bd
       -0.18917906 -0.3320457 -0.05250283 -0.081926316
000360 e4 75 d4 3d f4 4e 0c bf 3a 5b 41 bd fa 0a fc bd
       0.10374048 -0.5480797 -0.04720614 -0.12306781
000370 9d 0d bf 3d 50 4e 2c 3d f6 59 1f 3e 00 d9 48 bd
       0.093287684 0.042066872 0.15561661 -0.049035072
000380 f0 b0 94 3c ca 8d 55 bd eb d3 d9 bd 3e 93 59 3e
       0.018150777 -0.052137174 -0.10636123 0.21247575
000390 2a 9f 36 3d 28 da 9e 3d db 4e 8a 3e e4 80 3e be
       0.044585384 0.07756454 0.27013287 -0.18603855
0003a0 80 4b b0 3d 47 60 2d 3e d6 0f 91 3e 3c 2d 2d bc
       0.086081505 0.16931258 0.28332394 -0.010569867
0003b0 f8 78 22 be d1 37 ce 3d 88 b3 5c 3e c0 fa d6 be
       -0.15866458 0.1006924 0.2155286 -0.41988182
0003c0 c0 c0 e9 3e 26 e9 db bd 79 05 37 3d d0 e8 57 be
       0.4565487 -0.10737829 0.044682954 -0.21084905
0003d0 65 d5 08 be f8 09 96 3c 9f 12 8f 3c b9 77 05 3d
       -0.13362654 0.0183153 0.017464934 0.03258488
0003e0 45 da e4 3d f1 b6 a9 3d dc db d9 bc 4d ef b1 3d
       0.11174444 0.082868464 -0.026594095 0.08688221
0003f0 7c 21 13 3e 5d 77 22 be b5 ed 1e bd 9f 51 2e be
       0.14368242 -0.15865846 -0.038800914 -0.17023323

actor_mean.0.bias f4 [64]
000000 0c 9c 94 3c bc 4f c1 bd 85 78 ab 3d 0b 2e 17 3d
       0.018140815 -0.09439036 0.08372597 0.036909144
000010 cc 01 e3 bc 54 ec a5 bd 7c 07 a0 3d 5d 00 0a 3e
       -0.027710818 -0.08101717 0.078139275 0.13476701
000020 5c 67 8f 3c f3 31 c3 3d c2 29 ad bd 0a de 4a bd
       0.01750534 0.095310114 -0.0845523 -0.04952816
000030 d6 3c 08 be 7c 82 aa 3d 27 61 89 3c 3d 47 91 3c
       -0.13304457 0.08325669 0.016769959 0.017734164
000040 9d e0 86 bd ea 5a a3 bd e4 94 b7 3c 41 8d 4a be
       -0.0658581 -0.07976325 0.022409864 -0.19780447
000050 d0 28 f5 3c 30 1e 97 3d c8 48 35 be 90 02 ec bc
       0.029926687 0.07378805 -0.17703545 -0.028809816
000060 f7 33 ac 3c e1 65 30 bc 1d 1b c4 bd 6e b1 7d 3d
       0.021020873 -0.010766477 -0.09575484 0.06193679
000070 07 77 08 bd 06 e1 5a 3d 9a d4 08 bd dc 5d 9e bd
       -0.03331664 0.053437255 -0.033405878 -0.07732746
000080 26 28 9a bd 79 ec 00 bd 17 6d 24 3d 67 24 bf 3c
       -0.07527189 -0.031475518 0.0401431 0.023332788
000090 30 dc c4 3c bc dc 4d bc 4a e3 45 3c a0 90 2c 3d
       0.024030775 -0.012564834 0.012078116 0.042130113
0000a0 21 87 b6 3b 5c 2f 17 bb d8 4e 94 3d 67 42 da 3c
       0.005570308 -0.0023069 0.07241601 0.026642991
0000b0 9c d1 e4 3b 1e 81 d8 3d 2a e3 8f bd 3b 3b 61 bd
       0.006982995 0.10571502 -0.0702575 -0.054988127
0000c0 d7 d2 30 3d db cd 31 be 2d 25 32 be 59 76 cd 3d
       0.043169823 -0.17363684 -0.17396994 0.10032339
0000d0 8d 10 c7 3c bd d4 a3 bd 7c 6d 07 3e 7c 02 d3 bd
       0.024299884 -0.07999561 0.13225359 -0.10303208
0000e0 5a be 50 bd 7c e1 87 bc 68 1a 12 3c fa 52 d7 3d
       -0.050962783 -0.016587012 0.008917429 0.105138734
0000f0 10 11 ce bd 63 21 6a 3d 73 2a a2 bd 04 ec a4 3c
       -0.10061848 0.057160746 -0.07918253 0.020132072

actor_mean.2.weight f4 [64, 64]
000000 16 de 69 3e 6f f1 36 be 1a c1 a0 be 10 58 76 3e
       0.22838625 -0.17865537 -0.31397325 0.2405703
000010 72 5a 1a be 82 9e cf bd 65 63 10 be 93 95 09 be
       -0.15073565 -0.10137655 -0.14100416 -0.13435964
000020 8f 8c 7d bd fa 31 bc 3d 38 05 fd bd f9 74 31 3d
       -0.061901625 0.0918922 -0.12354511 0.043324444
000030 cb f8 07 be ed 62 6e bd 51 2e fc 3d 48 21 f5 3e
       -0.132785 -0.05819981 0.12313522 0.47876954
000040 49 cf 3b 3d 88 5b 08 bd 40 bc be bd 43 e5 92 3c
       0.04585198 -0.033290416 -0.093132496 0.017931586
000050 98 e7 e7 3d 8e df 7a 3d c7 ae f6 be 3a ba d1 3c
       0.1132347 0.061248355 -0.4818022 0.025601495
000060 18 f7 10 bd b7 dc 49 3e 53 b2 04 bc 88 8b b5 bd
       -0.035391897 0.19713102 -0.008099156 -0.08864504
000070 03 e3 a2 3e c1 06 b9 3c b0 43 88 be 56 70 96 bd
       0.3181382 0.022586228 -0.2661414 -0.07345645
000080 b3 87 c4 bd be 94 c1 bd a7 14 94 bc 97 75 ed 3e
       -0.09596195 -0.094521984 -0.018076254 0.46378776
000090 cb 81 79 3e cc 3e 16 3e a1 75 df 3d 45 94 e2 b9
       0.24365918 0.14672393 0.10911108 -0.00043216549
0000a0 99 7a ad be f7 de d8 bd ca 75 a9 bd 41 0a 44 3e
       -0.33882597 -0.10589402 -0.082744196 0.19144537
0000b0 5f 4a bb bd 12 cd fe 3d 06 ef 7f bd 92 36 cb bd
       -0.091450445 0.12441458 -0.06248381 -0.09922518
0000c0 2e fd f5 bd 2f be 98 be 35 21 3c 3c c4 87 23 bc
       -0.12011181 -0.298326 0.011482527 -0.0099810995
0000d0 2b 25 f5 bd aa 2d dd 3d ac b8 7c be e1 72 a6 be
       -0.1196998 0.10799725 -0.24679822 -0.3250952
0000e0 af 34 27 be c8 0f da bd 5f 8f 0b be e9 b9 9a 3e
       -0.16328691 -0.10647541 -0.1362891 0.30219963
0000f0 37 bb c0 bc de e1 88 3e 5c 1b 3d ba 97 0a 4d 3e
       -0.023526771 0.26734823 -0.00072138547 0.20023571
000100 22 ca 27 3d 09 be 5b bd 0e 0e 4f 3c 16 62 d8 3d
       0.040964253 -0.05364803 0.012637628 0.105655834
000110 12 66 d9 bc 3f 83 5a 3e c6 f9 b0 bd 43 05 9a bd
       -0.026537929 0.21339129 -0.086413905 -0.07520535
000120 60 f4 a8 bd 3d 95 55 3e 2e c6 b6 be bb 16 08 3e
       -0.08249736 0.20857711 -0.35698074 0.13289921
000130 2d 45 1c bc 78 41 93 3d da 0a b6 bd 0d 6f 23 3e
       -0.009537977 0.071902215 -0.088887885 0.15960331
000140 2b 97 20 3e ae 61 6e 3e 47 4e 0d 3f 1e 18 0d be
       0.15682666 0.2327945 0.55197567 -0.13778731
000150 2e e1 d4 bd 13 ca 2b be 12 49 f9 bd fc 29 a8 3c
       -0.10394512 -0.16776304 -0.1217214 0.020527832
000160 38 5e 76 be dc 8f 21 3d 80 55 2d be 09 b1 1f 3e
       -0.24059379 0.039443836 -0.16927147 0.15594877
000170 ed 4c 47 3d e4 65 c3 3e 2a 62 80 be 9b 75 cc 3d
       0.048657347 0.38163674 -0.25074893 0.09983369
000180 1e c0 ad be 03 87 d6 be 1a 28 cc be dc 3e bc 3d
       -0.33935636 -0.4189988 -0.39874345 0.09191677
000190 05 2d db 3d 60 09 a5 be d3 02 48 3e 8f 44 90 bd
       0.10701946 -0.32233715 0.19532327 -0.070443265
0001a0 8c 6b 4d 3e d6 51 94 bd cc 94 71 bd 58 4a 5c 3d
       0.20060557 -0.072421715 -0.058979794 0.053781837
0001b0 37 27 ed bd 34 7b 8a be 7a 4a 80 be 9c 85 a5 3c
       -0.11579745 -0.27047122 -0.2505682 0.020205311
0001c0 c8 f4 7b 3d 8b 52 d3 3e 93 51 0f 3e 60 47 98 bb
       0.06151274 0.41273913 0.13995962 -0.0046471804
0001d0 1f e1 8a 3e ad e9 20 3d b0 b5 3a bd 32 80 33 3e
       0.2712488 0.03928535 -0.045583427 0.17529371
0001e0 33 35 3e be 0f 28 1b be 3b 48 9a 3e fb b0 e7 bc
       -0.18574981 -0.15152 0.30133232 -0.028282633
0001f0 cf 05 14 bb 0b 14 fb bd 37 cd 0b 3c c7 6d fb bc
       -0.002258647 -0.12259682 0.008532814 -0.030691994
000200 5b 27 d0 bc d0 a6 4e be b1 f7 4d be 8b 43 27 be
       -0.025409391 -0.20180821 -0.20114018 -0.1633436
000210 e8 fa 15 be 8f 1a b2 bd b7 f1 5f be 96 94 34 3e
       -0.14646494 -0.08696472 -0.2186955 0.17634806
000220 3e 32 68 be ce 27 ef 3d 76 3f b1 3e a6 73 44 be
       -0.22675416 0.11677514 0.3461873 -0.19184741
000230 92 fa 56 bd d5 a5 46 3e d1 1a 9c 3e 83 d7 6d 3e
       -0.052485056 0.19399197 0.3048921 0.23226742
000240 69 c3 1e be 71 b4 20 3e 9e 4e fa be d9 a3 d1 3e
       -0.1550423 0.15693833 -0.48888105 0.40945318
000250 1f bf 8e 3d b2 4f 2f be 6a 83 80 3d a9 34 a3 3c
       0.06970047 -0.17120245 0.06275065 0.019922571
000260 88 58 50 be 08 eb a8 3d 3d 72 6b 3d ee 7a ca be
       -0.20346272 0.08247954 0.057481993 -0.39546913
000270 a9 d4 4a 3c e9 c0 1f 3e 68 8f 5a be 63 93 a3 3b
       0.012379804 0.15600933 -0.21343768 0.004991935
000280 e5 e4 c7 bd a4 36 8d 3d 8b 7d a6 be 55 ff d0 be
       -0.09760455 0.068951875 -0.32517657 -0.40819803
000290 d4 7d 95 bd b0 4d b2 bc 14 2c 71 bc 6f 46 84 be
       -0.072993904 -0.02176556 -0.014719982 -0.25834987
0002a0 87 13 2e be 38 c6 01 be 39 f9 ce bd 5f 9a cd bd
       -0.16999637 -0.1267327 -0.10106129 -0.100392096
0002b0 b7 17 d7 bc 5d 95 69 3d 2f 4e e6 bd d6 0b 87 3d
       -0.026256425 0.05702721 -0.11245381 0.065940544
0002c0 be 47 85 3d 86 b1 90 3d c3 91 95 3e d8 6b 7e bd
       0.06507824 0.0706511 0.2921277 -0.062114567
0002d0 dc 3b 2e 3d 95 e8 27 3e b8 33 d9 3e 7f e5 54 3e
       0.042537555 0.16397317 0.4242227 0.20790671
0002e0 db 5c 88 bd 54 08 48 3e 14 f3 8c 3d 89 7a 5a bd
       -0.06658336 0.19534427 0.06882301 -0.053339515
0002f0 0d f4 1c 3d 30 15 2d 3e 1f fc d1 3d 0b da 7e bd
       0.038318682 0.16902614 0.102531664 -0.06221966
000300 61 ec 73 be 52 7d f3 3d a7 30 9e bd 56 c0 2a 3d
       -0.2382064 0.11889137 -0.077241234 0.041687332
000310 15 01 80 bd b1 81 1a 3e 2e 13 c5 bd c6 1d b1 3c
       -0.062502064 0.15088536 -0.09622799 0.021620642
000320 93 de 20 3e b9 81 f9 bd eb a8 f9 3d 08 9f e6 3e
       0.15709905 -0.12182946 0.12190422 0.45043206
000330 ce c3 cf be ec ad b9 be 80 49 33 be 83 ba 0d 3e
       -0.40579075 -0.36265504 -0.17508507 0.1384068
000340 bd cf 0f 3f d8 58 91 bd 53 19 74 be 02 9a 21 3e
       0.5617636 -0.07097024 -0.23837785 0.15781406
000350 29 a0 51 be 07 de 49 be 99 46 f1 3e 5d 82 8a 3c
       -0.20471253 -0.19713603 0.47124174 0.016907865
000360 2a fe 29 be aa a9 00 be c3 b0 f5 3d d6 03 10 be
       -0.16600862 -0.12564722 0.11996605 -0.14063963
000370 00 52 db 3d 23 92 2b 3e fe f8 a2 3d b8 50 b6 3d
       0.10709 0.16754965 0.07957648 0.08902115
000380 10 41 ca 3d e2 76 8e 3c 37 77 08 bd 30 54 40 3e
       0.09875691 0.017390672 -0.033316817 0.18782115
000390 f7 68 c1 bd 41 db 04 3e 30 02 de bd c5 a7 fa bd
       -0.094438486 0.12974264 -0.10840261 -0.12239031
0003a0 57 70 73 be 2a 7c 98 be 70 b4 87 be 82 0f 88 3d
       -0.23773323 -0.2978223 -0.2650485 0.06643583
0003b0 35 f1 08 3d a6 e4 d6 bd aa 47 df bd 46 9b 74 3e
       0.033433158 -0.1049283 -0.10902341 0.23887357
0003c0 b5 02 58 bd 6d e1 72 3e 5b 2f 67 3e 5f a1 90 3d
       -0.052736957 0.23718806 0.22576658 0.07062029
0003d0 14 a0 4b 3e 84 31 91 3d 50 b9 8d be 28 73 39 3e
       0.19885284 0.070895225 -0.27680445 0.18110335
0003e0 2e ca 93 3e 9c e3 26 3d 29 3f c8 3e d9 64 35 3d
       0.28865188 0.04074441 0.39110687 0.04428563
0003f0 27 f5 65 3e 01 f0 76 3d 9b e4 46 be 91 7f 66 3d
       0.224568 0.06028748 -0.19423144 0.056274

actor_mean.2.bias f4 [64]
000000 d8 c2 82 3d c5 3c 19 ba 29 13 30 bd c7 2a 26 be
       0.0638482 -0.0005845542 -0.042987023 -0.16227256
000010 74 34 b7 3c 29 a4 74 3c 67 67 6a 3d 4e 36 fb bb
       0.022363879 0.014931717 0.05722752 -0.0076663857
000020 89 e8 07 bd 10 3c 8e bc e7 5b 9e bd 11 a4 6e ba
       -0.033180747 -0.017362624 -0.07732373 -0.00091034273
000030 70 24 4c 3c 6d 44 7e bd f7 e7 fd 3d 5b 7f 2b bc
       0.012459859 -0.062076975 0.123977594 -0.010467376
000040 94 2a 59 3d 57 af 78 bd b5 c6 d2 3c e9 e0 9a bd
       0.05301912 -0.060714092 0.025729517 -0.075624295
000050 5a 59 c9 3c d8 d4 d4 bd 99 5f 08 3d 61 ac 90 bc
       0.024578739 -0.10392159 0.033294294 -0.017660322
000060 27 6d a5 3d 5b 24 ae 3c 95 4c 46 3d 79 28 dd bd
       0.0807746 0.02125757 0.048412878 -0.10798735
000070 8b 08 9a bd fe df 0c bc 87 d3 c8 3d ba 8d 5e bd
       -0.07521161 -0.008598326 0.09805971 -0.05433438
000080 24 74 94 3c d2 28 26 bd f9 1e 80 bc 94 82 fd bc
       0.018121786 -0.040566273 -0.015639769 -0.030946054
000090 cb 0e 0a 3d 29 ee b1 3d 83 6c 09 3d 8c 37 e1 bc
       0.033705514 0.086880036 0.03355075 -0.027492307
0000a0 55 d3 d5 3d 39 c6 38 bd e3 ae cd bc 44 11 2d 3d
       0.10440699 -0.045110915 -0.025107807 0.042252794
0000b0 b7 4f 83 bc 7b 39 8f bd 71 7c 05 3c d0 3c 18 bc
       -0.016029222 -0.069933854 0.008147345 -0.009291843
0000c0 81 f6 1e bd d4 a1 d7 3d fd b9 a5 bd 25 c3 90 3d
       -0.038809303 0.10528913 -0.08092115 0.07068471
0000d0 8c c5 0e 3d b1 bd 2c 3d 51 8e 01 3d 44 49 5a bc
       0.034856364 0.04217309 0.031629864 -0.013323132
0000e0 6b 1d 0e 3d 67 7b 9b bd 94 35 f8 bd 3a 24 9d 3d
       0.034696024 -0.075918965 -0.12119594 0.07672925
0000f0 f0 d5 cd 3c c1 49 43 3c e9 a3 66 3c 21 ba b7 bc
       0.025126427 0.01191944 0.014077165 -0.02242762

actor_mean.4.weight f4 [2, 64]
000000 60 ec 21 3d 09 1c 0c 3e a0 cd 0b be 98 17 80 3d
       0.039532065 0.1368257 -0.13652658 0.062545
000010 64 3c 73 3d df ca d4 3c 20 12 3b bc 95 0f 79 3c
       0.059383765 0.025975643 -0.011417896 0.015201469
000020 c2 2f bd 3d 14 45 26 3c 5f 59 1e 3d d9 23 69 bb
       0.09237625 0.010148305 0.03865945 -0.0035574345
000030 36 43 3a 3d 53 78 8c 3d 48 6b 56 3c 32 09 9d bd
       0.045474254 0.068588875 0.013087101 -0.076677695
000040 29 4b 91 bc 24 44 4b bc 5a 1f 71 3d 85 e1 49 bd
       -0.017736034 -0.012406383 0.05886779 -0.049287338
000050 e0 0e b9 3d 0b fc d2 3d 74 dd 0f bb 8e 27 9f bc
       0.0903604 0.1030198 -0.0021952065 -0.01942804
000060 fb 75 b0 3d 5d b3 ba bd 18 18 cd bd ab 71 28 bd
       0.08616253 -0.09116242 -0.10014361 -0.041124027
000070 4e 0c b0 3d 88 0f 32 3d 32 bc bb bc d2 2f ec bb
       0.08596097 0.043471843 -0.022916887 -0.007207849
000080 6b c0 83 3d 16 86 8f 3d 43 4d ef bc 09 a6 84 3b
       0.06433185 0.07007997 -0.029211646 0.0040481132
000090 58 04 4e 3d 06 9b 17 3c fc 6d 66 bd 87 0c 1e bd
       0.05029711 0.009253269 -0.056257233 -0.038586166
0000a0 97 c0 13 3c 1d 6f c9 3d 5d ac 84 bd 8f 46 04 3d
       0.009018085 0.09835646 -0.06478188 0.032293852
0000b0 e8 82 ef bd 33 0e 91 bc 03 b2 18 bd 45 fb 22 be
       -0.1169489 -0.017706966 -0.03727914 -0.15916164
0000c0 d3 64 0d be d1 89 2b 3d d9 58 7e 3c e2 4b c4 bd
       -0.13807993 0.04187948 0.015524113 -0.09584786
0000d0 25 5c 33 3d be b8 04 3d 9f 12 16 bd f1 e8 b7 bd
       0.043789048 0.032402746 -0.036638852 -0.08979977
0000e0 d3 26 34 3d dd 57 5a bd 6a e1 f9 bd e7 2f 81 bd
       0.04398234 -0.05330645 -0.122011974 -0.06307965
0000f0 83 0d 1b 3e 86 78 af 3d 53 92 ae 3d 48 f9 b6 bc
       0.15141873 0.0856791 0.08524003 -0.022335663
000100 a8 3f ac bd 5e 94 35 bb 0d 08 d2 bc 45 88 72 bd
       -0.08410579 -0.0027706842 -0.025638605 -0.059211988
000110 cd b3 f3 bc 1a 6d 0f 3c 3f ee a1 3d b4 15 2e bc
       -0.029748822 0.008754039 0.0790677 -0.010625292
000120 97 05 0b bd f3 3f fb bd a9 af 82 bd 8e 3e b7 3d
       -0.033940878 -0.12268057 -0.06381161 0.08947478
000130 f5 67 8d bd 62 e0 cf 3d 27 60 b9 bd 83 b5 96 bd
       -0.06904594 0.101502195 -0.09051543 -0.07358839
000140 b5 f4 df 3d 7a 97 82 3d 38 81 09 bc c1 0b 87 3d
       0.10935346 0.06376548 -0.008392625 0.06594039
000150 9e 6d 94 3b 78 ec 69 3a 37 3f ee 3c 0b 7a b1 bd
       0.004529669 0.0008923481 0.029082878 -0.08665856
000160 ed cb 83 bc 15 27 2e bd ef c0 04 3c 15 bb 99 3d
       -0.01608845 -0.04251774 0.00810264 0.07506386
000170 c6 37 9a bb 2f 09 57 3d 9b 05 47 bd ea 57 12 be
       -0.0047063557 0.052498993 -0.04858933 -0.14291349
000180 c9 b1 1f 3d aa f8 ab 3d da 7e 4b bc d0 a2 0f 3e
       0.03898791 0.08397038 -0.0124203805 0.14026952
000190 18 bf 11 bd 36 52 17 bd 20 20 db bd c1 c9 e7 bb
       -0.03558263 -0.036943637 -0.10699487 -0.0070736115
0001a0 ed 3e fd bc db 3d 0a 3d 68 8e c3 bc 80 75 a5 bd
       -0.030913794 0.033750396 -0.023871616 -0.08079052
0001b0 b6 3e 4c bc cf 95 8c bd bf 2e 08 3d 70 21 56 3d
       -0.012466123 -0.06864511 0.033247706 0.052277982
0001c0 df e4 ee ba c3 8e 0c 3e 2b 4d 87 3d 4f ba 89 3c
       -0.0018226168 0.13726334 0.066065155 0.016812472
0001d0 af 15 40 bd ac 51 68 3d 02 d4 85 3d 03 1a e9 bc
       -0.04689568 0.056718513 0.06534578 -0.028454786
0001e0 e9 12 e7 3d de 63 a4 3d 6e c7 f8 bb 35 cd c2 3c
       0.11282904 0.08026861 -0.0075921332 0.023779491
0001f0 96 b7 a6 3b ec 44 13 3c 94 07 7c bc 61 80 a0 3d
       0.005087803 0.0089886 -0.015382666 0.07836986

actor_mean.4.bias f4 [2]
000000 ad cd e6 bc 15 ec e7 bc
       -0.028174246 -0.028310815
