jsbgym/models/train_saves/ppo_ts4e-2_2_42947_19-01_01:15:16.pt (torch, 62231 bytes, 14 tensors)

actor_logstd f4 [1, 2]
0	0xbdf0c3ff	-0.11756133
1	0xbde3e506	-0.11127667

conv.0.weight f4 [3, 1, 5, 1]
0	0x3ddb626b	0.10712131
1	0x3f39dfe7	0.7260727
2	0x3eebb31e	0.46035093
3	0x3ea96285	0.33082977
4	0x3f2bc10d	0.6709145
5	0xbe53ea4c	-0.20694846
6	0x3ee28184	0.44239438
7	0xbf58d8d6	-0.84705865
8	0xbed4ace7	-0.41538164
9	0x3eacf6dc	0.3378209
10	0x3f2adc32	0.6674224
11	0x3d431e4b	0.04763631
12	0xbe8bb71d	-0.27288142
13	0x3e985944	0.29755604
14	0x3e207c49	0.15672411

conv.0.bias f4 [3]
0	0x3ca4b9cc	0.020108126
1	0x37dc91fe	2.6294027e-05
2	0xbe1aefdd	-0.15130563

critic.0.weight f4 [64, 42]
0	0xbe20c9bb	-0.15701954
1	0xbba0ac3f	-0.004903346
2	0xbe73cc2d	-0.23808356
3	0xbd446106	-0.04794409
4	0x3e4daeb2	0.20086172
5	0xbcc1823b	-0.023621669
6	0xbecc95f3	-0.39958152
7	0x3deffd4b	0.11718234
8	0x3d94926d	0.07254491
9	0xbe51c458	-0.20485055
10	0x3e6b9947	0.2300769
11	0x3d05f050	0.032699883
12	0xbcba2e49	-0.022727149
13	0xbe07e69d	-0.13271566
14	0xbdf16d02	-0.1178837
15	0xbdc97f66	-0.098387524
16	0x3e049da1	0.12950756
17	0x3e51c63d	0.20485778
18	0x3e718fa6	0.23589954
19	0x3d0f64db	0.035008293
20	0xbe2b712b	-0.16742389
21	0x3dc23b47	0.094839625
22	0x3d95e1b7	0.07318442
23	0x3e4657e5	0.19369467
24	0x3e2bb577	0.16768442
25	0x3c908b04	0.017644413
26	0x3ebfcf39	0.37462786
27	0x3e8513ed	0.25991765
28	0x3cc4ea79	0.024037587
29	0xbd89e99f	-0.06734013
30	0xbe8c6a16	-0.27424687
31	0xbd8b68ed	-0.068071224
32	0xbe0d065e	-0.1377196
33	0xbdcc4e6d	-0.09975896
34	0xbe901281	-0.28139117
35	0xbe260877	-0.16214167
36	0x3e16e1fd	0.14734645
37	0xbe556c87	-0.20842181
38	0xbe23ab2f	-0.1598327
39	0xbe06de06	-0.13170633
40	0xbdb683b3	-0.089118384
41	0xbef98c8a	-0.48740035
42	0xbdbe4004	-0.09289554
43	0x3e8fe46d	0.28103963
44	0xbd9a93cf	-0.075477235
45	0x3e04d681	0.12972452
46	0x3dd4aa2a	0.10384019
47	0x3dda905d	0.10672066
48	0xbe1489a0	-0.14505625
49	0xbe358b52	-0.17728928
50	0xbe638b37	-0.22221075
51	0x3ca844e7	0.020540668
52	0x3e1e819c	0.1547913
53	0x3df33ebf	0.11877202
54	0xbe1a3e05	-0.15062721
55	0xbe4c5b59	-0.19956721
56	0x3db5524a	0.08853586
57	0xbe0a011e	-0.13476989
58	0x3d268ac5	0.040659685
59	0xbb5e8c20	-0.0033958033
60	0xbdd09cb5	-0.101861395
61	0xbc24206c	-0.010017496
62	0x3cbe780c	0.023250602
63	0xbde74bab	-0.112937294
64	0x3df80557	0.121103935
65	0x3e0f5a4b	0.13999288
66	0x3e9ff032	0.31237942
67	0xbd17ebfe	-0.037090294
68	0xbd79e479	-0.061008904
69	0x3e17c788	0.14822209
70	0x3f0266f3	0.5093834
71	0x3e08954a	0.133382
72	0xbaebffce	-0.0018005313
73	0x3e925c6c	0.28586137
74	0xbe00baef	-0.1257131
75	0x3e3e68e1	0.18594696
76	0x3e809d7d	0.25120154
77	0xbeb4d843	-0.35321245
78	0xbe20d8b1	-0.15707661
79	0x3e28636a	0.16444173
80	0xbe199cab	-0.1500117
81	0xbdec2da9	-0.115321465
82	0xbe84aa2e	-0.25911087
83	0x3ebf9a2b	0.37422308
84	0x3bf027f5	0.007328982
85	0xbea20553	-0.31644687
86	0xbe8766ed	-0.26445714
87	0x3df9a143	0.12188961
88	0x3d9e0456	0.07715671
89	0xbd12defd	-0.03585719
90	0x3c35297a	0.011057252
91	0xbec7e347	-0.39040586
92	0x3e618f85	0.22027405
93	0x3da14c19	0.078758426
94	0xbd3d8125	-0.04626574
95	0x3d0bc205	0.03412058
96	0xbe8085f8	-0.2510221
97	0xbdc70be5	-0.097190656
98	0x3d6d9e26	0.05801215
99	0x3d58a7d6	0.052894436
100	0x3ead12eb	0.33803496
101	0x3e078481	0.1323414
102	0x3eed463c	0.46342647
103	0x3c989eb6	0.018630367
104	0x3ce05a59	0.027386831
105	0x3e80a718	0.25127482
106	0x3e02dc55	0.12779362
107	0x3df1f21a	0.11813755
108	0x3e48dc3a	0.1961526
109	0xbd2ef9a1	-0.042718533
110	0x3ea0497a	0.31306058
111	0xbdc3e3ce	-0.09564935
112	0xbc46f397	-0.012143037
113	0x3e8406af	0.2578635
114	0x3de2ce92	0.110745564
115	0x3d2cdcc9	0.042202745
116	0x3eb8aca9	0.3606923
117	0xbbdb86fc	-0.006699441
118	0x3e593dda	0.21215001
119	0xbedddeb1	-0.43333963
120	0xbd59b8da	-0.053154804
121	0x3da3a17a	0.079897836
122	0x3d0284a7	0.03186479
123	0xbc09c3a9	-0.008408465
124	0x3e800d02	0.25009924
125	0x3e71dbcf	0.23619007
126	0xbe80ba28	-0.25142026
127	0xbe6bc654	-0.23024875
128	0x3d9b74bb	0.07590624
129	0x3d651d19	0.055935953
130	0xbcebe492	-0.028795514
131	0x3ead507a	0.3385046
132	0xbe168ca2	-0.14702085
133	0x3e0ed437	0.13948141
134	0xbe59f063	-0.21283107
135	0x3d82dd0e	0.06389819
136	0x3e3dd9d5	0.18540128
137	0x3ca3b104	0.019981869
138	0xbd15053b	-0.03638194
139	0x3dbe9389	0.09305484
140	0x3d1493d3	0.03627379
141	0x3e1ff348	0.15620148
142	0x3e6a8015	0.22900422
143	0xbe881785	-0.26580444
144	0x3ca4ce12	0.020117793
145	0xbe08cc7d	-0.13359256
146	0x3e95f054	0.29284918
147	0x3de52567	0.111887746
148	0xbd04d61e	-0.03243076
149	0x3eb53317	0.3539054
150	0x3d4a1742	0.049338587
151	0x3e1f2fe8	0.15545619
152	0xbe301e8d	-0.17199154
153	0xbe853f17	-0.26024696
154	0xbc8497e9	-0.016185718
155	0xbe090c90	-0.13383698
156	0x3e826057	0.25464126
157	0xbd8f2442	-0.069893375
158	0xbdbef694	-0.09324375
159	0xbde080f3	-0.10962095
160	0xbe2710e9	-0.16315044
161	0x3d0cd5c7	0.03438356
162	0x3d00938c	0.03139071
163	0x3e8da505	0.27664962
164	0xbe663be3	-0.22483782
165	0x3dd88c27	0.10573607
166	0x3c8d0563	0.017214483
167	0xbcd0268d	-0.025409007
168	0x3d85ef78	0.06539816
169	0xbdbc58fa	-0.091966584
170	0x3e917387	0.28408453
171	0xbd35c325	-0.044375557
172	0x3c226063	0.009910676
173	0xbd30619d	-0.04306184
174	0x3dfb2079	0.12262053
175	0x3e8c1716	0.27361363
176	0x3e98c0b9	0.29834536
177	0xbe308aed	-0.17240496
178	0x3d8a6a07	0.06758504
179	0x3c0c64d3	0.00856896
180	0x3f1eaf56	0.6198629
181	0xbdd142e8	-0.102178395
182	0x3e80b9e6	0.2514183
183	0xbda419f0	-0.0801276
184	0x3ea9160a	0.33024627
185	0xbdf427af	-0.119216315
186	0xbd8a23dc	-0.06745121
187	0xbe2c07d5	-0.16799863
188	0x3d945c62	0.07244183
189	0x3c931a8a	0.01795699
190	0xbd83a74e	-0.06428395
191	0x3bfcc926	0.0077144084
192	0xbdaea95c	-0.085283965
193	0xbe771cb7	-0.24132048
194	0xbdfefa3d	-0.12450073
195	0xbe4d3247	-0.2003871
196	0x3e5040f3	0.20337276
197	0xbcd8ad17	-0.026449723
198	0x3e6dd79e	0.23226783
199	0x3c53c898	0.012926243
200	0xbe7e8800	-0.24856567
201	0x3dc1763a	0.09446378
202	0xba30b209	-0.00067403965
203	0xbdd3a2cb	-0.10333785
204	0x3d022ffd	0.031784046
205	0xbeb6e652	-0.35722595
206	0x3b3076b2	0.0026926217
207	0x3e5ee563	0.21767192
208	0x3dfefc89	0.12450511
209	0x3e5b2353	0.21400194
210	0x3e9f7da0	0.31150532
211	0xbcf0dcc2	-0.02940214
212	0x3d32982e	0.04360216
213	0x3bad7a06	0.0052940873
214	0xbe25b74b	-0.16183202
215	0xbd873176	-0.06601231
216	0xbe95a1c0	-0.29224968
217	0x3daf8635	0.0857052
218	0x3d78ebd0	0.060771763
219	0xbe4835e6	-0.1955181
220	0x3e39a459	0.181291
221	0xbd9c7609	-0.07639701
222	0xbe4c5ba2	-0.1995683
223	0xbdd14df6	-0.10219948
224	0xbe6d5089	-0.23175253
225	0x3ba77d09	0.005111341
226	0x3d90e813	0.07075515
227	0xbe002941	-0.12515737
228	0xbd849db6	-0.064753935
229	0xbd309cc4	-0.043118253
230	0x3d2dd19d	0.04243623
231	0x3cf6e03c	0.03013622
232	0x3db52895	0.08845631
233	0xbe5c7c5e	-0.21531817
234	0x3e5757a2	0.21029523
235	0x3e96aee7	0.29430315
236	0x3d830847	0.06398063
237	0x3b83059e	0.0039984724
238	0x3d0c1515	0.034199793
239	0x3dd99ba0	0.10625386
240	0x3daaec52	0.08345856
241	0xbd0617c3	-0.032737505
242	0x3e430811	0.19046046
243	0x3e64cd23	0.22343878
244	0xbb814fa7	-0.003946263
245	0xbcd366d0	-0.02580586
246	0xbe30ae25	-0.17253931
247	0xbe40d6fb	-0.18832009
248	0xbe3f7c77	-0.18699823
249	0x3dea49d5	0.114398636
250	0xbe6bddb5	-0.23033793
251	0x3ea7a280	0.32741165
252	0xbd925ec6	-0.07146983
253	0x3e86bc35	0.26315466
254	0x3dfcdeed	0.12347207
255	0x3c2bb710	0.010480657

critic.0.bias f4 [64]
0	0xbc804f04	-0.015662678
1	0xbc49e39c	-0.012322333
2	0xbdcfad36	-0.10140459
3	0x3c05b0d0	0.008159831
4	0x3d6f43a9	0.058414135
5	0x3ad557d9	0.0016276791
6	0xbda4dc16	-0.080497906
7	0x3cdc9cb2	0.026930187
8	0xbd50373f	-0.050833937
9	0xbdd18045	-0.102295436
10	0x3cff197f	0.031140087
11	0x3ca3439f	0.019929705
12	0xbd332b08	-0.04374221
13	0xbdf18840	-0.11793566
14	0x3d87385e	0.06602548
15	0xbb3a78d8	-0.0028453376
16	0xbd0bbad6	-0.034113728
17	0x3ded043e	0.11573075
18	0x3d9fdb6c	0.07805523
19	0xbdd60873	-0.1045083
20	0x3a3dc917	0.00072397426
21	0x3d9b18cf	0.07573091
22	0x3d9a4aa2	0.07533766
23	0xbd7ca4ee	-0.061680727
24	0xbd2a2225	-0.04153647
25	0xbd617bbf	-0.055049654
26	0xbe44ea98	-0.19230115
27	0xbd206956	-0.039162956
28	0x3c5ac74e	0.013353182
29	0x3d13fe53	0.036131214
30	0x3e00cbec	0.1257779
31	0xbc8d8ba8	-0.017278507
32	0xbb438915	-0.0029836346
33	0x3d491e67	0.04910126
34	0xbd9aee72	-0.07565011
35	0x3da58253	0.08081498
36	0xbd1b6bd8	-0.037944645
37	0x3d9c5bc8	0.076346934
38	0x3d3d40da	0.046204425
39	0x3d29fe91	0.04150254
40	0xbc826904	-0.015919216
41	0xbe33cc14	-0.17558318
42	0xbc68aef5	-0.014201869
43	0x3e22f40c	0.15913409
44	0xbc7a30e1	-0.015270443
45	0xbcb1842a	-0.021669466
46	0x3c00fc60	0.007872671
47	0xbda802bc	-0.082036465
48	0x3c4de309	0.012566336
49	0x3d9668ed	0.07344232
50	0x3d8588ae	0.0652021
51	0xbd961d4c	-0.07329807
52	0xbd813f75	-0.063109316
53	0xba5f5fc4	-0.0008521045
54	0xbd2b60a4	-0.04184021
55	0x3d3e3489	0.04643682
56	0x3d7b8b58	0.061412185
57	0xbd557b5a	-0.05211959
58	0x3d21367d	0.039358605
59	0x3c9138ab	0.017727217
60	0xbd7dfcd3	-0.06200869
61	0x3ddc569d	0.10758708
62	0x3da2e894	0.07954517
63	0xbd8c9708	-0.068647444

critic.2.weight f4 [64, 64]
0	0xbe8ec5c6	-0.27885264
1	0xbe9d578f	-0.30730864
2	0x3d121780	0.035666943
3	0x3d067669	0.03282777
4	0xbd563af8	-0.05230233
5	0xbe572c60	-0.21013021
6	0xbd9fbb71	-0.077994235
7	0xbc8057ef	-0.01566693
8	0xbd383fea	-0.04498283
9	0xbea8186d	-0.32831135
10	0x3e3bdd0e	0.18346044
11	0xbd08b7e3	-0.033378493
12	0xbdc503ec	-0.09619889
13	0xbe41d80d	-0.18930073
14	0xbe07fed8	-0.13280809
15	0x3eec9ac9	0.46211842
16	0x3d11cac2	0.035593756
17	0x3d97f242	0.07419254
18	0x3dd12ec5	0.10213999
19	0xbe19dff6	-0.1502684
20	0x3d82c3d7	0.0638501
21	0xbdbed1d2	-0.09317364
22	0x3cb78e5f	0.022406755
23	0x3e1c6dcb	0.15276258
24	0xbe58be8e	-0.21166441
25	0x3e128ca2	0.1431146
26	0x3e99c6f5	0.30034605
27	0xbc68fef3	-0.014220941
28	0x3e18b2cd	0.14911957
29	0xbe1209f1	-0.14261605
30	0xbd229c0f	-0.03969961
31	0xbe29c415	-0.16578706
32	0x3d9aa1d2	0.07550396
33	0xbccef4e2	-0.025263254
34	0xbe3c06b7	-0.18361937
35	0x3e5db87b	0.21652405
36	0xbe3515a4	-0.17684036
37	0x3cf2e9d9	0.029652523
38	0x3da4e541	0.08051539
39	0x3dd990fb	0.10623356
40	0xbe56d72e	-0.20980522
41	0x3dccb945	0.09996275
42	0x3e0f3554	0.13985187
43	0x3e8fd75c	0.28093994
44	0xbe09b5e0	-0.13448286
45	0xbca1ca28	-0.019749716
46	0x3d671eb5	0.05642577
47	0x3d43ba34	0.047785
48	0x3e065697	0.13118969
49	0x3d7c398c	0.06157832
50	0xbe0b4f90	-0.1360457
51	0x3ea7c756	0.3276927
52	0x3dd82f12	0.10555853
53	0xbe9867a8	-0.29766583
54	0xbeec4254	-0.46144354
55	0xbe903d83	-0.2817193
56	0xbead29e9	-0.33821037
57	0xbd1513fe	-0.03639602
58	0x3e911125	0.28333393
59	0xbe6017ab	-0.21884029
60	0xbdfe2ac1	-0.124104984
61	0x3e1b6403	0.1517487
62	0x3d97ada5	0.07406167
63	0x3de460f3	0.11151304
64	0xbc9f7e72	-0.019469474
65	0x3df9e05e	0.12200998
66	0x3d708d5f	0.058728572
67	0xbd2f7e21	-0.042844895
68	0x3d0dc279	0.03460929
69	0x3e85ac78	0.26108146
70	0x3e23df48	0.16003144
71	0xbdb3a368	-0.08771402
72	0x3db52bc1	0.08846236
73	0xbed9de22	-0.42552286
74	0xbe086223	-0.13318686
75	0xbe5a753e	-0.21333787
76	0xbd669e09	-0.056303058
77	0x3e58033c	0.21094984
78	0xbe4d90bb	-0.20074742
79	0xbbc1da97	-0.0059159505
80	0x3cab98cc	0.020946883
81	0xbe1a3cc8	-0.15062249
82	0xbc4148c2	-0.011797132
83	0x3e2106c5	0.15725239
84	0x3d01c09c	0.031677827
85	0xbe7303b5	-0.23731883
86	0x3e2d7dfa	0.16942587
87	0x3dc11d04	0.094293624
88	0x3d359ab6	0.044336997
89	0x3e23a478	0.15980709
90	0x3cd4c0cc	0.025970839
91	0x3c8468db	0.01616328
92	0x3d35e0fc	0.044404015
93	0x3c8c5c55	0.017133871
94	0xbd9ced83	-0.07662489
95	0xbdbbdda4	-0.09173134
96	0x3dbe9ada	0.09306879
97	0x3e674801	0.22586061
98	0x3e97eed2	0.29674393
99	0x3e20c07f	0.15698431
100	0xbcd19c6d	-0.025587285
101	0x3ddd88e9	0.10817129
102	0xbedefa6e	-0.43550438
103	0xbe6fb8bd	-0.23410316
104	0xbc4be682	-0.012445094
105	0xbe72109b	-0.23639147
106	0x3da02436	0.07819407
107	0x3e10e607	0.14150248
108	0xbea7307b	-0.32654175
109	0xbcb82ccd	-0.0224823
110	0xbe33e026	-0.17565975
111	0x3da9254f	0.08259069
112	0xbe152b21	-0.14567234
113	0x3d94387c	0.07237336
114	0xbcfc49f7	-0.030796988
115	0xbd6da5e1	-0.058019523
116	0x3b8d2c46	0.0043082563
117	0x3c411370	0.011784419
118	0x3eaee1c4	0.3415662
119	0xbd1637fc	-0.036674485
120	0xbeace80b	-0.33770785
121	0x3a45af0b	0.0007541037
122	0x3dc0c6e4	0.094129354
123	0x3ea57db7	0.32322475
124	0xbe8a79f9	-0.27046183
125	0xbe47e8a5	-0.1952234
126	0x3dc92c37	0.098228864
127	0xbd22cca2	-0.039745934
128	0x3e2a074d	0.16604348
129	0x3e284391	0.16432025
130	0xbc9ed389	-0.019387977
131	0x3de2a25a	0.11066122
132	0x3d9478f8	0.072496355
133	0x3e2b5a37	0.16733633
134	0x3c87e008	0.016586319
135	0xbe4de537	-0.2010697
136	0xbe6109ca	-0.2197639
137	0x3ea0fa25	0.31440845
138	0x3d8c45cd	0.06849251
139	0x3e9427bb	0.28936562
140	0xbd4349b3	-0.047677707
141	0x3e2b4162	0.1672416
142	0xbe52870f	-0.20559333
143	0x3da6a18c	0.08136281
144	0xbe8a71ae	-0.27039856
145	0x3bb825ce	0.005619741
146	0xbda72b08	-0.081625044
147	0x3e5300d2	0.20605782
148	0x3e6f5ec4	0.23375994
149	0x3e82b2c3	0.2552701
150	0x3dcb870b	0.09937867
151	0xbeafce2f	-0.34336993
152	0x3e489667	0.19588624
153	0x3d91af0d	0.071134664
154	0xbb8c32ec	-0.0042785313
155	0x3e0d7cb0	0.13817096
156	0x3d80542b	0.06266054
157	0xbe0ca9bb	-0.13736622
158	0x3e851be1	0.25997832
159	0xbe27a658	-0.16372049
160	0x3e0dc3d6	0.13844237
161	0xbe175e44	-0.14782053
162	0x3e6330e3	0.22186618
163	0xbdf1cc01	-0.11806489
164	0xbe001fd8	-0.12512147
165	0xbca9d221	-0.02073008
166	0xbd367c4c	-0.044552132
167	0xbd1c7f95	-0.03820761
168	0x3c2627ba	0.0101413075
169	0x3d1618c5	0.036644716
170	0x3e43aad2	0.19108132
171	0x3d840b61	0.06447483
172	0xbe11fb8e	-0.14256117
173	0xbe38a8b5	-0.18033107
174	0xbe56de17	-0.20983158
175	0xbe195348	-0.14973176
176	0x3e92f677	0.28703663
177	0xbe0c37ce	-0.13693163
178	0x3ba9d4ed	0.0051828534
179	0xbe08677d	-0.13320728
180	0xbddbcbba	-0.10732217
181	0xbe7a4473	-0.24440174
182	0xbe414856	-0.1887525
183	0xbe883a15	-0.26606813
184	0xbe8f94bb	-0.2804316
185	0x3ea45361	0.32094863
186	0xbdde62cd	-0.108586885
187	0x3dde404f	0.1085211
188	0xbe33040f	-0.17482017
189	0x3d6a68d8	0.057228893
190	0xbea30196	-0.31837147
191	0x3e71ccce	0.23613283
192	0xbd1fb272	-0.038988538
193	0x3dc23ba3	0.09484031
194	0x3ddacdb7	0.10683768
195	0x3e1395c8	0.14412606
196	0xbe51f3d2	-0.20503166
197	0x3dd2a142	0.10284664
198	0xbe678dcd	-0.22612686
199	0xbe72e56b	-0.23720329
200	0xbe815c85	-0.252659
201	0xbd8d3d05	-0.06896404
202	0xbd0130cb	-0.031540673
203	0xbe40e947	-0.18838988
204	0x3da5d2e2	0.08096863
205	0x3e0ee158	0.1395315
206	0x3d90901c	0.07058737
207	0xbe2afac8	-0.16697228
208	0xbe1ae93d	-0.15128036
209	0xbe8c6075	-0.2741734
210	0x3efb81df	0.4912252
211	0xbe73f9ff	-0.23825835
212	0xbd8da336	-0.06915896
213	0x3ed4fabb	0.41597542
214	0x3e85a208	0.26100183
215	0x3e4f507e	0.20245549
216	0xbd7c8233	-0.061647605
217	0x3d609d97	0.05483779
218	0xbcd0c23f	-0.025483249
219	0xbd302362	-0.043002494
220	0xbe5008b3	-0.20315818
221	0x3e3f533d	0.18684097
222	0x3e698d3e	0.22807786
223	0x3e14c556	0.14528403
224	0x3e39d399	0.18147124
225	0xbe6e636f	-0.23280118
226	0x3c409609	0.011754521
227	0x3dcca9ce	0.09993325
228	0xbdbbd378	-0.09171194
229	0xbe8af231	-0.27137902
230	0x3e91b405	0.28457657
231	0x3ddf3b2d	0.10899959
232	0xbd82a156	-0.06378429
233	0xbe4877f6	-0.19577011
234	0xbcd42928	-0.025898531
235	0x3df8cadc	0.12148067
236	0xbd7c06d5	-0.061529953
237	0x3ec503cf	0.38479468
238	0xbda85d5f	-0.08220934
239	0x3ca69a64	0.020337291
240	0x3c0262ce	0.007958127
241	0xbd77936b	-0.060443323
242	0xbd8d0acf	-0.06886827
243	0x3e44720a	0.19184127
244	0x3d261d17	0.040555086
245	0x3e44f3f0	0.1923368
246	0x3e0e3577	0.13887583
247	0x3c5c99fd	0.013464448
248	0xbec1fc5f	-0.37887856
249	0xbb02c1f2	-0.0019952026
250	0xbe3a788a	-0.18210045
251	0xbe117ab1	-0.1420696
252	0x3de0223a	0.10944028
253	0x3d77e097	0.06051692
254	0x3daf7cfb	0.0856876
255	0xbb6963b9	-0.0035612418

critic.2.bias f4 [64]
0	0xbcb2ac1a	-0.02181058
1	0xbd378bd4	-0.044811085
2	0xbd6aa8a2	-0.057289727
3	0x3d0fc680	0.035101414
4	0x3dba4b74	0.09096423
5	0x3cb25117	0.021767182
6	0x3c95535c	0.018228225
7	0xbc139c5a	-0.009009445
8	0x3dce26c2	0.10065986
9	0xbd7df4d8	-0.06200108
10	0x3cf426a2	0.029803578
11	0x3cf5b56b	0.029993733
12	0xbb67dd3b	-0.0035379666
13	0xbd21f67f	-0.039541718
14	0x3cfc7b18	0.030820414
15	0x3d902b1d	0.07039473
16	0x3d506067	0.050873186
17	0x3caaf96d	0.020870889
18	0x3dc1142c	0.094276756
19	0x3d091975	0.033471543
20	0x3b37c7f1	0.0028042758
21	0xbcf6f65e	-0.030146774
22	0x3c209556	0.009801229
23	0xbd38bce7	-0.045102026
24	0x3c4cf389	0.012509235
25	0x3d7219c1	0.059106592
26	0x3c84bd4a	0.016203541
27	0x3cd677c9	0.026180165
28	0xbd2d3729	-0.042288933
29	0x3ddb997f	0.107226364
30	0xbcfbc9df	-0.030735908
31	0x3d5c8b41	0.05384374
32	0xbc62dfc3	-0.013847294
33	0xbcd7aee9	-0.02632852
34	0xbd00b9d6	-0.031427227
35	0x3d81d413	0.06339278
36	0x3d018bc0	0.031627417
37	0x3d8d6e9f	0.06905865
38	0xbcfe2255	-0.03102223
39	0xbc90f489	-0.017694728
40	0xbccfcd5c	-0.025366478
41	0xbd5ea98a	-0.054360904
42	0xbca24fc2	-0.019813422
43	0x3cbc7010	0.023002654
44	0x3da68dfc	0.0813255
45	0x3dbb2377	0.09137624
46	0xbd195b58	-0.037440628
47	0xbdf55b1e	-0.1198027
48	0x3c9ac231	0.018891426
49	0x3d1b3520	0.03789246
50	0x3c8d4c3e	0.01724827
51	0xbca14e48	-0.019690648
52	0x3d84730f	0.06467258
53	0x3da01401	0.078163154
54	0x3da8f200	0.08249283
55	0x3d0f10cb	0.034928124
56	0x3d17d40f	0.03706747
57	0x3d721852	0.059105225
58	0x3d94d470	0.07267082
59	0x3c0f535b	0.008747901
60	0x3dc229a7	0.09480601
61	0x3d57c985	0.05268242
62	0x3cd38ee8	0.025824979
63	0xbc28b00c	-0.010295879

critic.4.weight f4 [1, 64]
0	0x3e23533b	0.15949719
1	0x3e3c62ae	0.18397018
2	0x3d0698ae	0.03286045
3	0xbd4256d6	-0.047446094
4	0xbe46e2ff	-0.1942253
5	0xbd9925bb	-0.074779
6	0xbe442d05	-0.19157799
7	0x3e60bc97	0.21946941
8	0xbd53420a	-0.05157665
9	0x3e3a4a4c	0.18192405
10	0xbcc68767	-0.024234487
11	0xbd836204	-0.06415179
12	0x3deaba30	0.11461294
13	0x3dba7599	0.09104461
14	0xbe5c64ea	-0.2152287
15	0xbdb9b08f	-0.09066879
16	0xbd1595b8	-0.036519736
17	0xbd3c8afe	-0.04603099
18	0xbe671b47	-0.22568999
19	0xbd596faa	-0.053085007
20	0x3dca65a3	0.09882667
21	0x3e335296	0.17511973
22	0xbe7c5d55	-0.24644978
23	0xbe09cdc7	-0.13457404
24	0xbe3ce6c5	-0.18447407
25	0xbdd49dcd	-0.103816606
26	0xbe1203cf	-0.14259265
27	0xbdbaf449	-0.09128625
28	0x3d1f0c47	0.038830068
29	0xbe2c233b	-0.16810314
30	0x3e174672	0.14772967
31	0xbdddf378	-0.108374536
32	0xbd20523e	-0.039140932
33	0x3e0d5b32	0.1380432
34	0x3df29dd8	0.118465126
35	0xbd70f430	-0.058826625
36	0xbdeb3814	-0.114853054
37	0xbd7566c9	-0.059912477
38	0x3d893787	0.06700044
39	0x3db6baa9	0.08922321
40	0x3ce8863e	0.028384324
41	0x3da63636	0.08115809
42	0x3e1bc470	0.15211654
43	0xbe2ec23b	-0.1706628
44	0xbe9edf79	-0.3102987
45	0xbe1d2579	-0.15346326
46	0x3c9af938	0.018917665
47	0x3e2f0164	0.17090374
48	0xbd635483	-0.05550052
49	0xbdd385f2	-0.103282824
50	0xbe482beb	-0.19548003
51	0x3e87712a	0.26453525
52	0xbdabae36	-0.083828375
53	0xbe4516a6	-0.19246921
54	0xbe5653fd	-0.20930476
55	0x3b41c214	0.0029565142
56	0xbdfb094c	-0.122576326
57	0xbdb9fd48	-0.09081513
58	0xbe2dcbe7	-0.16972314
59	0xbd3aa081	-0.045563225
60	0xbe93fb16	-0.289025
61	0xbdfe50ee	-0.1241778
62	0xbd96858e	-0.07349692
63	0x3dd3cd53	0.10341897

actor_mean.0.weight f4 [64, 42]
0	0x3da8be4d	0.08239422
1	0x3dc2fd90	0.095210195
2	0x3d35d775	0.04439493
3	0x3e1830f6	0.14862427
4	0xbe2bb6b0	-0.16768909
5	0x3dbf3b45	0.09337477
6	0x3e9f9dd2	0.31175095
7	0xbed79c74	-0.42111552
8	0xbd85181a	-0.06498738
9	0xbdb31d91	-0.08745874
10	0xbd914f58	-0.07095212
11	0xbe28bd30	-0.1647842
12	0xbec50c6a	-0.38486034
13	0x3e83d335	0.25747076
14	0x3ddbd50b	0.10733994
15	0x3da7e5bc	0.08198115
16	0x3ef4590a	0.4772418
17	0x3d5c274b	0.05374841
18	0xbe3c9a61	-0.18418266
19	0x3d8a139e	0.06742023
20	0xbe33bae9	-0.1755177
21	0x3dae053d	0.08497093
22	0x3df782b1	0.12085474
23	0x3ec9a743	0.39385423
24	0xbdd5e050	-0.10443175
25	0xbc938b15	-0.018010655
26	0x3de8a074	0.11358729
27	0x3c1ab28d	0.009441984
28	0xbdc2560f	-0.094890706
29	0xbd6ae1cc	-0.057344243
30	0x3ddf2315	0.10895363
31	0x3dde2d9e	0.108485445
32	0x3e62a323	0.22132544
33	0x3dfb8da9	0.12282879
34	0x3e023cbe	0.12718484
35	0xbde08256	-0.109623596
36	0xbba8ad34	-0.0051476005
37	0xbb84efca	-0.0040569054
38	0xbe14ca34	-0.1453026
39	0x3db12d04	0.08651164
40	0xbe877554	-0.26456702
41	0x3ddd2b62	0.1079929
42	0x3e412b54	0.18864185
43	0x3cc96036	0.02458201
44	0xbeaf9f22	-0.34301096
45	0xbda06e3a	-0.07833524
46	0x3d8fc369	0.070196934
47	0x3e06db6d	0.13169642
48	0xbea1eba1	-0.31625083
49	0x3dee4158	0.11633557
50	0x3db1aa31	0.086750396
51	0xbbde1092	-0.0067768777
52	0xbbf18d60	-0.0073715895
53	0xbe10df9c	-0.141478
54	0x3d05a5d8	0.032628864
55	0x3e785bd9	0.24253787
56	0x3e9f6211	0.31129506
57	0xbca98ee6	-0.020698022
58	0x3cbc3ded	0.022978747
59	0xbe076bea	-0.1322476
60	0x3e400c8b	0.18754785
61	0xbd9b6da7	-0.07589274
62	0x3dc71a7d	0.09721849
63	0xbd72a8be	-0.059242956
64	0xbe20b815	-0.15695222
65	0xbd8ec7d4	-0.06971708
66	0xbce103f4	-0.027467705
67	0x3e133058	0.1437391
68	0xbe620020	-0.2207036
69	0x3d577a9d	0.052607168
70	0x3e5ac799	0.21365203
71	0x3ea46e5a	0.32115442
72	0x3bf39175	0.0074331113
73	0x3e59f24e	0.21283838
74	0xbdf84ea9	-0.12124378
75	0x3e2d0a0b	0.16898362
76	0xbde3c515	-0.11121575
77	0x3eed83cb	0.46389613
78	0xbca215ec	-0.019785844
79	0x3e9a76f2	0.30168873
80	0x3dab6a16	0.08369844
81	0xbdfab5a2	-0.12241675
82	0x3e8e5beb	0.27804503
83	0x3e9e40e3	0.3090888
84	0x3df49bef	0.119438045
85	0x3b3388a6	0.0027394681
86	0x3d23efa3	0.040023457
87	0x3aad71a2	0.0013232718
88	0xbd3ae599	-0.045629118
89	0x3d0374cc	0.032093808
90	0xbec45f7e	-0.38354105
91	0xbeb79969	-0.3585923
92	0x3d993c9a	0.07482262
93	0x3e721330	0.23640132
94	0x3d242d65	0.040082354
95	0x3e8672c7	0.26259443
96	0x3e4fb5ca	0.20284191
97	0xbef56239	-0.479265
98	0x3e3c28b5	0.18374904
99	0xbde475ef	-0.111553065
100	0xbc432b7f	-0.011912226
101	0x3db38eaa	0.087674454
102	0xbe5496e0	-0.20760679
103	0x3dc84dec	0.097804874
104	0x3e796d46	0.24358091
105	0xbd8549dc	-0.06508228
106	0x3db37b8e	0.087638006
107	0x3ce5df78	0.02806066
108	0xbd7f5ba7	-0.062343266
109	0xbceb47a8	-0.028720692
110	0x3ea37819	0.31927565
111	0xbcf73488	-0.030176416
112	0x3e30341f	0.17207383
113	0x3e464d9e	0.19365546
114	0xbe71f538	-0.236287
115	0x3e448c10	0.19194055
116	0xbd4f1137	-0.050553527
117	0x3df615e1	0.12015892
118	0xbe9feba6	-0.31234473
119	0x3c3eacdf	0.011637895
120	0xbe438e55	-0.19097264
121	0x3d398026	0.045288227
122	0xbe78b742	-0.24288657
123	0xbdb63eee	-0.08898722
124	0xbd156e95	-0.036482412
125	0xbd2ca301	-0.04214764
126	0xbe5ab0ea	-0.2135655
127	0xbeafc849	-0.34332493
128	0xbe919b01	-0.2843857
129	0x3e42ef47	0.1903659
130	0x3d1187bc	0.035529837
131	0x3c36989c	0.011144783
132	0xbb128abc	-0.0022360524
133	0xbd193989	-0.037408385
134	0xbe77d81c	-0.24203533
135	0x3dfea982	0.12434675
136	0xbdbe6dcc	-0.09298286
137	0xbe2d2172	-0.1690729
138	0x3d479fa8	0.048736244
139	0x3e8f0683	0.27934656
140	0x3b8f90aa	0.004381259
141	0x3d5c5e8a	0.053801097
142	0x3e5bd653	0.21468477
143	0x3e93685b	0.28790554
144	0x3e1dd33a	0.15412608
145	0x3e04e823	0.12979178
146	0x3c849a08	0.01618673
147	0xbd0d5ffc	-0.034515366
148	0x3e72a054	0.23693973
149	0x3cf9ced1	0.030494126
150	0x3e1ca0fa	0.15295783
151	0xbe14527f	-0.14484595
152	0x3dc68114	0.096925884
153	0x3ddc6c05	0.107627906
154	0x3e3d14e2	0.18464997
155	0x3ecb45dc	0.39701736
156	0xbe911a14	-0.2834021
157	0x3e19ae99	0.1500801
158	0x3e8a4afd	0.27010337
159	0x3d134a6c	0.035959646
160	0x3e55fb11	0.20896555
161	0x3d3cc0c5	0.046082277
162	0xbd5dc34c	-0.054141328
163	0xbb35fe54	-0.002777
164	0x3e6cc477	0.2312182
165	0x3de1c1bb	0.11023279
166	0x3dbd9ce0	0.09258437
167	0x3e072939	0.13199319
168	0x3cb0c14c	0.021576546
169	0x3df255ad	0.118327476
170	0x3e6bab6e	0.23014614
171	0xbe8f13d1	-0.27944806
172	0x3e0e45f8	0.13893878
173	0xbdbb5718	-0.09147471
174	0xbf0f6764	-0.56017137
175	0xbda76504	-0.08173564
176	0x3e8268a7	0.25470468
177	0xbd263f21	-0.04058755
178	0x3e223764	0.15841442
179	0xbe69d5d6	-0.22835478
180	0xbea36b61	-0.3191786
181	0x3dacea2c	0.08443102
182	0xbe1c4743	-0.15261559
183	0x3dd41ee0	0.103574514
184	0xbe035c31	-0.12828137
185	0xbe563110	-0.20917153
186	0x3e5c656a	0.21523061
187	0xbe324fb6	-0.1741322
188	0x3ece5bfa	0.40304548
189	0x3d755ae2	0.059901126
190	0xbea58945	-0.3233129
191	0xbd876fdf	-0.066131346
192	0x3de96b77	0.113974504
193	0xbda82767	-0.082106404
194	0x3e5d8bba	0.21635333
195	0xbe215bff	-0.1575775
196	0xbd22f4c5	-0.03978421
197	0xbe5b427f	-0.21412085
198	0xbd530dab	-0.051526707
199	0x3e53e07a	0.206911
200	0x3e7397da	0.23788396
201	0x3df4d1a3	0.119540475
202	0xbe44670c	-0.19179934
203	0x3c9080b5	0.017639497
204	0x3c24e799	0.010064983
205	0x3c01b4b9	0.007916623
206	0x3df093e4	0.11746958
207	0x3e06f5b0	0.1317966
208	0xbe76553f	-0.24055956
209	0x3e9ee17b	0.31031403
210	0x3e2db503	0.16963582
211	0xbe88b16a	-0.26697856
212	0xbe4d168c	-0.20028132
213	0x3e98e6d8	0.2986362
214	0xbd9186e1	-0.07105804
215	0x3d111fd3	0.03543074
216	0xbe8cdca1	-0.27512076
217	0xbdb62ce7	-0.08895283
218	0xbda2b426	-0.07944517
219	0x3eb14fd7	0.34631225
220	0xbd0952b3	-0.033526134
221	0x3db0ab89	0.08626468
222	0xbe57d69f	-0.21077965
223	0x3db3007f	0.08740329
224	0xbd9ba671	-0.076001056
225	0xbdf5cf31	-0.12002409
226	0x3da2d9d0	0.07951701
227	0x3e8d24e0	0.27567196
228	0x3d9f2a31	0.07771719
229	0xbd28b20e	-0.04118543
230	0xbdd4b1c8	-0.103854716
231	0x3e41ffb8	0.18945205
232	0x3cc3d5aa	0.023905594
233	0x3cf05679	0.029338108
234	0x3e0096b8	0.12557495
235	0x3e227795	0.1586593
236	0xbd8eafac	-0.069671005
237	0xbd8578bd	-0.065171696
238	0x3d113cee	0.035458498
239	0xbe3b4561	-0.18288185
240	0x3e0c3775	0.1369303
241	0x3d090d55	0.03345998
242	0x3e5dfa0a	0.21677414
243	0x3e2568ba	0.16153231
244	0x3e144fa8	0.14483511
245	0xbdd33bda	-0.1031415
246	0xbd801a53	-0.06255021
247	0x3e1986bc	0.14992803
248	0x3dff28b2	0.12458934
249	0x3de79117	0.113069706
250	0xbeba139b	-0.36343083
251	0x3e6ff05e	0.23431537
252	0xbd844dd4	-0.06460157
253	0x3e6b271b	0.22964136
254	0x3e9e649f	0.30936143
255	0x3e5c50b7	0.21515165

actor_mean.0.bias f4 [64]
0	0x3d8d5bb1	0.069022544
1	0xbd820a8e	-0.063496694
2	0xb959885d	-0.00020745532
3	0xbd1b9787	-0.037986305
4	0x3ced678d	0.02898004
5	0x3bacaa89	0.005269353
6	0x3d37d376	0.0448794
7	0x3d3056d8	0.04305157
8	0x3bcdcda0	0.006280616
9	0xbcf7a8a8	-0.030231789
10	0x3d40fb3d	0.0471146
11	0x3d72916e	0.059220724
12	0xba9cb3b9	-0.0011955417
13	0x3cf99d37	0.030470474
14	0x3c51dd0d	0.01280905
15	0x3cc4fc1d	0.024045998
16	0xbd9a9744	-0.07548383
17	0xbc140ed4	-0.009036738
18	0x3c0c5d8f	0.008567228
19	0xb9a43642	-0.00031320943
20	0x3b3c6f46	0.0028752848
21	0xbd4f0b36	-0.0505478
22	0xbc824a81	-0.015904667
23	0xbbed5eb2	-0.0072439546
24	0x3cab2fe5	0.020896861
25	0xbd9877c8	-0.074447215
26	0xbd8c2bc6	-0.068442866
27	0xbdd81c99	-0.105523296
28	0xbd8a9c6a	-0.06768115
29	0x3ca9a9cb	0.020710846
30	0xbce6f8c7	-0.028194798
31	0x3cd3b277	0.025841935
32	0x3d1b965f	0.037985202
33	0xbd370338	-0.044680804
34	0xbc2c63e4	-0.010521863
35	0xbd1f7b34	-0.038935855
36	0x3d1282d6	0.035769306
37	0x3d0fa8f0	0.03507322
38	0xbc8a6dc5	-0.016898045
39	0x3b831d0e	0.0040012663
40	0xbd4e7191	-0.050401274
41	0x3caca9f6	0.021077137
42	0xbd95cce8	-0.073144734
43	0xbce3a00c	-0.027786277
44	0x3c655859	0.0139981145
45	0x3b64d880	0.0034919083
46	0x3cc90ef5	0.024543265
47	0xbbb9a5cd	-0.005665517
48	0xbc53211b	-0.012886311
49	0xbd0970ee	-0.033554964
50	0x3cafd73d	0.021464938
51	0x3d0dbf43	0.03460623
52	0xbde61732	-0.11234893
53	0x3dace74b	0.08442553
54	0xbcc8a3cf	-0.024492173
55	0x3cfb238b	0.030656597
56	0x3d55b9e3	0.05217923
57	0xbb1c7c86	-0.0023877933
58	0xbd922cc9	-0.07137448
59	0x3d86fded	0.06591401
60	0x3c60f9c6	0.013731426
61	0xbcd4c91d	-0.025974805
62	0xbc9af5f5	-0.01891611
63	0x3c432ff7	0.011913291

actor_mean.2.weight f4 [64, 64]
0	0x3dffaee4	0.124845296
1	0xbd0376d2	-0.032095738
2	0x3d8c8bb5	0.068625845
3	0x3ca1027d	0.019654507
4	0x3c5f90e4	0.013645384
5	0xbc3aff3b	-0.011413391
6	0xbe4d46e3	-0.20046572
7	0x3e0537b1	0.13009526
8	0xbc5f8716	-0.013643047
9	0xbeb4c977	-0.35309955
10	0x3d9dea71	0.07710732
11	0xbe87f623	-0.26554975
12	0x3e93470c	0.28765142
13	0x3d8caa65	0.06868438
14	0x3ec8f980	0.39252853
15	0xbd1da39c	-0.03848611
16	0xbd5c1154	-0.053727463
17	0xbd016dfb	-0.031599026
18	0x3de81568	0.11332208
19	0x3ef0af77	0.4700887
20	0x3e848dc1	0.258894
21	0xbe846ceb	-0.25864348
22	0x3e294b28	0.16532576
23	0xbe1f9532	-0.15584257
24	0x3e525729	0.20541061
25	0xbe71ce10	-0.23613763
26	0xbea021de	-0.3127584
27	0x3d3da6d4	0.046301678
28	0xbe48e903	-0.19620137
29	0x3e33cce8	0.17558634
30	0xbec9e9b6	-0.3943612
31	0xbeb0beb1	-0.34520486
32	0xbd939edd	-0.07208035
33	0xbeccb170	-0.39979124
34	0x3e01a9c2	0.12662414
35	0x3e45a428	0.19300902
36	0xbde5ef05	-0.1122723
37	0x3df501bb	0.11963221
38	0xbd99764d	-0.07493267
39	0xbcbdc659	-0.023165869
40	0xbe8a4ba3	-0.2701083
41	0x3de731dc	0.11288807
42	0xbe0ccbd4	-0.1374963
43	0xbd32529b	-0.04353581
44	0xbe097b2d	-0.13425894
45	0x3ea0bc1b	0.31393513
46	0xbec1b588	-0.3783381
47	0x3d3ea127	0.046540406
48	0xbe921486	-0.28531283
49	0xbe724218	-0.23658025
50	0xba1b83d2	-0.00059324235
51	0x3cf5cafc	0.030004017
52	0x3e2a12d4	0.16608745
53	0x3e95cd72	0.29258305
54	0xbd41d6c5	-0.04732396
55	0xbe9152fe	-0.2838363
56	0xbdc485b3	-0.095958136
57	0x3c9f8c45	0.019476065
58	0xbda34ed0	-0.07974017
59	0x3d8d3503	0.06894877
60	0xbdcc9f67	-0.09991341
61	0xbe53e203	-0.20691685
62	0x3ec15ae2	0.3776465
63	0xbe78935e	-0.24274966
64	0x3d015041	0.031570677
65	0x3e9c3819	0.3051155
66	0xbd337363	-0.043811213
67	0xbe56d920	-0.20981264
68	0xbdb9edd7	-0.090785675
69	0xbd566c53	-0.0523494
70	0xbd72d682	-0.0592866
71	0x3c3b07aa	0.0114154015
72	0xbe36890e	-0.1782572
73	0x3e27610a	0.16345611
74	0xbc96223b	-0.01832687
75	0x3ddbd2ea	0.10733588
76	0xbe4b426c	-0.19849557
77	0x3e301a61	0.17197563
78	0xbeb48d7a	-0.35264188
79	0x3cd42f58	0.025901482
80	0x3ea2b402	0.3177796
81	0x3c8bc8af	0.017063467
82	0xbe0a288e	-0.13492033
83	0x3cf0ce62	0.029395286
84	0x3e126ee4	0.14300114
85	0xbd299f69	-0.04141179
86	0x3e253bae	0.16136047
87	0x3d8fcbeb	0.07021316
88	0xbe7141e9	-0.23560299
89	0x3da1b931	0.078966506
90	0xbe544bb9	-0.20732011
91	0xbd230461	-0.039799098
92	0x3d1945d4	0.03742011
93	0xbe89771a	-0.2684868
94	0x3e1a837f	0.15089224
95	0x3e04f469	0.1298386
96	0xbd8ed143	-0.06973507
97	0xbd297785	-0.04137375
98	0x3ec7507c	0.38928592
99	0xbda7f533	-0.08201065
100	0x3ead4f13	0.3384939
101	0x3c900f8b	0.017585536
102	0x3ebe1da7	0.37131998
103	0x3cf0beb0	0.029387802
104	0xbda2768d	-0.07932768
105	0xbe1da552	-0.15395096
106	0x3e59a51e	0.21254393
107	0x3cf2f5e4	0.029658265
108	0xbea4ee78	-0.32213187
109	0xbee70cf9	-0.45127085
110	0xbe88341c	-0.26602256
111	0x3ecee8c0	0.4041195
112	0x3e1e9aea	0.15488783
113	0x3d6c395b	0.057671886
114	0x3dbd927e	0.09256457
115	0x3eb3b3b2	0.35098034
116	0xbe19cc3e	-0.15019318
117	0x3d675e9b	0.056486707
118	0xbb7ce93d	-0.003859117
119	0x3c71bcc7	0.014754481
120	0xbe404b5f	-0.18778752
121	0x3ddc199d	0.10747073
122	0xbdb9f236	-0.09079401
123	0x3e04d2b0	0.12970996
124	0xbe0104c1	-0.1259947
125	0x3ebb3af0	0.36568403
126	0xbcb1f430	-0.021722883
127	0x3d3a91c7	0.04554918
128	0x3d6327e7	0.055457976
129	0x3d405fa1	0.0469662
130	0xbd7e5331	-0.062091056
131	0xbe3ba8c7	-0.18326102
132	0x3e13b009	0.14422621
133	0xbdac9030	-0.08425939
134	0xbe1b1ba0	-0.15147257
135	0x3e4d632a	0.2005736
136	0xbe31e1b9	-0.17371263
137	0xbe5a9329	-0.213452
138	0xbd3261af	-0.04355019
139	0xbc101929	-0.008795061
140	0x3e26b90d	0.16281529
141	0xbcbb5aaa	-0.02287038
142	0xbe6090aa	-0.21930185
143	0x3e8ee38b	0.27907977
144	0x3e2cf921	0.1689191
145	0x3c89c972	0.01681969
146	0x3e8fb16a	0.28065044
147	0x3eaa26d0	0.33232737
148	0xbe6ed1e7	-0.23322259
149	0xbe2137f3	-0.15743999
150	0xbd072aca	-0.03299979
151	0xbe56d459	-0.20979442
152	0xbeaf8ce2	-0.34287173
153	0xbda7e574	-0.081980616
154	0xbc968442	-0.018373612
155	0x3d919db8	0.071101606
156	0x3e8a8af7	0.27059147
157	0xbe19ced5	-0.15020306
158	0xbd927618	-0.07151431
159	0x3e492275	0.1964205
160	0x3e0c7f41	0.13720419
161	0xbd4e1679	-0.0503144
162	0xbc4b65d7	-0.012414417
163	0x3db311e3	0.08743646
164	0xbe9d3499	-0.3070419
165	0xbe8dc3d0	-0.27688456
166	0x3e710b65	0.23539503
167	0x3eef530f	0.46743056
168	0xbc161434	-0.00916009
169	0x3e83911d	0.2569665
170	0x3d828d77	0.063746385
171	0x3e2c28af	0.16812395
172	0xbc91a084	-0.017776735
173	0x3d7e79d5	0.062127907
174	0x3ce66dde	0.02812856
175	0x3e7d3cdf	0.24730252
176	0x3e0750c2	0.132144
177	0xbb29e2cf	-0.0025922542
178	0xbd7412c2	-0.0595882
179	0x3e1e5e8b	0.15465753
180	0x3de03ccc	0.10949096
181	0x3ca8ea49	0.020619528
182	0x3e7879b3	0.24265175
183	0x3e814a03	0.2525178
184	0xbe0f83da	-0.14015141
185	0x3e13e03d	0.14441009
186	0x3e952bc2	0.29134947
187	0xbd515e87	-0.05111554
188	0x3ddcfd9b	0.10790559
189	0x3ddf12af	0.108922355
190	0xbe5f8ee1	-0.21831848
191	0xbedecc81	-0.435154
192	0xbe270b73	-0.16312961
193	0xbec2d527	-0.38053247
194	0xbe548878	-0.20755184
195	0xbe8036c0	-0.2504177
196	0xbd62275f	-0.05521333
197	0xbdbb75a4	-0.091532975
198	0xbd59aeba	-0.053145148
199	0x3e3198b0	0.17343402
200	0x3d0041bf	0.0313127
201	0x3b0e0a31	0.0021673555
202	0xbe4f1634	-0.20223314
203	0xbe7d4bd0	-0.24735951
204	0x3dbb1303	0.091344856
205	0x3d3526ce	0.04422646
206	0xbdfc5b55	-0.12322108
207	0x3e41587c	0.1888141
208	0xbe763329	-0.24042954
209	0xbdd034bf	-0.101663105
210	0xbe10277e	-0.14077565
211	0x3da109f3	0.07863226
212	0x3e1746b7	0.1477307
213	0xbe7786e8	-0.24172556
214	0xbe62fe14	-0.22167236
215	0x3e682d46	0.2267352
216	0xbe98b18f	-0.29822966
217	0x3e26191c	0.16220516
218	0x3e7c2bd8	0.246261
219	0xbc89f41e	-0.016840037
220	0x3d4f0ce5	0.050549407
221	0x3d97896f	0.0739926
222	0x3e7177a5	0.23580797
223	0x3e256523	0.16151862
224	0x3c8bbc43	0.017057544
225	0x3da063d2	0.07831539
226	0x3e0801dc	0.1328196
227	0xbdeacede	-0.11465238
228	0xbe7fbbe5	-0.2497402
229	0xbcfd9f18	-0.03095965
230	0x3e2bf4d4	0.16792613
231	0x3e87df5d	0.265376
232	0xbe7fe30f	-0.2498896
233	0xbe5315ba	-0.20613757
234	0xbe093af7	-0.134014
235	0xbedc06e5	-0.4297401
236	0xbe98c7af	-0.29839846
237	0x3e7f4d51	0.24931838
238	0x3e111290	0.14167237
239	0x3e40690e	0.18790075
240	0x3e32dba4	0.17466599
241	0xbe8dd088	-0.2769816
242	0x3e4af04d	0.1981823
243	0x3d87b404	0.06626132
244	0xbe3b08f6	-0.18265137
245	0x3c3e086a	0.011598686
246	0xbe006987	-0.12540255
247	0x3ce07ee8	0.027404264
248	0x3e6fadbf	0.23406123
249	0x3d8eb521	0.06968141
250	0x3e09734f	0.13422893
251	0xbe925ac7	-0.28584883
252	0x3df23c8d	0.118279554
253	0xbd930b29	-0.07179863
254	0x3d49723a	0.0491812
255	0x3e3b9723	0.18319373

actor_mean.2.bias f4 [64]
0	0x3d182c60	0.037151694
1	0xbda6d684	-0.08146384
2	0x3c8c5997	0.017132564
3	0x3d0511a4	0.032487527
4	0x3bd79c4e	0.0065799123
5	0x3bdac89a	0.0066767456
6	0xbc901ec2	-0.017592791
7	0x3d7a9031	0.061172668
8	0xbd02b8f0	-0.03191465
9	0xbc42d64a	-0.011891911
10	0x3d361fbe	0.044463865
11	0x3b27a71f	0.002558179
12	0x3d32f32c	0.043688938
13	0x3ca94a53	0.020665323
14	0x3d3ce993	0.04612119
15	0x3d2d94a0	0.042378068
16	0x3d6a2b0e	0.057169966
17	0x3d92a4a8	0.07160312
18	0xbd4a3421	-0.04936612
19	0xbceb428d	-0.028718257
20	0xba16e995	-0.00057568523
21	0xbd0d53c1	-0.034503702
22	0xbcc42ad4	-0.023946203
23	0x3ce6693b	0.02812635
24	0x3d6b98f1	0.057518903
25	0x3c4fac02	0.012675287
26	0x3cbdc55c	0.023165397
27	0x3c00003b	0.007812555
28	0x3cc10730	0.023562998
29	0xbd0275f9	-0.03185079
30	0xbd542997	-0.051797476
31	0xbbf6a32c	-0.007526776
32	0x3cc931a1	0.024559798
33	0x3cca7286	0.024712812
34	0xbc19f72a	-0.009397307
35	0x3c4fb664	0.012677763
36	0x3d0f0741	0.034919027
37	0x3cdb1585	0.02674366
38	0x3cd33854	0.025783695
39	0x3cfd080f	0.030887632
40	0x3da8d645	0.08243994
41	0xbd3dfbec	-0.04638283
42	0x3db5a508	0.08869368
43	0xbce1494a	-0.027500767
44	0x3bb6cfbc	0.005578963
45	0x3bbbcf8e	0.0057315296
46	0xbbcc4d38	-0.006234791
47	0x3d685776	0.056724034
48	0x3bf06229	0.0073359204
49	0x3ceb8840	0.028751493
50	0xbbba3525	-0.005682605
51	0xbcea8d25	-0.028631756
52	0x3c679092	0.014133589
53	0x3ca4e5d7	0.020129127
54	0xbd71a64f	-0.058996495
55	0xbbc4f7bc	-0.0060109776
56	0xbcf75512	-0.030191932
57	0x3c05d930	0.008169457
58	0xbd8e5001	-0.06948853
59	0x3d35df6c	0.044402525
60	0xbd8da2fe	-0.06915854
61	0x3c5755d7	0.013143024
62	0xbd266cd0	-0.040631115
63	0x3cc2653f	0.023729919

actor_mean.4.weight f4 [2, 64]
0	0x3de6e463	0.1127403
1	0xbcd82710	-0.026385814
2	0xba83959a	-0.0010039092
3	0xbcc7be63	-0.024382776
4	0xbc930b0f	-0.01794961
5	0xbbc603b6	-0.006042923
6	0xbd0ffca8	-0.03515306
7	0xbd18825d	-0.0372337
8	0xbd84e386	-0.06488709
9	0x3d9aecd2	0.07564701
10	0x3dc45ff3	0.09588613
11	0xbd2c7445	-0.04210307
12	0xbc37b5a7	-0.011212743
13	0xbd1a880b	-0.037727397
14	0xbd4d999f	-0.050195333
15	0x3d763db9	0.060117457
16	0x3c754210	0.014969364
17	0x3d50c1fb	0.050966244
18	0x3d809e03	0.06280138
19	0x3d575b27	0.052577164
20	0xbda7e88f	-0.08198654
21	0x3d347c9b	0.044064146
22	0x3d728368	0.05920735
23	0xbc012174	-0.007881511
24	0xbd88ebc9	-0.066855974
25	0xbb43000a	-0.0029754662
26	0xbda2193e	-0.07914971
27	0xbb81cfd8	-0.0039615445
28	0x3db5b8c8	0.08873135
29	0x3cc9f8cf	0.024654774
30	0xbd09c922	-0.03363908
31	0x3cd9ca8a	0.026585836
32	0xbc1d4b82	-0.009600522
33	0x3d40ffe0	0.04711902
34	0xbd14ee26	-0.03635993
35	0xbd48b79e	-0.049003236
36	0x3d0cd8a2	0.034386285
37	0xbcbe1ba4	-0.02320654
38	0x3d5566f3	0.052100133
39	0x3c4726aa	0.012155214
40	0xbc84068a	-0.0161164
41	0x3d414812	0.047187872
42	0xbd3486c0	-0.04407382
43	0xbc34bc2b	-0.011031191
44	0x3c9add18	0.018904254
45	0xbd831452	-0.0640036
46	0xbde6b5b2	-0.112651244
47	0xbd238c10	-0.039928496
48	0x3c362439	0.011117035
49	0x3d2afc5b	0.04174457
50	0x3c853496	0.016260426
51	0x3c8d0a2b	0.017216763
52	0x3d1dce2d	0.038526703
53	0x3e088fbf	0.13336085
54	0x3d220e62	0.039564498
55	0x3da1703d	0.07882736
56	0xbd287c40	-0.04113412
57	0xbce4f1bd	-0.027947301
58	0xbd0af602	-0.033926018
59	0x3c6b57c6	0.014364189
60	0xbd13ec63	-0.036114108
61	0x3c944c3c	0.018102758
62	0x3bdef0f5	0.0068036267
63	0xbcf1c1a8	-0.029511288
64	0xbd40e8ae	-0.0470969
65	0xbd4d09ea	-0.050058283
66	0xbddaaefd	-0.106779076
67	0xbd6fe7e5	-0.05857076
68	0xbd8e482e	-0.06947361
69	0xbdba5c93	-0.090996884
70	0x3d1d21c3	0.038362276
71	0xbbf7f3ce	-0.0075669056
72	0xbb276c3b	-0.0025546688
73	0x3c57238d	0.013131035
74	0xbd13f17d	-0.036118973
75	0xbda252b0	-0.07925928
76	0xbc368cd2	-0.011141973
77	0xbd3a8cf9	-0.0455446
78	0xbcfe1d40	-0.031019807
79	0xbc9d98f8	-0.01923798
80	0xbd643d45	-0.055722494
81	0xbc25a372	-0.010109769
82	0xbc01099a	-0.007875824
83	0x3d087e31	0.03332347
84	0xbafb3e6d	-0.0019168385
85	0x3d49b507	0.049244907
86	0x3d662f67	0.05619755
87	0xbced72c6	-0.028985392
88	0x3ce159ef	0.027508704
89	0x3dca79f6	0.098865435
90	0x3d715ba7	0.058925297
91	0xbd14d492	-0.036335535
92	0xbd14e129	-0.036347542
93	0x3da7edde	0.081996664
94	0xbd75e88b	-0.060036223
95	0xbcabf65f	-0.020991502
96	0xbd64c5f0	-0.05585283
97	0xbd1a8b56	-0.037730537
98	0x3ba80b52	0.0051283026
99	0xbb42f70a	-0.0029749298
100	0xbd028d8d	-0.031873275
101	0xbc24c808	-0.010057457
102	0x38b33d5e	8.546816e-05
103	0xbd4409cf	-0.047860917
104	0x3dfdfd35	0.12401811
105	0x3da6da28	0.08147079
106	0xbb9f7920	-0.004866734
107	0xbdeff10d	-0.11715899
108	0xbd63ab59	-0.05558333
109	0x3dd30395	0.103034176
110	0xbb766c4e	-0.0037601176
111	0xbd0f348c	-0.034962222
112	0xbe22e773	-0.15908603
113	0xbb58878e	-0.0033039781
114	0xbd0ec857	-0.034859028
115	0x3d8f8502	0.07007791
116	0xbc5c5c44	-0.013449732
117	0xbcf35474	-0.029703356
118	0xbbdc9efb	-0.006732819
119	0x3b97f383	0.004637183
120	0xbd680ed9	-0.056654785
121	0xbd7cdffc	-0.061737046
122	0xbd965aeb	-0.0734156
123	0xbd102c14	-0.035198286
124	0x3d042133	0.032258224
125	0xbce6e1b2	-0.028183792
126	0x3d3e7fdc	0.046508655
127	0xbd904f3c	-0.07046363

actor_mean.4.bias f4 [2]
0	0xbb6bc885	-0.0035977673
1	0xbcc5e25f	-0.024155794
