jsbgym/models/train_saves/ppo_ts3e-2_beta0.15_26985_19-01_13:23:55.pt (torch, 62364 bytes, 14 tensors)

actor_logstd f4 [1, 2]
0	0x3cfbbb90	0.030729085
1	0xbe301166	-0.17194137

conv.0.weight f4 [3, 1, 5, 1]
0	0x3e713bdb	0.2355799
1	0x3e1d632c	0.15369862
2	0x3f0da0c7	0.5532345
3	0x3f4bc456	0.7959646
4	0xbf3761ad	-0.71633416
5	0x3e3f35ca	0.18672863
6	0xbec47b8e	-0.38375515
7	0x3f42ce24	0.76095796
8	0xbf082dfb	-0.5319516
9	0x3f08b677	0.5340342
10	0xbf773fa3	-0.96581477
11	0xbf1f315e	-0.62184703
12	0xbe192f52	-0.14959458
13	0xbf0db7b7	-0.5535845
14	0xbf14492e	-0.57924163

conv.0.bias f4 [3]
0	0x3bd94318	0.0066303127
1	0xbd56d9e2	-0.052453883
2	0xbd8a24e9	-0.06745321

critic.0.weight f4 [64, 42]
0	0x3edb9657	0.42888138
1	0x3e1e1cbc	0.15440649
2	0xbc3f1463	-0.011662575
3	0x3d7115c6	0.058858655
4	0xbeadc026	-0.3393566
5	0x3cb35740	0.02189219
6	0xbe1da9d2	-0.15396813
7	0xbd54a61b	-0.051916223
8	0xbd9bee9b	-0.0761387
9	0xbde8d831	-0.1136936
10	0xbdba0c22	-0.090843454
11	0xbd8a9335	-0.06766359
12	0x3ea5358c	0.32267416
13	0x3e29a0cf	0.1656525
14	0x3df8b0be	0.12143086
15	0xbdde37d1	-0.1085049
16	0xbe0189eb	-0.12650268
17	0xbe190c51	-0.14946105
18	0x3d5f0447	0.05444744
19	0xbe106a65	-0.14103086
20	0x3ecaf190	0.39637423
21	0x3d98d14e	0.07461797
22	0x3d59501c	0.053054914
23	0x3d1f1974	0.038842633
24	0x3d1db75d	0.038504947
25	0xbeaf3fab	-0.34228262
26	0x3ef9b743	0.4877263
27	0x3dcdff16	0.100584194
28	0xbe477e58	-0.1948179
29	0xbe72ef4d	-0.23724099
30	0x3e428c25	0.18998773
31	0xbe17034b	-0.1474735
32	0xbdb0ca0f	-0.086322896
33	0x3dafc66c	0.08582768
34	0xbe24a5b9	-0.16078843
35	0xbe66566e	-0.22493908
36	0xbd183688	-0.03716138
37	0xbe6b453b	-0.22975628
38	0x3da4af46	0.08041243
39	0xba52a4db	-0.00080354296
40	0x3c8357ab	0.016033014
41	0xbe0cd297	-0.13752209
42	0x3d8d8d14	0.06911674
43	0x3d9545b8	0.072886884
44	0x3ebf0c44	0.37314045
45	0xbd8fe4d4	-0.070260674
46	0xbe91434d	-0.2837166
47	0xbdb8f008	-0.09030157
48	0x3d373534	0.044728473
49	0xbece36df	-0.40276238
50	0xbdd5234a	-0.104071215
51	0xbdd48f2a	-0.10378869
52	0xbdc6de5f	-0.09710383
53	0xbbf0c022	-0.0073471228
54	0xbea1c537	-0.31595775
55	0xbdc7a0dc	-0.09747478
56	0xbe61002a	-0.21972719
57	0xba78b469	-0.00094873324
58	0x3e5c5f1c	0.21520656
59	0xbd3e5d46	-0.04647567
60	0x3eb0ed59	0.34556082
61	0xbdfbe3f7	-0.1229934
62	0xbdbe1b83	-0.09282591
63	0xbdbed5ad	-0.09318099
64	0x3d7cd053	0.06172211
65	0xbee526c1	-0.4475613
66	0x3e3e7573	0.18599491
67	0xbc95799b	-0.018246463
68	0xbe1cf730	-0.1532867
69	0x3e9d9e63	0.30784902
70	0x3d468aa1	0.04847205
71	0x3ba76423	0.005108373
72	0xbe754753	-0.2395299
73	0x3d6a54fc	0.057209954
74	0xbe5081a6	-0.20361957
75	0x3d7924a2	0.06082595
76	0xbe84ac1f	-0.25912568
77	0xbdf9de91	-0.12200654
78	0x3e15a5b7	0.14613996
79	0x3dbd14ac	0.092324585
80	0x3d98d593	0.07462611
81	0xbe242868	-0.16031039
82	0x3e3ef56e	0.18648311
83	0xbdab9593	-0.083781384
84	0xbe2b535e	-0.16731021
85	0x3d4868bd	0.04892801
86	0x3dfd0035	0.12353555
87	0x3e667ad7	0.22507797
88	0xbce32a52	-0.02773014
89	0x3d8eae2f	0.06966817
90	0xbdf39301	-0.11893273
91	0x3cff432a	0.031159956
92	0x3ec4c4d1	0.3843141
93	0xbdc50d28	-0.0962165
94	0xbca2c274	-0.019868113
95	0xbdecafb9	-0.11556954
96	0xbe030937	-0.12796484
97	0xbcd7362d	-0.02627095
98	0x3e308177	0.17236887
99	0xbe6a08db	-0.2285494
100	0x3be7fa3e	0.0070793917
101	0xbef2d859	-0.47430685
102	0xbe88c1a7	-0.26710245
103	0xbea3a235	-0.31959692
104	0x3e9f8063	0.3115264
105	0x3ca5b35e	0.02022713
106	0x3c6b1734	0.014348794
107	0x3d3e6de8	0.046491534
108	0x3dfc6cef	0.12325465
109	0xbd27c634	-0.040960506
110	0x3ed59b30	0.4171996
111	0x3e56b46e	0.20967266
112	0x3aa18f19	0.0012325972
113	0x3e9b9705	0.30388656
114	0xbe54a3af	-0.20765565
115	0x3e0dc592	0.13844898
116	0xbd893fbf	-0.06701612
117	0xbe2e1184	-0.16998869
118	0x3c5487e9	0.012971857
119	0x3e4e1218	0.2012409
120	0x3e28ba75	0.16477378
121	0x3e1fd160	0.15607214
122	0xbe0b122f	-0.13581155
123	0x3cceac92	0.025228772
124	0xbbff1b82	-0.0077852616
125	0x3e351f3d	0.17687698
126	0x3df94b63	0.12172582
127	0x3e93273b	0.28740868
128	0x3e87b325	0.26503864
129	0x3e93cec3	0.28868684
130	0x3d0d8d7e	0.034558766
131	0x3e229a19	0.15879096
132	0x3e28180a	0.1641542
133	0x3ee933cb	0.45547327
134	0xbd6492ca	-0.05580405
135	0xbcabf4d0	-0.02099076
136	0xbcea92a8	-0.028634384
137	0x3dc311ec	0.09524903
138	0x3d0eb971	0.03484482
139	0xbe104942	-0.14090446
140	0x3de18479	0.11011595
141	0x3e0ab353	0.1354497
142	0xbe17f48f	-0.14839385
143	0xbdd009cc	-0.101581186
144	0xbe29123d	-0.16510864
145	0x3ca38b4d	0.019963885
146	0xbe18a28a	-0.14905754
147	0x3ef228da	0.47296792
148	0xbd033a7c	-0.032038197
149	0x3e11241c	0.14173931
150	0x3d8e3a10	0.06944668
151	0x3e14790f	0.14499305
152	0x3ea88bb7	0.32919094
153	0x3e57d7b6	0.21078381
154	0xbe8f2957	-0.27961227
155	0xbe7c626d	-0.24646921
156	0x3de08bcb	0.109641634
157	0xbd9b3468	-0.07578355
158	0x3e85f7e0	0.26165676
159	0x3e690b1f	0.22758149
160	0x3c26a975	0.010172238
161	0xbef9c35b	-0.48781857
162	0xbbbbc64e	-0.005730427
163	0xbd72b0d8	-0.059250683
164	0xbc6aeb5a	-0.014338339
165	0x3e368b43	0.17826562
166	0x3d1e94a4	0.038715973
167	0xbdac22b5	-0.08405057
168	0x3d458172	0.04821915
169	0xbeadd12c	-0.33948648
170	0xbe505a19	-0.2034687
171	0x3e42ca5e	0.1902251
172	0xbde01f3f	-0.1094346
173	0xbddabde4	-0.1068075
174	0x3c8a7755	0.016902605
175	0xbf0ebc83	-0.55756396
176	0xbe246ad3	-0.16056375
177	0xbd59d73b	-0.053183775
178	0xbcda6a1d	-0.026661927
179	0xbd122f1b	-0.035689455
180	0x3ddf8206	0.10913472
181	0x3c7ad52a	0.015309611
182	0x3e86ea0b	0.26350436
183	0xbd4615d8	-0.048360676
184	0xbce31ecc	-0.027724646
185	0x3d8f8e33	0.07009544
186	0xbe6c3dab	-0.230704
187	0xbd8374e8	-0.064187825
188	0x3c247b71	0.010039196
189	0xbe37eb4a	-0.1796085
190	0x3e21d186	0.15802583
191	0x3e04b417	0.12959324
192	0xbe514737	-0.20437323
193	0xbe3b55fc	-0.18294519
194	0x3d0990a3	0.033585202
195	0x3eccb7b5	0.39983907
196	0xbd911650	-0.07084334
197	0x3ef3bfad	0.47607175
198	0xbe568a6b	-0.2095124
199	0xbe0ef979	-0.13962354
200	0xbb763972	-0.0037570861
201	0x3dccdbb0	0.100028396
202	0xbd910014	-0.07080093
203	0x3e6229ca	0.22086254
204	0xbe42d146	-0.19025144
205	0x3ed0d7cf	0.4078965
206	0x3d8e28a9	0.06941349
207	0xbd887b84	-0.06664184
208	0xbe54baa5	-0.20774324
209	0xbabddf3a	-0.0014486082
210	0xbd8f4bc6	-0.069968745
211	0x3e5b50d8	0.21417558
212	0x3d17ea06	0.037088417
213	0xbd4687a4	-0.0484692
214	0xbd1ec3a2	-0.03876079
215	0xbe6bcd9e	-0.23027655
216	0x3e308327	0.1723753
217	0xbe84706c	-0.2586702
218	0x3e48d96f	0.19614194
219	0xbd62123e	-0.05519318
220	0xbd3409c3	-0.043954622
221	0xbd87949a	-0.066201404
222	0x3e0592ad	0.13044234
223	0xbd42f061	-0.047592524
224	0xbe100430	-0.14064097
225	0x3d4834a4	0.048878327
226	0xbe562909	-0.20914091
227	0xbe6f458b	-0.23366372
228	0x3dabbcb7	0.08385604
229	0xbefd2181	-0.49439624
230	0xbebbf072	-0.36706883
231	0x3e3417dc	0.17587227
232	0x3e0aaddd	0.13542886
233	0xbd213129	-0.039353523
234	0x3dd26519	0.10273189
235	0x3d84ef83	0.06490996
236	0xbe195468	-0.14973605
237	0xbe407166	-0.18793258
238	0xbde2c617	-0.11072939
239	0x3e0fbf26	0.14037761
240	0xbe910626	-0.28325003
241	0x3c08ee76	0.008357635
242	0xbe26ff7a	-0.16308394
243	0xbdfba90f	-0.12288105
244	0xbda427f5	-0.08015434
245	0x3e0a57e4	0.1351009
246	0x3e100eec	0.14068192
247	0x3e94c194	0.29053938
248	0x3e7838ac	0.24240369
249	0x3c42f2f1	0.011898742
250	0xbdd829c3	-0.105548404
251	0x3a8c4545	0.0010701796
252	0xbe61e23d	-0.2205896
253	0xb97956ea	-0.00023778868
254	0xbe778d6f	-0.24175046
255	0xbc6db7fa	-0.014509195

critic.0.bias f4 [64]
0	0xbd8f35aa	-0.069926575
1	0x3e0bc7c6	0.13650426
2	0x3d210d8d	0.039319564
3	0xbd3252e1	-0.04353607
4	0x3b9a2306	0.004703882
5	0x3d70dcb8	0.058804244
6	0xbdd2501f	-0.10269188
7	0x3cb5d8d6	0.022198122
8	0x3cab8b14	0.020940341
9	0x3cf41ce5	0.029798934
10	0x3d5b36e5	0.05351915
11	0x3d1b8a0e	0.037973456
12	0x3d954d62	0.0729015
13	0xbbcec74f	-0.0063103805
14	0xbd6eac5b	-0.05826984
15	0xbbf5f21f	-0.0075056697
16	0x3bb20d82	0.005433739
17	0x3d8ac909	0.06776626
18	0xbc50ff97	-0.01275625
19	0x3d0033b6	0.031299315
20	0x3dc82eca	0.09774549
21	0xbd2b4cb5	-0.0418212
22	0xbca884c7	-0.020571126
23	0x3d24480b	0.040107768
24	0xbd410438	-0.047123164
25	0xbcaa74bf	-0.020807622
26	0xbbe3be64	-0.0069501866
27	0x3c8dad22	0.01729447
28	0xbcbb7664	-0.022883601
29	0xbd346f53	-0.04405148
30	0x3d8281ca	0.063724115
31	0x3d3208a2	0.043465264
32	0x3bf7cfd2	0.007562616
33	0x3db61eaa	0.088925675
34	0xbc27e9b3	-0.010248589
35	0x3ca92a06	0.020649921
36	0xbd4b2fc2	-0.049606092
37	0x3dbcd3b3	0.09220066
38	0x3d93d5fb	0.07218548
39	0xbd7bbd42	-0.061459787
40	0xbd89a277	-0.06720441
41	0xbb1df6f1	-0.0024103487
42	0x3dd29f72	0.10284318
43	0x3d2e60c4	0.04257275
44	0xbce63be8	-0.028104737
45	0xbc2f9226	-0.010715997
46	0x3d843b1a	0.06456585
47	0xbdda986a	-0.10673602
48	0xbdbe2f98	-0.092864215
49	0x3c0ee0e3	0.008720609
50	0xbd76c4a2	-0.060246117
51	0x3e1d7227	0.15375577
52	0xbd419da7	-0.04726949
53	0xbd359b2b	-0.044337433
54	0x3cfcefe2	0.030876104
55	0xbe1e37a0	-0.15450907
56	0x3d941e9e	0.07232402
57	0x3d28f215	0.041246492
58	0xbddb5753	-0.10710015
59	0xba32f965	-0.0006827324
60	0x3dbec8cc	0.09315643
61	0xbbff5b90	-0.0077928975
62	0x3c8498dd	0.016186172
63	0xbd8c487d	-0.068497635

critic.2.weight f4 [64, 64]
0	0x3c22ff27	0.009948528
1	0xbcb32128	-0.021866396
2	0x3e6740aa	0.22583261
3	0xbe3711ab	-0.17877834
4	0xbefefa6e	-0.49800438
5	0x3e57af34	0.21062928
6	0x3e326185	0.17420013
7	0xbe8f7ebd	-0.2802638
8	0x3d3b76be	0.04576754
9	0xbe00c682	-0.12575725
10	0x3ebdef5a	0.37096673
11	0x3e286bac	0.16447324
12	0x3e4dedaa	0.20110193
13	0xbd5b5339	-0.053546164
14	0x3d40af37	0.047042098
15	0x3d98096a	0.074236706
16	0x3e90abcb	0.28256068
17	0x3cf63463	0.030054277
18	0x3e202574	0.15639287
19	0x3e34fbf0	0.17674232
20	0x3de7125d	0.112827994
21	0xbe38847b	-0.18019287
22	0xbe02c9dc	-0.12772316
23	0x3d3de6c8	0.04636267
24	0xbd3f0fc8	-0.04664591
25	0x3e421f82	0.18957332
26	0x3d165692	0.036703654
27	0xbe77ef3f	-0.24212359
28	0x3c057b32	0.008147048
29	0xbe72dbd6	-0.23716673
30	0x3e9c028e	0.304707
31	0xbded6976	-0.11592381
32	0xbc86c6b2	-0.016452167
33	0xbe09189d	-0.13388295
34	0xbda69b85	-0.08135132
35	0x3da359f5	0.07976142
36	0x3d6de83d	0.058082808
37	0x3e4a4440	0.19752598
38	0x3ea6a5ae	0.3254828
39	0x3dc673fa	0.096900895
40	0x3d851302	0.06497766
41	0x3c0b66e8	0.0085084215
42	0x3e461273	0.19342975
43	0xbd289032	-0.04115314
44	0x3eb0d3cb	0.34536585
45	0x3da22550	0.07917273
46	0x3e0bb458	0.13643014
47	0xbe703527	-0.23457776
48	0xbe78b17c	-0.24286455
49	0x3ebc4a30	0.3677535
50	0xbd10f889	-0.03539327
51	0x3e0f7dc7	0.14012824
52	0x3d99e067	0.075135045
53	0xbdf3b46f	-0.11899649
54	0x3e2f6f54	0.17132312
55	0xbd875951	-0.06608833
56	0x3da751ce	0.081699
57	0xbc7e2bb7	-0.015513352
58	0x3d9a0cb4	0.07521954
59	0x3ef2a54f	0.47391745
60	0x3dccb2e6	0.0999506
61	0x3e330335	0.17481692
62	0xbd3e8249	-0.04651097
63	0x3d272957	0.04081091
64	0xbe855074	-0.26037943
65	0x3cf4174f	0.02979627
66	0xbde4ec96	-0.11177938
67	0xbca4d71c	-0.020122103
68	0x3e826d70	0.2547412
69	0xbd05527b	-0.032549363
70	0xbc5c17f9	-0.01343345
71	0xbbc35053	-0.005960503
72	0xbd7a81c7	-0.06115892
73	0xbcb4dfd0	-0.022079378
74	0xbd6beada	-0.05759702
75	0x3c310b77	0.010805956
76	0xbe54a95c	-0.2076773
77	0x3e25b3a9	0.16181816
78	0x3cf17ed2	0.029479418
79	0x3e22d07a	0.1589984
80	0xbe61a1d4	-0.22034389
81	0x3e8e222f	0.27760455
82	0x3e99a30d	0.3000721
83	0x3e584222	0.21118978
84	0x3e7e4058	0.24829233
85	0x3dcd01db	0.100101195
86	0xbdd393b6	-0.10330908
87	0x3d2cbf02	0.042174347
88	0x3e10719c	0.14105839
89	0x3df9f388	0.12204653
90	0x3de38f37	0.111113004
91	0xbbcd9f48	-0.0062750913
92	0x3e1c533c	0.15266126
93	0x3d885b68	0.06658059
94	0x3d9b01f8	0.07568735
95	0xbe0bee99	-0.13665237
96	0x3e8e923b	0.2784594
97	0xbeb1b69d	-0.34709635
98	0x3e3fc1e8	0.18726313
99	0xbe2b6987	-0.16739474
100	0xbd270ed3	-0.04078562
101	0x3d27259a	0.040807344
102	0x3eccad45	0.39975944
103	0x3d8f533c	0.069982976
104	0x3e925ef0	0.28588057
105	0x3e16bf9c	0.1472153
106	0x3e555d54	0.20836383
107	0x3e1b386e	0.15158245
108	0x3e0fdeba	0.14049807
109	0xbe88e261	-0.26735213
110	0xbe0e4803	-0.13894658
111	0x3daf6592	0.08564295
112	0x3e2e1a42	0.17002204
113	0x3e84daf3	0.25948295
114	0xbeb13b3f	-0.34615514
115	0xbcfdfb4c	-0.031003617
116	0x3dd9437f	0.10608577
117	0xbe14769f	-0.14498375
118	0xbdcceac0	-0.100057125
119	0x3e3f15c7	0.18660651
120	0x3aaf7fb3	0.0013389498
121	0xbd9eaa2e	-0.07747303
122	0xbe2c234d	-0.16810341
123	0xbd41a261	-0.047273997
124	0xbe2b7232	-0.16742781
125	0xbe9e6828	-0.3093884
126	0xbdb25e38	-0.08709377
127	0xbe4a65eb	-0.19765441
128	0x3db48986	0.08815293
129	0xbdb14df8	-0.086574495
130	0x3c1fa198	0.009743117
131	0xbea01e02	-0.31272894
132	0xbd7351c1	-0.05940414
133	0x3db4aac2	0.08821632
134	0xbe07e235	-0.13269885
135	0x3d894967	0.067034535
136	0x3c3f362a	0.011670629
137	0x3e7e8e3d	0.24858947
138	0xbe2f74a2	-0.17134336
139	0x3c65dbb9	0.014029437
140	0x3e36f88b	0.17868249
141	0x3ed11085	0.40832916
142	0xbe0a3a62	-0.13498834
143	0xbb92075f	-0.004456445
144	0x3e4c0872	0.19925097
145	0xbda23bc6	-0.07921557
146	0x3da0778c	0.07835302
147	0x3cbccf44	0.02304805
148	0x3ed53f9a	0.41650087
149	0xbe6180ce	-0.22021791
150	0xbdcec1c8	-0.100955546
151	0xbbf2e9d4	-0.0074131284
152	0x3e859a3b	0.2609423
153	0xbdde991f	-0.10869049
154	0xbd8c0a32	-0.06837882
155	0xbc05b8dc	-0.00816175
156	0x3ef3dd01	0.4762955
157	0xbc2fa181	-0.010719658
158	0x3dc488ca	0.09596403
159	0x3beee6ba	0.0072906883
160	0xbde34f28	-0.11099082
161	0x3e8f4d47	0.27988645
162	0x3e06e131	0.13171841
163	0x3e0d7994	0.1381591
164	0xbcdb0191	-0.026734145
165	0xbe50d94c	-0.20395392
166	0x3e5f345e	0.2179732
167	0xbeae20f3	-0.34009513
168	0xbe3883d7	-0.18019043
169	0x3d48d011	0.049026553
170	0xbdf52879	-0.1197061
171	0x3e498739	0.1968049
172	0x3d39bd77	0.045346703
173	0x3cf66ea0	0.030082047
174	0x3e5b2d8f	0.21404098
175	0x3d704e55	0.058668453
176	0x3db4389f	0.08799862
177	0x3d37a8a9	0.04483858
178	0x3e10bacd	0.14133759
179	0xbd3556cd	-0.044272233
180	0x3e35ae57	0.17742287
181	0xbd18d7e9	-0.037315283
182	0x3e800aec	0.25008333
183	0xbe0f75aa	-0.14009729
184	0x3de02d00	0.10946083
185	0xbe0e1c6a	-0.13878027
186	0xbe10e3c2	-0.14149383
187	0xbea66f5f	-0.32506844
188	0x3e1c3a3f	0.15256594
189	0xbe45a9ce	-0.19303057
190	0x3dc98cd0	0.09841311
191	0xbd7e0fc3	-0.06202675
192	0x3d8c31d9	0.06845445
193	0xbee9f197	-0.4569213
194	0x3d71d4bb	0.059040766
195	0xbdd7b181	-0.10531903
196	0xbdc3e531	-0.09565199
197	0xbdfdfa9f	-0.12401318
198	0x3df4f324	0.11960438
199	0x3e7af513	0.24507551
200	0x3ed38e96	0.41319722
201	0xbe73fd02	-0.23826984
202	0xbe3ddb43	-0.18540673
203	0xbd8cf2c8	-0.06882244
204	0xbdea05ad	-0.11426864
205	0xbe0d5e1f	-0.13805436
206	0x3a28dac8	0.00064412924
207	0x3e9eb3ae	0.3099646
208	0x3eb8b8b0	0.36078405
209	0x3dabbdfa	0.083858445
210	0x3d33cdc7	0.043897416
211	0x3c9d8269	0.019227223
212	0xbc5c77ae	-0.013456268
213	0x3df76914	0.12080589
214	0xbcf80d80	-0.030279875
215	0xbe2e63a7	-0.17030202
216	0xbc4797c4	-0.01218218
217	0xbd9baef9	-0.07601733
218	0xbe3264f7	-0.17421328
219	0x3ded6416	0.115913555
220	0xbd3fcc5e	-0.04682576
221	0xbe299e09	-0.16564192
222	0xbe8e9fbf	-0.27856252
223	0xbe03d569	-0.12874378
224	0x3e1bdbec	0.15220612
225	0xbda63035	-0.081146635
226	0x3e08a994	0.13345939
227	0xbddee4b2	-0.10883464
228	0x3cc7daa8	0.024396256
229	0xbe4d2279	-0.20032682
230	0x3db25b3a	0.08708806
231	0xbe584a86	-0.21122178
232	0x3e7b3872	0.24533251
233	0xbdfeede6	-0.12447719
234	0xbdc79be9	-0.097465344
235	0xbd011fae	-0.031524353
236	0x3dbe3afc	0.09288594
237	0xbe231431	-0.15925671
238	0xbe114259	-0.14185466
239	0x3e4ef9a0	0.20212412
240	0x3e608c4d	0.2192852
241	0xbdbc4cd3	-0.091943406
242	0xbc86eb24	-0.016469546
243	0x3e9bca9d	0.3042802
244	0x3bbc8b51	0.0057539125
245	0x3e41c7fb	0.18923943
246	0x3e1dd544	0.15413386
247	0x3e5322f1	0.20618798
248	0xbef2b53a	-0.4740389
249	0x3dcf42fc	0.10120198
250	0x3bc2f114	0.005949149
251	0xbb65a7a4	-0.0035042549
252	0x3e8912e9	0.2677224
253	0x3eb6e91d	0.35724726
254	0x3e1b7fad	0.15185423
255	0xbd5b91cd	-0.053605843

critic.2.bias f4 [64]
0	0x3da92c12	0.08260359
1	0xbd907044	-0.07052663
2	0x3d8acb1a	0.0677702
3	0x3d007ce3	0.0313691
4	0xbd8081ed	-0.062747814
5	0xbd6d833a	-0.057986476
6	0xbdd8796e	-0.10570036
7	0x3d8ca869	0.06868059
8	0xbcc177ae	-0.023616638
9	0xbd0c8294	-0.034304217
10	0x3e00b8a9	0.12570442
11	0xbd71d2c8	-0.059038907
12	0xbdb71a87	-0.089406066
13	0xbd00e68a	-0.03146986
14	0x3d49f6ac	0.04930751
15	0x3d6e3ec4	0.058165327
16	0xbcaac548	-0.020846024
17	0xbe15089d	-0.14554067
18	0x3e37b015	0.17938264
19	0xbb3d25e9	-0.0028861708
20	0x3d4886ce	0.048956685
21	0xbd855f2a	-0.06512292
22	0x3d81a981	0.063311584
23	0xbd4d9e77	-0.050199952
24	0xbd152731	-0.03641433
25	0x3d3238b1	0.043511096
26	0xbd377328	-0.044787556
27	0xbdbdcb66	-0.09267311
28	0xbc919652	-0.017771874
29	0xbd45a346	-0.048251413
30	0xbc22c8d7	-0.009935579
31	0x3d179d5a	0.037015297
32	0xbd2ac701	-0.04169369
33	0x3ddf6d64	0.109095365
34	0xbd50c230	-0.05096644
35	0xbd101c70	-0.03518337
36	0x3dbe7218	0.092991054
37	0x3d08a0a7	0.033356335
38	0xbd353b0f	-0.044245776
39	0x3db74ec5	0.08950571
40	0x3dbe51bc	0.09292933
41	0xbdabaea6	-0.08382921
42	0x3e1a2741	0.15054037
43	0x3db1ad90	0.086756825
44	0x3c87ff42	0.016601209
45	0x3d45e2b3	0.0483119
46	0xbd374d63	-0.044751536
47	0xbd77b22c	-0.060472652
48	0x3d67ef90	0.05662495
49	0x3da6cba7	0.08144312
50	0xbd88cb73	-0.0667943
51	0xbdcd951c	-0.10038206
52	0x3e0877dd	0.13326974
53	0xbd83f34b	-0.06442889
54	0xbd6d98ab	-0.058006924
55	0xbd813371	-0.0630864
56	0x3da33478	0.07968992
57	0xbd7477d6	-0.059684597
58	0xbd15c978	-0.03656909
59	0xbd75b936	-0.059991084
60	0x3d8b3628	0.06797439
61	0x3cc247c4	0.023715861
62	0x3bed7a2c	0.00724723
63	0xbcac23c9	-0.021013157

critic.4.weight f4 [1, 64]
0	0xbd463eb1	-0.04839963
1	0x3dc9b195	0.09848324
2	0xbe284116	-0.16431078
3	0xbe846823	-0.258607
4	0x3d86999a	0.06572266
5	0x3e2caa07	0.16861735
6	0x3e8109a7	0.25202677
7	0xbe5451ce	-0.20734331
8	0x3d6ef4df	0.058338996
9	0x3dc9b869	0.098496266
10	0xbd9088d8	-0.07057351
11	0x3d913004	0.070892364
12	0x3d87a16a	0.06622584
13	0x3eb8f96c	0.36127794
14	0xbd79debb	-0.061003428
15	0xbe1b2ce4	-0.15153843
16	0x3e4c826f	0.19971631
17	0x3dd6cb67	0.10488015
18	0xbe0e992c	-0.13925618
19	0xbd4a8b99	-0.049449537
20	0xbe71f9c0	-0.23630428
21	0x3e114062	0.14184716
22	0xbe3bd683	-0.18343548
23	0x3e053ad3	0.13010721
24	0x3ccfef3f	0.025382636
25	0xbdaf1458	-0.08548802
26	0x3e5225db	0.20522253
27	0x3d4e3f58	0.050353378
28	0x3e4d38d7	0.20041214
29	0x3e071986	0.1319333
30	0x3e8dc02a	0.27685672
31	0xbc6ecda8	-0.014575399
32	0x3da99d8b	0.08282002
33	0xbe3fa642	-0.18715766
34	0x3e1776d2	0.1479142
35	0x3e0ca496	0.1373466
36	0xbda3fe27	-0.0800746
37	0xbd91d959	-0.07121534
38	0x3e56648e	0.20936796
39	0xbdc56ccc	-0.09639892
40	0xbdee65ec	-0.11640534
41	0x3dbb8b30	0.09157407
42	0xbe3fbb3a	-0.18723765
43	0xbdaf52da	-0.085607246
44	0xbdb25867	-0.08708268
45	0xbcf69d14	-0.030104198
46	0x3e59e088	0.21277058
47	0x3d5c3069	0.053757105
48	0xbdc01149	-0.09378297
49	0xbe2c8e20	-0.16851091
50	0x3d8771c4	0.06613496
51	0x3d99ac5c	0.07503578
52	0xbe3d9ede	-0.18517634
53	0x3c3b7b59	0.011442983
54	0x3dd62c1d	0.10457633
55	0x3df1375b	0.11778136
56	0xbd2b1023	-0.041763436
57	0x3dd1ec6e	0.102501735
58	0x3e2f8c77	0.17143427
59	0x3e54bb4d	0.20774575
60	0xbda3bb29	-0.07994682
61	0xbe323755	-0.1740392
62	0xbe3bfccd	-0.18358155
63	0x3e8cb0f0	0.27478743

actor_mean.0.weight f4 [64, 42]
0	0x3e19b46c	0.15010232
1	0x3d701c19	0.058620546
2	0xbe1135ab	-0.14180629
3	0xbda6cad7	-0.081441574
4	0x3e2f1d83	0.17101102
5	0xbdf0da38	-0.11760372
6	0xbe90c7ae	-0.28277344
7	0xbe9e70e4	-0.30945504
8	0xbe6e5b0b	-0.23276918
9	0x3e66771f	0.22506379
10	0xbc9d6cb7	-0.019216878
11	0x3dc73557	0.09726971
12	0x3e5cc325	0.21558817
13	0xbd760e84	-0.060072437
14	0xbe22feba	-0.15917483
15	0xbdbc88f4	-0.09205809
16	0xbec3862c	-0.38188303
17	0x3e8c1f50	0.2736764
18	0x3de3ab57	0.11116665
19	0x3e535720	0.20638704
20	0xbef4a3e7	-0.47781298
21	0xbeaeb46f	-0.34122035
22	0x3dfa735c	0.12229034
23	0x3e520632	0.20510176
24	0x3dfd3239	0.12363095
25	0xbd5a37c2	-0.05327583
26	0x3d95a7b4	0.073073775
27	0xbd3ef759	-0.046622608
28	0xbd2f3be1	-0.042781714
29	0xbe64c22f	-0.223397
30	0xbcbce36d	-0.023057664
31	0x3db0f921	0.086412676
32	0xbc848d7e	-0.01618075
33	0x3d4da4ef	0.05020612
34	0x3ea21e94	0.31663954
35	0x3eeab6c1	0.45842555
36	0xbd6c1ff0	-0.057647645
37	0xbcc9d950	-0.024639755
38	0xbd9275e7	-0.07151394
39	0x3c6cff45	0.014465158
40	0xbe80df96	-0.25170583
41	0x3d999504	0.074991256
42	0x3e2b6a4a	0.16739765
43	0x3e465dc0	0.193717
44	0x3e755b38	0.23960578
45	0x3e61b660	0.22042227
46	0x3bf4423b	0.0074541843
47	0x3e2d88de	0.16946742
48	0x3de0be61	0.10973812
49	0x3e008555	0.12550862
50	0xbc8eab69	-0.01741572
51	0xbdfc7472	-0.12326898
52	0xbd8b15e5	-0.067912854
53	0x3e168291	0.14698245
54	0x3d88c045	0.066772975
55	0x3df5f6d0	0.120099664
56	0xbd1758bf	-0.03694987
57	0x3c5dd2a2	0.013538988
58	0x3dbd27a9	0.0923608
59	0xbe59c421	-0.21266223
60	0x3dc5167f	0.096234314
61	0xbe64eba3	-0.22355513
62	0xbd951010	-0.07278454
63	0xbf026e97	-0.50949997
64	0x3e4e1151	0.20123793
65	0x3d826a49	0.063679285
66	0xbe0114dc	-0.12605613
67	0xbd62e25f	-0.055391666
68	0xbd83e2fb	-0.064397775
69	0xbea45afd	-0.3210067
70	0x3e103da7	0.14086019
71	0xbe34bf08	-0.17650998
72	0x3e3cf535	0.18452914
73	0xbda5ef38	-0.08102268
74	0x3d79dba5	0.061000485
75	0xbd7035f7	-0.058645215
76	0x3e98a1f7	0.2981107
77	0x3ed54938	0.41657424
78	0xbe350bb3	-0.17680244
79	0x3d7d2648	0.061804086
80	0x3bcfd896	0.0063429577
81	0xbd489eee	-0.048979692
82	0x3c4d03a9	0.01251308
83	0xbe4ec03a	-0.20190516
84	0xbd37a5d1	-0.04483587
85	0x3e41b2a6	0.18915805
86	0x3e42087b	0.18948548
87	0x3d92dcc6	0.071710154
88	0x3d5f5f7e	0.054534428
89	0x3e29bbbb	0.1657552
90	0x3db66075	0.089051165
91	0x3e9350b8	0.2877252
92	0x3d8273f7	0.06369775
93	0x3e723e0f	0.23656486
94	0x3e1f9aad	0.15586348
95	0x3dd01f6b	0.101622425
96	0xbd241d1c	-0.040066823
97	0xbd1b24aa	-0.037876762
98	0x3e5caf79	0.21551313
99	0x3e0bf9fc	0.1366958
100	0xbe883dbe	-0.26609606
101	0x3e243cf4	0.16038877
102	0xbd509fee	-0.05093377
103	0x3e285c1a	0.16441384
104	0x3cd0be9f	0.02548152
105	0xbe3c1ecc	-0.18371123
106	0xbaa18a17	-0.0012324479
107	0x3ef0cc6b	0.4703096
108	0x3da00497	0.078133754
109	0x3e3f7517	0.1869701
110	0x3e3495d7	0.17635284
111	0x3eb8f64d	0.36125413
112	0xbe475c46	-0.19468793
113	0xbe610b65	-0.21977003
114	0x3e197152	0.14984635
115	0x3e369b3a	0.17832652
116	0x3d2e8d19	0.04261503
117	0x3d8660c1	0.06561423
118	0x3d124906	0.03571417
119	0xbdf93c2e	-0.121696815
120	0xbd04d843	-0.032432806
121	0x3e4e9e41	0.20177557
122	0x3e729d4c	0.23692816
123	0x3e0dd72f	0.13851617
124	0x3e0d87f2	0.1382139
125	0x3d1efa23	0.038812768
126	0xbe7fa642	-0.24965766
127	0x3c848609	0.016177194
128	0xbeb8f06a	-0.3612092
129	0xbd85970c	-0.065229505
130	0xbe07b936	-0.13254246
131	0xbc9df0e7	-0.01927991
132	0x3e0a49dc	0.13504738
133	0x3d623314	0.055224493
134	0x3e0f535b	0.13996641
135	0x3e684435	0.22682269
136	0xbd36e5e2	-0.044652827
137	0x3d8a8315	0.06763283
138	0x3cf5ef86	0.03002144
139	0x3e216728	0.15762007
140	0x3e921cda	0.28537637
141	0x3ea0218d	0.31275597
142	0xbe4a4407	-0.19752513
143	0xbe28498f	-0.1643431
144	0x3e122335	0.14271243
145	0xbe15ede4	-0.1464153
146	0xbd4703dc	-0.048587665
147	0xbec9a29e	-0.3938188
148	0xbdc80eca	-0.09768446
149	0xbdbed59b	-0.09318086
150	0xbd98815f	-0.074465506
151	0xbd95c1b1	-0.07312334
152	0x3ddd9163	0.10818746
153	0xbed49ffd	-0.4152831
154	0xbdccc16b	-0.09997829
155	0x3d8074ea	0.062722996
156	0xbdc0f89b	-0.09422418
157	0xbc6bb3bf	-0.0143861165
158	0x3d9ea64d	0.07746563
159	0x3e041036	0.12896809
160	0xbed5416a	-0.4165147
161	0x3de5faa8	0.112294495
162	0xbe8251d2	-0.2545305
163	0x3d965514	0.07340446
164	0x3ce874b4	0.02837596
165	0x3e692d0c	0.2277109
166	0x3e8d57ad	0.27605954
167	0x3e12de11	0.14342524
168	0x3e3dd2c0	0.18537426
169	0xbebdca66	-0.3706848
170	0xbd8bb5cd	-0.06821785
171	0x3dfa4b91	0.122214444
172	0x3e2fcc58	0.17167795
173	0x3dc3e463	0.09565046
174	0x3e08e11e	0.13367125
175	0xbca18850	-0.01971832
176	0xbe6536db	-0.22384207
177	0xbd4e3942	-0.050347574
178	0xbd3e1c02	-0.04641343
179	0x3defee22	0.11715342
180	0xbcdd2840	-0.026996732
181	0x3d70dbe3	0.05880345
182	0xbeb95966	-0.36201018
183	0xbe422855	-0.18960698
184	0xbda8f813	-0.082504414
185	0xbe68e81f	-0.22744797
186	0x3d7dd9d7	0.061975326
187	0xbd0f0807	-0.034919765
188	0xbd03414c	-0.032044694
189	0xbacbe599	-0.0015556096
190	0x3e147ea5	0.14501436
191	0xbe8dced5	-0.27696863
192	0x3c529fdc	0.012855496
193	0x3c543389	0.01295174
194	0x3d0842eb	0.033266943
195	0x3e9c2fa7	0.30505106
196	0xbe6454be	-0.22297952
197	0x3de9db2e	0.11418758
198	0xbed2d109	-0.41175106
199	0xbc92faa7	-0.017941786
200	0xbc6a4ec3	-0.014301005
201	0x3d91b525	0.07114629
202	0x3e968b90	0.29403353
203	0x3e881485	0.26578155
204	0xbda6321b	-0.081150256
205	0xbd8841ce	-0.06653176
206	0x3d3c0569	0.045903597
207	0xbdffbff8	-0.12487787
208	0x3efef6f0	0.49797773
209	0x3e5e7202	0.21723178
210	0x3e59e7ab	0.2127978
211	0xbe199a95	-0.15000375
212	0x3cf3815c	0.02972477
213	0xbe1b2e2c	-0.15154332
214	0x3e58cea1	0.21172573
215	0xbdfc2887	-0.123124175
216	0xbea1fb0c	-0.31636846
217	0x3e06c4cf	0.13161014
218	0xbd3db68d	-0.046316672
219	0xba667e79	-0.00087926496
220	0x3e0bafe4	0.13641316
221	0xbdb5ab06	-0.08870511
222	0x3d98227d	0.07428453
223	0x3da35b7a	0.07976432
224	0x3eab82cd	0.3349823
225	0x3e62f0ee	0.2216222
226	0x3e32f554	0.17476398
227	0xbe13f09d	-0.14447255
228	0x3e0dd95f	0.13852452
229	0xbe1e212f	-0.15442346
230	0xbdae5692	-0.08512606
231	0xbddebf6f	-0.10876357
232	0xbdd2fef0	-0.10302532
233	0xbe50e411	-0.203995
234	0xbd0223b7	-0.03177234
235	0xbe0c0dd7	-0.13677154
236	0x3f01b071	0.50659853
237	0x3ed92934	0.42414248
238	0x3e321308	0.17390072
239	0xbe578bc9	-0.21049418
240	0xbe21ed63	-0.15813212
241	0x3b8834d4	0.004156688
242	0x3e0303f0	0.12794471
243	0xbe165eb4	-0.14684564
244	0x3e0ee83d	0.1395578
245	0xbea6432c	-0.32473123
246	0xbe004f4c	-0.1253025
247	0xbd2555c5	-0.040365
248	0x399a04b3	0.0002937667
249	0x3dc7d029	0.097565
250	0xbe97a895	-0.29620805
251	0x3da8ea59	0.08247823
252	0xbe72c1f5	-0.23706801
253	0xbe523b19	-0.20530356
254	0xbe03ff98	-0.1289047
255	0xbc22a7b4	-0.009927679

actor_mean.0.bias f4 [64]
0	0x3bcfd090	0.0063420013
1	0x3cb99611	0.022654565
2	0xbd6cc42d	-0.057804275
3	0xbd4cc0c7	-0.049988534
4	0x3d94ac7b	0.072594605
5	0x3b9fa414	0.0048718546
6	0x3d262ae0	0.040568233
7	0x3c35d908	0.011099108
8	0x3d696e27	0.056989815
9	0xbd41ba27	-0.04729667
10	0x3b6311fd	0.0034648173
11	0xbbd6f86a	-0.006560375
12	0x3cd3146b	0.025766572
13	0x3d1f873c	0.03894733
14	0x3d26d6a7	0.040732052
15	0x3d8f3fd2	0.06994595
16	0xbd02cec4	-0.03193547
17	0x3d32c102	0.043641098
18	0x3cf19ea0	0.029494584
19	0x3def74d4	0.11692205
20	0x3e194ed6	0.1497148
21	0xbd9716a0	-0.07377362
22	0x3d4645ad	0.04840629
23	0x3d950e00	0.07278061
24	0xbc9da9d1	-0.019246014
25	0x3b96fb4d	0.004607594
26	0x3c086244	0.00832421
27	0x3d122c39	0.035686705
28	0x3ba09606	0.0049006967
29	0x3c77aa89	0.015116342
30	0xbc1b01ee	-0.009460909
31	0x3cafbbb4	0.021451809
32	0xbd646881	-0.055763725
33	0xbbda7957	-0.006667297
34	0xbb0bdc5b	-0.002134106
35	0xbb8e5a55	-0.0043442645
36	0xbd0b7144	-0.034043565
37	0xbcd603b8	-0.02612482
38	0x3c7fef92	0.015621083
39	0x3cbb3fd4	0.022857584
40	0x3d206528	0.03915897
41	0xbc858a72	-0.016301367
42	0x3da76746	0.08173995
43	0x3cb455fc	0.022013657
44	0xbc31d6f7	-0.010854474
45	0xbd6b9d94	-0.057523325
46	0x3baf69e6	0.0053532002
47	0x3c7eeb30	0.015559003
48	0xbcd77aa3	-0.026303595
49	0x3d91cadd	0.07118771
50	0xbce3f6c9	-0.027827637
51	0xbc98031a	-0.018556166
52	0xbd311e64	-0.043241873
53	0x3c12581c	0.00893214
54	0xbd0f76b1	-0.035025302
55	0xbc7eb460	-0.015545934
56	0x3d71835c	0.058963165
57	0x3ce7b61a	0.028285075
58	0xbdfeabd6	-0.12435119
59	0x3d5230c9	0.051316056
60	0x3d340a85	0.043955345
61	0x3d911c3a	0.07085462
62	0xbdb9ebd1	-0.090781815
63	0xbd5d1568	-0.053975493

actor_mean.2.weight f4 [64, 64]
0	0x3e027d71	0.12743165
1	0x3e4e9168	0.20172656
2	0xbddf45ed	-0.10902009
3	0x3d9fa9dc	0.0779607
4	0x3f00ccb3	0.50312346
5	0xbe2cdb98	-0.16880643
6	0xbddec81e	-0.10878013
7	0xbd3cb24f	-0.046068486
8	0x3d64f127	0.055894043
9	0xbb8527e4	-0.004063593
10	0x3db6f782	0.08933927
11	0xbe94953e	-0.29020113
12	0x3cd943bc	0.026521556
13	0x3cc4a763	0.024005597
14	0x3e612234	0.21985704
15	0xbd19bac0	-0.037531614
16	0xbd128df0	-0.035779893
17	0x3e6e9e51	0.2330258
18	0x3e2442a3	0.16041045
19	0x3d904313	0.070440434
20	0x3da6279e	0.08113025
21	0xbe5adcd7	-0.21373306
22	0x3e6eb657	0.23311745
23	0xbccd00ed	-0.025024856
24	0x3e01820d	0.12647267
25	0xbe56308f	-0.20916961
26	0xbe3bac2f	-0.18327402
27	0x3e855436	0.2604081
28	0xbe5da8a9	-0.2164637
29	0xbd1699cc	-0.036767766
30	0xbaf98ae0	-0.001903858
31	0x3ec3a555	0.38212076
32	0x3d4e5aa7	0.05037942
33	0xbd366843	-0.044533025
34	0x3eb6773a	0.35637838
35	0x3e1554b3	0.14583091
36	0x3e2cc684	0.16872603
37	0x3cb10481	0.021608593
38	0x3dd00a7c	0.1015825
39	0xbd839c87	-0.064263396
40	0x3e743495	0.23848183
41	0xbdc64903	-0.09681895
42	0xbd15aee4	-0.03654374
43	0xbdf4c75c	-0.11952087
44	0xbce95be3	-0.028486198
45	0xbcd376fb	-0.02581357
46	0xbd8c22eb	-0.068425976
47	0x3e5ce703	0.21572499
48	0xbd051f67	-0.03250065
49	0xbe821ff9	-0.25415018
50	0xbdb74823	-0.08949306
51	0x3dd95dd3	0.10613599
52	0x3db78f73	0.08962908
53	0x3eaa5563	0.3326827
54	0xbdab6375	-0.08368579
55	0xbd4467ec	-0.04795067
56	0xbecad732	-0.39617306
57	0x3e526fed	0.20550509
58	0xbe00df55	-0.12585194
59	0x3e85fb99	0.26168516
60	0x3e93cf01	0.2886887
61	0xbd968d09	-0.07351119
62	0xbe9a7f60	-0.30175304
63	0xbeb2d59e	-0.34928602
64	0x3de15fb9	0.11004586
65	0x3e22014f	0.15820812
66	0xbc60b641	-0.013715328
67	0x3dee612b	0.11639627
68	0x3db83b7f	0.08995723
69	0x3d4b13cc	0.049579427
70	0xbc03f752	-0.008054571
71	0x3edd72ff	0.43251798
72	0x3d8e81d4	0.069583565
73	0xbe357627	-0.17720853
74	0xbc9dda82	-0.019269232
75	0x3e29d837	0.16586386
76	0xbcc15c7a	-0.023603667
77	0x3d9bfc23	0.07616451
78	0xbe282fcd	-0.16424485
79	0x3dd7676c	0.10517773
80	0x3da7dfb6	0.08196966
81	0xbe47f948	-0.19528687
82	0xbe90ec7e	-0.2830543
83	0xbead72b9	-0.3387659
84	0xbec4d8f6	-0.38446778
85	0x3e2e7595	0.17037041
86	0xbea3f9c9	-0.32026508
87	0x3ca4d058	0.020118877
88	0x3dd6b964	0.10484579
89	0x3d3302c7	0.04370382
90	0xbda7a596	-0.0818588
91	0x3e90063e	0.28129762
92	0xbe63dd29	-0.22252335
93	0xbe23cf1a	-0.15996972
94	0xbdeb1b2b	-0.11479791
95	0x3d8c3ef7	0.06847947
96	0xbe53dcef	-0.20689748
97	0xbe52a178	-0.20569408
98	0xbe0862f0	-0.13318992
99	0xbe48298a	-0.19547096
100	0x3cb324d4	0.021868147
101	0x3d2bfe2f	0.041990455
102	0x3e4b7b44	0.19871241
103	0x3e9156cd	0.28386536
104	0x3d98cc64	0.074608594
105	0xbd83a9d9	-0.0642888
106	0x3d1acdd1	0.037793938
107	0xbe220d10	-0.15825295
108	0x3d38690e	0.045022063
109	0xbd92abd2	-0.071616784
110	0xbe795ad0	-0.24351048
111	0xbe70b9ad	-0.2350833
112	0x3db0d595	0.086344875
113	0xbd6c48c3	-0.05768658
114	0x3e474460	0.19459677
115	0x3e2d5c6c	0.16929787
116	0x3dd3a94f	0.103350274
117	0xbdd938ad	-0.10606513
118	0xbe9e4b4e	-0.30916828
119	0x3dee349d	0.11631129
120	0x3e0b4c76	0.13603386
121	0xbe406a5f	-0.18790577
122	0x3e2b8676	0.16750512
123	0x3e82d8ce	0.25556034
124	0xbec312f8	-0.3810041
125	0xbe303027	-0.17205869
126	0xbd75bfc8	-0.05999735
127	0xbda1b2e1	-0.078954466
128	0x3dd17bc6	0.10228686
129	0xbde62bc1	-0.11238814
130	0xbe4d052e	-0.20021507
131	0xbe87d295	-0.2652785
132	0xbe0699f8	-0.13144672
133	0xbda6431d	-0.081182696
134	0xbe883cff	-0.26609036
135	0x3c00eb75	0.007868637
136	0x3e87fbbf	0.26559255
137	0x3e929578	0.2862966
138	0x3e3cf36c	0.18452233
139	0x3e86e251	0.2634454
140	0x3e37f9c3	0.1796637
141	0x3e39a2d8	0.18128526
142	0x3db651d4	0.08902326
143	0xbda089ea	-0.07838805
144	0xbe076685	-0.13222702
145	0x3d971e78	0.07378858
146	0xbdd8485f	-0.10560679
147	0x3e7aaf11	0.24480845
148	0xbebcd55d	-0.36881533
149	0x3e101d4f	0.1407368
150	0xbe975ef1	-0.29564622
151	0x3c3713be	0.0111741405
152	0x3e1bc6d8	0.15212572
153	0xbec5e16e	-0.38648552
154	0x3cef1ca3	0.02918846
155	0xbe3ed2d0	-0.18635106
156	0x3d03b079	0.03215072
157	0xbd969418	-0.073524654
158	0xbecc9f71	-0.39965394
159	0xbd91c405	-0.07117466
160	0x3d548f33	0.051894378
161	0xbdfb0a41	-0.12257815
162	0xbdd7d371	-0.10538376
163	0x3d91ce01	0.0711937
164	0x3db0c7ad	0.08631835
165	0xbe23a05e	-0.15979144
166	0x3dd83ccb	0.1055847
167	0xbe4a8bc6	-0.19779882
168	0x3e033e53	0.12816744
169	0x3da776d8	0.081769645
170	0x3ddb6b6d	0.10713849
171	0xbeaa978e	-0.33318752
172	0x3e9d3b6a	0.30709392
173	0xbde7b39b	-0.11313554
174	0xbe7cdb89	-0.24693121
175	0x3d93634b	0.07196673
176	0xbd27a321	-0.040927056
177	0x3d719f68	0.058989912
178	0xbd893d32	-0.06701125
179	0xbe95f9a7	-0.29292032
180	0xbdd1297a	-0.10212989
181	0x3dc367fa	0.09541316
182	0x3e177f66	0.14794692
183	0x3e679038	0.22613609
184	0xbd48fec2	-0.04907108
185	0xbe58f544	-0.21187311
186	0x3dff73c2	0.12473251
187	0x3c66a105	0.014076476
188	0x3dd5ce41	0.104397304
189	0x3d9546c6	0.072888896
190	0x3ce1643f	0.027513621
191	0x3d8ec25f	0.06970667
192	0xbe9108f7	-0.28327152
193	0x3d660d45	0.056165
194	0xbcad946f	-0.021188943
195	0x3eaff89d	0.34369364
196	0x3ca10877	0.019657357
197	0xbd73887c	-0.059456334
198	0xbf087a43	-0.53311557
199	0xbd53bf41	-0.051696066
200	0x3e10936c	0.14118737
201	0xbe78c3f6	-0.24293503
202	0x3e4dec9d	0.20109792
203	0x3df7c447	0.12097984
204	0x3de4bc8e	0.111687765
205	0x3e5408b9	0.20706452
206	0x3d8fff70	0.07031143
207	0xbe95a268	-0.2922547
208	0x3e16c2a7	0.14722691
209	0x3df3c9f3	0.11903753
210	0xbe266ca7	-0.16252385
211	0xbc58f3ea	-0.013241747
212	0x3b819bd5	0.003955344
213	0xbcf1e5c9	-0.029528515
214	0xbd287848	-0.041130334
215	0x3ef14095	0.47119585
216	0x3e97a817	0.2962043
217	0x3d978719	0.07398815
218	0x3ea85889	0.32880047
219	0x3db75734	0.089521796
220	0x3e4fd960	0.20297766
221	0x3c333c66	0.010939693
222	0xbced856f	-0.02899429
223	0x3d929186	0.07156663
224	0xbe90aee2	-0.28258425
225	0x3ea47d1d	0.32126704
226	0xbdd5a633	-0.104320906
227	0x3e53f483	0.20698743
228	0x3d712181	0.058869842
229	0xbddf2950	-0.108965516
230	0xbaf7d0e9	-0.0018906865
231	0x3dbe41a5	0.092898645
232	0xbe1761eb	-0.14783446
233	0x3ddf6034	0.10907021
234	0xbcc642fb	-0.02420186
235	0x3c087bd5	0.008330305
236	0x3e944d76	0.28965348
237	0x3ea835e9	0.3285363
238	0x3e0056a2	0.12533048
239	0x3dc5dd7d	0.09661386
240	0x3e4a210b	0.19739167
241	0x3dc06f48	0.09396225
242	0x3d773eb0	0.060362518
243	0xbe2deb9c	-0.16984409
244	0x3df42aaa	0.119222
245	0xbdf93aa5	-0.12169389
246	0xbd84b477	-0.064797334
247	0x3e5ad48b	0.21370141
248	0x3df9ab59	0.12190885
249	0xbe599388	-0.21247685
250	0x3da063b2	0.07831515
251	0x3d2fd7b3	0.042930316
252	0xbdc5b614	-0.09653869
253	0xbd3be7d4	-0.045875385
254	0xbdc288e3	-0.09498765
255	0xbea1475c	-0.31499755

actor_mean.2.bias f4 [64]
0	0x3d4c8452	0.049930878
1	0xbd67aad4	-0.0565594
2	0x3980c4fd	0.0002456083
3	0xbd1bb624	-0.0380155
4	0xbdac195c	-0.084032744
5	0xbd519cac	-0.051174805
6	0x3de3a2d4	0.111150414
7	0x39d837b9	0.00041240247
8	0xbc86b43d	-0.016443366
9	0xbb07e52e	-0.0020735967
10	0x3d451608	0.048116714
11	0xbda866b1	-0.08222712
12	0xbcecafce	-0.028892424
13	0xbcbf6eeb	-0.02336832
14	0xbd1552ec	-0.036456034
15	0x3ba5318b	0.0050413064
16	0xbc1ed7b6	-0.009694984
17	0xbb0c8b64	-0.0021445388
18	0x3ba83672	0.0051334435
19	0x3c2c5a90	0.010519639
20	0xbb97e75a	-0.0046357336
21	0xbdcfc427	-0.10144835
22	0x3d464996	0.04841002
23	0x3d0900d0	0.03344804
24	0x3c286844	0.010278765
25	0xbceb497d	-0.028721565
26	0xbd1c4042	-0.03814722
27	0x3d02b5f4	0.031911805
28	0x3dc7addc	0.09749958
29	0x3cc55a28	0.024090841
30	0x3d3592f5	0.044329602
31	0xbc37e4df	-0.011224001
32	0xbcc64cc6	-0.02420653
33	0x3bef61dc	0.007305367
34	0xbba12e15	-0.0049188235
35	0x3c36eace	0.01116438
36	0x3aa40b1e	0.001251552
37	0x3d440a16	0.04786118
38	0x3d026223	0.03183187
39	0xbcdf1758	-0.02723281
40	0x3d721292	0.05909974
41	0x3d7fa4bc	0.062412962
42	0x3cd2556b	0.025675496
43	0x3d22a2dc	0.039706096
44	0x3c6a80de	0.014312951
45	0xbbb4b725	-0.0055149966
46	0x3d85f7af	0.065413825
47	0xbd4c9d40	-0.049954653
48	0x3d2f1f7f	0.042754646
49	0x3c17d42b	0.009266893
50	0x3b0e801f	0.0021743847
51	0x3c901089	0.01758601
52	0xbd469cde	-0.048489444
53	0xbc11f503	-0.008908513
54	0xbcc364e5	-0.023851821
55	0xbcda3fe1	-0.026641788
56	0x3da5621e	0.08075355
57	0xbbd8fc5f	-0.006621882
58	0x3d0e249b	0.03470288
59	0xbb1948f7	-0.0023389438
60	0xbc90ded0	-0.01768437
61	0xb9838521	-0.00025085456
62	0x3c09ed1f	0.0084183505
63	0xbc74f042	-0.01494986

actor_mean.4.weight f4 [2, 64]
0	0xbd890ca5	-0.06691865
1	0x3d40d0fe	0.04707431
2	0x3d63f64f	0.05565482
3	0x3d64b5c2	0.0558374
4	0xbceeb18e	-0.029137399
5	0xbc45f4bc	-0.012082275
6	0x3cb5ee8e	0.022208478
7	0xbd49788a	-0.04918722
8	0xbdaa12f1	-0.08304394
9	0xbd8399f8	-0.064258516
10	0xbd04e414	-0.032444075
11	0x3d1343e1	0.035953406
12	0xbd572846	-0.052528642
13	0xbd8bef95	-0.06832806
14	0xbdc07fb9	-0.09399361
15	0xbc52d64a	-0.012868473
16	0x3d7aee05	0.06126215
17	0xbb8ffb56	-0.0043939753
18	0x3d2e817c	0.042603955
19	0x3c077017	0.00826647
20	0xbc410145	-0.011780088
21	0x3d533ffb	0.05157469
22	0x3d3dee1a	0.04636965
23	0xbd341d31	-0.04397315
24	0xbc82c164	-0.015961356
25	0xbda69369	-0.08133585
26	0x3d7db349	0.061938558
27	0xbc9fcbb5	-0.019506315
28	0xbd961404	-0.073280364
29	0xbb070be7	-0.002060646
30	0x3bbd38c6	0.00577459
31	0xbd84677b	-0.0646505
32	0xbd91666f	-0.07099616
33	0xbdfbf48b	-0.12302502
34	0xbc55b6a5	-0.013044034
35	0xbdc3483d	-0.09535263
36	0xbce6f141	-0.02819121
37	0xbd9a69ab	-0.07539686
38	0xbd81ecf8	-0.06344026
39	0xbd2d54e5	-0.04231729
40	0xbd66f46d	-0.056385446
41	0xbbafa74f	-0.005360521
42	0xbc019950	-0.007910088
43	0x3c2428b4	0.01001947
44	0xbd63ea9b	-0.05564366
45	0xbcc28514	-0.023745097
46	0xbd034578	-0.032048672
47	0xba2664e5	-0.0006347432
48	0xbd0f83a3	-0.035037648
49	0x3c3813de	0.011235205
50	0xbbe43bdf	-0.006965145
51	0xbc8286d3	-0.01593343
52	0xbd175ebb	-0.036955576
53	0xbcd4ee59	-0.02599256
54	0x3cd12035	0.025528053
55	0xbdc31be8	-0.09526807
56	0x3ca0bf65	0.019622514
57	0xbd82560e	-0.0636407
58	0x3d8a95dc	0.06766865
59	0x3d555826	0.052086018
60	0x3a91ebee	0.0011132935
61	0xbdb68260	-0.08911586
62	0x3d76c66d	0.060247827
63	0x3ce22826	0.027607035
64	0x3d627406	0.05528643
65	0xbc44a1de	-0.012001483
66	0x3c2df17e	0.010616658
67	0x3da33423	0.07968929
68	0x3da6a0d2	0.08136143
69	0x3d0878f2	0.033318467
70	0x3dd6166b	0.10453495
71	0xbd4c8fb3	-0.04994173
72	0xbd126356	-0.035739265
73	0x3d96ccbe	0.0736327
74	0x3d0a8492	0.033817835
75	0xbd12b5ff	-0.035818096
76	0xbda34a8a	-0.079732016
77	0x3d00b8b7	0.031426158
78	0x3d19cdbe	0.037549727
79	0x3dbaa446	0.09113364
80	0xbc30b681	-0.0107857
81	0xbd55cc6f	-0.052196916
82	0x3cc1b477	0.023645623
83	0x3b02abed	0.0019938902
84	0x3c812656	0.01576535
85	0xbdd6395a	-0.10460158
86	0x3cab2ca5	0.020895312
87	0x3d104dc4	0.035230413
88	0x3d4cbef9	0.049986813
89	0xbd4d30fc	-0.050095543
90	0xbbd8b815	-0.006613741
91	0x3df7c400	0.12097931
92	0xbd483017	-0.048873987
93	0x3d1295ea	0.0357875
94	0xbc437df6	-0.011931887
95	0xbc07275d	-0.008249131
96	0x3ab50802	0.0013811591
97	0x3cd75c5f	0.026289163
98	0x3d902298	0.07037848
99	0x3d8b1493	0.067910336
100	0x3d116214	0.035493925
101	0xbd175718	-0.036948293
102	0xbcb6561e	-0.02225786
103	0x3c477ceb	0.012175779
104	0xbd085c6f	-0.033291277
105	0x3d745191	0.0596481
106	0xbd7d6e97	-0.061873045
107	0x3dbe2886	0.09285073
108	0xbdcf9b5e	-0.10137056
109	0x3d98129b	0.07425424
110	0x3baa9a99	0.0052064178
111	0xbd8a8ef0	-0.067655444
112	0xbd49dd64	-0.0492834
113	0x3cbc0780	0.022952795
114	0x3b22018e	0.0024720165
115	0xbdb80217	-0.089847736
116	0xbdf1e76e	-0.1181172
117	0x3d630983	0.055428993
118	0xbda26aa8	-0.07930499
119	0x3bf50e22	0.0074784914
120	0x3d2766c3	0.040869486
121	0x3d01df30	0.03170699
122	0x3c77095e	0.015077917
123	0x3a04e044	0.00050688186
124	0x3db8c6cd	0.09022293
125	0x3cdb1fa3	0.026748484
126	0xbd3840d3	-0.044983696
127	0xbd707f3b	-0.058715086

actor_mean.4.bias f4 [2]
0	0x3c8fb86a	0.01754399
1	0xbcb96680	-0.022631884
