jsbgym/models/train_saves/ppo_ts4e-2_beta0.15_366_19-01_13:24:34.pt (torch, 62326 bytes, 14 tensors)

actor_logstd f4 [1, 2]
00000000: 323f bbbd cf6e e6bc
-0.09142913 -0.02812901

conv.0.weight f4 [3, 1, 5, 1]
00000000: 391f 5dbe d939 24be e1ae db3e bca5 c9be
00000010: 9707 773f 2d93 193f a341 2f3e 6589 103f
00000020: ae5e 8fbe f2fb 153e e836 bfbd 5700 08bf
00000030: f38a babe e70b 54bf c3b4 cfbe
-0.21593942 -0.16037692 0.4290686 -0.39384258 0.96495956 0.599902 0.17114882 0.5645965
-0.28001922 0.14646891 -0.093366444 -0.5312552 -0.36434135 -0.8283066 -0.40567598

conv.0.bias f4 [3]
00000000: d324 0e3c 5c07 67bd a959 a53d
0.008675772 -0.056403503 0.08073742

critic.0.weight f4 [64, 42]
00000000: 895b 9bbe 2c79 633e f9eb 78be 7903 e7be
00000010: 59b3 b73d 7bb1 bfbe e826 363e 9955 e1bd
00000020: 0fb5 09bd a2f7 ddbd a688 e9bc 353a 703d
00000030: 7036 45bc 0a38 393d 1f1c 7f3e dde9 883e
00000040: ef32 c43c 5e1f 79be 3985 bc3d 6e84 8dbe
00000050: f7d1 a63d ea9b ef3b ee2d 313c f74a aa3e
00000060: cfb0 3abe 99da 1ebe a07c 59be 3071 383d
00000070: f932 71bc ef81 1cbe 0f1f 2b3e 9fc7 39ba
00000080: 1536 b33d 6653 e4bd 480a 5ebd f2e6 913d
00000090: 058d 253d 767b bebd e51d c7be 0214 14be
000000a0: 577d 713e 376d b5bd 800a 70be 6425 133e
000000b0: 0b1f 76be 3e4b 9ebd 763b 633d 5404 b6bd
000000c0: fd7c 773e f059 0cbe 00d7 a43c 29a3 85be
000000d0: bb20 063e 5766 89bb da3f c43e 0742 bebe
000000e0: 557f ed3d b7be 16be 6181 d1bd 43a9 a03d
000000f0: 9452 2a3e a7e4 7bbe 27a6 cc3d fb24 2cbd
00000100: cf24 c33d ad6e 173e 146d 5cbd e1ea bd3d
00000110: dffe 59bd a345 b6be 546f a03e 2947 2bbe
00000120: 6efa 9a3e ad31 213d 159c 65bd f0ab 1bbe
00000130: c2a0 6bbe d2f2 adbd e21f c43d a29b 9dbd
00000140: 9c63 f5bc 46de 0abe 7198 d1bd 930a f93e
00000150: 2b7f 153e ef18 36be 905c 96bd 0759 96be
00000160: 2ccb 5c3e e2b8 58be de40 3a3f 4c9b bfbc
00000170: c38d 2cbe c81f eabc 2668 d43c b896 273d
00000180: 2a9b 2bbe 2606 9a3e d0de 9cbd f1bf 13be
00000190: 6705 d53e 3f05 83bd 1156 213e c52b 25bd
000001a0: 45a9 993d b4e0 9ebe 68b1 31be 717d 303c
000001b0: 394b 70bd c93b 243d 190e 373e e204 00be
000001c0: 24e2 9c3d 95bc 0a3e 6dbb 243e 8b7b 013d
000001d0: 6ebb 393e f86d 0d3e c204 3d3e d86a 913e
000001e0: 761c 7ebd 2e3e 233e cd28 983d f191 cebd
000001f0: f79d 8b3e 617b 01bc 5bb7 ab3d 0298 62be
00000200: 457a a4be ee00 863e 131b 8fbc 8390 a33d
00000210: 1c83 f6bd 25f9 293d e7ad 2b3e ae80 ddbd
00000220: 235f b93d 286f 303e 0ab2 9abd 2ae1 d8bd
00000230: cc4d b43d 0198 843e e7b1 e33c 01e6 fe3d
00000240: 4f1c 1a3e 5a8b bcbd 3b3c 163e ad97 d93d
00000250: e13e 4d3d cdd3 6fbe 6c2e 13bc 3044 3e3e
00000260: 2c4d 25be 444a 5e3e abc1 5f3d 6e70 8fbe
00000270: 3f89 353e 59c1 ca3d 6789 a13e 442e 98bd
00000280: 2ba0 733e a625 a5bc 811c 92bc 85f4 0ebe
00000290: 28e5 403e dac9 3d3e 7beb cf3d 92ca 1dbe
000002a0: 2665 51bd 7a20 b9be 5f5a 8a3e 4e66 f5bd
000002b0: bd78 1fbd 3e9d 69be 3430 9c3e 016d 5b3e
000002c0: 715d df39 5477 12be 456b 343d 3c60 5bbe
000002d0: 6746 1a3f 777e 633c 009d 33bd ba43 a43d
000002e0: 5f90 9e3e 3846 25bd 53e4 703e 550f 24be
000002f0: 5bdf 6e3d ad7f d83c 8b9b 9c3d d248 0a3e
00000300: 3576 733d a0c7 93bd bd05 09be dc4a d3bc
00000310: be45 86bd 5d27 c0bd ab3e a4be 8a01 86be
00000320: a135 153e ff92 fdbd 4f6b e3bc 57bb 90be
00000330: e0bd b5be e868 133d d227 623e ba60 1bbe
00000340: f5f2 7cbd afbd 34be 7065 283e 9011 91bd
00000350: db2f b3be c5ea c0bd 2192 ad3d 0be2 76bd
00000360: 8c94 35be 2af4 1e3f 25f1 e33d 6aaf f2bc
00000370: 251f 31be 2e19 703d 91aa 80bd d6a8 4b3e
00000380: 44f2 5abe 2021 32be 8609 203a 245b 2bbd
00000390: 953a 34be e82a 60be 2131 263b 69f6 3bbd
000003a0: 04cb 8dbd 27fc 133e 230c 1cbe 521b 333e
000003b0: 7472 693e 25f4 84be 7c14 b03e c85b 6a3d
000003c0: 5606 a4bd 0720 bcbc 4e2f 1c3e 5cbb 6bbe
000003d0: 5d91 1abd 7d35 2fbe 5220 7cbe f675 b23d
000003e0: 6809 d0bd 8d15 d73d 3915 7fbe 4002 40be
000003f0: 0182 a63e 5cc7 b53d b406 733e 878f 233e
-0.30343273 0.22214192 -0.24308766 -0.45119837 0.08969755 -0.37440094 0.17788279 -0.110026546
-0.033619937 -0.10838248 -0.028507542 0.05864926 -0.012036905 0.04521946 0.24913071 0.26740924
0.023950068 -0.24328372 0.09205098 -0.27640098 0.08145516 0.0073122876 0.010814173 0.3326032
-0.1823151 -0.15513076 -0.21238947 0.04502982 -0.0147216255 -0.1528394 0.16711067 -0.0007086936
0.0875055 -0.111487195 -0.054209024 0.071241274 0.04041769 -0.09300892 -0.38889995 -0.14460757
0.2358297 -0.08858722 -0.23441505 0.14369732 -0.2403528 -0.07729195 0.05547663 -0.08887544
0.24168773 -0.13706183 0.020122051 -0.26101044 0.13098423 -0.004193108 0.38329965 -0.3715975
0.11596552 -0.1472119 -0.10229755 0.07844784 0.16633064 -0.24598943 0.099926285 -0.042027455
0.09528505 0.14788313 -0.053814963 0.09273315 -0.05322158 -0.35600004 0.31334937 -0.16726364
0.30269188 0.039354015 -0.056057055 -0.15202308 -0.23010543 -0.0849358 0.09576394 -0.076957
-0.029954724 -0.13561353 -0.10234154 0.4864088 0.14599292 -0.17782949 -0.07341874 -0.29364797
0.21561879 -0.21164277 0.7275523 -0.023389481 -0.16850953 -0.028579608 0.025928568 0.04091522
-0.16758409 0.30082816 -0.076596856 -0.14428689 0.41605684 -0.06397485 0.15755488 -0.040324945
0.07502989 -0.3103081 -0.17352831 0.010772095 -0.058665488 0.040096078 0.17876472 -0.12501863
0.076603204 0.13548501 0.16087122 0.03161196 0.18137905 0.13811481 0.18458846 0.28401828
-0.06203886 0.15941688 0.07429657 -0.1008643 0.27268955 -0.007902951 0.08384582 -0.22128299
-0.32124534 0.26172584 -0.017468965 0.07986548 -0.12036726 0.04149737 0.16765557 -0.10815559
0.09051349 0.17229903 -0.075534895 -0.10589822 0.08803901 0.2589722 0.027794791 0.124462135
0.15049861 -0.09206267 0.14671414 0.10624633 0.050108794 -0.2342064 -0.008983236 0.18580699
-0.1614272 0.21708018 0.054628056 -0.28015465 0.17728136 0.099001594 0.31550142 -0.074306995
0.23791568 -0.020159554 -0.017835857 -0.13960464 0.18837416 0.18534032 0.10152336 -0.15409306
-0.051121853 -0.3615759 0.27022073 -0.11982404 -0.038933504 -0.2281389 0.30505526 0.214283
0.00042603494 -0.14303333 0.044047613 -0.21423429 0.60263675 0.013885132 -0.0438509 0.0802073
0.3096952 -0.04035017 0.23524599 -0.16021474 0.058318477 0.026428068 0.07646855 0.13504341
0.059438903 -0.0721581 -0.13381095 -0.025792532 -0.06556271 -0.09382508 -0.32079062 -0.2617305
0.14571239 -0.12381553 -0.02776113 -0.2826793 -0.35496426 0.03598872 0.22085503 -0.15173617
-0.06175514 -0.17650484 0.16444945 -0.07083428 -0.34997448 -0.09419779 0.084751375 -0.060274165
-0.17732447 0.62091315 0.11129979 -0.02962466 -0.17297037 0.058617763 -0.06282533 0.19888625
-0.2138148 -0.17395449 0.0006104935 -0.041834965 -0.17600472 -0.21891367 0.0025358873 -0.045889292
-0.06923488 0.14451657 -0.15239005 0.1749089 0.22797567 -0.25967517 0.34390628 0.057216436
-0.08009021 -0.02296449 0.1525242 -0.2302069 -0.037736285 -0.17110248 -0.24621704 0.087139055
-0.10158044 0.10502157 -0.2491044 -0.18750858 0.3252106 0.088759154 0.23733026 0.1597272

critic.0.bias f4 [64]
00000000: 15a1 f9bd cb00 82bd 82c6 383e 03ba 24bd
00000010: e0e6 943d f8f7 81bc 02dc 133e 2977 49bb
00000020: 1ca6 eebb eadf 2dbc 24bc c33c 8d77 913c
00000030: a86f abbc 71a5 1cbe 4a0c 6f3d e17a d83c
00000040: df69 3d3d 4ceb ed3d 6dec 533c 0734 fe3d
00000050: e082 203d 005d cfbd ced3 0cbe 1866 5f3d
00000060: eb1f 92bc 84be b3bb b630 6abe fc6c 8f3d
00000070: 3f07 a3bd f6a5 523d d835 ff3c f9d5 5ebd
00000080: 9e76 c8bd 9351 6abd 902f 64bd b181 afbc
00000090: f78a 74bd 1fcc 5a3c 49ed d93c f35d 4bbc
000000a0: 1584 86bd f66b 45bc 050e 883c 6401 a8bc
000000b0: e240 f43d 4ac6 18bc 4da3 34bc 8528 d4bd
000000c0: 98e5 f9bd e1a2 f33d 42a1 693d 1979 90bd
000000d0: 92a4 a6bc b052 ae3c 535e 993d d3a5 05bc
000000e0: f6ee 283d b794 efbd d551 ab3d c462 f6bc
000000f0: f17f cfbd 1010 94bd cd09 2cbd 6d24 63be
-0.12188927 -0.063478075 0.18044475 -0.040216457 0.072705984 -0.015865311 0.14439395 -0.003074119
-0.0072829854 -0.010612467 0.023893423 0.017757202 -0.020927265 -0.15297486 0.05836133 0.02642578
0.046243545 0.11617145 0.012934786 0.12412267 0.039187312 -0.1012516 -0.13752672 0.054540724
-0.017837485 -0.0054853577 -0.22870144 0.07003209 -0.079603665 0.051427804 0.031153604 -0.05440328
-0.097882494 -0.0572067 -0.05570942 -0.021424146 -0.05970284 0.01335433 0.026602404 -0.012412536
-0.065681614 -0.012049666 0.016608248 -0.020508476 0.11926438 -0.00932462 -0.011025262 -0.10359291
-0.12201995 0.11896301 0.057038553 -0.070543475 -0.020342145 0.021279663 0.07488694 -0.008157211
0.041243516 -0.11698287 0.083652176 -0.030076392 -0.10131825 -0.07229626 -0.042001534 -0.22181864

critic.2.weight f4 [64, 64]
00000000: 0deb 273e e896 c0bd c3d0 9abe 0e71 8ebd
00000010: fa94 4c3e 8b40 8bbd 0210 ae3d 9e03 0abe
00000020: 97e2 84be 3e6e 2abd 9894 9bbd 3b6c 84be
00000030: 9d53 6b3e 0dd5 463d 08d6 6d3e 4fa2 843d
00000040: 592b e93d 8000 89bd 4d63 263e e4c1 98bd
00000050: 46ac 2c3d 6096 c83d ce18 bdbd bb5a b6bd
00000060: be3c 0abd edf2 4f3e f846 9cbe 0e8f 673c
00000070: eef3 a93c c4c4 813e 5f4b 8f3d 7599 60be
00000080: afbb 333e 50b1 6b3e 590b fdbd ea3b cb3e
00000090: 49a1 eebd 9c5a 183e a125 b1bc 53e1 00bd
000000a0: 99e7 92be f634 96be abca 24be b528 78be
000000b0: 6dcd 393e 4ba1 0b3e 5089 8f3e 08f1 633d
000000c0: 71a6 43be ba29 54be 0a71 45be 312e 04be
000000d0: b08a ce3d 36fc 55bd 8b42 72be a7c7 723e
000000e0: e87e a4bd eb6f 9f3e 8504 92bd d26a ac3e
000000f0: 48e9 563e 6ddf 333e 762f 723e ef6d 3b3e
00000100: a271 3e3d ed26 1ebe e32d 203d 6e73 8b3b
00000110: 2569 06bd 9076 4cbd c49e e3be 10eb d0be
00000120: 372b 3e3e b82b b33d bf0f 3a3e 40ab 19bd
00000130: db55 613e ac56 7fbd 8b02 ef3c b6e6 4f3d
00000140: 76aa d2be 05b7 f73c b94a b73e 5e45 a73c
00000150: 7bb8 10bd 89d2 b53d 07a3 823e 0d65 f7bb
00000160: 0f0c 25be adb5 8ebd 32d5 bb3e 1eae b53d
00000170: 0f25 4a3c 0d52 813d dca3 a1bd 75e1 26be
00000180: 149d 793e 24d2 21be 57d8 ec3d 121b c33d
00000190: 32bf 343e e29f 6bbc 24e8 49be b144 df3d
000001a0: e5bd e83d 114e 5fbe 3628 863e 41da 0cbe
000001b0: bf7c 5dbe d035 843c 3055 b0bc 5e26 41be
000001c0: 12a4 213e f147 5dbe fabb f53d d78e 2c3c
000001d0: aaba 163e 4fa0 54bd bfe1 f5bd 0359 9e3e
000001e0: 78f2 243e 5ed9 a63e fa50 e1bd 0b09 b4be
000001f0: 71cc 6dbd 3692 043e 179d 133e 62f6 83be
00000200: 651e 58be 78f0 313e cefd 16bd 80c2 71be
00000210: 9474 933d 5f08 643e b927 7e3e dc17 89bd
00000220: edc8 91bd ba75 7e3d d477 90bd fadc 153e
00000230: 6fc0 223e 4d7e 5cbd b323 ad3c f86f 353d
00000240: c159 b6be d851 313e 4f4f e63d a1d8 8a3e
00000250: b7a9 62bc 2530 283e 55b5 60be 74f1 5fbe
00000260: 96c2 7fbe 314d 06bd c705 2ebe 4897 bcbd
00000270: 1a12 c0be 7941 f5bd df07 d43d 84d1 1b3e
00000280: 5913 0cbc 3a83 30be eeb1 0c3d a2ee 45be
00000290: 56bb 6ebe 2cb3 463d 5fcf a8bd 8196 d73d
000002a0: 8a98 7fbe 15c6 863d 5d3c 063f 6ec0 073d
000002b0: 7f32 7b3e 89c5 df3e 02e1 8abc 1ed5 023e
000002c0: df99 efbd 46e8 94bc 9b9e cc3d 3a1c 44be
000002d0: 2171 603e 7967 44bd 7b9c e83d 1ccb 833e
000002e0: 791f 3f3e ae74 d93e 576e 393d a5ab 803d
000002f0: 2e67 57be 463d e8bd 9790 9abe de5c 163e
00000300: 5a5f 2d3e a144 2abd f295 e73d eb4d 37be
00000310: b414 6ebe 07a6 6fbe aad6 9abe 7a68 5c3e
00000320: 39ae 3d3e 7e26 95be c3d3 c83d 464b 6e3e
00000330: 55fb b8bb 070c ac3e ebaa b1bd 04e6 26bd
00000340: c506 02bd 1dd9 1e3e 5934 3cbe 6fbd 77be
00000350: 1037 a73c ee79 e9bd 3fde adbe b780 4fbe
00000360: ae68 3fbc 56d1 08be a84a 733e 15cb 3a3e
00000370: 59e4 28be acbd 15be b51d fb3a fd30 ec3d
00000380: 6925 74bc 1955 90bd 6cbd 1e3d 49dd f6bd
00000390: 182c fbbe 773c 1cbe 4436 c53d f3b3 7fbd
000003a0: 02b4 ddbb 04a0 12bf 1ad4 cabb b996 db3d
000003b0: 5e85 d33d e7dc c83d cb6c 8b3d c756 f23d
000003c0: 5efb 7e3b a36c c53d a442 5ebe 3577 5bbd
000003d0: cf33 88be 7d65 62be d472 87be a184 5b3e
000003e0: 8664 80bc 4f18 e63c 527d 193e a130 503d
000003f0: b830 903d e148 87bd 49f0 823d f559 abbc
0.16398259 -0.09403783 -0.30237398 -0.06955157 0.19978705 -0.0679942 0.08499147 -0.13477942
-0.25954124 -0.04160904 -0.075967014 -0.25863823 0.22981115 0.048543025 0.23226178 0.064762704
0.11385221 -0.066895485 0.16248818 -0.07458857 0.04215648 0.09794307 -0.09233247 -0.08904024
-0.033749335 0.20307513 -0.30522895 0.014133228 0.020746198 0.25345433 0.06996798 -0.21933539
0.17552064 0.23016858 -0.1235568 0.39694148 -0.116518565 0.14878315 -0.021624388 -0.031464886
-0.2869232 -0.2933728 -0.16092937 -0.24234279 0.1814477 0.13635747 0.2803445 0.055649787
-0.19106461 -0.20719042 -0.19281402 -0.12908246 0.10085046 -0.05224248 -0.23658197 0.23708974
-0.08032018 0.31140074 -0.07129768 0.33675247 0.20987427 0.17565699 0.23650917 0.18303655
0.046495087 -0.15444537 0.03910626 0.0042557037 -0.032815117 -0.049917758 -0.44457066 -0.40804338
0.18571173 0.08748573 0.18170069 -0.037516832 0.22005408 -0.062338516 0.029176017 0.050757132
-0.41145676 0.030238638 0.35799196 0.020418819 -0.035332184 0.08878047 0.25515005 -0.007549888
-0.16117881 -0.06968246 0.36686093 0.08871101 0.012337937 0.06314478 -0.07892582 -0.16296943
0.24376327 -0.15802819 0.11564701 0.095266476 0.1765106 -0.014381381 -0.19717461 0.10901774
0.113643445 -0.21807124 0.26202554 -0.13755132 -0.21629618 0.016138941 -0.021524996 -0.18862292
0.15785244 -0.21609475 0.11998744 0.010532103 0.14719644 -0.051910695 -0.12005948 0.30927286
0.1610812 0.32587713 -0.11001773 -0.3516315 -0.0580563 0.129464 0.14415394 -0.25773913
-0.21105345 0.17376888 -0.03686314 -0.23609352 0.0719997 0.22268818 0.2481984 -0.06694004
-0.07118402 0.06212399 -0.070541054 0.14635077 0.1589372 -0.053831387 0.021135187 0.044296235
-0.35615352 0.17316377 0.11245596 0.271184 -0.0138344085 0.16424616 -0.21944173 -0.21869451
-0.24976572 -0.03278846 -0.16994391 -0.09208542 -0.3751381 -0.119753785 0.10353064 0.15216643
-0.008549535 -0.17237559 0.034349374 -0.19329312 -0.2331365 0.048510715 -0.08242678 0.10526753
-0.24960533 0.0658075 0.5243586 0.0331425 0.24530981 0.43705395 -0.016952995 0.1277661
-0.116992705 -0.018177163 0.09991189 -0.19151393 0.21918155 -0.04795024 0.11357971 0.25740898
0.1866435 0.42471832 0.045271244 0.062827386 -0.21035454 -0.11339812 -0.30188438 0.14683864
0.16930905 -0.041569356 0.11307897 -0.17900817 -0.23250085 -0.23403178 -0.302419 0.2152423
0.18523492 -0.2913093 0.09806015 0.23270902 -0.0056451955 0.33602926 -0.08675178 -0.040746704
-0.031744737 0.1551251 -0.18379344 -0.24193357 0.020411998 -0.11400209 -0.33958623 -0.20263945
-0.011682672 -0.13361105 0.23758948 0.18241532 -0.16493358 -0.14623135 0.0019158634 0.11532781
-0.014901497 -0.07047481 0.038754866 -0.120539255 -0.49057078 -0.1525744 0.09629491 -0.062427472
-0.0067658434 -0.57275414 -0.0061898353 0.107221074 0.10328172 0.09807759 0.0680786 0.11832958
0.003890715 0.096398614 -0.21705109 -0.05358048 -0.26602027 -0.22109027 -0.26454794 0.21437313
-0.015672933 0.028087763 0.14989212 0.050827626 0.07040542 -0.066056974 0.06393487 -0.020916918

critic.2.bias f4 [64]
00000000: 72f2 1c3d 88f5 c53c e580 10bd 1cc3 98bd
00000010: 038f 5fbc 0e63 38bd 7d58 243d 0db4 95bd
00000020: 0e3a 1cbe e6fb 443c f294 093e 1f31 12be
00000030: 0223 bf3d e9e7 b1bc 0960 ea3d 8c36 a0bd
00000040: 4240 013d 7493 463d 2c58 b43d b068 853d
00000050: 74fe a5bd cc3a 53bd 635d 23bd 0b53 3b3d
00000060: b3af 5ebd 88c2 e43d 9b79 3f3d 5841 9f3d
00000070: e219 eebd 8cca 00bd 0faf f03d 6c56 bbbd
00000080: c20a 17bd 2f00 3dbc 6972 be3d b3af 633d
00000090: 0c04 04be 8bd9 15be 91d2 89bd b4d5 9f3d
000000a0: 8593 36bd 3d33 ea3c e7f7 bd3d 1501 58bd
000000b0: 0845 57bd bfbb 3b3d 650e 973b 60fc a8bd
000000c0: 8297 aebc 4d49 343d 1621 cf3c 3f2d 263d
000000d0: 96db 2fbd 0655 a6bc be9c 0abd ea7f 84bd
000000e0: 180d 363d 7ab1 72bd d535 5b3d d61d 0f3d
000000f0: 0296 c33d 0015 9a3d 6104 be3d daa4 d43d
0.03831715 0.02416493 -0.035279173 -0.07459089 -0.0136449365 -0.04501634 0.04012345 -0.073097326
-0.15256521 0.012022948 0.13435724 -0.1427655 0.09332849 -0.021717029 0.114440985 -0.07822904
0.03155542 0.048480466 0.0880588 0.06514108 -0.08105174 -0.051569745 -0.039883982 0.045733493
-0.05436678 0.111699164 0.04674683 0.07776135 -0.116260305 -0.031443164 0.1175214 -0.09147343
-0.036875494 -0.011535688 0.09299166 0.05558748 -0.12892169 -0.14633767 -0.067296155 0.078044325
-0.04457428 0.028588885 0.09275799 -0.052735407 -0.052556068 0.045833346 0.0046098703 -0.08251262
-0.021312479 0.044015218 0.025284331 0.040570494 -0.042934023 -0.020304214 -0.033840887 -0.0646971
0.04444608 -0.059251286 0.053518135 0.034940563 0.09550096 0.07523537 0.09278179 0.103830054

critic.4.weight f4 [1, 64]
00000000: 6f38 51bc 23d8 77be 531e fc3d ea29 db3d
00000010: 36be 1b3e cf7e 553d e1bb 57be 1ba1 863e
00000020: e79f 263e 752f e2bd a4c5 adbd 0584 7a3e
00000030: 53cc e5bd 2263 d43d 2969 efbd 0ae3 de3d
00000040: 7916 c3bd 20aa 90bd 8494 45be 6ae4 15be
00000050: 263b 083e b6c0 bc3d 4076 843c 09c7 1bbd
00000060: 3584 943d 7c47 fcbd 6451 d8bd 12db 48be
00000070: 5451 b53d 93db 853e ab94 3ebe 8b97 1f3e
00000080: 45b9 323e d6e4 fc3d e787 58be d264 d9bd
00000090: b4f3 da3d b375 0f3e 6255 c33d a9ac d0bd
000000a0: 8c2f b13d 8782 02bd 05fe f4bd 8fa2 ec3c
000000b0: 40d2 903d c358 babd 6531 56be e1b1 943d
000000c0: 580c a73e b740 28be 20de bcbd 8bd8 5bbe
000000d0: c028 623e 4525 72be 4d37 aa3c 431d 183e
000000e0: 87f0 a3be 1e54 e83d 6e87 48bd 6894 9bbe
000000f0: d2b1 1abe 85c5 14be dd84 03be 7575 87be
-0.0127698025 -0.24203543 0.123104714 0.10701354 0.15209278 0.052122887 -0.21067764 0.2629479
0.16271935 -0.11044208 -0.084849626 0.24464424 -0.112206124 0.103704706 -0.116899796 0.10883148
-0.09525771 -0.07063699 -0.19294935 -0.14637914 0.13303813 0.09216444 0.016169667 -0.03803161
0.07251779 -0.12318322 -0.10562399 -0.19614819 0.08853403 0.26144084 -0.186114 0.15585153
0.17453487 0.123483345 -0.21145593 -0.10614933 0.10691014 0.14009742 0.0953777 -0.10189182
0.08651647 -0.03186276 -0.11962513 0.028886108 0.07071352 -0.09098961 -0.2091728 0.0726049
0.32626605 -0.16430937 -0.092220545 -0.21469323 0.22085857 -0.2364703 0.020778323 0.14854912
-0.32019445 0.11344169 -0.04895728 -0.30386662 -0.15106896 -0.14528473 -0.12843652 -0.264568

actor_mean.0.weight f4 [64, 42]
00000000: 2f51 54bd 8dd2 3bbe 2cbb 463e 8a64 d9bd
00000010: 445b a9bc 04ac 94bd 2297 95be 1515 d0bd
00000020: 947b 15be 38ac 1dbe d913 91bd d723 b93d
00000030: e37a 053e 7c70 303e 91f9 c93d 120f b1bd
00000040: 3b2d cbbd ac2d 11be cde5 4f3d 8621 28be
00000050: b673 a43e eb50 32be f017 af3d ca03 fa3a
00000060: 21af 143c 730d e3bd 3234 54bd 4049 9f3e
00000070: 7792 07be 8579 9b3d 0dfb 78bd 73aa 8d3d
00000080: 9690 d4bb 39c4 b0bc d143 bf3d e971 9b3e
00000090: 309d b9be e1d0 703e fcb1 91bd 3471 32be
000000a0: c7f6 c73d 5975 cabe 90a6 cf3d 99cd 37bd
000000b0: 5a5b 87be 0628 2dbe 0247 5fbd c32e e3bd
000000c0: f658 e53e fef3 423d 9e32 8d3e d462 4e3e
000000d0: 8197 9bbd a993 0fbe e6a1 363e 0ed8 cb3d
000000e0: d746 bfbc 98f6 2bbb 8ca2 ab3e aaed 3ab8
000000f0: 0c02 dbbc 53b5 f0bb 90f0 d33e dab6 a93e
00000100: 8669 2e3e f828 6bbe 00c1 593e 4334 2abe
00000110: 0b60 2c3e 1635 a6be 029b 733e 5c0c b13e
00000120: 7c46 593e 8aa1 3e3e cfd6 3cbe 2e03 b7bc
00000130: f44b ea3c 162a e5bd 01db f83d 1c36 d0bd
00000140: d640 2ebe 3759 923b 12b4 5b3d 72a7 663e
00000150: abea d93d d8ce 833e c0d7 2d3a 801e 443e
00000160: e35e 663d 4fb9 70bd f507 c7be 8284 89be
00000170: 31c3 a43d 1910 233e 0f11 d73d bc32 0e3e
00000180: 3dea f03e c58b 7c3d 0fff cabd 0cea 87be
00000190: b018 783d 1f97 093e bb1e 143e 05c5 9dbd
000001a0: 8cb5 473d 1b66 e5bd 2095 913d 4822 b2be
000001b0: 8247 9fbc f99e 303e 590b 04be 8565 32be
000001c0: 6436 02be 529b 0cbd 3d28 e13d 3d5f 03bd
000001d0: 7556 113e 2bae d1bd 8592 f13d 3d59 ba3e
000001e0: 4249 033e bfa9 893e 5b6a 4b3e f503 4a3e
000001f0: d89c 9bbc f6f3 40bd 449d a2be b885 c5bb
00000200: c654 493c 8b45 47bd e372 c9bd b5c8 5a3d
00000210: fb60 7abe 11b8 1e3d 9ff9 983d 2767 8cbc
00000220: 7500 333d 4a55 b8bc 6127 923c e890 5dbe
00000230: fd6a 08bf 4409 313b e650 123e c119 ca3d
00000240: ce3c 41be 8c1a 813d 44c8 2b3e b286 7bbe
00000250: c77e 4ebe 350f 87be e405 0a3e 8036 ac3a
00000260: 02fc 41be 947a d03d 4063 ea3d 3db5 66be
00000270: 054e 65be 4713 023d 224e 22be 214f 9ebb
00000280: f682 ccbc cac9 84bd f417 c73d a8c3 3e3d
00000290: 545e 87bb 7d78 b53d 2601 1b3e ca45 bd3c
000002a0: c720 c83d 9ff8 c1bc 4d4e 0b3d e8d8 8d3c
000002b0: 7d26 ac3d 9d2a 38be d88a 97be 916c 463e
000002c0: b56e 1c3a d6b8 983c 5936 5cbd 4454 33bd
000002d0: 8d12 1d3e 578f 08bd 6b46 8a3b 7e85 a5bd
000002e0: dd0b 5d3d 8288 203e 9f6e 18bc 2eaf bf3d
000002f0: 3fc3 28be 99ff 1c3e e8ec e8bd 5a1d 1fbe
00000300: 9d6a a53d 71f9 cebd 0dc2 9d3e 1bfe d83c
00000310: bf85 f2bd b64a 4e3e 8e76 fcbc 7073 f73d
00000320: 42ca bd3d d48a be3d 26b2 62be a9c0 27be
00000330: e80c dc3d c23d b43a e65b c93c 6a25 d03c
00000340: da6d b0be 96b0 89be 8abd 6d3e 00dc 333e
00000350: cd21 d3bd 8b2d 00be 0e69 0f3e 585e d33c
00000360: df6d 66be 0e14 e03e 0065 18be 6a94 3c3e
00000370: ac86 d03d 1144 8d3c b611 1bbd b882 113d
00000380: 14d5 dabd 60f4 833d 2259 58be d4af 13bd
00000390: b0c5 dd3b 366f e33d 8657 e5be b72e 1e3e
000003a0: 2d21 5b3e 08b6 603e 0f13 083e 6d5e 12be
000003b0: 6686 893e 1b34 0bb9 a666 1bbe e126 a8bb
000003c0: 422d 9fbe 7118 97bd fe0c 1f3e a537 d6bd
000003d0: dda9 c93e b96e a4bd 7a91 363e c008 9c3e
000003e0: 974c e1bd c5c3 bebd 971b 44be 7856 403e
000003f0: 8392 68be 29ab 2a3e f7fd f2bd d6a2 58be
-0.051835235 -0.18342037 0.19407338 -0.106148794 -0.020673402 -0.07259372 -0.29216868 -0.10160271
-0.14597923 -0.15397727 -0.07083864 0.09040039 0.13035159 0.1723041 0.09862054 -0.086454526
-0.099207364 -0.14177579 0.050756264 -0.16419038 0.3211953 -0.1741368 0.085494876 0.0019074616
0.009074957 -0.110865496 -0.05180759 0.31110573 -0.13239466 0.075915374 -0.060786296 0.06917276
-0.0064869625 -0.021577941 0.09339107 0.30360344 -0.36252737 0.23517181 -0.07114026 -0.17425996
0.09763866 -0.39542654 0.10139191 -0.044873808 -0.26436883 -0.16909799 -0.054511078 -0.110929035
0.44794434 0.04759597 0.2757768 0.20154887 -0.075972565 -0.14021172 0.17835197 0.099533185
-0.023349209 -0.002623951 0.3352245 -4.4567198e-05 -0.026734374 -0.0073458343 0.41394472 0.33147317
0.17032441 -0.22964847 0.2126503 -0.16621499 0.16833512 -0.32462376 0.237896 0.34579742
0.21218294 0.1861631 -0.18441318 -0.022340383 0.02860067 -0.11189668 0.12151147 -0.101665705
-0.1701692 0.0044662016 0.053638525 0.22524813 0.106404625 0.25743747 0.00066315755 0.1915226
0.056242835 -0.058770474 -0.38873258 -0.26858908 0.08045042 0.1592411 0.105013005 0.13886541
0.4705371 0.061656732 -0.0991193 -0.2654575 0.06057042 0.13436554 0.14464848 -0.07703594
0.04875712 -0.11201116 0.071085215 -0.3479178 -0.019443277 0.17248143 -0.12894954 -0.17421539
-0.12716061 -0.034327812 0.10994003 -0.03207325 0.14193137 -0.10238298 0.117955245 0.36396208
0.12820914 0.26887318 0.1986479 0.19728072 -0.018995687 -0.04710766 -0.3176061 -0.0060279034
0.012288278 -0.048650306 -0.09836366 0.053414065 -0.24451058 0.03874976 0.074694864 -0.01713903
0.043701608 -0.022501606 0.017841043 -0.21637309 -0.5328825 0.002701358 0.14288673 0.098681934
-0.18870851 0.063038915 0.16775614 -0.24563101 -0.20165549 -0.2637879 0.1347881 0.0013138801
-0.1894379 0.1017963 0.11444712 -0.22530074 -0.22393043 0.031756666 -0.15850118 -0.0048312102
-0.02496479 -0.06483801 0.097213656 0.04657331 -0.004131118 0.08860872 0.15137157 0.023104567
0.09771877 -0.023678122 0.03401022 0.017315343 0.084057786 -0.17985006 -0.29598117 0.19377352
0.00059674244 0.018642824 -0.053762767 -0.043781534 0.15339108 -0.033339825 0.0042198203 -0.08082102
0.05396639 0.15677074 -0.009303718 0.09359585 -0.1648073 0.15331878 -0.11373311 -0.1553854
0.080769755 -0.10106171 0.30812111 0.026488354 -0.11841916 0.20145687 -0.03081825 0.12082565
0.09267093 0.09303823 -0.2213827 -0.16382088 0.10744649 0.0013751315 0.024579953 0.025408465
-0.3445881 -0.26892537 0.23216835 0.17564392 -0.10309181 -0.12517373 0.14004919 0.025801823
-0.2250285 0.437653 -0.14882278 0.1841599 0.101819366 0.01724437 -0.037858687 0.035525054
-0.10685173 0.06443095 -0.21127751 -0.036056355 0.006767951 0.11105196 -0.44793338 0.15447508
0.21399374 0.2194444 0.1328852 -0.14293833 0.2686035 -0.00013275484 -0.15175876 -0.005131588
-0.31089216 -0.07377709 0.155323 -0.10459832 0.39387408 -0.08028931 0.17828932 0.30475426
-0.110009365 -0.09314684 -0.1915115 0.18782985 -0.2271214 0.16666855 -0.11864846 -0.21155867

actor_mean.0.bias f4 [64]
00000000: 5b6a 20bc 54de 023d 2140 2b39 7a43 8e3d
00000010: 36cc 253c b1bd 49bc 422e 42bd 8a87 683c
00000020: d8f4 033c 8761 ba3c bfd5 15bd a36f 88bc
00000030: 3c98 813d 4fe3 303d 4c19 673d 08d6 03bd
00000040: b6f2 153d 9290 f13d 89d4 c23b 0ec5 1abc
00000050: b34c 423c fabc acbd 470c 60bd dc9e 853d
00000060: b6e5 033b 1e88 333c 4cd9 833c 9868 df3d
00000070: a2ab a0bb 5016 8c3c d841 843b 713c 94bd
00000080: 33df 8c3d 88e5 cdbb 9042 ab3c 1e90 81bd
00000090: 2db4 853c 548d 6a3c ba13 60bd b07c d03d
000000a0: 8fc4 22bd ee03 dcbc ea62 313d e1ad 063d
000000b0: 6bf9 613c c7c0 6abc 1e01 2f3c 8383 0b3d
000000c0: 39d7 5a3d 489e b1bc 9d89 61bc 9e4f 2ebd
000000d0: 3cb6 963c 950a 13bd 3c1f 883c 8c9f afb7
000000e0: abd8 9abd 2e6b 1e3d a996 5b3d 879e 353d
000000f0: f102 3b3b b332 c9bc 18a3 db3d a592 ab3d
-0.009790982 0.03195031 0.0001633172 0.06946464 0.010119488 -0.012313292 -0.047407396 0.014192471
0.008053981 0.022751583 -0.036580797 -0.016654795 0.063278645 0.04318553 0.05642061 -0.032186538
0.03660842 0.11795153 0.0059457463 -0.009446396 0.011859107 -0.08434482 -0.05469921 0.06524441
0.0020125932 0.010957746 0.016094826 0.109086215 -0.0049032727 0.017100483 0.0040361695 -0.07238091
0.06878509 -0.006283466 0.020905763 -0.06326316 0.016321266 0.014315922 -0.054706313 0.10180032
-0.039738234 -0.026857343 0.043307222 0.032880668 0.013792376 -0.014328188 0.010681419 0.034060966
0.05342791 -0.02168192 -0.01376572 -0.042556398 0.018397443 -0.035898764 0.016616456 -2.093592e-05
-0.075608574 0.038676433 0.053610478 0.044340637 0.0028535689 -0.024560308 0.10724467 0.083775796

actor_mean.2.weight f4 [64, 64]
00000000: 588f 98be 10f4 843d b961 cebd 7c6e ac3d
00000010: 1a76 8ebe 0591 8bbe e9fe a93d c091 81be
00000020: 5bb9 e8bd 0011 903e fa55 e73b 973b a73d
00000030: d3e1 5dbe 3fb8 81be d9ef 26bd 46ed d9bd
00000040: 2307 73ba a368 ee3d 39c1 d23d 13af 723d
00000050: 2f6a 7bbc 47ed d83d 3d64 57bc d7d0 95bb
00000060: a545 883e 474c 99bd 80b6 4b3e 3733 993a
00000070: d358 0ebe a17d 223e 64a0 06be cebc 423e
00000080: fa62 9ebd 219f bcbd 1e00 87be 3e46 8e3e
00000090: 4576 d43b 4983 083e 3160 4bbd b92e ddbe
000000a0: 2e95 b53c b0b6 f93e 1549 2dbd 6352 f83d
000000b0: 1cb2 593e 2462 c23c 2f91 5bbe c76f 363e
000000c0: 9e47 febb 3a18 3a3e 4f72 acbe 86e3 9e3d
000000d0: 62ef 02be 2bb0 953e 91d7 34be 2ccf 08bc
000000e0: d424 4e3e 48ed 5fbd c35f 2d3d db1f e13c
000000f0: f23b 843e 5313 cebd 73bc 9d3c 501e 213e
00000100: 3bd7 bcbd e19f 4cbe e5e2 553c e2ad 51be
00000110: 3f3e e6bd 266b e43d 8896 dabd 1928 d93d
00000120: 83db 54be f409 1c3e d47f 753e 7154 ba3c
00000130: 61d0 a43c 3a11 64ba 5a17 c33d 66fa 50bd
00000140: 34a7 a4bd 73fe 0cbe 55a3 c73e 3cdd 553c
00000150: 14cc 9f3d e074 783e 4684 503e 89fc 19be
00000160: f2dc c0bc 6369 4d3e d8bd e0bd 91cc 573c
00000170: 0891 b83e b0d2 bc3e 6271 1bbd 7f7a 3f3e
00000180: 2cdf 91be a141 a5bd 1143 213e c59d 093e
00000190: b732 ffbd 2f3c a0bd 06bc 89be 2be9 8bbe
000001a0: 5093 33be dc28 87be 2659 043e fdc6 a93e
000001b0: 4db7 d13d adef f9bc aade c4bd d0e1 82bd
000001c0: 71fa 2fbe 595e d0be 92df 383d 4598 9cbd
000001d0: dedb 19be c077 2ebe acaf 6bbd 5a7a 8b3e
000001e0: 3306 7cbe 4dfb 923e 8952 06be bee8 5bbd
000001f0: c481 8b3e d7d3 1dbd b718 e4bd 27ae 5d3c
00000200: 74c7 9abe 4d44 633e 5347 803d 6ae8 21be
00000210: 4883 b33d 7168 38be 13be 76be 523a 873c
00000220: 398b 15be 9bc0 b63e 5a81 de3d 1a44 5d3d
00000230: db78 cebe 2389 9d3c d411 5fbe ce18 3f3d
00000240: d0bc 1a3d e9b8 0ebe 4f54 bc3d 1ed3 813e
00000250: 0ae2 68be 290e b93c ad46 efbd 0c4e 12be
00000260: 230c 34be c143 4bbe 5c55 edbc 0712 413e
00000270: 715e 50be 53cd ad3d b00c 84be 56f0 c2be
00000280: f16d 10be d2b6 73bd dedc e63d e1dc 0c3e
00000290: 599a 8f3e aad4 d0bd cff7 78bd 94b6 3c3e
000002a0: 3b31 67be 7499 913d cede 613e 3df1 74be
000002b0: ac3c 7abd 4dae 8ebe 9124 77be d7e8 83be
000002c0: 16f4 d5be a293 1dbd c36f 6f3d e7a3 55bd
000002d0: e593 59bd f098 0d3e 7e08 1d3e f627 b0be
000002e0: 5180 c63b 048c 19be 2f83 96bd 759a a73d
000002f0: 096b 053d 0b81 053e 457d cfbd c0c7 2fbe
00000300: c93e 7fbe fcff 5a3e ef31 f83b 5054 d4bc
00000310: 1a90 5b3d 8478 a53e 37b5 55be 8603 853d
00000320: d650 163e 8f3b d83d fd86 a93e 90c1 17bd
00000330: f0e2 07be 43c6 e13d bcb1 acbe b9b9 c53c
00000340: 817c 69bd 2a81 1ebe 91c5 b2bd 66ac 28bb
00000350: 8e53 083e 9e6c e2bd 6591 f43d b054 cf3e
00000360: 4a21 e93d 6685 ba3e b2f1 653d 4a2b 37bd
00000370: 3a38 4e3d c373 6dbe 2eb0 c93d f33f 28bd
00000380: 0f7e 8d3d 6b95 7cbe 2da0 113b 40be 5e3e
00000390: c890 fe3c 729a 8fbd 6eda 4c3d 97d2 8ebe
000003a0: f269 0e3e 985a 03be 0663 babe b7bf 6bbd
000003b0: 2826 edbd 196b 87be 1f23 163e 484b 373e
000003c0: 500f 92be db3d 65bd abd6 1ebe aaab 9bbe
000003d0: b7fe b83d 67fe b83e 6b7e 6c3e 098c 8e3e
000003e0: f448 153e b964 0e3e ff28 dc3d e646 20bd
000003f0: 8b14 ef3d c0f8 4c3e 0e6b f5bd d566 fabd
-0.29796863 0.06491864 -0.10077233 0.08419511 -0.2782448 -0.2725908 0.083005734 -0.2530651
-0.11363479 0.2813797 0.0070598098 0.08165663 -0.21668176 -0.2533588 -0.04075608 -0.106409594
-0.0009270778 0.116410516 0.102907605 0.059248995 -0.01534514 0.10592132 -0.013146457 -0.004572015
0.26615635 -0.07485252 0.19893837 0.0011688237 -0.13901071 0.15868236 -0.13147122 0.19017336
-0.07733722 -0.09210039 -0.26367277 0.27787966 0.0064838254 0.13331331 -0.049652282 -0.4319971
0.022165861 0.48772192 -0.042306025 0.12125089 0.2125935 0.023728438 -0.21442102 0.17816077
-0.0077600023 0.18173304 -0.3368096 0.077582404 -0.1278663 0.29235968 -0.17660357 -0.008350175
0.20131236 -0.05466965 0.042327654 0.02748101 0.25826985 -0.100622796 0.019254899 0.1573422
-0.092207395 -0.19982864 0.013054584 -0.20476487 -0.11242341 0.111532494 -0.10673243 0.10603351
-0.20786862 0.15238172 0.23974544 0.022745343 0.020118894 -0.0008700077 0.09525938 -0.05102005
-0.08039704 -0.1376894 0.389918 0.013053235 0.07802597 0.24263334 0.20362958 -0.15037741
-0.023542855 0.20059733 -0.1097371 0.013171331 0.3604815 0.36879492 -0.037949927 0.18699072
-0.2849058 -0.08069158 0.1574824 0.1343909 -0.12460845 -0.07823979 -0.26901263 -0.2732633
-0.17536664 -0.2639836 0.12924632 0.3315963 0.1024004 -0.030509794 -0.09612782 -0.063907266
-0.1718538 -0.40696982 0.04513509 -0.076462306 -0.15025279 -0.17037868 -0.05754058 0.27241784
-0.2461174 0.28707352 -0.13117422 -0.053688757 0.2724744 -0.038532104 -0.111375265 0.013530291
-0.30230296 0.22194023 0.06263604 -0.15811315 0.08765274 -0.18008591 -0.24095945 0.016507301
-0.1460389 0.3569382 0.108645156 0.054020025 -0.4032658 0.019230431 -0.21784145 0.046654515
0.037777722 -0.13937725 0.09195768 0.25356382 -0.22742477 0.02258976 -0.11683402 -0.14287585
-0.17582755 -0.19850065 -0.028971367 0.18854533 -0.20348527 0.08486428 -0.2579093 -0.38073987
-0.1410444 -0.059500523 0.11272596 0.13756134 0.28047445 -0.101968125 -0.060783204 0.18429023
-0.22577374 0.07109347 0.2205765 -0.2392015 -0.061093017 -0.27867356 -0.24135043 -0.2576358
-0.41787785 -0.03847087 0.058456194 -0.052158263 -0.05311956 0.13827872 0.15335271 -0.34405488
0.006057777 -0.14994818 -0.0734924 0.08183757 0.03257278 0.13037507 -0.10131315 -0.17166042
-0.24926294 0.21386713 0.007574312 -0.02591911 0.053604223 0.3231851 -0.20869909 0.06494813
0.14679274 0.10558235 0.331108 -0.03704983 -0.13270164 0.110241435 -0.3372935 0.024136411
-0.0570035 -0.1547896 -0.08729089 -0.0025737523 0.13313124 -0.11055873 0.11941794 0.404943
0.113833025 0.364299 0.0561387 -0.044719018 0.05034659 -0.23188691 0.09848057 -0.04107661
0.069088094 -0.24666373 0.0022220716 0.21752262 0.031074896 -0.0701188 0.050013 -0.27895042
0.13907602 -0.12827528 -0.36403674 -0.05755588 -0.11579543 -0.26448897 0.14661835 0.17899811
-0.28527308 -0.055967193 -0.15511577 -0.30404407 0.09032958 0.36131594 0.230951 0.27841213
0.1457861 0.1390561 0.10750007 -0.039130114 0.1167384 0.20016766 -0.1198331 -0.12226645

actor_mean.2.bias f4 [64]
00000000: 91c5 863b a901 fdbb 2930 01bc b03f f4bc
00000010: 3332 0bbd df5b 85bc 2108 6a3c ab85 60bb
00000020: e1b7 d7b9 0832 153d 9810 8fbc 7644 d13c
00000030: cec1 cdbc e15f 2c3d d8bc bf3b b976 90bc
00000040: 84a8 9cba e453 2fbb 3803 68bd 127b 85ba
00000050: 11ce 163d 0520 3e3b 4986 3bbd 47ad 063c
00000060: 82f8 0abc 9017 50bc e159 57bd 8c35 0dbd
00000070: c11b 78bd 625f 84bd 19c0 85bc 43c7 69bd
00000080: 877c b63c 993e b53b c741 e2bb 68f2 5f3c
00000090: 3cb2 bcbc 5661 1d3d 270b b43c 1d3b 13bd
000000a0: cdb6 073c bf2d d4bb 4d3d 843c 046b e6bc
000000b0: b871 ce3d 82cb 143d fa42 cabd b00b 2a3d
000000c0: 8b19 3f3a 6d8a e0bc 5521 253d 8f03 91bb
000000d0: 6d5c 0f3d 537d 88bc b301 873c 8891 993d
000000e0: abb0 533b 43f5 cf3b a0bb 153d d7e6 1ebd
000000f0: 73f5 ec3a 3234 753c d063 813b 721c f1bc
0.004112907 -0.007721145 -0.007885017 -0.029815525 -0.03398342 -0.01627916 0.014284165 -0.003425936
-0.00041144996 0.036424667 -0.017463967 0.02554534 -0.025116827 0.042083625 0.0058513694 -0.017634736
-0.0011952077 -0.0026752884 -0.056643695 -0.0010183773 0.036817614 0.0029010784 -0.04578236 0.0082200235
-0.0084821 -0.01270093 -0.05257595 -0.034474894 -0.060573343 -0.06463505 -0.01632695 -0.057074796
0.022276176 0.005531144 -0.006904814 0.013668634 -0.023034208 0.038422905 0.021977974 -0.035945047
0.008283329 -0.00647518 0.016142512 -0.0281272 0.10080284 0.036326893 -0.09876056 0.041515052
0.0007289878 -0.027409757 0.04031499 -0.004425473 0.035000253 -0.016661322 0.016480302 0.07498461
0.0032301347 0.006346376 0.036555886 -0.038794365 0.0018078521 0.014966058 0.003948666 -0.02943251

actor_mean.4.weight f4 [2, 64]
00000000: ea01 b8bc 49e5 26bd be33 17bc 6393 59bd
00000010: c8bd c7bd efc9 d13c 1df1 a1bb 1db7 c43c
00000020: e750 bb3c 8e59 8c3d cb7a 713d dcb3 ca3c
00000030: 4711 81bc 8c8b 9d3d 2b25 2bbd 0498 383d
00000040: a1cb d1bd 14f7 473d 0d5d 68bd 3d7e a8bd
00000050: 8a8c bcbc 0cc6 1bba 9373 27bd 04fb 723c
00000060: 4cc1 3a3d 1c94 d43d 2777 4abd 383f bfbd
00000070: 06d2 e8bc 683a b8bc 47c9 bcbc 75a8 03bd
00000080: 6b60 273d 7c5e 95bd 9c68 07bd 8906 a4bc
00000090: a152 ea3c 21c3 48bd 18c7 cc3c e89d 393d
000000a0: 6d6b 08bd 9650 b73d ce25 89bd a4a2 203d
000000b0: f198 d4bb a7be e73c a0be de3d 0b26 c73c
000000c0: 2c22 83bd 18cf 9abd 9e16 d2bb c06f 8dbd
000000d0: 1553 293d a9f3 95bd 1de4 1cbc cdaf 35bd
000000e0: 87cf a03d 2dc5 973d 1404 cf3c 853b 5dbc
000000f0: 227f 9f3d c1bd 8abb b02f 913d 42e9 a73c
00000100: 060a 2cbd 51ed a1bc 590e 0cbd d931 043d
00000110: 3bd5 3cbd bda3 8cbc 2c8e 13bb 1445 a43d
00000120: 0e1f 03bd bb30 a23d aeee 67bd 292f f1bd
00000130: 60b7 883d 63d3 8fbc 35ec fb39 c5a0 593d
00000140: accd 0c3c aa84 2dbb 5e4e 8e3d ca51 98bc
00000150: d412 333a 3084 23bd e0b7 df3c b112 40bd
00000160: 6d93 3abc 527d 2d3b 2d89 50bb b87d 2e3d
00000170: 9b6b 4b3d e133 73bd b426 3c3d ab82 bbbd
00000180: 2f9c a13d 6f25 34bc ddde 9bbd 3eef eebc
00000190: aee6 cc3c 1963 9dbd 7184 76bd ee1d b63d
000001a0: c2fc 203d 4832 b93d 7846 4cbc 916f 623d
000001b0: 46f9 803d 6422 1cbd 677f 29bd 3d88 1a3d
000001c0: cef4 223c 0f90 11bc de31 d0bd f6a0 02bd
000001d0: 49c0 dfbd 593b 543c 9346 c13d d96d eeba
000001e0: 32ad 94bd 9cbf 55bc 7c6c 3f3d adc3 d23c
000001f0: 93cc 7abd 79e6 b8bd 998c 593d 97ed 91bd
-0.02246185 -0.040746007 -0.009228645 -0.053119075 -0.09752995 0.025608985 -0.004942073 0.024013096
0.022865726 0.06853019 0.058954995 0.024743967 -0.015755309 0.07692632 -0.041783493 0.04506685
-0.10243917 0.048819616 -0.056729365 -0.08227203 -0.023016233 -0.0005942292 -0.040881705 0.014830355
0.0455945 0.10379812 -0.04943004 -0.0933823 -0.02842046 -0.022488788 -0.023045195 -0.032143075
0.040863436 -0.07293412 -0.033058748 -0.020022647 0.028603854 -0.049014214 0.024997279 0.045316607
-0.033305574 0.089509174 -0.06696664 0.039217606 -0.0064879586 0.028289152 0.108762026 0.024310132
-0.06403002 -0.07559031 -0.0064113876 -0.0690608 0.041339 -0.07321865 -0.009575871 -0.04435711
0.07852083 0.07410655 0.0252705 -0.01350296 0.077879205 -0.004234046 0.07089174 0.020496968
-0.042001747 -0.019766482 -0.03419337 0.0322741 -0.04610179 -0.01716792 -0.002251516 0.08020988
-0.032012038 0.07919451 -0.056624107 -0.11776573 0.06675601 -0.017556852 0.0004805044 0.053131837
0.008593958 -0.002647678 0.06948541 -0.018593688 0.0006831114 -0.039920986 0.027309358 -0.046892826
-0.011387688 0.0026472402 -0.0031820044 0.042600363 0.049663167 -0.059375647 0.045935348 -0.09155782
0.07891118 -0.010995253 -0.07610867 -0.029166814 0.02501234 -0.07684917 -0.0601849 0.088924274
0.03930355 0.090427935 -0.012467973 0.05528218 0.06297545 -0.038118735 -0.041381266 0.037727583
0.009946061 -0.008884444 -0.101657614 -0.031891786 -0.10925347 0.012953603 0.09437289 -0.0018190696
-0.07259597 -0.0130461715 0.046734318 0.025728071 -0.061230253 -0.09028334 0.0531126 -0.07125395

actor_mean.4.bias f4 [2]
00000000: b68c 20bc 105c 06bd
-0.009799173 -0.03280264
