jsbgym/models/train_saves/ppo_capsnosspa_ts5e-2_simple6030_turbwind_6_56509_08-01_22:28:17.pt (torch, 59393 bytes, 14 tensors)

actor_logstd f4 [1, 2]
000000 5a ed 10 be a0 8f d6 bd
       -0.14153042 -0.10476613

conv.0.weight f4 [3, 1, 5, 1]
000000 ef 4a 06 bf c7 89 7e be c8 3e 84 bd 06 c4 51 3c
       -0.5245809 -0.24857245 -0.06457287 0.012803083
000010 7f ae 78 be f6 be 7f 3e 5d 5c 25 be 66 fe 2a bf
       -0.24285315 0.2497519 -0.16148515 -0.6679443
000020 14 36 02 bf 84 68 31 be 9f 56 03 be 08 b6 5c be
       -0.50863767 -0.17325026 -0.12826012 -0.21553814
000030 a1 e5 a1 be 77 c1 01 be 83 2a 9b 3f
       -0.31620505 -0.12671457 1.2122349

conv.0.bias f4 [3]
000000 c0 79 a3 3e e6 a1 51 be d2 a4 c4 3d
       0.31928825 -0.20471916 0.096017495

critic.0.weight f4 [64, 36]
000000 c9 3b 9d be 56 8c a4 3d ca 0c e1 bd 09 5a e7 3c
       -0.30709675 0.080345795 -0.109887674 0.028241174
000010 33 3f a8 bd 15 28 b8 bd 9b 69 a2 be d2 5e 85 bc
       -0.08215179 -0.0899202 -0.31721196 -0.016280565
000020 d8 4c 03 3e 44 f7 96 be 4e be 37 be 0a 72 2a bd
       0.12822282 -0.29485524 -0.17943689 -0.041612662
000030 85 3f 93 3b 96 8f 48 3e cc 6c fc 3b 01 ea 70 3e
       0.004493656 0.19586024 0.0077033993 0.23526765
000040 aa 9f ac 3e db 8a 7e bd a7 36 e4 3e 0f 3e 4e 3e
       0.33715564 -0.06214414 0.44572946 0.20140861
000050 65 19 8c 3d 87 9c bc be da 18 6e 3e 45 60 0c 3e
       0.06840781 -0.3683817 0.23251668 0.13708599
000060 3f f6 87 3e 2c e9 ba 3b 39 57 66 bd c4 60 c1 3d
       0.26555058 0.005704066 -0.056235526 0.09442285
000070 f7 13 d6 bc c3 c5 a7 bd 6e 8e 91 3c 1c 37 70 be
       -0.026132567 -0.08192017 0.017768111 -0.23458523
000080 a7 50 f1 3c cb f3 c4 3d 68 fb ea 3d 84 21 80 3e
       0.029457403 0.09616812 0.11473733 0.2502557
000090 ec c2 ba bc bb 4a d3 3e ae 81 1d be ea 74 3a 3d
       -0.022798024 0.41267952 -0.153815 0.045521654
0000a0 c1 6a 59 3d 8e f1 69 3d bc 38 25 3e 14 12 51 3d
       0.053080324 0.05711513 0.16134924 0.05104263
0000b0 92 e6 9f 3d 89 fc fd bd 2b 71 51 3a f2 45 a2 be
       0.0780765 -0.12401683 0.00079895806 -0.3169399
0000c0 f4 f7 00 3e d2 b3 14 be db 90 08 bf 72 f2 e3 bc
       0.12594587 -0.14521721 -0.5334603 -0.027825568
0000d0 07 06 23 3e 94 6a ba 3b bf 8c 16 be e1 56 f3 3d
       0.15920268 0.0056889746 -0.14702128 0.11881805
0000e0 09 c1 fe 3d ce c2 02 3e fd 1b 84 bd da f8 df 3b
       0.12439162 0.12769625 -0.06450651 0.0068350853
0000f0 2a a0 ef bc 44 8a 17 3f b5 69 0d 3e bf b5 85 3c
       -0.029251177 0.5919535 0.13809855 0.016322015
000100 a7 34 6b 3d 37 58 88 3d 75 41 b1 bd 47 64 7f bc
       0.05742326 0.06657451 -0.08655063 -0.015587873
000110 8e 18 f8 bd 68 4f b1 be 1b 6b 2b be e7 c0 d6 bd
       -0.121140584 -0.34630895 -0.16740076 -0.10486012
000120 6e a3 9b 3d af 67 f0 3c c9 0c cc be 12 bd 0b 3e
       0.07599531 0.029346315 -0.39853504 0.13646343
000130 d7 21 8d 3e 5a 46 a3 3d 1a 57 1d 3e 55 72 cd bd
       0.2756488 0.07972403 0.15365258 -0.10031573
000140 ba 83 cb 3c ff 59 86 bc 1c b1 44 3d 1f e9 cd 3e
       0.024843086 -0.016400335 0.048020467 0.4021692
000150 a4 d1 6c 3c d5 17 85 bc 5b af 69 be 35 74 97 bd
       0.014454279 -0.016246716 -0.22820799 -0.073952116
000160 4c 08 ab bc 2f 5c a3 bd cb bc 08 be e7 32 6f 3d
       -0.02087798 -0.07976567 -0.13353269 0.058398154
000170 45 f1 07 be 3d e1 da bc 94 61 50 be 4a 90 f8 bd
       -0.13275631 -0.02671873 -0.20349723 -0.12136896
000180 01 a7 ae bd d2 c8 85 3e 74 11 d8 3e 46 0f 5b bb
       -0.08527947 0.26129776 0.42200816 -0.0033425852
000190 da b0 b6 3d 94 15 13 be d1 66 b1 3c 32 28 fb be
       0.089204505 -0.143637 0.021655472 -0.49054104
0001a0 c9 9b 13 be 6e 5d bc 3d 70 5e c2 be a1 2b bf 3d
       -0.14414896 0.09197508 -0.37962675 0.093344934
0001b0 e4 c8 d3 3d c5 3b af 3d 85 86 81 3e 65 85 06 be
       0.10341051 0.08556322 0.25297943 -0.13136823
0001c0 e9 a6 61 bc b9 1c c8 bd c2 02 84 be df fa 97 3d
       -0.013772705 -0.097711034 -0.25783354 0.07420897
0001d0 7e 18 49 3e 65 b8 0d bc 95 71 17 bd b1 91 d8 3d
       0.1963825 -0.00864992 -0.036973555 0.105746634
0001e0 9f 90 f7 bd 67 a9 64 be 83 9e a1 3d 41 10 6c 3d
       -0.12088131 -0.22330247 0.07891562 0.05763269
0001f0 89 39 30 bd 9d 31 61 be c3 e6 1e 3e 73 24 82 be
       -0.04302362 -0.21991582 0.15517716 -0.25418434
000200 98 ec db 3b c9 26 30 be 74 02 e4 bd ad b8 d8 bd
       0.006711554 -0.17202295 -0.111332804 -0.10582099
000210 b2 42 6c 3e 76 68 8f bd ec 0f 5b be a4 d3 15 3e
       0.23072317 -0.07002346 -0.21392792 0.14631516
000220 9b 57 2e 3e a1 f2 b6 bd 71 75 e7 bd b2 28 de 3d
       0.17025606 -0.089329965 -0.11301697 0.10847606
000230 24 68 06 bd f5 a2 4b 3c 34 af f7 bd aa b6 99 bd
       -0.03281416 0.012428989 -0.12093964 -0.075055435
000240 cb 16 4b be a1 b8 68 3e ea 84 31 bd 91 76 a5 bd
       -0.19832914 0.2272668 -0.043339647 -0.08079255
000250 d6 0f 8c 3d 14 cf 5d be 15 ea 09 be 2e 67 93 3e
       0.06838958 -0.21661025 -0.13468201 0.28789657
000260 1b b3 89 3d b5 7f 65 3e dc bc 69 3e 8d 43 23 be
       0.06723615 0.22411998 0.2282595 -0.15943737
000270 be 10 0b be 30 5d 77 3e 0d ca 85 3e 56 17 9e be
       -0.13580605 0.24156642 0.26130715 -0.3087718
000280 5f 12 be bb ff 1a 76 3e 55 8d b8 bd b2 10 ae bd
       -0.00580053 0.24033736 -0.09011332 -0.08499278
000290 cd bf 24 be 24 69 c8 bd 3d 97 69 be 2b 0f df bd
       -0.16088791 -0.09785679 -0.22811599 -0.10891565
0002a0 22 4d 13 3e fe dd 27 3c ea 2e 38 3d 07 f6 84 be
       0.14384893 0.010245798 0.044966616 -0.25968954
0002b0 5c d8 47 bd 43 c6 80 be b8 f1 a1 bd 68 4c 0f be
       -0.04879032 -0.25151262 -0.07907432 -0.1399399
0002c0 67 87 15 3e 96 5d 53 3d 21 d5 47 3d 39 9e c1 bb
       0.14602433 0.051602922 0.04878724 -0.005908754
0002d0 70 0a 46 bd ec 26 af bd d1 03 f5 3d e6 c7 db 3d
       -0.048349798 -0.08552346 0.119636185 0.10731487
0002e0 af 20 e1 3d 79 06 c6 3c db 89 d0 bd 09 5b 24 3e
       0.10992562 0.024173008 -0.10182544 0.16050352
0002f0 bb 5a c7 3e 0c f1 2e 3e 5c 80 2e 3e d6 4b 68 3d
       0.3893641 0.1708414 0.17041153 0.056712948
000300 5c dc 18 bd d8 74 45 3e 6b 00 91 3e 73 ef b8 bc
       -0.037319526 0.19282854 0.2832063 -0.022575116
000310 82 6e 3b be 33 e6 80 bc 1b b7 43 3c 14 00 2a 3f
       -0.18303874 -0.015734768 0.011945511 0.6640637
000320 6c 68 1c 3e 96 3e 15 3e ac e7 bf 3c 74 9d 26 be
       0.15274209 0.14574656 0.0234259 -0.16271001
000330 b2 c2 b4 bd 71 f9 9b be cf 1f 43 be bb c1 e4 bb
       -0.08826198 -0.30463746 -0.19055103 -0.0069811023
000340 87 3c 58 be 55 f4 b9 3d ed a6 2d 3e 3e 00 b4 be
       -0.2111684 0.09079806 0.16958208 -0.35156435
000350 ac 94 90 3d d9 67 45 be 37 79 03 3d ce a4 3b be
       0.07059607 -0.19277896 0.03209802 -0.18324587
000360 1c bd 41 be 60 35 e3 3d 1e f6 29 be bf 1b 98 3d
       -0.18919796 0.11094165 -0.16597793 0.07427167
000370 01 23 8b bd 62 fe da 3d e4 00 1a be d0 cd 78 3e
       -0.06793786 0.10693051 -0.15039402 0.24297261
000380 2c 3a a1 bc 9b 37 87 be 9d 98 9f 3c 5a a8 19 be
       -0.019681059 -0.2640961 0.019481951 -0.15005627
000390 0d 33 45 be cf 89 99 3e cf a8 da 3e 1a 6d 8b 3d
       -0.19257756 0.29987952 0.42706916 0.06807919
0003a0 d2 ff 4f be 7f e6 53 3d de 9e 0f be de 4b 9e 3e
       -0.20312431 0.05173349 -0.14025447 0.30917257
0003b0 a3 7e 30 bc 30 0a b6 bd ac 40 aa 3c e4 22 f4 bd
       -0.01077238 -0.08888662 0.020782791 -0.11920717
0003c0 dd 22 8a 3d 14 5c 89 bc 78 8d 5e 3d a9 36 f6 3d
       0.06744931 -0.01676754 0.054334134 0.12022144
0003d0 f3 4b 96 3d ac 4b 92 3d c9 f4 d5 bc 7f 46 13 bf
       0.07338705 0.071433395 -0.0261177 -0.57529444
0003e0 84 07 05 bd df fb ca bd 7c 25 70 3e 59 1b 0e be
       -0.03247787 -0.09911322 0.23451799 -0.1387762
0003f0 7f e4 68 3e 7a 5d e0 3d 2c 56 97 3e 12 01 07 bd
       0.22743414 0.10955329 0.2955793 -0.032960005

critic.0.bias f4 [64]
000000 1b 45 c3 bc 5e f6 0a 3e c4 89 26 3e 41 67 29 bd
       -0.023836663 0.13570544 0.16263491 -0.041358236
000010 69 86 30 bd b5 c7 f5 bd cf 87 18 bd 2e 94 0c bd
       -0.043096934 -0.12000982 -0.037238892 -0.034321003
000020 c1 6b 15 3d 33 25 b1 3d 0f ca cf 3d 89 c4 b6 3d
       0.036479715 0.08649673 0.101459615 0.08924205
000030 67 34 8e 3c e2 d5 05 3e 27 c2 1a bd 0e 7e 7f 3d
       0.017358972 0.13069871 -0.037782814 0.062376074
000040 9a bd 0e 3d c3 e4 56 bd 08 b0 c4 3d cc b9 2f bd
       0.034848787 -0.052464258 0.09603888 -0.0429018
000050 de f1 0b 3d cf c9 dd bd 8e 82 d9 3c bd 4b 0a 3d
       0.03416621 -0.108295076 0.026551511 0.033763636
000060 6a 0a 12 be 55 03 72 bd 23 e3 8a 3c 6a 2f f2 3d
       -0.14261785 -0.05908521 0.01695401 0.1182545
000070 53 c8 ec 3d c4 43 83 3b 50 ed 20 bd 19 2b 11 3e
       0.11561646 0.004005881 -0.03928882 0.14176597
000080 00 b8 2d bd 1d d4 c3 bd cd 82 55 bd 75 3d c9 bd
       -0.042411804 -0.09561942 -0.052126694 -0.09826175
000090 d1 4d 8a bd 04 eb 33 3b f2 c4 a2 3c f7 86 a6 3c
       -0.067531236 0.0027453313 0.019869301 0.020328028
0000a0 99 1a 13 be 61 4a 8a 3d 4d ec 2b 3d 07 8a 12 be
       -0.14365615 0.06752468 0.0419734 -0.14310466
0000b0 04 d6 a1 3c 98 cd eb 3d a0 c1 17 3d b3 99 cd 3c
       0.01975537 0.11513823 0.03704989 0.025097704
0000c0 61 e9 5b bc 46 00 6d 3d 2d 15 b0 3d be c1 6c 3d
       -0.013422341 0.05786159 0.08597789 0.057801954
0000d0 04 42 8c bd 48 92 48 bd d0 69 9f bd bf 03 ea bd
       -0.06848529 -0.04896763 -0.07783854 -0.11426496
0000e0 5b 64 20 bc bb cc dc bd 42 38 5b be aa 52 15 bd
       -0.009789552 -0.10781237 -0.2140818 -0.036455788
0000f0 01 b7 8c bd b4 c7 f9 bc c4 45 19 bd 05 39 a4 3c
       -0.06870843 -0.030490734 -0.03742005 0.02004672

critic.2.weight f4 [64, 64]
000000 92 c4 0a 3e e7 20 ad bc 29 1e e0 3d 22 f0 04 3e
       0.13551548 -0.021133853 0.109432526 0.12982228
000010 09 5f a7 3d f1 15 1a 3e 69 b5 32 3e ac 38 6f 3e
       0.081724234 0.15047432 0.17452015 0.23361462
000020 07 87 e8 3a eb 70 d9 3d d3 f9 80 bd 2f 9d a8 3c
       0.0017740437 0.106172405 -0.0629765 0.020582763
000030 89 be b2 bd 40 1f 72 bd 9e f4 c0 3b 2b 16 b6 3c
       -0.08727748 -0.059111834 0.0058885356 0.022227367
000040 6c 85 c7 be 2f 7e 0a 3e 22 8e d0 bd 38 38 da bd
       -0.3896898 0.13524698 -0.1018336 -0.10655254
000050 0a da 49 be c1 3c 93 3c a5 1d 8e 3b a2 d2 af be
       -0.19712082 0.017973306 0.00433703 -0.34340388
000060 4f c6 e6 3d 87 5b d3 bd 03 93 87 3e ba 31 a9 3e
       0.11268293 -0.10320192 0.2647935 0.3304575
000070 df ad 10 be dd 4f 22 3c 99 1c 87 3d e2 7d 7a be
       -0.14128827 0.009906736 0.065972514 -0.24462083
000080 e7 47 4d 3e 3c c3 a0 be 72 22 5f 3e ac 02 cf 3c
       0.2004696 -0.31398952 0.21790484 0.025269829
000090 54 0c f6 3b 2f f5 7d 3e 3e 22 15 bc a4 10 c9 bd
       0.007508794 0.24800561 -0.009102402 -0.09817627
0000a0 35 e7 b5 bd ec 54 0c bf f5 49 ef 3e 5f fc 82 be
       -0.0888199 -0.5481708 0.46736112 -0.2558317
0000b0 5b 9c 3a be eb c6 f7 bd ee 85 5e 3e 81 53 b9 3d
       -0.18223707 -0.120984875 0.21730778 0.0904913
0000c0 9d 48 2d 3e b4 97 e7 3c 58 a4 ea 3c b2 d0 d2 bd
       0.16922231 0.02827058 0.028642818 -0.10293712
0000d0 5c a7 df 3c 27 72 f2 bc f5 3b 6d 3d 3a 6f 48 bd
       0.027301483 -0.029595448 0.057918508 -0.0489342
0000e0 b2 ad 19 be 9b fc 3b 3e 36 7d e0 3d fe f3 60 3e
       -0.15007666 0.1835808 0.10961382 0.21968076
0000f0 3a fd db bd 1a f2 2c 3e 0d 16 c5 3d ae 58 b2 be
       -0.107416585 0.1688923 0.096233465 -0.34833282
000100 71 de 50 bd 0c fc df bd 01 34 4f bd 09 b9 fc 3e
       -0.050993387 -0.10936746 -0.050586704 0.4935992
000110 1c c6 fa 3e ad 1a 13 3d c1 45 92 3a 33 ff db bd
       0.4897927 0.035914112 0.0011159704 -0.10742035
000120 73 d7 73 3e d4 cc be be b1 4d 81 bb f7 d8 fa bb
       0.23812656 -0.37265646 -0.003946029 -0.0076552588
000130 f5 2e 95 bc 13 81 61 be 6d bc 54 3d 3a 46 d5 bc
       -0.018210867 -0.22021894 0.05193751 -0.026034463
000140 d8 74 5e 3e b0 ca 7a 3d dd 9c 5d be a6 8c ce 3e
       0.2172426 0.061228454 -0.2164187 0.4034168
000150 52 57 f6 3d 6c 1c b7 bd 93 3a 8b 3e 14 bd 8d 3c
       0.12028374 -0.08940968 0.27193126 0.017302074
000160 9c 72 6e bd 58 ec af 3c 86 62 be bd 34 59 9b be
       -0.05821477 0.021475002 -0.092961356 -0.30341494
000170 cc 1d ec be da 3a 49 3e a6 66 6b 3e e5 d7 91 3c
       -0.46116483 0.19651356 0.22988376 0.017803142
000180 5a 74 66 3e b6 68 68 3c 90 34 f8 3d 39 b2 38 bd
       0.22505322 0.014185121 0.121194005 -0.04509184
000190 17 9e ca 3d 63 09 f8 3d 51 de 51 bd 69 60 12 be
       0.098934345 0.121111654 -0.051237408 -0.1429459
0001a0 73 f8 77 bc fc f4 bd ba d3 46 4b be 40 cc 89 3e
       -0.0151349185 -0.0014492567 -0.19851236 0.26913643
0001b0 bf e1 93 bd 65 07 64 3d 79 57 02 3e dc 59 d2 3d
       -0.07220792 0.055671114 0.1272868 0.102710456
0001c0 17 02 7b 3e c9 d1 80 be 8f a4 04 be f3 ae ce be
       0.24512516 -0.25160053 -0.12953399 -0.4036785
0001d0 ad f4 66 3e 5a d1 bc 3d fe 66 80 3c 98 6e 73 3d
       0.22554274 0.09219618 0.01567411 0.059431642
0001e0 50 b2 9b bd 34 1b 15 3e 7b 1b 78 bd d1 1b 01 bd
       -0.0760237 0.14561158 -0.060573082 -0.03152067
0001f0 2a 1d f4 bd 12 f6 d1 3d 8a ff 04 3c 3d 8d 8a bd
       -0.11919625 0.10252012 0.008117566 -0.0676522
000200 68 f8 ab be d6 33 44 3d e9 9f 5a be 8f 94 94 3c
       -0.33587956 0.047900997 -0.21350063 0.018137245
000210 fb f7 02 3e 13 2d 18 bd 1f fc 32 be a3 2d 90 3e
       0.1278991 -0.03715236 -0.17478989 0.28159818
000220 2e 6f e6 3c 94 c4 3d 3d 57 7c 85 be d3 f2 9f 3d
       0.028129186 0.04633005 -0.26071426 0.07809987
000230 db 06 8b 3d 5a 0f 9f 3d 64 4e 86 be 3b 81 36 3d
       0.06788417 0.077666 -0.26231682 0.044556838
000240 c3 a2 79 3e 3b a9 c1 bd 81 bb 99 3d bf ac 7a 3d
       0.24378495 -0.09456106 0.07506467 0.0611999
000250 29 e4 64 be 69 05 e4 3b 46 c8 ab 3d 8b 3e a7 3c
       -0.22352661 0.0069586528 0.083878085 0.020415565
000260 05 b3 02 be cb 28 ce bd be 97 7e 3d ec 59 2d 3e
       -0.12763603 -0.100663744 0.06215643 0.16928834
000270 8b 63 8c bb 24 7f 48 b9 37 e1 44 be f8 a5 85 3e
       -0.0042843274 -0.0001912085 -0.19226538 0.26103187
000280 a9 13 51 be 62 07 59 be 57 db 0c 3e 8b 59 95 be
       -0.20417656 -0.21194223 0.13755547 -0.29169878
000290 06 49 8c 3d ec df 31 3d 0f e9 3e 3d 60 c0 68 be
       0.068498656 0.04342644 0.04660898 -0.22729635
0002a0 d3 fd 8c bd 35 38 36 3e 86 b2 e7 39 5a 2b ea bd
       -0.06884351 0.17794879 0.00044192764 -0.1143405
0002b0 4a 69 e1 be 03 ba d9 3e a7 b6 be bd f6 bb 3d 3e
       -0.44025642 0.42524728 -0.09312182 0.18528733
0002c0 ce 5c 98 3e a8 bf 64 3e 56 c7 5a bd 20 29 db 3e
       0.29758304 0.22338736 -0.053412758 0.42804813
0002d0 35 6e 0e bf ea 5b e4 3e 42 f3 fc 3b b0 fa 2f bd
       -0.5563691 0.44601375 0.0077194283 -0.042963684
0002e0 a2 d1 7b be 18 aa 1d 3e 5d 87 36 3e 2d 82 c3 bc
       -0.24591687 0.15396917 0.17825074 -0.023865784
0002f0 25 73 c0 3d 38 3f 45 be aa 49 08 be 28 e2 bd 3e
       0.09396962 -0.19262397 -0.1330935 0.37086606
000300 fa c9 a3 3d ef cb fc 3e 24 0b 0e 3e ef 79 ee bd
       0.07997508 0.4937434 0.13871437 -0.11644351
000310 86 32 26 3c 32 71 25 be 3f 70 27 3d 45 75 17 bc
       0.010143882 -0.16156462 0.04087853 -0.009244268
000320 35 72 a2 be 8e 96 02 3e f3 63 a9 3d 0e e2 0a be
       -0.31727758 0.12752745 0.08271017 -0.13562796
000330 e3 78 86 3d 8e d1 59 bd db f9 0b bc 52 3f 8a 3d
       0.06566026 -0.053178363 -0.008543457 0.06750359
000340 e8 14 af bd 24 6e 56 3e 31 0e 2c be 5d e6 e4 3d
       -0.085489094 0.20940453 -0.16802289 0.11176751
000350 a1 37 78 be d0 14 3b 3e 15 25 b4 3e 5d 4e 94 be
       -0.2423997 0.18269658 0.3518454 -0.28966036
000360 e1 1d 60 3e 02 9f 0c 3e 79 a7 d1 bd 44 1b ff bd
       0.21886398 0.13732532 -0.10237021 -0.124563724
000370 a0 d7 86 3e a9 0e 27 be 16 36 c9 bd ab 51 b7 3d
       0.26336384 -0.16314186 -0.09824769 0.08951124
000380 51 3a dc 3d fa d7 e5 3d 6d 17 14 bd 24 7f b3 bd
       0.107533105 0.11222835 -0.036155153 -0.087644845
000390 a1 f3 92 be c5 38 8e be 15 1a 08 3e 75 e8 dd bd
       -0.287015 -0.27777687 0.132912 -0.10835353
0003a0 47 f9 59 bc 6d 2e b6 3d cf 4f 42 be d9 e6 34 3e
       -0.013304061 0.08895574 -0.18975757 0.17666186
0003b0 56 5b a9 be c4 f3 8c be 35 e2 25 3e 72 72 b8 3d
       -0.33077496 -0.27529728 0.16199572 0.09006204
0003c0 6e b1 7b 3e 21 09 81 bd f6 b8 80 3d 81 d8 79 bc
       0.24579403 -0.06300569 0.062852785 -0.015249372
0003d0 19 56 bf bd bf 6f 1d be 6b 05 1f be 0b 9b a2 be
       -0.09342594 -0.15374659 -0.1552941 -0.31758913
0003e0 55 9e cc bd 2f 2a 65 bd d9 b8 fc bd a3 ae 1a 3e
       -0.09991137 -0.055948433 -0.123399444 0.15105681
0003f0 5e a6 7b 3e 6c ad b8 3c 62 a7 9f be cc 56 f5 bb
       0.24575183 0.022543631 -0.3118239 -0.0074871536

critic.2.bias f4 [64]
000000 66 21 1e 3d 33 f8 b4 bd a8 3a 8c bc 69 76 9f 3d
       0.03860607 -0.08836403 -0.017117813 0.07786257
000010 bd a0 60 bd 8e 8f 9c 3d d5 2b 15 3c c2 93 64 bd
       -0.054840792 0.076445684 0.009104689 -0.055804975
000020 14 32 3f 3d 7e b2 9b 3d 5f b0 4e 3c f3 22 c4 bc
       0.046678618 0.07602404 0.012615292 -0.023942446
000030 de bc 73 bd f0 ab ef bc d2 ee 08 3d 81 48 f6 bd
       -0.05950629 -0.02925679 0.03343088 -0.12025548
000040 29 62 69 3d c5 0b 98 bd 18 7c d5 3d d8 b7 e6 3c
       0.05697838 -0.0742412 0.1042406 0.028163835
000050 82 32 b8 3d ac 1b 4e 3d 26 29 0b 3d c2 ad fd 3d
       0.089940086 0.05031936 0.03397479 0.12386657
000060 5c 62 1d bd 6b 61 30 3d 6f 61 0d bd a6 47 06 3d
       -0.03842388 0.043061655 -0.034516748 0.032783173
000070 28 08 44 3d a3 5f 82 bd 54 a7 c6 bc 64 13 39 bd
       0.04785934 -0.063658975 -0.02424971 -0.045184508
000080 83 99 6d bd 57 19 be bc 6e 66 2d bd 2d e7 7a 3d
       -0.05800773 -0.023205442 -0.042334013 0.061255623
000090 22 c3 a0 3b 85 36 59 3d 38 c2 e2 bc 82 af ae 3d
       0.004906074 0.05303051 -0.027680501 0.08529569
0000a0 18 22 8d bb 2c dd b9 bd ee ba 68 bd 40 8a be bd
       -0.004307043 -0.09075388 -0.056818895 -0.09303713
0000b0 d5 20 69 bd f3 e5 ae 3d 55 bc 2c bd a1 67 30 3d
       -0.056916077 0.08539953 -0.042171795 0.04306758
0000c0 ee 80 b6 3d ad f6 7d bc b9 ed be bd 8d f3 80 bd
       0.0891131 -0.015500707 -0.09322686 -0.062964536
0000d0 a7 5f 44 bd f1 c7 09 3d 46 16 4a bd e1 df 8f 3d
       -0.047942784 0.033637945 -0.049337648 0.070251234
0000e0 e7 d3 9d 3d dd a3 c6 bd a3 df 76 bc 65 ee f6 bc
       0.07706433 -0.09699223 -0.015067968 -0.030142972
0000f0 c8 d7 9f 3d d2 d5 b9 3d 12 ef bd 3d e1 2c ac bd
       0.07804829 0.09073986 0.09274115 -0.084069975

critic.4.weight f4 [1, 64]
000000 72 13 26 bd f4 40 53 3e bc 34 75 3e d4 e4 cf bd
       -0.04054589 0.20630246 0.23945898 -0.101510674
000010 8c 13 ba 3d 02 2f d3 bd b3 3e 3f 3e bc c9 03 3e
       0.090857595 -0.103117004 0.18676262 0.12869924
000020 04 2a 06 be 45 ec 2d be 76 f4 c7 bd 6c 9e 4a 3e
       -0.13101965 -0.16984661 -0.09763424 0.19786996
000030 97 f3 db 3d 85 aa d1 3e 40 23 de 3c 8f 38 53 3d
       0.107398205 0.4095041 0.027116418 0.05156761
000040 12 87 6f be d5 2a 04 3d 77 aa 19 be b6 d3 e7 bd
       -0.23391369 0.03226741 -0.15006433 -0.113196775
000050 6c 42 4a be 80 1c b1 bd 3a cc 7c bd 3a 8d f6 bd
       -0.197519 -0.08648014 -0.061718203 -0.120386556
000060 89 1b 55 3e df 5e 1c be d4 01 73 3e 1b 2e ad bc
       0.20811285 -0.15270565 0.23731166 -0.021140149
000070 5e 24 1d be dd 57 f1 3d 25 aa 00 3d 0a 85 cb 3d
       -0.15345904 0.11784337 0.031412262 0.099374846
000080 d1 70 93 bc 12 d1 98 bd f6 a0 76 3e 0e 44 2a be
       -0.017998131 -0.07461752 0.24084839 -0.16627523
000090 7c 30 d2 3d d6 c7 f1 bc e0 42 20 3e 5c f4 75 bd
       0.10263154 -0.029514235 0.15650511 -0.060047492
0000a0 b3 82 2c be 75 b2 96 3d 88 d1 b5 bc c6 13 62 3d
       -0.16846733 0.07358257 -0.022194639 0.05519464
0000b0 a9 3c 13 3d a1 11 79 be 62 37 26 be 98 39 1b be
       0.035946522 -0.24323131 -0.16232064 -0.15158689
0000c0 f4 e5 49 be 3e 8e 05 3e 4f 2e 8e 3e 77 dc f6 3d
       -0.19716626 0.13042542 0.27769706 0.12053769
0000d0 f0 4e 1d 3e 3f eb c3 3d d6 e7 78 3e f6 27 e0 bd
       0.15362144 0.09566354 0.24307188 -0.10945122
0000e0 c4 47 d2 bd 87 d6 02 3e a9 ae 45 3e 77 10 8f 3c
       -0.102675945 0.12777148 0.19304909 0.017463906
0000f0 9b bc 0c be 9f 3b 49 be 7b 4c 0f be d6 6a 9a 3e
       -0.13743822 -0.1965165 -0.13994019 0.30159634

actor_mean.0.weight f4 [64, 36]
000000 c4 57 9d 3e c2 f6 c7 be fc 44 8d 3e a3 07 8c bd
       0.30731022 -0.3905545 0.27591693 -0.06837394
000010 49 ad b8 3d 9a 02 ce 3e 45 44 ee 3d f7 b0 53 be
       0.090174265 0.4023636 0.11634115 -0.20672975
000020 33 43 56 be b2 f1 ca bc 4c 0c 0f bc 3b c5 74 3c
       -0.20924072 -0.024773452 -0.008730959 0.0149396015
000030 91 e8 aa 3e 43 a8 76 bd 13 3a 19 3e 9d 53 f2 3c
       0.3338056 -0.06021906 0.1496356 0.029580886
000040 eb a9 ad 3d ec 57 cb bd 05 e4 a0 3e 47 13 81 bc
       0.08479675 -0.09928879 0.31423965 -0.015756262
000050 98 6d 88 bd 05 07 23 3d 8c cd 79 bd 2e 10 cf 3b
       -0.06661528 0.039801616 -0.06098704 0.0063190674
000060 ae ba ff bd 13 10 8b bd 31 b2 19 be ef 36 0d 3c
       -0.12486778 -0.06790175 -0.15009381 0.008619054
000070 1b fa 28 bd a2 80 ba be 71 e2 d6 3b 48 1b a2 bb
       -0.041254144 -0.36426264 0.0065577556 -0.0049471
000080 1e 6a 2f 3e 92 b4 9c bc 83 b6 85 bd cd 71 30 3d
       0.17130324 -0.019129071 -0.06528952 0.04307728
000090 ce 10 84 bb ce 1b ff 3d e5 65 9e 3d e1 27 9b be
       -0.0040303236 0.12456475 0.077342786 -0.30303863
0000a0 90 a9 57 3d 8b 94 cf bd 44 e9 51 be 4f 3a ae 3e
       0.05265194 -0.10135754 -0.2049914 0.3402886
0000b0 44 49 15 be 0c 5d 30 3d 9d 03 f1 bd 6f ef b3 bd
       -0.1457873 0.043057486 -0.11768267 -0.08785903
0000c0 c5 3a 13 3d 8a 9b 91 be 68 16 51 be 7c 5b 03 3e
       0.03594472 -0.2843898 -0.20418704 0.12827867
0000d0 bc fd 1a be 3a ce b7 be d5 5c 86 be 65 81 87 bd
       -0.15135854 -0.35899526 -0.262427 -0.06616477
0000e0 73 0e 8c bd 92 1f 14 3e 0d 0d e6 3c c2 03 d8 3d
       -0.068386935 0.14465168 0.028082395 0.10547592
0000f0 b7 dc d0 bd ed 3d 5d 3e 97 db 8b be 66 89 ee 3c
       -0.10198348 0.21605654 -0.2731597 0.029118251
000100 71 a6 3b bd fd ae 2f bb df c1 32 bd 38 d2 32 3d
       -0.045813028 -0.0026807182 -0.04364192 0.04365751
000110 73 d0 d2 3d f5 60 55 be 4a 78 e7 3c 3f 05 eb 3b
       0.10293665 -0.20837767 0.0282556 0.0071722562
000120 12 20 35 3e b4 38 4b be 86 76 89 bc 8d 34 32 3e
       0.17688015 -0.1984585 -0.01678015 0.17402859
000130 ce 3d 6e 3e ae ce c7 be 75 83 7e 3e 94 8e 04 3e
       0.23265764 -0.39024872 0.24854834 0.12945014
000140 0c 07 07 be f3 6b ed 3d 5f c2 42 3e 3c 6c 06 3e
       -0.13186282 0.11592855 0.19019459 0.13127226
000150 7d 10 04 3d c5 55 cb bd 3d 6a 92 bc f1 1b 82 bd
       0.032242287 -0.099284686 -0.017872924 -0.06352986
000160 2e d6 00 3e dc 5d ad bd 7c 10 24 3d 42 9a 71 3c
       0.12581703 -0.08465168 0.040054783 0.014746251
000170 30 d1 b1 be 30 f9 a1 3d ad 30 48 bd ca 0e 3d bd
       -0.3472991 0.07908857 -0.048874546 -0.046156682
000180 45 0f 9d bd 53 ba 6d 3e ef d2 a9 3e 0f 60 07 be
       -0.07668928 0.23215608 0.33168742 -0.13220237
000190 27 cc 3f 3d 92 99 11 bd 25 32 97 3c 02 f6 3b 3e
       0.046825554 -0.035546847 0.018456528 0.18355563
0001a0 c3 f6 be 3d a1 5d e8 bd 32 ee b7 3c 04 f9 a9 bc
       0.0932441 -0.11345983 0.022452448 -0.020748623
0001b0 a1 c1 76 bd 3b 15 59 3e bb 4d 12 be bb 80 92 ba
       -0.060243253 0.21199505 -0.14287464 -0.0011177281
0001c0 3c d4 82 3d 70 d9 3d be 38 b2 5f 3c 2d 05 5e bd
       0.06388137 -0.18539977 0.0136533305 -0.054204155
0001d0 0f ac 9b be 3d 7b 0e 3e 98 f4 0d 3e 72 89 19 bd
       -0.30404708 0.13914199 0.13862836 -0.037484594
0001e0 4d 56 06 be f0 47 55 3e e3 e2 8d be f8 1c 0d be
       -0.13118859 0.20828223 -0.27712163 -0.13780582
0001f0 1c 27 a8 bd 90 7f da bd 73 e5 a4 bd db e1 39 3e
       -0.082105845 -0.10668862 -0.080515765 0.18152563
000200 7e 76 6b be b3 9a a0 3e 6d 5f bf 3d 43 58 28 3d
       -0.2299442 0.31368026 0.09344373 0.041099798
000210 a6 90 35 bd 5d 06 74 be eb be bf 3e ce 38 a7 3d
       -0.0443274 -0.23830552 0.37450346 0.081651315
000220 ad 2d 09 be db 15 5e 3d 5a d2 20 be e5 e2 ae be
       -0.1339633 0.05422006 -0.15705243 -0.34157482
000230 04 06 82 3e 0c 8a d4 be af 18 aa bd 66 34 54 3c
       0.25395215 -0.4151157 -0.08305489 0.012951946
000240 1a 2a 98 be 93 b8 1b 3e b6 73 8e 3a 94 8a bc 3c
       -0.2971962 0.15207128 0.0010868225 0.023015298
000250 f3 6a 1a 3e 3d 81 f2 bd 62 f4 64 3e 70 08 18 be
       0.1507986 -0.118410565 0.2235885 -0.14846969
000260 6a 58 08 be 86 73 b9 be 77 89 f7 bc cb be cc 3e
       -0.13314977 -0.3622095 -0.030216916 0.39989313
000270 2e 02 f9 3d ff ee ad be 78 ab 0d 3c 09 7c 1f be
       0.12158619 -0.33971402 0.008646838 -0.1557466
000280 27 26 1a 3e 22 ea 2a bd b3 5d 55 3d d6 97 e6 3d
       0.15053616 -0.041727193 0.05209131 0.11259429
000290 72 4d 6d 3e ec fd a2 3b 1a 34 02 be 55 90 b5 bd
       0.23174074 0.0049741175 -0.12715188 -0.0886542
0002a0 8e bb 82 bd 4b 54 ee 3c 4b 97 2f be cd 2e 90 bc
       -0.063834295 0.029092928 -0.17147557 -0.017600441
0002b0 8a 90 21 3c ac 4c f7 bc 6a 3d 71 bd b7 c1 83 be
       0.009861121 -0.030187927 -0.05889646 -0.2573373
0002c0 40 10 03 3d 02 0d 78 3e 6c 8d d7 bd ba 35 04 3e
       0.03199792 0.24223712 -0.10525021 0.1291112
0002d0 80 bc d4 3e b3 a9 21 3e ee af a7 3c c0 90 df 3d
       0.41550064 0.15787391 0.020469632 0.10916281
0002e0 45 ea 3f 3e 38 ee 4c 3d 7d a4 4c 3d 98 a6 77 3e
       0.1874171 0.05003187 0.049961556 0.24184644
0002f0 15 c7 99 3e 19 e7 d8 3e 65 ea b6 bc 50 58 90 3e
       0.300347 0.42363814 -0.022328565 0.28192377
000300 11 34 af 3d a5 e3 84 be 1a fe 37 bd 02 35 68 be
       0.08554853 -0.2595493 -0.044920065 -0.22676471
000310 eb dd b5 bd d9 2b a1 bd 55 f5 c8 3e 07 7e 26 bc
       -0.08880218 -0.078696914 0.39249673 -0.010161883
000320 b1 8a 81 3d 4b e5 8f 3e 77 0a 9b 3d b0 b0 70 3d
       0.063252814 0.28104624 0.075703554 0.058762252
000330 46 ff 81 3e b3 c6 50 3d a0 b4 cf bc 6c d0 9a 3c
       0.2539007 0.050970744 -0.025354683 0.018898211
000340 47 51 b1 bd a6 88 ab bd 33 d3 63 3e c6 e1 d5 3c
       -0.086580805 -0.08375673 0.22248535 0.026108634
000350 9b 21 9b be ff 89 c5 3d b7 df 82 3d ac b0 cf bc
       -0.30299076 0.09645461 0.063903265 -0.025352798
000360 a2 e2 c7 3e 81 d1 25 be de c4 53 3e 41 e4 be bc
       0.39040095 -0.161932 0.20680568 -0.0233022
000370 98 8f 67 be 7e 9c 99 bd fe f2 85 3e 60 e5 51 3e
       -0.2261337 -0.07500552 0.2616195 0.20497656
000380 aa f7 2c 3c 82 d2 2e 3e 4b 36 dd 3d 77 3d 69 bd
       0.010557095 0.1707249 0.10801371 -0.056943383
000390 1c 2e 22 3e 96 ba 37 3e 41 b7 d4 be 29 0d 85 be
       0.15837902 0.1794227 -0.41546062 -0.25986603
0003a0 76 53 21 3e 46 74 8a 3c b8 52 91 3c 32 ea 95 be
       0.15754494 0.016901147 0.017739639 -0.2928024
0003b0 1c 41 a9 3e d8 5a 26 bd d1 1a 11 bd 41 4e 0e bd
       0.33057487 -0.04061398 -0.035425965 -0.034742597
0003c0 52 ce 08 3e 75 c1 0d 3d e3 1c ab bc 8b ad ca 3d
       0.13359955 0.034608323 -0.020887798 0.09896382
0003d0 a9 7f 0c 3d 68 ec 57 bc dc 43 6a 3d 62 8a fc 3d
       0.034301434 -0.013178922 0.057193622 0.12331082
0003e0 3a de 9f be 5e 94 02 3e 2b 8b 74 bd 34 f7 eb 3c
       -0.31224233 0.1275191 -0.059703033 0.0288044
0003f0 eb 6a e8 3c 18 90 ef 3c c7 80 93 3e d0 ea 1a bd
       0.028371295 0.029243514 0.28809187 -0.03782159

actor_mean.0.bias f4 [64]
000000 8f 0d 7f bd 7a f5 6e bc 13 6b 0f bd 03 3d 0e 3d
       -0.06226879 -0.014584893 -0.035014223 0.034726154
000010 07 4f 37 bd e3 50 1c 3d 72 f0 89 3d f6 64 5c 3c
       -0.0447531 0.038163077 0.067353144 0.013451805
000020 34 e0 e9 3c b8 08 80 3c 7b 1e 19 bd e2 a0 9b 3b
       0.028549291 0.015629157 -0.037382584 0.0047494033
000030 d6 0d 31 3c d5 ac a4 bd 48 2e 8c 3d d6 b3 6f bb
       0.010806521 -0.080407776 0.06844765 -0.0036575696
000040 f6 ae 5e bc c9 46 81 bc a3 e3 d1 3d ce 7c 38 b9
       -0.013591519 -0.015780823 0.102484964 -0.00017594101
000050 10 7f 46 bd 6c ee 33 be 6f 69 f6 ba 29 15 48 3c
       -0.04846102 -0.1757142 -0.0018799732 0.012212076
000060 1f 9b 2e 3d ec e8 25 bd b7 cb 96 3d a2 5a ce 3c
       0.042628404 -0.040505335 0.07363074 0.025189701
000070 c4 f4 56 bd a1 d4 b6 3d 1f 6e ae bd 73 0e 42 bc
       -0.05247952 0.089272745 -0.08517098 -0.011844265
000080 cd e6 ea bc 3e 8d 8c bc d3 43 83 3c fb 64 eb bd
       -0.028674508 -0.017157193 0.016023552 -0.1149387
000090 cd 80 a5 bc 4a f0 2f 3a c3 a0 d1 3d 8c f2 0b bd
       -0.020203019 0.0006711526 0.10235741 -0.034166858
0000a0 d1 fa 6a bc b9 5c 43 bc 12 e9 1e 3d 79 a4 37 bd
       -0.014342026 -0.011923962 0.038796492 -0.044834588
0000b0 e2 4a 9c bc 65 bf 1e 3d 50 f2 86 bd 17 fe 20 bd
       -0.019078676 0.038756747 -0.06589186 -0.03930482
0000c0 ee 1b 98 3d 9c b0 9b 3d b3 04 fe bc 9e f4 0f 3c
       0.07427202 0.07602045 -0.0310081 0.008786349
0000d0 5a b3 c4 3d bc cd 47 bc cf d0 a8 bd 63 9e 1f 3d
       0.09604521 -0.012195047 -0.08242952 0.03896941
0000e0 7c 5a c1 3d b6 d5 99 3b 5c a1 39 3d 14 f3 fe 3b
       0.09441087 0.004694666 0.0453199 0.007780442
0000f0 19 4a fe 3d 75 38 20 3d ed 5d 09 bd ef a4 39 bb
       0.12416477 0.03911634 -0.03353684 -0.0028327068

actor_mean.2.weight f4 [64, 64]
000000 0d d5 ee 3b 19 4f 93 3d 7e b1 9e 3d 75 ac 30 be
       0.007288581 0.07192821 0.07748698 -0.17253287
000010 21 98 47 be ac 0b 5e be 9d fd 1c be ba 60 fb bb
       -0.19491626 -0.2168414 -0.15331121 -0.007671443
000020 ee 6d a7 3b d7 23 da be 3d 7b 0b bb 0c 1a 26 be
       0.00510954 -0.4260547 -0.0021283173 -0.16220874
000030 9a f4 98 bd b5 8e 62 3e db dc 49 3d 94 65 11 3e
       -0.07468529 0.22124751 0.04928289 0.14198905
000040 2b 6e dd bd 66 55 d4 bd de 6b 7e bc 42 a6 e2 3e
       -0.108120285 -0.10367851 -0.015528647 0.4426747
000050 5d bc f9 bc 59 cb 42 be ed 62 2d be 6a 72 88 3d
       -0.030485326 -0.19022883 -0.16932268 0.06662448
000060 4b 6a 1c be 7b 62 1e 3f 97 eb a1 3c e5 25 8e be
       -0.15274923 0.6186902 0.019765658 -0.27763286
000070 f2 3a 36 bd 65 ee 70 be bc 4a b2 bd 56 ab fb 3d
       -0.04448981 -0.2352844 -0.08705661 0.12288539
000080 23 22 3e 3e dc 29 9d be 90 fb a1 3e b5 5a b7 3b
       0.1856771 -0.30696 0.3163724 0.00559553
000090 ed 04 d0 3c 77 c8 17 3e ee d0 61 be b0 d6 33 be
       0.025392974 0.14822565 -0.22052357 -0.17562366
0000a0 8a a2 ea 3d de 28 a5 3d f6 46 ba be c2 6e 42 be
       0.11456783 0.080644354 -0.36382264 -0.18987563
0000b0 49 84 01 3e 5b d1 76 3d 4b 43 94 bc bf bb 4b bb
       0.12648119 0.06025825 -0.018098494 -0.0031087247
0000c0 0b 87 ef bc 5d f1 e8 bc ee 3a 70 be 51 14 16 bd
       -0.029239198 -0.028435403 -0.2345998 -0.03664047
0000d0 32 60 92 bc 11 8f 5a 3e ea 68 c6 bb e8 30 76 be
       -0.017868135 0.21343638 -0.006054987 -0.24042094
0000e0 0e d4 3a 3e b5 15 0a 3e f8 3d 8d bc ad 48 77 3e
       0.18244955 0.13484843 -0.017241463 0.24148817
0000f0 d3 f4 16 3e 62 b4 3b 3e 8b ba 41 be 9c c9 2d 3e
       0.1474183 0.1833053 -0.18918817 0.16971439
000100 47 fe 19 be 73 a9 6a bc 84 92 11 3d 3e 59 17 3e
       -0.15038405 -0.014322626 0.03554012 0.14780137
000110 f2 bd 7d 3d d7 21 d0 bd 8a 04 cc be 0d 1f d8 3d
       0.061948724 -0.101627044 -0.39847213 0.105527975
000120 4c ee 90 3e 1e 1b 5a 3e 2f e6 b5 3d d3 8f 45 3e
       0.28306806 0.21299407 0.08881795 0.19293146
000130 e9 bf 8f be 2f f9 82 3e 6c 59 2f 3e 1c 85 a7 3d
       -0.28076103 0.25580737 0.17123955 0.081796855
000140 04 c7 e7 3d 2c c9 e0 3e b0 3a 92 be 97 3f 09 3e
       0.11317256 0.43903482 -0.285604 0.13403164
000150 76 8e 9d 3e 46 9a 81 3d 72 c2 a6 3d ea d8 04 3d
       0.30772752 0.063282534 0.08142556 0.032433428
000160 1c 34 a5 3c b9 64 0d 3e fc f7 4a 3d c4 a1 8b 3e
       0.02016645 0.13807954 0.049552903 0.27271855
000170 be 3f a7 bc d1 7a b8 bd 36 d4 b1 3e fd a6 03 be
       -0.020416137 -0.090078 0.34732217 -0.1285667
000180 a2 90 af bd e9 a7 08 be 86 71 85 be e7 e7 1e 3e
       -0.085725084 -0.13345303 -0.26063174 0.15518151
000190 7c 5b 80 3d 8a cc 7b 3e e7 56 65 be 66 28 d4 bc
       0.06267449 0.24589744 -0.22396432 -0.02589817
0001a0 7d 14 43 bd 53 6f cf bc eb 0d 95 3e a1 f5 67 3e
       -0.04762696 -0.025321638 0.2911218 0.22652294
0001b0 0f 8c f9 3e ba d3 fd bd 49 97 fe 3d 14 84 be 3e
       0.4873967 -0.12393899 0.12431199 0.37210143
0001c0 40 c2 8c be d0 03 43 be 5c 47 25 be e8 8a 34 3e
       -0.2749195 -0.19044423 -0.16140503 0.17631114
0001d0 6f 19 8d 3d d5 62 29 bd 1f 72 b7 be 3f d1 21 3e
       0.06889617 -0.04135402 -0.35829255 0.15802477
0001e0 f9 10 b6 bd 2f 6c 78 bd b0 65 e6 bd 3a 31 00 bd
       -0.08889956 -0.060650047 -0.11249864 -0.031296946
0001f0 e6 d0 e4 bd 46 59 93 3e eb 6c 69 3e c1 8c 33 be
       -0.11172657 0.28779048 0.22795455 -0.17534162
000200 62 c6 d7 bd b4 cc 59 3d 01 83 1b 3e d0 56 36 3d
       -0.105358854 0.053173736 0.15186693 0.044516385
000210 3e 6f e1 be f9 74 fe 3c d1 d9 b3 be 89 d7 46 3e
       -0.44030184 0.031061636 -0.35127118 0.19418158
000220 c5 f5 64 bd 54 17 1d be 73 84 7a 3e a0 13 db 3c
       -0.055898447 -0.1534093 0.24464588 0.026742756
000230 f8 4a 48 be 4f 99 ba 3d 7d cb 54 3d 29 46 0c 3e
       -0.19559848 0.091112725 0.051951874 0.13698639
000240 48 2b 00 be 27 0c f6 3d bb dd 7c 3e 90 72 41 3e
       -0.1251651 0.120140366 0.24693958 0.18891358
000250 d1 6c 63 3e ba 38 7d 3e 93 99 14 be e2 03 60 3d
       0.22209479 0.2472867 -0.14511709 0.054691203
000260 eb f3 a7 3e a8 66 13 3e 44 43 a5 bd 91 2b 89 3d
       0.32803282 0.14394629 -0.080694705 0.06697763
000270 7b 2d b9 3d a8 47 de bc 5b db 8c bd 16 ff 82 bc
       0.09041878 -0.027133778 -0.06877776 -0.015990775
000280 ef 17 03 3e 01 3a d4 3d 27 73 9a bd a9 e2 c5 3d
       0.12802099 0.10362626 -0.07541495 0.096623726
000290 a7 bb 5f be a0 f6 b1 3d 73 1a d8 bd f5 7a 58 3e
       -0.21848927 0.08689618 -0.1055192 0.21140654
0002a0 31 67 1c bd 98 ca fa 3d 6d ab db 3d d7 03 75 3e
       -0.03818435 0.12245673 0.10726056 0.23927246
0002b0 c1 56 ed be f0 9f 03 bc e4 92 40 be 7b 97 9d bd
       -0.4635525 -0.008033738 -0.18806034 -0.07694908
0002c0 4d 96 74 3d 29 9e 18 bc b2 5f 1a be 73 6b 3b 3e
       0.05971365 -0.009315052 -0.15075567 0.18302707
0002d0 d8 17 a1 3e d8 18 ac 3b e7 18 fc 3d 2a 17 46 3e
       0.31463504 0.005251985 0.12309437 0.19344774
0002e0 3f 58 75 be 2a c4 dc 3e 9f 5c 85 bd 2b 2e fa 3e
       -0.23959444 0.4311841 -0.06511807 0.48863348
0002f0 9b 70 b4 bd 15 34 2c be c5 19 f5 3d 9f b1 68 3e
       -0.0881054 -0.16816743 0.11967806 0.22724007
000300 8f 2f 5b be bf 4d 1f 3c 9b 3a 3b be 61 5a 58 be
       -0.21404861 0.009723126 -0.18284075 -0.21128227
000310 d4 1b d9 3d 18 9b 72 3e 48 77 81 bd db dc 05 be
       0.10601011 0.23691976 -0.06321579 -0.13072531
000320 8b c9 a3 be cd 12 64 3e 95 9e ec 3c 28 9c bf be
       -0.31989703 0.22272797 0.028884212 -0.37423825
000330 6b c0 f3 3c 10 35 1f 3e d4 b8 5b 3d 84 25 c5 3d
       0.029754838 0.15547585 0.053643063 0.09626296
000340 5c 19 4b 3e c1 67 ec 3d 7b eb 9b 3e df 28 09 be
       0.19833893 0.11543227 0.30453095 -0.13394497
000350 75 53 80 3e 35 a7 74 bd 0a fa 95 39 77 5e 2d 3c
       0.25063673 -0.059729774 0.00028605788 0.010581604
000360 95 e7 6a be 88 6b bf bc fc 85 2e be ea 58 98 3d
       -0.22939904 -0.023366705 -0.17043298 0.07438834
000370 27 ec df 3c 8f 54 01 3e 88 02 22 3e ed c7 a0 3d
       0.027334286 0.12629913 0.15821278 0.07850633
000380 9d e4 0c 3e 17 7d 5d 3e 6a cb 0d 3e 3d 8b d2 3d
       0.13759084 0.21629749 0.13847128 0.10280464
000390 81 3d 1e be f5 3e 0d be 1f 05 8c be 19 ce 12 be
       -0.1545315 -0.13793547 -0.27347657 -0.14336433
0003a0 b8 27 63 3e 1d 86 55 be b8 1d 31 3e a1 2c 96 be
       0.2218312 -0.20851941 0.17296493 -0.29330924
0003b0 cb 57 32 bd 4a 93 78 3e 8b 8c c4 bd 32 e2 03 3e
       -0.043540757 0.24274936 -0.09597119 0.12879255
0003c0 99 e0 f0 3d c6 a5 1f 3e b8 81 23 be 14 0c 04 3d
       0.117615886 0.15590581 -0.15967453 0.03223808
0003d0 10 9e ae bd 04 1a 1c be 5d ed 6c 3e 22 7b c6 be
       -0.08526242 -0.15244299 0.23137422 -0.38765818
0003e0 30 60 96 3b a1 16 75 be 76 8f 12 bc fb de 47 be
       0.004589103 -0.23934413 -0.008945337 -0.19518654
0003f0 de 8f 56 be 81 bb 77 3e 82 d1 bf bc 40 30 af 3e
       -0.20953318 0.24192621 -0.02341533 0.342165

actor_mean.2.bias f4 [64]
000000 b3 20 bb 3b 46 2c 4e bd f3 a9 4b 3c 7e 05 86 3b
       0.005710685 -0.05033519 0.012430656 0.00409001
000010 eb 7f fc bc 4d d5 b4 3c 75 68 ee 3c 45 94 3d 3d
       -0.030822715 0.022074366 0.029102543 0.04628398
000020 59 11 05 bd 82 7f a3 3d e7 f2 13 bd 6a b3 31 bb
       -0.032487247 0.079833046 -0.03612032 -0.0027114996
000030 64 1a e5 bc cd e0 94 3d fb 13 1d 3d f4 ea 62 bd
       -0.027966686 0.0726944 0.038349133 -0.05539985
000040 62 52 89 39 34 21 dc 3d 6d d1 8e 3d 34 91 e6 bb
       0.00026192056 0.107485205 0.069735385 -0.0070363525
000050 2b 4e c5 bc aa e2 a6 bc 2f 2b a9 3c 55 7c 63 3c
       -0.024085125 -0.020371754 0.020650474 0.013884624
000060 71 55 92 3d d4 ab 51 bd 6c 58 6a 3d 74 cb 14 3d
       0.07145203 -0.05118926 0.057213232 0.03632684
000070 5e 2a 82 bb a0 1f 72 bd d7 b9 d9 3d b5 cd 2a bd
       -0.0039723357 -0.05911219 0.10631149 -0.041700084
000080 e8 52 5f bc dd b3 df bc ff 5e 94 3b 99 31 7a bc
       -0.013630606 -0.027307445 0.004527926 -0.015270614
000090 69 ce 76 3d 02 3d f5 3c 06 06 9b 3d 47 76 98 bc
       0.06025544 0.029936317 0.07569508 -0.018611087
0000a0 ad 64 c8 3c 89 60 20 bd 07 3f 54 3d 71 5b 90 3d
       0.024462068 -0.039154563 0.05181792 0.07048691
0000b0 13 55 32 bd 6c f7 5c bd 31 6a 5a bd 48 a8 87 3d
       -0.043538164 -0.053946897 -0.05332393 0.06623894
0000c0 12 bb 76 3d a7 aa db 3c 65 8b 23 bc 94 af 5b bb
       0.060236998 0.026814772 -0.009981965 -0.00335214
0000d0 59 06 27 bd 1d a2 f9 ba 87 6d 66 3c 8d 75 6f bd
       -0.040777538 -0.0019045506 0.014064199 -0.058461715
0000e0 e7 b3 92 bd 6e ac aa bb 03 41 ab b9 58 28 6b 3b
       -0.0716322 -0.0052085435 -0.000326641 0.00358822
0000f0 30 11 8b bd 0a fe fd bc 07 69 b9 3d f4 aa 11 bd
       -0.06790388 -0.031004924 0.090532355 -0.035563424

actor_mean.4.weight f4 [2, 64]
000000 a7 5b 43 3d bc 06 67 bd 1d 6e f7 bc 63 cc 69 3c
       0.04769483 -0.056402907 -0.030203873 0.014269921
000010 fa ca 3f 3d a0 d3 42 3c 2e 3e 5a 3d ec 22 66 bd
       0.046824433 0.011891276 0.053281955 -0.056185648
000020 f1 02 9f bc c0 2a 25 bd 6d 2f a7 bc 9d 22 f7 bd
       -0.019410582 -0.040323973 -0.020408357 -0.12067149
000030 47 3f 9d 3b 94 48 67 bc 36 6d 02 ba 8d cf aa 3a
       0.004798803 -0.014116425 -0.000497538 0.0013031826
000040 78 e5 3d 3d 0a a2 e7 bc 1a d4 6c 3c 0e 55 91 bc
       0.046361417 -0.028275508 0.014454866 -0.017740753
000050 83 3c a7 bc d0 97 25 3d 50 06 d6 3c 7a 64 0a bd
       -0.020414596 0.040427983 0.026126057 -0.03378723
000060 b7 c4 8a 3d 29 58 ba bc c5 cd 13 bd 65 59 f4 3b
       0.06775802 -0.022747116 -0.03608491 0.0074569457
000070 ae dc 5e 3c 91 1f f0 3b 64 42 f6 bc 3e e6 2e bd
       0.013602419 0.0073279818 -0.030060954 -0.042700045
000080 17 2a 87 3d 74 4e 81 3d 88 29 83 3d 10 67 66 bd
       0.06599825 0.06313792 0.06404406 -0.05625063
000090 ed cf d6 3b 9e 21 2c 3d e0 4f 19 3a 7c 50 a4 3c
       0.0065555484 0.042024247 0.0005848389 0.02005791
0000a0 f5 3c ed 3d 4e cc 5d 3d 5c aa 6e bd 54 02 ca bb
       0.11583892 0.05414992 -0.058267936 -0.0061648283
0000b0 55 80 a0 bd 16 73 65 3d 5d 68 8f 3c ed 81 9d 3d
       -0.078369774 0.056017958 0.017505819 0.07690797
0000c0 84 f2 6a bc 7c fa 29 3d 6c 52 92 3c fb 31 d5 3c
       -0.014340047 0.041498646 0.017861567 0.02602481
0000d0 91 65 0e 3d 84 2e 21 bd af 04 06 bb 33 2f 81 bd
       0.03476483 -0.039351 -0.002044957 -0.06307831
0000e0 e4 08 0f bd 31 df bc 3b 26 fb 94 3d d8 48 0c bb
       -0.034920588 0.005763911 0.07274465 -0.0021405723
0000f0 3b e6 0f bd 35 5e ab bc 8e 79 86 3d 59 d7 4f 3d
       -0.035131674 -0.020918945 0.065661535 0.05074248
000100 e7 ab 7c 3d 3a e4 b0 bc c3 54 07 3d f5 87 54 bc
       0.061687376 -0.021593202 0.03303982 -0.012971868
000110 b3 4c ac 3b 1a b2 81 3b 06 22 5f bd 8f 32 ac bd
       0.0052581667 0.003957999 -0.054475807 -0.08408081
000120 d9 8d 87 bc 7d f4 91 bd e8 98 26 3d 96 24 8a bc
       -0.01654713 -0.071267106 0.040673167 -0.016863149
000130 14 7c 8b 3c 31 6e 5a bd 3b e9 16 bd 6b 34 42 3c
       0.017026938 -0.053327743 -0.03684352 0.011853318
000140 94 70 06 bd 8f ea 50 bc 58 c7 f6 bc e5 82 aa bd
       -0.032822207 -0.012751236 -0.030124351 -0.083257474
000150 30 cf 31 3d 6f 70 cb bb 66 f1 17 3d a4 f1 43 3c
       0.04341048 -0.0062084715 0.03709545 0.011959467
000160 68 9a 27 3d d3 4b 26 3d 27 14 f2 3b 97 36 73 3b
       0.040918738 0.040599655 0.0073876563 0.0037111396
000170 f9 f0 2d bd 86 e6 60 3d 92 aa 99 bc 95 87 13 3e
       -0.042466138 0.054907344 -0.018758092 0.14407189
000180 b3 d1 93 bb e5 0b f6 bc c3 a1 8c bc aa cf c9 bd
       -0.004511082 -0.030034969 -0.017166978 -0.09854062
000190 82 81 48 bd 4d 4e c8 bc e8 d1 93 bc e7 3e 9b 3d
       -0.048951633 -0.0244514 -0.018044427 0.07580357
0001a0 80 bb 76 bd 6c 5a 33 bc b5 0c 87 3c 18 92 2a bd
       -0.060237408 -0.010946851 0.016485551 -0.041643232
0001b0 89 5d 06 bd bd df 12 3d ea 0e 26 bd b9 51 fa 3b
       -0.032804046 0.035857905 -0.040541567 0.0076391366
0001c0 d1 27 64 bd e2 4c 8a bd bb fa 8b 3d 0b 9d ca bd
       -0.055702034 -0.067529455 0.068349324 -0.09893235
0001d0 d6 ec 12 3b fc 3e 96 39 4a 9f ab bd ed 76 9c b8
       0.0022418997 0.00028657157 -0.08379991 -7.460811e-05
0001e0 0f 57 6e 3c b4 0b ac bd cc 71 2e 3b 41 3f 45 3c
       0.014547124 -0.0840067 0.0026618121 0.012039007
0001f0 b3 f5 05 3d ad 2f 2d 3d 04 09 37 bd 53 bf 34 bd
       0.03270502 0.042281795 -0.044686332 -0.044127773

actor_mean.4.bias f4 [2]
000000 c4 26 2b bd 00 9b 24 bd
       -0.041785017 -0.040186882
