jsbgym/models/train_saves/ppo_caps_sweep_mse_ie2_83551_23-12_17:21:45.pt (torch, 60572 bytes, 14 tensors)

actor_logstd f4 [1, 2]
0	0xbede6753	-0.43438205
1	0xbe3de8e4	-0.18545872

conv.0.weight f4 [3, 1, 5, 1]
0	0x3efb987a	0.49139768
1	0xbe6c988f	-0.23105071
2	0x3ce11741	0.027476909
3	0x3ecde340	0.4021244
4	0x3ecbdfb2	0.39819103
5	0x3f208db2	0.6271621
6	0x3f5641a7	0.8369393
7	0x3e0a9342	0.13532737
8	0xbe95cdb4	-0.29258502
9	0xbf10fc4a	-0.5663496
10	0x3f2699b9	0.6507831
11	0xbefe78fb	-0.49701676
12	0xbf4be9ae	-0.7965344
13	0xbe9f736f	-0.31142756
14	0xbe547683	-0.20748334

conv.0.bias f4 [3]
0	0xbd67f287	-0.056627776
1	0xbe1656a8	-0.14681494
2	0xbdc42f40	-0.09579325

critic.1.weight f4 [64, 36]
0	0xbd1c1017	-0.038101282
1	0x3e04e62c	0.12978429
2	0xbc892406	-0.01674081
3	0x3da76c97	0.08175009
4	0xbe23382a	-0.15939394
5	0x3cee9e72	0.029128287
6	0xbe8dc9e6	-0.276931
7	0x3d380aeb	0.044932287
8	0x3df03905	0.117296256
9	0xbe4bfaae	-0.19919845
10	0x3e091531	0.1338699
11	0xbcbc2bf4	-0.022970177
12	0x3e2d70f6	0.16937622
13	0x3d89cd09	0.067285605
14	0xbd601d70	-0.054715574
15	0xbe106df2	-0.14104441
16	0xbd8cc680	-0.06873798
17	0x3d318973	0.043343972
18	0x3e117796	0.14205775
19	0x3e425787	0.18978702
20	0x3eb41105	0.35169235
21	0xbe17ca9b	-0.14823382
22	0xbd5a7c5f	-0.053341266
23	0xbd68ed82	-0.05686713
24	0xbd19d9c9	-0.03756121
25	0xbc7dca0c	-0.015490066
26	0x3dad665a	0.08466788
27	0xbe8ef575	-0.27921644
28	0xbe0a5b4d	-0.13511391
29	0xbd7e1ba9	-0.062038098
30	0xbe90e1c2	-0.2829724
31	0x3dfc9f0f	0.123350255
32	0xbd86ee68	-0.06588441
33	0xbe8490ce	-0.25891727
34	0x3e704b19	0.23466147
35	0xbd82e218	-0.0639078
36	0xbd557183	-0.052110206
37	0xbc518261	-0.012787432
38	0x3e5799b4	0.21054727
39	0x3e6d80c7	0.23193656
40	0xbe1fa406	-0.15589914
41	0xbe945d95	-0.28977647
42	0x3e0ee9a5	0.13956316
43	0x3e389158	0.18024194
44	0x3c86faf7	0.016477091
45	0xbde0e503	-0.109811805
46	0x3d2d5580	0.042317867
47	0xbdf7fa8d	-0.12108336
48	0xbe581a65	-0.21103819
49	0x3e347a76	0.1762484
50	0xbe19b884	-0.15011793
51	0x3e3ab348	0.18232453
52	0x3e69756d	0.227987
53	0xbe366860	-0.17813253
54	0x3e10f61a	0.1415638
55	0xbe00f212	-0.12592342
56	0x3d8e3776	0.06944172
57	0xbd29757e	-0.041371815
58	0x3df4e0bc	0.11956927
59	0x3da27dd4	0.07934156
60	0x3dbdd9db	0.09270068
61	0x3ce91c7c	0.028455965
62	0x3e24e2df	0.1610217
63	0xbdd11f11	-0.102110036
64	0x3e18e28f	0.14930175
65	0x3e58b40f	0.21162437
66	0xbdd3a0a5	-0.10333375
67	0xbd51efbf	-0.05125403
68	0xbd169d70	-0.036771238
69	0x3de75f36	0.11297457
70	0xbe3ef3a1	-0.18647625
71	0xbd7df728	-0.062003285
72	0x3e4438ba	0.19162264
73	0xbcad8f4a	-0.02118649
74	0x3e88364e	0.2660393
75	0x3cf8ac5c	0.030355625
76	0xbe0f1e2c	-0.13976353
77	0xbdf6f6ea	-0.12058814
78	0x3e75849b	0.23976366
79	0xbd1e65b5	-0.038671214
80	0xbf0c2478	-0.54743147
81	0x3de52ab2	0.11189784
82	0x3d4c9062	0.04994238
83	0x3e182ebb	0.14861576
84	0x3c921f71	0.017837258
85	0xbeb65469	-0.35611275
86	0x3d62a7ad	0.05533569
87	0xbe67782d	-0.22604437
88	0xbe32dc22	-0.17466787
89	0x3d14c901	0.036324505
90	0x3ddd4ad6	0.108052894
91	0x3e199080	0.14996529
92	0x3d1abf8a	0.037780322
93	0xbe499505	-0.19685753
94	0xbdb2243f	-0.0869832
95	0x3d6c9cce	0.057766728
96	0xbcee4efe	-0.0290904
97	0x3d3cbdaa	0.046079315
98	0xbe5eb3be	-0.21748254
99	0xbe2e7e41	-0.1704035
100	0xbe6f83f3	-0.23390178
101	0xbc5e82e3	-0.0135810105
102	0x3e6547ea	0.22390714
103	0x3e8203d4	0.25393546
104	0xbe001947	-0.12509643
105	0x3eb989d4	0.36237967
106	0x3d28ddc3	0.041227113
107	0x3c89cbc3	0.016820794
108	0xbe0398f2	-0.12851313
109	0xbd0f3354	-0.03496106
110	0xbde8f5fe	-0.11375044
111	0xbe1fe20b	-0.15613572
112	0x3e596118	0.21228445
113	0xbf011f79	-0.5043865
114	0xbe8031ed	-0.2503809
115	0xbd2f505b	-0.042801242
116	0x3e320396	0.1738418
117	0xbdbc6d96	-0.09200589
118	0xbe18bbe9	-0.14915432
119	0x3da84e36	0.082180426
120	0x3e095a8a	0.13413444
121	0xbdfccabf	-0.12343358
122	0x3d9c1ae8	0.076223195
123	0xbe547349	-0.20747103
124	0xbd9e4605	-0.07728199
125	0xbde98d06	-0.11403851
126	0xbd13ac27	-0.03605285
127	0xbd5df821	-0.054191712
128	0x3e63643f	0.2220621
129	0xbea8c054	-0.32959235
130	0x3e051f65	0.13000257
131	0x3d94ad10	0.072595716
132	0x3e2ca680	0.1686039
133	0x3e3ca4d0	0.18422246
134	0xbe1f85de	-0.1557841
135	0xbe5c17cf	-0.21493457
136	0x3d48ef73	0.04905648
137	0x3cd6a0cb	0.026199719
138	0x3de7df65	0.11321906
139	0xbea8095a	-0.32819635
140	0x3e965d7b	0.29368195
141	0xbd1cd361	-0.038287524
142	0xbe76dc61	-0.24107505
143	0x3c998a2f	0.018742649
144	0xbe8b004e	-0.2714867
145	0xbd7e8140	-0.06213498
146	0xbda09d91	-0.078425534
147	0x3cdad52b	0.026712975
148	0xbdb9d4e5	-0.090738095
149	0x3d7d313a	0.061814524
150	0x3e2a623b	0.16639034
151	0xbc849e82	-0.016188864
152	0xbe6436ad	-0.22286482
153	0xbd545c10	-0.05184561
154	0x3e555a3a	0.208352
155	0x3cb425e3	0.021990722
156	0xbe82826a	-0.25490123
157	0x3ce495c4	0.027903445
158	0xbe274ec2	-0.16338637
159	0xbb56b01e	-0.0032758783
160	0x3e6b9f61	0.23010017
161	0xbe2d56ab	-0.16927592
162	0x3d605d8e	0.05477672
163	0x3bc9d805	0.0061597847
164	0x3d9b3d30	0.0758003
165	0x3d95dad4	0.07317129
166	0xbc51393a	-0.0127699915
167	0x3bab6c33	0.005231404
168	0x3e56034e	0.20899698
169	0x3da50ab5	0.08058683
170	0xbdef91a2	-0.11697699
171	0xbd1789a5	-0.036996502
172	0x3d4478b4	0.047966674
173	0xbd9c1deb	-0.07622894
174	0x3d950098	0.07275504
175	0x3d4833f4	0.04887767
176	0x3c08d810	0.008352295
177	0xbebd3269	-0.36952522
178	0x3d8c476f	0.068495624
179	0xbe972d39	-0.2952669
180	0x3dcb6c79	0.09932799
181	0xbe21de52	-0.15807465
182	0xbe04430d	-0.12916203
183	0xbe5c2c64	-0.21501309
184	0xbe2a36f2	-0.16622522
185	0x3e788e97	0.24273144
186	0xbe6962de	-0.22791621
187	0x3e300b56	0.17191824
188	0x3e62644a	0.2210857
189	0x3da43a66	0.08018951
190	0x3db7d1ae	0.0897554
191	0x3c044ce1	0.00807497
192	0x3de06b3d	0.10957954
193	0xbe4d5249	-0.2005092
194	0x3d28f8aa	0.04125277
195	0x3e111399	0.14167632
196	0xbc84cb50	-0.016210228
197	0xbd9f452a	-0.07776864
198	0xbd4decf0	-0.05027479
199	0x3e1c531f	0.15266083
200	0xbe872de7	-0.26402208
201	0xbe6796b8	-0.22616088
202	0xbce79bc3	-0.028272515
203	0x3cf9a4ff	0.030474184
204	0x3b8ea1d9	0.00435279
205	0xbda47998	-0.08031005
206	0x3e1acba1	0.15116741
207	0xbd8242d4	-0.06360403
208	0x3d503e9f	0.05084097
209	0x3e2ef53f	0.17085741
210	0xbe816fe8	-0.2528069
211	0x3dc46a57	0.09590595
212	0x3c113088	0.008861668
213	0xbae6fc92	-0.0017622879
214	0xbc742e15	-0.014903565
215	0xbd982731	-0.0742935
216	0xbe212fa7	-0.15740834
217	0x3e467e3a	0.19384089
218	0x3ea1d250	0.31605768
219	0xbde7ceab	-0.11318716
220	0x3dd3bd43	0.10338833
221	0xbdd857a3	-0.105635904
222	0xbd91485c	-0.070938796
223	0xbe9ee247	-0.3103201
224	0x3e2eb3fe	0.17060849
225	0x3b858bcf	0.0040755044
226	0x3d973d6d	0.07384763
227	0x3e1fd8cf	0.1561005
228	0xbe5811b0	-0.21100497
229	0x3c8dac79	0.017294155
230	0xbcbe1f4f	-0.023208288
231	0x3d89fc78	0.06737608
232	0xbdceca34	-0.10097161
233	0xbda2c174	-0.079470545
234	0x3d9b982e	0.07597385
235	0xbd6bbef0	-0.05755514
236	0x3e99e5de	0.30058187
237	0xbd4f1034	-0.050552562
238	0xbd915f5f	-0.07098269
239	0x3bce12f3	0.00628888
240	0xbc4a56e0	-0.012349814
241	0x3e40c409	0.18824781
242	0xbe5c2cfd	-0.21501537
243	0x3d8ae640	0.06782198
244	0x3e0f84b5	0.14015467
245	0x3d985be0	0.07439399
246	0x3e31cdbe	0.1736364
247	0xbe880694	-0.2656752
248	0x3da3d480	0.079995155
249	0xbeb58556	-0.3545329
250	0x3e66d486	0.22542009
251	0x3cd569a2	0.026051346
252	0x3d61e000	0.055145264
253	0xbdffa441	-0.12482501
254	0xbd940cd6	-0.07229011
255	0x3e0fbc1e	0.14036605

critic.1.bias f4 [64]
0	0xbd990191	-0.07471002
1	0x3d9d17cd	0.07670555
2	0x3c346765	0.011010979
3	0xbd1ee142	-0.03878904
4	0x3d1a345a	0.037647583
5	0x3d54fadf	0.05199706
6	0xbe155d6b	-0.14586417
7	0xbd2585bc	-0.040410742
8	0x3e0ccdc3	0.13750367
9	0xbdd1360a	-0.10215385
10	0xbe1d91a4	-0.15387589
11	0xbd2b9941	-0.0418942
12	0xbdb1ae1a	-0.08675785
13	0xbdc1d70f	-0.09464847
14	0xbdeb20b9	-0.11480851
15	0x3dd432ad	0.10361228
16	0xbdf1d5d8	-0.118083656
17	0x3cba003e	0.022705194
18	0xbd2c4fd3	-0.042068314
19	0x3dba3893	0.09092822
20	0xbda5a38f	-0.08087837
21	0x3ee1466f	0.4399905
22	0x3d6b83ae	0.057498626
23	0x3e394651	0.1809323
24	0xbd2ba0e4	-0.041901484
25	0x3dafc344	0.08582166
26	0xbdb24815	-0.08705155
27	0xbd675d5e	-0.056485526
28	0x3ce7f77b	0.02831625
29	0x3d7694b6	0.060200416
30	0x3e1d5acc	0.15366668
31	0x3d450a17	0.048105326
32	0x3cfd6891	0.03093365
33	0x3d4f6d57	0.050641384
34	0x3d0a2841	0.033729795
35	0xbdc7448e	-0.09729873
36	0xbd20f7e2	-0.0392989
37	0x3d3eb1d6	0.046556316
38	0x3dae0b40	0.084982395
39	0x3d755bd8	0.059902042
40	0x3cb21f8b	0.021743556
41	0xb8bbc412	-8.953376e-05
42	0xbd03d251	-0.032182995
43	0xbd89115d	-0.06692765
44	0xbdc229b1	-0.09480608
45	0xbe24b6de	-0.16085383
46	0xbcceba18	-0.02523522
47	0x3d71884d	0.058967877
48	0xbd78ef66	-0.060775183
49	0x3c9db57a	0.019251574
50	0x3d1b6587	0.03793862
51	0x3dbf386e	0.09336935
52	0xbdd06778	-0.10175985
53	0xbd9e5bdb	-0.07732364
54	0xbdac744f	-0.084206216
55	0xbd4a7146	-0.049424432
56	0x3da284fc	0.07935521
57	0x3dd92ac0	0.10603857
58	0x3e4854f9	0.19563664
59	0xbdf1dd7e	-0.118098244
60	0x3d81032f	0.06299435
61	0xbe38c793	-0.18044882
62	0x3d67f98d	0.056634475
63	0x3e2279e3	0.15866809

critic.3.weight f4 [64, 64]
0	0xbdc8aec5	-0.0979896
1	0x3e8bfa90	0.27339602
2	0x3e89bfed	0.2690424
3	0xbdfcbfe3	-0.12341287
4	0xbe566e5f	-0.2094054
5	0xbd3c86c0	-0.046026945
6	0x3e40c495	0.1882499
7	0x3e30fa0d	0.17282887
8	0xbdce2647	-0.100658946
9	0xbe3e7ee6	-0.18603095
10	0xbeb4aa86	-0.3528635
11	0x3e01ba5b	0.12668745
12	0xbcdf6a1a	-0.027272273
13	0x3e3ff95e	0.1874747
14	0xbd376154	-0.044770554
15	0x3eefcbc9	0.46835163
16	0x3dcb100d	0.09915171
17	0x3e875607	0.2643282
18	0x3e888a41	0.2666798
19	0xbda1bbe7	-0.07897168
20	0xbc4bf998	-0.0124496445
21	0x3e78f105	0.24310692
22	0xbd9e0dfa	-0.077175096
23	0xbe0ecf11	-0.13946177
24	0x3e33d318	0.17560995
25	0xbe65ab94	-0.22428733
26	0x3ea0ce54	0.31407416
27	0x3e764a72	0.24051836
28	0x3e3dac9a	0.18522874
29	0x3e38863d	0.18019958
30	0x3d0e6231	0.03476161
31	0xbee12874	-0.43976176
32	0xbc87cf58	-0.016578361
33	0xbe4ed40e	-0.2019808
34	0x3e00dfe7	0.12585412
35	0x3d6183d1	0.05505735
36	0x3d6a262f	0.05716532
37	0xbc38185b	-0.011236276
38	0xbdb58597	-0.08863371
39	0x3e1f9f34	0.15588075
40	0x3e12ec22	0.1434789
41	0x3e4c7fd5	0.19970639
42	0xbe4762df	-0.1947131
43	0x3e01c514	0.12672836
44	0xbcac3c27	-0.021024777
45	0x3e5f5fc1	0.21813871
46	0xbcd50074	-0.026001193
47	0x3d4d175e	0.050071113
48	0xbdf1a1c0	-0.117984295
49	0xbe019cf3	-0.12657528
50	0xbdf5b86a	-0.11998065
51	0xbba2db19	-0.004969966
52	0x3d6d37f9	0.057914708
53	0x3d1a230d	0.037631083
54	0xbc95b39d	-0.018274123
55	0x3de1c521	0.110239275
56	0xbde8a7f4	-0.113601595
57	0x3e1dba0b	0.15403001
58	0xbe21fc35	-0.15818866
59	0xbdf55598	-0.11979216
60	0xbd129e9b	-0.03579579
61	0xbe514514	-0.20436507
62	0xbcde8564	-0.027163215
63	0xbdf9a523	-0.121897005
64	0xbc909a27	-0.01765163
65	0xbe2862ac	-0.1644389
66	0x3eb31aee	0.34981483
67	0xbe9d43a4	-0.30715668
68	0xbda4da61	-0.08049465
69	0xbdfb5a1e	-0.12273048
70	0xbe25b2a6	-0.1618143
71	0x3cd20af2	0.025639985
72	0xbe5b259b	-0.21401064
73	0xbdbc62b8	-0.091985166
74	0x3e2b4be8	0.16728175
75	0xbdc34714	-0.095350415
76	0xbc8fa133	-0.01753292
77	0x3d8b8943	0.0681329
78	0xbd9fe2ab	-0.07806905
79	0xbde9e802	-0.11421205
80	0x3e528f95	0.20562585
81	0x3e6e1446	0.23249921
82	0xbe126f00	-0.14300156
83	0x3e5ee1ec	0.2176587
84	0x3d0b62b1	0.034029666
85	0x3e35169e	0.17684409
86	0x3e53fb75	0.20701392
87	0xbe00a5f7	-0.1256331
88	0x3e0f7b9d	0.14011998
89	0x3e7b39d3	0.24533777
90	0xbe4af4c8	-0.19819939
91	0x3ea2659c	0.31718147
92	0x3dc05573	0.09391298
93	0xbe7c221f	-0.24622391
94	0x3b789086	0.003792794
95	0xbe38d178	-0.18048656
96	0xbdc22b30	-0.094808936
97	0xbc926d33	-0.017874336
98	0xbd68b928	-0.056817204
99	0x3dddd878	0.10832304
100	0x3dc02310	0.09381688
101	0x3e27ed7e	0.1639919
102	0x3d8df335	0.06931154
103	0x3eac4d55	0.3365275
104	0x3dd76447	0.10517173
105	0xbe82ca56	-0.25544995
106	0xbb731424	-0.0037090862
107	0x3d570595	0.052495558
108	0xbdd52e1e	-0.10409187
109	0xbd8f7e84	-0.07006553
110	0x3b1c9520	0.0023892596
111	0x3c520c39	0.012820297
112	0xbea360ad	-0.31909695
113	0x3e4c0af3	0.19926052
114	0xbd272c26	-0.040813588
115	0xbd464484	-0.048405185
116	0x3ea77132	0.3270355
117	0xbe20f47f	-0.15718268
118	0x3e6d3269	0.23163761
119	0xbb269f39	-0.0025424494
120	0xbde5e5ec	-0.11225495
121	0xbdf99032	-0.12185706
122	0xbe0ea8ee	-0.13931629
123	0x3d7d5f00	0.061858177
124	0xbe94d810	-0.29071093
125	0xbd34a726	-0.044104718
126	0xbdf00fde	-0.117217764
127	0x3edc0e53	0.4297968
128	0xbe26096a	-0.16214529
129	0xbd8aa24b	-0.06769236
130	0x3d984df2	0.07436742
131	0xbdd75c4c	-0.10515651
132	0x3df96d30	0.12179029
133	0xbeb2ad72	-0.34897953
134	0x3e8270c1	0.2547665
135	0x3e1f89e3	0.15579943
136	0x3e4ce5c1	0.20009519
137	0xbd917e7f	-0.07104205
138	0x3dc3263e	0.095287785
139	0x3dcc57e4	0.09977701
140	0x3dc8ad68	0.097986996
141	0xbe1b8076	-0.15185723
142	0x3e29cf1f	0.16582917
143	0x3e55d957	0.2088369
144	0x3e1cb889	0.1530477
145	0xbea9d5d3	-0.33170947
146	0xbe69269e	-0.22768638
147	0xbe0a9357	-0.13532768
148	0xbe41850b	-0.18898408
149	0xbe72fb41	-0.23728658
150	0x3d1fde3d	0.039030302
151	0xbdffeda5	-0.12496499
152	0xbcfdf450	-0.031000286
153	0x3e36f3c2	0.17866424
154	0x3eb7330e	0.3578114
155	0xbcc43cd0	-0.023954779
156	0x3e22e641	0.15908147
157	0xbd16060d	-0.036626864
158	0x3db4dd0e	0.08831225
159	0xbe0233a1	-0.12715007
160	0xbe9e19e5	-0.3087913
161	0xbd321579	-0.04347751
162	0x3dbaf0e2	0.09127976
163	0x3e8fb89a	0.28070527
164	0x3e87d3cd	0.2652878
165	0x3d28c569	0.04120389
166	0x3e9101d6	0.28321713
167	0x3e71b1fa	0.23603049
168	0x3dc9434a	0.098272875
169	0xbea7dfb9	-0.32787874
170	0x3ea7ec5d	0.32797518
171	0xbe612082	-0.21985057
172	0x3d7c7e6e	0.06164401
173	0x3d91f6f4	0.07127181
174	0xbddd77f6	-0.10813896
175	0xbe143fa5	-0.14477403
176	0x3e07e85f	0.13272236
177	0x3e8d59b5	0.27607504
178	0x3cb07b46	0.021543156
179	0xbe06cfdb	-0.13165228
180	0xbdc752d3	-0.09732594
181	0xbe2818dd	-0.16415735
182	0xbde3ae91	-0.1111728
183	0x3e08efd7	0.13372742
184	0x3ca0bf4a	0.019622464
185	0xbd8fcfe1	-0.07022072
186	0x3dccadb8	0.09994072
187	0x3dad7f49	0.08471543
188	0x3e07d174	0.13263494
189	0xbad7abb1	-0.0016454366
190	0xbe5523e7	-0.20814477
191	0xbdb949e6	-0.09047298
192	0xbedb77ca	-0.4286483
193	0xbdc97b20	-0.09837937
194	0x3e2dea1f	0.16983841
195	0xbe82cc02	-0.2554627
196	0x3d7a4944	0.061105028
197	0xbde733f6	-0.11289208
198	0xbe4db916	-0.20090136
199	0x3da8c9a8	0.08241588
200	0x3df8e029	0.1215213
201	0x3d99dc61	0.07512737
202	0x3e9fb819	0.31195143
203	0xbe3a3d69	-0.18187489
204	0x3e96ce1d	0.29454127
205	0xbc6efdc8	-0.014586873
206	0xbdb1f707	-0.08689695
207	0xbe43e2ed	-0.19129534
208	0xbe9018ae	-0.2814383
209	0x3dae242d	0.08502994
210	0xbe21cf77	-0.15801798
211	0xbeefe328	-0.46852994
212	0xbda42874	-0.08015528
213	0x3e339c73	0.1754015
214	0x3c84d307	0.016213907
215	0x3e13e3d6	0.14442381
216	0x3e34ce22	0.17656758
217	0xbe4bad36	-0.19890293
218	0x3e0edcaa	0.13951364
219	0x3c8833c3	0.016626244
220	0xbec6f148	-0.38855958
221	0xbce6d76c	-0.028178893
222	0xbe0c9681	-0.13729288
223	0xbd4ae597	-0.04953536
224	0x3c54aeeb	0.012981157
225	0x3edfcbb0	0.4371009
226	0x3d848617	0.06470888
227	0x3d90776f	0.0705403
228	0x3e4ae96a	0.19815603
229	0xbd8dcc1e	-0.06923698
230	0x3c99c38b	0.01877
231	0xbe847656	-0.25871533
232	0x3dfc08a3	0.12306335
233	0x3dbddae9	0.092702694
234	0xbdfc6d4b	-0.123255335
235	0xbe208466	-0.15675506
236	0x3e0e7abc	0.13914007
237	0x3e2e31da	0.17011204
238	0xbddc7370	-0.107642055
239	0xbe18cdbe	-0.14922234
240	0xbda533e0	-0.08066535
241	0xbd453efb	-0.048155766
242	0xbc8e97a1	-0.017406287
243	0x3e9f45cf	0.31107947
244	0xbdadc1d8	-0.084842384
245	0xbe40d602	-0.18831638
246	0x3bcfff48	0.0063475706
247	0xba8ed0ab	-0.0010895928
248	0x3dab75bf	0.08372068
249	0xbcd1be15	-0.025603333
250	0x3de43b45	0.11144117
251	0x3d8ff615	0.07029358
252	0xbdbb2e69	-0.091397114
253	0xbe04bee8	-0.1296345
254	0x3b06b620	0.0020555332
255	0xbc6ea0d0	-0.014564708

critic.3.bias f4 [64]
0	0xbdaee9b7	-0.08540671
1	0x3d8b1158	0.067904174
2	0xbde63cc2	-0.112420574
3	0x3d8b3c9d	0.067986704
4	0x3da6ddf6	0.081478044
5	0xbdca41ac	-0.09875807
6	0x3da263c7	0.07929187
7	0x3dcd6fc6	0.10031085
8	0x3d974a81	0.07387257
9	0xbdb18eb1	-0.08669794
10	0xbd784b5f	-0.060618754
11	0xbd937e34	-0.07201806
12	0x3da6198d	0.08110342
13	0x3c5a2a86	0.013315802
14	0xbd33204e	-0.04373198
15	0xbdb73425	-0.08945493
16	0xbd68b0ee	-0.05680936
17	0x3d81060e	0.06299983
18	0x3d853933	0.065050505
19	0xbb519c44	-0.003198401
20	0x3d8d69ad	0.06904922
21	0xbd8b7e31	-0.068111785
22	0xbdb39116	-0.08767907
23	0x3da8cbde	0.082420096
24	0x3db722d2	0.08942188
25	0x3db19248	0.08670479
26	0xbdc45d99	-0.09588165
27	0xbd83f2e7	-0.06442814
28	0xbdb037fb	-0.086044274
29	0x3dc0790c	0.09398088
30	0xbd3bf667	-0.045889284
31	0xbda18c96	-0.07888143
32	0x3d8d96ce	0.06913529
33	0x3da6e19a	0.08148499
34	0x3db92bdd	0.090415694
35	0xbdcf1c31	-0.10112799
36	0xbd74b2cc	-0.059740826
37	0xbd96fc67	-0.07372361
38	0xbd4fdf2f	-0.050749954
39	0xbd820b42	-0.063498035
40	0x3db2ad40	0.08724451
41	0x3dadb2d9	0.08481378
42	0xbda17b0b	-0.07884797
43	0x3d9a2dd4	0.07528272
44	0xbdb64775	-0.08900348
45	0x3d3aee9e	0.04563772
46	0x3de2a9f7	0.110675745
47	0x3dbdbe4d	0.092648126
48	0x3d89420c	0.067020506
49	0xbd9efea4	-0.077634126
50	0x3d8c3392	0.06845774
51	0xbc8b25cc	-0.016985796
52	0x3d98aa12	0.07454313
53	0x3d61ce62	0.055128463
54	0xbdad47f3	-0.08460989
55	0x3d95ec6a	0.07320483
56	0x3d4600c7	0.048340585
57	0x3dcb5956	0.09929149
58	0xbc838b7b	-0.01605772
59	0x3d84a6e3	0.064771436
60	0xbd5cadfe	-0.05387687
61	0x3cb61722	0.022227827
62	0xbd926323	-0.07147815
63	0xbcd6501f	-0.026161252

critic.5.weight f4 [1, 64]
0	0x3daeea40	0.085407734
1	0xbd6525bc	-0.05594419
2	0x3d276f9f	0.040877935
3	0xbdb71e06	-0.089412734
4	0xbd8afee8	-0.06786901
5	0x3caa8fe0	0.020820558
6	0xbe69b2c2	-0.22822097
7	0xbda20803	-0.07911684
8	0xbd88641a	-0.06659718
9	0x3dbc07bd	0.091811635
10	0x3dee11fc	0.11624524
11	0x3da7a7ad	0.081862785
12	0x3cbe8c27	0.02326019
13	0x3db9f2c6	0.090795085
14	0x3cfc1609	0.030772226
15	0x3dabb497	0.08384054
16	0x3e25fa02	0.16208652
17	0xbdcd565f	-0.100262396
18	0xbde36577	-0.11103337
19	0x3e0ddb1a	0.13853112
20	0xbe225367	-0.15852128
21	0x3df50612	0.119640484
22	0x3e5b3e34	0.21410447
23	0xbe3c1d6b	-0.18370597
24	0xbdd2bdc7	-0.102901034
25	0xbd4e9d38	-0.050442904
26	0x3db07850	0.08616698
27	0x3e9259b1	0.28584054
28	0x3e914975	0.28376356
29	0xbc269a7e	-0.01016867
30	0x3e133cc4	0.14378649
31	0x3e4b3fd9	0.19848575
32	0xbd782211	-0.060579363
33	0xbd8918d8	-0.06694192
34	0xbdbc7e2d	-0.092037536
35	0x3d3991a4	0.04530491
36	0x3d30965e	0.04311215
37	0x3e2fbacf	0.17161106
38	0x3e0a0d2b	0.13481586
39	0x3e1909a9	0.14945091
40	0xbcd2ec50	-0.025747448
41	0xbc38218d	-0.011238468
42	0x3e236dde	0.1595988
43	0xbd357751	-0.044303242
44	0x3d82d2bf	0.06387853
45	0xbd955aee	-0.07292734
46	0xbcc2cbea	-0.023778874
47	0xbcc9bce7	-0.024626208
48	0x3c56b253	0.013104039
49	0x3d66f357	0.05638441
50	0xbdd6ba81	-0.104847915
51	0xbe1b449c	-0.15162891
52	0xbde18259	-0.1101119
53	0xbd953106	-0.07284741
54	0x3d0aa9ce	0.033853345
55	0xbd64c0e8	-0.055848032
56	0xbd26cb19	-0.040721033
57	0xbc98c114	-0.018646754
58	0x3d54bbad	0.051936794
59	0xbddcbe50	-0.10778487
60	0x3e3bee7e	0.18352696
61	0xbc0520d9	-0.008125507
62	0x3db214a8	0.08695346
63	0x3d776ef1	0.060408536

actor_mean.0.weight f4 [64, 36]
0	0x3bfdbe76	0.007743652
1	0x3eccfdbb	0.4003733
2	0x3cc409e0	0.02393049
3	0xbe6786a8	-0.22609961
4	0xbe9b0cb9	-0.30283144
5	0x3dcbb8fc	0.09947392
6	0xbe072280	-0.13196754
7	0x3eb92497	0.36160728
8	0x3e01bbb6	0.12669262
9	0xbe1acc32	-0.15116957
10	0x3dc36008	0.09539801
11	0xbe2fa86c	-0.17154092
12	0x3da76852	0.081741944
13	0x3c0fd305	0.008778338
14	0x3e0ef75e	0.1396155
15	0x3dbe0a1f	0.09279274
16	0x3d74f5fc	0.0598049
17	0xbe577c42	-0.21043494
18	0xbdb5f8cf	-0.08885347
19	0xbe2faff3	-0.17156963
20	0xbe87a089	-0.26489666
21	0xbefb98a6	-0.491399
22	0x3d68e87b	0.056862336
23	0xbe813fe1	-0.25244048
24	0xbd57f18c	-0.05272059
25	0x3ce179b1	0.027523847
26	0x3dec8bec	0.115501255
27	0xbec36641	-0.3816395
28	0x3e2a24dc	0.16615623
29	0x3de11233	0.10989799
30	0xbe18d382	-0.14924434
31	0xbec7675d	-0.38946047
32	0x3e4018e7	0.187595
33	0x3dfe3d6c	0.12414059
34	0xbd8f7ffd	-0.07006834
35	0xbd72b9e3	-0.059259307
36	0x3c983243	0.018578654
37	0x3e532482	0.20619395
38	0x3d05245e	0.032505386
39	0x3e387ac4	0.18015581
40	0xbe76ed50	-0.24113965
41	0x3e074fc7	0.13214026
42	0xbd96122c	-0.07327685
43	0x3e853ac3	0.26021394
44	0x3c483553	0.012219745
45	0x3d9bad98	0.0760147
46	0xbd1eefac	-0.038802788
47	0x3e00f5ce	0.12593767
48	0xbe20c4e0	-0.15700102
49	0x3cabb195	0.020958701
50	0xbdc9de7f	-0.09856891
51	0xbde98f2e	-0.114042625
52	0x3e3a8a7f	0.18216895
53	0xbdb58dc3	-0.088649295
54	0xbdd8828a	-0.10571773
55	0x3c3b1f25	0.011421
56	0xbe4cfa4f	-0.2001736
57	0x3da56770	0.0807637
58	0xbde10fef	-0.10989367
59	0xbcbd012d	-0.02307185
60	0x3e6460b7	0.22302519
61	0x3e90ce35	0.28282323
62	0xbe37de4b	-0.17955892
63	0x3e4b38d1	0.19845892
64	0xbeac51a0	-0.33656025
65	0x3e8348da	0.2564152
66	0x3caf9a01	0.02143574
67	0x3e66f152	0.22552994
68	0xbe81ca1e	-0.25349516
69	0x3cbbed4f	0.022940306
70	0x3e65d7ae	0.22445557
71	0xbda00b80	-0.078146935
72	0x3d138427	0.036014702
73	0x3d02eb2f	0.03196257
74	0xbe855eb2	-0.2604881
75	0x3dbd4ee8	0.09243566
76	0x3db1d396	0.08682935
77	0xbec67643	-0.38762102
78	0xbf24df94	-0.64403653
79	0x3dc350df	0.09536909
80	0x3e10d8a2	0.14145139
81	0x3ea00d58	0.3126018
82	0xbab13079	-0.0013518474
83	0xbd9c0cb2	-0.07619609
84	0xbe90c18e	-0.2827267
85	0xbe1e87b6	-0.15481457
86	0x3d8f40be	0.069947705
87	0xbde3442a	-0.11096986
88	0xbc923500	-0.017847538
89	0x3d912363	0.070868276
90	0xbe6aecfc	-0.22941965
91	0x3e4b17e1	0.19833328
92	0x3e0b9c96	0.13633952
93	0xbd29ffd6	-0.04150375
94	0x3d662b51	0.056193653
95	0xbe1eb616	-0.15499148
96	0x3d9b95b7	0.07596915
97	0x3d9e77ca	0.07737692
98	0x3dec42e6	0.11536197
99	0xbded5693	-0.11588778
100	0x3d7f1224	0.06227316
101	0xbe9c5298	-0.30531764
102	0xbd14f10b	-0.03636269
103	0x3e5288b9	0.20559968
104	0xbe050cbc	-0.12993139
105	0x3dc1a16a	0.094546154
106	0x3e17ddb5	0.14830668
107	0x3e4dffce	0.20117113
108	0xbd942de0	-0.072353125
109	0x3e8dd9f5	0.2770535
110	0xbd14c9c1	-0.03632522
111	0xbe4442a2	-0.19166043
112	0xbdc724ed	-0.0972384
113	0xbcce9626	-0.02521808
114	0x3e82fadd	0.25582018
115	0x3ebdf4e6	0.37100905
116	0xbda07c5f	-0.07836222
117	0x3ecbbcca	0.39792472
118	0x3e1f16a2	0.15535977
119	0x3dc4e56f	0.096140735
120	0xbe717afd	-0.23582073
121	0x3e31ffbf	0.17382716
122	0xbd201fa0	-0.03909266
123	0x3cc3c036	0.023895364
124	0xbcae3381	-0.021264793
125	0xbe7e0eef	-0.24810384
126	0x3e03689f	0.12832879
127	0x3e6b6f6c	0.22991723
128	0xbd77a50c	-0.060460135
129	0x3b863e22	0.0040967623
130	0x3e1fda07	0.15610515
131	0x3c56bdaa	0.013106743
132	0x3d914cb6	0.070947096
133	0x3e2b373d	0.1672029
134	0x3e181d81	0.14855005
135	0x3e73bfd4	0.23803645
136	0x3db9a818	0.090652645
137	0xbd432e1a	-0.047651388
138	0xbebf4c17	-0.3736274
139	0xbe83d795	-0.25750414
140	0xbdaa933d	-0.08328865
141	0xbe9b2e94	-0.30308974
142	0x3e5e9734	0.21737367
143	0x3e5f1064	0.21783596
144	0x3dfa83a8	0.12232143
145	0xbd745d21	-0.059659127
146	0x3e0f9607	0.14022075
147	0x3d2281a8	0.03967443
148	0x3e17e3e1	0.14833023
149	0x3e75e576	0.24013314
150	0xbf0f4150	-0.55959034
151	0x3b10282a	0.0021996596
152	0xbe655759	-0.22396602
153	0xbe13215a	-0.14368191
154	0x3e428de1	0.18999435
155	0xbe269a3e	-0.16269776
156	0x3e2fb0b8	0.17157257
157	0xbe46c209	-0.19409956
158	0xbd977c64	-0.073967725
159	0xbdce226d	-0.1006516
160	0xbd60f52e	-0.05492132
161	0x3df68f94	0.12039104
162	0xbec3783b	-0.38177666
163	0x3dd72bcc	0.105064005
164	0x3e991e24	0.29905808
165	0xbe5b2d67	-0.21404038
166	0xbd2810d3	-0.04103167
167	0x3be042ab	0.006843885
168	0xbe26467e	-0.16237828
169	0x3e838dbb	0.2569407
170	0xbe8d695d	-0.27619448
171	0xbc9dc8f3	-0.01926086
172	0x3d29496f	0.041329797
173	0x3e18bb66	0.14915237
174	0x3ec301f4	0.38087428
175	0xbd900ae0	-0.07033324
176	0x3e2799b1	0.16367222
177	0x3da564c6	0.08075862
178	0xbdabc188	-0.083865225
179	0x3e033ba8	0.12815726
180	0x3e083780	0.13302422
181	0xbe096df9	-0.13420857
182	0x3b8b51df	0.004251703
183	0x3eb7bdcf	0.35887
184	0x3e85465b	0.2603024
185	0x3cf7fe73	0.030272698
186	0x3d6f1eda	0.05837903
187	0xbc576b4e	-0.013148142
188	0x3ddfa097	0.10919302
189	0xba9a5cf4	-0.001177697
190	0x3d06b3f8	0.032886475
191	0x3e15a09d	0.1461205
192	0x3e0f899a	0.14017335
193	0xbe1c8089	-0.15283407
194	0xbe364264	-0.17798764
195	0x3cf41dcf	0.02979937
196	0x3d9d07cd	0.076675035
197	0xbe6ef9d5	-0.23337491
198	0xbe07d4cd	-0.13264771
199	0x3e5c3dfb	0.21508019
200	0xbda65fd7	-0.08123749
201	0x3bef8aa9	0.0073102308
202	0xbca570f6	-0.020195466
203	0xbda17260	-0.078831434
204	0x3e09729e	0.13422629
205	0x3e459e8a	0.19298759
206	0xbec2f84b	-0.38080058
207	0xbe4d9ef0	-0.20080161
208	0x3e47ca1a	0.1951069
209	0x3d07e1fb	0.033174496
210	0x3de4ff95	0.11181561
211	0xbe435dd8	-0.19078767
212	0xbe96df10	-0.29467058
213	0x3e76120c	0.24030322
214	0xbd337553	-0.04381306
215	0x3de203d7	0.11035889
216	0xbdab8e60	-0.08376765
217	0xbdc52213	-0.0962564
218	0x3cdd0105	0.026978025
219	0x3e703cdf	0.2346072
220	0x3e8e0565	0.2773849
221	0x3e0dba09	0.13840498
222	0x3cd599a4	0.026074238
223	0xbd274635	-0.04083844
224	0xbe8a4ed2	-0.2701326
225	0x3e419eec	0.1890828
226	0x3e8ef038	0.27917647
227	0xbe547559	-0.2074789
228	0xbe920b7b	-0.28524384
229	0xbe92ed4b	-0.28696665
230	0x3d8ca8db	0.06868144
231	0x3daae059	0.08343572
232	0xbe6a8bc2	-0.22904876
233	0xbaf5a544	-0.001874127
234	0xbeaaddaf	-0.33372256
235	0xbdb52652	-0.088452
236	0xbe99205f	-0.2990751
237	0xbd657fae	-0.056029968
238	0x3dfa1cb5	0.12212507
239	0x3e3f52fd	0.18684001
240	0xbdaec1ef	-0.08533084
241	0xbdcb7033	-0.0993351
242	0xbdc3539c	-0.095374316
243	0x3e5c42e8	0.21509898
244	0x3c6498f0	0.013952479
245	0x3e45bce4	0.19310337
246	0x3e2b7b79	0.1674632
247	0xbd616469	-0.0550274
248	0xbc92176c	-0.017833434
249	0x3ead4b77	0.33846638
250	0x3d87ed51	0.066370614
251	0xbd18d217	-0.037309732
252	0xbe4ebeae	-0.20189926
253	0xbe751ba5	-0.23936327
254	0x3e222193	0.1583312
255	0xbe99ae64	-0.30015862

actor_mean.0.bias f4 [64]
0	0xbe2951d2	-0.16535118
1	0xbd68eb6c	-0.05686514
2	0x3d35092e	0.044198208
3	0xbdddc843	-0.108292125
4	0x3e159992	0.14609364
5	0x3e270d80	0.16313744
6	0xbde89f97	-0.11358564
7	0xbde04bbd	-0.10951946
8	0x3d9ee7aa	0.0775903
9	0x3df85b45	0.12126783
10	0xbd8dfa17	-0.069324665
11	0xbe02662b	-0.12734286
12	0xbd338c57	-0.04383501
13	0x3e414c34	0.18876725
14	0xbe90b31c	-0.2826165
15	0x3e97819a	0.29591066
16	0x3ec95c7c	0.39328372
17	0xbc0062b2	-0.007836031
18	0xbe409cca	-0.1880981
19	0xbda08870	-0.078385234
20	0xbe1295ee	-0.14315006
21	0xbdd91af8	-0.10600847
22	0xbd0d1cde	-0.034451358
23	0xbe0cb0a4	-0.13739258
24	0x3d76f9cc	0.06029682
25	0x3d09a568	0.03360501
26	0xbd9ef0ee	-0.077607974
27	0xbe423097	-0.18963848
28	0x3d781306	0.060565017
29	0xbd0b9463	-0.03407706
30	0x3e06bf14	0.13158828
31	0xbe0bd834	-0.13656694
32	0x3e10ce76	0.14141259
33	0x3e7bd6db	0.2459368
34	0x3e06ec5a	0.13176098
35	0x3d3e2c98	0.046429247
36	0xbdd3b8ea	-0.10338004
37	0xbbc3ae63	-0.0059717163
38	0x3e71bc50	0.23606992
39	0x3e0d95d3	0.13826685
40	0xbdcad4ef	-0.09903895
41	0xbe35c5db	-0.17751257
42	0xbca47690	-0.020076066
43	0xbdec884a	-0.115494326
44	0xbe58a631	-0.21157147
45	0xbe013a2f	-0.12619852
46	0xbe34d044	-0.17657572
47	0xbd87c421	-0.066292055
48	0xbe28eeb6	-0.16497311
49	0x3e20b866	0.15695342
50	0x3b33c07e	0.0027427967
51	0x3d679b84	0.056544796
52	0x3be2c91e	0.0069209477
53	0xbe1ad122	-0.1511884
54	0x3d9ed3ce	0.07755242
55	0xbdc60666	-0.09669189
56	0xbcddcba5	-0.027074644
57	0x3b070cef	0.0020607074
58	0xbd36249d	-0.04446851
59	0xbdf32d50	-0.11873877
60	0xbdc1566f	-0.09440314
61	0x3e3f8c13	0.18705778
62	0x3e07283b	0.1319894
63	0xbd82f2c9	-0.06393964

actor_mean.2.weight f4 [64, 64]
0	0x3c26003e	0.010131894
1	0x3d4d352a	0.05009953
2	0x3d029df9	0.031888936
3	0x3cbc8914	0.023014583
4	0x3e671076	0.22564873
5	0xbe58d755	-0.21175893
6	0x3de36b9b	0.111045085
7	0x3c8e51c9	0.017372983
8	0xbd16cced	-0.036816526
9	0xbded90a8	-0.115998566
10	0x3e1f8fed	0.15582247
11	0x3f038332	0.51372063
12	0xbe23ff33	-0.1601532
13	0xbda2c3a8	-0.07947475
14	0xbd9efa9e	-0.07762645
15	0xbe60e52f	-0.21962427
16	0x3dd371de	0.10324453
17	0x3e5f5978	0.21811473
18	0xbeafddab	-0.34348807
19	0xbe76d818	-0.2410587
20	0xbe6983ee	-0.22804233
21	0x3e842749	0.25811222
22	0x3e7280b2	0.23681906
23	0x3d9ae9fb	0.075641595
24	0x3e979e33	0.29612884
25	0xbcf8cdb3	-0.030371523
26	0x3e6686b9	0.2251233
27	0x3e1205f1	0.14260079
28	0x3dbb3bf4	0.091422945
29	0x3c84564a	0.016154427
30	0xbcfaf527	-0.030634476
31	0x3e252244	0.16126353
32	0x3c75e6ba	0.015008623
33	0xbe542c4e	-0.20720026
34	0x3ded6a9d	0.115926005
35	0xbc8ba97e	-0.017048594
36	0xbd8ef2f8	-0.06979936
37	0xbdcee056	-0.101013824
38	0xbe4c5393	-0.19953756
39	0x3e8417e5	0.2579948
40	0x3e1274b5	0.14302333
41	0xbd02dae0	-0.031947017
42	0x3e000ae0	0.12504148
43	0x3e0a5248	0.1350795
44	0x3a042f13	0.0005042415
45	0x3ee41265	0.44545284
46	0x3b8f5a6a	0.004374792
47	0x3e7d1a94	0.2471717
48	0xbe1f004c	-0.15527457
49	0x3e5e1a5b	0.21689741
50	0xbd6241ea	-0.05523864
51	0x3d458e33	0.048231315
52	0xbd8ca8ef	-0.06868159
53	0xbdb70213	-0.089359425
54	0xbca725e2	-0.020403806
55	0x3e4462e7	0.19178353
56	0xbd83c727	-0.0643447
57	0x3cdbcd35	0.026831249
58	0x3e62698c	0.22110575
59	0x3e7493ff	0.23884581
60	0xbe9f2c65	-0.31088558
61	0x3da38281	0.07983876
62	0xbd7d1c7a	-0.061794735
63	0x3e09bc5f	0.13450764
64	0x3d7ea697	0.06217059
65	0x3c855294	0.016274728
66	0xbc7f0148	-0.01556427
67	0xbe414a4f	-0.18876003
68	0xbe0edb06	-0.13950738
69	0xbe48cf5c	-0.19610351
70	0xbed62e4b	-0.41832194
71	0xbf008607	-0.5020451
72	0xbe2c892f	-0.16849206
73	0x3dc6d75f	0.097090475
74	0x3e05b0a9	0.13055672
75	0xbd4dfb0b	-0.05028824
76	0xbd82dc72	-0.06389703
77	0x3e68a350	0.22718549
78	0xbe72bd6e	-0.23705074
79	0x3d9de716	0.07710092
80	0xbec16e75	-0.37779585
81	0x3d1f7a62	0.038935073
82	0xbe959945	-0.29218498
83	0x3e7dcda4	0.24785477
84	0x3df2bc04	0.118522674
85	0xbd04a4e6	-0.032383822
86	0xbdaba8f8	-0.083818376
87	0x3e022e79	0.1271304
88	0x3d7b4a4f	0.061350163
89	0xbdc214c4	-0.09476617
90	0x3a496161	0.0007682052
91	0x3de7f4a2	0.11325957
92	0x3b396fcc	0.0028295396
93	0x3e2ba4c9	0.1676208
94	0xbd240617	-0.04004487
95	0xbdb035ee	-0.08604036
96	0xbe59f9e3	-0.2128673
97	0x3e9141c3	0.28370485
98	0x3e15cfae	0.14630005
99	0x3dc30132	0.09521712
100	0xbdaf2cc5	-0.08553461
101	0x3e8ada69	0.2711976
102	0x3d2236bd	0.039602984
103	0x3e259eb7	0.16173826
104	0xbcc4beb0	-0.024016708
105	0xbd7dc778	-0.061957806
106	0x3e0760c1	0.13220502
107	0x3cd67609	0.02617933
108	0xbece2c78	-0.40268302
109	0x3deef218	0.116672695
110	0xbdfdf0f6	-0.12399475
111	0xbe25ad2f	-0.16179346
112	0x3dc583df	0.09644293
113	0xbe20d4ca	-0.15706173
114	0x3dfdbee9	0.12389929
115	0xbcaeff4a	-0.021361966
116	0xbe305b69	-0.1722237
117	0xbdcb318a	-0.09921558
118	0xbe1a4d16	-0.15068468
119	0x3e9a86b0	0.30180883
120	0x3cf1c403	0.029512411
121	0xbd436ef3	-0.04771323
122	0xbe1ddae5	-0.15415533
123	0x3d86e57a	0.06586738
124	0xbe9f9dc5	-0.31175056
125	0x3dcc5521	0.099771746
126	0x3de238ad	0.11045966
127	0x3cdd9091	0.027046474
128	0xbdc08891	-0.09401048
129	0xbeb41637	-0.351732
130	0xbdc5232b	-0.096258484
131	0xbea28e74	-0.31749308
132	0xbd58dd0b	-0.052945178
133	0x3d97a3be	0.07404278
134	0x3d9d5d69	0.07683832
135	0x3e4bcd62	0.19902566
136	0x3e6f100b	0.23345964
137	0xbe846da3	-0.25864896
138	0xbdceccbb	-0.10097643
139	0x3dfae7bc	0.12251231
140	0xbd21b675	-0.039480645
141	0xbe3b402d	-0.182862
142	0xbeda4933	-0.42633972
143	0x3ca244fc	0.019808285
144	0x3d6c8212	0.057741232
145	0x3dda05c7	0.10645633
146	0xbe730ec9	-0.23736109
147	0xbd5b5670	-0.05354923
148	0xbde48ef3	-0.11160078
149	0x3e724a46	0.23661146
150	0xbeb1b33b	-0.34707054
151	0x3e08a3e4	0.1334377
152	0x3e0af2ee	0.13569233
153	0x3e2628c3	0.16226487
154	0x3e3c5b60	0.18394232
155	0xbe294fbc	-0.16534323
156	0x3d8c4bb8	0.0685038
157	0x3ddf97f8	0.109176576
158	0xbe5863c4	-0.21131808
159	0x3e93b177	0.28846332
160	0xbd2b3df7	-0.04180714
161	0xba85d7f5	-0.0010211455
162	0xbe487ed6	-0.19579634
163	0xbc350568	-0.011048652
164	0xbe2af56a	-0.1669518
165	0xbd96f726	-0.073713586
166	0x3dc2fbdd	0.09520695
167	0x3e8050f2	0.25061756
168	0x3e713fbb	0.23559467
169	0x3cb97409	0.022638338
170	0x3e141335	0.14460452
171	0xbdbf4e29	-0.0934108
172	0x3f0cd363	0.5501005
173	0x3a875c18	0.0010327129
174	0xbcd56ac5	-0.026051888
175	0x3d0aea35	0.033914763
176	0xbea627ec	-0.32452333
177	0xbe68a2da	-0.22718373
178	0xbe374409	-0.17897047
179	0xbe817627	-0.25285456
180	0x3e46353b	0.19356243
181	0xbdbf82ed	-0.09351144
182	0xbe2742f8	-0.1633414
183	0x3e589896	0.21151957
184	0x3e0b3305	0.13593681
185	0xbc0b16a4	-0.008489285
186	0xbe8ec1bf	-0.27882192
187	0xbe291138	-0.16510475
188	0xbe27e99b	-0.16397707
189	0x3e484ceb	0.19560592
190	0x3d4480c6	0.04797437
191	0xbe9f043e	-0.31057924
192	0xbe09939b	-0.13435213
193	0x3c2fd81a	0.010732675
194	0x3e16ba93	0.1471961
195	0x3e492461	0.19642784
196	0x3de2a204	0.11066058
197	0x3df97e45	0.12182287
198	0xbdcd921c	-0.10037634
199	0x3e5b301e	0.21405074
200	0xbe5e9356	-0.21735892
201	0xbe29a33d	-0.16566177
202	0xbde52cff	-0.11190223
203	0xbe753d9b	-0.23949282
204	0x3ce26ea7	0.027640654
205	0xbcc1b85a	-0.023647476
206	0x3d9970a9	0.07492191
207	0xbdf96159	-0.12176771
208	0xbd29710c	-0.041367576
209	0x3cb99749	0.022655146
210	0x3d60f082	0.054916866
211	0x3e8b482d	0.27203503
212	0xbe818c97	-0.25302574
213	0xbe335e8a	-0.17516533
214	0x3ddde73a	0.108351186
215	0x3e3518e8	0.17685282
216	0x3e241d4f	0.16026805
217	0x3e9d222b	0.3069013
218	0x3ea8e213	0.3298498
219	0xbdefb152	-0.11703743
220	0xbe487d2b	-0.19578998
221	0xbd5156ee	-0.051108293
222	0xbc97edca	-0.018546004
223	0xbd821c79	-0.06353087
224	0x3dd4dd29	0.103937455
225	0xbe0763eb	-0.1322171
226	0xbce10007	-0.027465833
227	0x3e85c941	0.26130107
228	0x3e299c28	0.16563475
229	0x3e9a223c	0.30104244
230	0xbd126b10	-0.035746634
231	0xbd7f7d60	-0.062375426
232	0x3e997edb	0.29979596
233	0xbe5189fa	-0.2046279
234	0x3d8fd5bc	0.070231885
235	0x3ed547d5	0.41656366
236	0xbcc2f24a	-0.023797173
237	0x3e79fa57	0.24411903
238	0xbd67b48f	-0.05656868
239	0x3dbd4cb7	0.09243148
240	0x3d715531	0.058919135
241	0x3cb9bbfd	0.022672648
242	0xbb99edc5	-0.004697534
243	0xbe1e36ea	-0.15450636
244	0xbe2070c4	-0.15668017
245	0xbd9a718f	-0.07541191
246	0xbefb3137	-0.49060985
247	0xbe0bbc9a	-0.13646165
248	0xbe7e9801	-0.24862672
249	0x3e216877	0.15762506
250	0xbe9806a1	-0.29692557
251	0xbe3685d2	-0.17824486
252	0x3e2eec59	0.17082347
253	0x3d88ceed	0.06680093
254	0x3e159093	0.14605932
255	0x3c72c526	0.014817512

actor_mean.2.bias f4 [64]
0	0xbe07bc75	-0.13255484
1	0x3e4c3501	0.19942094
2	0xbc71009f	-0.014709621
3	0x3d37fd7a	0.04491947
4	0x3d57e393	0.052707266
5	0x3e09fbbb	0.13474934
6	0xbe1742ec	-0.14771622
7	0xbdaa5a6f	-0.0831803
8	0x3e6d4c51	0.23173644
9	0x3cf324b4	0.029680587
10	0x3c1af940	0.00945884
11	0x3e0e6776	0.13906655
12	0xbd5d470a	-0.054022826
13	0xbe0ace4b	-0.13555257
14	0xbd7f7b01	-0.062373165
15	0x3e0bba66	0.13645324
16	0xbd501e8d	-0.050810385
17	0x3d3b13fb	0.04567335
18	0xbdabe1aa	-0.083926514
19	0xbdced736	-0.10099642
20	0x3e1ec21b	0.15503733
21	0x3d924a51	0.07143081
22	0xbd8d3f3c	-0.068968266
23	0xbdd48467	-0.10376816
24	0x3d58b269	0.05290452
25	0xbdf7f97e	-0.12108134
26	0x3dbb9e09	0.09161002
27	0xbe9f150c	-0.31070745
28	0xbdbe1758	-0.09281796
29	0x3e1e3343	0.15449242
30	0xbd35c0f7	-0.04437348
31	0x3eaceec7	0.33775923
32	0xbdbf7702	-0.09348871
33	0x3d6d6a39	0.05796263
34	0x3e173b5e	0.1476874
35	0x3c2c4798	0.010515116
36	0xbe225fcb	-0.15856855
37	0x3d1aef96	0.037826143
38	0x3c65477d	0.013994095
39	0x3e82f1b8	0.25575042
40	0x3e03c589	0.12868322
41	0x3dad9153	0.08474984
42	0xbd319a54	-0.04336007
43	0x3ced19b6	0.028942924
44	0x3e2aa669	0.16665043
45	0x3d2991b3	0.041398715
46	0x3e190603	0.149437
47	0xbc5f3acc	-0.013624858
48	0xbd3f6581	-0.04672766
49	0xbdbb4ba9	-0.091452904
50	0xbe3f637d	-0.18690296
51	0xbdd203bd	-0.10254619
52	0xbdb00bb0	-0.08595979
53	0xbe1b2a40	-0.15152836
54	0x3e3f1b8f	0.18662857
55	0xbe057cb0	-0.13035846
56	0x3e0ecbc5	0.1394492
57	0xbc9ae76d	-0.01890918
58	0x3e24fc7b	0.16111939
59	0xbdf0d01a	-0.11758442
60	0xbe0ecf4a	-0.13946262
61	0x3d0800bb	0.03320382
62	0xbd3c55d1	-0.04598028
63	0x3df400b5	0.11914197

actor_mean.4.weight f4 [2, 64]
0	0x3d2efc6a	0.04272119
1	0x3c615a56	0.013754448
2	0x3d1a24ec	0.037632868
3	0xbc81a2a7	-0.015824629
4	0x3d3989a0	0.045297265
5	0xbcf7f8e6	-0.030270051
6	0x3c2bfcf9	0.010497325
7	0x3d949c5e	0.07256387
8	0x3c830a2a	0.015996058
9	0xbdaf3553	-0.08555093
10	0x3dbc6433	0.09198799
11	0xbcfce6d5	-0.030871788
12	0xbcd160ea	-0.025558908
13	0x3d7509c0	0.05982375
14	0x3d2a5c3d	0.04159187
15	0x39d48ee5	0.00040542256
16	0x3d0c1ee5	0.03420915
17	0xbd43afca	-0.047775067
18	0x3d3c84cc	0.046025082
19	0xbcbca6ed	-0.023028815
20	0xbd9c3c59	-0.07628698
21	0x3d5eb301	0.05436993
22	0x3d33b0d7	0.04386982
23	0x3d747d8c	0.059690043
24	0xbc61e100	-0.013786554
25	0x3d86473a	0.06556554
26	0x3d3feb1d	0.04685508
27	0xbd2c1113	-0.04200847
28	0x3a65fe11	0.00087735156
29	0xbd8b1c55	-0.06792513
30	0xbd8a2745	-0.06745771
31	0x3cec6bc3	0.028859979
32	0x3b9c8bbf	0.004777401
33	0x3d673076	0.0564427
34	0xbc604949	-0.013689348
35	0x3c0af943	0.00848228
36	0x3bb27baa	0.005446871
37	0xbd822920	-0.063555
38	0xbc8bb4b0	-0.017053932
39	0xbca4b304	-0.020104893
40	0xbd3ef547	-0.046620633
41	0xbc867769	-0.016414361
42	0xbbc84062	-0.0061111907
43	0xbc805c02	-0.015668873
44	0xbc70d090	-0.014698163
45	0xba9b2338	-0.0011836058
46	0x3d0b3a8b	0.033991378
47	0xbc8d060a	-0.017214794
48	0xbcae4671	-0.021273823
49	0x3c9e61d2	0.019333754
50	0xbaff1203	-0.0019460324
51	0x3dae8d6b	0.08523067
52	0xbb3b1b19	-0.0028550087
53	0xbd1ff6ca	-0.039053716
54	0xbcb93d1e	-0.02261215
55	0x3d339f62	0.04385317
56	0x3d1194f3	0.03554244
57	0xbc74138a	-0.014897237
58	0xbd8305df	-0.06397604
59	0x3d0f1edc	0.03494154
60	0x3cd2800f	0.025695829
61	0xbbf20117	-0.007385384
62	0x3d9db3ae	0.07700287
63	0xbc986e18	-0.018607184
64	0x3b886365	0.0041622394
65	0xbbc1f042	-0.0059185335
66	0x3dbe9741	0.09306193
67	0x3c601ce6	0.013678765
68	0xbaa3d3bb	-0.0012499014
69	0x3c339fb2	0.010963367
70	0xbd77efe6	-0.06053152
71	0xbce3d7d1	-0.02781287
72	0xbcb12a0e	-0.021626499
73	0x3c89cbf8	0.016820893
74	0xbdb57d26	-0.08861761
75	0xbd98e204	-0.07464984
76	0x3d441a6d	0.047876764
77	0x3db0bda2	0.086299196
78	0xbc8641d0	-0.016388804
79	0xbc7efad0	-0.015562728
80	0x3d643266	0.055712126
81	0x3d22752a	0.039662518
82	0xbca395c9	-0.019968884
83	0x3d95873d	0.07301185
84	0xbc9e8165	-0.01934881
85	0xbcc21a48	-0.023694173
86	0x3d8b8936	0.0681328
87	0xbd3a9b91	-0.045558516
88	0xbd45ec8d	-0.048321296
89	0xbaedb6f6	-0.0018136192
90	0xbd8c93e2	-0.06864144
91	0x3d615f23	0.05502237
92	0xbdb42f92	-0.08798136
93	0xbd7379f4	-0.059442475
94	0x3d03b0b2	0.03215093
95	0xbd8b8f08	-0.068143904
96	0xbc95795d	-0.018246347
97	0xbd4467a5	-0.047950406
98	0xbd407338	-0.04698488
99	0xbd4f5e09	-0.05062679
100	0x3c6449a3	0.013933572
101	0x3d87b6aa	0.06626637
102	0x3d4aa60b	0.049474757
103	0xbc9ca1f5	-0.019120196
104	0xbc079b91	-0.008276836
105	0xbcef0ab1	-0.029179903
106	0x3bd6ae64	0.0065515507
107	0xbcc4258e	-0.023943689
108	0xbd9be8f0	-0.07612789
109	0x3c2b3bda	0.010451281
110	0x3c3fc6e5	0.011705135
111	0x3ce00edd	0.027350837
112	0xbc1cee0f	-0.009578242
113	0x3d044786	0.032294773
114	0x3dc00523	0.0937598
115	0x3d455a57	0.048181858
116	0x3d9caa37	0.076496534
117	0x3d63a446	0.055576585
118	0xbd423e36	-0.04742261
119	0x3d57eb65	0.052714724
120	0xbdcb6e7b	-0.09933182
121	0x3d9c158f	0.076212995
122	0x3c85bfa2	0.01632673
123	0x3d6949a0	0.05695498
124	0x3d09e87f	0.03366899
125	0xbc095977	-0.0083831465
126	0xbba71edd	-0.0051001147
127	0xbcdd1699	-0.026988314

actor_mean.4.bias f4 [2]
0	0x3d73d7b5	0.059531886
1	0xbe0c834d	-0.13721962
