jsbgym/models/train_saves/ppo_capsnosspa_ts1e-2_39669_10-01_17:22:03.pt (torch, 58827 bytes, 14 tensors)

actor_logstd f4 [1, 2]
-0.104302615 -0.04265589
00000000: 9c9c d5bd f1b7 2ebd

conv.0.weight f4 [3, 1, 5, 1]
-0.006860354 0.99191856 0.46969712 0.11952321 -0.17360614 -0.6272871 0.45833388 -0.7824285
0.25371066 -0.40085533 -0.29783937 -0.046249963 -0.06575744 0.53258497 0.63213956
00000000: d2cc e0bb 60ee 7d3f 247c f03e 96c8 f43d
00000010: cfc5 31be e395 20bf bdaa ea3e 3c4d 48bf
00000020: 5de6 813e e93c cdbe 677e 98be 9a70 3dbd
00000030: d6ab 86bd 7d57 083f e6d3 213f

conv.0.bias f4 [3]
-0.027637754 0.24182223 -0.0071934657
00000000: 9268 e2bc 3fa0 773e 2ab7 ebbb

critic.0.weight f4 [64, 36]
-0.22088237 -0.178149 0.009275667 -0.10462032 -0.06926317 -0.032668505 -0.12815754 0.30366236
0.08616386 -0.095676586 -0.00026003423 -0.12068787 0.054530904 0.054652046 0.29366294 -0.13277735
0.081240736 0.03549028 -0.043762177 0.064932406 -0.11076333 0.01372432 0.105901375 -0.32471424
0.11118256 -0.10520193 -0.07168476 0.03921077 0.06303224 0.073664054 -0.026308874 -0.10208226
0.01984258 0.10038936 -0.11559886 0.025820484 0.17558144 -0.22535843 0.18082996 -0.07751776
0.21136434 0.15726432 0.068517074 -0.27525297 -0.2681296 0.14747234 0.123857155 -0.15006037
0.039485708 0.0033543461 -0.22559121 0.33477443 0.13799289 -0.22700298 -0.1700405 0.21254368
-0.065119326 -0.013494289 -0.09331255 0.18404256 -0.30118814 -0.17027493 0.095279895 -0.21844421
-0.23340593 -0.07163486 0.3743587 -0.07815112 -0.0097949095 0.04527101 -0.05559232 -0.049261764
-0.036668144 -0.089949965 0.17803301 0.054883584 -0.1088478 -0.17479587 -0.038866345 0.005167519
-0.015866308 0.109346606 -0.005137661 -0.039440088 0.13523722 0.46021125 -0.059431482 -0.07906193
-0.0033743675 0.24350426 -0.035125174 -0.28360006 -0.23403265 -0.20591712 -0.15061027 -0.09380893
-0.09692722 -0.06883963 -0.14885688 0.01321819 -0.029360628 0.101838805 -0.08500631 -0.1884088
-0.21501401 -0.06965372 -0.101232134 0.25526398 -0.28784183 0.21417043 -0.11550901 -0.24751954
-0.10595971 -0.12047524 0.20834878 -0.24080098 -0.17059472 0.052662577 -0.05212528 -0.10463627
-0.048694078 0.11262595 0.2754248 -0.07495315 0.032340307 -0.21993 -0.10255167 -0.15193531
-0.19935092 -0.119001046 0.16133443 0.013937447 -0.078106925 -0.20484188 -0.25555015 -0.019761316
0.12612489 -0.15506706 0.13861172 -0.26303008 -0.12178531 0.22284375 -0.013938045 0.15811038
-0.014815854 -0.4420309 0.0073883706 -0.12242881 -0.015125486 0.19554095 0.023493081 -0.23055995
-0.07421745 -0.09404191 0.12083507 0.24584948 0.07521603 0.26696315 0.14064498 0.049538657
-0.06257863 0.22137807 -0.24203017 0.26052058 -0.28595737 0.42858 -0.11515579 -0.013697205
0.0666332 -0.25626597 0.008404575 0.3940057 0.11773293 -0.11672618 -0.22932053 0.080740795
0.019426601 0.11151163 0.054610543 0.14259627 -0.026233258 -0.14205477 -0.16574682 0.20315208
0.15171333 -0.11681678 -0.012557192 0.12584536 -0.0370923 0.2853373 -0.12283556 0.071897954
0.19442117 -0.060544334 0.17933278 0.1767503 -0.10310475 -0.30689847 0.10301053 0.058195323
-0.058555957 -0.09390343 -0.056876197 0.08938087 -0.031102411 0.260646 -0.2569516 0.091821745
-0.11009798 -0.02534727 -0.104692444 -0.06911084 -0.56281006 -0.082855694 0.042511262 -0.22788416
0.23938182 0.1495221 0.22413352 -0.09541939 -0.20116958 -0.13366874 0.10088502 -0.057593904
0.04222334 -0.0006069917 0.017121915 0.016623551 0.17529266 -0.058920324 -0.3539976 0.062075615
-0.1477925 -0.120772086 -0.06357599 -0.09593695 -0.23462638 0.08914975 0.0516322 -0.37871632
-0.210301 -0.14417389 0.21431819 -0.116672635 0.08025418 0.19235057 -0.2687626 -0.21030515
-0.10120912 0.111265086 0.1549276 -0.35736227 0.19299811 -0.067652255 0.24420395 -0.086034834
00000000: fd2e 62be b16c 36be f8f8 173c 2e43 d6bd
00000010: d9d9 8dbd 69cf 05bd bb3b 03be a279 9b3e
00000020: ae76 b03d 16f2 c3bd 3455 88b9 342b f7bd
00000030: cc5b 5f3d d3da 5f3d fd5a 963e c9f6 07be
00000040: 8b61 a63d 415e 113d f83f 33bd 48fb 843d
00000050: e2d7 e2bd f8db 603c d2e2 d83d f240 a6be
00000060: afb3 e33d 1c74 d7bd 76cf 92bd 799b 203d
00000070: 0c17 813d 2edd 963d b585 d7bc 8110 d1bd
00000080: e88c a23c f098 cd3d 18bf ecbd 7b85 d33c
00000090: 9fcb 333e 5cc4 66be 7d2b 393e a2c1 9ebd
000000a0: e56f 583e e609 213e ae52 8c3d f5ed 8cbe
000000b0: 4848 89be fd02 173e d2a8 fd3d 6da9 19be
000000c0: c4bb 213d 97d4 5b3b 6201 67be 8e67 ab3e
000000d0: 024e 0d3e 7873 68be 191f 2ebe 0da5 593e
000000e0: 485d 85bd 2617 5dbc a61a bfbd a775 3c3e
000000f0: 5535 9abe 8d5c 2ebe 1b22 c33d d7af 5fbe
00000100: f701 6fbe 4cb5 92bd f2ab bf3e b20d a0bd
00000110: d47a 20bc 186e 393d c6b4 63bd b4c6 49bd
00000120: 5631 16bd b037 b8bd 494e 363e 9ccd 603d
00000130: 98eb debd b0fd 32be 5132 1fbd 4b54 a93b
00000140: 0ffa 81bc 1df1 df3d d359 a8bb ee8b 21bd
00000150: a07b 0a3e cfa0 eb3e 6d6e 73bd 39eb a1bd
00000160: 7e24 5dbb 2e59 793e 6adf 0fbd 0734 91be
00000170: 41a6 6fbe f0db 52be 9439 1abe e51e c0bd
00000180: c781 c6bd cbfb 8cbd f06d 18be 1b91 583c
00000190: b385 f0bc dd90 d03d ca17 aebd 3dee 40be
000001a0: a22c 5cbe 9ca6 8ebd cb52 cfbd f6b1 823e
000001b0: 0160 93be 7e4f 5b3e fd8f ecbd c375 7dbe
000001c0: 6801 d9bd b9bb f6bd 6259 553e 8894 76be
000001d0: 62b0 2ebe b7b4 573d 5181 55bd 8a4b d6bd
000001e0: 7173 47bd 6fa8 e63d 7b04 8d3e 0981 99bd
000001f0: 4577 043d 5435 61be 9c06 d2bd ee94 1bbe
00000200: a622 4cbe d2b6 f3bd da34 253e e459 643c
00000210: 86f6 9fbd 12c2 51be 78d7 82be 7ce2 a1bc
00000220: e226 013e e6c9 1ebe 3bf0 0d3e e1ab 86be
00000230: 946a f9bd 2731 643e 665c 64bc b0e7 213e
00000240: 32be 72bc e051 e2be 251a f23b f5bb fabd
00000250: e3d0 77bc e33b 483e 9074 c03c e817 6cbe
00000260: 52ff 97bd 0b99 c0bd 6178 f73d f7bf 7b3e
00000270: dd0a 9a3d 65af 883e 3d05 103e 0ce9 4a3d
00000280: 3a29 80bd efb0 623e c2d6 77be f462 853e
00000290: 0169 92be d66e db3e ccd6 ebbd 3e6a 60bc
000002a0: fd76 883d 4b35 83be 58b3 093c 1dbb c93e
000002b0: f61d f13d 230e efbd 00d3 6abe 6e5b a53d
000002c0: 8924 9f3c 3660 e43d 4eaf 5f3d c204 123e
000002d0: 21e7 d6bc ce76 11be 89b9 29be 1907 503e
000002e0: bd5a 1b3e a33d efbd aebc 4dbc 9bdd 003e
000002f0: 18ee 17bd bb17 923e 3691 fbbd 3c3f 933d
00000300: 5816 473e 56fd 77bd 03a3 373e 08fe 343e
00000310: 9528 d3bd cc21 9dbe 2ff7 d23d 385e 6e3d
00000320: 5fd8 6fbd 7150 c0bd 04f7 68bd 510d b73d
00000330: 7cca febc 6473 853e 298f 83be 0a0d bc3d
00000340: 0d7b e1bd 14a5 cfbc fe68 d6bd fc89 8dbd
00000350: 5214 10bf 3fb0 a9bd 4a20 2e3d 775a 69be
00000360: 8220 753e 521c 193e 4283 653e 3e6b c3bd
00000370: 66ff 4dbe 75e0 08be ce9c ce3d 96e7 6bbd
00000380: 62f2 2c3d 861e 1fba 4243 8c3c 1d2e 883c
00000390: eb7f 333e 7056 71bd 2c3f b5be 0043 7e3d
000003a0: eb56 17be 5b57 f7bd 2134 82bd 977a c4bd
000003b0: e641 70be 2594 b63d 497c 533d 1be7 c1be
000003c0: 2559 57be 52a2 13be 3a76 5b3e 10f2 eebd
000003d0: 4e5c a43d 8cf7 443e 409b 89be 3c5a 57be
000003e0: ba46 cfbd f3de e33d 57a5 1e3e 30f8 b6be
000003f0: 4ca1 453e 448d 8abd 9a10 7a3e 0833 b0bd

critic.0.bias f4 [64]
-0.046957795 0.061483007 -0.020337675 -0.04567746 0.03553409 -0.026577212 0.07557891 -0.027006697
-0.09949224 0.15863118 0.0013310479 0.052903783 -0.0031155196 -0.093165055 0.011334027 -0.027245268
-0.040206533 0.04631772 -0.010317212 0.06879081 0.07373509 0.055802166 0.1161909 -0.032611646
0.039410774 0.047925968 -0.024242345 0.0012776356 0.016384112 -0.037471328 -0.0065162904 -0.0059532844
-0.08339316 0.10189332 -0.20623039 -0.0045979656 0.024622282 -0.06709264 0.07978495 -0.041794352
0.0665319 -0.025509058 0.027583981 -0.12525274 -0.13065642 0.12999214 0.08254385 0.06764367
0.12163858 -0.016917454 -0.058734257 0.038480747 0.20466177 0.147493 -0.02261042 0.04681996
0.06834258 -0.097018085 -0.06616705 0.10387404 -0.08274864 0.043385956 -0.054826364 0.12003124
00000000: d156 40bd 9bd5 7b3d 329b a6bc 4a18 3bbd
00000010: 328c 113d 74b8 d9bc 1ec9 9a3d 263d ddbc
00000020: 96c2 cbbd 3670 223e 8e76 ae3a a3b1 583d
00000030: bf2d 4cbb 52cd bebd 5bb2 393c 7831 dfbc
00000040: 9baf 24bd a6b7 3d3d 8609 29bc 32e2 8c3d
00000050: 6c02 973d d090 643d 7ff5 ed3d ca93 05bd
00000060: 316d 213d 054e 443d e297 c6bc 5676 a73a
00000070: f937 863c 897b 19bd 9b86 d5bb c513 c3bb
00000080: 08ca aabd 72ad d03d 0f2e 53be 88aa 96bb
00000090: abb4 c93c de67 89bd 4b66 a33d 8e30 2bbd
000000a0: e041 883d 5ff8 d0bc cdf7 e13c 4142 00be
000000b0: ccca 05be a91c 053e c00c a93d c488 8a3d
000000c0: a61d f93d 7996 8abc 5593 70bd fd9d 1d3d
000000d0: db92 513e 6808 173e 7d39 b9bc 49c6 3f3d
000000e0: 32f7 8b3d 6bb1 c6bd 9782 87bd eabb d43d
000000f0: 1e78 a9bd 79b5 313d 9c91 60bd f0d2 f53d

critic.2.weight f4 [64, 64]
-0.01486754 0.2551084 -0.019135093 -0.030163294 0.04066039 -0.048867397 -0.08090631 -0.22184075
-0.13444299 -0.29007438 0.22444905 0.00968028 0.024468997 -0.16430652 -0.24811278 -0.20121089
0.23226486 -0.14832029 -0.04304808 0.078464605 -0.18269081 0.26914102 0.19113289 0.032971125
0.16925852 0.3313249 -0.34114936 -0.30766767 -0.22839165 -0.20729259 0.0829855 -0.08029791
-0.13912381 0.15169725 -0.04729279 -0.29134825 0.25185546 0.07831149 -0.23376012 -0.45268643
-0.069427684 -0.091421425 -0.08903666 -0.07526667 -0.21176223 0.16516073 0.19502506 -0.03537233
0.022092024 -0.1175807 -0.06598105 0.021548532 0.046726927 -0.016959824 -0.0535905 0.16215535
-0.313022 0.00075242313 -0.26826993 0.116395265 -0.4357744 -0.020849291 0.2223804 0.17885433
0.075207286 -0.1475349 -0.08801857 -0.26404566 0.14145444 -0.14758848 -0.31246543 -0.007361764
-0.17593692 0.052325983 0.3059286 0.16500883 0.017943721 -0.038517572 -0.17473046 0.109603405
0.1631966 0.100503676 0.38574594 -0.30585882 0.15341592 0.2643681 0.2631465 -0.24028666
-0.37111273 0.054197583 0.1858461 -0.19662474 0.32545662 -0.13455588 -0.03423185 -0.07860319
-0.29225624 -0.31382212 0.1424487 -0.038764637 0.12750179 -0.06142544 -0.046798587 0.060119696
-0.27960646 0.15898144 0.24661241 0.22864245 0.014191541 -0.22935517 0.37994558 0.028801827
-0.21094461 0.07132423 0.005025104 0.12472351 -0.0123721715 -0.21077707 0.18071494 -0.035193477
-0.083696514 -0.052460257 0.1174654 0.1512854 0.3091201 -0.20838206 -0.22328226 0.011551424
0.24621642 0.018507266 -0.025953405 0.04047994 -0.16637518 -0.2894406 -0.031281237 -0.23477295
-0.08733695 -0.3054422 0.016202789 0.047073152 -0.10305486 0.035149984 -0.15209736 0.11065145
-0.17778075 0.30599353 0.063726775 -0.20119634 -0.08973793 -0.1000914 -0.33512497 0.44464755
-0.19482198 -0.07673767 -0.02690656 -0.094827905 -0.013516434 -0.104606666 0.1880652 0.19363576
0.11716774 -0.12841757 0.09401762 0.076645225 0.2794089 0.16960499 -0.17700052 0.34252197
0.098460674 0.2709397 0.31429213 -0.0013466581 0.10872711 -0.14346321 0.024532301 -0.34110117
-0.28972924 -0.0018251529 -0.24242063 0.0053273016 0.28102687 -0.22920819 -0.11248889 -0.12273073
-0.14260305 -0.03657539 -0.10094478 0.022652224 0.056542095 0.40076032 -0.05489936 -0.21319848
0.05957355 0.20596582 0.48297682 -0.1397353 0.19956344 0.023824694 0.21232022 0.30854535
-0.19816263 -0.05898683 -0.14118116 0.08187813 -0.14138909 -0.06344875 -0.09565302 0.19102484
-0.18034816 0.121822596 -0.0008277106 0.18929431 0.09804542 0.107851006 0.1355345 -0.052413408
-0.038646176 0.12913173 0.03960487 0.068015486 -0.2009288 0.16307409 -0.27790493 -0.014523766
0.17266724 -0.36228928 -0.17064835 -0.32967022 0.24174947 0.084802255 -0.03463983 0.2624332
0.0044192574 -0.39446872 -0.16584097 -0.113175385 0.05839856 0.15271634 0.07310758 -0.1578348
0.27436677 0.07534991 -0.06357332 0.28994152 -0.1538178 0.033186216 0.0036292553 0.12870283
-0.09581841 0.32127908 0.2673913 -0.011319155 0.16570495 0.08236789 -0.20129938 -0.08343461
00000000: fc96 73bc 919d 823e 33c1 9cbc 0319 f7bc
00000010: 828b 263d 2e29 48bd 35b2 a5bd 392a 63be
00000020: 6cab 09be a184 94be f9d5 653e 0a9a 1e3c
00000030: 3573 c83c f83f 28be 4711 7ebe 3a0a 4ebe
00000040: d7d6 6d3e 46e1 17be 2f53 30bd 0db2 a03d
00000050: 4d13 3bbe dacc 893e 57b8 433e bb0c 073d
00000060: 1b52 2d3e 6ba3 a93e 21ab aebe 9e86 9dbe
00000070: 80df 69be 8244 54be 4df4 a93d 3b73 a4bd
00000080: 7976 0ebe 8656 1b3e 16b6 41bd 992b 95be
00000090: 33f3 803e c661 a03d d05e 6fbe 84c6 e7be
000000a0: 1a30 8ebd 283b bbbd da58 b6bd 6925 9abd
000000b0: 33d8 58be e51f 293e a6b4 473e 94e2 10bd
000000c0: 55fa b43c 26ce f0bd 1321 87bd 8c86 b03c
000000d0: bc64 3f3d 54ef 8abc b681 5bbd 0d0c 263e
000000e0: 6b44 a0be 433e 453a ad5a 89be a460 ee3d
000000f0: d21d dfbe 22cc aabc b0b7 633e 9725 373e
00000100: 4706 9a3d 6413 17be 1443 b4bd fe30 87be
00000110: 6fd9 103e 6f21 17be 78fb 9fbe f43a f1bb
00000120: cf28 34be c553 563d aca2 9c3e 13f8 283e
00000130: b6fe 923c 9ac4 1dbd 8bec 32be c077 e03d
00000140: 021d 273e dfd4 cd3d 7e80 c53e 8799 9cbe
00000150: 1019 1d3e 415b 873e 23bb 863e b50d 76be
00000160: 7d02 bebe 49fe 5d3d 714e 3e3e ff57 49be
00000170: 40a2 a63e 04c9 09be b236 0cbd b6fa a0bd
00000180: 9ca2 95be 4bad a0be 12de 113e abc7 1ebd
00000190: d48f 023e 3e99 7bbd e0af 3fbd 1240 763d
000001a0: 9428 8fbe 08cc 223e f787 7c3e 3f21 6a3e
000001b0: a383 683c 15dc 6abe 3a88 c23e cff1 eb3c
000001c0: dd01 58be 7012 923d a1a9 a43b 0a6f ff3d
000001d0: a6b4 4abc f2d5 57be 560d 393e 0927 10bd
000001e0: 1469 abbd 91e0 56bd b391 f03d 8fea 1a3e
000001f0: fd44 9e3e 1b62 55be 1ba4 64be 2f42 3d3c
00000200: 2820 7c3e 8d9c 973c 3c9c d4bc 4bce 253d
00000210: 415e 2abe 8f31 94be c120 00bd 5268 70be
00000220: b7dd b2bd ec62 9cbe b6bb 843c c7cf 403d
00000230: 6d0e d3bd 6ef9 0f3d 69bf 1bbe 3a9d e23d
00000240: 280c 36be 2fab 9c3e 2f83 823d 6a06 4ebe
00000250: 85c8 b7bd b8fc ccbd 8095 abbe d8a8 e33e
00000260: 6a7f 47be a428 9dbd 256b dcbc 2235 c2bd
00000270: 0874 5dbc 053c d6bd 2a94 403e 7448 463e
00000280: a4f5 ef3d e57f 03be 4f8c c03d 2cf8 9c3d
00000290: af0e 8f3e eeac 2d3e a03f 35be 0a5f af3e
000002a0: c0a5 c93d 9cb8 8a3e e6ea a03e 5982 b0ba
000002b0: 52ac de3d 05e8 12be f7f7 c83c d0a4 aebe
000002c0: 6457 94be f839 efba 1d3d 78be a590 ae3b
000002d0: c1e2 8f3e 8db5 6abe 9360 e6bd 405a fbbd
000002e0: 8906 12be 13d0 15bd 23bc cebd 2891 b93c
000002f0: af98 673d 7530 cd3e 27de 60bd b450 5abe
00000300: 6503 743d b4e8 523e bd48 f73e c516 0fbe
00000310: 5c5a 4c3e 012c c33c 796a 593e a8f9 9d3e
00000320: 25eb 4abe 2d9c 71bd cb91 10be b9af a73d
00000330: 4dc8 10be 6bf1 81bd bbe5 c3bd 049c 433e
00000340: 30ad 38be 207e f93d b8fa 58ba 5ed6 413e
00000350: 0acc c83d fde0 dc3d 8ec9 0a3e 71af 56bd
00000360: 744b 1ebd 1c3b 043e b738 223d b44b 8b3d
00000370: 48c0 4dbe e5fc 263e 8e49 8ebe 17f5 6dbc
00000380: aecf 303e fb7d b9be 71be 2ebe 89ca a8be
00000390: 2c8d 773e ceac ad3d 7fe2 0dbd a55d 863e
000003a0: 6bcf 903b cef7 c9be 37d2 29be 7fc8 e7bd
000003b0: 5433 6f3d ac61 1c3e 6db9 953d 729f 21be
000003c0: cd79 8c3e 0e51 9a3d bb32 82bd 3773 943e
000003d0: 6a82 1dbe 45ee 073d cdd8 6d3b adca 033e
000003e0: 713c c4bd b17e a43e 83e7 883e fa73 39bc
000003f0: 8fae 293e 7fb0 a83d 6d21 4ebe c4df aabd

critic.2.bias f4 [64]
0.050281882 0.030546874 0.0155695025 0.053473968 0.034908157 -0.054910973 0.038178824 0.010906965
-0.0076242853 -0.059163474 0.0714 0.01359479 0.09115325 -0.048322536 -0.013900896 0.027847642
0.0098455595 -0.08855042 0.02811131 -0.054963786 -0.073233604 0.09410432 -0.0012832546 0.079455964
0.077815786 0.07425321 -0.08351306 0.03679241 -0.03680506 -0.012465436 -0.052170444 -0.05600302
0.019430917 -0.07568431 0.058717277 0.13284226 0.023772363 0.017985838 0.0132254595 0.053130742
0.098678075 -0.111837104 -0.017627833 0.023155408 0.016538624 0.08181841 0.007741015 0.09764348
0.111738525 -0.0486765 0.013173342 0.05090039 0.036084797 0.01030753 -0.024878962 0.026925758
0.06749015 -0.038638763 -0.11485795 -0.032800805 0.08307376 0.03349758 -0.032221127 0.020876732
00000000: 60f4 4d3d 703d fa3c 3a17 7f3c 8507 5b3d
00000010: dbfb 0e3d 54ea 60bd 6661 1c3d 20b3 323c
00000020: 24d5 f9bb 6655 72bd 2a3a 923d afbc 5e3c
00000030: 8eae ba3d daed 45bd 95c0 63bc bd20 e43c
00000040: 454f 213c ec59 b5bd b149 e63c b521 61bd
00000050: 80fb 95bd c4b9 c03d e132 a8ba cfb9 a23d
00000060: e25d 9f3d 1112 983d e508 abbd a3b3 163d
00000070: e7c0 16bd d43b 4cbc adb0 55bd 6c63 65bd
00000080: 962d 9f3c 6000 9bbd 8781 703d cd07 083e
00000090: 42be c23c 0957 933c 99af 583c 9f9f 593d
000000a0: bb17 ca3d da0a e5bd 3f68 90bc 69b0 bd3c
000000b0: 027c 873c 6990 a73d 57a8 fd3b 4ef9 c73d
000000c0: 2bd7 e43d 0261 47bd 00d5 573c ed7c 503d
000000d0: a7cd 133d eae0 283c f7ce cbbc 6893 dc3c
000000e0: 4738 8a3d ae43 1ebd a53a ebbd 235a 06bd
000000f0: 9322 aa3d c234 093d 4dfa 03bd ae05 ab3c

critic.4.weight f4 [1, 64]
-0.03302341 -0.0963939 -0.13244995 -0.14035 -0.052604493 0.059534345 -0.08907391 -0.065048195
-0.23130241 0.10087589 -0.13273042 0.34501204 -0.12528668 0.06701266 -0.12101196 -0.12564169
-0.07770639 0.27843142 -0.11406955 0.041584793 0.101358615 -0.14907232 -0.23520945 -0.14425161
-0.25510132 -0.18069583 0.25307214 -0.02170344 0.1357119 -0.11069696 0.05110598 0.16979516
-0.2601909 0.20330492 -0.07337043 -0.13974813 -0.024501586 -0.051899537 -0.10485592 -0.076415055
-0.21460398 0.098906375 0.08757567 -0.15170275 -0.12004691 -0.1702715 0.26261777 -0.14581956
-0.09442188 0.18593676 -0.15890764 -0.073361106 -0.15211982 -0.12311293 0.20192055 -0.28040594
-0.06662314 0.116765715 0.08882049 0.113259815 -0.12822676 -0.1432381 0.12382382 -0.14551906
00000000: 8e43 07bd 2a6a c5bd f6a0 07be e9b7 0fbe
00000010: cf77 57bd 49da 733d 626c b6bd fd37 85bd
00000020: 8ada 6cbe 0598 ce3d 7cea 07be 6ba5 b03e
00000030: 274b 00be ef3d 893d 1ed5 f7bd 37a8 00be
00000040: 8724 9fbd 908e 8e3e 4c9d e9bd d154 2a3d
00000050: 1b95 cf3d 6aa6 18be bfda 70be b2b6 13be
00000060: a49c 82be 5408 39be ac92 813e 6acb b1bc
00000070: 0ff8 0a3e 16b5 e2bd 8154 513d c8de 2d3e
00000080: be37 85be 2a2f 503e 3c43 96bd 221a 0fbe
00000090: 8db7 c8bc 9c94 54bd b3be d6bd 7f7f 9cbd
000000a0: 25c1 5bbe 6d8f ca3d df5a b33d f757 1bbe
000000b0: 28db f5bd a75b 2ebe d675 863e b951 15be
000000c0: 4260 c1bd 3566 3e3e afb8 22be 593e 96bd
000000d0: 4cc5 1bbe a222 fcbd 43c4 4e3e 5e91 8fbe
000000e0: b671 88bd dd22 ef3d 84e7 b53d c3f4 e73d
000000f0: e04d 03be 02ad 12be 5897 fd3d f302 15be

actor_mean.0.weight f4 [64, 36]
0.06290178 -0.021570018 0.14761482 0.20847203 0.07381932 0.022434872 -0.25998402 -0.058565143
0.27513126 0.106695145 -0.16749625 -0.003622115 -0.29823205 0.23119293 0.012266019 -0.14065725
0.060012482 -0.12313279 0.21569802 -0.14065376 0.10995368 0.16105641 -0.055888057 -0.13429217
0.19137388 0.2555709 0.1530255 0.5007 -0.1309562 0.28039965 0.1511943 0.49143994
-0.41151834 -0.1604728 0.011046756 -0.10589475 0.16467665 0.4424361 -0.54521054 -0.11431435
-0.02890405 0.23746462 -0.31991446 -0.054790027 0.09086571 -0.0850506 -0.16555957 0.030062182
0.04025913 0.14140609 0.23249649 0.23371382 0.047057338 0.25013563 0.05882416 0.29312968
-0.0007374026 0.2441311 0.07517397 -0.08692107 -0.33085096 0.2188542 -0.13115515 -0.1870557
0.10292369 -0.09566191 0.026237532 0.1018927 0.10918989 0.065422475 0.10415152 0.034520883
0.11732544 0.07798899 0.02443957 0.10072139 0.06831126 0.23480824 -0.087006725 0.21466082
-0.003448385 0.10525517 -0.09074216 -0.14290544 -0.22787288 0.18419036 -0.16194424 -0.3166197
0.10477395 0.050777357 0.13521403 -0.15893212 -0.0119043775 0.09291451 -0.020742556 -0.33663356
0.28873315 -0.22378166 0.47622117 -0.036680445 -0.04983338 -0.13885501 -0.25100678 -0.032337103
0.13398835 0.3518089 0.058228806 0.05933624 0.0063657816 -0.19599293 -0.13346234 0.0051424466
0.12360348 -0.0022477019 0.09306866 -0.39017302 -0.01756961 -0.044204745 0.28212842 0.22585522
-0.4485122 0.079200014 0.12828965 -0.022420587 -0.2518555 0.119702086 -0.1925771 0.4538207
0.03540038 0.088660166 -0.12670434 0.0001363747 0.3205954 -0.43032187 -0.122378424 0.14747277
0.06731287 -0.14720324 -0.10212131 -0.21190085 0.21304844 -0.16676445 -0.36982208 0.047754712
0.066498086 -0.08253432 0.026803592 -0.10209763 -0.13369375 -0.068234995 -0.049898513 -0.40864784
0.12634566 -0.05862546 -0.14313975 0.05670772 0.039753947 0.11156856 0.24364407 -0.23118289
-0.18583739 -0.28687915 -0.019983344 0.42211005 0.2782463 0.14602405 0.12643099 0.09148943
-0.016006881 0.16948347 -0.025134364 -0.05915069 -0.023307757 0.031286158 0.047333285 -0.43825933
-0.09551561 -0.021334244 0.0017803874 -0.0047374703 0.000109712295 0.06298214 -0.32120338 -0.17400967
0.08035235 -0.17191236 0.16362628 -0.17914525 0.05224369 0.42343667 0.12545596 0.13892247
-0.10885667 -0.1858265 0.3349388 0.019168902 -0.28836054 -0.12658581 -0.054769818 0.040159684
0.05116349 -0.18687113 0.049904298 -0.17134964 -0.38413134 0.27756935 0.23425502 -0.20034459
0.18860821 0.014428899 0.015620728 -0.54718155 -0.13720432 -0.13166098 -0.023306862 -0.015910825
0.23959783 -0.19028759 0.3354638 0.11031015 0.18005106 -0.16466977 -0.49751753 -0.19031467
-0.37571824 -0.0066973204 -0.039427884 0.24783562 0.17366238 0.033214755 0.17151974 -0.17370352
0.074283265 0.19227976 -0.006028286 -0.17529313 0.46604052 -0.0764655 -0.26999214 -0.12863138
-0.1748319 0.01260132 0.14488478 0.09745907 0.18002477 -0.091719195 -0.20832448 -0.045723822
-0.08144127 0.047008883 0.15620641 -0.20819294 0.20553902 0.18287344 0.14336042 -0.013785741
00000000: a6d2 803d 9bb3 b0bc 5728 173e b179 553e
00000010: 952e 973d 56c9 b73c a01c 85be 01e2 6fbd
00000020: 01de 8c3e fc82 da3d 2384 2bbe 0161 6dbb
00000030: dfb1 98be d7bd 6c3e 6af7 483c 7408 10be
00000040: a6cf 753d 0b2d fcbd f1df 5c3e 8a07 10be
00000050: 652f e13d f9eb 243e e0ea 64bd e383 09be
00000060: 84f7 433e 30da 823e b7b2 1c3e e02d 003f
00000070: 6219 06be 8b90 8f3e aed2 1a3e 049e fb3e
00000080: 88b2 d2be fb52 24be 74fd 343c 59df d8bd
00000090: ffa0 283e fc86 e23e eb92 0bbf a41d eabd
000000a0: 30c8 ecbc ed29 733e d4cb a3be 826b 60bd
000000b0: cd17 ba3d 022f aebd 7388 29be f744 f63c
000000c0: c2e6 243d c2cc 103e 8f13 6e3e ad52 6f3e
000000d0: 32bf 403d c711 803e 9af1 703d 1815 963e
000000e0: 404e 41ba 81fd 793e cff4 993d ad03 b2bd
000000f0: 4c65 a9be 511b 603e 894d 06be 888b 3fbe
00000100: a8c9 d23d 64ea c3bd 18f0 d63c 1fad d03d
00000110: f39e df3d 38fc 853d 644d d53d c565 0d3d
00000120: 5248 f03d b1b8 9f3d 7e35 c83c 0447 ce3d
00000130: c6e6 8b3d 9271 703e 9530 b2bd 0cd0 5b3e
00000140: 4dfe 61bb 0690 d73d 07d7 b9bd ce55 12be
00000150: 8257 69be 669c 3c3e b6d4 25be fa1b a2be
00000160: ba93 d63d ebfb 4f3d 8c75 0a3e 1abf 22be
00000170: 940a 43bc f649 be3d 4bec a9bc 3c5b acbe
00000180: d5d4 933e 0527 65be 43d3 f33e 3c3e 16bd
00000190: 161e 4cbd 0230 0ebe f683 80be e973 04bd
000001a0: 3e34 093e 4c20 b43e 5481 6e3d 8f0a 733d
000001b0: 0c98 d03b 5fb2 48be 5aaa 08be f881 a83b
000001c0: d223 fd3d 2e4e 13bb c89a be3d c2c4 c7be
000001d0: 25ee 8fbc 0910 35bd 2373 903e 9746 673e
000001e0: 64a3 e5be 9e33 a23d 5d5e 033e 61ab b7bc
000001f0: 34f3 80be 5e26 f53d ee32 45be 305b e83e
00000200: fdff 103d 7693 b53d c8be 01be ceff 0e39
00000210: 1525 a43e 2653 dcbe 8aa1 fabd 1a03 173e
00000220: 54db 893d 72bc 16be fa24 d1bd 89fc 58be
00000230: 5f29 5a3e 4dc4 2abe 5259 bdbe 729a 433d
00000240: 2630 883d c107 a9bd 3593 db3c 9018 d1bd
00000250: 04e7 08be cabe 8bbd 6262 4cbd 4a3a d1be
00000260: c260 013e 4021 70bd 3a93 12be 5b46 683d
00000270: 09d5 223d 0f7e e43d d57d 793e 35bb 6cbe
00000280: 284c 3ebe d3e1 92be 1cb4 a3bc cf1e d83e
00000290: 4d76 8e3e 5487 153e 2077 013e cf5e bb3d
000002a0: dd20 83bc 138d 2d3e 95e6 cdbc fe47 72bd
000002b0: e9ef bebc ea25 003d 8ce0 413d 8763 e0be
000002c0: b09d c3bd 27c5 aebc e35b e93a c83c 9bbb
000002d0: 5715 e638 c8fc 803d c574 a4be 972f 32be
000002e0: c68f a43d cb09 30be a68d 273e da71 37be
000002f0: 7bfd 553d b1cc d83e 8777 003e b141 0e3e
00000300: 3ff0 debd 4d49 3ebe 197d ab3e 1a08 9d3c
00000310: fea3 93be b69f 01be 5156 60bd 7b7e 243d
00000320: cf90 513d 255b 3fbe 7368 4c3d 4876 2fbe
00000330: ddac c4be 921d 8e3e 8ce0 6f3e 2227 4dbe
00000340: 8322 413e 3067 6c3c 15ee 7f3c 1714 0cbf
00000350: 4a7f 0cbe 23d2 06be 08ee bebc 6b57 82bc
00000360: 2259 753e c0da 42be e9c1 ab3e 4aea e13d
00000370: 4e5f 383e 319f 28be 9eba febe d9e1 42be
00000380: 245e c0be 3275 dbbb 227f 21bd 9fc8 7d3e
00000390: 8dd4 313e 320c 083d dfa2 2f3e 56df 31be
000003a0: d321 983d fce4 443e ee88 c5bb 0b80 33be
000003b0: dd9c ee3e f299 9cbd 693c 8abe f2b7 03be
000003c0: 2207 33be c475 4e3c ad5c 143e 9f98 c73d
000003d0: 6a58 383e 46d7 bbbd 0353 55be e748 3bbd
000003e0: aeca a6bd 638c 403d 93f4 1f3e 8830 55be
000003f0: d278 523e 2d43 3b3e 13cd 123e 97dd 61bc

actor_mean.0.bias f4 [64]
0.0020739993 0.0031141234 -0.030345565 -0.099896014 -0.027191633 -0.058633834 -0.011034896 -0.08806818
0.00093130243 -0.0033127596 0.0012138181 -0.024937375 -0.11014032 -0.00711779 -0.06357464 0.050823923
-0.024611888 0.026356326 -0.022836674 0.029040826 -0.06252677 0.007468914 0.0076962695 0.0009947551
0.0040487605 0.017659917 0.040271915 0.027275445 0.011030074 0.042204645 0.029802416 -0.0676835
-0.034660116 -0.083448604 -0.019735415 -0.014468525 -0.010268482 0.006099578 0.019802205 0.08306337
-0.032375548 0.012668875 0.013440794 -0.08612359 0.06673451 -0.034494206 -0.0006353945 -0.019573728
-0.023528963 -0.09094617 -0.039495245 0.022502152 0.08615413 0.029087156 -0.028125102 0.019730933
0.039948966 -0.114696704 0.019865273 0.03520815 -0.044693917 -0.045197178 -0.028572936 0.03876813
00000000: efeb 073b 5216 4c3b 4397 f8bc 4896 ccbd
00000010: fdc0 debc 082a 70bd b5cb 34bc 175d b4bd
00000020: a622 743a e21a 59bb fa18 9f3a 7749 ccbc
00000030: 4091 e1bd 5a3c e9bb 6c33 82bd bf2c 503d
00000040: df9e c9bc 39e9 d73c fa13 bbbc 07e7 ed3c
00000050: 090e 80bd cbbd f43b fd30 fc3b 7162 823a
00000060: 77ab 843b 88ab 903c 2af4 243d c170 df3c
00000070: 7cb7 343c c7de 2c3d 3224 f43c a69d 8abd
00000080: c4f7 0dbd 1ae7 aabd 2aac a1bc 640d 6dbc
00000090: 233d 28bc f8de c73b 3c38 a23c 211d aa3d
000000a0: 399c 04bd 1d91 4f3c c736 5c3c 9161 b0bd
000000b0: 1aac 883d cc49 0dbd 9a90 26ba 1559 a0bc
000000c0: d0bf c0bc fc41 babd c4c5 21bd 6f56 b83c
000000d0: 9471 b03d 3048 ee3c 9d66 e6bc c4a2 a13c
000000e0: 87a1 233d 1be6 eabd 7fbc a23c 6c36 103d
000000f0: f810 37bd ad20 39bd ca11 eabc 55cb 1e3d

actor_mean.2.weight f4 [64, 64]
0.2520853 -0.40502203 -0.19090465 0.15048945 0.117243476 -0.20059595 -0.3219159 -0.24991669
-0.08458 0.14737338 -0.33862427 -0.069795415 -0.09608372 -0.056973275 0.050569773 -0.28607324
-0.1524887 0.18751836 0.06528923 0.032894578 0.11188778 -0.34019116 -0.26801947 -0.017484669
-0.24994898 0.20070896 0.1205139 -0.11071633 0.021307837 -0.08855981 0.09153181 0.19579528
-0.09036956 -0.48498172 0.059716146 0.031182367 -0.12835906 -0.14798652 -0.14024584 0.35579523
-0.2326939 -0.08308259 0.067793265 0.079111055 0.22035249 -0.021069434 0.15191649 0.0136913285
0.17521669 -0.014777951 0.34329286 0.002892673 0.0531921 0.10480989 0.015725398 0.22084038
0.20507032 0.0659723 0.05704582 0.12606728 -0.38440993 -0.11664519 -0.18508099 -0.14809512
0.00824424 -0.11791938 0.20571919 0.11951507 0.3268923 -0.3445589 0.02958007 0.12315769
0.16506077 0.0925607 -0.016808791 0.06483498 -0.018529942 -0.1258166 0.010880528 -0.27414328
-0.34515983 -0.02332478 -0.16629577 0.18660758 0.104829445 0.25172907 0.22044025 0.2766262
0.033314403 -0.046149034 0.12970707 0.17985056 -0.34370738 -0.12938869 -0.10753419 0.009358348
-0.2436581 0.03082505 -0.25941724 -0.039080154 -0.4082333 0.025449011 -0.02686691 -0.08878866
-0.15454802 -0.12716241 -0.2127665 -0.16078171 0.27035412 -0.35014015 0.11714614 0.036175184
-0.051262625 -0.054664217 0.12162322 0.006399675 -0.2779647 -0.11630846 0.06301917 -0.09460144
-0.13922147 -0.19973585 0.12880148 0.24627131 0.15495965 0.08934628 -0.0923165 0.28802457
0.0153399445 0.09749533 0.086812176 -0.11649353 -0.08188153 -0.2274986 -0.48682198 0.032860424
-0.0540489 -0.0055368086 -0.041546013 0.053933203 0.31292862 0.12517054 -0.06330863 0.093943745
-0.20933361 0.15965074 0.1415051 -0.05597039 0.113251686 0.52154315 -0.036633898 -0.1912688
0.24693294 -0.085073285 0.36191842 0.29250795 0.035804614 -0.007898251 0.100640446 0.029706711
0.3328158 -0.13050285 0.050445203 -0.088519484 0.030010091 0.07256504 -0.096133344 -0.08130608
-0.18757136 -0.029504608 0.2524136 -0.011309324 -0.21644439 0.19438861 -0.1697017 -0.17463976
0.1835194 0.19695465 0.45977697 0.2685584 0.0014394078 -0.23482862 0.12960644 -0.070885286
0.26581421 -0.034220662 0.06932043 -0.08332926 -0.105640754 0.1286282 -0.09364372 0.21297096
0.07755731 0.27157798 0.16254771 -0.012916577 -0.3383505 -0.077748194 0.22015998 -0.4109296
-0.14539394 0.20934731 -0.18676606 -0.34266222 -0.058287766 -0.1813394 0.17646492 0.15656403
-0.21688788 0.17352518 0.032875493 0.11551772 -0.23764853 -0.009894478 0.095019214 -0.20782751
0.32114926 -0.10869301 -0.046925854 -0.0074391766 0.15871425 0.19074279 0.2220139 -0.35083336
-0.044857614 0.100636 0.06164329 0.13884057 0.013187234 0.2453939 0.13403973 0.108452015
-0.019261332 0.17713486 0.13856818 0.17247142 0.30543882 -0.300922 -0.03459447 0.15225288
-0.025715152 -0.07049324 0.037666414 0.32650164 0.24067311 -0.12849191 -0.066776946 0.18692051
-0.06473765 -0.04846199 0.25763693 0.2852798 -0.08982513 0.13416499 -0.18767154 0.08169394
00000000: 5311 813e 0c5f cfbe 827c 43be e819 1a3e
00000010: 591d f03d 0669 4dbe 29d2 a4be 29ea 7fbe
00000020: 4738 adbd 0ce9 163e 2960 adbe e6f0 8ebd
00000030: 8bc7 c4bd cf5c 69bd 4022 4f3d 3178 92be
00000040: ff25 1cbe d004 403e 5cb6 853d 77bc 063d
00000050: 6c25 e53d 892d aebe d939 89be 023c 8fbc
00000060: a0f2 7fbe a686 4d3e fecf f63d 3ebf e2bd
00000070: c68d ae3c d85e b5bd 0875 bb3d 8f7e 483e
00000080: ad13 b9bd 864f f8be eb98 743d 2a72 ff3c
00000090: 8f70 03be c789 17be 9b9c 0fbe cb2a b63e
000000a0: 4f47 6ebe 3427 aabd 32d7 8a3d fa04 a23d
000000b0: 15a4 613e ce99 acbc ff8f 1b3e 9851 603c
000000c0: 016c 333e 381f 72bc 15c4 af3e 0093 3d3b
000000d0: f6df 593d 91a6 d63d 8dd2 803c fb23 623e
000000e0: f4fd 513e 7c1c 873d e1a8 693d c817 013e
000000f0: 61d1 c4be ace3 eebd df85 3dbe 3fa6 17be
00000100: d912 073c b77f f1bd 0da8 523e 51c4 f43d
00000110: 6d5e a73e 066a b0be e751 f23c 193a fc3d
00000120: b105 293e 7790 bd3d 97b2 89bc 34c8 843d
00000130: 1bcc 97bc 11d6 00be 3e44 323c 825c 8cbe
00000140: cab8 b0be 9c13 bfbc 7049 2abe 0f16 3f3e
00000150: d2b0 d63d a2e2 803e 17bb 613e f3a1 8d3e
00000160: af74 083d c506 3dbd eed1 043e bf2a 383e
00000170: 6afa afbe 787e 04be e33a dcbd c253 193c
00000180: 8281 79be d184 fc3c 56d2 84be 8312 20bd
00000190: f503 d1be 727a d03c fe17 dcbc d4d6 b5bd
000001a0: d641 1ebe dd36 02be 76df 59be f6a3 24be
000001b0: db6b 8a3e 9245 b3be 51ea ef3d 6e2c 143d
000001c0: c2f8 51bd 96e7 5fbd 9815 f93d 5db4 d13b
000001d0: 6451 8ebe 2133 eebd 3210 813d 66be c1bd
000001e0: 1390 0ebe 8e87 4cbe 89e4 033e 8c2e 7c3e
000001f0: bead 1e3e 2ffb b63d 6f10 bdbd f577 933e
00000200: 6454 7b3c a2ab c73d 95ca b13d 2994 eebd
00000210: 81b1 a7bd 65f5 68be bb40 f9be a798 063d
00000220: 6162 5dbd 1e6e b5bb 272c 2abd 10e9 5c3d
00000230: 2e38 a03e b52c 003e f4a7 81bd 9465 c03d
00000240: 8d5b 56be 7c7b 233e b7e6 103e 3541 65bd
00000250: 80f0 e73d da83 053f 6d0d 16bd f8db 43be
00000260: fddb 7c3e e73a aebd 5f4d b93e 9ac3 953e
00000270: dca7 123d aa67 01bc 941c ce3d 7d5b f33c
00000280: d566 aa3e 8aa2 05be a19f 4e3d b449 b5bd
00000290: b9d7 f53c fb9c 943d 8fe1 c4bd cd83 a6bd
000002a0: b512 40be a6b3 f1bc 5b3c 813e be4a 39bc
000002b0: 99a3 5dbe cf0d 473e 48c6 2dbe c4d4 32be
000002c0: 82ec 3b3e 7bae 493e e367 eb3e 7d80 893e
000002d0: 83aa bc3a ea76 70be 8db7 043e 4e2c 91bd
000002e0: cd18 883e f72a 0cbd dff7 8d3d 88a8 aabd
000002f0: 2e5a d8bd 1cb7 033e 47c8 bfbd 0f15 5a3e
00000300: 5ed6 9e3d 450c 8b3e e872 263e 0da0 53bc
00000310: 473c adbe 723a 9fbd 9e71 613e 5d65 d2be
00000320: 26e2 14be 245f 563e 9a3f 3fbe 6c71 afbe
00000330: 27bf 6ebd 09b1 39be 38b3 343e 5252 203e
00000340: db17 5ebe 96b0 313e 74a8 063d 8e94 ec3d
00000350: 235a 73be 731c 22bc 6f99 c23d bcd0 54be
00000360: ad6d a43e 719a debd 5335 40bd 56c4 f3bb
00000370: fd85 223e 1452 433e 9d57 633e 6ea0 b3be
00000380: 9ebc 37bd 3f1a ce3d ad7d 7c3d 392c 0e3e
00000390: 450f 583c 8a48 7b3e b641 093e 171c de3d
000003a0: f1c9 9dbc d762 353e d1e4 0d3e 599c 303e
000003b0: 7a62 9c3e 7312 9abe eeb2 0dbd 2ee8 1b3e
000003c0: 95a8 d2bc c35e 90bd 1948 1a3d 392b a73e
000003d0: 0373 763e 6293 03be 5ac2 88bd 1768 3f3e
000003e0: 2c95 84bd 1480 46bd fde8 833e 3210 923e
000003f0: 3df6 b7bd 8c62 093e f82c 40be 274f a73d

actor_mean.2.bias f4 [64]
0.035651222 0.012180413 0.022461606 0.036472794 0.056468453 0.026106142 0.04797438 -0.022514299
0.02122877 -0.015734786 0.028176975 -0.019065257 -0.053150006 -0.00083626976 -0.002898621 -0.041556805
-0.016709978 -0.060841445 0.01764438 0.0039198007 0.04190429 -0.036871646 -0.061820887 0.055521905
0.0046661133 -0.002407391 -0.015417657 0.018380433 -0.038674608 -0.006417196 -0.057202496 -0.04565106
-0.029198378 0.07135935 0.06363977 0.043787166 -0.070434086 -0.02203447 0.040381253 0.025210671
0.027747395 0.01466438 -0.01499892 0.008848309 -0.036357217 0.013719497 0.074846916 -0.02755731
-0.083524115 -0.036776595 0.0041890307 -0.042373136 0.020769734 0.023896186 0.067646295 -0.02682015
-0.012050315 -0.023777142 -0.03321398 0.0021995076 -0.024791831 0.07241459 0.057155304 -0.014982468
00000000: 0407 123d 5b90 473c 6701 b83c 7f64 153d
00000010: 774b 673d 8cdc d53c c980 443d e86f b8bc
00000020: f5e7 ad3c 3de6 80bc 66d3 e63c be2e 9cbc
00000030: d2b3 59bd 1d39 5bba caf6 3dbb 7837 2abd
00000040: 5de3 88bc e134 79bd f28a 903c ac71 803b
00000050: d5a3 2b3d b906 17bd e637 7dbd f06a 633d
00000060: 32e6 983b 52c5 1dbb 579a 7cbc 9092 963c
00000070: 4469 1ebd 5747 d2bb 2a4d 6abd 9bfc 3abd
00000080: 7031 efbc da24 923d 9155 823d 2c5a 333d
00000090: bf3f 90bd a281 b4bc d066 253d 9c86 ce3c
000000a0: 814e e33c de42 703c 08be 75bc 7ff8 103c
000000b0: 4eeb 14bd bec7 603c 5749 993d debf e1bc
000000c0: b10e abbd 0ea3 16bd 2344 893b 748f 2dbd
000000d0: 4a25 aa3c efc1 c33c 248a 8a3d eeb5 dbbc
000000e0: af6e 45bc 48c8 c2bc 620b 08bd 9d25 103b
000000f0: 3d18 cbbc 1a4e 943d ae1b 6a3d 0779 75bc

actor_mean.4.weight f4 [2, 64]
-0.05548922 -0.012703641 -0.06120804 -0.005327577 0.17559005 -0.14465219 0.04709998 0.01799096
0.04317723 -0.0582894 -0.08093949 0.03166011 -0.12889582 0.033252638 -0.004391787 -0.005222179
-0.010979941 0.03152084 -0.0886584 0.024773538 0.026818462 0.03239862 -0.0764582 0.1268058
-0.07595435 -0.05337053 0.12993583 -0.024458151 0.018479288 0.050008975 -0.036177877 -0.10990219
0.045606434 -0.01633164 0.027216677 -0.02000088 0.084309675 0.019501489 -0.054606326 0.021714425
-0.025467133 0.090825394 -0.007075394 0.017512212 0.0662446 0.060988605 0.053952 0.026129726
0.012077285 0.0335407 0.05056431 0.013656783 -0.0026392555 -0.018904723 0.11829029 0.04134185
-0.0074508684 0.040145017 0.01938729 -0.033772737 0.016254378 -0.030707216 0.042189427 -0.031239742
-0.006371479 -0.044395223 -0.047052618 0.032239553 0.030178925 -0.09771339 0.06801254 -0.076537274
-0.03514575 -0.029702445 -0.06985484 0.029354306 0.1304813 0.07881509 -0.050534964 0.06859682
-0.12048469 0.039025933 -0.019967183 -0.011305368 -0.049401335 -0.031088362 0.072313696 -0.019019691
-0.020917991 -0.104792625 -0.014059097 -0.010715885 0.061966464 0.016202277 0.09389644 0.05848663
-0.047898732 0.088411994 -0.009771146 0.13775438 0.020588048 0.10681151 0.03679734 -0.022865115
-0.029006427 0.033534333 0.037047494 0.0035551244 -0.033388413 0.08076769 0.079288274 0.045405265
0.013626612 0.03290726 0.027524285 0.05118586 -0.011459784 0.03377107 -0.032589935 0.016215125
-0.019492358 0.020439126 0.019175412 0.11222537 -0.110118076 -0.016760984 0.0157216 -0.010886613
00000000: aa48 63bd ef22 50bc 48b5 7abd f492 aebb
00000010: e1cd 333e b41f 14be e9eb 403d c761 933c
00000020: 9bda 303d dec0 6ebd 9ac3 a5bd 08ae 013d
00000030: 44fd 03be eb33 083d fbe8 8fbb d01e abbb
00000040: 36e5 33bc ff1b 013d 8992 b5bd e0f1 ca3c
00000050: 64b2 db3c 6ab4 043d 1e96 9cbd 61d9 013e
00000060: f48d 9bbd 0f9b 5abd e60d 053e 765c c8bc
00000070: e061 973c 36d6 4c3d 412f 14bd 6614 e1bd
00000080: d0cd 3a3d eec9 85bc 82f5 de3c e3d8 a3bc
00000090: 8daa ac3d 96c1 9f3c e2aa 5fbd 73e2 b13c
000000a0: 73a0 d0bc aa02 ba3d b5d8 e7bb c575 8f3c
000000b0: 40ab 873d 30cf 793d c6fc 5c3d 020e d63c
000000c0: cedf 453c f961 093d 861c 4f3d b3c0 5f3c
000000d0: 5cf7 2cbb 14de 9abc 2e42 f23d 1256 293d
000000e0: 6a26 f4bb 1a6f 243d 18d2 9e3c 4855 0abd
000000f0: e727 853c b38d fbbc d2ce 2c3d 7dea ffbc
00000100: d7c7 d0bb c4d7 35bd 3fba 40bd 9f0d 043d
00000110: cb39 f73c f51d c8bd 294a 8b3d 93bf 9cbd
00000120: fdf4 0fbd 8b52 f3bc 0e10 8fbd 7178 f03c
00000130: e49c 053e ce69 a13d c0fd 4ebd 7d7c 8c3d
00000140: adc0 f6bd a8d9 1f3d 3892 a3bc 263a 39bc
00000150: 0e59 4abd 05ad febc 3419 943d 2fcf 9bbc
00000160: 355c abbc 849d d6bd 2058 66bc ae91 2fbc
00000170: 8cd0 7d3d a3ba 843c c74c c03d ad8f 6f3d
00000180: 7631 44bd 5911 b53d 2817 20bc 7c0f 0d3e
00000190: 44a8 a83c febf da3d cfb8 163d 9f4f bbbc
000001a0: e39e edbc 4c5b 093d 1dbf 173d 17fd 683b
000001b0: 4ac2 08bd 8869 a53d e461 a23d dffa 393d
000001c0: 2742 5f3c c3c9 063d 9c7a e13c 44a8 513d
000001d0: d1c1 3bbc 8953 0a3d 067d 05bd 95d5 843c
000001e0: 70ae 9fbc f46f a73c c115 9d3c 6ad6 e53d
000001f0: 9685 e1bd 554e 89bc 96ca 803c c45d 32bc

actor_mean.4.bias f4 [2]
-0.039740242 -0.023637578
00000000: aac6 22bd 98a3 c1bc
