jsbgym/models/train_saves/ppo_ts3e-2_2_98128_19-01_01:15:16.pt (torch, 62231 bytes, 14 tensors)

actor_logstd f4 [1, 2]
-0.009624915 -0.15408793
00000000: d2b1 1dbc 3ac9 1dbe

conv.0.weight f4 [3, 1, 5, 1]
-0.62057626 0.4917727 -0.67119795 -0.53316355 -0.33544943 -0.29244673 0.95405555 0.63839406
0.54735637 0.32707956 -0.64357626 -0.5704357 0.23351552 0.3653938 -0.31088617
00000000: 16de 1ebf a2c9 fb3e a1d3 2bbf 687d 08bf
00000010: 07c0 abbe 94bb 95be fc3c 743f cb6d 233f
00000020: 8c1f 0c3f f976 a73e 6ac1 24bf 1308 12bf
00000030: b11e 6f3e e514 bb3e 792c 9fbe

conv.0.bias f4 [3]
0.0059059644 -0.036008652 -0.00330559
00000000: d286 c13b cf7d 13bd 99a2 58bb

critic.0.weight f4 [64, 42]
-0.06116321 0.29049224 -0.20041208 -0.24410093 0.26106882 -0.33725855 -0.34804714 0.26786914
-0.1439202 0.020447321 0.09029696 -0.022740588 0.22298892 -0.23930727 0.1695837 0.29919115
-0.02888308 -0.052525777 0.13064322 0.05165353 -0.014474261 -0.21049747 -0.06837251 0.31430006
0.003786362 0.062458694 0.10388129 0.27176228 0.07028351 -0.10099968 -0.24489011 0.04277272
-0.1027616 -0.037265796 -0.027859196 -0.13476507 -0.18008214 -0.37591347 -0.25006074 0.023258122
-0.007360176 0.20180647 -0.2399983 0.23814978 0.058856443 0.18295375 0.05141259 -0.1468939
-0.2264132 -0.3191453 0.24742131 0.2779383 -0.032550693 -0.20784438 -0.14870436 0.13369384
-0.18293403 0.31158507 0.04864953 -0.13560718 0.15337594 -0.2198028 0.022095867 0.30726123
0.007939767 -0.1010207 -0.012470003 -0.32016668 0.32747898 0.33369553 0.007557141 -0.15733276
0.13352688 0.009365324 -0.018554108 -0.18828791 0.13169047 -0.047163054 0.09438827 0.086809196
-0.13325885 -0.06801209 -0.092365764 -0.31862 -0.0906089 0.08501979 -0.24796219 0.33102518
-0.05843468 0.058268413 -0.02098889 0.18429522 0.14692141 -0.03444539 0.0973633 0.28251788
0.11278868 -0.32353395 -0.26080716 0.02007986 0.13683507 0.19255295 -0.062090043 0.06266056
0.18596709 0.12618548 -0.0018741919 -0.032229226 -0.041782137 0.117194444 -0.3672051 0.12746952
-0.4156094 0.12973945 -0.18046737 0.17186777 0.04553112 -0.172494 -0.10696996 0.15686429
-0.4450933 -0.08718891 -0.048557963 -0.023449572 0.108827464 -0.17579399 -0.2525653 -0.071573146
0.10615959 0.3026802 0.033651214 -0.08609847 -0.14729702 0.14737554 0.007178086 -0.16198188
-0.21287955 -0.1030612 -0.5183983 0.47582746 0.20885505 -0.12328863 0.21972832 -0.083787136
0.050483923 -0.14116372 -0.014289935 0.09474868 -0.124837354 0.07624459 0.01217185 0.040081147
0.30216166 -0.1478406 0.19652078 0.13044868 0.059873585 0.4468392 0.024550544 0.44233844
-0.02898789 0.03221337 -0.18540022 -0.17422064 -0.07261689 -0.031105954 -0.07574761 0.093412265
-0.039732795 -0.18347555 0.2575202 -0.15302664 -0.18178046 0.03415766 -0.3566503 -0.3515843
-0.059103254 -0.12384231 -0.07257028 -0.17432813 -0.3982959 -0.31473023 0.07961495 0.18633667
0.2583165 -0.16107838 0.043626677 -0.14767572 3.2947653e-05 0.25377977 0.17826542 0.036852226
0.010412211 -0.0842691 0.1801725 -0.0687233 0.15750179 -0.056088533 0.124388576 0.031127417
0.15010026 -0.018887103 0.26366723 -0.53488666 0.22835468 -0.1260668 -0.111945786 0.11470211
0.2742465 -0.1259185 0.065495715 -0.14278468 0.068216324 0.026881205 -0.03441444 -0.041495822
0.17452255 -0.3654716 -0.041385517 0.17097166 0.07649499 -0.12386833 -0.08613975 0.16839457
0.06652551 -0.0017128217 0.1824702 0.13492024 -0.09224789 0.06386915 -0.057022072 -0.23754568
-0.10520502 -0.102884404 0.0966329 -0.042536616 -0.08920934 -0.14572728 -0.027752457 -0.14714493
-0.6109 -0.06018117 -0.039211534 -0.043537274 0.09815398 -0.09802077 0.094304666 -0.07535026
0.057949245 0.14878689 -0.04844886 -0.3183773 0.08327744 0.11674248 0.18166421 0.085734405
00000000: 4686 7abd 66bb 943e d338 4dbe 98f5 79be
00000010: d0aa 853e 27ad acbe 3c33 b2be 2526 893e
00000020: d15f 13be 2481 a73c 9ded b83d 784a babc
00000030: 3557 643e f70c 75be 59a7 2d3e 952f 993e
00000040: 369c ecbc 4525 57bd 56c7 053e a792 533d
00000050: 7325 6dbc a68c 57be e306 8cbd f0eb a03e
00000060: 9d24 783b b0d4 7f3d b7bf d43d 6d24 8b3e
00000070: cdf0 8f3d ecd8 cebd 79c4 7abe 7332 2f3d
00000080: ac74 d2bd 05a4 18bd f838 e4bc dbff 09be
00000090: 7467 38be bb77 c0be f607 80be d187 be3c
000000a0: a22d f1bb 5ba6 4e3e 1dc2 75be 89dd 733e
000000b0: 7413 713d 3a58 3b3e 0296 523d 5b6b 16be
000000c0: ddd8 67be 0367 a3be 035c 7d3e ee4d 8e3e
000000d0: e053 05bd 28d5 54be f545 18be 0ae7 083e
000000e0: 0f53 3bbe 1488 9f3e bb44 473d 9cdc 0abe
000000f0: 950e 1d3e fc13 61be 6402 b53c 5851 9d3e
00000100: cc15 023c f1e3 cebd fc4e 4cbc e3ec a3be
00000110: 53ab a73e 24da aa3e e5a1 f73b d71b 21be
00000120: 45bb 083e 0471 193c c9fe 97bc 8cce 40be
00000130: ded9 063e 0c2e 41bd a34e c13d 05c9 b13d
00000140: 0275 08be ec49 8bbd 432a bdbd 2922 a3be
00000150: 2991 b9bd db1e ae3d cde9 7dbe 227c a93e
00000160: 3459 6fbd dcaa 6e3d e5f0 abbc e3b7 3c3e
00000170: 9172 163e 9c16 0dbd 6966 c73d 2fa6 903e
00000180: c0fd e63d 3ea6 a5be 8488 85be 857e a43c
00000190: 7e1e 0c3e 9a2c 453e 2152 7ebd 2e54 803d
000001a0: 286e 3e3e c436 013e 72a7 f5ba cb02 04bd
000001b0: bf23 2bbd a403 f03d 4f02 bcbe 5f87 023e
000001c0: c1ca d4be 6bda 043e 70cc 38be 1bfe 2f3e
000001d0: d77e 3a3d 44a2 30be 1113 dbbd 08a1 203e
000001e0: 45e3 e3be 1990 b2bd b7e4 46bd 5119 c0bc
000001f0: efe0 de3d 5703 34be 3d50 81be f194 92bd
00000200: 336a d93d e6f8 9a3e dbd5 093d 6554 b0bd
00000210: 08d5 16be 9de9 163e 2636 eb3b 94de 25be
00000220: 19fd 59be c011 d3bd c0b5 04bf a89f f33e
00000230: 19de 553e c07e fcbd 7600 613e 9798 abbd
00000240: 3bc8 4e3d 398d 10be 5520 6abc 990b c23d
00000250: baaa ffbd 2026 9c3d 706c 473c 212c 243d
00000260: efb4 9a3e 8763 17be be3c 493e 5794 053e
00000270: 013e 753d 1cc8 e43e 391e c93c 2f7a e23e
00000280: 0378 edbc 2bf2 033d 8ed9 3dbe e566 32be
00000290: 2ab8 94bd ead1 febc 9021 9bbd ee4e bf3d
000002a0: dbbe 22bd 04e1 3bbe b0d9 833e 04b3 1cbe
000002b0: a824 3abe e7e8 0b3d de9a b6be db02 b4be
000002c0: 4116 72bd 09a1 fdbd ba9f 94bd 1383 32be
000002d0: 71ed cbbe 5224 a1be 2a0d a33d 0acf 3e3e
000002e0: 0f42 843e bbf1 24be e3b1 323d 4e38 17be
000002f0: 4631 0a38 6cef 813e 368b 363e 5cf2 163d
00000300: fa97 2a3c 4795 acbd 247f 383e cdbe 8cbd
00000310: 2648 213e 17bd 65bd 70bf fe3d edfe fe3c
00000320: e2b3 193e 20b9 9abc 64ff 863e 55ee 08bf
00000330: cfd5 693e a817 01be d543 e5bd f1e8 ea3d
00000340: 0a6a 8c3e c7f0 00be 9e22 863d 2636 12be
00000350: 00b5 8b3d f935 dc3c 28f6 0cbd 86f7 29bd
00000360: 0ab6 323e 181f bbbe dc83 29bd 3213 2f3e
00000370: 68a9 9c3d aeae fdbd 0a6a b0bd a06f 2c3e
00000380: 873e 883d c280 e0ba 78d9 3a3e 8828 0a3e
00000390: 76ec bcbd d4cd 823d fa8f 69bd 2d3f 73be
000003a0: bb75 d7bd 0fb5 d2bd 78e7 c53d e03a 2ebd
000003b0: 63b3 b6bd 8839 15be 1f59 e3bc 29ad 16be
000003c0: f163 1cbf 8880 76bd 469c 20bd 2454 32bd
000003d0: f404 c93d 1dbf c8bd ce22 c13d 3d51 9abd
000003e0: 305c 6d3d 975b 183e 5072 46bd 5902 a3be
000003f0: 5d8d aa3d ae16 ef3d 2f06 3a3e 8595 af3d

critic.0.bias f4 [64]
0.047060296 -0.024342984 0.029746274 0.016178647 -0.06028069 0.16514196 -0.1387978 -0.039134394
-0.09363751 0.088039055 0.03181154 0.051112697 0.09665267 -0.029121308 0.014654743 0.054641645
0.031051049 -0.1155607 0.039575055 -0.09813633 0.055404004 -0.051789563 -0.029960927 0.033794142
-0.0036274544 -0.0431023 0.012178223 0.14133228 0.009202371 0.07256993 -0.0033519869 -0.025782315
-0.10353227 0.13693033 0.1374842 0.031512395 0.0529421 0.030259006 -0.00536346 -0.07964913
0.072580315 -0.061682027 -0.05886322 0.031639244 0.048711564 -0.09093239 0.07934786 0.022913609
0.13959397 -0.030241499 0.10038344 0.016507726 -0.059342876 -0.092208505 -0.0010153237 -0.019658988
-0.29581508 -0.016098762 0.15444875 -0.01893961 0.0035995997 -0.013934428 -0.04854303 -0.08732486
00000000: 4cc2 403d f06a c7bc 75ae f33c 1589 843c
00000010: e3e8 76bd f91a 293e 0321 0ebe 634b 20bd
00000020: 06c5 bfbd d24d b43d d14c 023d 8c5b 513d
00000030: d6f1 c53d cf8f eebc 721a 703c ebcf 5f3d
00000040: c55e fe3c 17ab ecbd 7419 223d b3fb c8bd
00000050: 4fef 623d 4b21 54bd 9e70 f5bc ba6b 0a3d
00000060: 96ba 6dbb 0a8c 30bd 2b87 473c 69b9 103e
00000070: 8bc5 163c 8b9f 943d 02ad 5bbb 6f35 d3bc
00000080: ba08 d4bd 7737 0c3e a8c8 0c3e 2413 013d
00000090: d1d9 583d bce1 f73c f7bf afbb 151f a3bd
000000a0: fda4 943d 4ba6 7cbd 8f1a 71bd 2798 013d
000000b0: c785 473d c33a babd 2181 a23d 52b5 bb3c
000000c0: b9f1 0e3e 05bd f7bc d595 cd3d 363b 873c
000000d0: 8411 73bd d0d7 bcbd 9c14 85ba e30b a1bc
000000e0: 1375 97be 8de1 83bc d027 1e3e 3e27 9bbc
000000f0: 43e7 6b3b 3a4d 64bc 0ed5 46bd 60d7 b2bd

critic.2.weight f4 [64, 64]
0.15797158 -0.029507754 0.2372093 0.05234742 0.19377314 0.19858412 -0.076784424 0.20273131
0.1283418 0.26074338 -0.038634382 0.02330637 -0.105559014 0.05270665 -0.41014224 0.018643174
-0.25655037 0.0868437 0.19317329 -0.21740916 -0.009011029 -0.1908765 0.26059905 0.019175997
-0.07394717 -0.20331344 0.044260353 -0.017142845 0.0724819 0.07294411 -0.1021918 0.30368248
0.043888044 -0.23602492 -0.22950464 0.0011444207 0.27501786 0.23503631 0.017879995 0.072375305
-0.28293234 0.3617289 -0.10192327 -0.0468888 -0.41462025 -0.13806735 0.10324256 -0.038316242
-0.3740786 0.12667826 -0.1724027 0.066425845 0.18517889 0.029035175 -0.019991936 0.09559789
-0.09370078 -0.09266782 -0.023100214 -0.17803769 0.020903716 0.18646874 -0.22673392 -0.034524404
0.08054376 -0.2926215 0.012740153 -0.27667958 0.0135397585 -0.2733339 -0.18230188 0.007274867
-0.057897028 -0.27260417 0.103035554 -0.2668341 -0.031878173 0.15866151 -0.19353898 -0.11204025
0.3902131 -0.011249729 0.14794734 0.098586604 -0.116551384 -0.18192612 0.09996138 0.17598476
-0.15737712 -0.14009386 -0.200347 0.17637931 -0.038287807 0.109626 -0.10778786 -0.09119986
0.006514831 0.39743996 -0.20662701 -0.08365191 0.0826636 0.33290604 0.35556516 -0.010021473
0.06086522 -0.013345594 -0.16298093 -0.04442072 0.05449919 -0.28012842 -0.123316444 0.16737692
-0.071438074 0.21858624 -0.005225337 0.045023408 0.12127286 -0.15386814 -0.043032814 0.17410009
0.08079819 0.1432472 0.28303334 0.19467935 0.24257752 -0.095403224 0.12689175 -0.023227755
0.52024317 0.091835804 0.12331598 0.08998096 -0.076600015 0.067495584 -0.2151553 -0.05946496
-0.145088 -0.043210406 -0.08966782 -0.028205607 -0.16111128 0.16318597 0.30506197 0.18140931
-0.22279096 -0.17069757 0.30992064 0.15873909 0.19023977 0.0740682 0.12924601 -0.18043742
-0.15400581 0.3100865 0.015567234 0.36505836 0.03360985 -0.18067078 -0.17637618 0.017471967
0.27839264 0.18034653 0.016096449 -0.15206301 0.13219209 0.04094738 0.21185099 0.07701018
0.07327162 -0.0467854 0.26470068 0.2159485 -0.24212588 0.22793482 -0.28002417 -0.11718648
-0.26836792 -0.05299953 0.3294659 -0.11926892 -0.2216574 0.040220737 0.15328914 0.09027995
-0.081147775 0.022241319 0.043369148 -0.024520129 0.012775379 0.06794386 0.061217416 -6.0217088e-05
-0.017107904 0.16990197 0.23161684 -0.015642622 0.00042943974 0.27523386 0.16957606 -0.056128554
0.113643765 0.3512274 0.040571943 -0.04685539 0.44480085 -0.044203255 -0.0006492261 -0.034958046
-0.1266206 -0.21109208 -0.019088827 -0.12982887 0.10501287 0.25785208 -0.04355121 0.060414623
-0.31313145 0.13556105 -0.13324271 0.07301222 0.09222636 0.24671333 -0.028382216 -0.09293206
-0.44289792 0.058277518 -0.07089821 0.16022848 -0.051353343 0.17783517 0.1612851 -0.032680735
0.4393702 0.23113109 0.08847898 -0.08344272 -0.06758778 -0.075646654 -0.17020047 -0.12877595
-0.18733367 -0.20029482 0.12967816 0.31596237 -0.14309055 -0.33200708 -0.14580075 0.2730796
-0.0777089 0.2251069 0.15569739 0.11196858 -0.039387263 -0.040220782 0.051889803 -0.20058013
00000000: 4dc3 213e 3fba f1bc ffe6 723e 406a 563d
00000010: 776c 463e a359 4b3e 2741 9dbd cc98 4f3e
00000020: 086c 033e 2880 853e 163f 1ebd 00ed be3c
00000030: 532f d8bd eee2 573d 2afe d1be 92b9 983c
00000040: 925a 83be 1cdb b13d 38cf 453e 82a0 5ebe
00000050: ffa2 13bc 2175 43be 3d6d 853e fb16 9d3c
00000060: 9d71 97bd 6631 50be 584a 353d 276f 8cbc
00000070: 6471 943d b963 953d ef49 d1bd 457c 9b3e
00000080: f3c3 333d 84b0 71be 4403 6bbe 6300 963a
00000090: 24cf 8c3e 5cad 703e 1179 923c 8139 943d
000000a0: 82dc 90be 8834 b93e 26bd d0bd 780e 40bd
000000b0: 1b49 d4be 8761 0dbe d670 d33d 7ef1 1cbd
000000c0: 3b87 bfbe f2b7 013e 558a 30be 460a 883d
000000d0: 899f 3d3e 2ddb ed3c 21c6 a3bc d4c8 c33d
000000e0: 32e6 bfbd a0c8 bdbd a93c bdbc 834f 36be
000000f0: 453e ab3c a9f1 3e3e f02c 68be 7669 0dbd
00000100: 20f4 a43d 7cd2 95be 13bc 503c f2a8 8dbe
00000110: ddd5 5d3c 6cf2 8bbe 58ad 3abe 0262 ee3b
00000120: 6f25 6dbd c692 8bbe 4e04 d33d 7b9e 88be
00000130: b092 02bd 2a78 223e 152f 46be 5c75 e5bd
00000140: 03ca c73e c950 38bc 827f 173e c6e7 c93d
00000150: 7eb2 eebd d74a 3abe 8db8 cc3d 5935 343e
00000160: 7827 21be c474 0fbe c427 4dbe c79c 343e
00000170: add3 1cbd 9983 e03d e2bf dcbd fec6 babd
00000180: 5d7a d53b 407d cb3e 0896 53be b151 abbd
00000190: 894b a93d a972 aa3e a30c b63e 1b31 24bc
000001a0: cf4d 793d 7aa7 5abc 79e4 26be 80f2 35bd
000001b0: 8b3a 5f3d fe6c 8fbe 558d fcbd db64 2b3e
000001c0: 204e 92bd 12d5 5f3e 4e39 abbb 776a 383d
000001d0: e85d f83d 9c8f 1dbe 2d43 30bd 4b47 323e
000001e0: 8579 a53d 65af 123e bfe9 903e 065a 473e
000001f0: 3e66 783e c462 c3bd e9ef 013e 2248 bebc
00000200: a82e 053f 6914 bc3d 178d fc3d f047 b83d
00000210: 78e0 9cbd 203b 8a3d ac51 5cbe 8891 73bd
00000220: f391 14be 65fd 30bd c3a3 b7bd 720f e7bc
00000230: 5bfa 24be 391a 273e 1531 9c3e 5dc3 393e
00000240: 5023 64be 58cb 2ebe ebad 9e3e 808c 223e
00000250: 37ce 423e 12b1 973d 1159 043e 96c4 38be
00000260: b3b3 1dbe a8c3 9e3e b60d 7f3c eee8 ba3e
00000270: 7baa 093d c301 39be f59b 34be 5f21 8f3c
00000280: 7b89 8e3e c3ac 383e b3dc 833c 68b6 1bbe
00000290: 5d5d 073e 71b8 273d 77ef 583e 83b7 9d3d
000002a0: 6e0f 963d 0ca2 3fbd d986 873e 9b21 5d3e
000002b0: d9ef 77be bf67 693e 545f 8fbe 77ff efbd
000002c0: 8567 89be 0916 59bd c1af a83e 4343 f4bd
000002d0: 28fa 62be 80be 243d d4f7 1c3e b2e4 b83d
000002e0: ce30 a6bd 6d33 b63c d9a3 313d 70de c8bc
000002f0: d34f 513c 2726 8b3d 1dbf 7a3d 9b91 7cb8
00000300: e025 8cbc c8fa 2d3e f72c 6d3e f524 80bc
00000310: 6d26 e139 74eb 8c3e 59a5 2d3e 0ee7 65bd
00000320: 10be e83d 14d4 b33e c42e 263d 70eb 3fbd
00000330: f0bc e33e 790e 35bd d330 2aba 2b30 0fbd
00000340: d5a8 01be 8628 58be 2c60 9cbc dcf1 04be
00000350: fd10 d73d 3005 843e c162 32bd 5375 773d
00000360: c452 a0be 84d0 0a3e c770 08be 6e87 953d
00000370: 2de1 bc3d 6ba2 7c3e d281 e8bc 2a53 bebd
00000380: 84c3 e2be 68b4 6e3d 1533 91bd ef12 243e
00000390: e257 52bd 6c1a 363e ec27 253e 3cdc 05bd
000003a0: 21f5 e03e a1ad 6c3e 7834 b53d 04e4 aabd
000003b0: 766b 8abd a2ec 9abd 0849 2ebe d8dd 03be
000003c0: 66d4 3fbe 161a 4dbe 5aca 043e d2c5 a13e
000003d0: 5486 12be d5fc a9be cb4c 15be 17d1 8b3e
000003e0: d825 9fbd 6c82 663e 236f 1f3e c84f e53d
000003f0: 8a54 21bd 8cbe 24bd 678a 543d e164 4dbe

critic.2.bias f4 [64]
0.048518557 0.046833392 0.05195817 0.10126652 0.051856924 0.089212134 -0.02970206 0.113645926
0.01906889 -0.019045418 -0.019251911 0.022427093 0.11576501 0.024866236 -0.03929483 0.08661545
0.06962389 -0.13210376 -0.07482487 0.047929056 -0.030518763 -0.012767251 0.11871446 0.03548757
0.03912785 0.06219339 0.033269893 0.06252698 -0.0015570915 -0.04517966 0.045976717 0.017168427
-0.090211794 -0.06291741 0.06946057 -0.037428763 -0.09249999 -0.041635964 -0.05816714 -0.10988988
-0.08407387 -0.003509457 0.07940968 0.11503672 -0.037108153 0.0032402754 0.04449897 -0.14538552
-0.029197589 0.00020773729 -0.030876756 0.010916444 -0.028168641 0.038771607 0.022852171 -0.050579347
0.018085789 0.08159564 0.13288544 0.14310199 0.0028968346 -0.025749456 -0.027847337 0.03964025
00000000: 65bb 463d 5fd4 3f3d 17d2 543d d264 cf3d
00000010: ed67 543d dab4 b63d bc51 f3bc 32bf e83d
00000020: 5c36 9c3c 2305 9cbc 2fb6 9dbc 06b9 b73c
00000030: 3516 ed3d 47b4 cb3c 9ef3 20bd 7163 b13d
00000040: f896 8e3d 3546 07be c83d 99bd 4251 443d
00000050: 7c02 fabc bb2d 51bc 9120 f33d 6a5b 113d
00000060: 8644 203d 7fbe 7e3d 0346 083d 250e 803d
00000070: 5217 ccba 4f0e 39bd 1552 3c3d cda4 8c3c
00000080: f6c0 b8bd d8da 80bd 5841 8e3d e74e 19bd
00000090: a270 bdbd 798a 2abd ab40 6ebd f20d e1bd
000000a0: ec2e acbd ebfe 65bb 8ba1 a23d 5f98 eb3d
000000b0: b8fe 17bd cd5a 543b 8d44 363d f1df 14be
000000c0: c82f efbc 0ed4 5939 40f1 fcbc e2da 323c
000000d0: ecc1 e6bc face 1e3d 7a34 bb3c 4a2c 4fbd
000000e0: a628 943c 9d1b a73d 1f13 083e 5489 123e
000000f0: d2d8 3d3b 86f0 d2bc 1920 e4bc d15d 223d

critic.4.weight f4 [1, 64]
-0.14476746 -0.0025529957 -0.084011614 -0.1385255 -0.029729374 -0.14400518 0.24702162 -0.0978889
-0.19492482 0.04741976 -0.29692724 -0.13286789 -0.1605495 -0.08190588 0.022428488 -0.16108641
-0.22053851 0.32567453 0.09264296 -0.10893697 0.19380683 -0.01721451 -0.098984316 -0.12797636
-0.11966377 -0.18760496 -0.11372244 -0.06341722 0.16158175 0.07332782 -0.0692674 -0.13953805
0.29326066 0.2002321 -0.094430305 0.13000424 0.11466437 0.063135505 0.038483024 0.16170532
0.06376509 0.24769862 -0.09737725 -0.18244037 -0.31323335 -0.2616064 -0.14028828 0.16911812
0.081374004 -0.09432181 0.095258184 -0.034450773 0.05392146 -0.16934364 -0.10149562 0.18952529
0.14093901 -0.084604785 -0.10970269 -0.1485628 -0.3401357 0.062472887 0.1728306 -0.13073845
00000000: ec3d 14be 2950 27bb 480e acbd a1d9 0dbe
00000010: 048b f3bc 1876 13be 3cf3 7c3e fa79 c8bd
00000020: 5f9a 47be 393b 423d d906 98be 850e 08be
00000030: 1767 24be 45be a7bd f3bb b73c d6f3 24be
00000040: d9d4 61be d0be a63e 98bb bd3d 591a dfbd
00000050: 4c75 463e 7205 8dbc 4ab8 cabd 3c0c 03be
00000060: 4712 f5bd 841b 40be 50e7 e8bd e3e0 81bd
00000070: b075 253e e52c 963d 11dc 8dbd 10e3 0ebe
00000080: 4326 963e a509 4d3e ad64 c1bd d51f 053e
00000090: 27d5 ea3d 304d 813d 60a0 1d3d 1496 253e
000000a0: 4697 823d b5a4 7d3e b96d c7bd a6d1 3abe
000000b0: 1f60 a0be 46f1 85be bba7 0fbe 4d2d 2d3e
000000c0: 6aa7 a63d cb2b c1bd b916 c33d 411c 0dbd
000000d0: c0dc 5c3d 6b68 2dbe f0dc cfbd eb12 423e
000000e0: 5152 103e 4645 adbd ceab e0bd d920 18be
000000f0: 4426 aebe 92e3 7f3d 81fa 303e 4de0 05be

actor_mean.0.weight f4 [64, 42]
-0.1357713 0.31545892 -0.014083424 -0.032143433 0.015154517 -0.10616483 -0.24018934 0.18262593
0.0039501153 0.17699271 -0.04011118 0.049308546 0.21903652 -0.46622887 0.13198753 -0.2038661
0.07843917 0.20017615 0.153459 0.07164603 0.17507185 -0.11397581 -0.18051453 -0.44480297
-0.14667884 0.13361733 -0.18018611 -0.044775557 0.041044235 -0.1339979 0.0032782168 0.18284814
-0.072861925 0.100813895 -0.115615495 0.4061877 0.30568978 -0.106264286 0.0056705712 0.020080915
0.1424945 -0.37658462 0.03871272 0.2355827 -0.027035287 -0.093274064 0.017597498 -0.17643547
0.17055276 -0.12723848 0.14824243 0.2792609 -0.03899797 0.078140154 0.09968815 -0.27739167
-0.045606706 -0.20345172 0.27069673 0.17948446 -0.058539566 0.12708384 -0.28358084 0.10320434
0.19013304 -0.07031065 -0.20262343 -0.20318463 -0.2404482 0.307133 -0.19466086 0.16736107
-0.095192485 0.07882707 0.14779247 0.115898244 -0.036945693 -0.51257294 0.1570677 -0.113601215
-0.008984808 -0.049481373 -0.09846508 0.2690264 -0.3143881 0.23716229 0.032627515 0.03633142
-0.0030221131 -0.005070385 0.16604747 0.28072023 -0.4140454 -0.32759887 -0.2087667 -0.28290817
0.41912326 -0.06386617 -0.22455657 -0.1852711 0.2505555 0.047276467 0.1529632 -0.06964421
0.039374895 -0.11221822 -0.02337715 0.026909146 -0.20776309 0.004032061 0.26168588 0.27418715
-0.14846122 0.15961254 0.026809422 0.034264088 0.16029514 0.19824176 -0.026295025 0.057759922
-0.13520789 -0.07949194 0.070773385 -0.12567951 0.09243999 -0.22461312 -0.09468427 -0.49613565
0.28966087 -0.07422611 0.0036143519 0.08665674 -0.38344178 0.2601582 -0.13141724 0.17607263
0.09703602 -0.086151734 -0.33302596 -0.17522001 0.054440334 0.023920218 -0.13687386 0.04309312
-0.06497126 0.099773616 -0.15731966 -0.20857258 -0.381665 -0.22572619 -0.021878751 0.051177837
-0.037746374 -0.08517898 -0.27438444 0.08122121 -0.114383906 0.033236437 0.13037613 0.056247808
0.0924709 0.10057802 0.07336473 0.12180956 0.28316075 0.06991816 0.0049367915 -0.022677733
-0.43502423 0.06541994 -0.38096666 0.14929765 0.14958353 -0.041144285 0.19194779 0.0952293
0.13182859 -0.12774275 0.1577888 0.17289321 -0.06193647 -0.013243803 0.04188025 0.2665908
0.025172615 0.07459879 -0.111361474 -0.15274985 -0.5406181 -0.118078336 -0.23887783 0.116039634
0.27070647 0.06652533 0.03291053 -0.11881453 0.17017318 0.23173338 -0.23453157 -0.037404012
-0.14003712 -0.086859025 0.18601105 -0.055664968 -0.13225667 -0.12760054 -0.019611072 0.17989318
0.06529258 0.09330217 -0.042416453 -0.1137487 -0.3240776 -0.12665935 0.021782087 0.029547943
0.106944285 -0.23174326 0.38573334 -0.1731421 -0.12302001 -0.10426077 -0.61658555 0.22116669
0.37288544 -0.016335892 0.17551526 -0.23160878 0.056661997 -0.10756862 0.050067246 0.5700288
-0.16448723 -0.018625014 0.032138843 0.050419785 0.32839525 0.024933644 -0.22797476 -0.30342868
0.12945822 0.05337759 -0.01123481 -0.041219912 -0.30044085 0.12004293 -0.19544153 -0.058967087
-0.04150019 -0.10064965 -0.10216457 0.047208395 0.16327363 -0.043304108 0.030180791 -0.26427877
00000000: a207 0bbe d583 a13e 29be 66bc d5a8 03bd
00000010: a74a 783c f26c d9bd 32f4 75be 4b02 3b3e
00000020: f86f 813b 943d 353e 9f4b 24bd c2f7 493d
00000030: 1c4b 603e 8db5 eebe bd27 073e 46c2 50be
00000040: b7a4 a03d fafa 4c3e 5b24 1d3e 27bb 923d
00000050: 0946 333e 266c e9bd cdd8 38be 37bd e3be
00000060: fa32 16be fbd2 083e b582 38be 9366 37bd
00000070: 001e 283d bf36 09be 5ad7 563b 8b3c 3b3e
00000080: a238 95bd 8477 ce3d d1c7 ecbd d6f7 cf3e
00000090: 5f83 9c3e 17a1 d9bd 33d0 b93b bb80 a43c
000000a0: 14ea 113e b3cf c0be 3b91 1e3d 973c 713e
000000b0: 1b79 ddbc 7906 bfbd a128 903c 80ab 34be
000000c0: 62a5 2e3e ce4a 02be ddcc 173e 49fb 8e3e
000000d0: 56bc 1fbd f207 a03d 4d29 cc3d 4806 8ebe
000000e0: 19ce 3abd a655 50be c398 8a3e c6ca 373e
000000f0: 2fc7 6fbd 4422 023e 8231 91be cc5c d33d
00000100: 3cb2 423e 08ff 8fbd 847c 4fbe a20f 50be
00000110: 0e38 76be 8940 9d3e 2d55 47be b360 2b3e
00000120: 47f4 c2bd 1670 a13d e956 173e 0f5c ed3d
00000130: 5e54 17bd fb37 03bf 5bd6 203e c1a7 e8bd
00000140: 0435 13bc fbac 4abd 0fa8 c9bd d4bd 893e
00000150: 7af7 a0be acda 723e 6ea4 053d 41d0 143d
00000160: a50e 46bb 7925 a6bb 5908 2a3e 90ba 8f3e
00000170: c2fd d3be 0abb a7be f0c6 55be 57d9 90be
00000180: 5397 d63e 44cc 82bd 28f2 65be b5b7 3dbe
00000190: cf48 803e f8a4 413d 63a2 1c3e a0a1 8ebd
000001a0: 9247 213d abd2 e5bd 7081 bfbc 9270 dc3c
000001b0: d9bf 54be 611f 843b b1fb 853e 4262 8c3e
000001c0: 3806 18be 7871 233e 6f9f db3c 8058 0c3d
000001d0: 6924 243e e3ff 4a3e aa68 d7bc ab95 6c3d
000001e0: f073 0abe accc a2bd a3f1 903d 21b2 00be
000001f0: 2d51 bd3d fb00 66be d4e9 c1bd 7e05 febe
00000200: 6e4e 943e dc03 98bd c3de 6c3b 1779 b13d
00000210: 7b52 c4be 7533 853e 3e92 06be 624c 343e
00000220: d2ba c63d 5270 b0bd 6182 aabe e06c 33be
00000230: d4fc 5e3d 55f4 c33c a928 0cbe 6982 303d
00000240: a70f 85bd 1c56 cc3d 6818 21be 0d94 55be
00000250: 9869 c3be c424 67be 113b b3bc da9f 513d
00000260: f19b 1abd 5172 aebd 1e7c 8cbe 4e57 a63d
00000270: 1c42 eabd ee22 083d 5281 053e 1a64 663d
00000280: 6261 bd3d d9fb cd3d 3f40 963d 4a77 f93d
00000290: 72fa 903e 4131 8f3d cfc4 a13b a7c6 b9bc
000002a0: 7fbb debe e4fa 853d 100e c3be 7ce1 183e
000002b0: 6d2c 193e e986 28bd f68d 443e 9407 c33d
000002c0: 13fe 063e ffce 02be 6393 213e eb0a 313e
000002d0: 19b1 7dbd 89fc 58bc a08a 2b3d 977e 883e
000002e0: cd36 ce3c 40c7 983d 7c11 e4bd 756a 1cbe
000002f0: f365 0abf 0ed3 f1bd 649c 74be 30a6 ed3d
00000300: 0a9a 8a3e 6f3e 883d 31cd 063d 0855 f3bd
00000310: e141 2e3e 844b 6d3e 0b29 70be f334 19bd
00000320: e465 0fbe 25e3 b1bd ae79 3e3e f300 64bd
00000330: 4b6e 07be b7a9 02be 66a7 a0bc eb35 383e
00000340: 1eb8 853d 3515 bf3d e0bc 2dbd 14f5 e8bd
00000350: 80ed a5be fdb2 01be 5970 b23c 870e f23c
00000360: 9b05 db3d 1b4e 6dbe d77e c53e 2a4c 31be
00000370: eaf1 fbbd ac86 d5bd 8dd8 1dbf 8579 623e
00000380: d7ea be3e d9d2 85bc 46ba 333e da2a 6dbe
00000390: 6916 683d f04c dcbd 5013 4d3d 68ed 113f
000003a0: 576f 28be 7c93 98bc 05a4 033d fa84 4e3d
000003b0: 6c23 a83e a441 cc3c 3772 69be 015b 9bbe
000003c0: b290 043e 76a2 5a3d 3512 38bc 36d6 28bd
000003d0: 62d3 99be 11d9 f53d d321 48be 7987 71bd
000003e0: 1afc 29bd 6721 cebd a83b d1bd 975d 413d
000003f0: 3431 273e a65f 31bd b53d f73c 8c4f 87be

actor_mean.0.bias f4 [64]
-0.027977282 0.04720385 -0.0032019163 0.020964691 0.028512746 0.06578542 -0.06465167 0.016360637
-0.08851366 -0.009783575 -0.049374767 0.087588325 0.05391601 -0.009585393 -0.007187878 0.10990701
-0.034000825 0.020835394 -0.07009436 0.052704368 -0.04655931 0.02349394 0.0014536423 0.016896745
0.09990625 0.01698701 -0.060703717 0.003703272 -0.014801244 -0.010119109 -0.022413539 0.030908218
0.04247629 -0.07380004 -0.042735968 0.022365281 -0.083003305 -0.037641127 0.01959229 -0.08219442
0.06470046 0.009473673 0.004000898 0.04523988 0.07523649 0.018597813 0.07246444 0.08511503
-0.04395432 -0.016700534 -0.0037039528 0.036300212 -0.068235785 -0.036607906 -0.010060628 -0.08333174
0.107488304 -0.019185623 0.12985715 -0.032313347 0.023522845 -0.099799186 0.038076453 -0.010038836
00000000: 9d30 e5bc d358 413d 3ed7 51bb 25be ab3c
00000010: 9093 e93c 82ba 863d 1868 84bd be06 863c
00000020: a646 b5bd 4a4b 20bc 323d 4abd 8261 b33d
00000030: 09d7 5c3d 0d0c 1dbc 4a88 ebbb ed16 e13d
00000040: 7344 0bbd fdae aa3c a28d 8fbd 89e0 573d
00000050: fab4 3ebd 5d76 c03c 2488 be3a 0b6b 8a3c
00000060: a69b cc3d 5828 8b3c 76a4 78bd 98b2 723b
00000070: eb80 72bc 9fca 25bc 999c b7bc 3b33 fd3c
00000080: 9efb 2d3d 7a24 97bd e90b 2fbd 6537 b73c
00000090: a3fd a9bd 952d 1abd 0380 a03c 8c55 a8bd
000000a0: ad81 843d 7737 1b3c f719 833b 744d 393d
000000b0: 9715 9a3d 715a 983c 3c68 943d ca50 ae3d
000000c0: 7209 34bd 8fcf 88bc 04be 72bb 88af 143d
000000d0: 34bf 8bbd 2cf2 15bd 55d5 24bc d5a9 aabd
000000e0: d422 dc3d 2b2b 9dbc 46f9 043e 005b 04bd
000000f0: fbb2 c03c 8463 ccbd 0ef6 1b3d ee79 24bc

actor_mean.2.weight f4 [64, 64]
0.0011330226 0.275079 0.20663737 -0.07283726 0.22045721 -0.1515013 -0.31257653 -0.059914768
0.13784906 0.031882122 -0.115591764 0.3178827 0.19039841 0.014084562 0.108236976 0.029344881
-0.08948395 0.07634757 0.2051257 -0.10639488 -0.33701894 -0.031360336 -0.26071697 -0.03215927
-0.27269298 -0.016389428 -0.04188081 0.0066049597 0.24570407 0.114569776 0.15145734 -0.20523493
-0.10509092 -0.28389433 0.33750343 -0.010655032 -0.10072318 -0.16206278 -0.14464039 0.034806583
-0.12611488 -0.05316274 0.20812684 -0.17298023 0.15800785 0.05001367 -0.25553367 0.08898176
0.058457658 -0.11886511 0.079065196 -0.37743187 -0.25468948 0.4856217 -0.006342945 -0.2633394
0.2052105 -0.08485975 -0.023151321 -0.1629119 -0.03865187 0.1635728 -0.05071415 0.084385596
0.2647587 -0.016679024 0.26851293 0.17964417 0.041421793 0.120524414 -0.084895246 0.1562005
0.22749037 -0.18055 0.3010889 -0.06705972 -0.07332091 -0.18404308 0.09975139 -0.030918622
0.13631798 -0.06296055 -0.2366074 -0.28766656 -0.37679198 0.07361207 -0.34016997 0.0651898
0.024102584 0.30653578 0.072428875 -0.35619655 0.071537815 -0.045271635 0.17863894 -0.16933745
0.23337619 -0.053046603 -0.13017362 0.090608776 -0.055020057 0.074834734 -0.034101754 0.04322275
-0.015260782 -0.0064548193 -0.12167478 -0.065922596 0.02383851 -0.14124864 0.098685116 0.20250815
-0.27326006 -0.4137158 -0.2671239 0.086775236 0.05936294 0.030311678 -0.20144925 0.04029017
0.09814493 0.1259875 -0.13508274 -0.26584655 -0.12237059 0.050760522 0.048161555 -0.17296903
-0.035299357 0.34726822 0.16303594 0.04484734 0.20009965 -0.109442614 0.05784048 -0.14270867
0.11730005 -0.029665522 0.42218813 -0.35093644 0.10915638 0.01865945 0.18721797 0.11934349
0.052632626 -0.06690466 0.41872388 -0.03811588 0.2918901 0.029507985 -0.20641665 -0.14495184
-0.17475355 -0.17205562 -0.10544802 0.015201463 -0.27488977 -0.31734648 0.1818302 0.16034415
-0.36203685 -0.009014165 0.024457961 0.12720183 0.09300548 0.0014571307 0.013279809 -0.16180423
-0.029711291 0.15885544 -0.08839048 0.05435256 0.39763874 -0.3042692 -0.08215882 -0.19038877
0.3001412 -0.020196013 0.029576153 -0.034002613 -0.022402432 -0.047610663 0.110906 -0.13106209
-0.2766532 0.2797236 0.03901005 0.24418928 0.102203995 0.38406768 0.13821469 -0.08562066
-0.11622068 -0.2744398 -0.24758577 0.067488946 -0.14959139 -0.5035256 -0.0046505993 0.2905545
0.061274953 0.08364859 -0.001799536 -0.31237805 -0.43223265 -0.17658195 0.15128352 -0.22218113
0.12527415 -0.2278265 0.01928091 0.006658536 -0.01059392 0.08511936 -0.08173157 0.14738536
0.010259182 -0.25942802 -0.1556957 0.019464215 0.101830296 -0.16529933 0.03423991 -0.17780916
-0.5078875 -0.10074841 -0.233674 -0.1735358 0.08949166 0.29726708 -0.45340315 0.034298047
-0.17137878 0.32000005 0.13563271 0.049744055 -0.11135211 -0.30407402 0.04508473 -0.03579376
-0.19450445 -0.2368247 0.29427606 -0.006632451 0.1511871 0.24538313 -0.19618694 0.08804853
-0.11662048 -0.13071543 -0.3528736 0.120061986 0.13398363 -0.15601823 -0.17280762 0.31174016
00000000: ee81 943a 28d7 8c3e bf98 533e b42b 95bd
00000010: 89bf 613e 2823 1bbe 080a a0be 3069 75bd
00000020: 4e28 0d3e d496 023d 60bb ecbd 85c1 a23e
00000030: cdf7 423e efc2 663c 59ab dd3d ad64 f03c
00000040: 5c43 b7bd 1d5c 9c3d 790c 523e 8fe5 d9bd
00000050: bf8d acbe b273 00bd b27c 85be 70b9 03bd
00000060: 6a9e 8bbe 1f43 86bc 368b 2bbd 6b6e d83b
00000070: d999 7b3e 8fa3 ea3d a217 1b3e 1b29 52be
00000080: e939 d7bd 995a 91be 40cd ac3e 7192 2ebc
00000090: f447 cebd c9f3 25be 9c1c 14be 5991 0e3d
000000a0: 4224 01be 2cc1 59bd 341f 553e bb21 31be
000000b0: cfcc 213e 22db 4c3d 4fd5 82be 123c b63d
000000c0: 4c71 6f3d 8d6f f3bd efec a13d c03e c1be
000000d0: a966 82be 68a3 f83e 7bd8 cfbb 6cd4 86be
000000e0: b422 523e f3ca adbd d7a7 bdbc 61d2 26be
000000f0: 6c51 1ebd a17f 273e a4b9 4fbd 5bd2 ac3d
00000100: 748e 873e 73a2 88bc 877a 893e a4f4 373e
00000110: e6a9 293d 81d5 f63d 8fdd adbd 06f3 1f3e
00000120: 3cf3 683e 19e2 38be 5328 9a3e 9b56 89bd
00000130: 4629 96bd ca75 3cbe 754a cc3d 0d49 fdbc
00000140: f196 0b3e 76f1 80bd 3649 72be 0849 93be
00000150: e1ea c0be edc1 963d c22a aebe 3b82 853d
00000160: c872 c53c 42f2 9c3e 9755 943d 655f b6be
00000170: 6b82 923d c06e 39bd 20ed 363e cc66 2dbe
00000180: 2bfa 6e3e 6547 59bd 3c4c 05be 1891 b93d
00000190: b65c 61bd f442 993d 48ae 0bbd 570a 313d
000001a0: 5c08 7abc f382 d3bb a130 f9bd 6d02 87bd
000001b0: fb48 c33c 7ca3 10be 6c1b ca3d 4c5e 4f3e
000001c0: bee8 8bbe 8fd2 d3be 77c4 88be 37b7 b13d
000001d0: 8e26 733d 3250 f83c b648 4ebe 4e07 253d
000001e0: 3600 c93d de02 013e 2153 0abe 0a1d 88be
000001f0: 6f9d fabd 44ea 4f3d 0d45 453d cb1e 31be
00000200: 0f96 10bd 24cd b13e e5f2 263e d8b1 373d
00000210: ece6 4c3e 7323 e0bd 24ea 6c3d 3922 12be
00000220: 023b f03d 1c05 f3bc 0b29 d83e f1ad b3be
00000230: 618d df3d b4db 983c 11b6 3f3e 5c6a f43d
00000240: 4f95 573d 4f05 89bd fa62 d63e 661f 1cbd
00000250: 9f72 953e bbba f13c e35e 53be 416e 14be
00000260: 98f2 32be 592f 30be 22f5 d7bd 8f0f 793c
00000270: 5abe 8cbe 3d7b a2be b231 3a3e 4231 243e
00000280: e55c b9be 26b0 13bc 105c c83c 3241 023e
00000290: a879 be3d 31fd be3a 8e93 593c 02b0 25be
000002a0: 1865 f3bc 00ab 223e 1106 b5bd caa0 5e3d
000002b0: 4e97 cb3e 2cc9 9bbe e242 a8bd 46f5 42be
000002c0: 1bac 993e 1c72 a5bc b049 f23c 5346 0bbd
000002d0: 4e85 b7bc 6603 43bd af22 e33d 2435 06be
000002e0: 7da5 8dbe ef37 8f3e 01c9 1f3d c10c 7a3e
000002f0: 5450 d13d 85a4 c43e 2788 0d3e e259 afbd
00000300: 1c05 eebd 6083 8cbe 2087 7dbe a537 8a3d
00000310: 7c2e 19be 0ee7 00bf 0e64 98bb 8fc3 943e
00000320: 72fb 7a3d f44f ab3d 69de ebba 04f0 9fbe
00000330: 994d ddbe e6d1 34be 11ea 1a3e 7383 63be
00000340: de47 003e 5a4b 69be 00f3 9d3c d92f da3b
00000350: 1f92 2dbc 0f53 ae3d e262 a7bd 30ec 163e
00000360: 2116 283c c0d3 84be b26e 1fbe 6b73 9f3c
00000370: 678c d03d 3a44 29be 263f 0c3d 9b13 36be
00000380: ea04 02bf 2f55 cebd 3d48 6fbe 5eb3 31be
00000390: 6747 b73d 6433 983e 7524 e8be 1c7c 0c3d
000003a0: eb7d 2fbe 0cd7 a33e 4de3 0a3e 6cc0 4b3d
000003b0: 930c e4bd 97af 9bbe c4aa 383d 7a9c 12bd
000003c0: 2d2c 47be 2d82 72be 5aab 963e 0855 d9bb
000003d0: cbd0 1a3e b745 7b3e 3be5 48be ca52 b43d
000003e0: b8d6 eebd 44da 05be d9ab b4be 0fe3 f53d
000003f0: 0133 093e 3ec3 1fbe 7bf4 30be 689c 9f3e

actor_mean.2.bias f4 [64]
0.06909973 0.049295794 -0.05004687 -0.104954734 0.1375719 0.022691218 -0.041312575 0.031394023
0.032356407 0.03159051 -0.049661182 -0.0292906 -0.035454564 0.0063324734 -0.01743868 0.090694696
0.01679434 0.041542627 0.04008362 -0.0019395339 0.110568285 0.036935214 0.01227207 -0.063730136
-0.04710967 -0.028452413 0.022938825 -0.030269403 -0.005387188 0.020305585 -0.008050297 -0.03166401
-0.04434047 0.06310424 0.021235147 -0.0300833 0.011977771 0.04183467 0.073645554 -0.10214565
0.00035449554 -0.05948531 0.06452756 0.094666466 -0.016009843 0.04693349 0.051921774 -0.056495983
0.07616172 -0.066034265 0.046748754 0.046967376 -0.049008727 0.013312366 -0.039364386 0.06602039
0.047540434 -0.06262302 -0.061569743 0.023474189 0.006611039 0.053057402 0.00833758 -0.07878923
00000000: 2984 8d3d 63ea 493d f2fd 4cbd 82f2 d6bd
00000010: a6df 0c3e efe2 b93c 6037 29bd 0597 003d
00000020: 2788 043d 0d65 013d 8669 4bbd d7f2 efbc
00000030: ce38 11bd a380 cf3b 90db 8ebc 24be b93d
00000040: 4994 893c 9a28 2a3d b92e 243d f537 feba
00000050: a071 e23d 6149 173d cb10 493c f284 82bd
00000060: 12f6 40bd 0915 e9bc 34ea bb3c 8af7 f7bc
00000070: 0287 b0bb e657 a63c 65e5 03bc 1fb2 01bd
00000080: 5a9e 35bd cc3c 813d 55f5 ad3c 4171 f6bc
00000090: 6a3e 443c d55a 2b3d 7bd3 963d bd31 d1bd
000000a0: 96db b939 dea6 73bd 0627 843d 7ee0 c13d
000000b0: 1327 83bc 553d 403d edab 543d 5568 67bd
000000c0: adfa 9b3d f93c 87bd 9f7b 3f3d dd60 403d
000000d0: 60bd 48bd 1c1c 5a3c 8d3c 21bd b335 873d
000000e0: c2b9 423d 7f40 80bd 8e30 7cbd f14c c03c
000000f0: 6aa1 d83b b852 593d 589a 083c 3f5c a1bd

actor_mean.4.weight f4 [2, 64]
0.015409258 0.05477708 7.527296e-06 -0.0018278346 -0.018666951 0.00091423205 -0.10779506 -0.018984625
0.032041516 -0.0012735538 -0.0111971 0.04945141 -0.012245143 0.12458815 -0.009775071 0.015651094
-0.03905626 -0.113907464 0.10232193 0.13164555 -0.02825038 -0.10346844 -0.05030634 0.060513932
-0.031874526 0.049937587 -0.01476798 0.023967873 -0.09455877 0.06528013 0.03786562 0.02703682
-0.02995501 -0.020999575 0.031128464 -0.00560692 0.00022280138 -0.04556697 0.055068087 -0.033390827
0.036698665 0.06942271 0.0024031685 0.018943358 -0.030570315 -0.024380613 0.05878997 -0.05278836
0.04136883 0.04270396 -0.080351785 0.028838333 -0.047533248 0.03139752 0.10684939 0.002116511
0.08147215 -0.001633747 -0.07287759 -0.017621292 -0.02648809 0.052559987 -0.03615396 -0.0013014621
-0.049707677 -0.014598441 -0.10081215 -0.09554967 0.11813902 -0.035311542 -0.01824119 -0.026379379
-0.0021167751 0.029076725 0.12090318 -0.002397012 0.0015424871 0.015580247 -0.056957606 -0.06446237
0.088778876 -0.08540419 -0.00085855444 0.021818923 0.034466397 -0.0030147824 0.030757438 0.008813355
-0.013295639 0.03721146 -0.088350154 -0.053969104 0.098211385 -0.035674892 0.018214537 0.0756888
0.05715683 -0.07581686 -0.020081835 -0.10653438 0.087837696 -0.079670586 -0.023121485 -0.0961612
0.09276633 -0.034776688 -0.037811488 -0.031941373 -4.8478174e-05 -0.025850376 0.020608727 -0.016111795
-0.06959927 -0.0731171 0.009742498 0.02232729 0.05738578 -0.060586475 -0.016915658 0.05530826
0.104960546 0.074126475 -0.02722413 -0.00038760016 -0.02641513 0.007097667 -0.015202508 0.07301736
00000000: 1d77 7c3c ee5d 603d fb92 fc36 f493 efba
00000010: 6feb 98bc 13a9 6f3a a8c3 dcbd a585 9bbc
00000020: f73d 033d 60ed a6ba 0b74 37bc 908d 4a3d
00000030: da9f 48bc 1228 ff3d 9f27 20bc b936 803c
00000040: 75f9 1fbd 5148 e9bd 298e d13d 17ce 063e
00000050: 576d e7bc 43e7 d3bd 050e 4ebd 75dd 773d
00000060: dd8e 02bd 5b8b 4c3d 66f5 71bc 4658 c43c
00000070: 07a8 c1bd 97b1 853d fb18 1b3d 527c dd3c
00000080: 3664 f5bc 4d07 acbc 1f01 ff3c 41ba b7bb
00000090: ca9f 6939 6ea4 3abd 138f 613d d2c4 08bd
000000a0: 5751 163d 7e2d 8e3d 7a7e 1d3b 1a2f 9b3c
000000b0: 996e fabc dab9 c7bc c0cd 703d 9b38 58bd
000000c0: 5d72 293d 59ea 2e3d 7a8f a4bd 5e3e ec3c
000000d0: 39b2 42bd b09a 003d dad3 da3d 2ab5 0a3b
000000e0: dfda a63d 7423 d6ba d940 95bd 875a 90bc
000000f0: 8dfd d8bc 2449 573d 2d16 14bd d295 aaba
00000100: 479a 4bbd 4d2e 6fbc 9a76 cebd 8caf c3bd
00000110: dff2 f13d d6a2 10bd 8c6e 95bc 9119 d8bc
00000120: 98b9 0abb 5032 ee3c 169c f73d 3017 1dbb
00000130: 472d ca3a 4b44 7f3c 614c 69bd d904 84bd
00000140: b3d1 b53d 64e8 aebd 9d10 61ba 99bd b23c
00000150: a32c 0d3d a893 45bb 06f7 fb3c e465 103c
00000160: f4d5 59bc 0b6b 183d edf0 b4bd b50e 5dbd
00000170: 0d23 c93d d61f 12bd a736 953c bb02 9b3d
00000180: 481d 6a3d df45 9bbd a982 a4bc b22e dabd
00000190: 40e4 b33d 552a a3bd 4569 bdbc 2af0 c4bd
000001a0: 46fc bd3d 0072 0ebd 38e0 1abd f5d4 02bd
000001b0: 0b55 4bb8 2bc4 d3bc a2d3 a83c e2fc 83bc
000001c0: 108a 8ebd 6bbe 95bd 009f 1f3c b9e7 b63c
000001d0: 5a0d 6b3d 8629 78bd b592 8abc ea8a 623d
000001e0: 8ef5 d63d 9fcf 973d 2405 dfbc d036 cbb9
000001f0: 8b64 d8bc 8c93 e83b f113 79bc 208a 953d

actor_mean.4.bias f4 [2]
0.03725291 -0.022379782
00000000: 8296 183d ce55 b7bc
