jsbgym/models/train_saves/ppo_caps_tuned_thr_noVA_4_78323_28-11_18:30:26.pt (torch, 57359 bytes, 14 tensors)

actor_logstd f4 [1, 2]
000000 b2 22 c7 be a7 79 a7 be
       -0.38893658 -0.3271

conv.0.weight f4 [3, 1, 5, 1]
000000 8e 93 12 3f 04 5e 37 bd c7 3d fb bd 7e f1 ec be
       0.572564 -0.044767395 -0.122676425 -0.46277994
000010 de 51 50 3f 8e 79 64 3c 6e e1 8d 3e aa c4 40 3f
       0.8137492 0.0139449965 0.27711052 0.75300086
000020 53 8f 05 be 9b 99 27 3e 31 4d 50 3d 6a 9a ef 3d
       -0.13042955 0.1636719 0.050854865 0.11699374
000030 e2 95 f6 bd fb 5d 40 3f 70 8a aa 3e
       -0.12040307 0.751434 0.33308744

conv.0.bias f4 [3]
000000 bb 22 9e be 89 05 02 3f 88 45 4d 3d
       -0.30885872 0.50789696 0.05011514

critic.1.weight f4 [64, 30]
000000 90 7e 7f bd 4f f4 84 bb 90 00 82 3e b3 d9 86 bc
       -0.06237656 -0.004057444 0.25391054 -0.016461229
000010 5d 1f 81 3e a6 9b d0 3d 94 d8 e6 3d ea c3 c1 3e
       0.2521924 0.101859376 0.11271778 0.37844783
000020 ae 6b 98 bd 9c 6e 65 bd 10 ba eb bd 66 36 25 3d
       -0.07442413 -0.05601369 -0.11510098 0.04033508
000030 d1 64 f9 bc d4 50 a6 3d 6b c1 19 be 0c a7 96 3c
       -0.03044358 0.081208855 -0.1501519 0.018390201
000040 9b 38 90 bd cf 3d 26 3e 45 63 c3 bd 8d 37 5d 3d
       -0.07042047 0.16234516 -0.095404185 0.054008055
000050 f6 c3 04 be a0 b1 9a 3e 4d ba c9 3c 9f 35 06 3e
       -0.12965378 0.30213642 0.024624968 0.13106392
000060 2a 82 52 be 62 bd 12 bd 1f c2 86 bd 9b 90 4f be
       -0.20557466 -0.03582514 -0.065799944 -0.20270006
000070 df 8d 72 3d 1c 9e 2f 3e fc cd dc 3d e6 17 f9 bd
       0.05921733 0.17150158 0.10781476 -0.121627614
000080 fc 91 f3 bc 63 86 c0 3d be 8f a8 be a1 ea ac be
       -0.029732697 0.09400632 -0.32922167 -0.33772758
000090 c9 88 14 bf 26 6d 39 bd bc 29 9f bd 55 cb 17 3e
       -0.5802122 -0.045270108 -0.07771632 0.14823659
0000a0 4f 8e f6 bd 4d da fb 3e ab b3 db 3d 95 95 cc 3d
       -0.12038862 0.49189988 0.10727628 0.09989468
0000b0 98 15 74 3e a7 74 2b 3e d1 2c c4 3d f9 1e 59 3e
       0.23836362 0.16743718 0.095788606 0.21203221
0000c0 a0 f3 7a bd 60 03 83 3d 17 65 f4 3b e7 66 0a 3e
       -0.061267495 0.06397128 0.00745834 0.13515817
0000d0 6e ea 23 3d f6 92 03 3d 6e 4a 57 be e6 48 60 bd
       0.04001849 0.032122575 -0.21024486 -0.05475702
0000e0 64 fd 79 be 57 24 2f 3e 2e 41 a0 bd 48 d9 b7 3d
       -0.24413067 0.17103706 -0.07824932 0.0897699
0000f0 02 5c 2c 3d e6 e9 c0 bd 74 dc 6a be 08 3b bf 3e
       0.042079933 -0.094196126 -0.22935659 0.37349725
000100 f3 db e0 3d 0c 3b 03 be f0 39 85 3d 22 08 b4 3d
       0.10979452 -0.12815493 0.06505191 0.08790614
000110 af c0 c9 3d 81 5a 89 bc a8 4f 8b 3d 41 19 0c 3e
       0.098512046 -0.016766788 0.068023026 0.13681509
000120 66 e5 1d 3e 73 f2 88 be 2c 94 f6 bc c8 fe f0 3d
       0.1541954 -0.26747474 -0.03009995 0.11767346
000130 5a 5c 9c 3d 1d 08 c3 3e f8 5b e1 3c de 15 c9 3d
       0.07634802 0.38092127 0.027509674 0.09818624
000140 bb a1 6f be 64 75 e8 3d 6f 4c a5 be 3a 7b ac bc
       -0.23401539 0.113505155 -0.32284877 -0.021054853
000150 42 93 1a 3e 2a 22 47 be 8e 4a d4 bd b9 01 48 bb
       0.15095237 -0.19446626 -0.10365783 -0.0030518605
000160 f3 0e c2 3d ed 83 b1 be 87 ef a9 bd 7a e1 8e be
       0.094755076 -0.34670964 -0.08297639 -0.279064
000170 48 8f b1 3d 1c 17 0f be 8f e4 93 3d b3 df 85 3e
       0.08669907 -0.1397366 0.072213285 0.2614723
000180 a8 d1 92 bd a8 d8 86 bc b7 b4 09 3b fb 23 a2 3d
       -0.07168895 -0.016460732 0.0021012255 0.07917019
000190 e8 34 04 3e 7d d3 e4 3d 70 d2 eb bc 5d 22 52 3e
       0.12910807 0.11173151 -0.028786868 0.20520921
0001a0 35 73 9c bd f1 e6 a3 bd 74 1f 5e 3e 8c c3 32 3e
       -0.076391615 -0.08003033 0.21691686 0.17457408
0001b0 0c 5b 6c be ea 79 9f 3e cf 64 65 bd b8 db 82 3e
       -0.23081607 0.311477 -0.05600434 0.25558257
0001c0 bb b8 c1 3d 94 8f 9e bb 0d 5b 58 3e 25 7a 39 3e
       0.09459063 -0.004838893 0.21128483 0.18113
0001d0 ce f5 d3 3d c4 33 2d 3e 66 19 a9 bc bc 36 71 be
       0.10349618 0.16914278 -0.020641994 -0.23556036
0001e0 e6 f8 51 3d a3 94 c8 3e 75 e0 6f 3d 16 12 b1 3e
       0.05126276 0.391759 0.05856367 0.3458411
0001f0 f8 1a 98 3e 4b a3 07 3c 53 f3 87 be 68 94 a1 3e
       0.29708076 0.008278678 -0.2655283 0.31558537
000200 3d a9 cc bb 59 6e 2d 3d 88 21 95 bd ab 51 df bc
       -0.0062457607 0.042341564 -0.07281786 -0.027260622
000210 99 ab fc 3c 89 4a 1f be 72 c3 e8 bd 21 25 91 bd
       0.030843543 -0.15555777 -0.11365403 -0.0708716
000220 9c e6 0c bf 27 5e 89 3d f1 33 3a bd 4b 84 e5 bd
       -0.5503938 0.06707411 -0.04545969 -0.112068735
000230 eb 7d bd bd 80 bc fa 3d 06 1c 7c 3e 12 01 a4 3d
       -0.092525326 0.12242985 0.24620065 0.08008017
000240 51 55 00 be c9 06 91 3a 69 cb e4 bd 23 27 3f bd
       -0.12532546 0.0011064644 -0.1117161 -0.046668183
000250 47 e2 9d be 7d 42 1b 3d 08 c1 28 be af bb 95 bc
       -0.30836698 0.037905205 -0.16479886 -0.018277971
000260 27 08 a6 3c ce 8a 9a bd 2e c1 0f bd fd c8 41 be
       0.02026756 -0.07546006 -0.03509634 -0.18924327
000270 30 f2 4d 3e 54 65 3c 3d 8d 2e 81 3d 59 4d 95 3d
       0.20111918 0.04599507 0.06307707 0.072901435
000280 d5 2e ca bd fb cb 3c 3e 76 8f b5 3d dd 9a ae 3d
       -0.09872214 0.18437187 0.088652536 0.085256316
000290 1f 3a 8a bc e4 58 d1 3d 23 25 d4 bc 93 a1 3a be
       -0.016873417 0.10222033 -0.025896614 -0.18225698
0002a0 c6 a4 0f bd ff 83 2d 3c 1b 36 be 3d fb e2 28 3e
       -0.03506925 0.010590552 0.092876635 0.16492836
0002b0 56 3f 57 be 2b ce 0a 3e d9 79 c0 3d 0a cd 18 be
       -0.21020254 0.1355521 0.093982406 -0.14921966
0002c0 00 c3 5a 3e 90 85 d2 bd 10 cb 87 be 09 79 7a 3d
       0.21363449 -0.10279381 -0.26522112 0.061150584
0002d0 86 6c 9c 3c d0 48 ab 3e 77 1f 7f 3e 10 f9 b5 3d
       0.019094717 0.3345399 0.24914347 0.088853955
0002e0 53 2d 89 bb f8 6c c2 3b bb 35 d3 3e 46 a4 92 bc
       -0.0041863113 0.0059334002 0.4125193 -0.017900597
0002f0 e9 e9 b6 bd 0d 28 fb bc 06 10 9f 3d 7c 2a 97 3d
       -0.089313336 -0.030658746 0.07766728 0.0738115
000300 0e 95 21 be ef 2a 7a 3e df 30 b9 bd e8 ed 70 be
       -0.15779516 0.2443044 -0.090425245 -0.23528254
000310 16 35 27 bc 37 f1 72 bd b9 00 f3 3d 3b 3d d4 3c
       -0.010205528 -0.05931207 0.11865372 0.025908103
000320 d2 5d a3 bd 3d b7 8e 3d ec 14 7c be 16 49 38 bd
       -0.07976879 0.06968544 -0.24617356 -0.044991575
000330 bc d4 8c 3e ed f6 4b bd d5 e7 40 be 69 49 15 3e
       0.27506053 -0.049796034 -0.18838437 0.14578785
000340 78 89 6a 3d 83 e1 64 bd df af bf bd ce c2 fe 3d
       0.057260007 -0.055879127 -0.093597166 0.124395
000350 bc b1 59 bd 8a d4 9b 3e 61 22 d3 3c 9b 81 0f be
       -0.053148016 0.30435592 0.02577323 -0.14014284
000360 2b 5e c8 3c 8b b9 bc bd f1 51 5f bd 12 e9 4e 3b
       0.024458965 -0.09215077 -0.054521505 0.0031572026
000370 d5 10 a7 be 1b 8d 0c be 3d a7 57 3e 73 56 5c bd
       -0.3263003 -0.13725702 0.2105989 -0.053793382
000380 f1 3f 8b be 3a fb 68 3e e9 af 8e 3c ca 69 57 be
       -0.2719722 0.22752085 0.017417865 -0.21036449
000390 5b 2e 73 bc fa 71 d6 3d 94 45 c9 3d 91 a4 8f be
       -0.014842595 0.10470958 0.09827724 -0.28055242
0003a0 51 dc 2e be 7a 31 06 bd ea df b1 3d 1c b3 a4 bd
       -0.17076232 -0.03276203 0.08685286 -0.08041975
0003b0 c0 35 37 be ed 48 a0 bd 44 1a ca 3d 10 b8 41 3e
       -0.17891598 -0.078264095 0.09868291 0.1891787
0003c0 63 9a 2d 3e e7 e9 d6 3d 08 28 98 3d bb 33 9c bd
       0.16953425 0.10493832 0.0742951 -0.07627054
0003d0 82 74 ff bc 59 af d2 3d 9e c5 97 3e 00 c6 16 be
       -0.031183485 0.10287351 0.29642957 -0.14723969
0003e0 2b 1b 01 3a b0 1a 87 bd b8 5d 0a 3e e2 2e 14 3c
       0.0004925008 -0.06596887 0.13512313 0.009044381
0003f0 31 12 b6 bc b0 20 08 3e 08 6d 91 be 2b e7 23 bd
       -0.022225471 0.1329372 -0.28403497 -0.04001538

critic.1.bias f4 [64]
000000 5c 83 6e bd 70 e4 53 bd 8c 24 b7 3d 18 42 4b 3e
       -0.058230743 -0.051731527 0.08942518 0.19849432
000010 3e ea 24 3c 99 9b a8 3d 81 4d d5 bd 4f d1 01 be
       0.010065613 0.08232803 -0.10415173 -0.12677501
000020 5c f7 26 3e 60 5b a3 bd 2f 58 ef 3d 87 56 6a bd
       0.16305298 -0.07976413 0.116867416 -0.057211425
000030 f6 b6 d0 3d 8f 95 83 3d 6a c1 8d 3d a3 32 09 3e
       0.10191147 0.064250104 0.069216564 0.13398223
000040 43 0f df 3d 47 17 e5 bb 31 c1 96 3d 8b da eb 3d
       0.10891583 -0.0069913003 0.07361067 0.11516293
000050 31 63 b8 3d de e8 07 3c de da 3d 3d 2f ec 80 3d
       0.09003294 0.008295266 0.046351306 0.062950484
000060 46 46 17 3e ac 95 d3 3d 89 9e 5a bc b1 d6 84 3d
       0.14772901 0.10331282 -0.013343462 0.06486262
000070 ab 46 32 3d 70 38 6c bd 00 d2 30 be d9 20 08 be
       0.043524425 -0.05767101 -0.17267609 -0.1329378
000080 b8 a7 28 3e a6 05 58 3d 95 a3 d2 3d c3 87 21 be
       0.1647023 0.05273976 0.10285107 -0.15774445
000090 eb 91 35 3e d1 74 0a 3e a4 d5 ad 3d 95 1d 1a bd
       0.17731445 0.13521124 0.08488014 -0.037625868
0000a0 ea 05 2a 3c d3 0e 3f be e2 de 59 be 52 c0 99 bd
       0.010377387 -0.18657999 -0.2127643 -0.07507385
0000b0 f3 02 63 3e 42 4e c0 bd f5 36 bc 3d a0 ac 9c bd
       0.22169094 -0.093899265 0.0919017 -0.07650113
0000c0 f0 c2 cf 3d 97 81 27 3e 17 3a 76 3d 36 68 94 3d
       0.10144603 0.16358028 0.060113993 0.07246439
0000d0 63 e4 0c 3e 17 6d f4 bd 90 88 5f be e6 72 ed 3d
       0.13758998 -0.1193487 -0.21829438 0.11594181
0000e0 c4 43 c3 bd a9 17 2b 3d c6 ed ab 3d 22 8e 69 3d
       -0.0953441 0.04177061 0.08394961 0.057020314
0000f0 00 a1 3c 3e 6c 97 97 3d c5 9c 7c 3e c8 d9 86 3c
       0.18420792 0.07401928 0.24669178 0.016461268

critic.3.weight f4 [64, 64]
000000 1f fe 9f bd a3 25 1b be 78 b4 18 be 89 4c b2 3d
       -0.078121416 -0.15151076 -0.14912593 0.08706004
000010 99 5c 92 bd 01 73 0a 3e e1 7f 25 3d 44 53 64 be
       -0.07146568 0.13520433 0.040405158 -0.22297388
000020 8b 61 aa 3c e5 e7 f3 3d 62 45 89 3e 07 81 72 bd
       0.020798465 0.11909465 0.26810747 -0.05920508
000030 bb e7 8f be 2f 71 20 be 5d fe 9a bd 06 26 ed bd
       -0.28106484 -0.15668176 -0.07568047 -0.11579518
000040 91 e9 94 3d 02 53 61 3e 5d b9 16 be 41 b0 8e bc
       0.07271112 0.22004321 -0.14719148 -0.017418029
000050 f1 d1 8d 3e 4d b6 29 be d0 eb a7 3e 3d 9c b9 bc
       0.27699235 -0.16573448 0.32797098 -0.022657508
000060 64 19 86 3d f6 c0 09 3c 85 5b 1a 3d d6 26 ca 3e
       0.065478116 0.008407822 0.037684936 0.39482754
000070 e9 24 e8 3d 35 be 29 3e f4 ff e0 3c 5f 33 9e bc
       0.11335165 0.16576464 0.027465798 -0.019311605
000080 0f 09 a3 3d aa 5a c2 3e c1 ce b0 be 3a 97 8e 3c
       0.07960712 0.37959796 -0.3453274 0.017406095
000090 d7 95 43 be 5f 78 93 3b 98 af 56 be f6 ef a7 3e
       -0.19100128 0.0045004333 -0.20965421 0.32800263
0000a0 e5 78 42 3e 34 bc cb 3d 76 ba 2c bd d3 27 88 bc
       0.1899143 0.09948006 -0.04217001 -0.016620552
0000b0 5d c3 5e 3e ad 28 33 be 1b a0 61 bd 74 eb 37 3d
       0.21754213 -0.17495985 -0.05508433 0.04490228
0000c0 28 e7 9e be f0 e2 86 be 20 ab 23 be 77 b3 6f 3e
       -0.31035733 -0.26345015 -0.15983248 0.23408304
0000d0 cd 0a d2 bd 64 12 fc 3d d4 68 87 bd f5 ba c9 be
       -0.10255966 0.12308195 -0.06611791 -0.3940045
0000e0 9a 9e 8d 3e 08 25 40 bd 70 71 a4 bd 35 c0 d7 3d
       0.27660066 -0.046910316 -0.08029449 0.105347075
0000f0 72 ec 91 3c 3a ca 7f be 37 2d 1a 3e 29 64 cc bd
       0.017812941 -0.24979487 0.1505631 -0.099800415
000100 2a e4 bb bb 61 14 ac be 0d c5 3a be 8c 4a 09 be
       -0.0057339864 -0.33609298 -0.18239231 -0.13407344
000110 d4 58 50 3e 7c d2 e5 be 18 d6 10 3d a2 36 51 3e
       0.20346385 -0.4488715 0.035360426 0.20430997
000120 07 c3 37 be c9 d1 e4 bd a9 1b 33 3e 5c da a0 3d
       -0.17945491 -0.11172826 0.1749102 0.07854149
000130 5f 27 5e 3d 25 d7 4b bb e8 07 08 3d 83 f5 14 3e
       0.054236766 -0.0031103578 0.033210665 0.1454678
000140 46 3c ad 3e ca c4 a7 3c 8c a0 fd 3c e7 9f 4c be
       0.33835047 0.020479579 0.030960344 -0.19982873
000150 b2 e4 25 3c fd a0 9d 3d 67 c8 4e 3e 1a 94 d6 3d
       0.010125326 0.07696722 0.20193635 0.10477467
000160 6d e7 a4 3e 4f 71 70 bd d7 ce cb 3b 70 ab 57 3d
       0.32207814 -0.05870181 0.0062197256 0.05265373
000170 ef 30 0d ba 10 80 97 3e 10 61 f5 3d 71 af 83 bd
       -0.0005386015 0.2958989 0.11981404 -0.06429947
000180 d7 82 75 3e cb cd 93 bd 9c d2 55 bc 90 9d 98 3d
       0.23975693 -0.07216986 -0.0130507015 0.07451928
000190 bf e0 f5 3c d5 e9 a5 3c 71 04 a8 be 5b f3 54 be
       0.030014394 0.020253101 -0.3281589 -0.20795958
0001a0 f8 c9 5a bd 12 a0 bc bc 92 71 23 be 03 07 99 3d
       -0.05341527 -0.023025546 -0.15961292 0.074720405
0001b0 7b 95 c3 be 5a 68 c1 3e 98 f5 88 bd c4 6d d4 3c
       -0.38199982 0.37774926 -0.06687468 0.025931247
0001c0 82 af a5 bd f7 37 0e bc c1 fd 45 3e 91 72 a8 3d
       -0.08090116 -0.008680335 0.1933508 0.08224977
0001d0 69 2e d8 bd ae 21 77 bd 5f 73 69 be 95 ea 58 be
       -0.10555727 -0.060334854 -0.22797917 -0.21183236
0001e0 2c fd 1d be 7a 54 1a bd 47 ba f9 3c 75 d4 45 be
       -0.15428609 -0.03767822 0.030484332 -0.19319327
0001f0 ea 27 f9 bd 12 37 85 be 16 00 4a be ba 9e 02 bd
       -0.12165816 -0.26018578 -0.19726595 -0.031889655
000200 84 c9 1a be 5b 0f 66 be 4d 70 a6 be 96 c8 80 be
       -0.15115935 -0.22466795 -0.32507554 -0.25153035
000210 de c7 16 3d b3 7c c8 3d 20 13 28 3e 03 1b 06 3e
       0.036811702 0.097894095 0.16413546 0.13096242
000220 e1 2c f4 3b ee a6 14 be 19 28 ec bd 13 19 25 3e
       0.007451639 -0.14516804 -0.115310855 0.16122846
000230 21 90 9d 3e 62 9f 38 3e d0 6a e7 bc de a9 1d 3d
       0.30774024 0.1802955 -0.028249174 0.038492076
000240 27 ff 5b 3d 51 0b 53 3d ba 39 a3 be a4 15 90 be
       0.05371013 0.051524464 -0.3187998 -0.2814151
000250 48 c3 07 be 09 e2 56 3d 23 e9 c4 3d 96 87 8b 3d
       -0.13258088 0.052461658 0.0961478 0.0681297
000260 88 2d 08 be 1a d5 e7 bd 4f 00 dd 3d c1 3a 19 3e
       -0.13298619 -0.11319943 0.107910745 0.14963819
000270 31 63 6b 3e a7 93 be 3e 07 6f ae 3d fd 19 33 3e
       0.22987057 0.37222025 0.085172705 0.17490382
000280 aa ff ca be 7b ab b3 be c5 5e c2 3e d6 86 57 3e
       -0.3964818 -0.35091767 0.37962928 0.2104753
000290 cb 32 80 3d 27 ee f7 bd 96 d4 69 3e 0c a9 93 3d
       0.06259688 -0.12105971 0.22835001 0.072099775
0002a0 8f 88 38 3e c0 be 6e 3e 0f 4f 55 3e 1b 83 3c 3e
       0.18020843 0.23314953 0.2083094 0.18409388
0002b0 d9 c7 30 3d 5c ed 98 bd 09 39 0c be 33 be b0 be
       0.04315934 -0.07467148 -0.13693632 -0.3452011
0002c0 93 be be be f5 77 7a bd a7 70 4b bc f6 0a bd bc
       -0.37254772 -0.061149556 -0.012416995 -0.023076516
0002d0 69 e3 3a be 03 23 91 3e 2d 20 55 3d 93 89 19 3c
       -0.18250813 0.28347024 0.05203264 0.009371179
0002e0 c6 93 43 bd 00 3c 2b bc 96 86 83 3c 9d 02 13 3e
       -0.04774835 -0.010451317 0.016055387 0.14356466
0002f0 64 91 27 3e a6 22 00 3e 3c 8e 95 3d bd 65 e0 bd
       0.16364056 0.12513217 0.0730252 -0.10956905
000300 26 ff 9e 3e fc 0f 3c bd 0b ed 07 bd 41 ff 47 3d
       0.31054038 -0.04591368 -0.033185046 0.048827413
000310 25 a9 2a 3e 3a 8c 07 be b8 ad 62 be 03 ae 64 3d
       0.16666086 -0.13237086 -0.22136581 0.055830013
000320 d7 69 66 3e c0 f0 45 3e b2 d7 ba 3e 96 78 85 3e
       0.22501312 0.1933012 0.36492687 0.26068562
000330 c1 7e 24 3e ed ba 4d be 81 36 80 bd 35 d2 b7 3d
       0.16063978 -0.20090838 -0.06260396 0.08975641
000340 de c1 16 be ec b7 70 bd c2 f2 01 be 78 2a 02 3e
       -0.14722392 -0.05876915 -0.12690261 0.12711513
000350 ab eb b4 bc bf eb c1 3d 67 47 82 be 65 13 ce 3e
       -0.022085031 0.09468793 -0.254451 0.40249172
000360 76 98 5a bd 90 10 38 bd 5c c4 71 bd e7 49 ba be
       -0.053368054 -0.04493767 -0.059025154 -0.36384508
000370 c8 8a 08 be 5d a9 85 3c c8 85 ee bc 84 28 f9 bb
       -0.13334191 0.01631611 -0.029116526 -0.007603707
000380 32 76 b2 3c 62 88 9b 3e aa 39 9b 3c a5 0b 1b 3e
       0.021784876 0.3037749 0.018948395 0.15141161
000390 2b 5c bd 3d 46 f2 d5 bd 6d e5 70 3d b4 4f b8 3d
       0.09246095 -0.104466006 0.058812547 0.08999577
0003a0 df 59 89 3d a3 13 af 3d 2f 4f ad bb 98 dd e9 bd
       0.06706595 0.08548667 -0.0052889804 -0.11419219
0003b0 5a 5c 7b be d5 e5 98 be 2e 9a a1 3d 5a 1a 0b be
       -0.24546948 -0.29862848 0.078907356 -0.13584271
0003c0 f1 ba 5b be 06 88 af be 86 89 bd 3d 96 03 be 3d
       -0.21458031 -0.34283465 0.09254746 0.09278028
0003d0 df 21 58 3d 1a 10 f2 bd aa 56 67 bd 43 dc 91 3e
       0.052766677 -0.118194774 -0.056479134 0.2848836
0003e0 69 85 4a 3e 15 bd 49 be 1a fd d6 bd 7f 1b 91 bd
       0.19777454 -0.19701035 -0.10497494 -0.070853226
0003f0 a3 77 47 be 60 0f 65 be 42 30 16 3e de 6c 6e be
       -0.19479232 -0.22369146 0.14666846 -0.23283717

critic.3.bias f4 [64]
000000 56 e0 98 3d 42 42 d6 bd 9e a5 1b be e2 6a b0 3d
       0.07464664 -0.104618564 -0.15199897 0.08614136
000010 f7 2f 8e bd c3 b1 c4 3d af 2a 96 3d 48 a8 c0 3d
       -0.06942742 0.09604218 0.0733236 0.09407097
000020 6d 64 ad bd d0 f7 97 bd f3 00 94 3d 7a e4 e4 3d
       -0.0846642 -0.07420313 0.072267435 0.11176391
000030 bc 28 b8 bd 9c d4 55 bd 3e cf 85 3d d4 cc c6 3d
       -0.089921445 -0.052204713 0.06533669 0.097070366
000040 f7 c4 8a 3d 1e 94 8e bd 68 bf fb bd b8 27 88 3d
       0.06775849 -0.06961845 -0.12292367 0.06648201
000050 a8 a6 70 bb 1f 0e 06 be 82 79 b1 3d 5c 4b a8 bd
       -0.0036720429 -0.13091324 0.08665754 -0.08217499
000060 b4 d7 95 bd fd 79 b2 bd 02 d1 5f 3d fd ae 4c bc
       -0.07316533 -0.08714674 0.054642685 -0.012492892
000070 e6 9b ca bd 86 cc 28 3d 89 cf e0 bd 4a f2 9e 3d
       -0.098930165 0.041210674 -0.10977084 0.07761057
000080 02 bc bb 3d ed 95 6c 3d df a1 cd bd 31 c1 a9 3d
       0.09166719 0.057760168 -0.1004064 0.082888015
000090 6e b4 dd bd fd 3e ce bd 49 d2 57 bc 92 b3 67 3d
       -0.1082543 -0.10070608 -0.0131726945 0.056567736
0000a0 15 3a f0 3d 4a 8b 69 3d 3c 97 cb bd f9 14 80 bd
       0.11729828 0.057017602 -0.09940955 -0.06254
0000b0 fa 73 02 3e 39 50 5b 3d 06 4b 6d bd 4b 1a 19 be
       0.12739554 0.053543303 -0.057932876 -0.14951436
0000c0 b1 08 e1 3d 6b 2e 38 bd 98 d8 92 bd d4 4a 1f be
       0.10987986 -0.044966143 -0.07170218 -0.15555888
0000d0 47 31 c1 bd a0 97 92 bd 5f f6 d5 bd 8b 34 ae 3d
       -0.09433227 -0.071578264 -0.10447382 0.085061155
0000e0 90 21 fa 3d 4a d4 bb 3d 68 1d fa 3d 06 8b d9 bd
       0.12213433 0.0917135 0.1221264 -0.1062222
0000f0 17 d4 ce bd ab 35 af 3d 26 51 48 3d f4 1b 4c 3d
       -0.10099047 0.08555158 0.048905514 0.049831346

critic.5.weight f4 [1, 64]
000000 7e ef c8 bd ae 71 fa 3d 07 d9 6e 3d 0a fb c7 bd
       -0.098113045 0.12228714 0.058312442 -0.09764679
000010 61 33 ee 3d fb 31 22 be bc 5e a3 be 71 f0 bc 3a
       0.116308935 -0.15839379 -0.31908214 0.0014414919
000020 b8 23 19 3d af c6 48 3e 15 ce 83 bd fa f7 cc bd
       0.03738758 0.19607042 -0.064357914 -0.10008235
000030 3f bc 09 3e c7 66 53 3e 02 23 ca bd ed f6 92 be
       0.13450716 0.20644675 -0.098699585 -0.28704014
000040 d0 2c 0a be d4 38 93 3e 4a 93 94 3e 73 36 13 be
       -0.13493657 0.28754294 0.29018623 -0.1437624
000050 92 a8 8b be 61 ae 88 3e f1 6f d6 bd 0a d5 2d 3e
       -0.27277046 0.2669554 -0.1047057 0.16975799
000060 4b 57 92 3d e2 0b a5 3d b5 89 f3 bd 54 61 01 3e
       0.07145556 0.08058907 -0.118915 0.12634784
000070 b9 2e cd 3d 9c e9 6c be 92 90 7a 3d 7c 34 d0 bd
       0.10018677 -0.2313599 0.06117303 -0.101662606
000080 5c 36 31 bd a5 91 f1 3b 43 48 d6 3d a6 02 ec bd
       -0.04326473 0.0073720985 0.104630016 -0.11523943
000090 19 8a 39 3e ec 46 47 3d 22 ea 94 bd a3 a2 99 bd
       0.18119086 0.04865162 -0.0727122 -0.075017236
0000a0 1b 8b 53 bd 1e 21 f9 bc 04 f8 e7 3d 73 df d4 3c
       -0.051646333 -0.0304113 0.11326602 0.025985455
0000b0 79 6f 55 bd d3 e1 7a be 98 ed 98 3d 73 17 0c 3e
       -0.05210826 -0.24500208 0.074671924 0.1368082
0000c0 b5 3a 3c be fa f8 14 3e be 4c 12 3e 0e ab 85 3e
       -0.1838177 0.14548102 0.14287087 0.26107067
0000d0 64 49 8b 3d cb df b3 3d d3 80 0d 3e f6 d4 21 be
       0.068011075 0.087829195 0.13818674 -0.15803894
0000e0 01 94 a0 bd 0b 5d 60 bd f0 2a cd bd 4c f0 e8 3d
       -0.078407295 -0.054776233 -0.10017955 0.11373958
0000f0 13 b1 60 3d 2b 13 05 be 51 05 cb bd 0e f8 a5 bd
       0.05485637 -0.12995593 -0.099131234 -0.08103953

actor_mean.0.weight f4 [64, 30]
000000 4b ed fe 3d 6f 41 b9 3b 5b 88 89 be 0d c2 6c bd
       0.12447604 0.0056535522 -0.26861843 -0.05780225
000010 1a 0a e0 3d 82 c4 f8 3b cf 85 d1 3c be 68 25 be
       0.10939427 0.007591785 0.0255765 -0.16153237
000020 81 d2 94 bd cd 79 6a 3e 05 8b 37 3e 93 83 00 be
       -0.07266713 0.22898026 0.17924125 -0.12550192
000030 f5 56 a3 3e e8 ed 44 be 5c 05 ab 3d 5c 61 24 be
       0.3190228 -0.19231379 0.083506316 -0.16052765
000040 15 27 8d 3e bd 8c 12 3e a3 9f 41 3e a0 77 8d 3d
       0.2756888 0.143115 0.18908553 0.06907582
000050 38 4d 3c 3e 78 fb dd bd 8e 03 8c 3d 94 37 95 be
       0.18388832 -0.108389795 0.068366155 -0.29143965
000060 a0 f1 13 3e cc da 40 be aa 9c 42 bd 0d 57 b7 3e
       0.14447641 -0.18833464 -0.047512688 0.35808602
000070 1e 83 17 3d 99 20 1e bd 87 90 0f be e4 2a a0 be
       0.036990277 -0.038605306 -0.14019977 -0.31282723
000080 7e 37 99 bd a7 2e 80 be da 13 0f bc a6 20 41 be
       -0.074812874 -0.25035593 -0.00873276 -0.1886011
000090 f1 c1 88 be c2 c4 d7 bd 5e b8 b3 bd 7f ff 4c be
       -0.26710466 -0.105355754 -0.087753996 -0.20019339
0000a0 bb b6 8c 3e b4 c7 5c bc 67 05 1d bc 60 7b 1f 3e
       0.27483162 -0.013475347 -0.009583808 0.15574408
0000b0 c9 5b 4f 3d 33 14 7e 3c ab c9 75 3e 53 43 ad 3d
       0.050624643 0.015507746 0.24002711 0.08460107
0000c0 0c 6e fa 3d 0b 53 d0 3d b6 8d 0f be b6 b5 81 3e
       0.12228021 0.10172089 -0.14018902 0.25333947
0000d0 6d 8b 9f 3d f4 b0 6a 3d 31 92 22 be 25 ff 05 3e
       0.07790265 0.057297662 -0.1587608 0.13085611
0000e0 84 ec 19 be 1b e2 b0 be 56 e2 44 be b1 ac 91 3c
       -0.1503163 -0.34547505 -0.19226965 0.017782541
0000f0 22 dd 66 bd fd d4 2c 3e cb ee 22 3d d3 79 6e be
       -0.056363232 0.16878124 0.039778512 -0.2328866
000100 39 9a be 3d 8e 5c 6c 3e 16 17 22 3c b6 40 13 bf
       0.093067594 0.23082182 0.009893199 -0.57520616
000110 f8 ec b7 3c 19 94 e8 bc 36 64 00 3f 62 bc 47 3d
       0.022451863 -0.028390931 0.5015291 0.04876364
000120 48 72 5c 3b ef b4 b8 be d1 b4 8f 3d 85 a9 5b 3e
       0.0033637453 -0.3607554 0.0701691 0.21451385
000130 1c de 19 3f a7 a0 18 3c 73 92 c5 3d 16 b0 dd bc
       0.60104537 0.009315646 0.096470736 -0.027061503
000140 63 7b 22 3e f2 ce ae 3e e1 71 8c 3d 41 4b 39 bd
       0.15867381 0.34142262 0.06857658 -0.045237783
000150 4c 87 25 be 73 c1 34 3d 59 d4 6a 3e f1 a7 68 3d
       -0.16164893 0.0441298 0.22932567 0.056800786
000160 2c e0 aa 3d c5 d6 d7 3d d8 5b a1 be 7c ef 6b bd
       0.08343539 0.10539011 -0.31515384 -0.057601437
000170 f8 32 70 3d 37 1d 50 3e e4 d3 5b bd c4 f2 ab bc
       0.058642358 0.20323645 -0.05366887 -0.020989783
000180 00 0f 9e bd 89 f1 d8 bd bd 7f 56 3e 68 25 c3 bd
       -0.07717705 -0.10592944 0.20947166 -0.09528619
000190 5d 61 9e be 89 da ba be 49 91 55 bd f9 40 21 be
       -0.30933657 -0.36494854 -0.052140508 -0.15747441
0001a0 74 11 c7 3d 90 cb 6f 3d 65 57 45 3e 35 ef d2 bd
       0.09720126 0.05854374 0.1927162 -0.10299531
0001b0 9c a3 c6 3d b2 6b 70 3e d2 b8 27 3e 25 59 89 bb
       0.09699175 0.23478583 0.16379097 -0.004191535
0001c0 91 d3 9c bc 06 05 88 3e 7c ef a9 3c c0 d1 8e bd
       -0.019143851 0.26566333 0.020744078 -0.069736004
0001d0 9a 65 16 bc 35 7c 90 be 73 64 e8 be 7b 8b 4a bd
       -0.009179497 -0.28219762 -0.45389137 -0.049449425
0001e0 4a 8b f3 3c 6d 42 92 3d 22 c0 84 be 58 fc 3f 3d
       0.029729504 0.07141576 -0.25927836 0.046871513
0001f0 16 cb bf 3d fd 8f 4c bd fc f1 74 3d b8 69 f9 bd
       0.093649074 -0.049942005 0.059801087 -0.121783674
000200 42 20 ba bd 37 95 34 be 67 d2 06 3f 88 69 7a bc
       -0.09088184 -0.17635046 0.526648 -0.01528395
000210 1a 08 54 be ed 2e e0 3d ab b4 fa 3d 11 e0 46 3d
       -0.20706216 0.109464504 0.12241491 0.04855353
000220 df 85 c2 3e 48 d9 87 3e 0a 70 3e be f5 97 82 bc
       0.3799276 0.2653296 -0.18597427 -0.0159416
000230 cb e9 84 be ae 18 af 3d 35 70 b4 3d 1f bc 1a 3d
       -0.2595962 0.08549629 0.08810464 0.037777063
000240 d3 3b 6b 3e 2f f0 fa 3d 94 7e 8a 3e ae 00 18 3e
       0.2297204 0.12252843 0.27049696 0.1484401
000250 58 40 33 be 91 e3 1f 3e a1 ed 22 3e d6 4f 02 be
       -0.17505014 0.15614153 0.1591096 -0.12725767
000260 e3 36 6b bd 2b 15 29 bd a6 0e 3c 3c 6d 5a 81 3d
       -0.05742539 -0.041279953 0.011478102 0.063160755
000270 33 ce d1 bd 7f 61 88 3e 3a 6a 04 3d 06 85 45 3d
       -0.102444075 0.26636884 0.032327868 0.048222564
000280 5e 02 cc 3c f4 55 f8 3d 6c 6d 92 bd 8a 0c 0c be
       0.024903473 0.12125769 -0.07149777 -0.13676658
000290 44 3d 8a be e0 b1 9b 3d 46 ba 18 be 08 d1 13 3f
       -0.26999867 0.07602286 -0.14914808 0.5774083
0002a0 f5 0b 14 3e 32 01 6c 3c 63 16 17 3e 7b 01 30 bd
       0.14457686 0.014404582 0.14754634 -0.042970162
0002b0 ce 16 7a bd ae f4 2b 3e b5 b3 1d bc 5f ab fa 3d
       -0.061056904 0.16792557 -0.009625365 0.12239718
0002c0 2b fd 11 3e db 53 09 3e 75 cf f9 bc de 65 1e 3d
       0.14256732 0.13410895 -0.030494431 0.038671367
0002d0 ac a8 4a 3d 46 8b f1 3b 8f 5e 24 be f8 2f 55 3e
       0.049477264 0.007371339 -0.16051696 0.2081908
0002e0 13 ad 19 3e a6 2c 44 bd df 3e 40 be f3 d9 b9 bd
       0.15007429 -0.047894143 -0.18773983 -0.09074774
0002f0 1e 9e d2 bc 93 52 b9 3d cc c1 ce 3c 62 e5 92 3d
       -0.025710162 0.09048953 0.025238894 0.071726575
000300 70 ef 34 be d4 d1 5c bd 31 b5 5a be 51 dd ad bd
       -0.17669463 -0.053911045 -0.21358182 -0.084894784
000310 ad af 94 be a7 72 0c bd 7f 6e 29 be 04 22 21 3d
       -0.2904028 -0.03428903 -0.16546057 0.03933908
000320 f5 13 9b be 03 50 ec 3d 4f 22 01 bf e0 31 12 3e
       -0.30288664 0.115386985 -0.50442976 0.14276838
000330 20 92 a7 be 07 b4 b5 3b 2e 6b 59 be 1c 9e a1 3b
       -0.32728672 0.0055451426 -0.21232292 0.004932178
000340 41 c0 b5 bc 9d fb 4f be 0b 15 16 3d 26 90 17 be
       -0.0221864 -0.20310827 0.036641162 -0.14801082
000350 e6 d4 2e 3e 29 4b 6d 3e b6 47 fa 3d 94 c5 31 3e
       0.17073402 0.23173203 0.12220709 0.17360526
000360 02 e8 4b bb dd 38 b0 be a9 1d 3e 3d 72 36 8d 3c
       -0.003111363 -0.34418383 0.046415005 0.017237876
000370 2a 34 c6 3e f8 9d 40 3e d0 a7 15 3e 90 5c 88 be
       0.38711673 0.1881026 0.14614797 -0.2663312
000380 17 04 a9 bd dd 7c 6c 3d a9 b7 55 3d f0 54 38 bd
       -0.08252733 0.057736266 0.052177105 -0.045002878
000390 1d 7f c5 bd e4 bc 32 3e b5 12 8e 3d 7b f0 2c 3c
       -0.096433856 0.17454869 0.06937162 0.010555382
0003a0 16 a1 bf 3d d5 52 e5 be 8a ab b0 3d cd ea 6b 3e
       0.093568966 -0.44789758 0.086264685 0.23038788
0003b0 c2 f5 5e 3e 37 91 00 bd 74 b7 d7 3d 7a ad ca bd
       0.21773437 -0.031388488 0.10533038 -0.09896369
0003c0 ca 73 2f be 35 13 8d be 07 53 55 3d 8c 13 03 3d
       -0.17134014 -0.27553716 0.052081134 0.032001063
0003d0 f7 7f 88 bd 90 a7 d0 bd d7 db 09 be 3c 36 8c 3e
       -0.06665032 -0.1018821 -0.13462768 0.27385128
0003e0 1f 6f 04 be fb 30 ec bd 1c 22 8f 3e 7c 2c 73 3e
       -0.12933014 -0.1153278 0.2795571 0.23747438
0003f0 b7 1e fc bd 7e e6 fe 3d 83 46 90 3e 9d 70 d4 bd
       -0.12310546 0.12446307 0.28178796 -0.10373042

actor_mean.0.bias f4 [64]
000000 14 8d 0d 3e 65 30 30 bd ed bf 44 3e 2d 9e 32 3e
       0.13823348 -0.043014903 0.19213839 0.17443152
000010 e7 c2 89 3e b4 73 20 3e b2 cb 79 bd 87 4f 59 3e
       0.2690651 0.15669137 -0.060985275 0.21221744
000020 20 81 47 3e 54 ac 3f 3e 36 0d 3a 3e ff 25 84 3e
       0.19482851 0.18718082 0.18169102 0.2581024
000030 08 a0 2e be a2 6c dd 3d d6 32 98 bd 8c 61 36 3e
       -0.17053235 0.10811736 -0.07431571 0.17810649
000040 52 f3 55 3e 79 be 74 3e 8b 44 a4 3c ca 34 50 bd
       0.208936 0.23900785 0.020052215 -0.050831594
000050 5b f5 d7 3d b6 78 81 3e 1d 48 1e be 36 36 95 3d
       0.10544845 0.25287408 -0.15457197 0.072857305
000060 b2 98 e3 3b d5 f6 95 bd 07 59 06 3e 79 91 88 be
       0.006945693 -0.0732247 0.13119899 -0.26673487
000070 a4 2c cc bd eb 73 0e 3c ed 55 b6 3d 00 cf 00 3e
       -0.09969452 0.008694629 0.08903108 0.12578964
000080 75 b3 8a 3e 2b 62 d4 bd 8c b1 80 3d 2c b5 98 3c
       0.2709004 -0.103702866 0.062838644 0.018641077
000090 99 a2 cd bd 58 74 86 3e 3a d9 f4 bd ab 01 6f 3e
       -0.10040779 0.26260638 -0.11955495 0.2334048
0000a0 4c 42 0e 3e 75 84 30 3e 91 ca b9 3d 61 c1 a0 bd
       0.13892478 0.17238028 0.090718396 -0.07849384
0000b0 b5 99 1b 3d da 7f 8b 3c 87 d8 32 be 6b 13 14 bb
       0.037988383 0.017028738 -0.17465411 -0.0022594582
0000c0 0a fb e4 bc 34 1c 9d bd 66 33 77 bd dc 48 1a 3e
       -0.027951736 -0.07671395 -0.06035175 0.15066856
0000d0 98 3e f6 3d 5d 8d 65 bd 67 d7 02 3e df 36 9f 3c
       0.120236576 -0.056043018 0.12777482 0.019435344
0000e0 82 b9 9d 39 b2 d8 40 be 87 ba 7d 3e df 16 1c bd
       0.00030083588 -0.18832663 0.24778186 -0.03810775
0000f0 06 61 2f bd e3 d3 db 3b e8 34 65 be 12 59 98 3d
       -0.042817138 0.0067086085 -0.22383463 0.07438864

actor_mean.2.weight f4 [64, 64]
000000 48 e3 d5 bd db d4 fc bd 66 30 21 ba f2 b5 61 3e
       -0.10443741 -0.123452865 -0.00061488745 0.22042063
000010 9e 7b 95 ba f1 02 c5 3d f1 5c a9 be 3b 88 b3 bc
       -0.0011404639 0.09619702 -0.3307872 -0.021915546
000020 ab ff f9 3d e0 a2 5e 3d bf 4d a9 bd 39 b9 95 be
       0.12206968 0.05435455 -0.08266782 -0.29242876
000030 6a a1 02 be 8a d7 c2 3e 92 92 a7 3e c4 e1 e1 be
       -0.12756887 0.38055068 0.32729012 -0.44117558
000040 fa d4 75 3d 9d 60 36 be b5 80 57 3e 27 2c 98 3e
       0.060017563 -0.17810293 0.21045192 0.29721186
000050 d1 fa 21 be f8 c4 18 be 5f 6d 08 bd 70 0b a3 3e
       -0.15818335 -0.14918888 -0.03330743 0.31844664
000060 5a 38 2d 3d 0f 9f b7 be 09 5e 6e bd 2c 8c 97 3d
       0.04229007 -0.3586354 -0.058195148 0.073997825
000070 10 c4 5a be b3 5b 53 be da 38 01 bc 41 d2 fb 3d
       -0.21363854 -0.20640449 -0.00788709 0.12295962
000080 42 42 fb 3d c3 11 94 bc 32 40 d5 bd 41 96 89 bd
       0.12268497 -0.018074876 -0.10412635 -0.06718112
000090 32 65 ed bd 63 3a b7 bd 4c 9e bc 3e ea 21 72 bd
       -0.11591567 -0.08946683 0.3683952 -0.059114374
0000a0 8e af 21 bb eb fa be bd 18 b1 ec 39 6b 1b 02 3d
       -0.002467129 -0.093252026 0.00045145373 0.03176443
0000b0 d4 f7 e6 bc c4 53 85 3e c9 96 47 be 5a 2d 5b be
       -0.028194346 0.2604047 -0.19491114 -0.21404019
0000c0 7f 82 3c be 55 61 3e 3b 8e 81 7e 3d 17 04 c8 bd
       -0.18409155 0.0029049714 0.06213527 -0.09766405
0000d0 07 ff 06 3e 4d 4a e5 3d 60 61 b4 bd 3a 76 07 be
       0.13183223 0.111958124 -0.08807635 -0.13228694
0000e0 24 4a 49 be 1c 1d a4 be 45 ef 47 3e 8e 80 c5 3d
       -0.19657189 -0.3205346 0.19524868 0.096436605
0000f0 3e d6 1c bd 04 f1 91 be 68 f7 19 3d 94 ff 1d 3e
       -0.038290255 -0.28504193 0.03758946 0.15429527
000100 91 cc a6 3d 88 b3 0a 3e d1 36 57 3e 0f 5f 8c be
       0.08144487 0.13545048 0.21017005 -0.27416274
000110 54 6c 08 3e ed 9a ef bd aa 35 df be 76 4e 2b 3d
       0.13322574 -0.116994716 -0.4359563 0.041822873
000120 e6 e7 81 3e 38 90 cd bd d4 17 da 3e 85 ec 8f 3e
       0.25372237 -0.10037273 0.42596304 0.28110138
000130 3f dd 5a be 17 ae d8 3d 4e 04 d7 be 64 fd 29 3d
       -0.21373461 0.1058008 -0.41995472 0.041501418
000140 b7 29 3c 3e 5a fb 1d 3e 4b 8d ac 3e 61 8f 6b be
       0.18375288 0.15427914 0.33701548 -0.23003913
000150 92 25 b0 bd ce b0 ed 3e 04 4b d3 be 01 f3 6c bd
       -0.08600916 0.46423954 -0.4126817 -0.057848934
000160 90 f5 96 bd d2 38 d4 bd d8 96 e5 3d f3 6d 57 be
       -0.07371056 -0.103624 0.11210412 -0.21038036
000170 17 22 6d 3e e7 ff be 3b ab 2b 04 bd b1 f8 e0 3d
       0.23157535 0.005828846 -0.032268208 0.10984934
000180 16 85 8d be 0b fa ac be 3b a1 80 bd 87 43 b4 3d
       -0.276406 -0.33784518 -0.06280752 0.08801942
000190 4c d5 20 3c b1 a1 98 3e 89 90 82 3d ea 9d a3 3d
       0.009816479 0.2981086 0.06375224 0.07989104
0001a0 95 47 69 bd a4 1d 93 3d b2 21 a9 3d 44 ca ab bd
       -0.05695303 0.07183388 0.0825838 -0.083881885
0001b0 44 f7 47 3d 22 ee 2d be d6 38 1f be 5d 4a 14 be
       0.048819795 -0.16985372 -0.15549025 -0.14481492
0001c0 aa 0e 8b bc f9 03 a8 bd 3d 16 1a be ca 67 02 be
       -0.016974766 -0.08203883 -0.15047546 -0.12734905
0001d0 1d e2 68 3d 71 ca f1 3d 11 c0 c0 be 49 c3 4b be
       0.056856263 0.11806191 -0.37646535 -0.19898714
0001e0 a2 ba 89 3d ed 07 5b be 08 da 12 3e 3e 5e f6 3c
       0.067250505 -0.21389742 0.14340985 0.030074235
0001f0 c3 57 79 3e 7f ee 8e be 0e 6a 00 be 13 08 80 3e
       0.24349885 -0.27916333 -0.12540457 0.2500616
000200 4d 19 a8 bd 64 de cb 3c 6c bc 08 bd 38 b4 09 3d
       -0.08207951 0.024886318 -0.033382818 0.033619136
000210 66 0b be bd 56 d0 b7 3a 03 34 c1 3e f1 fb a1 3b
       -0.09279518 0.0014023881 0.37734994 0.004943364
000220 18 f9 24 bd 86 3f 24 bc 41 4f 28 3e da d3 45 3d
       -0.040276617 -0.010024911 0.16436483 0.04829774
000230 7a ff 41 3e 19 c2 b2 3e c4 ea 5d be ec 0c 0e bd
       0.18945113 0.3491371 -0.21671587 -0.034680292
000240 61 65 2d 3e 4b c9 cc be 5c b4 15 3e c8 f9 15 bd
       0.16933204 -0.39997324 0.14619583 -0.036615163
000250 7d 05 e2 3b e7 ca b2 3d c4 8c 87 3e e0 47 73 3e
       0.006897627 0.08730107 0.26474583 0.23757887
000260 4a 33 61 be f5 c8 cb bd 74 c9 bf 3c 4a 24 8d 3e
       -0.21992221 -0.09950439 0.02341149 0.2756675
000270 d9 3a 32 3e 71 97 e2 be 22 a4 7e 3e 4e de a6 bd
       0.17405261 -0.44256166 0.24867299 -0.0814787
000280 ec 02 68 3d 69 cd 75 be 0c 62 b7 3d fc ef 61 be
       0.05664341 -0.24004139 0.08954248 -0.22064203
000290 41 32 92 3e c7 6f 9b be c4 85 f9 3d a6 4c e8 bd
       0.28553966 -0.30358717 0.12183717 -0.113427445
0002a0 58 a4 8b bc 49 dd 6e be 9a 96 1d 3e 21 66 ee 3d
       -0.017046139 -0.23326601 0.15389481 0.11640573
0002b0 8b e9 1e 3d 46 07 c0 bd d6 3a 2a be 34 d3 49 be
       0.038796943 -0.09376387 -0.16624007 -0.19709474
0002c0 75 d2 bc 3e 76 95 2f 3e cf e0 b4 3b 29 1d d6 3d
       0.36879316 0.17146859 0.0055199633 0.104547806
0002d0 9a a5 d2 bd 18 b5 18 3e 88 db 38 3d e8 db a9 3d
       -0.10285492 0.14912832 0.045131236 0.08293897
0002e0 db 09 2a bd 64 2d ed 3d 29 3b ff bd 70 a5 14 bf
       -0.041513305 0.11580923 -0.12462456 -0.5806494
0002f0 09 60 68 be 00 cd b0 bb b8 6e 76 be 51 e4 b5 bc
       -0.22692885 -0.0053955317 -0.24065673 -0.022203596
000300 88 af 1b be c8 04 19 bd c6 26 08 be c2 85 98 3c
       -0.15203679 -0.037358075 -0.13296041 0.018618468
000310 a2 c1 8d bd 54 ce 81 be 07 32 83 be 07 61 76 3e
       -0.06921698 -0.25352728 -0.25624105 0.2406045
000320 7b ac 70 be ff ea a5 3e de a8 bb bd 27 5f a8 be
       -0.23503296 0.3240585 -0.09163068 -0.32885095
000330 15 89 80 be c2 c9 00 be 32 dd 90 be 9f e7 a7 bd
       -0.25104585 -0.12576964 -0.2829376 -0.08198475
000340 60 4b 71 be 02 07 9f bc e9 d0 ba 3d 79 0e 4d bc
       -0.2356391 -0.019412521 0.09121878 -0.012515658
000350 a7 6a 3f be e1 f4 c3 be de cc af 3e 8f 75 89 3d
       -0.18693028 -0.38272765 0.3433599 0.06711876
000360 97 a7 4d be 22 cb 5d 3e 10 bf 17 be a0 89 87 be
       -0.20083462 0.2165952 -0.14818978 -0.26472187
000370 75 4b b4 3e 85 65 53 3e 49 02 0e be 05 ae b7 3c
       0.3521382 0.20644195 -0.13868059 0.022421846
000380 68 ba 6a bb 62 6a be bd 0b ea 88 be 57 9b 0d bd
       -0.0035816673 -0.09297635 -0.2674106 -0.03457197
000390 2a c1 56 3e 1e 03 7c 3e fc 6e 2b be 2a e2 21 3d
       0.20972124 0.24610564 -0.16741556 0.039522327
0003a0 7c 0f 4e 3d 6b 1f 66 3e 6d fc e0 3d d4 02 6e 3e
       0.050307736 0.22472923 0.109856464 0.23243266
0003b0 1a 98 24 3e 50 40 cc 3d a7 cd 19 3e 20 d8 5b be
       0.16073647 0.09973204 0.15019856 -0.21469164
0003c0 d8 13 6f 3d 90 e9 a4 3c 49 11 cf bc 65 f8 2d be
       0.058368534 0.020130903 -0.025276797 -0.16989286
0003d0 b3 3b b5 bd 52 ef 1f bc 2b 02 a0 bd a2 04 e8 3d
       -0.08849277 -0.009761648 -0.078129135 0.11329009
0003e0 d4 3e 14 3e e5 ff d7 bd e5 ce 1d 3e c4 ae 1f 3e
       0.14477092 -0.10546855 0.15410955 0.15594012
0003f0 b4 5c 84 3d 93 b5 74 3e e8 5a 73 3e 26 99 b8 3e
       0.06462994 0.2389739 0.23765147 0.36054343

actor_mean.2.bias f4 [64]
000000 c8 7e ac 3d 0e c4 18 3e fd fb 29 be 9d a1 06 be
       0.08422619 0.14918539 -0.16600032 -0.13147588
000010 23 34 ab 3d 8e f6 96 bd 78 ed d7 3c f8 66 1f be
       0.08359554 -0.07371245 0.026358351 -0.15566623
000020 4d f5 e2 bd 02 fa 2c 3e 40 03 34 3d 28 22 4c 3e
       -0.11081944 0.16892245 0.043948412 0.19934905
000030 1f 87 0c 3e ed 34 24 3e 7f 1e 65 3e 80 c3 d7 3c
       0.1372342 0.16035815 0.22374915 0.026338339
000040 bf 2f 1c 3e f8 8a a3 3d 84 90 7f bd 35 b8 d2 3d
       0.15252589 0.079854906 -0.06239368 0.10289041
000050 25 9c 0c be ce 78 fd bd 03 20 84 3d d0 ba 06 3e
       -0.1373144 -0.12376557 0.06451418 0.13157201
000060 4b 71 20 3e 83 3b 1e 3e f8 85 70 be a5 a3 4d be
       0.15668218 0.1545239 -0.23488605 -0.20081957
000070 5c 4e 2f 3e 53 47 6b be 2b 76 3c 3d 8c 75 86 3e
       0.17119735 -0.22976427 0.04601113 0.26261556
000080 ac 34 e9 bd de 67 fa bd 70 ca 14 3e ee c2 4b 3d
       -0.113869995 -0.12226842 0.14530349 0.049746446
000090 09 3f 37 3e e3 4f ca 3d e1 19 1c be fd 6d f4 bd
       0.1789514 0.098785184 -0.15244247 -0.11935041
0000a0 6c 5f 9b 3d 75 78 32 ba 9b 7b 32 3e 39 8d cf bd
       0.0758656 -0.00068081106 0.17429964 -0.10134358
0000b0 b6 fa da bd f9 8b 66 3e 17 2a d1 3d c5 8d 4e be
       -0.106923506 0.22514333 0.10213106 -0.20171268
0000c0 f5 64 46 bc eb 75 53 3e 41 dd f6 3d e3 33 a6 bd
       -0.012109031 0.20650451 0.120539196 -0.08115365
0000d0 65 d6 22 3e 91 66 f4 3d ac 77 2e 3e 48 2a 34 be
       0.15902098 0.119336255 0.17037839 -0.17594254
0000e0 5b 74 4f be 89 5f 9d bd c5 50 b9 bd 1d 6f 07 be
       -0.2025923 -0.076842375 -0.09048609 -0.1322598
0000f0 f5 9d 84 3e be e5 b4 bd 75 50 02 be 0c 0c 86 3d
       0.25901762 -0.08832882 -0.12726004 0.065452665

actor_mean.4.weight f4 [2, 64]
000000 b0 ff 1f 3d 78 d5 89 bd 68 3f 88 bd 34 e6 e3 bc
       0.039062202 -0.06730169 -0.06652719 -0.02781973
000010 0d 58 cd 3d cf fc 06 bd a1 cf 0f bd 04 29 96 bd
       0.1002656 -0.03295594 -0.03511012 -0.07332042
000020 80 63 25 bd e6 a3 9c 3d f4 e7 b1 ba 15 61 c3 3d
       -0.040378094 0.07648449 -0.0013573156 0.09540001
000030 24 41 74 3d 86 3d 97 3d 6e b0 89 3d 2f 57 95 3d
       0.059632435 0.073847815 0.067231044 0.072920196
000040 fb 90 e5 3c 36 78 04 3b 52 64 7e 3d ee b6 39 3c
       0.028023234 0.0020213253 0.06210739 0.011335118
000050 50 11 62 bd 29 47 2e bc 2f 9e 86 3d 07 6e 89 3d
       -0.05519229 -0.010637083 0.0657314 0.06710439
000060 02 7f 6d 3d b2 80 f3 3c 30 80 b0 bd 4e 02 b1 3c
       0.057982452 0.029724453 -0.086182 0.021607544
000070 f9 b3 91 3d 80 11 b8 3d ee be 0c 3d 4b 7f be bd
       0.07114405 0.08987713 0.034361772 -0.09301623
000080 dd 2d 9a 3d e8 4b df bc 3f b3 17 3c 82 fc 7f 3d
       0.07528279 -0.027257875 0.009259044 0.06249667
000090 32 97 7a bb 12 92 b7 3c 05 86 a3 3d 13 21 89 bd
       -0.0038237092 0.022408519 0.079845466 -0.066957615
0000a0 c0 1c 9f 3b 18 44 36 3c 2d b1 20 3d 8f a7 a5 3d
       0.004855722 0.011124633 0.039231468 0.080886
0000b0 64 3a 8a 3c f7 3e f9 bd 86 c0 f8 3c 87 4b 93 3d
       0.016873546 -0.12170213 0.03036524 0.0719214
0000c0 0e 11 9a 3d ce 5c a1 3d 66 a7 df 3c 34 2c 61 bd
       0.07522784 0.07879029 0.027301501 -0.054973796
0000d0 d5 21 82 3d 49 a4 16 3e c4 83 62 3d 1b 46 9f bd
       0.06354109 0.14711107 0.055301443 -0.077770434
0000e0 e6 2e 0a be 89 ae 0a bc 87 f3 05 3d a8 7e 04 bd
       -0.13494453 -0.008464464 0.03270295 -0.03234735
0000f0 d9 9a c7 bd bf 0b 9c 3c 51 04 95 bc 9a c5 35 be
       -0.09746332 0.01904857 -0.018190535 -0.1775116
000100 b1 c5 b5 bb 20 4e 54 bd f6 e0 87 bd a2 c6 85 3d
       -0.0055472483 -0.05183232 -0.06634705 0.06532027
000110 dd 7e 65 3c 02 19 08 3d 83 c2 77 3d aa 5e a5 3d
       0.014007297 0.033226974 0.060488235 0.08074696
000120 9f 39 78 3d 2f 7f 03 bd 82 70 82 3c 64 d4 6d 3d
       0.060601827 -0.032103714 0.015922789 0.05806388
000130 27 10 19 3c 17 05 46 bd 31 c6 10 bd 8a 56 97 3d
       0.00934223 -0.048344698 -0.03534526 0.07389553
000140 60 38 71 3b 55 c0 95 bc 91 70 ba 3d 41 59 ae 3d
       0.0036807284 -0.018280188 0.091035016 0.085131176
000150 d4 c8 80 bc 33 d8 58 3d 4d 75 99 3d 2c cf 76 bd
       -0.015720762 0.05294056 0.074930765 -0.06025617
000160 0b 74 af 3b a6 b4 b1 3d cd 93 bf bc c5 10 a4 bd
       0.0053544096 0.08677034 -0.023385907 -0.08011011
000170 c8 de 6d 3c f5 18 31 3d 98 e9 84 3d 89 ae 63 bd
       0.014518447 0.04323669 0.06489867 -0.05558637
000180 d0 2a f4 3c ea e3 da bc aa f0 8c bd 46 4b 0d bd
       0.02980557 -0.026720006 -0.068818405 -0.034495614
000190 35 18 8e 3d 3b 5a f6 3d 8f 2f 8b 3d 54 0e f9 bd
       0.06938211 0.12028929 0.067961805 -0.12160936
0001a0 62 45 68 3d 1e 4b 99 3d 34 cb da bc ba a3 9b 3d
       0.056706794 0.074850306 -0.026708223 0.07599588
0001b0 cf ec 4b 3d cf d6 62 bd d8 12 b3 bc b1 2e 18 3e
       0.049786385 -0.05538064 -0.021859571 0.14861561
0001c0 61 77 3f bd 62 54 5b bd db 13 4c 3d f1 5b 1b 3d
       -0.046744708 -0.05354727 0.049823623 0.03792948
0001d0 39 67 83 bd fe ca 8f bb e0 17 3b bd de 5c 9c 3c
       -0.064161725 -0.004388212 -0.045677066 0.019087251
0001e0 19 5e b1 bc 2f 0c 60 bd f6 ba a8 3d d6 f6 b0 bb
       -0.021651315 -0.05469912 0.08238785 -0.005400519
0001f0 65 e6 40 bd d9 a0 1d bd ce 2c 6e bd f2 2b a4 bd
       -0.04709472 -0.038483474 -0.058148198 -0.080161944

actor_mean.4.bias f4 [2]
000000 0d 56 28 3e e4 89 74 3d
       0.16439076 0.059701815
