jsbgym/models/train_saves/ppo_caps_sweep_nova_58590_28-11_11:09:54.pt (torch, 57257 bytes, 14 tensors)

actor_logstd f4 [1, 2]
000000 de 07 73 be 8d 23 9b be
       -0.2373347 -0.3030056

conv.0.weight f4 [3, 1, 5, 1]
000000 18 eb 05 bf 7b 59 44 bc b6 59 b0 be 4c 8c 5a be
       -0.5231185 -0.011984224 -0.34443444 -0.21342582
000010 22 b8 8e 3d 33 70 e8 3c 89 1a da 3e 7a 07 b1 bd
       0.06968714 0.028373813 0.4259837 -0.08644004
000020 fa ee 98 bd 81 4f 6a bf 4d 79 a8 3e b7 e2 3d bf
       -0.07467456 -0.91527563 0.32905045 -0.74174064
000030 79 8c 42 3e ba e1 0e be 3b 02 b2 be
       0.18998899 -0.13953295 -0.34767327

conv.0.bias f4 [3]
000000 0c 8c 44 3e 83 a3 d6 3e 9e 92 16 be
       0.19194049 0.41921625 -0.14704368

critic.1.weight f4 [64, 30]
000000 6e d4 40 3c ac 94 9f be 5f 45 31 be b3 d4 88 3d
       0.011769397 -0.31168115 -0.17311619 0.06681194
000010 22 90 47 be 58 2b 39 be 64 10 c4 bd 83 f8 81 3e
       -0.19488576 -0.1808294 -0.09573439 0.25384912
000020 0f 77 6a be 31 32 b5 bd 5f 62 8e be 03 a8 72 bd
       -0.2289698 -0.08847464 -0.27809426 -0.05924226
000030 5b df 49 be 19 60 81 3e 77 d1 71 3d f0 31 01 be
       -0.1971411 0.2526863 0.059037652 -0.12616706
000040 d6 f5 b3 3e b4 46 43 be b7 af 55 be 9e 6e 55 bd
       0.35148495 -0.1906994 -0.20867811 -0.052107446
000050 9a 5e a1 be 8d 9d b4 3d c5 07 98 3e 06 d5 8e 3d
       -0.31517488 0.08819113 0.29693428 0.06974225
000060 6d b3 dd 3c e5 4e 6a be 08 27 0e 3e 95 7e c5 3d
       0.027063096 -0.22881658 0.13882077 0.09643284
000070 2e 2b 40 3e 0f fe 3d 3e 6b ab b6 3c 8e eb 7f 3d
       0.18766472 0.18553947 0.022298535 0.0624805
000080 c2 26 27 3e 68 40 a3 3d 65 73 06 3d f9 fc b6 bc
       0.16323379 0.07971269 0.032824893 -0.022337424
000090 17 6c 09 be 3a 4a dd 3d 5a 9e ad bd 38 f0 ea bc
       -0.13420139 0.10805173 -0.08477469 -0.028678998
0000a0 8a e7 23 be d3 44 19 3d 18 21 dd 3d 72 d2 80 3e
       -0.16006294 0.03741915 0.10797328 0.25160557
0000b0 11 42 4e 3e ca 3e 24 3d 1f 9f 1e be b7 11 ef 3d
       0.2014239 0.040098943 -0.15490387 0.11673301
0000c0 98 a8 e7 3c bd 61 26 3e 0f 8b 53 bd c0 93 5f 3e
       0.028278634 0.16248222 -0.05164629 0.21833706
0000d0 99 f1 b8 be 2d 5c 0d 3e 7e 74 3b be a8 c7 12 be
       -0.36121824 0.13804694 -0.18306157 -0.14333975
0000e0 f6 35 90 bc 91 13 39 3e 53 d0 b3 3d 6a 2d 38 3c
       -0.017603856 0.1807387 0.08779969 0.011241296
0000f0 fb 4a 99 3d f1 dc b3 bd 85 42 5f 3d ab 6d a8 3c
       0.074850045 -0.087823756 0.054506797 0.020560106
000100 62 f4 8b bd 3e c1 91 3d b8 b8 b0 be 52 ef a5 bd
       -0.06833722 0.07116936 -0.3451593 -0.08102287
000110 80 16 9c b8 c9 45 f7 3d d4 fe 54 be df f3 a0 bd
       -7.4428506e-05 0.12073857 -0.20800334 -0.07859015
000120 4e af b9 bd fb 1d 14 be 3a e7 a2 3e 2e 72 4b bc
       -0.0906664 -0.14464562 0.31817037 -0.012417359
000130 b8 24 a6 3e ac fd e0 bd 66 60 9e 3c 06 ec 8c 3d
       0.3244989 -0.10985884 0.019333076 0.068809554
000140 38 76 30 3f 0d c1 a5 3e c7 09 cb 3d db 19 9d 3d
       0.6893039 0.3237385 0.09913974 0.07670947
000150 15 d6 69 3d 1a 1b 2f bc 43 08 98 3e ce 46 16 bd
       0.05708893 -0.010687614 0.29693803 -0.03668862
000160 c9 b3 2d 3e 0d cd fe bc 3b ca 81 3e 40 b1 0b 3d
       0.16963114 -0.031103635 0.25349602 0.034104586
000170 56 3c 97 3e e2 15 46 3d f3 df 25 3c 38 2b 00 be
       0.2953822 0.048360713 0.010124194 -0.12516487
000180 5a 03 c9 be 3f 60 fb bd ff ca e8 3d 81 d5 93 3e
       -0.3926037 -0.12274217 0.113668434 0.28873828
000190 08 f6 06 be 34 b5 cb bd 76 b4 da bd e1 c6 69 3d
       -0.13179791 -0.09946671 -0.106789514 0.05707443
0001a0 df 89 08 be cf ad 03 3d dd 61 8e 3e 30 53 6a 3d
       -0.13333844 0.03214818 0.2780904 0.05720824
0001b0 87 42 96 3d e3 3a 79 be 36 95 52 be 9e 39 3a 3d
       0.07336908 -0.2433887 -0.20564732 0.045465104
0001c0 26 13 48 be 36 8b 4a be 39 92 d8 bd a5 c3 dc bd
       -0.19538555 -0.19779667 -0.10574765 -0.10779504
0001d0 df 18 53 3e b7 79 a4 bd 74 df de 3c c7 90 2b be
       0.20614956 -0.08031028 0.02720616 -0.16754447
0001e0 df 33 b3 bd 78 d0 70 3c ea f0 84 bc 43 f9 79 be
       -0.08750128 0.01469814 -0.016228158 -0.24411492
0001f0 48 d4 30 3e 1a 66 22 3e 85 2e e0 3d e5 b0 08 be
       0.17268479 0.15859261 0.10946373 -0.1334873
000200 39 26 14 3e c0 97 83 3d d0 da 90 bc 43 26 8c be
       0.14467706 0.064254284 -0.017682463 -0.2737294
000210 b7 69 5c 3e 9b 03 a4 be 4c be b7 3d c0 06 f4 bc
       0.21524702 -0.32034 0.08971843 -0.029788375
000220 a8 1d bf be 17 df 28 bd b2 bf 6f be aa 1a d3 bd
       -0.37327313 -0.04122838 -0.2341297 -0.1030782
000230 4e fe 9a 3e aa fb c8 bc 2e ba cd 3c b6 1f 89 3d
       0.30272144 -0.024534065 0.025113191 0.066955015
000240 c5 22 0a be d5 42 7f be 92 e0 6f 3d ab 47 3d 3e
       -0.13489826 -0.24927838 0.058563776 0.1848437
000250 23 21 d0 3c b2 a0 73 bd 15 ab b6 be d5 f9 2e 3e
       0.025406426 -0.059479423 -0.356774 0.17087491
000260 21 2a 89 3d a4 ee 35 3e 6e ad a1 bd 34 02 da 3d
       0.066974886 0.17766815 -0.07894407 0.106449515
000270 63 d1 01 3e 16 71 22 3e f4 08 4e 3c a1 3f 98 bc
       0.12677531 0.15863451 0.012575377 -0.018585028
000280 9c 64 8e 3e f1 82 8d 3d 80 f2 10 3c 04 ce fa 3d
       0.27811134 0.06909741 0.008846879 0.122463256
000290 36 b2 89 bd f0 dd de 3d 8d ab a9 bd 58 c3 e7 3d
       -0.06723444 0.10882175 -0.08284674 0.11316556
0002a0 65 6e 89 bd d5 ef d2 bd 89 b9 b4 3d 16 0e 36 be
       -0.06710509 -0.102996506 0.088244505 -0.17778811
0002b0 cf 0c 93 bd ff d2 0b be b2 e5 86 be 20 33 53 be
       -0.071801774 -0.13654707 -0.2634712 -0.20624971
0002c0 99 78 65 be a6 6a a3 be 1f 3b 40 3e 11 15 52 bd
       -0.22409286 -0.31917304 0.18772553 -0.05128962
0002d0 db 4c 93 bd f0 d4 e2 bc 1f 21 c8 3b 25 e6 0d 3e
       -0.071923934 -0.027689427 0.006107464 0.13857324
0002e0 ba ff 3b be 8d 06 a8 3b 1d ca 3a 3a 70 ef bc 3c
       -0.1835927 0.005127734 0.0007125454 0.023063391
0002f0 00 11 29 be c1 19 08 3d aa 25 38 3d b6 54 5b be
       -0.16510391 0.033227686 0.044957794 -0.21419033
000300 74 2d e1 3c a3 56 82 be 2e 66 0d bd dc 3d 15 3e
       0.027487494 -0.25456724 -0.034521274 0.14574379
000310 82 db c0 bd 21 c5 a4 3d 5c df 1d 3e 42 db 39 bd
       -0.09416868 0.08045412 0.15417236 -0.045375116
000320 54 95 44 be c7 5a 62 be 82 89 05 3e 5c f9 62 3c
       -0.19197589 -0.22104941 0.13040736 0.013853397
000330 fe 32 d5 3d c3 97 0d be 95 0f d9 3d 33 80 03 bf
       0.104101166 -0.13827424 0.10598675 -0.5136749
000340 12 b9 f4 bd 69 0b 89 3e 6e 63 26 be ed 25 a1 3d
       -0.11949362 0.26766518 -0.16248867 0.07868562
000350 af fb 55 3d a4 ea 14 3d a1 e6 4a be d6 65 1a bc
       0.052241977 0.036356583 -0.1981454 -0.009423694
000360 e0 a4 f9 bd 8a 6c 0d bd e3 5a 89 bb 0c 64 18 3e
       -0.121896505 -0.03452734 -0.0041917427 0.14881915
000370 f7 cf bc be 2f 89 c7 bd 21 bc 61 3e f2 ae 4f bd
       -0.36877415 -0.097429626 0.22044422 -0.05070395
000380 b7 20 3e 3d 32 cc 36 be cd 5b 17 3d ad be f1 3d
       0.046417918 -0.17851332 0.036952782 0.11803947
000390 3f 6b 02 3e 5c dc 08 be 97 cf 5c 3c 4b 2b 2c bd
       0.12736224 -0.1336531 0.013477228 -0.042033475
0003a0 1d ef 2a bd 1f 08 ae 3b a7 f5 e1 3e 53 57 f2 3d
       -0.041731942 0.0053110267 0.4413273 0.11833062
0003b0 91 66 33 bd 58 87 8d 3e 0f b0 08 3d 35 1a 9f 3c
       -0.043798987 0.27642322 0.033371028 0.019421676
0003c0 e8 4a 31 be f5 05 ee bc 7e 2c a4 bd be d7 0b be
       -0.1731373 -0.029055575 -0.08016299 -0.13656518
0003d0 0e 20 a3 bd ce 75 96 3e e1 d3 02 bd 3a 2c 2e 3e
       -0.07965098 0.29386753 -0.031940345 0.17009059
0003e0 51 73 34 3b 81 c6 b5 bd d5 9a 02 3e 5f b2 0a be
       0.0027534554 -0.08875752 0.12754376 -0.13544606
0003f0 b6 4a eb bc 64 47 d7 bc 76 c2 36 3c 1a 69 57 be
       -0.028722148 -0.026279159 0.011154762 -0.21036187

critic.1.bias f4 [64]
000000 ee cc 28 be 97 1c 39 3e 22 3f 3f be e3 eb 29 be
       -0.16484424 0.18077312 -0.18676427 -0.1659389
000010 74 bf 7f bd 21 0a 28 3e ba 5e 21 be 2f a8 24 3d
       -0.062438443 0.16410114 -0.15758792 0.040199455
000020 63 ce 8a be ce f0 d3 3d 96 9d 46 3d 47 34 9b bd
       -0.27110586 0.10348664 0.04849013 -0.075783305
000030 bb 5c 1e 3e 74 26 eb bb c5 38 20 be 6e 62 00 3e
       0.15465061 -0.007176215 -0.15646656 0.12537548
000040 6e 28 32 3d 0b ed 88 3d 83 92 f9 bd d6 42 1e bd
       0.043495588 0.06685837 -0.12186148 -0.03863796
000050 d6 7f 7b 3d a6 19 35 be 5b f3 1c 3e 36 3b 89 3d
       0.06140121 -0.17685565 0.15327208 0.06700747
000060 76 1d 07 3d e4 ad ef 3d c4 b7 65 3e ae 44 82 bd
       0.03298708 0.11703089 0.22433382 -0.06360756
000070 c3 f2 7f 3e bf 99 55 be 41 19 2c 3d 51 98 90 3d
       0.2499495 -0.2085943 0.04201627 0.07060302
000080 86 98 3b be b1 de 99 bd e9 06 91 bd db 0c 06 be
       -0.18319902 -0.07513178 -0.07081396 -0.13090841
000090 38 96 9f bd 02 e4 a9 3d f3 a1 bf 3d 31 5f f2 3d
       -0.07792324 0.08295442 0.09357061 0.118345626
0000a0 ec f6 13 3e 2a c2 b2 3c 86 64 d2 bd e4 36 85 3d
       0.14449662 0.0218211 -0.102730796 0.0650461
0000b0 54 40 d8 3d fc ec bf bd fb b2 1a be 13 47 a1 bd
       0.105591446 -0.09371373 -0.15107338 -0.078748845
0000c0 09 bd 9b 3d 02 c1 ca 3d 02 72 29 be fb 0d 25 bb
       0.07604415 0.099000946 -0.16547397 -0.0025185335
0000d0 b7 15 39 be 0b bf 92 bd 86 f5 23 3b 03 fd 34 3e
       -0.1807469 -0.07165345 0.002501817 0.17674641
0000e0 7a b1 09 3e be 5b e0 bb a3 35 da 3c d7 06 e0 bd
       0.13446608 -0.006846874 0.026636904 -0.109388046
0000f0 0c 6d 86 bd b0 9d af bd 84 1f 06 bc 5b 0b 6e bd
       -0.06563768 -0.085749984 -0.008186225 -0.0581163

critic.3.weight f4 [64, 64]
000000 f8 26 19 be b9 44 2a be 40 15 ce 3d f2 ac 41 3e
       -0.14956272 -0.16627778 0.10062647 0.1891363
000010 73 22 06 bd 6e 0e fa 3c 34 c0 1b be 2e 1a 85 3d
       -0.032747697 0.030524459 -0.15210038 0.06499134
000020 a9 c9 e7 bd 99 aa f1 3d 55 0d 69 be e3 a4 21 3e
       -0.113177605 0.11800117 -0.22758992 0.15785556
000030 6b 6e 28 3e 64 f4 2c 3c 76 e3 95 3e ec 02 c0 be
       0.16448371 0.010556314 0.292751 -0.3750223
000040 e9 de 1c 3c b1 4d f9 3d e3 48 35 be 38 93 02 be
       0.00957463 0.121730216 -0.17703585 -0.12751472
000050 43 df de 3b 85 bc 9a 3d b2 38 e9 be 5a 9e 26 bc
       0.006801517 0.075554885 -0.45551068 -0.01016959
000060 eb 03 67 3c 4a f5 41 be 52 29 ef bd 9d 8f 92 be
       0.014100055 -0.18941227 -0.11677803 -0.28625193
000070 87 a6 7f be 88 39 3e be 38 55 ea 3d 64 d6 e2 bc
       -0.24965869 -0.18576634 0.114420354 -0.02769012
000080 7c 0c 0a bd c6 79 da be 6b ac 5a 3d 91 b3 c1 3d
       -0.033703312 -0.4267103 0.053387087 0.09458078
000090 12 15 50 3d 57 07 86 3d 03 09 33 3d 14 ba 86 bd
       0.050801344 0.06544369 0.043709766 -0.0657846
0000a0 9b a7 27 be 8f 15 41 bd de b2 bc 3b af 8a eb 3d
       -0.1637253 -0.0471397 0.0057586273 0.11501061
0000b0 c4 53 c3 bd 25 56 d3 be 4b cd de 3b a9 1d 45 3e
       -0.095374614 -0.4127666 0.006799375 0.19249596
0000c0 55 0d 2d bb f8 29 61 be b4 9e 6f 3d 5c ab 26 bd
       -0.0026405652 -0.21988666 0.05850096 -0.040690765
0000d0 fa 0c 5c bc 19 1f 59 3d 4d df 00 3e da ab b3 bc
       -0.013430828 0.053008173 0.12585182 -0.021932531
0000e0 f0 a7 48 3d ed 71 88 3d a8 2b 91 bd 42 5e 74 3d
       0.048988283 0.066623546 -0.07088405 0.059660204
0000f0 c2 02 11 3e a3 43 cf be 38 ac 34 be 8e 01 8b 3d
       0.14161208 -0.4048129 -0.17643821 0.06787406
000100 c3 8a 86 3e b5 1a 2d be 23 58 b0 3c a2 65 9c bd
       0.26277742 -0.16904719 0.021526402 -0.076365724
000110 53 46 3f be b3 9c 0e 3e bb 57 fe bd ef 4c 02 3e
       -0.1867917 0.13926964 -0.12419077 0.1272466
000120 0e 3c 47 bd 73 44 60 bd 10 cb 1e bd a9 a9 5f be
       -0.048641257 -0.05475278 -0.038767874 -0.21842064
000130 80 3b 70 3e a5 79 fc 3c 64 d4 6b 3d 52 53 29 3d
       0.23460197 0.030819723 0.0575756 0.041339226
000140 47 20 68 3e ea 03 6a bd 51 94 68 bc a2 f5 3d bd
       0.22668563 -0.05713264 -0.014195518 -0.04637683
000150 9c 2d 45 3e a7 d9 8f bd 21 37 3a bc 33 d1 13 3e
       0.1925568 -0.07023936 -0.011365683 0.14435272
000160 09 1d 62 be a2 de 86 3d a0 f9 81 3e 6b 62 d9 3d
       -0.22081389 0.065854326 0.2538576 0.10614475
000170 3f 45 0a bd 21 98 e2 bd 47 cd 07 3e d8 f3 d1 bd
       -0.033757444 -0.110641725 0.13261901 -0.10251588
000180 28 f2 ce 3d 3b 59 14 3d 19 d9 84 3d 22 e0 b4 bd
       0.101047814 0.03621791 0.064867206 -0.088318124
000190 e2 62 63 bc f1 f2 91 be 07 b9 28 be dc 4c cb 3d
       -0.013878556 -0.28505662 -0.16476832 0.09926769
0001a0 20 d3 be 3d 54 13 b1 bd b3 80 aa 3d 80 4f 02 3e
       0.09317613 -0.08646265 0.08325329 0.1272564
0001b0 e2 99 48 3e b6 16 83 3d 7d 00 37 bd 09 26 59 be
       0.19589952 0.06400816 -0.0446782 -0.21205916
0001c0 9f 98 b6 be f3 1d d1 be 93 a1 87 be 8a f6 e8 3b
       -0.35663316 -0.40843162 -0.2649046 0.007109468
0001d0 79 bd cb be bb aa 23 3e af 18 2b 3e 19 d5 b3 3e
       -0.39792994 0.15983097 0.16708635 0.35123518
0001e0 31 ac 9b bd 3c a4 a4 3e 5b 12 5f 39 dd 2f df 3d
       -0.07601202 0.3215655 0.00021273775 0.10897801
0001f0 4f fc be be 1e 25 21 3e 2e 94 2c bd 9c 7f 84 3d
       -0.3730187 0.15736815 -0.042133503 0.06469652
000200 0b e5 ac 3b 1d 4b 53 be d0 cb c5 3c 91 f3 12 3e
       0.0052763275 -0.20634122 0.024145037 0.14350726
000210 bb 7b 03 3e b3 95 ca be 73 77 bc 3d 27 3a 96 3d
       0.12840168 -0.39567336 0.09202471 0.073353104
000220 45 32 42 be 59 64 f8 3d 10 1d 32 3e 82 c8 2d be
       -0.18964489 0.12128515 0.17393899 -0.16971019
000230 e7 cd d4 be 78 6d 77 3e 6e fa fc 3d 79 6c 5a bb
       -0.4156334 0.24162853 0.12352453 -0.0033328815
000240 cd 64 3d bd e7 e6 54 be 74 ab 90 3e 98 3f 05 3e
       -0.04623871 -0.20791207 0.28255808 0.1301254
000250 fd f8 7d 3e a1 6a 30 be 83 81 d8 bd 1d 1e 83 3d
       0.24802013 -0.17228176 -0.105715774 0.06402228
000260 7e 19 78 3c da 00 52 bc d1 1c 90 be cc 7c 4f 3d
       0.015142797 -0.012817586 -0.28146985 0.050656125
000270 00 e0 04 be 88 bc a9 3e da b1 ab bd d8 2a 3c bd
       -0.12976074 0.3315165 -0.08383532 -0.045939296
000280 ad e2 a6 3e d4 67 11 be df 36 f4 bd 40 e3 d0 3d
       0.32594815 -0.14199764 -0.11924528 0.101995945
000290 ac ff e6 3e 1d 35 92 ba 9b e5 e5 be 01 dc 0c be
       0.45116937 -0.0011154745 -0.44901738 -0.137558
0002a0 82 89 9b 3d d2 6a 1a bc 9b da ed bb 9a 4d 53 3e
       0.07594587 -0.009424882 -0.007258726 0.20635071
0002b0 0b 3f a2 3c 84 ea 1e 3e d0 11 0f be 79 89 16 3e
       0.019805452 0.15519148 -0.13971639 0.14700879
0002c0 9f 9c 7c bc f5 14 65 bd 7f 64 63 3d b8 1f 46 bd
       -0.015418201 -0.05592819 0.055515762 -0.048370093
0002d0 b4 5c f2 3d 97 8e 71 bd 87 cb e4 bd af d3 12 be
       0.11834088 -0.058973875 -0.11171632 -0.14338563
0002e0 cd e8 a8 bd 9b 4f bc 3d 78 67 9a 3e ea 3a 0c 3e
       -0.08247528 0.09194871 0.30157065 0.13694349
0002f0 ab dc be 3c f4 fc 83 bd 7c 06 13 3d 34 91 8a 3e
       0.023298582 -0.06444731 0.035894856 0.27063906
000300 58 71 90 3d bd a1 55 3d 75 13 18 3a 2f 2b 5b bb
       0.070528686 0.0521562 0.0005801239 -0.0033442487
000310 d3 ec 55 3e 2b fa 96 bd c2 89 56 3c f5 f8 28 3d
       0.20891123 -0.073719345 0.013094367 0.04125305
000320 63 1a bb 3c 00 44 c3 be 92 c0 d1 bc 42 8e 31 3d
       0.02283973 -0.38137817 -0.02560452 0.04334856
000330 87 cc 57 be cf c5 fd 3d f3 69 9b 3d 69 d8 8f be
       -0.21074115 0.123912446 0.075885676 -0.28094795
000340 3e fa 5f be 8e 50 36 be 30 26 b8 3e bf a6 8f 3e
       -0.21872804 -0.17804167 0.35966635 0.28056905
000350 48 4a 9e be 8f bf ba bd 39 12 a7 be 2c d5 11 3e
       -0.30916047 -0.09118568 -0.3263109 0.14241475
000360 50 e1 51 3e 95 19 31 be d8 9b 5c bb 3b 75 ba bc
       0.20496106 -0.17294915 -0.0033662226 -0.022760978
000370 d6 91 37 bd 31 2f c9 bd 7b 69 b6 bd b3 58 1e 3e
       -0.044816814 -0.09823454 -0.089068376 0.15463524
000380 e8 e1 b3 3c fd 24 0b 3e ca 2e b7 bd d7 08 a8 3a
       0.021958306 0.13588329 -0.08944471 0.0012820017
000390 72 bc 77 be 4b 37 fd 3d d1 1f b2 bb 23 b9 5d 3d
       -0.2419298 0.12364062 -0.0054359217 0.05413164
0003a0 f3 15 9b 3b 85 f5 2c 3e 31 95 d4 3d a9 c4 ec bd
       0.004732841 0.16890533 0.103800185 -0.115609474
0003b0 7d 44 58 be 75 f0 b9 3d af 7b b9 3e 5c bc 89 be
       -0.21119876 0.09079067 0.36227176 -0.2690152
0003c0 b7 2d f6 bc 7b 21 15 be a7 41 01 be 3d 51 a1 bd
       -0.030051095 -0.14563553 -0.126227 -0.07876823
0003d0 e6 92 84 bb 21 6d 56 be 41 26 94 bd bb d6 a7 3d
       -0.004045832 -0.20940067 -0.07233859 0.081952535
0003e0 10 39 ad be 03 df 33 3d cb f0 4f be 0c c2 e1 3e
       -0.33832598 0.043913852 -0.20306699 0.4409336
0003f0 98 8d 49 bd b1 62 04 be 4d 9a d9 3d 1d b5 17 3e
       -0.0492073 -0.12928273 0.10625134 0.14815183

critic.3.bias f4 [64]
000000 90 c9 cc bd e2 93 d9 3d 7c f6 0c be 38 a9 07 be
       -0.099993825 0.106239095 -0.13765901 -0.13248146
000010 af 98 39 3d 50 b0 ce bd 17 50 13 be f9 75 b8 3d
       0.045311626 -0.10092223 -0.1438602 0.090068765
000020 a5 9a 8f 3d ed 94 be bc 0f 95 8b 3d 53 7a bd 3d
       0.07011918 -0.023264373 0.0681554 0.09251847
000030 07 0b a8 3d 96 0d 87 3d 98 9f ef bd da 39 20 bd
       0.08205228 0.06594388 -0.11700362 -0.03911767
000040 c8 3c b7 bd da 73 ce 3d c8 db 3a 3e 2a ab b5 bd
       -0.0894714 0.10080691 0.18247902 -0.088705376
000050 65 ba 0c 3e 09 6d ec 3d 22 65 93 3d 75 c3 e0 bc
       0.13742979 0.11544234 0.07197024 -0.027436951
000060 70 4e b5 bd 59 79 2f 3d 3f cb 33 be 46 fe c4 bd
       -0.088528514 0.042840336 -0.17558001 -0.09618811
000070 d7 10 bc 3d ec 7d e0 bd 03 ac 1f 3e 35 ef d0 bd
       0.091828994 -0.10961518 0.15592961 -0.10201875
000080 2d 2c cc bd 7d 3a aa bd aa b1 dc 3d c4 05 92 3d
       -0.09969363 -0.08311937 0.10776074 0.07130006
000090 ec 87 eb bd 3d 94 d1 bd 4c ad b0 bd 5c 8a e3 3d
       -0.115005344 -0.10233352 -0.08626804 0.11110374
0000a0 1c d2 27 be b2 a7 b4 bd f7 5f a3 3d a3 54 66 3d
       -0.16388744 -0.08821048 0.07977288 0.05623306
0000b0 27 64 ee 3d 8b 2e 40 bd 6d da 87 3d 30 95 f8 3d
       0.11640196 -0.046919387 0.06633458 0.1213783
0000c0 95 e3 a2 bd 26 86 ce 3d 0c d3 9e bd f8 6c b6 3d
       -0.07953564 0.100841805 -0.07755098 0.08907503
0000d0 d0 7c 36 3d 8d f6 d1 3d 2e ab 12 be f7 96 e6 3d
       0.044552624 0.10252104 -0.14323112 0.11259263
0000e0 e3 d0 fc 3d 5d 18 5d bd 94 6e 01 3e 3e 30 ae 3d
       0.123445295 -0.053978313 0.12639838 0.08505295
0000f0 cc c9 0d be f2 b0 21 be 61 84 ed bd 7e 14 0e 3e
       -0.1384651 -0.15790156 -0.11597515 0.13875005

critic.5.weight f4 [1, 64]
000000 da 9d a4 3d 7d 9e 76 bd 18 71 84 3e 96 c7 a1 3e
       0.0803792 -0.06020974 0.25867534 0.31597584
000010 a0 6d 7d bd d5 56 24 3e 38 0a 91 3d b7 85 28 be
       -0.061872125 0.16048749 0.07082027 -0.16457258
000020 f0 51 83 be 7d 56 93 be f9 8b 95 bd f6 b9 2e bd
       -0.2564845 -0.28776923 -0.07302088 -0.042657815
000030 33 83 8d bd 41 a2 df bc f4 a0 5e 3d c4 b1 40 be
       -0.0690979 -0.027299048 0.054352716 -0.18817812
000040 0f 1f 3d 3e 18 65 9f be 23 34 2c be a2 28 9c 3d
       0.18468879 -0.31131816 -0.16816764 0.076249376
000050 05 78 47 be ed 74 3b be ab 8f 02 bd 5f c6 0f 3e
       -0.19479378 -0.18306322 -0.031875294 0.14040516
000060 c1 9f 99 3d d0 fb 0e be 59 cb 0d 3e 2a fc 3a 3e
       0.07501174 -0.13963246 0.13847102 0.18260255
000070 f3 d7 6d be 45 8e 54 3e f5 ff b1 bd da 80 c8 3d
       -0.2322691 0.20757397 -0.08691398 0.097902015
000080 bc 29 ec 3d 74 f7 5a 3d 53 8a da bc 84 39 7e be
       0.11531398 0.053458646 -0.026677286 -0.24826628
000090 85 c5 5b 3d 80 ad 57 3d 2b 36 37 3e a2 de a0 bd
       0.053655166 0.052655697 0.17891757 -0.07854964
0000a0 c6 96 17 3e 17 38 4a 3e b5 6f 33 bd 6b c2 07 bd
       0.14803609 0.19747959 -0.043807704 -0.033144396
0000b0 d1 a7 87 be b1 d7 fd 3c 9d 21 82 bd a1 5a fa bd
       -0.2649522 0.030986639 -0.063540675 -0.12224317
0000c0 c4 5f 87 3c 8f c1 63 3d 99 87 da 3d 71 98 0c be
       0.016525157 0.055604514 0.106703945 -0.13730027
0000d0 27 18 ed bd 2d 0d 6d bd fd 36 e0 3d c8 e3 2c be
       -0.11576872 -0.057873894 0.10947988 -0.16883767
0000e0 93 82 98 be c3 f4 69 bd 2b 38 94 bd 2f e4 1c be
       -0.2978712 -0.05711819 -0.07237276 -0.1532142
0000f0 73 cf 57 3e 53 cb 51 3d 94 2e a6 3d 81 2f d0 bd
       0.2107523 0.051219296 0.08114353 -0.10165311

actor_mean.0.weight f4 [64, 30]
000000 b3 48 46 3e e0 3f 0c 3d 7b ab 99 3d 30 f6 da 3d
       0.1936367 0.034240603 0.075034104 0.10691488
000010 49 ff a3 bc 79 42 81 3d 8d 8c f6 3e 31 45 37 be
       -0.02001919 0.06311507 0.48154107 -0.17897488
000020 9c 58 bd 3d 12 c8 7d 3d 64 2f 07 bd 52 11 a3 3d
       0.092454165 0.06195838 -0.03300418 0.07962288
000030 c5 16 87 3d 17 d7 41 3e 9a 46 89 bd ae ae e4 3d
       0.0659614 0.18929707 -0.06702919 0.1116613
000040 0f 53 84 3e 0e 4e 02 3e 7a 4b 6e bc d2 81 c7 bd
       0.2584462 0.12725088 -0.014544362 -0.09741558
000050 c4 34 aa 3e 8d e3 0f 3d 51 0c e1 bd a5 78 cd be
       0.33243382 0.03512912 -0.10988677 -0.40131107
000060 55 06 9b be b0 d0 13 be 8b a7 3d 3e 1f 46 78 3d
       -0.30278268 -0.14435077 0.18520944 0.060613748
000070 60 8e 56 3e 23 05 0f 3e 76 f6 9f 3d 52 6c f9 3b
       0.20952749 0.13966803 0.078106806 0.0076117897
000080 e9 f0 0b 3e 1a 07 86 3e a8 70 06 be 42 05 88 3e
       0.13666119 0.26177293 -0.13128912 0.2656651
000090 84 f6 1c bf cb b0 37 be 82 12 54 3d dc 5d c8 3c
       -0.61313653 -0.17938535 0.051775463 0.024458818
0000a0 65 c0 ad bd 05 eb 61 bd e8 21 f1 bc f1 d4 8c 3e
       -0.08483962 -0.055155773 -0.029435113 0.2750621
0000b0 55 0c 15 bd 91 7f ad 3d 3e 41 6c 3d 0a 60 23 3e
       -0.036388714 0.08471597 0.057679407 0.15954605
0000c0 36 a4 a9 3d b4 17 f2 3d 57 7b a2 bd 10 d4 95 3e
       0.08283274 0.11820927 -0.079336815 0.29263353
0000d0 be aa 0b be f3 8f 55 3e e9 89 cc bd 63 fe e2 bd
       -0.13639352 0.20855694 -0.09987242 -0.11083677
0000e0 77 39 0c be 38 f4 85 be 97 98 4d 3d 96 03 7b bd
       -0.13693796 -0.26162887 0.05019435 -0.061282717
0000f0 26 cb 9f be 05 f4 05 3e 6e be f6 3e 76 ea f1 3d
       -0.31209677 0.13081367 0.4819216 0.11812298
000100 67 ff bd 3b 17 e4 ab bd af 1c 2d bd 11 fc e3 bd
       0.0057982686 -0.08393114 -0.042263683 -0.11132062
000110 5a bc 0f be 57 7e 61 bc e0 29 f7 3d e1 9d 96 bd
       -0.14036694 -0.013763032 0.12068534 -0.07354332
000120 c2 1a 5f 3e 08 31 37 be a0 77 94 bc 51 08 3d be
       0.21787551 -0.17889798 -0.018123448 -0.18460204
000130 c0 e6 da 3d dd 7e 7e bd a7 26 ff bb f9 17 5b bd
       0.10688543 -0.062132705 -0.00778659 -0.05348966
000140 9d d6 9d bd 8d d0 b4 3d db 27 6c be e6 17 55 be
       -0.0770695 0.088288404 -0.23062079 -0.20809898
000150 c8 0a 21 be 27 49 81 3d c4 82 2d bd 67 cf 72 be
       -0.15726769 0.06312781 -0.042361036 -0.2371193
000160 a6 d1 89 bd 85 93 20 3d 43 d6 41 3e a6 7e be 3c
       -0.067294404 0.039203186 0.1892939 0.02325375
000170 e9 a1 d1 3d 47 4c b3 3d 82 6b 06 be 1e 43 3d be
       0.1023596 0.08754783 -0.13126948 -0.18482634
000180 1b 72 b4 bc 65 0e 1a 3e d9 ed 47 3e 1f d3 5d 3e
       -0.022027066 0.15044554 0.19524325 0.21662568
000190 fc c9 d3 3d 00 53 a7 bb a9 36 91 be 37 26 b6 bd
       0.1034126 -0.00510633 -0.28362015 -0.08894008
0001a0 e3 a2 c9 bd 01 64 17 3d b8 58 03 3d 8f b1 84 3e
       -0.09845521 0.036960606 0.03206703 0.25916716
0001b0 0c ae e5 bd 4d b2 c9 bc 4f 46 f7 bd 25 6d 33 3c
       -0.112148374 -0.024621153 -0.12073957 0.010951315
0001c0 c7 93 09 be ca 1e 2f be 3d 55 9f 3d 09 8e ab bd
       -0.13435279 -0.17101589 0.0777993 -0.083767004
0001d0 48 96 d4 3e 94 ae 16 3e 58 dc 29 be ed 4e 7c be
       0.41520905 0.14715034 -0.1658796 -0.24639483
0001e0 da 16 90 3e c3 28 fb 3d 66 6a 4d be 0d 6b 02 bd
       0.28142434 0.12263634 -0.20060119 -0.031840373
0001f0 ef 39 59 3e 10 6f 83 bc 87 00 71 3c f2 c2 72 be
       0.21213506 -0.01604417 0.014709598 -0.23707178
000200 a3 8f 3f 3d 92 a2 b3 3d af db b6 3e c2 d9 3d bd
       0.046767842 0.08771242 0.3571448 -0.04635025
000210 d6 29 76 3d 5a 0c 33 3e 6c 46 20 3e a0 ea 10 3e
       0.06009849 0.1748518 0.15651864 0.14152002
000220 3d 1f 81 3e ba bc 62 bd 91 83 bc 3d 61 80 4d bd
       0.25219145 -0.055355765 0.09204782 -0.05017126
000230 3d af 36 3e ce a3 f5 bd 5f 68 d3 3d 38 42 05 3e
       0.17840286 -0.11994134 0.103226416 0.13013542
000240 8b 44 03 be fc c3 2e be c8 9d 50 3d 93 7d 48 be
       -0.12819116 -0.1706695 0.050931722 -0.19579153
000250 a5 dd 67 be 3a da 11 be d6 cf c6 be 40 e0 0c be
       -0.22643144 -0.14243403 -0.3883044 -0.1375742
000260 24 50 8f 3c b1 f0 13 be bf 6e ed 3d 83 f8 94 be
       0.017494269 -0.14447285 0.11593389 -0.2909585
000270 e8 b5 60 bb c1 e0 a1 3e 02 d6 7e bd d1 93 ca bd
       -0.0034288112 0.31616786 -0.062215813 -0.09891475
000280 e4 d3 76 3e 54 5b bf bd f2 d3 13 3d bc 25 0d be
       0.24104267 -0.09343591 0.0360908 -0.13783926
000290 e2 b4 d5 bd ba 26 9f 3c 44 13 1e 3e 66 f9 7f 3d
       -0.10434891 0.019427646 0.15437037 0.062493704
0002a0 9c 88 1c be ac 05 3b 3e 65 0e 34 be 14 cd a4 bd
       -0.15286487 0.18263882 -0.17583616 -0.08046928
0002b0 67 06 86 3c d1 df d0 3a e5 e6 99 be a6 95 03 3e
       0.016360475 0.0015935843 -0.3005897 0.12850055
0002c0 97 a0 34 3d ab ee 22 3e 51 d5 83 be a9 cc 0b 3d
       0.044098463 0.15911357 -0.25748685 0.034130726
0002d0 ee b8 1e 3d 2a 5b 32 be 25 af 8e be 54 12 c4 be
       0.03875058 -0.17417589 -0.27868 -0.38295233
0002e0 49 79 f3 3d 18 73 26 bd 0b 97 ac 3e 15 d9 7e bc
       0.11888368 -0.040637106 0.33708987 -0.015554686
0002f0 d6 61 5e be 97 8c 35 3e 66 14 2b be 98 ee dc 3c
       -0.21717009 0.17729412 -0.16707 0.02696924
000300 f7 f5 da 3e 5a a1 1b be 88 02 0c 3e 24 4b cb bc
       0.4276578 -0.1519827 0.1367284 -0.024816103
000310 fc 22 d4 bd 53 a2 97 3d d9 44 db 3d 5d ef e4 bc
       -0.10358235 0.07404008 0.10706491 -0.027946169
000320 75 56 c6 3d fb c6 54 3e a8 c2 24 be 0f 15 7b be
       0.09684459 0.2077903 -0.1608988 -0.24519752
000330 e8 2b 5d bd 62 f7 c0 bd 6e 3d ec 3e 75 ea d5 3d
       -0.05399695 -0.094221845 0.46140617 0.1044511
000340 df 0e a1 bd a9 e6 56 bd 7c db f8 3d 56 a7 40 bd
       -0.078641646 -0.05246607 0.12151238 -0.047034584
000350 ea 78 3a bd f9 1c 8b bd aa 1e bb bc b2 ee c5 bd
       -0.04552547 -0.067926355 -0.02284177 -0.09664668
000360 a4 2e 23 bd 8f 4e 9b 3e 8d 9c 87 bc 57 15 bb bd
       -0.0398394 0.30333373 -0.016554141 -0.091349296
000370 6d 87 61 be 0d 13 5b 3e 1f 1b de bd 5e e5 46 bd
       -0.22024317 0.21393986 -0.10845017 -0.048558585
000380 e9 bb 15 3d 3b 4f 83 bd dc 7c f6 3d 55 b7 9c 3e
       0.03655616 -0.064115964 0.12035534 0.3060862
000390 fc 21 3b bd b9 36 84 bd fb 77 a0 3d 0b d8 48 3e
       -0.045686707 -0.0645575 0.078353845 0.19613664
0003a0 ee e0 c9 bc 65 24 58 be 5f e7 08 be 6c 62 65 3d
       -0.024643388 -0.21107633 -0.13369511 0.056002066
0003b0 9d ef 94 3d 6e cc ba 3e 1f ac c2 bd 15 bf d8 bd
       0.07272265 0.36484092 -0.09505486 -0.10583321
0003c0 9b f8 1b be 00 31 88 3d 7c 31 5f 3d 07 50 36 3e
       -0.15231554 0.06649971 0.05449055 0.17803966
0003d0 4b cf 4c 3e 21 c5 48 3d be 38 be be bc 15 96 bd
       0.20000951 0.04901612 -0.37152666 -0.07328364
0003e0 88 c2 1c 3e 0c 84 04 3d 0d f7 8c bd af 89 92 3e
       0.15308583 0.032352492 -0.06883059 0.2862067
0003f0 8f f7 14 3e 6c 1c bc bc fc af 89 bd ac a0 d8 bd
       0.14547561 -0.022962771 -0.067230195 -0.10577521

actor_mean.0.bias f4 [64]
000000 ef 08 87 bd 8e 62 6d 3d 90 a6 24 3e 99 ac 09 be
       -0.06593501 0.057955317 0.16079164 -0.13444747
000010 d1 ff 7e 3e 01 9b d6 3d d8 0f 11 3e 43 8c e7 bd
       0.24902274 0.104787834 0.141662 -0.1130605
000020 17 ee 05 3e de cc 0e be 72 09 f4 3d 6d 1d 46 3e
       0.13079105 -0.13945338 0.11915864 0.19347163
000030 cc a1 59 be b0 71 81 3c 69 32 49 be 5e e8 87 be
       -0.21253127 0.01580128 -0.19648136 -0.2654447
000040 f3 5c a5 3d c2 96 e4 bd e8 a8 0a 3e aa 52 2e 3d
       0.08074369 -0.11161567 0.13540995 0.042559303
000050 34 0c 2f be 35 61 c8 3d 96 06 07 be c5 19 a5 3d
       -0.17094499 0.09784166 -0.13186106 0.08061556
000060 e9 7f 66 3e c9 51 d5 bd c9 1f 40 be 3e 24 3e be
       0.22509731 -0.1041599 -0.18762125 -0.18568513
000070 7d 33 ba bd fd 2f b7 bc 92 0b 1e 3e 1e cc bd 3d
       -0.09091852 -0.02236175 0.15434101 0.09267448
000080 ee e9 16 3e b8 14 21 be 3c 64 7d 3d 6b c6 c0 bd
       0.14737675 -0.1573056 0.06186317 -0.09412845
000090 2f ee 32 be 4a a9 46 be ee ce 28 3e 85 21 9e 3d
       -0.17473672 -0.19400516 0.16485187 0.07721237
0000a0 e4 6a 32 3e cc 66 5a be 2c 57 84 bc 54 6b 05 be
       0.17423588 -0.21328276 -0.016154848 -0.13029224
0000b0 52 ac 21 be c1 48 5b 3e 50 9c 16 3e e5 db fe bd
       -0.15788391 0.21414472 0.14708066 -0.12444285
0000c0 6d 28 da bc f3 ce 70 be b2 a4 42 3e e4 b6 20 3e
       -0.026630605 -0.23516445 0.19008139 0.15694767
0000d0 de ba 51 be cb 4d df 3d 0e a6 81 bd 2e 2f 9a 3c
       -0.2048144 0.1090351 -0.063305005 0.018821325
0000e0 89 09 9a bb 03 91 58 be 2c a6 f6 bd 76 f5 4d be
       -0.0047008437 -0.21149068 -0.120434135 -0.20113167
0000f0 09 11 0e 3e 55 76 6f be e5 33 95 3d d5 11 2a be
       0.13873686 -0.23384984 0.07285289 -0.16608365

actor_mean.2.weight f4 [64, 64]
000000 f0 70 9a 3d 89 7f 14 3e 52 d2 b9 3b 20 e3 4c be
       0.07541072 0.14501776 0.005670824 -0.20008516
000010 6f 24 93 3d 53 55 0d be a7 ea 7e be ef 73 3a be
       0.071846835 -0.1380208 -0.248942 -0.18208288
000020 5d d2 44 3e ce 52 91 be f1 5a 53 3b 6b 79 06 3e
       0.19220872 -0.28383487 0.003225025 0.13132255
000030 25 6a 87 bd 5a 5b b8 3b de ec 9c be d6 03 d7 3e
       -0.06612042 0.0056261243 -0.30649465 0.41995114
000040 4b 3e 04 3e a9 c9 1b be f5 3e 89 be a9 ef 4f 3d
       0.12914388 -0.15213646 -0.26805845 0.050765667
000050 6f b1 3b be 25 e3 d9 bd b7 6a b5 3d 2f 64 68 3e
       -0.18329404 -0.106390275 0.08858245 0.22694467
000060 fd 8d cd bd 83 4f 95 3e d5 8c b5 3e a3 71 ba 3c
       -0.10036848 0.29162225 0.3545901 0.022759264
000070 a7 e5 ad 3e 13 f5 cc 3e 89 6a fd b8 1e 68 ff bc
       0.33964273 0.40030727 -0.00012083824 -0.031177577
000080 9e 47 1f 3e 85 b6 f8 3d 7f 92 1f 3e ba fd 18 3d
       0.15554664 0.12144188 0.15583228 0.037351348
000090 7d 5b 89 be 7b 87 57 3e 21 4f c4 3c 6a 21 b1 3d
       -0.26827613 0.21047775 0.023963513 0.08648951
0000a0 31 4a f6 bb 3e f1 87 3e d5 67 41 3e 8e 18 d0 3c
       -0.0075161685 0.2655124 0.18887265 0.025402334
0000b0 74 08 e7 3b 7d 29 b4 bd 0b ee 4f 3d 6c 1d c7 be
       0.0070505682 -0.08796976 0.050764125 -0.38889635
0000c0 92 6d 8b 3d 27 22 bb 3d ea 21 28 be 8c de ca bd
       0.06808008 0.091373734 -0.16419187 -0.09905729
0000d0 f5 4e 89 3d f8 ef 8b 3e 46 b5 9f be c4 5e 3d 3e
       0.06704513 0.2733152 -0.31192988 0.18493181
0000e0 1a 72 11 3d 6a a5 a1 3e 42 76 ac 3d 6f 05 88 be
       0.035509206 0.31571513 0.084209934 -0.26566646
0000f0 39 f6 b5 3c 9a 1a 1e 3e 35 71 8b 3c 85 d6 9a bc
       0.022212135 0.15439835 0.017021755 -0.018901119
000100 be e7 cb 3d 7d eb 33 bd 2b a1 8e be 4f ee 2b 3c
       0.09956311 -0.04392575 -0.27857336 0.010493829
000110 2a 1f 01 bd 60 89 9c 3d fe fe f5 3d b3 ba ab 3c
       -0.03152386 0.0764339 0.120115265 0.020963049
000120 80 16 ab 3e 43 d2 97 bd d3 d1 ea bd 73 4f fb 3d
       0.33415604 -0.07413151 -0.11465802 0.12271013
000130 19 d0 b2 bc e8 5a ba 3c f6 40 2b be f3 d2 25 be
       -0.021827744 0.022748426 -0.16724 -0.16193752
000140 e8 9d 60 3d 75 28 47 3e 5e 38 d6 b8 fe 55 83 3c
       0.05483809 0.19449027 -0.000102148144 0.016032215
000150 a3 af 81 3d f8 8b d0 3e ff 94 70 bc c7 67 ea 3d
       0.06332328 0.40731788 -0.014683961 0.11445575
000160 ea 23 cc bd 58 1d ba 3c af 68 24 bd 6a d5 5a 3e
       -0.099677876 0.02271907 -0.040138897 0.21370474
000170 69 2a a2 3e 38 a8 0b bd 66 4d 4c be 1b d0 a1 3e
       0.3167298 -0.034095973 -0.199514 0.31604084
000180 19 8a d7 bc ea 50 2c be 2b a4 56 be 78 fd ac bd
       -0.026310967 -0.16827741 -0.20961063 -0.08446783
000190 06 09 69 3e 4f 9e db 3d 2d 79 59 bd c7 75 1a 3e
       0.22757348 0.10723554 -0.053094078 0.15083991
0001a0 18 c4 86 bd 25 44 3c 3e 0f 81 18 be 19 83 39 3e
       -0.06580371 0.1838537 -0.14892982 0.18116416
0001b0 1c 38 60 be 8a ff c3 bd 73 ee eb bb 81 7e a2 3e
       -0.21896404 -0.095702246 -0.007200056 0.3173714
0001c0 bd ff c0 bb f1 3b b1 3d f9 fd e3 3c 2b 49 bc bd
       -0.0058898614 0.08654011 0.027831065 -0.09193643
0001d0 1d 84 b3 be 7d b4 f8 3c 2f 90 42 bd 38 c8 d6 3d
       -0.35061732 0.030359501 -0.047500785 0.104874074
0001e0 0c 2c 40 3d 8c 78 4b 3e 9f 45 2d 3e 3d 7f e5 3e
       0.046917006 0.19870204 0.1692109 0.44823638
0001f0 1b 7c 99 be 84 ec 0f be d9 2b e4 3d e0 bb b0 be
       -0.29977497 -0.14055067 0.11141176 -0.34518337
000200 bb 01 e7 3d 35 07 87 3d 18 ad 13 3d 00 c3 7b be
       0.11279627 0.065931715 0.036053747 -0.24586105
000210 a3 37 d2 3d 6c f1 12 3d a9 a6 31 3e 2e f3 56 3e
       0.10264518 0.03587477 0.17348732 0.20991203
000220 71 e3 04 3e 7f 18 86 3e cb a7 3a bd a4 45 0a 3e
       0.12977387 0.26190564 -0.045570176 0.13503128
000230 8a 84 04 be 91 31 43 3e ec be ad 3d e8 3b 75 be
       -0.12941185 0.19061877 0.08483681 -0.23948634
000240 75 b6 b3 bd 44 59 29 be 27 19 b4 be 2a 3d 46 be
       -0.08775035 -0.16537958 -0.3517544 -0.1935927
000250 05 8d c9 be ce 28 be 3d aa 84 4d 3d d7 3b 35 be
       -0.39365402 0.092851266 0.050175346 -0.17698608
000260 62 6a a4 bd 58 5a c5 3d dd 41 9f 3d be 87 d3 bc
       -0.080281034 0.09636372 0.07776234 -0.025821563
000270 73 79 ee bd 59 d3 7d be 97 61 84 bd d9 2c e4 bd
       -0.11644258 -0.24787654 -0.06463926 -0.111413665
000280 b1 15 a0 3c d5 6f 39 be 83 89 47 be 93 0c d1 be
       0.019541593 -0.18109067 -0.1948605 -0.40829906
000290 28 1f 50 3e 72 90 53 be a9 58 b3 bd 4e 12 bb 3c
       0.20324385 -0.2066057 -0.08757145 0.022835877
0002a0 4f 06 8b be 0f da 5d 3e fe fa 58 3e 8d 8b 24 3e
       -0.2715325 0.21665214 0.21189496 0.1606886
0002b0 fd 83 50 be 72 80 39 3e 0b d0 de bd 30 90 88 3d
       -0.2036285 0.18115404 -0.10879525 0.066681266
0002c0 db 3a 8c bd e7 72 e0 3d 6c d4 db bd d4 62 ae bb
       -0.06847163 0.10959416 -0.10733876 -0.00532184
0002d0 f9 f6 9c 3e c4 e7 8e be 2e 32 9b 3e 07 e9 73 3e
       0.30657175 -0.27911198 0.30311722 0.23819362
0002e0 a0 65 27 bd a2 b6 b9 3d 28 de c6 bd f6 99 df 3d
       -0.0408684 0.090680376 -0.09710342 0.109180376
0002f0 fb 6a e7 bc 4a 84 09 3f 6d 2e 11 be 94 7a 5c bc
       -0.028249254 0.5371748 -0.14177866 -0.013456959
000300 4b 7a 4f be 8a 9f a0 3e 48 99 61 be 0f bf f9 3d
       -0.20261495 0.3137172 -0.22031128 0.12194645
000310 7a f6 3f 3d 0c 0a a3 bc 34 59 05 bc 04 2a 8c 3e
       0.046865918 -0.019902252 -0.008138943 0.27375805
000320 ca 55 7e 3d 9d a3 56 3e 2d a2 b5 3c ee 21 53 3e
       0.062093534 0.20960851 0.022172058 0.20618412
000330 cc 59 3d bc 52 ab 27 3b e6 0b 9e 3d 9d f8 19 3e
       -0.011557054 0.0025584293 0.07717113 0.15036245
000340 fb 78 9a bd fe 2f b1 3d d8 cd 89 be ad ba 53 3d
       -0.075426064 0.08651732 -0.2691486 0.0516917
000350 55 10 81 be 59 85 0e be 12 b3 20 3e 00 5a bb be
       -0.25207773 -0.13918056 0.1569331 -0.36592102
000360 02 ac f7 3d 1e 7c 7b 3d 76 12 a7 bd af 55 ca 3e
       0.12093355 0.061397664 -0.08157818 0.39518496
000370 5c d2 17 bd 16 ad b0 3c 50 a3 5d be 5f b5 c4 be
       -0.03706585 0.021566909 -0.2164433 -0.38419625
000380 5c 12 13 be 84 3c 7f 3e 02 85 16 3d 57 f1 98 3e
       -0.14362472 0.24925429 0.03674794 0.29871628
000390 73 a0 18 3e 63 62 a0 3e 89 0a 04 3c 42 8c 42 3e
       0.14904957 0.31325063 0.008059152 0.18998817
0003a0 3b 8a 8b be fa b4 83 be 1f fc 55 3e c4 30 1f 3e
       -0.272539 -0.25724012 0.20896958 0.15545946
0003b0 23 3a 85 3e 85 fe 9e bd 97 34 4a 3e 63 72 9f 3e
       0.26020917 -0.077633895 0.19746624 0.31141958
0003c0 a4 89 45 3c 32 ca 8a bd 5c 19 15 be cc 3d 02 bd
       0.012056742 -0.06776847 -0.14560455 -0.031797215
0003d0 9e d8 03 be 41 4f f7 3d 25 f3 80 be 59 b7 4a bd
       -0.12875602 0.12075663 -0.25185505 -0.04949126
0003e0 9f 77 2e be 57 7e 6c 3d 91 69 89 3e be 94 96 3a
       -0.1703782 0.057737675 0.26838353 0.001148842
0003f0 2c 1b 86 3e e1 88 f3 bd 19 31 0c be 04 b5 86 3c
       0.26192605 -0.11891342 -0.13690604 0.016443737

actor_mean.2.bias f4 [64]
000000 b3 08 54 bd 27 93 01 be d2 ce 1e be 5c a0 4a be
       -0.05176611 -0.1265379 -0.15508583 -0.19787735
000010 12 04 0d 3e 1f bc cb 3d d4 62 67 3e 23 83 03 3e
       0.13771084 0.099479906 0.22596294 0.12842993
000020 da 14 48 be eb 53 b8 bd 89 01 22 3e 31 3d 3e bc
       -0.19539204 -0.09000381 0.15820898 -0.011611269
000030 70 71 a8 3c 4b d3 2f be ce fa 1e 3b e6 12 31 3e
       0.020561904 -0.17170446 0.0024258378 0.17292365
000040 b0 bc 22 3d 8b e1 cf bd ad 31 dc bd e5 d4 a2 3d
       0.039730728 -0.10150441 -0.107516624 0.07950763
000050 dd e6 c6 bd 43 6e 21 be de f1 4f bd 07 22 a3 3d
       -0.097120024 -0.15764718 -0.050767772 0.079654746
000060 39 25 1a 3e 52 32 23 3e ab 32 61 bd c2 5b 04 be
       0.15053262 0.15937164 -0.05497996 -0.12925628
000070 89 56 34 bd d9 5c 83 3c 0f ad 66 be 99 3b 09 3e
       -0.04402784 0.016035484 -0.22526954 0.13401641
000080 dc e3 3d be 92 20 93 bd 6d aa dc bd f9 68 17 3e
       -0.18543953 -0.07183947 -0.10774694 0.14786138
000090 e6 61 6c 3d 4f e6 36 3e f0 e9 f6 3d 7b 5d bc 3d
       0.05771055 0.17861293 0.12056339 0.091975175
0000a0 9b 62 68 3e 3c e8 b7 3d 48 7c f7 3c aa 2f c2 3d
       0.22693865 0.08979842 0.03021063 0.094817474
0000b0 be cd 23 3e 3f 30 f0 bc b7 95 61 be 80 45 1b be
       0.15996453 -0.02931988 -0.22029768 -0.15163231
0000c0 d7 7a e6 bd fa 8d 3e be d5 8a 6e 3d 0c ab 0f be
       -0.112538986 -0.18608847 0.05823787 -0.14030093
0000d0 5e 0d 69 be ae 5f 35 be fe 10 ca 3d c0 5f 24 3e
       -0.22759005 -0.1771228 0.09866522 0.1605215
0000e0 3e 37 38 3d 6e 98 16 3e 39 9e 37 be d7 4d 51 3e
       0.044974558 0.14706585 -0.17931451 0.2043985
0000f0 06 1e 4d 3e 52 3b 11 be 65 d4 b9 3d 36 ce 3a be
       0.20030984 -0.14182785 0.09073714 -0.18242726

actor_mean.4.weight f4 [2, 64]
000000 90 8a 58 3d 95 6a 22 bc a7 0d 01 bd 14 bd 20 3d
       0.05286652 -0.009913106 -0.03150716 0.03924282
000010 91 66 19 bd bd 72 83 3b 91 6a ab 3d be 60 33 3d
       -0.03745133 0.0040114806 0.08369935 0.043793432
000020 f4 f4 2c bd 45 24 ea 3b 57 ef 87 bd b3 b8 9b 3d
       -0.042225793 0.007145437 -0.06637447 0.07603588
000030 10 d5 b1 bd 50 e7 ae bd c6 c7 d6 3b ce 78 4b 3d
       -0.086832166 -0.08540213 0.0065545766 0.049675755
000040 97 1a cf bb 37 8f 2d bd 0a f9 f7 3c f7 37 7e 3b
       -0.0063203084 -0.04237291 0.030270118 0.0038790682
000050 3a e9 89 bc 7c 8e 65 bd 16 59 7b 3c d0 9e b4 3b
       -0.016834844 -0.056044087 0.015341064 0.005512096
000060 7d 9e 84 bd 13 95 ab 3d f7 dc 59 3d fa 16 93 3c
       -0.06475542 0.08378043 0.053189244 0.017955292
000070 d8 a1 6d 3c 01 41 f2 3c 2e d7 ed 3d 21 82 26 3d
       0.014503919 0.029572012 0.11613308 0.040651444
000080 a0 59 14 bd 12 c5 44 bc dd 1f 85 3d 20 7d 58 bc
       -0.036218286 -0.012009876 0.06500218 -0.013213426
000090 fe d2 b0 bd bb 29 98 3d c2 14 d3 3a 7f 4e 65 bd
       -0.086339936 0.074298345 0.0016104209 -0.055983063
0000a0 63 61 2c bd d2 de de bc ee c0 b0 3d 5c 7a 97 bd
       -0.042085063 -0.027205858 0.086305484 -0.07396385
0000b0 91 08 69 bd 22 27 d8 bc da c6 6c bb ee a0 64 3c
       -0.056892935 -0.026385847 -0.0036129267 0.013954384
0000c0 f3 23 0f bd 7b bf ee 3d fc c4 22 3d 5c ca 26 bd
       -0.034946393 0.11657616 0.03973864 -0.04072033
0000d0 16 cb c2 bb 81 d8 44 bc 29 40 2e bd 8a ed 6a 3d
       -0.00594462 -0.012014509 -0.042541657 0.05735544
0000e0 99 4b a6 3d 6d 83 b5 bc 57 d4 8c 3d e2 bc ab bd
       0.08119888 -0.022157395 0.06876438 -0.08385636
0000f0 9d ad 7c bc dd 34 33 3d b3 59 3c bd ae e0 10 3d
       -0.015422252 0.043751586 -0.04598398 0.03537052
000100 3b 7c 1c bd 86 eb 67 b9 a8 96 91 3d ce a3 b3 3d
       -0.038204413 -0.00022117616 0.071088135 0.08771478
000110 ce 90 8b bd 7b 1d f2 3c 01 5d 49 bd 31 10 97 bd
       -0.06814729 0.029555073 -0.04916096 -0.07376135
000120 87 5b 9c 3d 81 a4 3a bc bf e6 85 bc 22 9f 39 bd
       0.07634645 -0.01139176 -0.01634538 -0.045317777
000130 27 4b 35 bc 47 cf dd 3b 21 ed 5a 3d 76 5b 2b bd
       -0.011065281 0.006769094 0.0534488 -0.04183527
000140 2b 2c 35 3b d2 c5 25 3d c6 07 f8 bc 8f ce 27 3d
       0.0027644734 0.04047186 -0.030277144 0.040968474
000150 86 58 6e bd dd 11 c6 3c 51 86 bc bc 9a 2c 47 bd
       -0.05818989 0.02417844 -0.023013266 -0.04862652
000160 2c 22 8e 3c 02 34 95 bc 54 95 90 b8 35 e9 53 3d
       0.017350279 -0.018213276 -6.8942696e-05 0.051736075
000170 8f ed 85 3d 0a 6e df bd 5a 1e 12 3c 80 95 00 bd
       0.06539451 -0.1090966 0.008918369 -0.031392574
000180 44 dd 82 3d 95 50 03 be 9d d8 62 3b fa 51 be bc
       0.06389859 -0.12823708 0.0034613975 -0.023232449
000190 07 6a ce bc df e6 f9 bc b8 e0 35 bd bc ed b0 bd
       -0.025197042 -0.030505596 -0.04440376 -0.08639094
0001a0 1a 67 6e bd c4 b0 3b bc f4 78 1e bd d9 20 bd bd
       -0.058203794 -0.011455718 -0.03868957 -0.09234781
0001b0 62 2e 87 bd 88 10 2b 3d e5 fb 85 3d bf 2e a4 ba
       -0.06600644 0.041763812 0.06542186 -0.0012526138
0001c0 f2 83 d1 3b 8a 89 a5 3c 41 74 89 3c d2 95 98 3d
       0.006393903 0.020207185 0.016779067 0.07450451
0001d0 c3 76 c1 3d e2 18 d1 3c 43 2b 0c 3d cd a4 2d 3d
       0.0944648 0.02552456 0.034220945 0.042393494
0001e0 17 c2 b0 bc 93 c7 d3 3c 42 38 24 3c 3b 59 56 3d
       -0.021576924 0.025852 0.0100231785 0.05233119
0001f0 e8 1f 89 bd 5c b4 5a bd d2 2e 19 bd 79 41 a9 bd
       -0.06695539 -0.05339466 -0.037398167 -0.08264441

actor_mean.4.bias f4 [2]
000000 f9 3a 0e 3d f8 96 23 be
       0.03472421 -0.15975559
