jsbgym/models/train_saves/ppo_ts2e-2_2_32366_19-01_01:15:15.pt (torch, 62231 bytes, 14 tensors)

actor_logstd f4 [1, 2]
-0.070255734 -0.08496621
00000000: 3de2 8fbd c402 aebd

conv.0.weight f4 [3, 1, 5, 1]
-0.25283182 -0.26544282 0.23633876 0.45766792 0.83469546 0.65552735 0.7844845 0.34006602
0.49726912 0.5385169 0.6291453 -0.52421415 0.8211215 0.10818714 -0.20538278
00000000: 2c73 81be 1fe8 87be ca02 723e 7353 ea3e
00000010: 9aae 553f a4d0 273f fad3 483f 221d ae3e
00000020: 0f9a fe3e 3edc 093f ab0f 213f e632 06bf
00000030: 0535 523f 3891 dd3d dd4f 52be

conv.0.bias f4 [3]
0.0471659 0.02612845 -0.008834852
00000000: 0831 413d 550b d63c 0ec0 10bc

critic.0.weight f4 [64, 42]
0.18376744 0.28592142 -0.18298404 -0.07756673 -0.013480199 0.028678227 -0.55082464 0.10788257
0.16820842 0.024741253 0.08561994 -0.055110496 -0.24764156 0.26905838 0.10304648 -0.13237147
0.004979356 -0.0031254464 -0.20237075 -0.09405703 -0.040837336 0.05648856 0.039384928 0.18034649
0.056915566 0.03754214 -0.47581682 0.120684996 0.19446951 0.0013731506 -0.35482636 -0.0014789428
0.24984193 0.23552442 0.441597 0.21901876 0.16747266 0.11598316 0.0027930848 -0.07331366
-0.17382568 0.14139368 0.065573394 -0.08163265 0.017269569 -0.04527279 0.013922927 -0.018219652
0.24462877 -0.098602556 -0.18719421 -0.21164821 0.07850026 0.027330935 0.4129019 0.19399026
0.33116043 -0.069476314 0.090830915 -0.0011431612 0.023326857 -0.06109439 -0.29356092 -0.029891338
-0.49064544 -0.1505642 -0.16228437 -0.0026925832 -0.07834198 0.07998337 0.103828244 -0.051114004
-0.003077983 -0.06538837 -0.062840864 -0.12477924 0.3210135 0.086351655 -0.17327116 0.3466466
0.053219028 -0.0025332489 -0.1460359 -0.06280898 0.03530884 0.016269624 0.10945009 -0.04397761
-0.081590064 -0.11352905 0.056610372 -0.2679205 -0.07354153 0.024232568 -0.42001095 0.03502436
-0.32984486 0.037040677 -0.0131838275 -0.30446243 0.11484877 0.10874024 0.08090917 -0.2811567
-0.03806289 -0.17600352 -0.24597697 -0.13477086 -0.0018580531 -0.058352426 -0.1538041 0.070244014
-0.082008265 -0.14067018 -0.18647291 -0.09095201 0.2439186 -0.01426184 0.048077106 -0.35578802
0.15449354 -0.35439983 0.13696826 -0.24396057 -0.10916223 -0.08959235 0.08370463 0.15948756
-0.17188825 0.10774339 0.034488082 0.010702615 0.41898972 -0.16843851 -0.0073789116 -0.15920289
-0.055935733 -0.10539912 -0.10104158 0.24849685 0.16027771 -0.13176553 0.20547535 -0.082754344
0.119254865 -0.0895533 0.013838859 0.010634658 0.12114588 -0.10822878 -0.32810727 -0.009660158
0.10004546 -0.027369557 -0.12833518 0.032256424 -0.17494512 0.10835201 0.07855318 0.15479568
-0.019556511 -0.51435226 -0.015456421 0.06326546 0.1641686 0.034529194 -0.106834896 -0.115161315
-0.265945 0.21625966 0.13551642 0.03830833 0.07207672 -0.05939546 0.3370013 0.16506004
0.028234897 -0.10296882 -0.2788079 0.021203926 0.11264779 -0.35339743 -0.13003637 0.072351225
-0.1647718 -0.13678376 0.011932459 -0.11212647 0.17600209 0.23336811 -0.035856582 -0.0037154406
-0.043166727 -0.20312448 -0.36914638 -0.17930369 0.049509633 0.10752624 -0.052312035 0.15274563
-0.18026105 0.0035181486 0.29109132 0.2348705 -0.09963 -0.065591134 -0.16063823 0.13092439
-0.30768305 -0.13408296 -0.009166155 -0.20352736 -0.2595806 -0.022182453 -0.014848893 0.0020439823
0.021115217 0.31546432 0.13817194 -0.17885286 -0.24799532 0.019879747 -0.04021463 -0.20502134
0.015326826 0.22740524 0.104345605 0.06608901 -0.15641926 0.08065154 -0.3007343 0.18771099
-0.107348815 -0.15466066 -0.014700589 -0.11408355 0.19416161 0.03064302 -0.22878417 0.09542295
0.1292605 0.09051549 -0.058538925 0.14441791 -0.26213816 -0.019835005 0.32516426 -0.029999515
0.015060774 0.12250333 0.37580833 0.11484709 0.014147789 -0.23693989 -0.15579438 0.10225337
00000000: 882d 3c3e 4b64 923e 2b60 3bbe 4edb 9ebd
00000010: 0ddc 5cbc 9aee ea3c d802 0dbf 89f1 dc3d
00000020: d43e 2c3e 2bae ca3c 8259 af3d 8bbb 61bd
00000030: c095 7dbe 05c2 893e 080a d33d 638c 07be
00000040: de29 a33b 4ad4 4cbb 473a 4fbe f9a0 c0bd
00000050: 0d45 27bd 8c60 673d 1752 213d c0ac 383e
00000060: 4c20 693d c9c5 193d 439e f3be b229 f73d
00000070: 0423 473e 4afb b33a cdab b5be 16d9 c1ba
00000080: 90d6 7f3e 502d 713e 0119 e23e 7446 603e
00000090: f47d 2b3e 9488 ed3d 300c 373b 7925 96bd
000000a0: 5cff 31be 81c9 103e 584b 863d 052f a7bd
000000b0: e978 8d3c f66f 39bd fd1c 643c 6141 95bc
000000c0: f77f 7a3e 23f0 c9bd d7af 3fbe 4fba 58be
000000d0: bfc4 a03d 20e5 df3c e167 d33e 62a5 463e
000000e0: dc8d a93e 9949 8ebd 8f05 ba3d 20d6 95ba
000000f0: f717 bf3c 1c3e 7abd 9e4d 96be aede f4bc
00000100: e135 fbbe 802d 1abe e02d 26be 0d76 30bb
00000110: c371 a0bd 52ce a33d e7a3 d43d eb5c 51bd
00000120: fcb7 49bb 56ea 85bd b6b2 80bd 428c ffbd
00000130: e25b a43e 23d9 b03d ff6d 31be aa7b b13e
00000140: 32fc 593d dd04 26bb 6f8a 15be ffa1 80bd
00000150: 01a0 103d e047 853c 5e27 e03d de21 34bd
00000160: b118 a7bd eb81 e8bd 47e0 673d e02c 89be
00000170: f19c 96bd 6183 c63c ad0b d7be b475 0f3d
00000180: 6de1 a8be f7b7 173d fb00 58bc 80e2 9bbe
00000190: d535 eb3d 34b3 de3d b5b3 a53d c5f3 8fbe
000001a0: d5e7 1bbd 443a 34be 63e1 7bbe 5f01 0abe
000001b0: eb89 f3ba f402 6fbd d27e 1dbe 18dc 8f3d
000001c0: f3f3 a7bd d80b 10be c1f2 3ebe 0c45 babd
000001d0: ccc5 793e 7eaa 69bc 80ec 443d d929 b6be
000001e0: 8e33 1e3e e573 b5be 6841 0c3e cdd0 79be
000001f0: 7290 dfbd 327c b7bd 556d ab3d b550 233e
00000200: 7903 30be 91a8 dc3d 6043 0d3d 055a 2f3c
00000210: d285 d63e 257b 2cbe ccca f1bb 1506 23be
00000220: de1c 65bd 7edb d7bd e3ee cebd f575 7e3e
00000230: d71f 243e 8bed 06be 2168 523e 1c7b a9bd
00000240: e53b f43d b867 b7bd 62bc 623c fd3c 2e3c
00000250: 551b f83d 0da7 ddbd adfd a7be a445 1ebc
00000260: a2e4 cc3d 1f36 e0bc 4c6a 03be 501f 043d
00000270: d024 33be a9e7 dd3d 7de0 a03d c282 1e3e
00000280: fa34 a0bc 97ac 03bf ee3c 7dbc 5291 813d
00000290: d01b 283e 7c6e 0d3d 41cc dabd b2d9 ebbd
000002a0: f129 88be 2c73 5d3e d1c4 0a3e 32e9 1c3d
000002b0: f69c 933d a748 73bd 6f8b ac3e 8005 293e
000002c0: df4c e73c 51e1 d2bd e9bf 8ebe dbb3 ad3c
000002d0: e2b3 e63d 82f0 b4be 4128 05be e12c 943d
000002e0: f0b9 28be 0b11 0cbe 5c80 433c 90a2 e5bd
000002f0: e439 343e 0df8 6e3e 5ade 12bd c07e 73bb
00000300: 98cf 30bd ddff 4fbe c100 bdbe 639b 37be
00000310: 9dca 4a3d b836 dc3d 2545 56bd 5a69 1c3e
00000320: 5a96 38be bd90 663b ec09 953e e481 703e
00000330: d00a ccbd a554 86bd 597e 24be 0b11 063e
00000340: a288 9dbe 0b4d 09be a42d 16bc 7a69 50be
00000350: c0e7 84be fab7 b5bc c548 73bc 55f4 053b
00000360: d2f9 ac3c 8a84 a13e f27c 0d3e 3425 37be
00000370: 7cf2 7dbe dada a23c 19b8 24bd 1df1 51be
00000380: 5e1d 7b3c ebdc 683e 26b3 d53d ad59 873d
00000390: 5f2c 20be a22c a53d d9f9 99be 4f37 403e
000003a0: b2d9 dbbd 5d5f 1ebe bdda 70bc a3a4 e9bd
000003b0: 4dd2 463e 1207 fb3c 6646 6abe 1c6d c33d
000003c0: dd5c 043e 2f60 b93d 83c6 6fbd 4ae2 133e
000003d0: f936 86be 057d a2bc ee7b a63e 8bc1 f5bc
000003e0: 77c1 763c 07e3 fa3d f369 c03e f334 eb3d
000003f0: 21cc 673c 5fa0 72be 9088 1fbe 376a d13d

critic.0.bias f4 [64]
-0.048562523 0.012192432 0.057752717 0.032068837 -0.07390732 -0.0072086584 -0.027781686 0.06074484
0.0022344848 0.06504552 0.034115497 -0.01703666 0.1648948 -0.12068363 0.08203028 0.06163942
0.10381171 0.09968443 -0.056180283 -0.14653301 -0.108632974 -0.05203103 -0.16917618 0.023411233
0.019803757 -0.13707815 0.13899818 -0.00039923156 0.034153793 -0.04173662 0.010498415 -0.00027140178
-0.11516826 -0.0008565508 0.03847886 -0.02077877 0.031458057 0.05979226 0.004329948 0.010656058
0.15524574 -0.07282535 0.07848957 0.11788961 -0.04528256 -0.086510636 -0.019037765 0.038149197
-0.05244424 -0.08796398 0.02505291 -0.040771004 0.09215319 0.0058491714 -0.12509808 -0.066195294
-0.0005011471 -0.0242165 -0.063030876 -0.06650451 0.10675328 -0.0056998595 0.007534411 0.052687887
00000000: 7fe9 46bd c4c2 473c 1d8e 6c3d 9d5a 033d
00000010: b95c 97bd 9c36 ecbb 6b96 e3bc 95cf 783d
00000020: 6f70 123b 9636 853d b1bc 0b3d 7790 8bbc
00000030: 2fda 283e fb28 f7bd 7eff a73d 9e79 7c3d
00000040: 3c9b d43d 5a27 cc3d 4c1d 66bd c00c 16be
00000050: f77a debd 7d1e 55bd 853c 2dbe eac8 bf3c
00000060: 7d3b a23c 375e 0cbe 8a55 0e3e f44f d1b9
00000070: d9e4 0b3d 05f4 2abd 8b01 2c3c ee4a 8eb9
00000080: 56dd ebbd 278a 60ba 029c 1d3d 3d38 aabc
00000090: 2ada 003d bbe8 743d 3de2 8d3b bf96 2e3c
000000a0: bdf8 1e3e 7525 95bd 24bf a03d 1c70 f13d
000000b0: 357a 39bd 7d2c b1bd 16f5 9bbc 5542 1c3d
000000c0: c5cf 56bd 7626 b4bd c33b cd3c 7fff 26bd
000000d0: d0ba bc3d 68aa bf3b b619 00be 6691 87bd
000000e0: 6a5f 03ba ae61 c6bc 5516 81bd 8433 88bd
000000f0: 77a1 da3d e3c5 babb 38e3 f63b 41cf 573d

critic.2.weight f4 [64, 64]
0.13652822 0.15942363 0.037835326 -0.20144413 0.2758002 0.12511836 0.048146464 0.24375206
0.2331112 -0.14291699 -0.08372895 0.26930413 0.11680921 -0.2760048 -0.01361664 0.12747575
0.12602066 0.3923652 -0.0150592765 0.044320993 -0.05944778 0.16619672 0.33108798 0.15411827
-0.15354341 -0.060828928 0.015262336 0.0150362365 -0.19737545 -0.21223927 0.01648213 -0.23698668
0.32034373 -0.07638024 -0.09389005 -0.023847494 -0.2040737 0.3478061 0.024820117 -0.07040246
0.026514784 0.26719943 0.038827714 -0.08487425 -0.1525247 0.18599622 -0.055952683 0.21508275
-0.049109034 -0.008465942 0.18169205 -0.076179676 0.16477135 -0.18121585 -0.21973161 -0.0016287708
-0.229339 0.09652136 0.05287047 0.29772118 -0.20863815 -0.10273697 -0.30236197 -0.05016549
-0.11583494 0.15980309 0.09254916 0.026107365 -0.30960092 0.0006883037 -0.34044263 0.112651266
0.27163512 0.3272036 0.20980754 0.072262846 -0.021529583 0.15613243 0.2847592 0.17209028
-0.0823201 0.06823513 0.14436613 -0.10691305 0.015407881 0.08534373 0.05180168 0.15098959
0.043242842 -0.1247293 -0.21751182 -0.043992124 0.024362618 0.09368594 0.15559113 0.048094604
0.18195088 -0.023503995 0.2012641 -0.05099758 0.030815195 0.19534315 -0.21268651 0.13495092
-0.30880052 0.31679326 0.25605443 -0.15621407 0.016204376 0.07701769 0.31417722 -0.024630567
0.25217372 -0.04656795 0.04063245 -0.01063355 -0.16406314 -0.15140828 -0.013983276 0.14489251
0.22562078 0.44546884 0.17500322 -0.13518438 -0.050569057 0.20461498 0.068788625 0.15075551
-0.18987502 -0.32425356 0.082154706 -0.038391605 -0.18947312 -0.37711617 0.12134496 -0.00074666913
-0.21874186 0.3210916 0.27301827 0.32033017 -0.02653116 -0.06815796 0.27615282 -0.18379934
0.1319628 0.43867362 -0.054810587 0.197294 0.074288264 0.04187517 -0.035957698 0.21537393
0.0034042606 -0.15604204 0.5114633 -0.088354595 0.106238835 -0.19112842 -0.10119058 0.3235945
0.00041370266 -0.49102464 -0.23410125 -0.34106943 -0.14911237 -0.07978524 -0.05530166 0.12844148
0.5904611 0.06764611 0.38112757 0.17215148 0.09311732 -0.111414365 -0.11588615 -0.35636038
0.22061422 -0.04328889 0.076793276 0.04254534 0.3363707 -0.15608993 0.017952105 -0.3254923
0.10357701 -0.027537625 -0.13302223 -0.26594192 -0.18943527 -0.08696943 -0.14294268 -0.1701115
0.23609453 -0.05990095 -0.021029042 0.10313446 -0.07785256 0.064471245 -0.26514933 -0.03588988
0.03317367 0.0006296885 0.17450666 -0.02015935 0.29009774 -0.07701568 -0.14819668 -0.022918273
-0.04601895 -0.05728385 -0.047177676 0.047042843 -0.27197295 0.17855959 0.16334051 -0.26685703
-0.13664186 0.2590931 0.15609486 0.098523535 -0.11074133 0.21373205 -0.15060109 -0.07813985
0.05113318 0.29118434 0.13192983 -0.18494062 0.06857966 0.18263127 -0.43353242 -0.2354835
0.1808145 0.068476886 0.40713212 0.090650454 0.14711714 -0.009139909 0.02864959 0.05463496
-0.06161839 0.25675294 0.08344025 0.051312096 -0.19011058 0.12776458 0.024178607 0.07348344
-0.09992032 -0.34352678 -0.17337766 -0.0684583 -0.17888105 0.022247052 0.24434017 -0.30200627
00000000: 0ece 0b3e f33f 233e 37f9 1a3d 5f47 4ebe
00000010: af35 8d3e 071f 003e 3a35 453d 249a 793e
00000020: b4b4 6e3e d558 12be 157a abbd 3be2 893e
00000030: ab39 ef3d 8050 8dbe 5418 5fbc 0189 023e
00000040: 8f0b 013e 17e4 c83e 2fbb 76bc ee89 353d
00000050: 847f 73bd 792f 2a3e 5d84 a93e 2ed1 1d3e
00000060: 7c3a 1dbe c127 79bd e00e 7a3c 8c5a 763c
00000070: ca1c 4abe 4055 59be 8805 873c a3ac 72be
00000080: 1804 a43e 3e6d 9cbd 6d49 c0bd d25b c3bc
00000090: b2f8 50be a413 b23e 8f53 cb3c 2a2f 90bd
000000a0: 8835 d93c 5dce 883e cf09 1f3d 8dd2 adbd
000000b0: 6f2f 1cbe cb75 3e3e a42e 65bd a73e 5c3e
000000c0: 8e26 49bd bcb4 0abc 7b0d 3a3e 1704 9cbd
000000d0: d2b9 283e a690 39be 5301 61be 7b7c d5ba
000000e0: d8d7 6abe feac c53d b58e 583d e96e 983e
000000f0: 3da5 55be c367 d2bd 30cf 9abe 547a 4dbd
00000100: de3a edbd 6ca3 233e 6a8a bd3d 1ddf d53c
00000110: 0384 9ebe 486f 343a 7f4e aebe b5b5 e63d
00000120: c213 8b3e 3b87 a73e cad7 563e 8bfe 933d
00000130: cf5e b0bc 2ee1 1f3e f5cb 913e 6f38 303e
00000140: 7197 a8bd dcbe 8b3d b7d4 133e 3bf5 dabd
00000150: 5671 7c3c b2c8 ae3d 002e 543d 049d 1a3e
00000160: 681f 313d 1372 ffbd 6bbb 5ebe 1631 34bd
00000170: 1d94 c73c 6ade bf3d 4853 1f3e d9fe 443d
00000180: 5551 3a3e 738b c0bc 2d18 4e3e d7e2 50bd
00000190: 2670 fc3c 0908 483e 7eca 59be 9330 0a3e
000001a0: 1a1b 9ebe ba32 a23e 9119 833e 95f6 1fbe
000001b0: 0abf 843c 73bb 9d3d d6db a03e 0bc6 c9bc
000001c0: ea1c 813e 09be 3ebd 366e 263d 5738 2ebc
000001d0: 2b00 28be c60a 1bbe 1c1a 65bc b45e 143e
000001e0: 2209 673e 7e14 e43e 0b34 333e c66d 0abe
000001f0: 8021 4fbd 9786 513e 0de1 8c3d a75f 1a3e
00000200: 996e 42be 9004 a6be ba40 a83d 8440 1dbd
00000210: 3e05 42be 5f15 c1be b583 f83d 1ebc 43ba
00000220: defd 5fbe 1e66 a43e 0dc9 8b3e 5102 a43e
00000230: e057 d9bc 6796 8bbd e763 8d3e e535 3cbe
00000240: 4221 073e d499 e03e 1181 60bd 7007 4a3e
00000250: 7224 983d 4c85 2b3d 6148 13bd fc8a 5c3e
00000260: 041a 5f3b 7cc9 1fbe 42ef 023f 41f3 b4bd
00000270: bf93 d93d 2bb7 43be 023d cfbd 2eae a53e
00000280: 3be6 d839 9567 fbbe 3db8 6fbe a7a0 aebe
00000290: eab0 18be 7266 a3bd fe83 62bd 2a86 033e
000002a0: 7528 173f 0b8a 8a3d 2723 c33e 7a48 303e
000002b0: 4bb4 be3d 372d e4bd b855 edbd de74 b6be
000002c0: b2e8 613e b14f 31bd cb45 9d3d 0644 2e3d
000002d0: c838 ac3e 0ad6 1fbe 4b10 933c eda6 a6be
000002e0: 2f20 d43d 9696 e1bc fb36 08be 8a29 88be
000002f0: 52fb 41be 071d b2bd 915f 12be b631 2ebe
00000300: c4c2 713e b35a 75bd 1945 acbc 2938 d33d
00000310: 2a71 9fbd 8009 843d a7c1 87be 4401 13bd
00000320: 1de1 073d ae11 253a e0b1 323e 3925 a5bc
00000330: b187 943e 66ba 9dbd dfc0 17be 1abf bbbc
00000340: 5e7e 3cbd 78a2 6abd 613d 41bd ffaf 403d
00000350: 0a40 8bbe 53d8 363e bc42 273e 7ca1 88be
00000360: d8eb 0bbe daa7 843e 55d7 1f3e b5c6 c93d
00000370: 5acc e2bd 93dc 5a3e 2c37 1abe c907 a0bd
00000380: 0671 513d 1d16 953e 9d18 073e 1361 3dbe
00000390: 7e73 8c3d b103 3b3e f6f7 ddbe 9622 71be
000003a0: 7027 393e 9c3d 8c3d 9f73 d03e f2a6 b93d
000003b0: e0a5 163e 8fbf 15bc 8cb2 ea3c e8c8 5f3d
000003c0: 9163 7cbd 1f75 833e b9e2 aa3d a22c 523d
000003d0: 59ac 42be b8d4 023e 3712 c63c 7c7e 963d
000003e0: 06a3 ccbd bee2 afbe ea89 31be dd33 8cbd
000003f0: 982c 37be 733f b63c 4f34 7a3e 91a0 9abe

critic.2.bias f4 [64]
-0.021252675 0.03175908 0.005092118 0.04001125 0.021370742 -0.08193813 -0.11378136 -0.010108372
-0.042968877 -0.05660879 0.1034262 0.09528104 0.029026339 0.007913303 0.027445972 -0.041023646
0.00010239058 -0.051734373 0.018722864 -0.008520615 -0.025688497 -0.10765864 0.015215748 0.08044903
-0.029397003 0.06553326 0.093193024 0.0069775605 -0.03323025 -0.007813749 0.034588285 -0.008525769
0.0030323341 0.023104776 -0.033396564 0.04100084 0.016621768 0.028656214 0.00065396156 0.06970642
0.041597623 -0.017389385 0.018910008 -0.03816805 -0.016044721 -0.07325474 0.118435204 -0.026238667
0.09342986 -0.021188146 -0.032147057 -0.042074483 -0.027341546 -0.01429437 0.09957329 0.073336355
-0.036606226 0.013239084 0.036774408 0.08136642 0.090825364 -0.0138634965 -0.10961469 -0.021980654
00000000: 171a aebc cf15 023d c8db a63b d6e2 233d
00000010: b211 af3c 2ecf a7bd 3406 e9bd 969d 25bc
00000020: 2200 30bd 9ede 67bd 1ed1 d33d b522 c33d
00000030: a5c8 ed3c cca6 013c 60d6 e03c 6908 28bd
00000040: 86ba d638 6ce7 53bd b160 993c 0d9a 0bbc
00000050: af70 d2bc 227c dcbd 794b 793c 76c2 a43d
00000060: fcd1 f0bc 4d36 863d fcdb be3d 05a4 e43b
00000070: 711c 08bd 3d05 00bc 72ac 0d3d abaf 0bbc
00000080: 20ba 463b 3a46 bd3c d6ca 08bd 7ff0 273d
00000090: 602a 883c 70c0 ea3c 9e6e 2b3a 3dc2 8e3d
000000a0: 4562 2a3d 2f74 8ebc 29e9 9a3c 1a56 1cbd
000000b0: 3870 83bc 9506 96bd 288e f23d 79f2 d6bc
000000c0: 2858 bf3d c392 adbc a2ac 03bd 4b56 2cbd
000000d0: 61fb dfbc ef32 6abc 15ed cb3d 5f31 963d
000000e0: 69f0 15bd bee8 583c c3a0 163d 70a3 a63d
000000f0: a602 ba3d b823 63bc ab7d e0bd c610 b4bc

critic.4.weight f4 [1, 64]
0.0134481285 -0.07463799 0.17901517 -0.28469324 -0.043167174 0.108580396 0.2813818 0.017724635
0.17378007 0.1334874 -0.090029776 -0.07235705 -0.06376059 0.18176417 -0.05240965 0.10131146
-0.3096641 0.11164974 -0.15499209 0.03400896 0.07486315 0.06325075 -0.13904484 -0.070215374
0.07356247 -0.04210587 -0.059824876 -0.10538118 0.051211353 0.29013807 -0.122457966 0.14550072
0.037504513 -0.026042378 0.07940864 -0.14317039 -0.07473941 -0.068585716 0.21570666 -0.18766367
-0.058340766 0.06709928 -0.14560576 0.08787132 0.011052907 0.15512066 -0.07930271 0.08081947
-0.28575665 0.08372623 0.01090182 0.030651605 0.10024334 0.051863376 -0.11505367 -0.02897282
0.053712834 -0.027705103 -0.14025421 -0.12884639 -0.21998501 0.16001886 0.07902937 0.049579203
00000000: 8a55 5c3c cddb 98bd c14f 373e 50c3 91be
00000010: 10d0 30bd 665f de3d 4611 903e 4133 913c
00000020: 67f3 313e ecb0 083e 8861 b8bd ef2f 94bd
00000030: ea94 82bd 6320 3a3e 80ab 56bd 627c cf3d
00000040: 4b8c 9ebe 9ea8 e43d 3fb6 1ebe fb4c 0b3d
00000050: da51 993d 9c89 813d c561 0ebe 14cd 8fbd
00000060: eca7 963d 3477 2cbd ee0a 75bd 17d2 d7bd
00000070: ffc2 513d fa8c 943e 3ecb fabd 24fe 143e
00000080: 559e 193d d356 d5bc ffa0 a23d 429b 12be
00000090: fa10 99bd ab76 8cbd 35e2 5c3e e82a 40be
000000a0: baf6 6ebd 596b 893d ad19 15be e1f5 b33d
000000b0: 4117 353c f3d7 1e3e 7669 a2bd ae84 a53d
000000c0: b24e 92be a878 ab3d 8c9d 323c 1319 fb3c
000000d0: 614c cd3d b16e 543d 42a1 ebbd 6858 edbc
000000e0: fd01 5c3d d0f5 e2bc cd9e 0fbe 4ff0 03be
000000f0: c043 61be fcdb 233e 26da a13d 9013 4b3d

actor_mean.0.weight f4 [64, 42]
0.042071145 -0.00807138 0.27655584 0.29268405 0.19801138 0.18386418 -0.134011 0.2613672
0.26535356 -0.2679454 -0.029475454 0.053403914 0.19240549 -0.3521243 0.0055822106 -0.27564806
0.029153673 -0.033063456 0.18350892 0.087278396 -0.003186154 0.393547 -0.20047475 0.10120462
-0.05284294 0.019760607 0.27380347 -0.11944431 -0.08689852 0.062702365 -0.29506862 0.30694908
0.17231818 0.17291123 0.019775061 -0.018592175 -0.054910377 -0.079773016 -0.10944504 0.090511255
0.09833516 -0.35713756 -0.27688807 0.31591827 -0.00095813285 -0.022260625 0.048535973 -0.047753062
0.05011169 0.18409742 -0.22848001 -0.07938495 -0.22519144 -0.1256277 0.2973834 0.32784176
0.34034276 0.14558406 -0.00206774 -0.064276665 -0.15619169 -0.0878035 0.31948626 -0.05756429
-0.20729044 0.34366223 0.08625529 -0.03910575 0.22046241 -0.097285956 0.12478472 -0.47020736
-0.15896529 -0.28486598 -0.017003704 -0.094717346 0.39633337 0.057071738 -0.030543238 -0.07758435
0.101471856 -0.20293437 0.1677186 -0.06302133 -0.18928108 0.28193027 -0.20996553 -0.023337778
0.06321667 0.2353668 -0.18951698 0.24781801 -0.04473851 0.099541806 0.07242477 0.06212039
0.10219952 0.02882048 0.010391641 0.15077467 0.122346245 -0.025744589 -0.106827766 -0.1176627
0.45507857 0.37580028 0.1594928 -0.10984625 -0.02683923 0.30853766 0.24447377 -0.3214014
0.16136014 0.1314845 0.14306523 0.24007705 0.11208949 -0.05184298 0.060788713 0.117681764
0.16228244 -0.21053356 0.02433174 -0.022307757 -0.14636329 0.21405247 0.26126182 0.38472715
-0.2282094 0.13692482 -0.16857229 0.2185455 0.04844807 -0.301736 -0.10689254 -0.26458946
0.20405073 -0.111767754 0.20721872 0.019857055 -0.04326964 -0.1225671 -0.07709359 0.31263292
-0.04134374 -0.033737887 0.37045702 -0.4119889 0.14593919 -0.053301044 -0.19567798 -0.14133379
0.118002445 0.017382618 -0.038255733 0.16185316 -0.03619021 -0.34103754 0.12601277 -0.15863734
0.029388705 -0.23013371 -0.2497485 -0.021039568 0.022383913 0.057404954 -0.051885903 0.041576136
-0.12944253 0.0878025 0.18174072 0.09235209 -0.06851309 -0.047494438 0.07667163 -0.09443316
-0.010516436 0.042042762 -0.110498935 0.035709135 -0.29113725 -0.09474555 -0.19642203 0.20964935
0.074332915 -0.00881919 0.1678185 0.09292913 0.24522352 -0.22423989 -0.42255166 0.12238364
0.022419943 -0.06552845 -0.15547977 -0.02632237 -0.25180718 -0.3512019 0.17689921 -0.14477919
-0.00952534 -0.14546782 0.32757434 -0.09964761 0.2106483 -0.008801134 -0.08857901 0.08105364
-0.10342187 -0.31505507 -0.07293536 -0.1889705 -0.12707795 0.1342609 -0.13864064 0.21862948
0.14311606 -0.43520647 0.06464305 -0.08401896 -0.052544955 -0.027735643 0.15354206 -0.06716681
0.3781337 0.09040462 -0.017211048 -0.12775055 0.109041296 -0.073888935 -0.23201066 -0.094599165
0.044943828 0.34232885 -0.060054593 -0.06663621 -0.046592228 -0.3199582 0.11934355 0.30003035
0.15329282 -0.033977088 -0.10696951 -0.09790298 -0.011416391 0.12833777 -0.07068346 0.15328598
-0.037117634 -0.15892917 0.24570838 -0.11726783 -0.2762425 0.14712664 0.13485168 0.05144987
00000000: cb52 2c3d d23d 04bc ba98 8d3e afda 953e
00000010: 7fc3 4a3e e446 3c3e 2e3a 09be ecd1 853e
00000020: 6cdc 873e 2430 89be 8276 f1bc 10be 5a3d
00000030: f205 453e a349 b4be faea b63b be21 8dbe
00000040: afd3 ee3c 8c6d 07bd c3e9 3b3e 04bf b23d
00000050: cbce 50bb fe7e c93e 4149 4dbe 5e44 cf3d
00000060: d771 58bd ffe0 a13c f82f 8c3e 389f f4bd
00000070: daf7 b1bd 196a 803d 3c13 97be 6e28 9d3e
00000080: 2d74 303e a40f 313e 4fff a13c 9e4e 98bc
00000090: b4e9 60bd 0960 a3bd b924 e0bd f75d b93d
000000a0: f263 c93d bcda b6be 46c4 8dbe 0ac0 a13e
000000b0: 352b 7bba ea5b b6bc a8cd 463d b798 43bd
000000c0: ea41 4d3d 0984 3c3e aaf6 69be 9494 a2bd
000000d0: 9698 66be 8ca4 00be a342 983e e0da a73e
000000e0: 6841 ae3e fd13 153e ec82 07bb 7ca3 83bd
000000f0: b7f0 1fbe 52d2 b3bd b493 a33e 88c8 6bbd
00000100: f243 54be 7ff4 af3e 9da6 b03d 5a2d 20bd
00000110: e6c0 613e dc3d c7bd 228f ff3d 05bf f0be
00000120: ccc7 22be f4d9 91be 5a4b 8bbc 2bfb c1bd
00000130: 35ec ca3e 0ec4 693d d035 fabc 8be4 9ebd
00000140: 7ad0 cf3d 07ce 4fbe 6dbe 2b3e 5411 81bd
00000150: e6d2 41be 2a59 903e 3401 57be de2e bfbc
00000160: be77 813d ff03 713e bd10 42be 01c4 7d3e
00000170: ba3f 37bd 93dc cb3d 7053 943d f371 7e3d
00000180: fb4d d13d ed18 ec3c b441 2a3c ad64 1a3e
00000190: ab90 fa3d 51e6 d2bc 84c8 dabd 24f9 f0bd
000001a0: 0f00 e93e e568 c03e 1552 233e 12f7 e0bd
000001b0: f2dd dbbc a6f8 9d3e 5557 7a3e b98e a4be
000001c0: 983b 253e dfa3 063e b17f 123e c2d6 753e
000001d0: 2d8f e53d 4e59 54bd 96fd 783d 2303 f13d
000001e0: 5e2d 263e 1c96 57be 5b53 c73c c2be b6bc
000001f0: 42e0 15be 9230 5b3e 1cc4 853e f5fa c43e
00000200: baaf 69be 0536 0c3e 379e 2cbe 64ca 5f3e
00000210: 7c71 463d 247d 9abe 7aea dabd 4578 87be
00000220: adf2 503e 7ee6 e4bd 2531 543e 43ab a23c
00000230: 823b 31bd 7604 fbbd 3ee3 9dbd 6c11 a03e
00000240: 0e58 29bd bd30 0abd 8bac bd3e 36f0 d2be
00000250: 1571 153e 3252 5abd cf5f 48be ceb9 10be
00000260: 44ab f13d fe65 8e3c 0bb2 1cbd d6bc 253e
00000270: 303c 14bd 799c aebe 7e09 013e d471 22be
00000280: 95c0 f03c 2ca8 6bbe 12be 7fbe 2c5b acbc
00000290: 785e b73c 7521 6b3d 5086 54bd bd4b 2a3d
000002a0: 958c 04be ccd1 b33d 3d1a 3a3e 1823 bd3d
000002b0: 9750 8cbd 8789 42bd 0406 9d3d 2c66 c1bd
000002c0: 214d 2cbc 0835 2c3d 444d e2bd be43 123d
000002d0: f10f 95be f409 c2bd db22 49be 52ae 563e
000002e0: db3b 983d 5d7e 10bc 9dd8 2b3e a151 be3d
000002f0: e01b 7b3e 249f 65be b158 d8be 46a4 fa3d
00000300: 07aa b73c c833 86bd 1736 1fbe 03a2 d7bc
00000310: dfec 80be bcd0 b3be 1125 353e ff40 14be
00000320: 2c10 1cbc 84f5 14be d3b7 a73e 0c14 ccbd
00000330: 30b4 573e a232 10bc e968 b5bd 73ff a53d
00000340: d8ce d3bd e64e a1be 225f 95bd 7c81 41be
00000350: b920 02be b07b 093e d0f7 0dbe 68e0 5f3e
00000360: 048d 123e 62d3 debe 9363 843d 2212 acbd
00000370: 6139 57bd dc35 e3bc 213a 1d3e c18e 89bd
00000380: be9a c13e 0f26 b93d 2ffe 8cbc 0ad1 02be
00000390: 0b51 df3d 1553 97bd 3494 6dbe 35bd c1bd
000003a0: 0517 383d ba45 af3e cefb 75bd 9178 88bd
000003b0: 7ed7 3ebd 90d1 a3be 646a f43d 949d 993e
000003c0: cbf8 1c3e 8f2b 0bbd d512 dbbd 5c81 c8bd
000003d0: d00b 3bbc fa6a 033e 7dc2 90bd 00f7 1c3e
000003e0: a908 18bd 54be 22be fa9a 7b3e 1e2a f0bd
000003f0: a86f 8dbe 5ea8 163e 8f16 0a3e 19bd 523d

actor_mean.0.bias f4 [64]
0.017093869 -0.034820672 0.004132855 0.019994352 0.033855744 -0.04575544 0.03267426 -0.035994958
0.011100071 -0.024098454 -0.030958513 -0.008239263 -0.004619555 0.029398307 -0.024892543 0.055806577
-0.015386051 0.03244126 0.025263434 0.027653461 -0.01498265 -0.00396136 -0.063422784 0.07128362
-0.05477301 -0.04975453 0.040497895 -0.014373361 0.0056849606 0.015236188 0.010132182 -0.042088512
0.0890636 -0.01242538 0.0398191 -0.011468134 -0.018593704 0.03302053 0.03170188 0.05791122
-0.15947562 -0.048639342 0.08573479 0.08742942 -0.002678432 -0.03172572 -0.0045653074 0.011619965
0.024237247 0.01904393 0.098356344 -0.057638805 -0.024145707 0.0038785574 0.014053187 -0.017087825
-0.06811848 -0.039228387 -0.076656125 0.009779196 0.044178817 -0.06841791 0.022363327 -0.0141603025
00000000: 7108 8c3c 1fa0 0ebd e76c 873b 32cb a33c
00000010: 52ac 0a3d 0e6a 3bbd 72d5 053d 736f 13bd
00000020: 12dd 353c 1f6a c5bc b59c fdbc f9fd 06bc
00000030: a35f 97bb b8d4 f03c 72eb cbbc 7095 643d
00000040: c615 7cbc 20e1 043d 43f5 ce3c 8389 e23c
00000050: ca79 75bc 4cce 81bb cee3 81bd 26fd 913d
00000060: aa59 60bd 68cb 4bbd 1fe1 253d 3f7e 6bbc
00000070: e848 ba3b 34a1 793c 7401 263c 0165 2cbd
00000080: fa66 b63d d293 4bbc 5a19 233d d7e4 3bbc
00000090: d351 98bc 8940 073d d5d9 013d 5134 6d3d
000000a0: 944d 23be 0c3a 47bd b995 af3d 320e b33d
000000b0: a288 2fbb d4f2 01bd 9398 95bb aa61 3e3c
000000c0: 318d c63c 0402 9c3c 0d6f c93d ab16 6cbd
000000d0: 38cd c5bc 652f 7e3b 573f 663c c4fb 8bbc
000000e0: b481 8bbd f2ad 20bd e3fd 9cbd ec38 203c
000000f0: d9f4 343d b01e 8cbd 4c33 b73c 9d00 68bc

actor_mean.2.weight f4 [64, 64]
0.26009405 0.06010602 0.103288695 0.07431163 -0.13646165 0.0007197243 -0.118397504 -0.13611251
-0.2637604 0.29079574 -0.46260878 -0.21579874 0.013278801 0.13157128 0.08717907 0.23008908
0.26481515 0.25204036 0.24791406 0.08352571 0.0336373 -0.016777052 0.06785613 -0.055210512
-0.21791328 0.10603689 0.16579568 0.03348378 0.13849598 0.015138383 -0.27336586 -0.155142
0.15328498 0.16773683 -0.12814781 0.057434633 0.13659658 0.062745854 -0.10329555 0.13935685
-0.17060857 0.15863453 -0.02457554 0.20512907 -0.09967022 -0.029454105 0.1262534 -0.0065525784
0.042740613 -0.02198 0.03174244 0.06142208 0.17193224 -0.09193834 0.29567933 -0.18433695
-0.19316587 -0.3538518 -0.48434892 0.22523777 -0.27518767 -0.06222165 -0.061381016 0.10690275
-0.26232958 0.16107072 0.035432145 -0.30314505 -0.058031313 -0.10037812 -0.21566059 -0.16562912
-0.32708234 0.06801716 0.1648093 0.35032234 -0.039214227 0.13788235 -0.31899717 -0.04018741
-0.02793704 0.041114528 -0.17314038 -0.19280036 0.024040278 0.060460024 -0.2535967 -0.1637212
0.05756271 -0.16069908 0.14920168 0.09534067 0.0039523463 -0.30447203 -0.051654045 -0.096081465
-0.21894862 0.16623183 0.22796197 0.13525747 0.0043282383 0.14737295 -0.2975282 0.37602764
-0.15152659 0.239495 0.11523449 0.084949456 0.04332273 -0.38944367 -0.120688185 -0.17304432
0.26836535 0.08155623 0.3639742 -0.0357394 -0.02118534 -0.113744974 -0.0014951322 -0.21427588
0.10809294 0.15901609 0.30041257 0.13645597 -0.12293232 -0.15957797 0.011393619 0.16680263
-0.14260189 0.17923747 0.08548534 0.094848014 0.1709716 -0.13723178 0.09753196 -0.2488408
0.28459916 0.065204374 -0.10941269 0.10358164 0.15198936 -0.018050995 0.06298221 0.02710485
-0.041579075 0.10404897 -0.102684565 0.26884854 -0.08514803 0.1570179 0.20738842 0.08953044
-0.039859705 -0.27510384 0.0035139152 0.11177205 0.018736916 0.025883857 -0.28735405 0.080548346
0.37155017 0.18114612 0.38108033 0.045693252 -0.037790734 0.21141313 0.15227808 0.06845132
-0.20341825 0.014159307 0.23902687 0.13568094 0.25252473 0.13681883 -0.26062942 -0.15690528
-0.09523517 0.36242038 0.42407253 -0.3163399 -0.061690435 0.08302409 0.07062474 -0.20021497
-0.050189514 -0.06761247 0.10078913 0.15891124 0.26448408 0.34078026 -0.048365902 0.20652974
-0.327422 -0.12749091 -0.19263291 0.2924388 -0.18582629 0.03392191 0.03283384 0.09678236
0.0631356 -0.15595914 -0.32331973 0.26004347 0.062486377 0.16767351 -0.05630639 0.28927833
-0.09224551 -0.101530515 -0.0075336886 0.24567781 0.2878538 0.13173872 -0.07423045 -0.2375432
-0.032005068 -0.079020426 0.104599275 -0.39214912 0.08903868 -0.10898994 0.027974125 0.14227027
-0.105261855 0.29566923 0.24953665 -0.03798326 -0.01243289 -0.05132497 0.20376004 0.14261454
0.02537328 0.06567585 -0.12809533 -0.35720736 0.2119881 0.033077616 0.16925535 0.038506508
0.2265999 -0.108524606 -0.12344742 0.017979842 0.10581414 -0.18741211 0.22515908 0.3291437
-0.15345998 -0.055259306 0.1580524 0.07130423 -0.18439107 0.1510371 0.048287574 0.19376592
00000000: 0c2b 853e bb31 763d 0689 d33d b230 983d
00000010: 9abc 0bbe e1ab 3c3a 647a f2bd 1461 0bbe
00000020: 9a0b 87be 2ee3 943e 0fdb ecbe 58fa 5cbe
00000030: 548f 593c 9fba 063e f18a b23d 799c 6b3e
00000040: da95 873e 6f0b 813e 2fdd 7d3e 870f ab3d
00000050: 44c7 093d 0770 89bc 28f8 8a3d 6b24 62bd
00000060: a924 5fbe de29 d93d 58c6 293e 4a26 093d
00000070: e4d1 0d3e fb06 783c 9cf6 8bbe 8bdd 1ebe
00000080: bdf6 1c3e 34c3 2b3e 2e39 03be 9440 6b3d
00000090: f9df 0b3e e680 803d 9e8c d3bd 90b3 0e3e
000000a0: 03b4 2ebe 1771 223e a552 c9bc 5b0d 523e
000000b0: e61f ccbd bc49 f1bc 9248 013e 03b7 d6bb
000000c0: c810 2f3d 670f b4bc 5c04 023d b895 7b3d
000000d0: 010f 303e 2b4a bcbd 4863 973e d3c2 3cbe
000000e0: 46cd 45be 102c b5be 95fc f7be bba4 663e
000000f0: 66e5 8cbe 21dc 7ebd a96a 7bbd d4ef da3d
00000100: 1050 86be b9ef 243e 4c21 113d d435 9bbe
00000110: 3eb2 6dbd 0b93 cdbd 21d6 5cbe ae9a 29be
00000120: 5677 a7be 954c 8b3d c5c3 283e 735d b33e
00000130: 199f 20bd 0831 0d3e 9953 a3be 8e9b 24bd
00000140: 38dc e4bc b567 283d b64b 31be 756d 45be
00000150: 1ef0 c43c eea4 773d 6dd7 81be 88a6 27be
00000160: e0c6 6b3d 4d8e 24be 53c8 183e f841 c33d
00000170: af82 813b c2e3 9bbe 3193 53bd 5cc6 c4bd
00000180: 1134 60be ad38 2a3e dd6e 693e ef80 0a3e
00000190: e5d3 8d3b efe8 163e 9e55 98be b286 c03e
000001a0: c929 1bbe 2d3e 753e 0f00 ec3d fbf9 ad3d
000001b0: 2d73 313d 2965 c7be 5e2b f7bd 8832 31be
000001c0: 2f67 893e f406 a73d d45a ba3e 7a63 12bd
000001d0: e18c adbc 20f3 e8bd 50f8 c3ba 236b 5bbe
000001e0: d55f dd3d 1dd5 223e adcf 993e 1dbb 0b3e
000001f0: f1c3 fbbd 6868 23be 4dac 3a3c 4fce 2a3e
00000200: 3b06 12be 078a 373e f012 af3d ad3f c23d
00000210: 2e13 2f3e 7d86 0cbe d6be c73d 1fd0 7ebe
00000220: fbb6 913e df89 853d c313 e0bd 9c22 d43d
00000230: 19a3 1b3e aedf 93bc d1fc 803d fe0a de3c
00000240: d24e 2abd a017 d53d 494c d2bd 84a6 893e
00000250: 1762 aebd 4dc9 203e a15d 543e bc5b b73d
00000260: ee43 23bd 69da 8cbe b749 663b bfe8 e43d
00000270: 297e 993c 620a d43c 1220 93be 88f6 a43d
00000280: d33b be3e 5e7e 393e f61c c33e d928 3b3d
00000290: 75ca 1abd af7c 583e c9ee 1b3e 3530 8c3d
000002a0: e04c 50be 70fc 673c 76c3 743e f2ef 0a3e
000002b0: ec4a 813e 3c1a 0c3e 3871 85be c7ab 20be
000002c0: a80a c3bd 2a8f b93e 0920 d93e 4ef7 a1be
000002d0: 1caf 7cbd 8908 aa3d b4a3 903d 2705 4dbe
000002e0: 8593 4dbd 6878 8abd 886a ce3d a1b9 223e
000002f0: 756a 873e c07a ae3e 531b 46bd 887c 533e
00000300: dba3 a7be fa8c 02be 9041 45be 8aba 953e
00000310: 3f49 3ebe b3f1 0a3d c77c 063d d435 c63d
00000320: 3d4d 813d c1b3 1fbe 2a8a a5be 6b24 853e
00000330: b7f1 7f3d 9bb2 2b3e 87a1 66bd 4a1c 943e
00000340: 37eb bcbd 3bef cfbd 29dd f6bb f792 7b3e
00000350: 9361 933e 84e6 063e 2206 98bd 863e 73be
00000360: bf17 03bd 76d5 a1bd 2538 d63d c5c7 c8be
00000370: e959 b63d 1e36 dfbd fe29 e53c 4caf 113e
00000380: 8793 d7bd f561 973e 8986 7f3e 5694 1bbd
00000390: 52b3 4bbc 223a 52bd 79a6 503e 8c09 123e
000003a0: a0db cf3c 0f81 863d 6c2b 03be e2e3 b6be
000003b0: 6913 593e 657c 073d 4651 2d3e 00b9 1d3d
000003c0: ce09 683e 2642 debd 00d2 fcbd 764a 933c
000003d0: 15b5 d83d f6e8 3fbe 1a90 663e 8685 a83e
000003e0: 9d24 1dbe 9557 62bd 7dd8 213e f407 923d
000003f0: 03d1 3cbe 78a9 1a3e 31c9 453d 936a 463e

actor_mean.2.bias f4 [64]
0.03684415 0.02080913 0.023823185 0.0035035068 -0.002455109 -3.7296966e-05 0.022580838 -0.018159965
0.02543482 -0.033557773 0.03692244 0.051161572 0.051829956 0.0956387 -0.038737442 0.022089109
0.0502586 -0.049266677 -0.019566383 0.024844997 -0.020561872 0.03635838 0.07908112 0.059329018
0.0017205888 -0.028405463 0.018058449 -0.024394974 -0.012571283 0.030992756 -0.018910637 -0.010160534
-0.04884871 0.04248915 -0.02964426 -0.036838394 0.02557274 -0.019978741 -0.0625665 -0.020680256
-0.027977165 -0.06856912 -0.03190738 0.050182473 -0.029937914 0.009189194 -0.054040078 -0.04468002
0.030088795 0.03355029 -0.037312068 0.0038302366 -0.022690682 0.013164176 -0.016291916 -0.039192073
-0.0394082 -0.047033172 0.03196856 0.03945492 0.005230279 0.017168501 -0.04905609 0.012507414
00000000: e4e9 163d e977 aa3c d728 c33c 179b 653b
00000010: e5e5 20bb 506f 1cb8 73fb b83c 35c4 94bc
00000020: af5c d03c e073 09bd fc3b 173d cc8e 513d
00000030: a64b 543d 39de c33d 27ab 1ebd 38f4 b43c
00000040: f6db 4d3d dbcb 49bd ae49 a0bc bc87 cb3c
00000050: 5f71 a8bc 86ec 143d 48f5 a13d fc02 733d
00000060: 6185 e13a 93b2 e8bc 50ef 933c f8d7 c7bc
00000070: c8f7 4dbc 85e4 fd3c 7bea 9abc 5e78 26bc
00000080: 9615 48bd 1a09 2e3d 85d8 f2bc dbe3 16bd
00000090: ec7d d13c 75aa a3bc dd22 80bd a469 a9bc
000000a0: 5e30 e5bc f76d 8cbd 50b1 02bd 238c 4d3d
000000b0: 5b40 f5bc 468e 163c 2159 5dbd 6602 37bd
000000c0: c77c f63c 076c 093d 8ad4 18bd b504 7b3b
000000d0: cfe1 b9bc 8eae 573c a076 85bc de87 20bd
000000e0: 7e6a 21bd dba5 40bd 77f1 023d 7b9b 213d
000000f0: c362 ab3b f5a4 8c3c 0aef 48bd e6eb 4c3c

actor_mean.4.weight f4 [2, 64]
-0.052270956 0.078639105 0.060213212 0.017430257 0.002286096 0.0024863367 0.01987303 -0.023398126
-0.061740298 0.01511994 0.072747484 -0.051040225 0.085304365 0.01777451 -0.004656637 0.036249697
-0.09408985 -0.050000083 0.08315291 -0.09613743 -0.068651676 -0.0524352 -0.037650637 0.062041298
-0.11357704 -0.057643622 -0.016545353 0.04761774 0.019199427 0.060846962 0.10396669 -0.111461766
0.13056311 -0.05905863 -0.06982534 0.01735169 -0.0579232 0.1218091 -0.055063415 -0.037365414
-0.110703394 -0.014874535 0.03711274 -0.012749228 -0.070189334 -0.05891564 -0.020861227 0.021032292
-0.017592693 -0.054618686 -0.0010351554 0.04263874 0.012087907 -0.026097419 -0.023054602 -0.04690516
0.024360621 -0.023563303 -0.010057117 -0.062026888 -0.05021026 -0.009627369 -0.0912149 -0.03391473
0.020222047 0.012176456 0.06563512 0.048719075 -0.06876308 -0.0066971267 -0.008914029 -0.117463395
0.061368067 0.11747644 -0.016535709 -0.061464287 -0.07279069 0.122717604 0.040865783 0.031719152
-0.023594746 0.047648415 -0.0966178 -0.0532799 0.0887317 0.041352775 0.059577253 -0.030332424
-0.029348178 0.05239347 -0.018805776 0.026618427 -0.030218637 -0.09249923 -0.0012476739 -0.022558108
0.033343002 0.050337695 0.011165573 -0.083122104 0.00581753 0.02809951 0.06442077 -0.057863176
-0.1372766 -0.06939782 0.016729027 -0.007602226 -0.027811697 -0.0200551 -0.038825374 0.06127203
0.09709781 0.013882805 0.07420626 0.034395147 0.05274158 0.0789691 0.06744232 -0.08528827
0.03235169 0.11917242 0.09168798 0.041418634 -0.011536942 0.080308914 -0.07373546 0.040903915
00000000: 121a 56bd 8a0d a13d 21a2 763d e6c9 8e3c
00000010: 54d2 153b cff1 223b c4cc a23c 6dad bfbc
00000020: 65e3 7cbd a0b9 773c a2fc 943d 8e0f 51bd
00000030: 0eb4 ae3d d99b 913c b496 98bb 907a 143d
00000040: 2eb2 c0bd e3cc 4cbd 134c aa3d b3e3 c4bd
00000050: 4099 8cbd 4bc6 56bd 8e37 1abd 041f 7e3d
00000060: 149b e8bd b81b 6cbd 1f8a 87bc d20a 433d
00000070: 1e48 9d3c aa3a 793d 7dec d43d 1146 e4bd
00000080: 56b2 053e 76e7 71bd 9600 8fbd 2225 8e3c
00000090: e140 6dbd 0d77 f93d 2d8a 61bd 7a0c 19bd
000000a0: 76b8 e2bd 52b4 73bc 8703 183d 23e2 50bc
000000b0: 6dbf 8fbd 8751 71bd 2ae5 aabc ea4b ac3c
000000c0: 8d1e 90bc d8b7 5fbd 0dae 87ba f6a5 2e3d
000000d0: 5b0c 463c 41ca d5bc 01dd bcbc a01f 40bd
000000e0: ed8f c73c d407 c1bc 9bc6 24bc e80f 7ebd
000000f0: 46a9 4dbd 1dbc 1dbc e1ce babd 2cea 0abd
00000100: b5a8 a53c c27f 473c b56b 863d a78d 473d
00000110: a8d3 8cbd 9273 dbbb 260c 12bc a690 f0bd
00000120: 155d 7b3d 7d97 f03d e575 87bc fac1 7bbd
00000130: 4913 95bd 5e53 fb3d e162 273d f1eb 013d
00000140: c549 c1bc fc2a 433d 8edf c5bd 063c 5abd
00000150: f7b8 b53d 8761 293d 4707 743d b47b f8bc
00000160: 976b f0bc 899a 563d 920e 9abc e30e da3c
00000170: 138d f7bc 3c70 bdbd fd88 a3ba c8cb b8bc
00000180: ac92 083d e62e 4e3d cfef 363c ec3b aabd
00000190: fba0 be3b f230 e63c 09ef 833d f001 6dbd
000001a0: 3d92 0cbe 7220 8ebd 500b 893c 181c f9bb
000001b0: 5bd5 e3bc 984a a4bc 5b07 1fbd 61f8 7a3d
000001c0: 37db c63d b474 633c 74f9 973d ede1 0c3d
000001d0: 8e07 583d 8dba a13d 331f 8a3d 9eab aebd
000001e0: 3583 043d ab10 f43d e8c6 bb3d 96a6 293d
000001f0: 7105 3dbc 0079 a43d 9e02 97bd dd8a 273d

actor_mean.4.bias f4 [2]
0.007856719 -0.041062657
00000000: 78b9 003c 5131 28bd
