jsbgym/models/train_saves/ppo_ts3e-2_8567_18-01_16:09:05.pt (torch, 62174 bytes, 14 tensors)

actor_logstd f4 [1, 2]
00000000: f1f1 d5bd 897a 44be
-0.10446537 -0.19187368

conv.0.weight f4 [3, 1, 5, 1]
00000000: e182 90be 0d5a b93e 346c c93e 79b3 19bf
00000010: 466b 413f d5b6 17bf 112b 37bf dcad 913c
00000020: 95e8 0abf 0a4f 0ebf 2734 50be 76c3 5e3e
00000030: bd16 66bf 0920 4cbf 8595 ecbd
-0.28224853 0.36201516 0.39340365 -0.6003948 0.7555431 -0.59263355 -0.7155009 0.017783098
-0.5426114 -0.55589354 -0.20332395 0.2175425 -0.89878446 -0.7973638 -0.11551956

conv.0.bias f4 [3]
00000000: adef e5bc e0f8 dc3d 2947 f9bd
-0.028068388 0.10789657 -0.12171776

critic.0.weight f4 [64, 42]
00000000: e019 233e 23ab 64be 4bd5 143d 7f50 033f
00000010: cf46 673d cc46 c23e 645a ef3d 846c dabd
00000020: 7769 2a3e 1e4c c1bd 7f67 c7bd 90f6 83bc
00000030: 3927 1d3e 970b 1a3d fd0b 8c3e e325 0b3e
00000040: 9196 66be 7498 0c3e a973 21bd 0adf 58b9
00000050: c1be 0c3d 2f60 69bc d6b4 aabc c327 8bbe
00000060: 5b27 973d edc2 4e3d 2a55 54be 6e3b 30be
00000070: 9715 0d3e 529c 7cbd 2771 773e 3df8 62be
00000080: e616 8f3d d61e 593d 893a ac3e c28f 883e
00000090: 9793 b9be eb73 d4bd ad73 b53b b25c 87be
000000a0: 3cc6 3fbd 7977 1c3e 1f72 1dbe 0863 0bbe
000000b0: b180 513e d65e c93d af47 163e 30b9 f33c
000000c0: cfe5 cd3d 83ec 1e3d 1e6d 74be d041 663d
000000d0: 7270 0cbd 5dbc b13d ec0e 20be dc73 df3d
000000e0: c918 bbbd 86d2 eb3c 59a0 d73e af19 3c3e
000000f0: 40da 3e3c 0828 833d 88da 38bd b5bb 8e3d
00000100: 9aec 143d 94f9 6e3e a34b 29be 96ad 253e
00000110: fced 47bd c2d1 3f3e 29e8 2e3e 83d2 a5bc
00000120: 5d4f 523e 876f bf3d 7fd4 9c3e f3a1 873a
00000130: b579 c13d a368 55bd a40b 1cbe 9112 b8bc
00000140: 1d7c e03d 547b 223d 5fb0 203e 2ff1 023d
00000150: f0ce 4cbe 9472 323d bff7 733d 6dc3 c3bd
00000160: 8332 79be d923 17be 3d71 1abe fca3 babe
00000170: 4718 b4be 4bea 4bbd ccee e4bd eb61 1cbe
00000180: 6441 18bc 0454 6f3e a026 49bd 0497 8c3e
00000190: aa86 3bbe 3746 09be 7961 e9bd 8174 d6bd
000001a0: 3e2f 6bbe d369 b4be b3c5 35be 3ef0 d93c
000001b0: ad71 293e b840 ed3c 1c64 07bd 612c 073e
000001c0: d41e ce3d 4465 633d 7381 b3bd 22ae 633a
000001d0: b609 e7bd 46ad 09be 0abe 513d 3f2d a63c
000001e0: 58b0 9d3d b918 ae3d 5d54 bdbb 50be 0abe
000001f0: 5997 c8ba 2c86 00be 5164 eebe cf03 fb3d
00000200: a32c 233d 849b 02be 14e4 5bbe 818c 23be
00000210: 4dee fa3e f86a 723e 48db 903b ff63 4cbe
00000220: 1332 d93d 99ab 9b3d 233e 2a3e 39e3 3cbc
00000230: b340 f73c 780a 43be 6dfb 00bf cbdb dc3d
00000240: 6346 ef3c a5ef ce3d 74b1 3e3e 330d ffbd
00000250: 7cda c73c dbb5 15be d92e 38bd 8a32 a33d
00000260: 0d01 adbe 1caf 28bd f8ec 253e cd36 c13d
00000270: 962f 353e 213c 763e 66f8 83bc 9667 243e
00000280: 30f4 27be d462 10be 3932 9a3d e0aa 8dbe
00000290: 7f58 1b3e b0be 2fbe 466d 16bc 0120 66be
000002a0: 9d0c 64be 36b0 a0be b9de febd 5887 5bbe
000002b0: 80b4 693d 0277 c0bc 649a da3e e1f0 2cbe
000002c0: 141f 1fbe 4e2c 07be 5117 8a3d f7b7 5dbd
000002d0: 6bb7 81bd 5871 4c3e 03dc 4ebc 8568 383d
000002e0: fad7 d73d 50bf ebbd 9378 e03c f286 aabe
000002f0: f608 88be 3a94 853e 818b 313e eb70 79be
00000300: 0ced 2a3e b3a2 1d3e 69a7 1d3e a945 1a3e
00000310: 06d3 8fbd 19e0 09be c373 d6bc af26 b03e
00000320: acd3 c0bd d260 363d 2208 babe 1f5f 3b3e
00000330: 05ee 0bbd 066b a43e bf30 013d 5584 f6bc
00000340: 5752 acbd 102c 05be a766 8c3e 70bf 86be
00000350: 2bef 953e 2e16 1d3a ec55 8a3c 7dc6 eabd
00000360: aa6a e1bd 1bf3 853d dbfc 933e f658 ce3d
00000370: 64a5 9ebc a391 39be e53e 01be 9233 70be
00000380: 2ec2 723e 6928 6dbe 4fbb 2c3d cbc1 5a3d
00000390: 1407 1bbe b2ab 013d c76b a3bd 3c3c 063e
000003a0: 1909 c4be 1247 05be c941 7abd a6f6 33be
000003b0: 3d8b 95be 1ed0 203e 91c8 3cbd 1c99 3e3e
000003c0: 8e88 1bbd 8b24 c03d 0e6c 80bd ecdf eabd
000003d0: f391 913b b45e 52be 9e27 bd3e 2777 933e
000003e0: e191 fd3c 52c2 ac3c 3785 7dbe 80de 0dbd
000003f0: 73a8 9ebe 7312 193e 36a3 70be 197a a2bc
0.1592784 -0.22330908 0.036336225 0.512947 0.056464013 0.3794464 0.116871625 -0.10665229
0.16641794 -0.09438346 -0.09736537 -0.016108781 0.15346994 0.03760871 0.27352896 0.13588671
-0.22518374 0.13730031 -0.039416943 -0.00020682454 0.034361605 -0.014244123 -0.020838182 -0.27178773
0.07380553 0.050478864 -0.20735613 -0.1721017 0.13777767 -0.061672516 0.24164258 -0.22165008
0.069867894 0.053007923 0.3363841 0.26672179 -0.36245415 -0.10373672 0.0055374713 -0.26437908
-0.04681991 0.1527995 -0.15375565 -0.13611996 0.20459248 0.09832542 0.14675783 0.02975139
0.10053598 0.038799774 -0.2386975 0.056215107 -0.034286924 0.086785056 -0.15630692 0.1091077
-0.09135587 0.028786909 0.42114523 0.18369173 0.011648715 0.0640412 -0.045130283 0.06969396
0.036358453 0.23337394 -0.1653276 0.16179499 -0.048810944 0.1873236 0.1708075 -0.020241981
0.20538087 0.09347444 0.30630872 0.0010347947 0.09447042 -0.052101742 -0.15238816 -0.02246979
0.10961173 0.039668396 0.1569228 0.03196829 -0.20000815 0.0435663 0.05956244 -0.09558759
-0.24335675 -0.14759769 -0.1508226 -0.36453235 -0.35174772 -0.049783986 -0.111783594 -0.15271728
-0.009292934 0.23371893 -0.0491091 0.27458966 -0.18313089 -0.13405691 -0.113955446 -0.1047144
-0.2296724 -0.35236987 -0.17751198 0.026603814 0.1654727 0.028961524 -0.033054456 0.13200523
0.10064474 0.055516496 -0.08764925 0.00086853106 -0.11281149 -0.13445005 0.051206626 0.020285247
0.076996505 0.08500809 -0.005777879 -0.13549161 -0.0015303894 -0.12551183 -0.4656091 0.12256586
0.03983749 -0.12754637 -0.21473724 -0.15971567 0.49009934 0.23673618 0.0044206716 -0.1996002
0.10605254 0.07601089 0.16625266 -0.0115287835 0.030182218 -0.19046962 -0.50383645 0.1078411
0.029208368 0.10104302 0.1862238 -0.124536894 0.024396174 -0.14620154 -0.044966552 0.07968624
-0.33789864 -0.041182622 0.16203678 0.094342805 0.17693934 0.24046375 -0.016109657 0.1605514
-0.16401744 -0.141002 0.075291105 -0.2766943 0.15170477 -0.17162585 -0.009181326 -0.22473146
-0.22270437 -0.31384438 -0.12444825 -0.21438348 0.057056904 -0.023494247 0.42695916 -0.16888763
-0.15539199 -0.13200495 0.067427285 -0.05413052 -0.06333812 0.19965112 -0.012625697 0.045021553
0.10539241 -0.11511099 0.027401244 -0.3330608 -0.26569337 0.2608965 0.17338373 -0.24359481
0.16691989 0.15394096 0.15395893 0.15065636 -0.070226714 -0.13464393 -0.026178246 0.34404513
-0.09415373 0.04452593 -0.3633433 0.18298005 -0.03416254 0.32112902 0.03154063 -0.030092398
-0.084141426 -0.1300509 0.27422068 -0.2631793 0.29284033 0.000599238 0.016886674 -0.1146364
-0.11006673 0.06540509 0.2890385 0.10075562 -0.019365974 -0.18121962 -0.12621649 -0.23457173
0.23706886 -0.23159947 0.04217082 0.05340747 -0.15139419 0.031657882 -0.07979541 0.13108915
-0.3828819 -0.13015392 -0.061097894 -0.17574558 -0.29207793 0.1570439 -0.046089713 0.18613094
-0.037972026 0.0938197 -0.0627061 -0.11468491 0.0044424473 -0.20543939 0.36944288 0.28801844
0.03095335 0.021088753 -0.24757849 -0.03463602 -0.30987892 0.14948444 -0.2349976 -0.019833611

critic.0.bias f4 [64]
00000000: 072c f4bc caa1 2abd 2727 423d 8ab4 63bc
00000010: a2bd 313d 3f26 9b3c b80c 4d3b 44bc 503d
00000020: b2e0 29be 650d 8bbc b1b8 5f3d c977 053e
00000030: 669f 253b ee39 08bd 575e 60bd 9c4e 513c
00000040: a95d 2cbc 33c1 93bc 7755 95bd e52a 30bd
00000050: bc06 9c3d 0864 07bc 5296 313d d29f a7bc
00000060: 0638 ea3c abea 973d e3a5 053e 5b54 6ebd
00000070: 1bc7 563c 53e1 093c b953 dfbc 76a2 063e
00000080: a26e 953c 10ae 57bc 2d28 5dbd a627 093e
00000090: bc8c 31bc 6cb8 12bd 0205 0e3b f205 9d3d
000000a0: 67a3 1cbd 9070 d9bd 011f 04bd 1b40 4e3d
000000b0: 113d 9d3d 613e 68bc d5fa 4f3d 793c 733d
000000c0: 5068 ae39 b838 923d 0538 edbc 4fec 0f3d
000000d0: c989 df3d 0f46 bfbc b86e 6f3d 88c0 34bd
000000e0: 9e01 af3c 0c73 1abc 2c24 cabd 5fba cb3b
000000f0: afe0 fb37 6e95 07bd 9849 133d c3ba 41bb
-0.02980615 -0.0416582 0.04740062 -0.013898024 0.04339374 0.018939136 0.0031288099 0.050960794
-0.1658962 -0.01697416 0.054619495 0.13033976 0.002527201 -0.03325837 -0.05477747 0.01277509
-0.010520377 -0.01803646 -0.07291692 -0.043009657 0.07618472 -0.008263595 0.043356247 -0.02046195
0.028591167 0.07417806 0.13051562 -0.058185916 0.013108994 0.008415538 -0.027261602 0.13147911
0.01824123 -0.013164058 -0.053993393 0.13394031 -0.010836776 -0.03582041 0.0021670465 0.076671496
-0.03824177 -0.10617173 -0.03225613 0.050354104 0.07677663 -0.014175029 0.05077632 0.059383843
0.00033265585 0.071397245 -0.028957376 0.03513747 0.10914952 -0.023348836 0.0584552 -0.044128925
0.021363076 -0.009426843 -0.098701805 0.0062172855 3.0026158e-05 -0.03310149 0.035958856 -0.0029560782

critic.2.weight f4 [64, 64]
00000000: c23e 71bc 78a6 aebd 80eb 8a3e f4c2 76be
00000010: 6163 14be 827d 92bc 9f63 1ebc 54ef d0bc
00000020: 978a 2c3e edbd 98be 3b5e 6fbe 8a5b ed3d
00000030: 068b 513e 847b 66bd caf8 67be ec57 68bd
00000040: 3b38 7c3d 34be f9bc 28f3 f13d 2e05 0c3d
00000050: 54cf c93e 77f1 4b3e db2f 64bd 0ea5 283d
00000060: 5be3 9b3e f785 f13d ea6a 95be e4c5 70bd
00000070: 8661 31be 9ddc 153c 4665 263d 07d4 003e
00000080: ca5a 933c e594 aabc 9073 bfbd 0f28 1dbe
00000090: 8e55 b93e 54f7 313e 2207 843c 4193 2fbe
000000a0: 6173 babd 4e50 97bd 1071 38be 38ad a7be
000000b0: efd7 86bd adc8 7d3d 5e08 cc3e 8258 1ebd
000000c0: 1207 53bd 3cc2 a6bd b801 cf3d ac25 79bd
000000d0: 7ad2 82be 915c 70be 437c dfbd 9af6 4d3d
000000e0: 44b7 66bd fa7f b13e 96c6 963d 757a ee3b
000000f0: 2702 cabe a90f 713e dab8 01be 16a2 c43d
00000100: 4a78 63bc 7b09 c0bc f580 2fbe 7e6f 673d
00000110: 7ab6 043e b2b6 4b3d 44b1 14bd 18a8 333d
00000120: 8ff4 123c 2d38 75bc 5a95 193e f450 9c3c
00000130: 985a 023e a4fb f93d eff9 febd f0ff 323e
00000140: cbc1 d5bd c8eb d73d ffd2 0f3c c705 3d3e
00000150: a41e 323e 3c70 a3bc 7bb0 473c 8422 23be
00000160: 599e 2ebe bf9f f73e 7544 7f3e 6874 9dbe
00000170: 3fbf 9dbc 46ed 703d 952e 99bc d45b a53d
00000180: 7d0a a7be b344 233e cccf 0c3d e1a2 dabd
00000190: ec5d 34be 36a2 43be 5581 5dbe db55 b23d
000001a0: 1202 443d fd81 793d 471e b2be ecf2 47be
000001b0: bb74 8f3e 2d9f 2d3e 386f 2bbe a18b 1e3e
000001c0: 4225 b0be cf92 b93d 30a2 8bb9 a51b 0fbe
000001d0: 6f1d 0fbe 68ae 96be 5f44 aabe dd9e 31be
000001e0: 7ae3 b9be 4d26 f4bd 05cb 113e eace 0fbe
000001f0: 340c 453d 5882 5d3e 63d5 ed3d af32 013e
00000200: d134 96be b485 603e 7189 23be 9805 0abe
00000210: 8960 a9bd 3169 313e bb66 4b3e 1ed1 c63d
00000220: 31af dcbd 1724 b6bc a703 fabd f266 9dbd
00000230: e888 083d 3cf7 373e 3d56 033e ce39 a43e
00000240: 8142 9abe 5f04 f0bd 287e a4bc 65a7 a63d
00000250: e1e1 0abd bc72 b0be b151 d9bc 634d 593e
00000260: 7853 c9bd 1152 25be 177e 8cbe b1cc 09be
00000270: 6f7c 22be 7fba 793d b706 b2be 4c35 26bd
00000280: b89e b83e 4096 55bd 21b9 ee3d fad0 973e
00000290: 17ea e73d 2b07 7cbe 9999 613c 17e3 823e
000002a0: 48a1 423e 39ba 313e 4fff d6bd 4c8b 9bbe
000002b0: 80d6 32be d877 37be a999 1d3e 11c2 013b
000002c0: 5bc7 a9bd 59f3 3cbe d98f 91bd 6447 86be
000002d0: 49d1 1a3d 1313 7cbd 48d3 5a3c 3b7e 14bd
000002e0: 6e44 aa3e 777c 76bc 3b51 2d3d 3358 663e
000002f0: 87da 4b3d f5a4 593e ebfe 3a3e da40 d63d
00000300: 76f9 cb3b 7d9b 143e 6af7 af3d 2901 b4bd
00000310: fa9f 773e 51bc 2b3d 879f 283d 1e30 d53a
00000320: ffe7 283e f846 aebc 8063 b83c 0b5e 19be
00000330: 68b3 eabd cff4 973e 1534 79be 0448 e4bd
00000340: 314b d1bc 0b67 c7be 642f 103e 51fe 033e
00000350: 0746 333d f846 eb3d 8dd4 fcbd 3e00 85be
00000360: 98c7 d23c ddfe 883d 7ced 82bd 3649 f1bd
00000370: 50f7 15be 6c9b 683e e232 473d d993 f83d
00000380: 258d 1b3e 2ca8 1abe 96e6 b93e 8d96 86be
00000390: 8e37 fb3c 782e 863e 4ef6 00be a17c 6bbd
000003a0: cb6f 463e 3861 b63e 276f b6bd 3f17 08be
000003b0: ddb8 863e 0dde 893d 8009 ee3d 39df 8bbe
000003c0: 02f7 dcbd a7cd f93e f480 04be 3441 493c
000003d0: 1c79 b33e b997 293e c0c0 d73d 845e 93bd
000003e0: e260 d73d 25fc 4b3e 0472 87be 5a27 e2bd
000003f0: 48b7 833e a70a c73d 21b2 513c 9e2d a43c
-0.014724435 -0.08527845 0.27132797 -0.24097806 -0.14491035 -0.017882112 -0.009667306 -0.025504746
0.16849743 -0.29832402 -0.2337579 0.11589725 0.2046319 -0.056270137 -0.22653499 -0.056724474
0.061577063 -0.030486204 0.118139565 0.034184627 0.3941599 0.1991633 -0.0557097 0.041173033
0.30446896 0.1179313 -0.2918313 -0.058782473 -0.17322358 0.009146837 0.040623926 0.12580882
0.017987628 -0.020822952 -0.09348214 -0.15347312 0.36198086 0.17379504 0.016116682 -0.17146017
-0.09104038 -0.07388364 -0.1801188 -0.32749343 -0.06584155 0.061958957 0.39850134 -0.038658626
-0.051520415 -0.08142516 0.1010775 -0.060826942 -0.25551206 -0.23472811 -0.10912373 0.050284006
-0.05632712 0.3466795 0.07362096 0.0072777816 -0.39454767 0.2354113 -0.12668172 0.09601228
-0.01388366 -0.02344202 -0.17139037 0.05650281 0.12960234 0.04973478 -0.036301866 0.04386148
0.00896944 -0.014967007 0.1499838 0.01908157 0.12729871 0.122062 -0.12450015 0.17480445
-0.10437354 0.105430186 0.008778333 0.18459235 0.17394501 -0.019950978 0.012188072 -0.15931135
-0.17052592 0.48364064 0.24928458 -0.30752873 -0.019256232 0.05882003 -0.01869897 0.080741554
-0.3262519 0.15944175 0.034377858 -0.10675598 -0.17613953 -0.19104847 -0.21631368 0.08707782
0.047853537 0.060914982 -0.34788725 -0.19526261 0.28018746 0.16955252 -0.16741645 0.15482952
-0.34403425 0.09061205 -0.00026632985 -0.1397539 -0.13976072 -0.29429936 -0.33255288 -0.17345758
-0.36306363 -0.11921368 0.14237602 -0.14043775 0.04810734 0.21631753 0.11612966 0.1261699
-0.2933717 0.21926004 -0.15970398 -0.13478696 -0.08270366 0.17325284 0.19863407 0.09707855
-0.107756026 -0.022234006 -0.12207728 -0.07685651 0.03333369 0.17965406 0.12825866 0.3207535
-0.30128863 -0.11719584 -0.020079687 0.08137397 -0.03390682 -0.34462535 -0.026528211 0.21220927
-0.098303735 -0.16144587 -0.2743995 -0.1345699 -0.1586778 0.060968872 -0.34770748 -0.04057817
0.36058593 -0.052145243 0.11656404 0.29651624 0.11323946 -0.2461211 0.013769531 0.2556388
0.19006836 0.17356195 -0.10497915 -0.30379713 -0.17464638 -0.1791681 0.15390648 0.001979951
-0.08289977 -0.18452205 -0.07107515 -0.26226342 0.037797246 -0.061541628 0.013356037 -0.036253195
0.33255333 -0.015044323 0.042313796 0.22494583 0.04976895 0.21254332 0.18261306 0.10461588
0.0062248064 0.14512439 0.08592112 -0.08789284 0.2418212 0.04192764 0.041167762 0.001626495
0.1649475 -0.021274075 0.022508383 -0.14977281 -0.1146 0.29678962 -0.24336274 -0.111465484
-0.02554855 -0.38945803 0.14080578 0.12889983 0.043767955 0.114881456 -0.12345228 -0.25976747
0.02572994 0.06689236 -0.06392953 -0.11781542 -0.14645123 0.22715539 0.04863251 0.12137575
0.15190561 -0.15103215 0.36308736 -0.26286736 0.030666139 0.26207328 -0.12593958 -0.057491902
0.19378583 0.35621047 -0.089079194 -0.13290118 0.26312914 0.06731806 0.11622906 -0.27318743
-0.107893005 0.48789713 -0.12939817 0.012283612 0.35053337 0.16561784 0.10534811 -0.07195762
0.10516526 0.19920404 -0.26454175 -0.11042662 0.2572577 0.09718829 0.012798817 0.020041283

critic.2.bias f4 [64]
00000000: 2d88 31bd b9d5 833d 8eab 363d c457 d83c
00000010: f104 bdbb b1d2 afbc 65f1 eebc 0af5 1f3d
00000020: 426e 20bd 53fe 3fbd 56fe 2b3d c611 bd3a
00000030: 73df 37bc 4f98 0abd 4ce2 913d 3ff8 803d
00000040: 120e 61bd d95d 0c3d bd81 1bbd 3e62 d0bb
00000050: 6847 74bd ef11 1dbd 819d 823d 1b7f 99bc
00000060: 0dff 0c3d ffe6 753a a5ea 1fbd f58c bfbc
00000070: f1e1 01bd ac88 5f3d ede5 1d3d 131c 0bbd
00000080: 1261 44bd 1b1b 12bc 0ddb afbd bc44 26bd
00000090: f9d3 d43d 93ca 813d c218 f9bb 0db4 9dbd
000000a0: d51b 26bd ec0e d8bc bece bf3c 3188 8e3d
000000b0: 9bc1 81bc caf0 c43c e739 c03c b74c ce3d
000000c0: 226b 033d 4903 bbbc b7c9 a33b 61fe a33d
000000d0: 3cbc 713c 62d2 8d3d 5ea1 96bd c31d 833d
000000e0: 9505 c6bc 2d91 18bd d536 d1bc 4c33 c13c
000000f0: 5a01 cfbb e05c 033d 8b5e 7dbd fce5 8fbd
-0.043342758 0.06437249 0.0445972 0.026409037 -0.0057684113 -0.02146277 -0.02916784 0.039052047
-0.03916765 -0.0468734 0.0419906 0.0014424853 -0.011222708 -0.03383666 0.07123241 0.06297349
-0.05494506 0.034269188 -0.037965525 -0.0063593676 -0.05963841 -0.03834718 0.06377698 -0.018737366
0.034422923 0.00093804294 -0.039042134 -0.023382643 -0.031709615 0.0545737 0.038549352 -0.03396232
-0.047944136 -0.008917595 -0.085867025 -0.040592894 0.10391993 0.06337466 -0.0076018283 -0.077003576
-0.040553886 -0.026374303 0.023414012 0.0695957 -0.015839389 0.024040598 0.02346511 0.10073226
0.03208459 -0.022828715 0.0049984115 0.08007503 0.014754351 0.06924893 -0.07354997 0.06402161
-0.024172584 -0.037247825 -0.025538841 0.02358403 -0.0063173 0.032070994 -0.06185774 -0.07026288

critic.4.weight f4 [1, 64]
00000000: 231b 863c e166 afbc 8155 d3bc fe3f 94bd
00000010: 0a25 e9bd f17e 7c3c 2723 1c3d 0aba 20be
00000020: 4f58 27be f74e 1a3e ea52 febd 17b8 353d
00000030: 3cd6 52be e485 b13c 74af a5bd 0a1d c2bc
00000040: 7559 1d3e 1d4c 6bbd 2058 be3d eb0f 233e
00000050: 1006 393e edee e33d 8390 42be 2f85 c73d
00000060: d33b ecbd 2c36 85be cd0d 073e 6165 3a3d
00000070: 27a7 303e 4926 08be 08a8 30be a0bc 0a3e
00000080: 6130 233d 516a 163e 67ef 173e ef27 d13d
00000090: e3c4 3ebe 4c54 ffbd 1df7 92bd c56d 7f3e
000000a0: a2e4 2a3d 80b2 b03d 3bc8 6cbe 4d65 a4bd
000000b0: 3a82 d63d 754d 87bd 1f5b 963c 9241 57be
000000c0: 3474 f5bb 15d4 533e 7920 863c 60de d7bc
000000d0: b261 ecbd 2c86 82bd 5247 743e 93f0 b1bd
000000e0: af8c 7f3d 7cd2 753d 7926 f43d baf7 debd
000000f0: 55e0 c8bd 8668 27bd bb41 163e 2dfc a53e
0.016370362 -0.021411361 -0.025797607 -0.07238768 -0.11384018 0.015411125 0.03811946 -0.15695968
-0.16342281 0.15069185 -0.12418158 0.044365015 -0.20589536 0.02167029 -0.08090106 -0.023695488
0.15366156 -0.057445634 0.09294152 0.15924041 0.18068719 0.11129556 -0.1900044 0.097422
-0.11534848 -0.26017892 0.13188858 0.04550684 0.17251264 -0.13295855 -0.17251599 0.13548517
0.03984106 0.14688994 0.14837418 0.10212695 -0.18629794 -0.1246725 -0.07176039 0.24944218
0.041721947 0.08627796 -0.23123257 -0.08027134 0.104740575 -0.06606571 0.018353997 -0.21021107
-0.007490659 0.20686372 0.016372906 -0.026351154 -0.115420714 -0.063732475 0.23855332 -0.08688464
0.062390026 0.060015187 0.119214006 -0.10887094 -0.09808413 -0.040871166 0.14673512 0.32418957

actor_mean.0.weight f4 [64, 42]
00000000: 25c0 68be c426 67be d9f1 973e 97a5 9d3d
00000010: 53ca ad3d 043e dfbd 4249 bcbe 1425 35be
00000020: f499 1fbe 92c4 f63d b32e aebd da95 ea3d
00000030: 0227 b6bd efd0 3ebd eac9 28bd 9144 a73e
00000040: 1c3b 81bd 743d 59bd 87ef f53d d09b 36bd
00000050: d5f1 8a3d 73d1 2a3e 5c68 b2bd 270f 8b3e
00000060: 0cca 033e e777 a73c 8106 e2bd 3870 783e
00000070: 3ef2 22bd b567 0cbf b6bb ddbd 391c ec3d
00000080: f314 153d 5ef0 de3d 21f0 abbe d304 473e
00000090: b6a8 fcbb 9951 483a 69be 6b3c 4c3b dd3c
000000a0: 3d5d 97be 7dc0 003e 4079 35bd 3df6 d6bd
000000b0: d906 fbbd 96de 7f3d fc21 3dbd 9cbb 78bd
000000c0: 470d a43e d31f 9bbe a0b5 633c a49d 083e
000000d0: fbee 923d aa55 e3bb 2f6e c9be 1f7e fd3d
000000e0: 2600 4dbc 0a97 9abd 34d1 88be a28a b73d
000000f0: f167 103e 8585 af3c 5995 a3bd d806 153e
00000100: dcf1 f1bd c633 3c3b 529e 1e3e a9b7 f03d
00000110: 2e97 013f 84da b13d 6b48 00be 2eb9 85be
00000120: ef92 b63d 92a1 c9bd ee2d 583e 943a ca3c
00000130: b932 d9bd 315d e33e c866 313e 5ebd c83d
00000140: 3874 473e 2491 8d3d 6506 22be a76e 90bd
00000150: 6818 e63b aaa0 123e 8357 74be 2bea e5bd
00000160: c49c 50bc f2de a13d 8883 833e 1929 a0bd
00000170: aa44 f4bd 7022 47bd 2033 e8bd 1f3c 1c3e
00000180: 8a18 c3bd a4f1 c2be da1c 743d d7a8 813c
00000190: d63b ae3e e3f1 0d3e 5f6d b03d 2207 193e
000001a0: 829f cf3d b4f3 a1be 2b95 a53e ad27 41bc
000001b0: b9dd 93bd 2397 5ebd 5ee3 e3bc 9ef6 b13e
000001c0: af09 5e3e 0322 16be 05ff 1abe dd6c 3abe
000001d0: 0123 abbd 191a 58bd c3c8 80be 76f5 c7bc
000001e0: 59d4 033d aaa8 a53e afe1 353d 4427 9d3e
000001f0: 2336 7ebd 8e83 4b3e 2319 bcbe e017 11be
00000200: 7154 c83d 2361 203d c19f 063e a351 debd
00000210: 8ef4 77bc abdf d0bd bcf0 963d 1441 3fbe
00000220: 3dd7 bf3d b170 663d 829f 263d 8313 683e
00000230: 90d8 97be 6387 f6bc 083b 5b3e 598e 0f3e
00000240: fa91 eb3d 05dd 51be 832a 563e 9f56 773d
00000250: 7a7b 163e 1412 4c3c 96ef c4bd bc31 43be
00000260: bfa9 06be 2e1a 4abe e260 1e3e e206 153d
00000270: 5db2 1a3d 645c fa3d ec62 b3bd 80a5 c03d
00000280: 9980 113e 6285 833e a84c 1d3e 63e9 8cbe
00000290: 1916 c5bd 38b8 673d 42d4 453e c4b5 79be
000002a0: bc62 8fbe 6abf 83be 761a 08be 1120 74bc
000002b0: b42e 7abd 4528 9fbc 127d 6b3e 7bd3 92bd
000002c0: 3fac 863d d173 99be 998e 68bc 23e0 d93d
000002d0: 15d5 85be 991c e33c 33b8 d63c 8e22 193e
000002e0: 73a3 6ebd 779d 38bd 7b96 d9bc f0b4 4fbd
000002f0: 89f2 0cbe 7ad7 abbb c2ad c93d aed3 8b3e
00000300: f411 0f3e 670e fd3c 4afd b53d 0a82 7abe
00000310: 28ed 833b 4579 093e a3c8 9dbe c6e1 1dbd
00000320: 2442 a8bc 3111 8ebd 9447 d3be c75b f03e
00000330: aa64 b3bd 9cfe aebe e5d7 6dbe 7b1f 04bc
00000340: 77ef ea3d a049 573e 079b a93e 397b dc3d
00000350: f1c2 eabd 2391 12bd 2973 9dbe 0439 f43d
00000360: b0ee 87be 35e1 b8bd cca7 0c3e b9fb 62be
00000370: 2821 e93b 7475 743d 8276 e5bc 3aef a23c
00000380: 3bfc a0be aec5 743d 8035 bebe 4c9d a5bb
00000390: 1049 4e3e 5279 db3d 9c01 d7bd 081d 713d
000003a0: 81af 8d3d 51ee a33d ea2a fc3d 2a04 183e
000003b0: 5280 93be 80c2 a4be 6dca 61bb 1d99 623e
000003c0: 80a3 edbc df0d 2dbe b21f aabd de2f a53d
000003d0: 3dce c0bc e18a f93d edeb 3c3e 78a8 993e
000003e0: 8887 073d 3b06 2abe 4077 0cbe eb5c cabb
000003f0: cae6 97be cf1c 81be 27af 73be 6806 c63d
-0.22729547 -0.22573382 0.29676703 0.076975994 0.08485856 -0.109005004 -0.3677464 -0.17689925
-0.15586072 0.120492116 -0.08505001 0.11454363 -0.08894159 -0.046585973 -0.041208185 0.326695
-0.06310102 -0.053037122 0.12008577 -0.044582188 0.06784407 0.16681461 -0.08711311 0.27159998
0.12870044 0.020442916 -0.11036397 0.24261558 -0.0397818 -0.54845744 -0.10826819 0.115288205
0.03639693 0.1088569 -0.3358164 0.19435434 -0.0077105416 0.00076415535 0.014388659 0.027005814
-0.29563323 0.12573428 -0.044305086 -0.10496185 -0.122571655 0.062468134 -0.04617499 -0.060725793
0.3204138 -0.30297717 0.013898283 0.13341385 0.07174488 -0.006937702 -0.39341876 0.12377571
-0.012512242 -0.0754834 -0.2672211 0.08961989 0.1410215 0.021425972 -0.0798747 0.14553392
-0.11813709 0.0028717383 0.15490082 0.117537804 0.50621307 0.08684257 -0.12527625 -0.26117843
0.08914744 -0.0984527 0.21111271 0.024686135 -0.10605378 0.44407037 0.17324364 0.09801744
0.19477928 0.06912449 -0.15822752 -0.07052355 0.0070219524 0.14319101 -0.23861508 -0.112263046
-0.012732688 0.079038516 0.25686288 -0.07820339 -0.11927159 -0.048616827 -0.11337876 0.1525731
-0.09526165 -0.38074982 0.059597827 0.01582758 0.34030026 0.13861804 0.08614611 0.14944127
0.101378456 -0.31631243 0.3234037 -0.011789245 -0.072200246 -0.054343354 -0.027818378 0.34758466
0.21683381 -0.14661412 -0.15136345 -0.1820559 -0.08356286 -0.052759264 -0.2515317 -0.024409037
0.032184932 0.32355243 0.04440468 0.3069402 -0.062063348 0.19874403 -0.36737928 -0.14169264
0.09781731 0.039155137 0.13146879 -0.10855415 -0.01513399 -0.10198911 0.07370135 -0.18677169
0.09367225 0.056259815 0.040679462 0.22663693 -0.29657412 -0.030093854 0.21409237 0.14019145
0.11502452 -0.20494469 0.20914654 0.060385343 0.1469554 0.012455482 -0.0961601 -0.19061941
-0.1315069 -0.1973655 0.15466645 0.036383517 0.037767757 0.12224653 -0.08759102 0.094065666
0.14209212 0.256877 0.15361273 -0.2752181 -0.096233554 0.05657217 0.19319251 -0.24385744
-0.28005016 -0.25731975 -0.13291344 -0.014900223 -0.061079696 -0.019428382 0.2299693 -0.07169243
0.06575822 -0.29971173 -0.014194154 0.10638454 -0.2613913 0.027723597 0.02621088 0.14954588
-0.058261346 -0.045072045 -0.026561012 -0.050709665 -0.13764395 -0.0052441927 0.09847595 0.27309936
0.13971692 0.030890657 0.08886202 -0.24463668 0.004026074 0.13425167 -0.30817136 -0.038545392
-0.02053935 -0.06936873 -0.41265547 0.4694502 -0.087594345 -0.34178627 -0.23226888 -0.008064146
0.114714555 0.2102418 0.3312609 0.1076569 -0.11462963 -0.035782944 -0.30751923 0.11924937
-0.26549292 -0.0902733 0.13735884 -0.22166337 0.0071145482 0.059682325 -0.02801061 0.019889463
-0.31442437 0.059758835 -0.37150192 -0.0050541516 0.20145059 0.107164994 -0.10498354 0.058865577
0.0691824 0.080044396 0.12312873 0.14845338 -0.28808838 -0.32179642 -0.003445293 0.2212872
-0.029008627 -0.16899823 -0.08306827 0.080657706 -0.023535842 0.12184692 0.18449374 0.30011344
0.033088237 -0.16603939 -0.13717365 -0.0061756275 -0.29668266 -0.25217292 -0.23797284 0.09669191

actor_mean.0.bias f4 [64]
00000000: 4491 883d be71 183d 0fd5 b6bc 0fd5 f83a
00000010: 91c5 8d3c 5f9a b23d 1f1b 10bd 493f 333b
00000020: c6c4 173d 273b 4b3d e8bc 213d 9c17 b33c
00000030: 50f9 6d3d 36ce 77bc dcf0 97bd 4f1c 103c
00000040: 518b 933c 5066 003d f89e 993c 4023 153e
00000050: 1213 023d 6fb3 c13d dce9 8b3b f4ae 83bd
00000060: 7193 993c 488e babc 9068 ba3c 99dd 58bc
00000070: ef20 7bbc a308 1e3d fa82 08bc 1abd 80bc
00000080: 2bf2 b63a 1aa4 b4bc e497 80bd 4140 58bc
00000090: 68f9 8c3d 3a43 163d 4c15 eabc e2a9 443d
000000a0: cbe6 bbbd 7d85 5bbd 8b6b 47bd f2b8 523d
000000b0: bb6c 843c a314 ebbc 1f1d 4ebd 061a 08bd
000000c0: a51d 413d a82c 34bc 5819 ac3d 85d8 5d3d
000000d0: 22a0 18bc dd22 bbbc 9e2f 073d d4db 263d
000000e0: 3bb2 a73d f71e 92bc 3d60 04bd 7307 d83c
000000f0: 077e dfbc 8ec1 013e 4925 cabb 356d 46bb
0.06668332 0.037217848 -0.022318391 0.0018984395 0.017306121 0.0872085 -0.035182115 0.0027350953
0.037052892 0.04961696 0.039486796 0.021861844 0.05809909 -0.015124848 -0.07418987 0.008795812
0.018010767 0.031347573 0.01875256 0.14564228 0.031756468 0.09458052 0.0042698216 -0.06429854
0.018747063 -0.022772923 0.022754937 -0.013236427 -0.015327676 0.038582455 -0.0083320085 -0.01571517
0.001395767 -0.022050906 -0.06278971 -0.013198913 0.06883508 0.036685206 -0.028574608 0.048013575
-0.0917488 -0.0535941 -0.048686545 0.05144591 0.016165128 -0.028696364 -0.05032074 -0.033227943
0.04714741 -0.010996975 0.084032714 0.054161567 -0.009315522 -0.022843773 0.033004396 0.04073699
0.08188292 -0.01783703 -0.032318342 0.02637074 -0.027281774 0.12671492 -0.0061689955 -0.0030277495

actor_mean.2.weight f4 [64, 64]
00000000: 436b 37be 2cc4 1f3e 4723 323c 640a b63b
00000010: 51a4 603e a106 d0bd 354f a3bc 5781 703e
00000020: 4c77 33be 212f 9bbd 0b25 713e 0fa5 973d
00000030: 7999 3cbe de7f 7ebd 8308 67be 48fe e93d
00000040: 75af 813e 9606 563d 6b53 40bd 0e81 57be
00000050: 11d5 033d 3406 f3be a2db 0e3e 010b 84be
00000060: c150 093e 9bcc 683e df60 4fbd 8502 71bd
00000070: a931 e3be a4b9 2e3e 8dba 823d 5fa6 02be
00000080: 18e3 4ebe fb8a 9b3e f2ef 41bd 5e34 3a3e
00000090: 2904 c63e 8e8c e3bd a19d 343d 24d0 0abd
000000a0: 86c1 c0bd 382c d53e d412 47be 6dab b9bd
000000b0: 300c 8c3d 4465 6b3d df81 48bc 08ae cfbc
000000c0: 39df 28be 39fc 21be f66b 253e a100 d3be
000000d0: 1526 7a3c 0dbf 343e f7ad 3fbd 33c9 763e
000000e0: b1f9 b03d 2df2 3e3a c255 1939 c8b7 0e3e
000000f0: 09cc 1dbe 79ac 643e 3c4e c9be eb5e 66bd
00000100: ba90 60be 2ffc 8d3d a7cf 463d 49df 583d
00000110: e710 e2be 162f 99be 2d2e f7bd d34e 793e
00000120: 8d70 5cbe dad4 633e 7870 f53d a7da ffbd
00000130: ac31 673d 76e5 f03d 41c8 0cbe 7302 92be
00000140: 769a 993d f0bd 373e 28db 99be 3416 173e
00000150: 17b4 be3e 992a 1dbd 5d99 3d3e 9da2 383e
00000160: 100d dcbd b840 a3bd d5a7 3a3e d5d3 d5be
00000170: f94a 353e 95cf e7bb 3212 d53b 88df 89bd
00000180: 97be 37bd 4312 39bd 7886 04be 88ee 4abe
00000190: cd55 c6bd cbc9 293d 5ee4 403c 0d92 bf3d
000001a0: 0d60 c7bd 6386 43be e18e 1cbe 5c17 773e
000001b0: 6a45 e13d a2b4 f5bd 649b f2bd e59a 8f3c
000001c0: c4de 88bd 1b76 8c3e 8f9f 3c3e 93bf 9a3a
000001d0: 1fbc 24be bdc8 943d fbb3 7b3e 2fcf 23be
000001e0: 4447 7ebe cbf1 403e 643c bf3d 7e4e bdbd
000001f0: a7e7 8fbd c7b9 703e f0a8 88be 70e2 4ebd
00000200: b364 d7bd 10cd 5c3e 9b5a c53c 2d83 903d
00000210: 664d 7ebe 9b48 00bd da3e 093e 89d5 673d
00000220: 92b6 a5bc 6fc0 c7bd 3640 34be 5ab4 b2bc
00000230: 5deb 033d 3771 a93d 8cc1 37bd a73b 143e
00000240: c5d0 52be 4d5c d63c 3092 6a3e 9619 db3d
00000250: f80f d03d 712a eb3d bb51 9b3d 3571 acbe
00000260: 67eb 893e eb45 a73c 2029 483d dfce ef3c
00000270: 56c0 a4be 69e8 0abe 2b46 833e 51c5 d4bd
00000280: 7019 61be 1dc6 1abe f7fb 02bc 80c5 8c3d
00000290: b546 1b3d 4ae1 2cbe dee6 e23c a96a f8bd
000002a0: ae8d 7cbd 181a 0abe 9219 f03c 1b08 973d
000002b0: da2d 973d 01e0 85be 6e48 86be 1acb 2b3e
000002c0: ce29 d53d 27f2 aa3e 9fe0 cf3e 4a5a 863e
000002d0: d0e4 39bd 1c43 a43e 4986 dabd 9f25 933c
000002e0: 9954 093e 3e75 86bd 10c3 983d b1e9 4dbe
000002f0: cdac a03e f862 05bf 0e37 913c 7e35 80be
00000300: 6dce 053d 592d 683c c780 a23e 10d4 91be
00000310: e90a a7bd 811f 4abe 85be 973d e0d3 eebd
00000320: 528b 933d 7e53 af3e 532e 71bd db84 513e
00000330: cc0a 9fbe f4d1 21bd 35df b4be c6b3 a33a
00000340: 5ebc 8cbe 1601 9b3e 2a62 bd3d a835 dcbd
00000350: 12f6 f33d ece1 fbbe 7102 02be 575e 07be
00000360: 9622 c53c ada6 043e e95f 9f3c 7faf 48ba
00000370: ef68 4b3e aa20 b83e 3d87 b33d cff6 38bd
00000380: b132 bb3e f69c 473d 11f4 4bbe a139 f6bc
00000390: 19e3 36bd ca3e 183c 7997 543b bb0f 72be
000003a0: fbbd b7bd 1f9e 58be 6446 073d d12e 0f3e
000003b0: dfc9 f2bd 28e0 05be b4e7 a9bd 5076 cfbd
000003c0: 420b 853d 4201 b7bd da8e a8bd 9ade 6abc
000003d0: 9802 183c f5b4 2abe 8042 8fbd 5fad bbbd
000003e0: d383 503e 3855 bc3d 2889 8f3e 5ac8 aebd
000003f0: ac09 06be 69c0 70be ef61 803e b747 46be
-0.17912011 0.15602177 0.010872669 0.005555438 0.21937682 -0.10157514 -0.01993523 0.23486839
-0.17525977 -0.075773485 0.23549287 0.07404529 -0.1841792 -0.062133662 -0.2256184 0.114254534
0.25329176 0.052252375 -0.046954554 -0.21045324 0.032185618 -0.4746567 0.13950971 -0.25789645
0.13409711 0.22734301 -0.050629493 -0.058840293 -0.44373825 0.17063004 0.06383238 -0.12758778
-0.20203817 0.3037947 -0.04734797 0.18184039 0.3867505 -0.11110793 0.04409564 -0.033889905
-0.09411912 0.416353 -0.19440776 -0.090659 0.06838262 0.05746962 -0.012237995 -0.02535154
-0.16491403 -0.15818872 0.16154465 -0.41211417 0.0152678685 0.17651005 -0.046796765 0.24100189
0.08641375 0.0007284012 0.00014623164 0.13937294 -0.15409864 0.22331418 -0.393175 -0.056242865
-0.21930209 0.06932866 0.048537876 0.052947316 -0.4415352 -0.29918736 -0.12069354 0.24346475
-0.2152731 0.22249165 0.11984342 -0.124928765 0.056443855 0.11762516 -0.13748266 -0.28517494
0.07500164 0.17943549 -0.30050015 0.14754564 0.37246773 -0.038370702 0.18515535 0.18030782
-0.10744679 -0.079713285 0.18228085 -0.41763178 0.17704381 -0.0070743063 0.006502413 -0.06732088
-0.044859495 -0.04518343 -0.12941921 -0.19817555 -0.09684334 0.04145221 0.011773197 0.09354029
-0.09735117 -0.19094233 -0.15288879 0.24130005 0.10999568 -0.119973436 -0.11846045 0.017529914
-0.06683114 0.27433857 0.18420242 0.0011806361 -0.16087388 0.0726485 0.24580376 -0.15997003
-0.24831873 0.18842237 0.093376905 -0.09243487 -0.07026606 0.23508368 -0.2669139 -0.050508916
-0.10517254 0.215626 0.024091056 0.0705627 -0.24834213 -0.031319242 0.13402882 0.056600127
-0.020228658 -0.09753501 -0.1760262 -0.021814514 0.03220688 0.08273547 -0.044862315 0.1447588
-0.20587452 0.02616706 0.22907329 0.106982395 0.10159296 0.114827044 0.07583948 -0.3368012
0.2693741 0.020419082 0.048867345 0.029273449 -0.3217799 -0.1356522 0.2563947 -0.103891976
-0.2198236 -0.15114637 -0.007994643 0.06873608 0.03790923 -0.16882816 0.027697977 -0.12129719
-0.061658554 -0.13486516 0.029309068 0.07374593 0.07381792 -0.26147464 -0.26227134 0.16776696
0.10408364 0.33387873 0.4060106 0.2624076 -0.04538423 0.3208245 -0.10670144 0.017962275
0.13411178 -0.06565331 0.0745908 -0.20108677 0.31381837 -0.5210414 0.017726447 -0.2504081
0.032667566 0.014170968 0.31738874 -0.28482103 -0.08156378 -0.1973858 0.074093856 -0.11661506
0.072043076 0.34243387 -0.05888207 0.20460837 -0.31062925 -0.039506868 -0.35326543 0.001248949
-0.27487463 0.30274266 0.09247239 -0.107524216 0.119121686 -0.49195802 -0.12696244 -0.13219582
0.024064343 0.12954207 0.019454913 -0.00076555455 0.19864248 0.3596242 0.08766029 -0.04515725
0.36562112 0.048733674 -0.19917323 -0.030056776 -0.04465017 0.009292314 0.0032438918 -0.23638813
-0.08971783 -0.21154068 0.033026114 0.13982703 -0.1185491 -0.1307379 -0.08296147 -0.10129988
0.06496288 -0.08935787 -0.08230372 -0.014335299 0.009277962 -0.16670592 -0.06995106 -0.09163927
0.20362787 0.09195942 0.2803433 -0.08534308 -0.13089627 -0.23510899 0.25074717 -0.19363295

actor_mean.2.bias f4 [64]
00000000: 04fb 173d dcf7 f03c 34e5 c03c 7282 1a3d
00000010: df58 a9bc 2c4a 6dbc b6d0 2dbd 9848 e6bc
00000020: 90e4 6dbd 2d02 2fbd d2c0 e4b8 5e57 81bc
00000030: ed0c 19bd 7f51 7a3d e3f4 c63b 85a5 2ebd
00000040: d07a c23c ea15 c63c 1a94 2ebc ac08 b7bd
00000050: 2567 c339 c6a3 7a3d 6da5 2abd bc42 593d
00000060: 60c0 4c3c 629d 693b 96a2 15bd cbb6 e13b
00000070: af4c 0abc 69b7 923d 5215 5abd 01f0 d33c
00000080: babb 9f3c 5709 e03c 8935 9d3b b269 5a3d
00000090: 86fa f53b a66f c0bc 7b01 80bd 2c47 6f3c
000000a0: 283d 593a 9170 763c 44e6 b4bc 0b8e 3b3d
000000b0: be2a 823c fb8c c6bd c7cd 03bd a9f4 1a3d
000000c0: e144 d13b d527 383d 2190 ea3b ed1e 59bd
000000d0: 036d 51bd 3496 26bd a74c 67bc 29b4 713d
000000e0: 769c 45bd 1e78 29bd f166 783d 0497 bfbc
000000f0: 7171 54bc 7e83 4abc befc b73b 5654 333c
0.03710462 0.029415064 0.023546793 0.03772206 -0.02067226 -0.014483016 -0.04243537 -0.028110787
-0.058079302 -0.042726684 -0.00010907803 -0.01578873 -0.037365843 0.061112877 0.0060716732 -0.04263832
0.023740202 0.024180371 -0.010655427 -0.08937201 0.00037270147 0.061191343 -0.04166167 0.05304216
0.012497038 0.0035646786 -0.036532007 0.0068882457 -0.008441134 0.07163889 -0.05324299 0.025871279
0.019498695 0.027348204 0.0047976417 0.053323455 0.0075066714 -0.023490738 -0.062502824 0.014604371
0.0008287006 0.015041486 -0.022082455 0.04578976 0.015889522 -0.09694859 -0.032178666 0.037830982
0.006386385 0.04495986 0.007158295 -0.05300801 -0.051129352 -0.04067059 -0.014117396 0.059009705
-0.048244916 -0.04137432 0.060645048 -0.02338744 -0.0129665 -0.012360452 0.005614846 0.0109454

actor_mean.4.weight f4 [2, 64]
00000000: 2d15 433d c5a8 d03b 094c 93bc f171 1fbd
00000010: bdaf f8bd 059a 233d 94ea 423d 866e 8d3c
00000020: 07cc 153d e462 e2bc 9a9a 12bd 676f af3c
00000030: f105 513c 57d9 97bd d263 bfbc 1fe5 e2bc
00000040: cd51 cdb9 4e77 913c 7d9c 2ebd 6523 7139
00000050: 2548 54bc 5cd5 943d 5a7e 723d e8de cbbc
00000060: 1786 6c3d 5e0a bb3c 9d29 cdbc 91de 9e3d
00000070: b1c7 a5bc a47e 2dbc 8496 c23d a8a2 4dbd
00000080: 1b40 a43d 551b d0bc 9f57 db3d 7855 af3c
00000090: 5011 433d cb89 793d c608 92bd 2cbb b8bd
000000a0: d887 203d 19d0 24bd ffe6 a2bd 9c59 0a3c
000000b0: 788a f73b a1fb e73c 4c41 733d b146 e2bc
000000c0: 6f78 c33b eff3 a03c b07b 6c3d 6288 163d
000000d0: de0b 9bbd fe89 2d3d 8f82 babd 3931 693d
000000e0: 68ad 853d 4995 abbc b9b0 963d c2cd 2e3d
000000f0: 1f57 653d 4ce9 d43c 9e6b 293d 150a 58ba
00000100: 358f a4bd 6c92 643c fed6 cfbc d790 dcbc
00000110: d4fa 63bd f81b 473c 3626 643d ff0f e83c
00000120: d0ba 59bd bbaa ec3d cb5e 51bd af82 ad3d
00000130: 2e3d 163d 6112 4d3c 7040 45bd c874 1c3d
00000140: 54d4 ddbc bdcc a9bd 3577 91bd ad8e 6f3c
00000150: 33e8 60bd 7359 1abd 3a52 20bd 7024 de3c
00000160: 025f 763c d5e4 973d 00f6 2a3d 74a3 d7bb
00000170: 3049 543d 358d f9bc 5f7f f63c cb34 433d
00000180: ae77 e6b9 8b4d ebbd 8552 603d 7db0 f63d
00000190: bdd7 2f3b d301 0c3d 3522 b0bc e106 bc3c
000001a0: a0e0 a73c 9fa1 b53d b585 8c3d 61f7 603c
000001b0: 0420 223d e655 ebbd 3fef 623b d3db c03d
000001c0: 0d6a 27bc 456f 823d eb88 15bc 4aca f3bd
000001d0: be2e 71bc dea5 79bc b8be 41bc 18a8 0d3d
000001e0: 1686 7a3d 602a 8b3d 4047 453d 0a49 0ebd
000001f0: 196d 60bd 254f 07bd fc25 aa3d d6bd 1f3d
0.047627617 0.006367775 -0.017980592 -0.038927022 -0.121428944 0.039941806 0.047586992 0.017264616
0.03657153 -0.027635045 -0.03579197 0.021415425 0.012757764 -0.07414501 -0.023363028 -0.027697144
-0.00039161593 0.017757084 -0.042629708 0.00022996737 -0.012956654 0.072672576 0.05920253 -0.024886563
0.057745066 0.022832092 -0.025044257 0.07757295 -0.020236822 -0.0105892755 0.09501365 -0.05020395
0.0802004 -0.025403658 0.10710072 0.02140306 0.047623932 0.060922425 -0.0713058 -0.09020075
0.03919205 -0.04023752 -0.07954215 0.008444216 0.0075543486 0.028318228 0.059388444 -0.027621599
0.0059652845 0.019647567 0.057735145 0.03675116 -0.07570623 0.042367928 -0.09106933 0.056931708
0.06527215 -0.020945208 0.07357926 0.042676695 0.05599129 0.02599015 0.041362397 -0.00082412484
-0.08035127 0.013950925 -0.025371071 -0.026924534 -0.05565913 0.012152664 0.055700503 0.02832794
-0.053156674 0.11556002 -0.051115792 0.084721915 0.03667944 0.012516589 -0.048157156 0.03819731
-0.027078785 -0.08291004 -0.07102815 0.014621419 -0.054908942 -0.03768296 -0.039140917 0.027116984
0.0150373 0.07416693 0.04173851 -0.0065807644 0.05182761 -0.03046284 0.030090032 0.04765777
-0.00043958187 -0.114893995 0.054766197 0.12045381 0.002683147 0.034181427 -0.021500686 0.022952499
0.020492852 0.088687174 0.0686144 0.013730855 0.039581314 -0.11490993 0.0034627465 0.09416928
-0.010218156 0.06368879 -0.009126882 -0.11903818 -0.014720617 -0.0152373 -0.011825256 0.034584135
0.06116303 0.06795192 0.048163652 -0.034737624 -0.054791544 -0.033034462 0.08308026 0.0389994

actor_mean.4.bias f4 [2]
00000000: 1c10 b93c 6de5 73bc
0.02259069 -0.014886242
