jsbgym/models/train_saves/ppo_ts1e-2_2_79190_19-01_01:15:15.pt (torch, 62231 bytes, 14 tensors)

actor_logstd f4 [1, 2]
000000 fa 8d 44 bd 58 c6 21 be
       -0.047986962 -0.15798318

conv.0.weight f4 [3, 1, 5, 1]
000000 47 17 cd 3d 50 f6 14 3f 9f cb 27 bf 4e a3 0c 3f
       0.100142054 0.58188343 -0.65545076 0.54936683
000010 b5 5e 4c 3e 3a ce 6d 3f 02 f3 c3 3e 32 60 81 3f
       0.19958003 0.928928 0.38271338 1.0107481
000020 6a de 38 3f 05 ff b2 bd 5a dc 93 be f3 dc f8 bd
       0.72214377 -0.08740047 -0.28879052 -0.12151518
000030 6f 01 15 3f 9e c1 cd 3e d3 e1 97 3f
       0.5820531 0.4018678 1.1865791

conv.0.bias f4 [3]
000000 1c 0c 56 bd 3b 5a a8 bc 29 a3 d8 bd
       -0.052257642 -0.020550838 -0.10577995

critic.0.weight f4 [64, 42]
000000 1d e2 9d 3e 23 e5 94 3d 8f 19 5c be d5 3e 63 3d
       0.30836573 0.07270267 -0.21494125 0.055479843
000010 5b d4 b4 3d 4c bd 0e bd f7 c7 58 3e 68 61 ef be
       0.08829566 -0.034848496 0.2117003 -0.46754003
000020 ef d1 35 bd 6d 37 ac 3d 8d 08 3c 3d fa 7c f1 bd
       -0.04438966 0.08409009 0.045906592 -0.117914155
000030 0f 4a 00 bf 7a 00 18 3e e8 22 fc bb 27 ed 35 3d
       -0.50113004 0.14843932 -0.007694591 0.04441562
000040 8d 47 52 be e2 71 c7 bd bb db 75 bb b8 46 89 be
       -0.20535107 -0.09738518 -0.0037515003 -0.26811767
000050 ff fe 10 3c e6 c1 c4 be f9 d4 09 3e 4c e9 e2 be
       0.008849858 -0.38429183 0.13460149 -0.44318616
000060 07 2b 8f bd d5 59 c3 bd 7a 0f 05 bf 7b 3d 47 be
       -0.06990629 -0.095386185 -0.5197674 -0.19457047
000070 cf 3b 9c 3d 42 ff b0 3e 97 1e 85 be 38 c2 49 bd
       0.07628595 0.34569746 -0.259999 -0.049257487
000080 95 5c 4e bd f0 fa 16 3e b4 f0 27 3e 5c 66 be be
       -0.05038126 0.14744163 0.16400415 -0.3718747
000090 8e ad f6 3d 75 b9 4c 3e 88 4e 3d 3e 70 59 bd bd
       0.12044822 0.19992621 0.18486989 -0.092455745
0000a0 c5 67 11 bf 55 05 ab be 36 1e 72 be 8a fa 10 bc
       -0.56798965 -0.33402506 -0.23644337 -0.008848796
0000b0 53 34 83 3e 96 aa 55 be 24 a4 bf 3d ce 13 00 bd
       0.25625858 -0.20865855 0.09357479 -0.031268887
0000c0 c1 f8 a2 3d 51 b4 3a 3e e8 23 e9 ba a6 59 fb bc
       0.07957602 0.18232848 -0.001778719 -0.030682396
0000d0 2b 27 06 3d 50 e0 04 be 6a 2d 0c 3e 8f fd 58 be
       0.032752197 -0.12976193 0.13689199 -0.21190475
0000e0 8d 27 a0 3d dd a8 c9 bd 24 63 ac 3e 25 97 c9 bc
       0.07820044 -0.09846661 0.33669388 -0.024608204
0000f0 6a 0f 23 be 1f 2b c8 bd 82 a9 89 be f5 3b 54 bc
       -0.15923849 -0.0977385 -0.26887137 -0.012953748
000100 42 2a c8 3c 8b fc 24 be bb 16 16 3e d3 be 55 3e
       0.024434213 -0.16111962 0.14657108 0.20873575
000110 90 9b 49 3d 1b 03 01 be 5a 7e 2c 3e ce ce 50 bd
       0.04922062 -0.12598841 0.16845074 -0.050978474
000120 c0 0d 13 3f 21 b0 c2 bd 5d 2d 37 3e 52 1b 69 bc
       0.57442856 -0.0950625 0.17888398 -0.014227705
000130 28 f4 c3 3d 65 b0 88 3d 79 bc a3 3d 02 3d ac 3c
       0.095680535 0.066742696 0.07994933 0.021025185
000140 0d 41 43 3e 9b c9 fe 3c 0e 24 46 3d 3c 8f f6 3c
       0.19067784 0.031101992 0.04837423 0.030097596
000150 46 0b 11 bf 10 af af 3e fa 49 3e be 9d 30 b3 3d
       -0.56657827 0.3431325 -0.18582907 0.087495066
000160 5b 6d 85 be b7 b5 5b 3d db 6b c1 bd e3 9b 72 3d
       -0.26059994 0.053640094 -0.094444 0.059230696
000170 3a 82 49 3e b0 60 a8 3d e5 38 c6 bd 02 b8 8d be
       0.19678584 0.08221567 -0.096788205 -0.2767945
000180 9a e6 88 bd b8 4c 87 be 8f 3c 44 bd b8 13 d0 bd
       -0.06684609 -0.2642572 -0.047909316 -0.10160011
000190 8d ec b5 bd 4f 64 b0 bd e0 31 8b 3e 80 7b 8e be
       -0.08883009 -0.08612882 0.2718649 -0.27828598
0001a0 73 5e 42 bc c9 1f 88 3e 60 ba a9 bc 65 f1 2b be
       -0.011863339 0.2658675 -0.020718753 -0.16791303
0001b0 dd 53 2a bd 25 f6 11 3e fa 5b aa 3e 2e 92 34 3e
       -0.041583885 0.14254053 0.33273298 0.17633888
0001c0 91 25 b7 be af 0e 11 bd f6 fb 16 bd 21 b3 10 3c
       -0.35770848 -0.035414394 -0.036861382 0.00883177
0001d0 d0 b2 44 3d 56 99 25 3e 1a 79 e9 be 68 5b fd bd
       0.04802209 0.16171774 -0.45600206 -0.1237095
0001e0 19 5b 41 3e 2d 89 73 3c 1d 0c 0b be 74 c4 f5 3a
       0.18882407 0.014864248 -0.1357884 0.0018750564
0001f0 8e 32 c0 be 94 e0 2c 3d 45 e0 46 3d 8d f3 3f 3e
       -0.3753857 0.042206362 0.048553724 0.18745251
000200 28 59 c0 be 1e 8e bb 3e 04 83 00 3e 45 10 94 3e
       -0.3756802 0.36631864 0.12549978 0.28918663
000210 ef 38 5e be c9 e6 2d 3c 89 a1 38 3e 13 e7 56 3e
       -0.21701406 0.0106141055 0.18030371 0.20986585
000220 eb dd 07 be 67 58 23 3e 95 91 b6 3d 3e de 26 3d
       -0.13268249 0.15951692 0.08914486 0.04073929
000230 cf 4e ec 3e 14 96 ae 3d 5b 4a bb be fd 78 24 3e
       0.46153876 0.08524719 -0.36580166 0.16061778
000240 f6 fe 3d be f8 01 00 3e 38 51 3b be 50 8c 52 be
       -0.18554291 0.12500751 -0.18292701 -0.20561337
000250 90 45 21 bd 1f 23 99 3d ff e0 19 3d 2a 44 a0 bd
       -0.03937298 0.07477402 0.03756809 -0.07825501
000260 ac 57 0b be d2 67 a7 3e 82 82 74 bd 68 99 4b 3e
       -0.13607663 0.32696396 -0.059694774 0.19882739
000270 9f 76 b4 3d 49 25 03 bd 90 51 13 3d d3 c5 22 3d
       0.08811688 -0.03201798 0.035966456 0.03973944
000280 b8 7c 12 bf cb 1e 3e be 21 b6 fb bd 53 b2 8f 3e
       -0.57221556 -0.18566434 -0.12290598 0.28065738
000290 2b 97 00 3e 53 42 85 3c 28 d7 08 bd 04 69 d9 be
       0.12557666 0.016266977 -0.033408314 -0.42462933
0002a0 a1 aa 44 3e 05 29 d6 bd 4b 46 61 3e 30 4e c7 3e
       0.19205715 -0.104570426 0.21999471 0.3892684
0002b0 e0 3e 63 bd 28 14 a6 be 9b c2 97 3e bb cc 2d 3e
       -0.055479884 -0.32437253 0.2964066 0.1697263
0002c0 8a 77 70 bd 55 33 cb 3d db 9a b1 bc 95 c7 22 3d
       -0.05870775 0.099219 -0.021680286 0.039741118
0002d0 b3 79 78 3e ff f5 af 3e ee 76 34 be cd 3c f0 bb
       0.24265175 0.34367368 -0.17623493 -0.007331467
0002e0 2f cd e2 3c 1a 26 c8 3d 1b 52 ce bc bf 85 12 3e
       0.02768573 0.09772892 -0.025185635 0.14308833
0002f0 bf b7 95 be b1 a0 01 be c7 ec c1 bd 17 25 56 3e
       -0.2924175 -0.12658955 -0.0946899 0.20912586
000300 27 3c 96 bd ab c1 a8 3e d5 b5 8e 3e e8 27 90 bd
       -0.07335692 0.32960257 0.27873102 -0.070388615
000310 02 55 e5 3b 29 59 14 be b9 eb ba 3d c3 49 0d be
       0.006998659 -0.14487137 0.09126992 -0.13797669
000320 f3 7e d0 3e f3 f0 38 3e 78 fa 8a be e0 41 0a be
       0.40721855 0.18060665 -0.27144217 -0.13501692
000330 5b b2 e5 3c b8 69 13 be c5 14 e1 3d 7b 28 4a be
       0.028039148 -0.14395797 0.109902896 -0.19742005
000340 66 9d 0a 3f 16 2c 1a 3c 7b b3 57 be ee 9b a9 3d
       0.5414642 0.009409925 -0.2106456 0.08281694
000350 52 f6 97 3e bf 94 0b 3d 23 83 16 3d ee 71 cb 3c
       0.29680115 0.034077402 0.036746155 0.0248346
000360 0b b7 81 be 43 3f b3 3d 29 74 2b 3d 57 1d 35 bd
       -0.25334963 0.087523006 0.041858826 -0.044217434
000370 38 53 85 3d e9 f3 c4 bc 31 26 bf bc 5a 23 0c bd
       0.06510013 -0.024042087 -0.02333364 -0.0342134
000380 1d f9 bf bc bb ac 67 be 02 d0 18 3d b5 5f 5f 3d
       -0.023434216 -0.22624485 0.037307747 0.054534633
000390 9c 58 bd 3d 4c 4e d5 3d 82 35 5b 3e 42 9c 82 be
       0.092454165 0.104153246 0.2140713 -0.2550984
0003a0 e1 d9 45 3e d6 59 c9 bd 8d d5 5f 3e 02 0e 23 3e
       0.19321395 -0.09831588 0.21858807 0.15923312
0003b0 7b 5e 94 be 95 84 d5 3d 63 d8 4a 3e d2 dd 5c 3d
       -0.28978333 0.10425679 0.19809107 0.05392248
0003c0 5e 39 ee 3d bc 09 a9 bd 4b a8 88 be 58 7a 1e 3e
       0.11632036 -0.0825381 -0.26690897 0.15476358
0003d0 ea 84 aa be eb 8e 10 3e 73 67 27 be 41 e8 88 3e
       -0.3330453 0.14117019 -0.16348056 0.26739696
0003e0 63 96 b8 bc 5e ae d8 bc 14 0e 26 3e 36 2b 8a bd
       -0.022532647 -0.026450332 0.16216308 -0.06746523
0003f0 2e f4 e4 bd 1a 3d 26 3e fc fc 0a bd f1 e2 2a 3d
       -0.11179386 0.16234246 -0.03393267 0.041720334

critic.0.bias f4 [64]
000000 13 67 c0 bd 1a b9 13 3e 16 0a 84 bc 91 bf 86 bd
       -0.0939466 0.1442608 -0.01611809 -0.06579507
000010 d7 5a f0 3b 5e 56 60 3d a1 4c 7d bd e7 6b 1d 3e
       0.0073350477 0.054769866 -0.061840657 0.15373193
000020 d9 a8 76 3d 29 be 88 bd 65 82 6f 3c 68 a1 66 bc
       0.06021962 -0.06676895 0.014618491 -0.014076568
000030 e5 fe 87 bd 4a 9b e8 bc 81 19 7b bc da 59 e6 bd
       -0.06640414 -0.02839436 -0.015325905 -0.112476066
000040 03 78 ae 3d ca a8 c3 bb 94 bd 54 b7 2f 67 12 3d
       0.08518984 -0.005971049 -1.2680324e-05 0.035742935
000050 65 e1 9a 3b 63 42 02 bc ae 22 52 bd 8a 1a af bc
       0.004726576 -0.007950398 -0.051302604 -0.02137496
000060 6d f1 59 3d c1 92 0f bd 41 bf 09 bd f9 11 e5 3c
       0.053208757 -0.035052065 -0.03362966 0.027962672
000070 6a b7 b9 bd e9 4f b5 bd ec 8c 01 ba 66 36 44 3d
       -0.090681866 -0.08853132 -0.00049419585 0.04790344
000080 95 98 ae 3d 14 4b aa bc 32 34 db bd 7b 65 c5 3b
       0.085251965 -0.020787753 -0.10703315 0.0060240603
000090 f6 fb 03 bd 50 4f 98 bc d7 61 81 bd ee 69 8a bd
       -0.03222271 -0.018592507 -0.063174896 -0.06758486
0000a0 a9 1b d1 3d b6 22 3a 3e 15 e0 b9 3d da c2 87 bd
       0.10210354 0.18177304 0.090759434 -0.06628962
0000b0 4f 66 24 3d 16 52 ae bc 9b ab 08 3c 4f 32 eb 3d
       0.04013663 -0.021279376 0.008341695 0.11484205
0000c0 6b d2 4f 3d 6a e6 be 3c 66 8a 03 3c 14 da 98 3c
       0.05073778 0.02330323 0.008028602 0.018658675
0000d0 9c d2 7b bd 0f d1 1b bd 73 a1 0e 3d a1 6b db 3c
       -0.06148015 -0.03804117 0.03482194 0.02678472
0000e0 2b 2f 67 3c 1e e3 6e bc b3 14 4f 3c 41 f5 0b be
       0.014110367 -0.014580516 0.012639212 -0.13667776
0000f0 c7 ea b3 bc fe 6e aa bd 5a 3a b9 bd b6 cc 20 bc
       -0.021962536 -0.08321951 -0.09044333 -0.009814432

critic.2.weight f4 [64, 64]
000000 c3 3b 8d 3d 05 e3 81 be f9 97 16 be 3b 44 19 bb
       0.06896164 -0.25368515 -0.1470641 -0.0023386616
000010 98 e8 ce 3d a4 5b b4 bd 4a 52 16 be a1 07 0d 3e
       0.101029575 -0.088065416 -0.14679828 0.13772441
000020 69 0e a3 be 35 57 7c 3d c6 da 4f be 49 d2 3f 3e
       -0.31846932 0.061606605 -0.20298299 0.18732561
000030 b5 a5 0a bd e9 34 53 be 2f 86 55 3e fb fe 39 3e
       -0.033849437 -0.20625652 0.20851968 0.18163674
000040 a6 e4 e3 bd 9b 2a c1 bc 28 b4 47 be c3 cc 59 be
       -0.111275956 -0.023579886 -0.19502318 -0.21269517
000050 6c 90 2e be fb 63 08 3c c9 ca b2 3e 76 29 17 3e
       -0.1704728 0.008324618 0.34920338 0.1476191
000060 6f e2 12 3e 46 8f ce b9 f4 26 7b bd 0e 24 e6 bc
       0.1434419 -0.0003939813 -0.061316445 -0.028093364
000070 0f b8 3d bd 87 5f 71 3c 2b b3 a4 3d 34 b0 80 be
       -0.04631811 0.014732248 0.08041986 -0.25134432
000080 20 6b 10 3c 89 e9 aa 3d a1 5c 97 bd 12 52 50 3e
       0.008814603 0.083453245 -0.073907144 0.20343807
000090 a7 26 8b 3d 2c 6a a6 bd 0b af ae 3e 25 5c 89 3e
       0.06794482 -0.081257194 0.34117922 0.26828113
0000a0 ff 0d ca bd a7 a6 3d bc 18 23 6f 3e 98 c9 af 3e
       -0.09865951 -0.011575378 0.23353231 0.3433349
0000b0 15 d8 14 be 41 49 74 be 32 5c a2 3e ec 07 2e bd
       -0.14535554 -0.23856069 0.31710964 -0.042488024
0000c0 84 53 f3 3d 0c 63 4e be d2 26 19 be bb c3 ba 3e
       0.11881164 -0.20154971 -0.14956215 0.36477455
0000d0 3e 3e 59 bd 68 22 c7 3e 83 20 25 bd 50 4c 4b 3e
       -0.053037874 0.38893437 -0.04031421 0.1985333
0000e0 f5 de 71 3e 09 f8 eb bc 5f 98 68 be 84 25 cb be
       0.23620208 -0.028804796 -0.22714375 -0.3967706
0000f0 eb 48 63 3c 6f c2 62 be 95 aa 98 be af 62 dc 3c
       0.0138723655 -0.22144483 -0.29817644 0.026902525
000100 26 56 14 be 0d b0 ed 3c 9c 9c da 3c 6f cf 59 bd
       -0.14485988 0.029014612 0.026686005 -0.05317634
000110 64 7a 8e bb 18 46 93 3e 46 66 9f 3e 8e 5c 69 3d
       -0.004348086 0.28764415 0.31132716 0.056973033
000120 c4 fa 3d be 1c 85 f2 be ab 7f dc bb d1 c4 0b bd
       -0.1855269 -0.4736718 -0.0067290864 -0.034123246
000130 f6 91 18 bd 79 2b 10 bd 35 47 77 bd a6 1f 6a bd
       -0.037248574 -0.03519771 -0.060370643 -0.05715909
000140 7b d6 95 bc c3 77 df 3e 6f e0 85 bd b0 73 6b be
       -0.018290749 0.43646058 -0.06536948 -0.2299335
000150 98 b5 7a 3e a8 e2 50 be d7 68 c7 bc ef 71 ae bd
       0.24483335 -0.20398962 -0.024341984 -0.08517825
000160 0e 1e 0d 3c e1 86 81 3e 3b 29 2e bc 57 a0 c8 3d
       0.008613123 0.25298217 -0.010629947 0.097962074
000170 9a 5f 41 3e 37 0a 95 bd 7d ef 3a 3c 49 e0 3d 3d
       0.18884125 -0.07277339 0.0114096375 0.046356473
000180 58 36 e8 3d c3 7a 49 bd 74 e2 22 3d ef 49 71 3d
       0.1133849 -0.04918934 0.039766744 0.0589084
000190 28 70 bb bd f6 91 9d 3d 6b 18 1c be 7f 20 5c be
       -0.091522515 0.076938555 -0.1524369 -0.21496771
0001a0 c1 43 82 bd df f5 17 be c3 19 5e be c1 9c 2c b9
       -0.06360579 -0.14839886 -0.21689515 -0.00016461594
0001b0 62 86 82 bb fb c0 aa 3e 95 ea 10 be 01 74 32 be
       -0.003983305 0.33350357 -0.14151986 -0.17427064
0001c0 3f 29 34 3e 77 d9 4c be 6e ca 6e bd 75 57 04 3e
       0.17593859 -0.20004831 -0.05829852 0.12923987
0001d0 6e 6b 08 be 92 24 bc 3b c8 4c b2 be cd ac 0c 3e
       -0.13322231 0.005741664 -0.34824204 0.13737793
0001e0 bd af 87 3e 35 bc 13 be a2 d9 e7 be 28 2e 95 3c
       0.26501265 -0.14427264 -0.45283228 0.018210486
0001f0 f3 df 9e bd 59 e5 59 be 3c a4 10 be 96 71 72 be
       -0.07757559 -0.21278895 -0.1412515 -0.23676142
000200 36 53 4a bd 64 22 d6 3e 90 e6 8a 3d e6 4a 90 3e
       -0.049395762 0.41823113 0.067822576 0.28182143
000210 b0 a2 9c 3e 51 38 b2 bd 8c f4 3b 3e 5e 69 4c bd
       0.3059287 -0.08702148 0.18355006 -0.049905173
000220 a2 ca 5d 3d 1d 9e 32 be c7 8e 10 be d8 17 42 3e
       0.054148324 -0.17443128 -0.14116965 0.18954408
000230 76 0a 1a 3d 88 c3 bc bc 57 ab fd 3d f8 6d 92 3e
       0.037607633 -0.023042455 0.12386196 0.28599524
000240 2d f4 6c 3b bc 64 c3 3c 82 1c 76 be cd 42 16 be
       0.0036156282 0.023851745 -0.24034312 -0.1467392
000250 2d 39 46 bd b5 00 62 bd c1 15 35 3e 68 16 49 3e
       -0.04839437 -0.055176456 0.1768408 0.19637454
000260 c9 bb 58 bd c2 28 b0 3d 7d e5 00 3d bd 9d 45 3c
       -0.05291346 0.08601524 0.031468857 0.0120615335
000270 88 a7 61 be cf f0 33 3e 6a ad 77 3d 28 27 a7 bd
       -0.22036564 0.1757233 0.060468115 -0.08161765
000280 04 9d 55 be 9d fd 30 3d 1a d8 94 3e aa 05 66 3e
       -0.20860678 0.043210614 0.29071122 0.22463098
000290 77 37 d2 3d 63 7e 0d be a0 3a aa 3d 06 23 af 3e
       0.10264485 -0.13817744 0.08311963 0.34206408
0002a0 32 c0 21 be d7 ae 1a 3c 14 23 eb be 7a ab 49 be
       -0.15795973 0.009441099 -0.459252 -0.1969432
0002b0 6e 1a 92 3e 35 d2 05 be a5 7e 0c be b8 2b 2b 3d
       0.2853579 -0.13068469 -0.13720186 0.04178974
0002c0 ed 33 90 be 31 2f f2 bd 40 92 d9 3d 2a 34 22 be
       -0.28164616 -0.11825407 0.10623598 -0.15840212
0002d0 95 83 87 bc d6 b1 06 3e 29 38 34 be 02 b2 61 3d
       -0.016542235 0.13153777 -0.17599548 0.055101402
0002e0 b5 68 39 3e 8f cf d3 3d d6 2e 13 3d 5c cd f1 3c
       0.18106349 0.10342323 0.035933338 0.029516868
0002f0 03 50 4b bd 6f 45 04 3f 3c a0 bb 3d e5 45 c3 3d
       -0.049636852 0.5166845 0.09161422 0.09534816
000300 ba 6e 3f 3d dd e6 10 3e 87 1a 51 be b3 cd 0b be
       0.046736456 0.14150567 -0.20420276 -0.13652687
000310 f7 c3 af 3d 20 2f 30 3e 1d 91 96 bd 6c 10 20 bd
       0.08582299 0.17205477 -0.07351897 -0.03907816
000320 1a 70 8c 3e 5c 52 8f bd 60 49 5f be 8e c8 81 bc
       0.27429277 -0.06998131 -0.21805334 -0.015842702
000330 6c bd 77 be 3e cf 45 3d ee 57 d6 bd 12 50 d5 bd
       -0.24193352 0.048293345 -0.1046599 -0.10415663
000340 44 fd fc bd e3 61 9f 3e be 78 c4 bd bc 3d 83 3e
       -0.12352994 0.3112937 -0.09593342 0.25633037
000350 e3 2b ac be 8e 04 79 3e 65 de 90 bd d9 d0 a7 3e
       -0.33627233 0.24318144 -0.070736684 0.32776526
000360 0c 4f 03 be 6c 0c 11 3e 14 a7 17 be ce 67 49 3e
       -0.12823123 0.14164895 -0.14809829 0.19668505
000370 9a 33 b5 3d c9 c6 17 3e c0 e5 0f 3d 5f 75 c6 be
       0.08847733 0.14821924 0.035131216 -0.38761422
000380 49 d6 54 be 9c f9 bd 3d 24 ab 35 3d 21 f0 7f 3e
       -0.20784868 0.09276125 0.044352666 0.24993946
000390 ec e4 9a 3d 15 a5 8d 3e 73 c1 19 be 92 18 e0 3d
       0.07563195 0.2766501 -0.15015201 0.109421864
0003a0 6c cf 03 3e 1a c6 9b 3d 77 a2 02 3e 40 79 d6 3d
       0.12872094 0.07606144 0.12757288 0.10472345
0003b0 e5 3d 0c 3d f7 c6 3b 3e 20 a2 83 ba 46 b2 bb 3d
       0.034238715 0.18337618 -0.0010042824 0.09164862
0003c0 1e 78 06 3e f6 75 20 3d 96 8c 64 be b1 87 68 3d
       0.13131759 0.039174996 -0.22319254 0.05677003
0003d0 a9 2c 6f 3e 37 94 fa be 2a 2e cb 3d 87 f9 28 be
       0.2335688 -0.48941204 0.099209145 -0.16501437
0003e0 a6 a4 7a 3e 36 7f 08 bd 36 4b 8e bc 06 dc 19 3e
       0.24476871 -0.033324443 -0.017369848 0.15025339
0003f0 da 5e f8 3d bf 64 56 be 87 4f d9 bd 58 6e 9a 3d
       0.121274665 -0.20936869 -0.10610872 0.07540578

critic.2.bias f4 [64]
000000 d9 ce 48 3d 7b ba 46 3d b6 b4 de bd 86 3b 59 3d
       0.04902539 0.048517685 -0.108743116 0.05303528
000010 08 11 88 3b 36 a7 9a 3c b7 f7 83 3c 6a d5 f9 bc
       0.004152421 0.01887856 0.01610933 -0.030497272
000020 fc 2c c6 bc fb 2c 35 3d e7 53 23 bd 65 fa 0e be
       -0.024191372 0.04423235 -0.039874937 -0.13962705
000030 33 91 01 3d d9 6f c5 bd 03 b5 12 3d ae 4a 49 bd
       0.031632613 -0.09640474 0.035817157 -0.049143486
000040 b3 93 4b 3d 6a 43 f4 3d 79 04 2d 3d 56 b6 49 3d
       0.049701404 0.11926921 0.042240594 0.049246155
000050 f4 22 42 bd ca 2e c3 3d b9 d0 73 bd 07 ef 99 3a
       -0.047396615 0.09530409 -0.059525225 0.0011744209
000060 80 a8 32 3d ec 75 96 bd 78 e9 b1 bc 2c 49 e6 3a
       0.043617725 -0.073467106 -0.021717772 0.0017569414
000070 1a a5 93 3d 52 b6 0b bd ff db 14 bd dc 46 0a 3d
       0.07209225 -0.03410942 -0.036342617 0.033758983
000080 90 69 67 bd 1a 0a e7 bc a4 56 bf 3c 3c 7a 19 bc
       -0.056497157 -0.028203059 0.023356743 -0.009367522
000090 4f de b8 3d 27 39 1f bc d5 45 7a bd e8 29 87 3d
       0.09026777 -0.009718216 -0.061101753 0.0659979
0000a0 f2 85 6d 3d 7c 34 b0 bd c2 06 2c bd b9 cc 07 3e
       0.05798907 -0.086037606 -0.041998632 0.13261689
0000b0 51 42 5b 3d 7d ff 01 bc 7f 55 e7 3d 7d ae 96 3d
       0.05353004 -0.007934448 0.11295604 0.073575
0000c0 10 a2 c3 bd ee 9b 87 3c b7 1d e3 3d ae 30 00 3d
       -0.09552395 0.016553845 0.11089652 0.031296425
0000d0 74 22 41 bd 65 d6 e0 3c 29 93 32 bd 63 da 87 3d
       -0.047151998 0.027445981 -0.043597374 0.06633451
0000e0 8e 55 ec 3c 94 bf 5a bd 89 99 63 bd 35 d4 4e 3c
       0.02884939 -0.05340536 -0.055566344 0.012623836
0000f0 08 ef 00 be 33 33 e3 bc 8d 06 37 3d db af 71 3d
       -0.12591183 -0.027734375 0.04468398 0.0590056

critic.4.weight f4 [1, 64]
000000 86 e8 b4 bd f7 f6 17 bd 75 83 30 3d 02 c4 c9 bc
       -0.08833413 -0.03710076 0.043094117 -0.024629597
000010 2e d7 1e be 5f ca f8 bd 75 61 9d 3c f2 d1 a3 3c
       -0.15511772 -0.12147974 0.01921151 0.01999757
000020 fc 1d 35 3e ac 3b 41 be a0 5d 16 3e f7 ad 4e 3e
       0.1768722 -0.1887042 0.14684153 0.2018355
000030 c1 14 81 bd be a8 37 3e a5 a3 51 be 5d 05 b5 3c
       -0.063027866 0.17935464 -0.20472582 0.022097284
000040 04 71 25 be c1 c4 ca bd a7 78 aa bd d1 62 9e bd
       -0.16156393 -0.09900809 -0.08323794 -0.077336915
000050 a2 a3 1a 3e bc 73 bb be d6 02 0a 3e c7 1b 01 be
       0.15101483 -0.36611736 0.13477644 -0.12608252
000060 c5 5c 15 be 79 68 90 3e 75 6c 29 3e 20 09 a4 bc
       -0.1458617 0.28204706 0.1654528 -0.020023882
000070 d4 15 0a be e7 3d 7a 3e db 55 eb 3d 0f ce 36 bb
       -0.1348489 0.24437676 0.11490985 -0.0027893817
000080 5c 24 6d 3d 76 b3 c2 3e 37 71 f2 bc 7a 2d 4e 3e
       0.057896003 0.38027543 -0.029595 0.20134535
000090 a1 77 66 be cf 61 8b 3e 41 a2 4a 3d 1b 69 7c bd
       -0.22506572 0.2722306 0.049471144 -0.061623674
0000a0 b2 60 2a be 81 b1 3a 3e 6b 28 ac 3d a1 b7 61 be
       -0.16638449 0.18231775 0.084061466 -0.22042705
0000b0 9e 29 67 bd b9 5f e5 3d 54 a5 39 be 3c 73 86 bd
       -0.056436174 0.11199898 -0.18129474 -0.06564948
0000c0 03 35 8b 3d 7e cb bb bd 7b 1d dd bd 97 8d cc bd
       0.067972206 -0.091696724 -0.107966386 -0.099879436
0000d0 b4 c5 0e 3e 0e 2c 6e bd 0d 52 a0 3d 76 d1 d1 bd
       0.13942605 -0.058147483 0.0782815 -0.1024503
0000e0 29 a3 ed bd 3d 58 b6 3d 68 e3 c7 3d 66 f7 9d bd
       -0.11603386 0.08903549 0.09760171 -0.07713203
0000f0 04 5b 87 3e 76 42 3a 3e f4 b9 08 bd 4a 27 26 be
       0.26436627 0.18189415 -0.033380464 -0.16225925

actor_mean.0.weight f4 [64, 42]
000000 fc aa 77 bc 6d 28 27 3d 1d 09 bd be cb 29 5d 3d
       -0.015116449 0.040810037 -0.36921015 0.053994935
000010 9c 52 8b 3d bd 5d 82 3c ee 2e dc be 67 ca 39 3c
       0.06802866 0.015913839 -0.43004555 0.01133976
000020 f8 55 db 3d 70 28 2d 3e e8 6a 13 be f3 7b 6a be
       0.107097566 0.16909957 -0.1439625 -0.22898845
000030 5c e2 dc 3d d3 2d 1e 3e 6d 70 17 be ac e8 0f 3d
       0.10785362 0.15447168 -0.14788981 0.035134003
000040 83 ae 55 3e f2 51 17 3e 9e 58 eb bc 9b 9b 96 3d
       0.20867352 0.14777353 -0.02872878 0.07353898
000050 97 5d eb 3a 0a e5 9f 3e f0 e4 8d be 63 71 47 3e
       0.0017956969 0.3122943 -0.27713728 0.19476847
000060 8f e8 4f bd 28 f3 a2 3e 30 b4 c9 3e 9a b9 4a 3e
       -0.050758895 0.31826138 0.39395285 0.19797364
000070 ce cb 08 3e 60 cf 4d bd 8d 36 92 3e a3 d0 82 3e
       0.13358995 -0.050246596 0.28557244 0.25549802
000080 f1 2b 90 3d f4 a3 6a 3e 58 e2 2a 3e 3d 59 d1 3d
       0.07039631 0.22914106 0.16687906 0.10222099
000090 26 63 f4 3b 1b 81 03 3e 8a 6d 31 bd 00 82 13 bd
       0.0074581085 0.12842219 -0.043317355 -0.03601265
0000a0 6e 69 dd 3d 79 24 3d 3d b2 45 82 3c 5a ed 55 3d
       0.10811125 0.04617736 0.015902374 0.05222831
0000b0 7c c7 89 be 58 72 10 3d ba da 85 3e 72 d1 52 3e
       -0.26910007 0.035265297 0.26143438 0.2058771
0000c0 5a 6f 82 3e cc 5c 21 3e d5 51 db 3c b7 95 00 3e
       0.2547558 0.15758055 0.026772419 0.12557112
0000d0 53 49 0f 3e 5e 42 f0 3d ee 74 cf bd 8d 86 c7 3c
       0.13992815 0.117314085 -0.101297244 0.024356151
0000e0 3c ce 8f 3e f0 99 88 be 92 70 93 be 5c b3 a3 bd
       0.28087032 -0.26679945 -0.28796822 -0.079931945
0000f0 f3 0e 1c be 91 36 c9 be 0b e4 2f be da 01 7b 3e
       -0.15240078 -0.39299443 -0.17176835 0.24512425
000100 57 e7 5a 3d 73 0a 64 3c d2 ef 01 be 90 22 31 3d
       0.05344328 0.013918507 -0.1268914 0.043245852
000110 dd 51 0e 3e 72 3d 72 bd 26 8f 38 be 0f d0 52 bd
       0.13898416 -0.05914063 -0.18023357 -0.05146795
000120 21 64 46 be bf 50 0c 3e d5 c5 5a 3e 94 be 01 3d
       -0.19374134 0.13702677 0.2136453 0.03167589
000130 53 a7 10 be b4 d5 8e 3d cf 30 58 be c9 f5 47 3d
       -0.14126329 0.069743544 -0.21112369 0.048818383
000140 5b 67 85 3d 6d 85 1a 3d 0d 0c 4b 3d 1b b0 eb bc
       0.06513854 0.0377249 0.04957204 -0.028770497
000150 46 e4 03 3d 94 d8 03 be 02 39 aa 3e 00 92 d0 be
       0.03220012 -0.12875587 0.33246619 -0.4073639
000160 8d 56 2a 3d ba f4 e6 bd 26 11 a7 bd 3c d5 0a 3e
       0.041586448 -0.11277147 -0.08157568 0.13557905
000170 db ad 8f bd 1a c7 8d 3e da 0c 9e 3e 7c b0 45 bd
       -0.07015582 0.27690965 0.3086918 -0.04826401
000180 37 dd 1f be e6 6f 11 be aa 0e f8 3d 2c f8 8c be
       -0.1561173 -0.14202842 0.12112172 -0.2753309
000190 e7 db aa 3e 8a 75 13 be 4c 03 17 3c d9 4c 62 bd
       0.33370897 -0.14400306 0.009217095 -0.05524907
0001a0 90 6d 02 3e 9d ff 2b 3e 67 19 b1 bd 0f ec 89 3e
       0.12737107 0.16796727 -0.08647423 0.2693791
0001b0 87 a3 7b bd 95 bc 97 3d 8c 56 4f 3e 1a 58 1c bb
       -0.06143525 0.07409016 0.20247859 -0.0023856224
0001c0 6d 18 c5 bd 7f 00 42 be a8 6f 37 3e 2e 54 28 3e
       -0.096237995 -0.18945502 0.17913687 0.16438362
0001d0 fa 65 47 3e 42 eb 33 be 1a f4 a7 3e a3 b8 4b bd
       0.19472495 -0.17570212 0.32803422 -0.04973663
0001e0 04 29 d6 b7 23 48 cb be eb 52 96 bd 1c eb f5 3d
       -2.5529887e-05 -0.39703473 -0.07340034 0.12007734
0001f0 47 19 26 3d 83 2c e6 bd 9f 5d 33 3e bc 4b 70 3d
       0.04055145 -0.11238959 0.17516182 0.058665976
000200 2f a9 3f 3e 23 0b 91 be 9a 99 1a 3e 62 c9 d8 bc
       0.18716882 -0.2832881 0.15097657 -0.026463214
000210 29 cc d8 3d dc 02 59 be b3 20 86 bd f2 a7 8a bb
       0.105858155 -0.21192497 -0.06549206 -0.0042314464
000220 d8 a1 bd 3d 9a d3 b2 bd 67 31 30 bf 50 25 29 3e
       0.09259385 -0.08731766 -0.6882538 0.1651814
000230 56 ff 17 3e f5 b7 2a bd 2d 78 6e 3e 58 ad 95 3d
       0.14843497 -0.04167934 0.23288031 0.07308453
000240 c1 b8 e1 3d ec 2b 2d 3d db 71 58 bd a5 48 b8 be
       0.11021567 0.042278215 -0.052842956 -0.35992923
000250 46 5b 70 3d 5d da 61 3d fd 39 d4 3e dd 74 92 3d
       0.058680795 0.055139888 0.41450492 0.07151196
000260 a5 d5 7e 3d f0 f4 10 3d 85 e1 67 3e bd ab 1d 3e
       0.062215466 0.03538984 0.22644623 0.15397544
000270 b6 9e 85 bc a6 dc 1f bd e4 59 1f be 0f e0 b6 3e
       -0.01631103 -0.039028786 -0.15561634 0.35717818
000280 33 19 7b be 4f 86 8e be a8 d7 53 3d b8 0f 01 bd
       -0.24521331 -0.27836844 0.051719338 -0.03150913
000290 96 2a 4e 3e 31 63 ac 3c 85 cc 28 be 7f 71 5a bd
       0.20133433 0.021043392 -0.16484268 -0.053330895
0002a0 11 fb f5 3c f9 89 ac be cc 06 41 be 6b c3 57 bd
       0.030026944 -0.33699015 -0.18850249 -0.0526766
0002b0 ae 37 31 bd fe 62 ab 3e 32 85 99 be 47 50 7e be
       -0.04326599 0.33473963 -0.29984432 -0.24835311
0002c0 c6 7a 8f bd 22 ef 3d 3e 11 4e 1b be d5 99 3d be
       -0.07005839 0.18548253 -0.15166499 -0.18515714
0002d0 d5 07 d7 3c 81 ee 12 bd f6 8f 55 bd ec 59 3d bd
       0.026248852 -0.035871986 -0.052139245 -0.046228334
0002e0 d7 ac af 3d 53 49 c4 bd fb ce 02 3e 74 18 4b be
       0.085778885 -0.09584298 0.1277427 -0.19833547
0002f0 b0 6c cc be ae 24 c5 be a9 bd 34 be 77 ba f1 3d
       -0.39926672 -0.38504547 -0.17650475 0.118031435
000300 83 f1 96 3d 5b 32 0b be a6 be 96 3b 77 18 df bd
       0.073702835 -0.13593428 0.004600364 -0.10893338
000310 34 c4 74 3e f9 da 0e 3d c8 8c df bd fe 41 54 3e
       0.2390297 0.034876797 -0.10915524 0.20728299
000320 15 9b 40 be c3 00 b7 3b 9a 1b 22 be fa 9b 4d be
       -0.18809159 0.0055848076 -0.15830842 -0.20079032
000330 74 8b 0e bc 15 d6 19 3e d5 23 14 3d f8 9e 49 bc
       -0.00870024 0.15023072 0.036166985 -0.0123059675
000340 05 ad a7 3e 19 77 98 be 57 5d 0d be 76 16 31 be
       0.3274919 -0.29778364 -0.13805138 -0.17293724
000350 74 9e 15 3c 71 2e bd 3d 47 6c b5 3c 5c d9 22 3c
       0.009132016 0.092373736 0.022146357 0.009939518
000360 b8 1f d8 3c c8 33 a6 3e 1b e7 c8 be b5 25 a3 bd
       0.026382312 0.3246138 -0.3923882 -0.079661764
000370 52 7e 6b 3b 6b 5f 8b 3c 6a 6d e5 3d 1f 1d 75 3e
       0.0035933447 0.017013272 0.1120251 0.2393689
000380 67 af e2 be 4c fb 9a be 9e c8 c6 3c 7b 0d d6 bd
       -0.44274446 -0.3026985 0.024265584 -0.1045179
000390 c6 e4 6f 3e a9 b7 79 be 88 2b a4 3e 16 0b 60 3e
       0.23427114 -0.24386467 0.32064462 0.21879229
0003a0 e5 28 a6 3d 02 d2 9c 3d ae ce 0a be f1 62 26 be
       0.08113269 0.07657243 -0.13555405 -0.1624868
0003b0 60 51 ac 3e 25 e8 05 3e a4 a0 ec 3d 4d 9e a6 be
       0.33655834 0.13076837 0.11554077 -0.3254265
0003c0 10 93 37 3e f3 92 3d be 4d 0a 37 3d e6 ff 0f bd
       0.17927194 -0.18513088 0.044687558 -0.035156153
0003d0 b3 09 42 3d 71 45 4e 3e b0 a7 92 3e ed 53 3a 3d
       0.04737253 0.20143677 0.2864356 0.045490194
0003e0 85 71 25 be 1a 24 50 3e 27 a4 c9 bd 6e 24 bd bb
       -0.16156586 0.20326272 -0.09845763 -0.005772165
0003f0 ce 83 f0 be 72 94 bd 3d 19 f9 ea 3b a5 4f 6d be
       -0.4697556 0.09256829 0.007170808 -0.23174913

actor_mean.0.bias f4 [64]
000000 49 34 34 3d dd cd ca bc 27 97 89 3d bf 1d 79 3d
       0.043995176 -0.024756366 0.06718283 0.060819384
000010 c7 06 87 3b a5 30 49 3d 82 8f ff bc 10 30 42 bc
       0.004120681 0.049118657 -0.03119636 -0.011852279
000020 99 24 47 3d 42 0f 11 3d 8c 3b c1 bb 40 0a a9 bc
       0.048618887 0.03541494 -0.005896991 -0.02063477
000030 8d a1 ee 3c 70 1a ff 3b 06 f4 28 3d fc 67 00 bd
       0.029129768 0.007785134 0.041248344 -0.031349167
000040 fa e2 d4 bc 44 fe 40 bb e8 87 13 bd 01 a0 14 bd
       -0.025987137 -0.002944843 -0.036018282 -0.036285404
000050 25 46 59 3d 9e ab da bc 1d af d4 3b d5 e0 d7 bc
       0.05304541 -0.026693162 0.0064906017 -0.026352325
000060 39 e7 cd 3c 16 de d1 bd 0a 85 f1 3c 0b 73 5b 3d
       0.02513467 -0.10247438 0.029482383 0.05357651
000070 df d6 6e 3d 54 76 33 bd e6 c0 11 3d b3 e0 cd bc
       0.058310386 -0.04381402 0.035584353 -0.025131559
000080 3d 63 43 bd e4 61 0b bd 70 28 e2 bc 71 93 a3 bc
       -0.047702063 -0.034028903 -0.027607173 -0.019967766
000090 59 27 84 3d 68 50 b9 bc 72 da a8 3c 12 1a 7e bb
       0.064528175 -0.022621349 0.020611975 -0.0038772863
0000a0 2f 0e 1f 3b ca c6 93 3d 1f 53 4b 3c 52 c2 7b 3d
       0.0024269929 0.072156504 0.012409954 0.061464615
0000b0 4a 5b 67 3b 25 03 35 ba 02 20 99 bd ff a8 8f bd
       0.0035302215 -0.00069050706 -0.07476808 -0.07014655
0000c0 e8 57 04 3c 24 1b 71 bd e2 2f 18 3d 8b d2 f2 3c
       0.008077599 -0.058863774 0.03715504 0.02964141
0000d0 fc 00 e4 bb 48 f9 23 3d 61 a0 ec 3d b5 42 de bb
       -0.006958125 0.040032655 0.11554027 -0.0067828544
0000e0 7f fc 11 3c 42 6d 76 bd 4a 6c a1 bc 88 99 72 3d
       0.008910297 -0.06016279 -0.019704957 0.05922845
0000f0 84 cd 64 bd 7b 9f 5a 3c 41 25 3a bc da 8d 4b bd
       -0.055860057 0.013343687 -0.011361421 -0.049695827

actor_mean.2.weight f4 [64, 64]
000000 1d 10 b6 bd 9f 48 02 3e 09 72 d0 bd c2 e8 a5 3e
       -0.08889792 0.12723015 -0.101780005 0.32404143
000010 fa 2c 82 be b0 3a 1b 3e 23 86 cd 3c ec 66 93 3e
       -0.2542494 0.15159106 0.025088375 0.2878946
000020 66 b6 e7 be 05 eb 7f 3d 0e 5f 97 3c 95 c6 92 3e
       -0.45256346 0.06247999 0.018477943 0.2866713
000030 c6 f3 36 3d 71 f6 22 3e 2f 8a 0a 3e 55 d2 54 3e
       0.044666074 0.15914322 0.13529275 0.2078336
000040 fa 40 b0 be 06 9d c1 3d 47 43 52 3e 14 d6 95 bc
       -0.34424573 0.09453778 0.20533477 -0.018290557
000050 a8 a6 a8 bd c5 3f 30 be 97 c8 06 3e dd ee 5c be
       -0.08234912 -0.17211826 0.13162456 -0.21575494
000060 94 ee 6c be e3 66 e5 3c 5a d9 53 be d9 80 90 3e
       -0.23137885 0.028003162 -0.20688382 0.28223303
000070 c4 19 20 3e da a3 07 3e 74 97 ac 3d d4 68 e3 3c
       0.15634829 0.13246098 0.08427325 0.027759947
000080 dc ba 45 bd 85 6c fa 3d 0c 3d f3 3c b5 36 9d 3e
       -0.048273906 0.1222773 0.029692195 0.307058
000090 64 1b 28 3e 37 61 6d 3e df c1 ae be 59 e1 66 be
       0.16416699 0.23181616 -0.34132287 -0.22546901
0000a0 1c 9c 38 3e 71 2b 77 3e bc 21 96 3d f5 ec 87 be
       0.18028301 0.24137665 0.07330653 -0.2654797
0000b0 4f b9 b1 be f9 61 88 3d 61 0a 52 be f5 ca 79 3e
       -0.34711692 0.06659312 -0.20511772 0.24393828
0000c0 a5 d8 59 be cf 08 20 be 9d d1 35 3e b4 99 ab bc
       -0.2127405 -0.1562836 0.17755742 -0.020947315
0000d0 d9 c0 50 3d d0 10 9e bd 8a 18 9b bc 63 02 51 3e
       0.050965164 -0.077180505 -0.0189326 0.20411067
0000e0 7d b3 ea 3d 18 16 84 bd f1 f2 d4 3b 27 cf 23 3e
       0.11460016 -0.064495265 0.0064986874 0.15996991
0000f0 92 98 ca 3e 11 11 d3 3b 50 81 84 bd ee cb 2b 3e
       0.39569527 0.0064412435 -0.06469977 0.16777012
000100 19 05 dd bb 7c 74 a8 bd 1d cd 5b 3e 42 84 94 3d
       -0.0067449925 -0.08225343 0.21464963 0.07251789
000110 b0 62 8b be 39 d4 14 3e 8a 42 12 3e 1d 3f d8 3d
       -0.2722373 0.14534082 0.14283195 0.10558913
000120 10 e5 a2 3d e2 7d 76 be 9f 0b 7a 3e b5 92 9e 3e
       0.079538465 -0.24071458 0.24418496 0.30971304
000130 37 b3 97 bd fb b7 21 be 09 b4 c1 3b 7d ab 0d be
       -0.074072294 -0.15792839 0.0059113544 -0.13834949
000140 0a dc 6c be 54 d6 2b bd e2 26 5f be 6d 14 b5 bd
       -0.23130813 -0.041952446 -0.21792176 -0.088417865
000150 e0 2a 58 be d3 e5 6a be 67 c5 e0 3d 46 c0 83 bd
       -0.21110106 -0.22939233 0.109751515 -0.064331576
000160 d8 c1 4a be 2f d2 b2 bd 68 a9 68 be 19 02 8a 3e
       -0.19800508 -0.087314956 -0.22720873 0.26954725
000170 e1 06 1a 3e 9c e5 c2 be 9b 38 a3 be 63 b4 8d be
       0.15041687 -0.38065803 -0.31879124 -0.27676687
000180 ab 5d b3 be ce b2 1d 3e 4d 26 10 3e 67 b3 cd be
       -0.350324 0.1540024 0.1407711 -0.40175936
000190 d5 3f 5a 3d 23 65 bc bd 4a 49 90 3e e5 44 37 be
       0.05328353 -0.09198978 0.28180915 -0.17897375
0001a0 ce f2 f9 bd ec ed 9b be ca b6 96 3e 18 8a ec 3d
       -0.122045144 -0.30454957 0.29436332 0.11549777
0001b0 ef 98 a4 3d c4 16 c4 3d 64 d2 11 bd c7 c2 e6 bd
       0.08036982 0.09574655 -0.035601035 -0.112676196
0001c0 c3 77 df 3d 0b be a3 be 43 63 8d 3d 5a 8e c3 bd
       0.109115146 -0.3198093 0.06903698 -0.09548636
0001d0 a5 03 25 3e 89 d1 ca 3d 1e ed c6 3e 0f 14 53 be
       0.16114672 0.09903247 0.3885278 -0.2061312
0001e0 b0 c7 61 3e 11 a5 32 be fd ac cd 3d b3 21 bc bd
       0.22048831 -0.1744578 0.100427605 -0.09186115
0001f0 a3 79 c6 bd be 93 5b bd 8b 44 4e be 04 01 2c be
       -0.09691169 -0.053607695 -0.20143335 -0.16797262
000200 ab 8c 53 3e c3 5a 18 bd 16 da 7d 3e ee 1c b5 bc
       0.2065913 -0.037195932 0.24790224 -0.022108521
000210 35 94 d9 be 21 46 35 bd 0e f9 07 bd b0 09 b4 3e
       -0.42495885 -0.044256333 -0.0331965 0.3516364
000220 df 16 00 3e bc 51 a3 bd ec 3f 03 be 6b ce 4f be
       0.12508725 -0.07974574 -0.12817353 -0.20293586
000230 c9 8d ba 3e 6c de 08 3d 43 35 b0 bd c0 e0 72 be
       0.36436298 0.033415243 -0.08603909 -0.23718548
000240 8e 4f 8c 3d 0f 06 ac be 00 77 94 3e 7e 80 02 3e
       0.06851111 -0.33598372 0.2899704 0.12744328
000250 b2 65 61 be bf 47 d1 3c 3d 9f 4f bd 98 2a 04 be
       -0.2201145 0.025546907 -0.05068897 -0.12906873
000260 e3 11 66 be 54 f9 51 3e b3 a6 98 3d 99 7f 84 be
       -0.2246776 0.20505267 0.0745367 -0.258786
000270 ce 2b f8 bd dc c6 d3 bd d3 8d b4 bc 3f b9 3f 3e
       -0.1211773 -0.10340664 -0.022040283 0.1872301
000280 96 e9 59 be 62 d6 5b 3e cd b4 09 3e 80 bd 29 3e
       -0.21280512 0.214685 0.13447876 0.16576195
000290 e7 08 2f be 9f e2 be bd 26 d1 c8 3c 67 22 7d be
       -0.1709324 -0.09320568 0.024513792 -0.24720155
0002a0 fa a2 a8 3e ee 0f 7e 3c 25 07 a8 bb 2e ab 9b 3e
       0.3293684 0.015506728 -0.005127805 0.30404037
0002b0 06 24 48 be dd 37 d3 bb 42 70 05 be 62 13 2f 3e
       -0.19544992 -0.0064458684 -0.13031104 0.17097238
0002c0 41 9e ac 3d ca 8e 80 be 1e 93 c0 3d dd 05 f8 3d
       0.08428622 -0.2510894 0.094030604 0.12110493
0002d0 64 15 1d be 2b de d2 be fa 9d b1 3d c4 6c 5a be
       -0.15340191 -0.41185126 0.0867271 -0.21330553
0002e0 9d fe a8 3d 0b 37 8a bd 5f a0 ed 3c bd 99 71 be
       0.08251689 -0.0674878 0.029007135 -0.23593803
0002f0 af 95 e8 3e 33 1a a0 3d 26 b7 44 3d 04 94 6e 3e
       0.454267 0.07817497 0.048026226 0.23298651
000300 b9 6d a1 bc 00 b4 68 3e 03 63 2f be 82 6b 2d bd
       -0.01970564 0.22724915 -0.17127614 -0.042338856
000310 56 a6 9f be a9 ff 2e 3e 8c 3d 7c bd a3 17 be 3d
       -0.31181592 0.17089714 -0.061582133 0.09281852
000320 d7 8f 3d be 63 a9 8f 3e 73 59 7c 3d a8 13 bd bd
       -0.18511902 0.2805892 0.061608743 -0.09232265
000330 98 af 80 bd 75 87 15 be 3d fc 95 be fa 6d fa bd
       -0.06283492 -0.14602454 -0.29294005 -0.122280076
000340 18 34 42 3e 08 8c d7 bc d2 be e3 3c ba 13 d3 bd
       0.18965185 -0.02631189 0.027800951 -0.10306497
000350 d7 19 cd 3d 04 f7 8a 3e 31 e9 51 3e 21 f6 4b 3d
       0.10014694 0.27141583 0.20499112 0.049795274
000360 16 2a b9 3e 92 28 af 3e 10 c4 a1 bc ab d2 0c be
       0.36164922 0.3421064 -0.01974681 -0.13752238
000370 e0 2f 53 be c6 ab 77 bd 42 77 9b be 9d b2 77 3c
       -0.20623732 -0.06046655 -0.30364424 0.015118268
000380 ff ff 10 be 49 d0 83 bc 28 34 02 3f 78 2c 71 3e
       -0.14160155 -0.016090529 0.50860834 0.2355212
000390 22 6b 86 3d d4 72 04 3e cf 6a 73 3e e3 9c c8 be
       0.06563403 0.12934428 0.23771213 -0.39182195
0003a0 b0 e3 93 bd 5d a0 65 bd 20 31 b0 3d a7 22 76 bd
       -0.07221162 -0.056061137 0.0860312 -0.06009164
0003b0 68 e2 45 3d b3 1c cb bd 7a 5a c9 3d 4c d4 ee bd
       0.04831162 -0.09917583 0.0983171 -0.11661586
0003c0 14 9a 3a bd 97 e5 a5 be 69 44 5f 3e 22 3b 1a be
       -0.045557097 -0.32401726 0.2180344 -0.1506162
0003d0 58 8d e2 3d 6a 97 bf 3e e8 39 da bd bd db 9a 3e
       0.110621154 0.37420207 -0.10655576 0.30245772
0003e0 14 61 ab bd bc 7d f0 bd f4 0b 83 be 9f 97 09 be
       -0.083681256 -0.11742732 -0.25595057 -0.13436745
0003f0 3a f6 9b bd 49 d1 a0 3d 0c 83 86 be 07 e5 01 be
       -0.07615323 0.07852418 -0.26271856 -0.12685023

actor_mean.2.bias f4 [64]
000000 2a f1 3b bd 36 25 a1 3d 3c ab 42 3c ee 65 30 bc
       -0.04588429 0.078684255 0.011881646 -0.010766489
000010 43 57 6d 3d 52 76 79 bd a1 66 f4 bd b3 e0 b2 3c
       0.057944547 -0.060903855 -0.119336374 0.02183566
000020 03 72 88 3b f3 a3 4c bd 5e 43 d8 bc e8 a7 a2 bc
       0.004163982 -0.04996104 -0.02639931 -0.019855455
000030 66 66 02 bc 95 02 2a 3d d3 da 23 3d e9 ae 0a 3d
       -0.007958984 0.04150637 0.04000361 0.033858214
000040 95 1a 71 bb 2e 3e bd ba 59 45 d8 bc 60 20 98 bd
       -0.0036789526 -0.0014438087 -0.026400255 -0.0742805
000050 23 2f f1 bc ce 01 01 bd 0f 44 8e bd a2 96 00 bd
       -0.029441422 -0.03149586 -0.06946575 -0.031393655
000060 ed 4f 8a 3d c9 be 26 bc 83 1c 85 3b 75 39 82 3c
       0.06753526 -0.010177323 0.0040622368 0.015896538
000070 0e 05 95 bc 92 7f d5 3c 46 fe ac bc 1b 2d 52 3d
       -0.018190887 0.026061807 -0.02111734 0.051312547
000080 cf 8d 79 bd a1 2e 78 bc 67 24 0c 3d c8 d3 94 bd
       -0.060926255 -0.015147836 0.034214403 -0.072669566
000090 16 b6 51 3c aa 08 d6 bc 7b 03 d4 bc 91 c4 e9 3c
       0.01279976 -0.026127178 -0.025880566 0.028536113
0000a0 a0 7e ba bc ee 0d b2 3d d7 8d 34 3d ac e4 36 3d
       -0.022765458 0.08694063 0.04408058 0.044651672
0000b0 84 7f 6f 3c ab c3 90 3c 72 e5 03 3c c3 50 e1 3d
       0.014617804 0.017671427 0.0080503095 0.11001732
0000c0 12 d9 21 3d 74 e0 fa 3c ba 10 3a 3d 7e 72 0b 3c
       0.039513655 0.030624606 0.045426108 0.008511184
0000d0 ed dc 97 3c 2b 38 4c 3d a3 c6 db 3c e9 91 1f bd
       0.018537963 0.049858253 0.026828116 -0.03895751
0000e0 c5 43 87 bd b7 e8 6c 3d 8c ec e7 3d 84 fc 19 3d
       -0.06604723 0.05783912 0.113244146 0.037594333
0000f0 1a e4 0e 3c 76 9a 95 3c c4 70 63 bd 6a 8e 71 3d
       0.008721376 0.01826213 -0.055527464 0.058973707

actor_mean.4.weight f4 [2, 64]
000000 66 e5 ce 3d 0b 58 37 3d 24 9b b8 3d 1d 8d 48 bd
       0.10102348 0.0447617 0.09013966 -0.0489627
000010 10 90 51 bc f6 b5 bf 3d d6 17 7c bd 2d 63 0c bd
       -0.012790695 0.09360878 -0.06154617 -0.03427427
000020 12 65 d7 3d 1e 62 08 3e 94 f6 58 3d 07 95 6a 3d
       0.105173245 0.13318679 0.05296953 0.05727103
000030 1f b7 6e 3d df 00 ec 3c 72 53 f8 3c 5e 90 82 3d
       0.058280107 0.02880901 0.030313227 0.06375192
000040 6f 5d e8 3d 07 62 f2 3c 84 04 a0 3d 16 52 51 bd
       0.11345946 0.029587759 0.07813361 -0.051103674
000050 63 9d c7 bc ca 09 58 3d a2 08 6f bd 2c 15 f5 3d
       -0.02436704 0.05274371 -0.058357842 0.11966929
000060 b9 c5 c7 bd 07 d5 85 bd 5c 2b e9 bc 1e 0a 00 3e
       -0.097545095 -0.06534772 -0.028463058 0.1250386
000070 0f ae c4 bb b7 49 46 3b 59 da 37 bd 6f c8 59 3d
       -0.0060021947 0.003025634 -0.044885967 0.053169664
000080 c0 02 f4 bc 4d f5 13 bc 5b 31 ce 3c ee 3e a0 3d
       -0.029786468 -0.009030652 0.025170019 0.07824503
000090 ce 81 ae bc 17 09 ff bd ea 41 cc 3d 03 26 f9 bc
       -0.02130213 -0.124529056 0.099735096 -0.030413633
0000a0 a0 7f de 3c b7 07 77 3d 5d ee d2 3d 82 4f 43 bd
       0.027160466 0.06031009 0.102993704 -0.047683246
0000b0 65 dd 81 3d bb d9 1d 3d f7 2b 30 3c 79 78 5f ba
       0.06341056 0.038537722 0.01075267 -0.0008524727
0000c0 db 33 b6 3d 62 8a 0b 3d dd 55 15 3e 43 d2 6b bd
       0.088966094 0.03406752 0.14583535 -0.057573568
0000d0 06 31 bf 3d e6 b8 c6 ba 60 eb a8 3d 12 04 5c 3b
       0.09335522 -0.0015161305 0.08248019 0.0033571762
0000e0 1b 9d 2d bd cc 20 93 3d 22 a3 35 bb 54 2a 01 3d
       -0.042386156 0.0718399 -0.0027715643 0.031534508
0000f0 0b 35 0f be de 87 85 bd 3c 29 58 bd 2e 15 b8 bd
       -0.13985078 -0.06520055 -0.0527737 -0.08988415
000100 8e 9b 16 3d 9a ba 11 be 02 89 48 3c 7f 0c 89 bd
       0.036769442 -0.14231339 0.012239696 -0.066918366
000110 b1 67 4f 3d ed 26 16 3d 6d 4f 3c be 8a c2 12 bd
       0.050635997 0.036658216 -0.18389674 -0.03583006
000120 82 da 10 3c 82 5e 60 bc d5 e8 b9 3c 15 60 e2 bd
       0.008841159 -0.013694407 0.02269403 -0.110534824
000130 9a e2 8d bc 24 03 e1 3d 09 2f ed bd 89 2e 38 3d
       -0.017319966 0.10986927 -0.11581237 0.044966254
000140 69 ee d6 3c 7a aa e5 bc 41 bb ea 3c 4c 3f 05 3e
       0.02623673 -0.028035391 0.028653743 0.13012427
000150 5b f6 97 3d 81 c0 59 bc e0 46 1e 3d ce 10 87 bc
       0.074200355 -0.013290525 0.03864181 -0.016487505
000160 50 20 03 bd ab 90 f7 3c 8b bc bf bb 07 25 39 ba
       -0.032013237 0.03022035 -0.0058513335 -0.00070627074
000170 62 d2 e7 3c 1e 0c 3d 3c 28 18 bf 3c 15 5e 55 3b
       0.02829856 0.0115385335 0.023326948 0.0032557298
000180 b5 9f 6d 3d d9 92 50 3d 93 f9 ec bd 0e 9a 85 3d
       0.058013637 0.050921295 -0.1157104 0.06523524
000190 5a 64 6a bc b5 a0 25 3d c0 29 a9 bc 99 9f 63 bd
       -0.014306152 0.040436465 -0.02064979 -0.055572126
0001a0 fa aa 96 bd f4 3f 3b 3d 5a dd dd 3b 42 fb a6 bd
       -0.0735683 0.045715287 0.006770772 -0.081533924
0001b0 54 0b fc 3c 35 a2 69 bd 07 41 bf bd 3a 19 7d 3d
       0.03076712 -0.05703946 -0.09338575 0.061791636
0001c0 01 b3 d4 bd aa 85 cb bc 14 da a6 bc d2 91 65 bd
       -0.10385705 -0.02484401 -0.02036766 -0.05604727
0001d0 a9 19 06 3c 6f a7 ed 3d db ce 5b bd 51 cd f6 bd
       0.008184829 0.11604201 -0.05366407 -0.1205088
0001e0 b0 47 17 3d 6a b7 72 bd a4 f3 00 be da 4c 93 bd
       0.0369336 -0.05925695 -0.12592942 -0.07192393
0001f0 82 48 8f bc 5f ba 0c bd 7f b3 08 be 30 36 46 3d
       -0.01749063 -0.034357425 -0.13349722 0.04839152

actor_mean.4.bias f4 [2]
000000 73 ba 6c 3c 7e 6b 90 bc
       0.01444875 -0.017629381
