jsbgym/models/train_saves/ppo_caps_tuned1_randatmomag_7_65476_04-12_14:29:36.pt (torch, 57427 bytes, 14 tensors)

actor_logstd f4 [1, 2]
-0.3751325 -0.31258062
00000000: 5e11 c0be 910a a0be

conv.0.weight f4 [3, 1, 5, 1]
-0.13218239 0.36255774 -0.014130945 -0.5883979 -0.33442816 0.10232115 -0.7997549 -0.05570805
-0.47429314 0.3908796 0.22886994 0.046707038 0.230094 -0.31540617 0.50753975
00000000: d25a 07be 2ba1 b93e 7b85 67bc 3fa1 16bf
00000010: 2b3a abbe c08d d13d bdbc 4cbf 202e 64bd
00000020: 8dd6 f2be 5f21 c83e e25c 6a3e e14f 3f3d
00000030: c39d 6b3e eb7c a1be 20ee 013f

conv.0.bias f4 [3]
0.37679577 -0.057145037 0.2256472
00000000: 60eb c03e ea10 6abd 0f10 673e

critic.1.weight f4 [64, 30]
-0.5013344 -0.06891801 -0.14119366 0.106337875 -0.0049544494 0.027073126 -0.26795095 -0.14986035
0.052966066 0.11458439 0.020520924 -0.34164584 -0.066743426 0.0036993085 -0.0141181545 -0.14213939
0.17567852 -0.056020398 -0.19339058 0.067018315 -0.054993346 -0.18974794 0.16120449 0.2377388
0.06466538 -0.0068219197 -0.22217612 -0.1124193 -0.08559792 -0.029364752 0.17840025 -0.058691446
-0.14189322 0.35618222 -0.331016 -0.18190823 0.17041336 0.037649967 0.30324823 -0.0064334725
0.2837445 -0.3556505 -0.2717536 0.07405623 0.12706867 0.10345288 -0.15276925 -0.019403584
-0.068904415 -0.047521077 -0.15632567 0.051048405 -0.020755231 -0.2734479 0.14905597 0.070534475
0.44962946 0.026645299 -0.20686065 -0.14472999 0.10256876 0.270146 -0.13201052 0.031293113
-0.42757297 0.031503897 -0.09269073 -0.114720345 -0.031072192 -0.06774106 0.09589879 0.27723652
0.016688747 0.04913713 -0.21287376 -0.28769767 -0.25360575 0.24367663 -0.1714795 0.03822277
0.065859064 0.15308276 -0.0021168117 -0.096544564 -0.19167835 -0.13159226 -0.20544007 0.020766629
-0.21435684 -0.20837076 0.102842614 0.21973515 -0.05082603 0.229574 -0.018331105 0.2601867
-0.028707867 -0.003931973 -0.2038473 0.112384245 0.20452152 0.004140097 0.16023375 0.20427065
0.11357228 -0.15301536 0.251597 0.055952135 0.011126241 -0.33452684 -0.12355248 -0.10636352
-0.24956994 0.1038848 0.019983508 -0.38008738 -0.0039314907 0.039789785 -0.09502126 0.061307322
-0.19015038 0.14628854 -0.0020909868 -0.15209407 -0.32604656 -0.045926623 0.11694403 -0.28246516
-0.11155114 -0.00042429817 0.4248669 -0.2734708 -0.09095638 0.22149205 -0.07964775 -0.09209473
0.39775118 0.18812436 0.007267467 0.11803047 -0.2239076 -0.0077330396 0.014578376 -0.021443117
-0.087378465 0.17793028 -0.34560114 0.019791672 -0.09284832 0.095618896 0.32307085 0.183478
-0.10357169 0.2863396 0.04475641 0.06666512 0.32295957 0.3362479 0.04938104 -0.07882723
0.07624286 -0.114171855 -0.18048295 0.22106841 -0.12252255 -0.12314508 0.25155547 -0.3949925
0.13723353 -0.12366585 0.24026267 0.18746209 0.002824478 0.1732372 0.08655355 -0.078783125
0.4761305 0.13935375 0.21533181 0.08431948 -0.15197468 -0.048223965 0.115125366 -0.073588215
-0.022603396 -0.12246165 -0.2576982 0.01618168 -0.033700347 -0.15025347 0.001922701 -0.1170525
-0.09509665 -0.0001457832 -0.019301575 0.45397216 0.38653976 -0.06199667 -0.28515604 -0.048494805
-0.26082638 0.12759379 0.2285351 0.10586491 -0.014832916 0.008630745 -0.17555928 0.13156544
0.16592512 -0.2489778 0.14031345 0.37930956 -0.07047377 -0.09430957 0.22552711 -0.28008494
0.32018447 0.10039895 -0.057110894 0.25285882 0.0420148 0.06115783 0.03677886 -0.03401366
-0.2175055 -0.10449195 -0.06825733 -0.006496237 -0.009959898 0.18862556 -0.2598701 0.26152343
-0.046743877 0.14747064 -0.0937352 -0.077970244 -0.039899796 -0.14424671 0.0071817706 0.09725042
-0.28054133 -0.03684363 0.03592455 -0.14713587 -0.07647229 -0.15720095 0.0449609 -0.12896095
-0.030837856 -0.030971346 -0.092515476 0.08727502 -0.10965661 0.09522109 0.21070024 -0.055841073
00000000: 7457 00bf e324 8dbd 1295 10be acc7 d93d
00000010: ef58 a2bb 76c8 dd3c de30 89be fe74 19be
00000020: f2f2 583d 38ab ea3d 7f1b a83c 34ec aebe
00000030: c7b0 88bd 1970 723b d54f 67bc fd8c 11be
00000040: 12e5 333e a575 65bd 2e08 46be e640 893d
00000050: b440 61bd 494d 42be ca12 253e cd71 733e
00000060: 486f 843d 698a dfbb 2382 63be 173c e6bd
00000070: f64d afbd 598e f0bc 8eae 363e 7166 70bd
00000080: 754c 11be 845d b63e ee7a a9be 2746 3abe
00000090: d780 2e3e da36 1a3d 5a43 9b3e e1cf d2bb
000000a0: f646 913e d317 b6be 4a23 8bbe cbaa 973d
000000b0: 4a1e 023e 1bdf d33d 8b6f 1cbe 44f4 9ebc
000000c0: c21d 8dbd 76a5 42bd d613 20be 2218 513d
000000d0: e006 aabc 5d01 8cbe 21a2 183e 6174 903d
000000e0: d535 e63e 3e47 da3c 47d3 53be 1934 14be
000000f0: 920f d23d 9450 8a3e c42d 07be 352d 003d
00000100: d8ea dabe 3b0a 013d a3d4 bdbd 80f2 eabd
00000110: 1c8b febc d3bb 8abd 9666 c43d f2f1 8d3e
00000120: d7b6 883c 0444 493d 94fb 59be 1c4d 93be
00000130: 9dd8 81be 5e86 793e 5298 2fbe 7b8f 1c3d
00000140: 1ee1 863d bac1 1c3e 35ba 0abb 28b9 c5bd
00000150: 5447 44be 1fc0 06be e25e 52be c71e aa3c
00000160: 5c80 5bbe 255f 55be 269f d23d 4002 613e
00000170: f52e 50bd 7215 6b3e 1d2b 96bc 3137 853e
00000180: c32c ebbc c8d7 80bb 59bd 50be b629 e63d
00000190: 176e 513e a7a9 873b 5114 243e 532c 513e
000001a0: 9598 e83d 0fb0 1cbe 52d1 803e 112e 653d
000001b0: d64a 363c 1a47 abbe 1509 fdbd 1ed5 d9bd
000001c0: 438f 7fbe 8ec1 d43d 74b4 a33c d09a c2be
000001d0: bcd3 80bb 9dfa 223d 829a c2bd 631d 7b3d
000001e0: c8b6 42be aacc 153e f008 09bb 8cbe 1bbe
000001f0: 93ef a6be 8e1d 3cbd 5a80 ef3d 469f 90be
00000200: ed74 e4bd 5674 deb9 2888 d93e 5d04 8cbe
00000210: 5747 babd d0ce 623e 5c1e a3bd 299c bcbd
00000220: 0ba6 cb3e aca3 403e ef23 ee3b f6b9 f13d
00000230: 0948 65be 7065 fdbb 24da 6e3c 7aa9 afbc
00000240: 7bf3 b2bd 5b33 363e a2f2 b0be 2522 a23c
00000250: 4327 bebd d7d3 c33d 8b69 a53e a8e1 3b3e
00000260: 651d d4bd 1b9b 923e 7f52 373d b987 883d
00000270: f55a a53e af28 ac3e c643 4a3d 2c70 a1bd
00000280: 3725 9c3d efd2 e9bd 86d0 38be c25f 623e
00000290: 1aed fabd 7d33 fcbd e1cb 803e 753c cabe
000002a0: f286 0c3e 8544 fdbd 6b07 763e 10f6 3f3e
000002b0: e11a 393b 1865 313e fd42 b13d 0c59 a1bd
000002c0: 60c7 f33e c0b2 0e3e f17f 5c3e b1af ac3d
000002d0: 409f 1bbe 7e86 45bd d9c6 eb3d 6bb5 96bd
000002e0: c22a b9bc 2ccd fabd 05f1 83be 718f 843c
000002f0: 6009 0abd 0cdc 19be 2403 fc3a 39b9 efbd
00000300: 08c2 c2bd 61dd 18b9 561e 9ebc 0a6f e83e
00000310: 8ae8 c53e 38f0 7dbd f9ff 91be 7da2 46bd
00000320: 098b 85be f2a7 023e 1b05 6a3e b4cf d83d
00000330: c205 73bc f867 0d3c d0c5 33be 17b9 063e
00000340: 46e8 293e 09f4 7ebe 54ae 0f3e dd34 c23e
00000350: 8d54 90bd 6025 c1bd 94f0 663e 4b67 8fbe
00000360: 38ef a33e f79d cd3d 1ded 69bd b676 813e
00000370: b617 2c3d a280 7a3d 6ea5 163d e851 0bbd
00000380: c3b9 5ebe e0ff d5bd 80ca 8bbd 63de d4bb
00000390: d72e 23bc 0f27 413e b20d 85be 66e6 853e
000003a0: 8276 3fbd 8b02 173e 3ef8 bfbd ddae 9fbd
000003b0: f86d 23bd 69b5 13be 0f55 eb3b 3a2b c73d
000003c0: 1da3 8fbe 59e9 16bd 9f25 133d c9aa 16be
000003d0: 819d 9cbd 49f9 20be ec28 383d 570e 04be
000003e0: ac9f fcbc 9fb7 fdbc c178 bdbd 3fbd b23d
000003f0: a593 e0bd 4603 c33d cec1 573e 9cb9 64bd

critic.1.bias f4 [64]
-0.056000188 -0.018879006 -0.108778514 0.10947268 0.10457147 -0.08190719 0.0905208 0.09591389
-0.11362075 0.048501637 -0.15626241 -0.07805233 0.060506254 -0.024784802 0.057822876 -0.10105208
-0.15873452 -0.17159873 0.05766994 0.08249254 -0.1461064 0.08444077 -0.041767884 -0.16503462
-0.15190673 0.07663792 0.077481136 -0.124621555 -0.07573951 0.12047408 -0.06340437 -0.075735204
0.054067295 0.18120399 -0.050828565 0.092678204 0.11354643 -0.060445126 0.08959809 -0.13054213
-0.1768034 0.045956366 0.119969405 0.1854235 -0.12711924 0.070737325 0.07715449 -0.026358413
-0.18092775 0.056602903 -0.080255166 0.0903927 0.014739447 0.09629248 -0.095841385 -0.14563613
-0.1319642 -0.060912825 0.047538903 0.11746982 -0.08743809 0.09106723 -0.14099558 0.12525438
00000000: 7460 65bd 25a8 9abc 45c7 debd 3633 e03d
00000010: 9129 d63d f5be a7bd f862 b93d 806e c43d
00000020: ffb1 e8bd a7a9 463d 4103 20be e6d9 9fbd
00000030: 68d5 773d 7f09 cbbc aed7 6c3d 65f4 cebd
00000040: 4d8b 22be 94b7 2fbe 5137 6c3d d9f1 a83d
00000050: eb9c 15be 48ef ac3d cd14 2bbd d6fe 28be
00000060: 708d 1bbe 58f4 9c3d 6eae 9e3d 9639 ffbd
00000070: 511d 9bbd 1dbb f63d 26da 81bd 0f1b 9bbd
00000080: ab75 5d3d 8a8d 393e 9d31 50bd 12ce bd3d
00000090: 088b e83d 4f95 77bd 347f b73d d6ac 05be
000000a0: f30b 35be be3c 3c3d 85b2 f53d a8df 3d3e
000000b0: 8c2b 02be bbde 903d 2c03 9e3d 99ed d7bc
000000c0: 2045 39be 72d8 673d d25c a4bd cf1f b93d
000000d0: b97d 713c fe34 c53d 7d48 c4bd a321 15be
000000e0: a021 07be ba7f 79bd 27b8 423d 0494 f03d
000000f0: be12 b3bd 7581 ba3d 2561 10be af42 003e

critic.3.weight f4 [64, 64]
-0.057321567 -0.09650845 -0.107214324 0.39692476 0.098872446 -0.21225496 -0.074668355 0.3980134
0.15135626 0.042139728 0.07983466 -0.10932013 -0.081649385 0.04106611 0.019562764 0.25997052
-0.06659043 -0.0968384 -0.19394723 0.07595115 -0.07724019 0.071819186 0.057036143 -0.098862536
0.061950304 0.13581997 -0.088895805 0.20788021 0.07574457 0.17986117 0.10322375 -0.13401207
-0.09668983 -0.20997523 -0.0041574817 0.32948825 -0.27803993 0.0314836 0.074651234 -0.040964384
0.097818665 0.13027827 0.013328448 -0.19161892 -0.36612207 0.183521 0.11712251 -0.07763062
-0.37873325 -0.002732341 0.45337912 0.21908586 0.051276278 0.036986776 0.028572224 0.05429125
0.08457629 0.21351467 -0.13627616 0.055206034 -0.01195089 -0.17331733 -0.12909336 -0.088145584
0.18697998 -0.14297959 0.015149184 0.050311618 0.09059095 -0.15618552 -0.018896762 0.0081469845
0.2048616 -0.2960945 0.0945777 0.028444098 0.009463367 0.19857672 -0.097789675 0.13629176
-0.23348671 -0.17120759 -0.08487881 -0.36859658 0.077932924 -0.0036618907 -0.00065009744 0.09442144
-0.062826574 -0.09549751 -0.108448 0.087331414 -0.46416628 -0.042851273 0.21529473 0.09594966
-0.18233602 -0.10504938 -0.123018555 0.21459448 -0.084226616 0.121219866 -0.10202252 0.057044223
0.21505399 -0.22273591 -0.37463978 -0.39092258 0.22884211 -0.15821852 -0.04467328 0.052819014
-0.053104572 -0.18161866 -0.22824886 -0.13000989 -0.12035575 -0.4078211 0.15677786 0.17984006
-0.0011335935 -0.22381797 0.08714912 -0.20789362 -0.25031412 0.09487762 0.054273065 0.13829662
0.0854582 -0.04340413 0.09123346 -0.15361713 0.05567145 -0.016262198 -0.04686053 -0.14760756
0.03646431 0.19529071 0.07167792 0.021205071 0.06901725 0.1949656 0.32839265 -0.057250347
0.040645994 0.10221443 0.12336692 0.09268347 -0.020074738 -0.010583422 0.15735489 -0.13241762
0.29978773 -0.48101938 0.024566412 0.21640956 -0.23642367 0.0021375415 0.00022644957 0.15349215
0.012590456 -0.4490885 -0.09075233 0.24331038 0.10728863 0.051394828 -0.189966 -0.0991126
-0.2453642 0.34660444 -0.024464535 -0.053737223 0.09664684 0.21778437 0.07886422 0.018537873
-0.042779054 -0.015341633 -0.06695405 -0.01401157 0.40107182 0.070930935 -0.0699633 -0.17904617
-0.26202866 0.04266544 0.2858927 0.15167484 -0.24238074 -0.20048712 -0.26993668 -0.15809451
0.10538751 0.16552547 0.47442994 -0.086838804 -0.21891807 0.034003455 0.10755397 -0.12785475
-0.07703328 -0.021450004 -0.10413364 -0.006918149 -0.17522271 -0.21525782 -0.2773807 -0.2098078
0.025409626 -0.041474003 -0.041695792 0.263347 0.23224227 -0.011168407 0.21038537 -0.08351147
-0.060298458 -0.09963298 -0.33634663 -0.064469874 -0.255121 0.0025411441 0.095371276 -0.13553065
0.08467321 -0.023748534 0.069730476 -0.014905692 -0.08480371 -0.14761256 0.043553438 0.12781619
-0.16106948 -0.048369378 -0.13108245 -0.24719948 0.1647905 0.12588112 0.19426318 -0.004566763
-0.1470967 0.29538086 -0.11432145 0.08770896 -0.1030536 -0.061415546 -0.37905446 0.25902885
0.39161745 0.021237459 0.18737042 0.16313428 0.17129013 -0.24027872 -0.058795795 0.31570676
00000000: 05ca 6abd 39a6 c5bd 2f93 dbbd b939 cb3e
00000010: a37d ca3d 5d59 59be b9eb 98bd 6ac8 cb3e
00000020: 23fd 1a3e b59a 2c3d 5b80 a33d 3be3 dfbd
00000030: cb37 a7bd f034 283d 1742 a03c db1a 853e
00000040: 9060 88bd 3653 c6bd 1a9a 46be 478c 9b3d
00000050: 1b30 9ebd f015 933d bb9e 693d 7178 cabd
00000060: 9abf 7d3d 6414 0b3e 010f b6bd 8dde 543e
00000070: f81f 9b3d 872d 383e f966 d33d 763a 09be
00000080: 5105 c6bd bf03 57be 7c3b 88bb afb2 a83e
00000090: 405b 8ebe f3f4 003d bfe2 983d 45ca 27bd
000000a0: 2755 c83d ab67 053e 905f 5a3c c037 44be
000000b0: 5a74 bbbe eeec 3b3e eddd ef3d cdfc 9ebd
000000c0: 53e9 c1be 1311 33bb 4f21 e83e 0b58 603e
000000d0: 1307 523d 727f 173d 4c10 ea3c 8060 5e3d
000000e0: 5536 ad3d 97a3 5a3e fa8b 0bbe b91f 623d
000000f0: aacd 43bc 197a 31be 0d31 04be ac85 b4bd
00000100: ae77 3f3e 3e69 12be 4834 783c 8e13 4e3d
00000110: bf87 b93d 19ef 1fbe 62cd 9abc ee7a 053c
00000120: 3dc7 513e b399 97be f4b1 c13d 9903 e93c
00000130: 3d0c 1b3c b257 4b3e f445 c8bd 1190 0b3e
00000140: 2417 6fbe 0b51 2fbe f1d4 adbd b1b8 bcbe
00000150: 4c9b 9f3d 55fc 6fbb 4d6b 2aba 0760 c13d
00000160: 38ab 80bd 3394 c3bd fc19 debd d0da b23d
00000170: 34a7 edbe d184 2fbd 3976 5c3e 4181 c43d
00000180: 4bb6 3abe 2124 d7bd 27f1 fbbd a8be 5b3e
00000190: 017f acbd 1f42 f83d 2ff1 d0bd 34a7 693d
000001a0: 1d37 5c3e e214 64be c9d0 bfbe 0127 c8be
000001b0: 9655 6a3e 0904 22be 54fb 36bd c058 583d
000001c0: 2e84 59bd 3efa 39be 12ba 69be 5021 05be
000001d0: 137d f6bd edcd d0be 608a 203e fe27 383e
000001e0: 1695 94ba 8a30 65be 3d7b b23d 11e2 54be
000001f0: 2c29 80be 334f c23d 6f4d 5e3d a19d 0d3e
00000200: b504 af3d 87c8 31bd 9cd8 ba3d cf4d 1dbe
00000210: bf07 643d 4d38 85bc d4f0 3fbd 7026 17be
00000220: 9a5b 153d 4afa 473e e0cb 923d 42b6 ad3c
00000230: ea58 8d3d 10a5 473e 1523 a83e 577f 6abd
00000240: 6a7c 263d cd55 d13d cca7 fc3d d5d0 bd3d
00000250: c773 a4bc 1766 2dbc a421 213e 7c98 07be
00000260: c77d 993e 2c48 f6be 803f c93c 789a 5d3e
00000270: 0c19 72be ff15 0c3b 1873 6d39 0c2d 1d3e
00000280: 3348 4e3c eeee e5be 5cdc b9bd 5b26 793e
00000290: 24ba db3d 6283 523d 7286 42be 8cfb cabd
000002a0: c140 7bbe 2376 b13e d969 c8bc 901b 5cbd
000002b0: c7ee c53d de02 5f3e 9083 a13d bddc 973c
000002c0: 1739 2fbd 795b 7bbc 341f 89bd c990 65bc
000002d0: 4959 cd3e 3d44 913d eb48 8fbd e157 37be
000002e0: 9f28 86be f5c1 2e3d 8760 923e a650 1b3e
000002f0: a832 78be 7f4c 4dbe 2435 8abe 87e3 21be
00000300: 68d5 d73d 827f 293e 7be8 f23e 8bd8 b1bd
00000310: 0f2c 60be 3547 0b3d 4145 dc3d 5bec 02be
00000320: a0c3 9dbd ebb7 afbc 0544 d5bd a4b1 e2bb
00000330: 956d 33be 8c6c 5cbe d804 8ebe dbd7 56be
00000340: d927 d03c a5e0 29bd 35c9 2abd 6bd5 863e
00000350: ebd0 6d3e b2fb 36bc 436f 573e 1008 abbd
00000360: 84fb 76bd 600c ccbd a035 acbe c808 84bd
00000370: 389f 82be 5389 263b 0452 c33d 8cc8 0abe
00000380: 2669 ad3d 498c c2bc dace 8e3d 0137 74bc
00000390: 91ad adbd bf27 17be 1765 323d 3fe2 023e
000003a0: 66ef 24be f81e 46bd 7a3a 06be dc21 7dbe
000003b0: d7be 283e fbe6 003e edec 463e c9a4 95bb
000003c0: 84a0 16be 293c 973e 5d21 eabd c1a0 b33d
000003d0: c40d d3bd de8e 7bbd 6d13 c2be 6e9f 843e
000003e0: 1582 c83e 2efa ad3c 08de 3f3e ac0c 273e
000003f0: ae66 2f3e a00b 76be dcd3 70bd 51a4 a13e

critic.3.bias f4 [64]
0.10474832 -0.1322306 0.12399207 0.06871994 0.13441823 -0.1424606 0.07002702 0.1415287
-0.10990541 0.0017764904 0.106055796 -0.10447536 -0.16156319 -0.07183883 0.09484969 0.1031804
-0.16881052 0.08797957 -0.1209781 0.13789126 -0.080652714 -0.090248615 0.074628726 0.0730433
0.1179704 -0.12527949 0.080624215 0.06252117 -0.13159448 0.051860187 0.10050228 0.16185306
-0.072093375 -0.084850974 0.10167573 0.09806502 -0.15174758 -0.07479039 -0.1167788 -0.119430706
-0.11106386 0.08917587 0.08057904 -0.1237872 -0.10298615 -0.116056465 -0.085195154 0.15073788
-0.029098935 -0.12807582 0.10484385 -0.10397837 -0.077995576 -0.09767105 0.031047545 -0.13348624
0.06422815 -0.11674686 -0.08774324 -0.07828317 0.09292697 0.046056177 -0.060358897 0.132991
00000000: 4a86 d63d 7567 07be 8eef fd3d 0abd 8c3d
00000010: efa4 093e 31e1 11be 546a 8f3d e6ec 103e
00000020: 1616 e1bd 20d9 e83a c833 d93d 2df7 d5bd
00000030: d270 25be 3d20 93bd 8e40 c23d 3f50 d33d
00000040: aadc 2cbe a22e b43d 5ec3 f7bd 5e33 0d3e
00000050: 402d a5bd 44d4 b8bd f2d6 983d ba97 953d
00000060: 779a f13d 4449 00be 4f1e a53d 190b 803d
00000070: b4c0 06be 596b 543d 24d4 cd3d cfbc 253e
00000080: b1a5 93bd 59c6 adbd 5d3b d03d 50d6 c83d
00000090: b863 1bbe b42b 99bd b929 efbd 1698 f4bd
000000a0: 7375 e3bd d7a1 b63d a006 a53d 2584 fdbd
000000b0: 67ea d2bd 03af edbd cc7a aebd 085b 1a3e
000000c0: e460 eebc 4f26 03be 5fb8 d63d 9df2 d4bd
000000d0: 25bc 9fbd c207 c8bd 6c57 fe3c 9eb0 08be
000000e0: 0c8a 833d fa18 efbd bab2 b3bd ed52 a0bd
000000f0: 7f50 be3d 67a5 3c3d e43a 77bd cb2e 083e

critic.5.weight f4 [1, 64]
-0.06468532 0.32100743 -0.10810739 -0.073869415 -0.09655161 0.12682746 -0.13929664 -0.24464983
0.0250768 0.22054769 -0.11276075 -0.004338619 0.025401037 0.13829128 -0.031267013 -0.08326852
0.054340225 -0.09910578 0.0037324403 -0.17221421 0.08070559 0.25846475 -0.20833817 -0.091218024
-0.20549801 0.2352625 -0.15640557 -0.05979146 0.35279062 -0.059587527 -0.20991735 -0.039023228
0.068541214 0.12371827 -0.11361383 -0.09500561 0.05154696 0.05401742 0.12144514 0.08676784
0.13458675 -0.30552837 -0.109222606 0.07384549 0.12432135 0.10097035 0.11152053 -0.079573184
-0.08450545 0.21528915 -0.06477027 0.045672223 0.10928899 0.16394068 -0.113699354 0.08149753
-0.10379719 0.114649445 0.12212673 0.1045724 -0.04813309 -0.36485907 0.1677437 -0.04143664
00000000: bd79 84bd 165b a43e 6867 ddbd d948 97bd
00000010: dabc c5bd 0fdf 013e c7a3 0ebe 7c85 7abe
00000020: dc6d cd3c 41d7 613e 1cef e6bd f92a 8ebb
00000030: d615 d03c 3b9c 0d3e d711 00bd b088 aabd
00000040: db93 5e3d f9f7 cabd f59b 743b ec58 30be
00000050: f948 a53d 7e55 843e 9a56 55be 84d0 babd
00000060: 126e 52be a7e8 703e c828 20be e4e7 74bd
00000070: f9a0 b43e 0d12 74bd 93f4 56be d2d6 1fbd
00000080: 565f 8c3d 0160 fd3d 5eae e8bd 4d92 c2bd
00000090: e822 533d 5f41 5d3d 3bb8 f83d 56b3 b13d
000000a0: 1cd1 093e 376e 9cbe 1ab0 dfbd 4e3c 973d
000000b0: 319c fe3d 8bc9 ce3d e064 e43d 44f7 a2bd
000000c0: 3211 adbd c274 5c3e 46a6 84bd cc12 3b3d
000000d0: e8d2 df3d 11e0 273e 35db e8bd 2de8 a63d
000000e0: 9f93 d4bd 54cd ea3d 941d fa3d 0e2a d63d
000000f0: 3427 45bd cfce babe 01c5 2b3e 77b9 29bd

actor_mean.0.weight f4 [64, 30]
-0.21637534 -0.12152493 -0.12539019 0.4607282 0.026136199 -0.08687349 0.0043592923 0.07830274
0.09210613 -0.016271392 -0.09764958 -0.13773273 0.31514555 0.37802464 -0.06341126 -0.047068212
0.25240165 0.22235173 0.046931457 -0.01605562 -0.2110831 -0.016634835 0.200564 -0.09018771
0.03753613 -0.16183105 0.32815984 -0.15236881 -0.014452191 0.120505035 0.01625918 0.011063578
-0.18700601 0.23932204 0.07041138 0.26211852 0.34774318 -0.21366148 -0.05516093 0.1896991
-0.27078328 -0.2107163 -0.22249387 0.10013305 -0.021204283 -0.14216647 -0.14655831 -0.025025045
-0.07922379 0.037535895 0.41383445 -0.09005866 -0.261786 -0.19418539 0.058109835 -0.21854067
-0.10487953 0.3439016 0.062240075 0.09141309 0.112254605 0.113903955 0.1315672 0.036116365
0.06550642 -0.15757988 0.046231586 -0.19142705 0.055156246 -0.124512814 -0.061482716 0.13271065
-0.1676184 -0.32442418 0.27401575 -0.12584986 -0.10074538 -0.045066267 0.12583609 0.19941993
0.03046491 -0.07567057 -0.06485222 0.35554996 0.023335896 -0.1878739 0.16262412 0.25784513
0.22279848 0.056459047 0.16991189 0.30824798 -0.0416163 -0.11988694 -0.16576134 -0.07435071
-0.00673357 0.30805996 0.098778635 0.16001119 0.11658797 0.02907689 -0.17792797 0.06849517
-0.046965837 -0.2281574 0.11649676 0.2639689 -0.18932797 0.15827549 -0.029272137 0.008770552
0.009987693 0.34118384 0.2921316 0.1521683 -0.06301383 -0.032426827 0.27256164 -0.081951275
0.24083874 -0.27706012 -0.012360433 0.3202886 0.3332364 0.12662128 -0.3506646 0.012283921
-0.07418093 0.020208333 0.24505332 -0.10176264 -0.28334305 0.059598643 0.0016918953 0.121899575
0.04607643 -0.093259595 0.096719235 -0.0049884277 -0.17082341 0.38465658 0.0016203184 0.16750664
0.13201346 0.003549261 0.31950578 0.15010509 -0.009933749 0.021919256 -0.44473603 -0.33875248
0.21566309 0.065086044 -0.01497538 -0.14860187 -0.1935495 -0.042351246 0.02163644 -0.061976943
-0.06552822 0.0865836 -0.30535802 -0.069123514 0.008524131 0.28886423 -0.38256058 0.23978736
0.0033180108 0.19668636 0.08579898 0.0548198 -0.014144772 -0.44475994 0.09024684 -0.09593692
0.34865275 0.035129458 0.104981385 0.28977594 0.0030318578 -0.09688727 0.02140127 0.23925431
0.03287338 0.09461552 0.08998624 -0.17691374 -0.09177391 -0.11974335 0.19422966 -0.25207412
-0.17671627 0.0489408 -0.1206241 -0.08039388 -0.013643783 -0.20924023 -0.096883364 0.022559546
-0.064470366 -0.27219325 0.12158599 -0.061820637 -0.3255681 0.051320955 -0.21510616 0.39612946
0.083725 0.09470507 -0.20798923 -0.19384398 -0.15623379 -0.38145834 0.1497983 -0.015176577
0.35660315 0.1555069 0.06830807 0.055816017 0.029392978 -0.0151685225 -0.24545616 0.09743113
0.20558211 -0.0101178195 -0.13562402 0.089655116 -0.00095301494 0.3643083 0.0050674696 0.14033079
0.39455694 -0.022774858 0.092240535 -0.022306418 -0.20599407 -0.43160686 0.028493432 0.042847645
-0.044151574 0.21493617 -0.021437794 -0.32418168 0.23903984 0.18508174 0.11724907 0.15500236
-0.040882938 -0.15902591 0.5029761 0.13358359 0.14608462 -0.061990306 0.19834596 -0.0128415385
00000000: 7f91 5dbe 10e2 f8bd 4966 00be 91e4 eb3e
00000010: 951b d63c baea b1bd 65d8 8e3b 305d a03d
00000020: 24a2 bc3d 954b 85bc 81fc c7bd cf09 0dbe
00000030: c25a a13e 728c c13e c3dd 81bd 99ca 40bd
00000040: ca3a 813e 2cb0 633e 333b 403d 1387 83bc
00000050: 2b26 58be c745 88bc a660 4d3e 56b4 b8bd
00000060: 7cbf 193d 0ab7 25be 9104 a83e 9206 1cbe
00000070: e2c8 6cbc 58cb f63d f931 853c 0244 353c
00000080: 817e 3fbe d610 753e d733 903d 6634 863e
00000090: 650b b23e 13ca 5abe 6df0 61bd 7b40 423e
000000a0: 1ba4 8abe 04c6 57be 6fd5 63be 8e12 cd3d
000000b0: 9bb4 adbc 1694 11be 6213 16be 5301 cdbc
000000c0: 1540 a2bd 3dbf 193d 1ce2 d33e ad70 b8bd
000000d0: d108 86be 89d8 46be 9404 6e3d 20c9 5fbe
000000e0: 14cb d6bd df13 b03e 73ef 7e3d c936 bb3d
000000f0: bee5 e53d 7a46 e93d 8db9 063e c1ee 133d
00000100: 3b28 863d 9f5c 21be 555d 3d3d 7405 44be
00000110: 84eb 613d 9300 ffbd 4dd5 7bbd 4de5 073e
00000120: 28a4 2bbe ed1a a6be cb4b 8c3e c9de 00be
00000130: 9853 cebd 6897 38bd 2ddb 003e bd34 4c3e
00000140: 8c91 f93c 2cf9 9abd 3ed1 84bd a50a b63e
00000150: ec2a bf3c 0462 40be f086 263e 4704 843e
00000160: 4925 643e 9a41 673d 62fd 2d3e aed2 9d3e
00000170: da75 2abd 4987 f5bd 57bd 29be 2f45 98bd
00000180: 47a5 dcbb 09ba 9d3e 744c ca3d f9d9 233e
00000190: acc5 ee3d a832 ee3c c032 36be 3247 8c3d
000001a0: 405f 40bd 18a2 69be da95 ee3d ef26 873e
000001b0: 31df 41be f812 223e 1fcc efbc 5db2 0f3c
000001c0: 6ca3 233c a6af ae3e 4692 953e 02d2 1b3e
000001d0: 650d 81bd fed1 04bd 338d 8b3e 12d6 a7bd
000001e0: 6e9e 763e d3da 8dbe 6a83 4abc defc a33e
000001f0: f69d aa3e 02a9 013e 4f8a b3be 8042 493c
00000200: 2cec 97bd f28b a53c 42ef 7a3e ee68 d0bd
00000210: 5712 91be b51d 743d 96c2 dd3a 7ca6 f93d
00000220: a3ba 3c3d e3fe bebd bc14 c63d f775 a3bb
00000230: 55ec 2ebe b5f1 c43e dd60 d43a dc86 2b3e
00000240: 892e 073e b89a 683b 4396 a33e 26b5 193e
00000250: 2ac1 22bc 0390 b33c 71b4 e3be f770 adbe
00000260: c9d6 5c3e d54b 853d 4c5b 75bc 172b 18be
00000270: d731 46be 8078 2dbd e73e b13c 89db 7dbd
00000280: a933 86bd be52 b13d e357 9cbe a190 8dbd
00000290: cca8 0b3c 03e6 933e fbde c3be d18a 753e
000002a0: fc72 593b 2668 493e 60b7 af3d ba8a 603d
000002b0: 79bf 67bc 93b7 e3be 56d3 b83d 937a c4bd
000002c0: 9d82 b23e e8e3 0f3d 7b00 d73d 835d 943e
000002d0: 22b2 463b d56c c6bd b751 af3c 15ff 743e
000002e0: 3da6 063d c8c5 c13d b54a b83d e028 35be
000002f0: f6f3 bbbd 003c f5bd 24e4 463e dc0f 81be
00000300: 1cf5 34be 2676 483d c509 f7bd 8ca5 a4bd
00000310: 2c8a 5fbc 1243 56be c96a c6bd ccce b83c
00000320: 0a09 84bd ea5c 8bbe 1302 f93d a337 7dbd
00000330: ddb0 a6be ec35 523d ca44 5cbe 7bd1 ca3e
00000340: 0378 ab3d bbf4 c13d 21fb 54be 097f 46be
00000350: c0fb 1fbe 824e c3be ba64 193e 2da7 78bc
00000360: b094 b63e 333d 1f3e 1ae5 8b3d 569f 643d
00000370: 8bc9 f03c 6585 78bc dc58 7bbe f989 c73d
00000380: 1e84 523e 36c5 25bc 06e1 0abe 1a9d b73d
00000390: c0d3 79ba 9e86 ba3e 040d a63b e0b2 0f3e
000003a0: 5e03 ca3e 5792 babc 9be8 bc3d f3bb b6bc
000003b0: 1cf0 52be 93fb dcbe 0f6b e93c 0381 2f3d
000003c0: 48d8 34bd 3a18 5c3e 509e afbc 24fb a5be
000003d0: dcc6 743e 1186 3d3e 4820 f03d f0b8 1e3e
000003e0: de74 27bd b0d7 22be 0bc3 003f 23ca 083e
000003f0: 3597 153e 8ce9 7dbd 341b 4b3e 5165 52bc

actor_mean.0.bias f4 [64]
-0.1324012 -0.060677473 0.12631866 0.18502828 -0.035475515 -0.11969465 0.115304336 -0.034484286
-0.11134376 -0.0050023175 0.018244917 0.09417328 0.15989995 0.018934688 0.023909869 -0.007857399
-0.014993939 -0.015103594 -0.106067896 0.1709108 -0.07581045 0.08228359 0.17901993 0.03468757
-0.076970875 -0.2122026 -0.03048799 0.16858701 -0.14099538 0.051443074 0.04364614 -0.114453994
0.039528027 -0.032983124 -0.03005653 0.048797466 -0.021918682 0.20385762 0.09591047 -0.12054531
0.09710793 0.09879829 0.115381844 -0.05064493 0.10985408 0.20704065 -0.0101297 -0.075430825
0.1260273 -0.1314646 -0.14604247 -0.137087 0.1352728 -0.15241626 -0.13277762 -0.14551003
0.0857964 0.13700989 -0.10602351 -0.10192642 0.02989565 -0.11669392 -0.18204753 -0.09210545
00000000: 2e94 07be f188 78bd ae59 013e 0e78 3d3e
00000010: c64e 11bd 7822 f5bd ae24 ec3d 653f 0dbd
00000020: 3208 e4bd 7bea a3bb 5d76 953c ecdd c03d
00000030: d0bc 233e eb1c 9b3c a1de c33c 52bc 00bc
00000040: 23a9 75bc 1175 77bc 203a d9bd 3e03 2f3e
00000050: 8242 9bbd 4d84 a83d 0051 373e 8e14 0e3d
00000060: e8a2 9dbd a34b 59be f3c1 f9bc 13a2 2c3e
00000070: 1861 10be f9b5 523d 4bc6 323d db66 eabd
00000080: 24e8 213d 5019 07bd 1d39 f6bc dadf 473d
00000090: cf8e b3bc 0dc0 503e b56c c43d 76e0 f6bd
000000a0: 86e0 c63d c256 ca3d 514d ec3d 0f71 4fbd
000000b0: 2dfb e03d 7702 543e 0bf7 25bc 7a7b 9abd
000000c0: 4d0d 013e a89e 06be 288c 15be 8960 0cbe
000000d0: f484 0a3e 0213 1cbe dbf6 07be 9500 15be
000000e0: 06b6 af3d 524c 0c3e db22 d9bd cdbe d0bd
000000f0: b9e7 f43c 39fd eebd ab6a 3abe c8a1 bcbd

actor_mean.2.weight f4 [64, 64]
0.08793028 0.074577704 0.075027704 0.11042296 0.27584228 0.07082295 -0.13029447 -0.26035997
0.0863529 0.20040694 -0.04126897 0.09867174 0.01134198 0.23748977 0.09185849 0.09418567
0.012321148 0.16583532 -0.21834287 0.020462288 0.001192137 -0.05342837 -0.06800219 -0.08012917
0.019948404 0.004595891 -0.017756714 0.18719679 0.04347308 0.3385353 0.19341783 -0.15824214
-0.0067780972 0.15089501 -0.011716791 -0.04797236 0.18130505 -0.11216883 -0.6251724 0.21191086
-0.13165776 0.23705518 -0.33026868 0.14956266 -0.12264577 -0.31582955 -0.034158215 -0.016821265
-0.1898601 -0.004656748 -0.31884724 0.004515533 -0.20113154 -0.33395842 -0.20313902 -0.07191831
-0.12552994 -0.1060776 -0.20828271 -0.17906123 -0.054281518 0.27702624 -0.12122978 0.21312596
0.086305894 0.14771673 -0.21772094 -0.04705859 -0.27243537 0.2589619 0.020810159 0.10467116
-0.10442695 -0.03515659 -0.43074945 0.057234734 0.3407947 -0.0003698834 0.15143746 -0.08989906
-0.05911506 0.18600729 0.2496731 -0.123446666 0.023094641 0.09773724 -0.060248014 -0.26335087
-0.020355267 0.17044367 0.0074567962 -0.033422627 -0.024606671 -0.36405414 0.35591227 -0.34703106
0.19182773 -0.04136621 0.083277725 -0.018633395 0.029806172 0.17768216 -0.35702518 0.27530918
-0.09429177 -0.022288006 -0.049898557 0.075809516 -0.14407806 0.3058132 -0.023316467 0.19810419
-0.10505129 0.30975544 0.08777003 0.111315586 0.2580671 0.13566636 -0.4068313 0.14708292
0.049693517 -0.15186083 0.19932008 -0.05822046 -0.1358863 -0.10516507 -0.16091965 0.15365075
-0.186537 -0.4450009 -0.2025277 -0.048131354 0.12254648 -0.07102652 -0.017041344 -0.033518944
-0.23922116 -0.04069038 -0.17349817 -0.41173488 -0.14096221 -0.08757038 -0.0621989 -0.20124325
0.47104764 -0.0743436 0.005616579 -0.11564034 -0.07094483 0.39906418 0.09443283 0.117132016
-0.2981828 -0.089395665 -0.12742618 -0.082021646 0.12961173 0.1298316 -0.062053032 -0.1520223
0.15126643 -0.35589197 0.11707697 0.025459787 0.3614991 -0.097838454 -0.13451973 0.19661044
0.1746194 0.13418014 -0.13777034 -0.17936331 0.009860323 0.13649611 -0.11151873 0.11825422
0.18684106 0.031903185 -0.00055868 -0.20425329 0.18783925 0.03045227 0.10069406 -0.19406687
-0.07603126 -0.03272553 -0.08719332 -0.06577081 0.074353844 0.3019465 -0.013244411 0.29431647
0.18113549 -0.02058574 -0.27465108 0.12130187 -0.0720051 0.0077885473 0.029119188 -0.0388769
0.046264596 -0.24581872 -0.095330596 -0.21059835 0.0052186074 -0.24553807 0.04431141 0.035524815
-0.019946331 -0.17641333 -0.060062245 -0.16954479 0.08124671 0.26132488 -0.30175236 0.0060062557
-0.00026369063 0.12601024 0.20575175 -0.029967502 0.10800368 0.17981376 -0.08039637 -0.393012
0.2999076 0.2492138 0.005180405 0.013467975 -0.42220935 -0.19189766 -0.16984531 -0.3949186
0.22884144 0.36455837 0.0795915 -0.0329115 0.062253717 -0.20485473 0.33522382 0.08133393
-0.15532061 -0.20892894 0.2326606 -0.25760138 -0.0705625 0.23816435 -0.08635585 -0.061276168
-0.27507648 0.2802968 -0.20355877 0.16417731 0.037240528 -0.042270422 -0.06819067 -0.09521557
00000000: ca14 b43d 32bc 983d 20a8 993d 6f25 e23d
00000010: 333b 8d3e 9f0b 913d ea6b 05be e74d 85be
00000020: cad9 b03d 7a37 4d3e a709 29bd 6914 ca3d
00000030: b6d3 393c 8530 733e 4e20 bc3d 6be4 c03d
00000040: a4de 493c bcd0 293e 4695 5fbe 87a0 a73c
00000050: 7b41 9c3a b5d7 5abd bb44 8bbd c31a a4bd
00000060: d66a a33c 2199 963b 8776 91bc 84b0 3f3e
00000070: d410 323d 8054 ad3e 530f 463e 3a0a 22be
00000080: cd1a debb 3984 1a3e c9f7 3fbc aa7e 44bd
00000090: 08a8 393e c6b8 e5bd 4c0b 20bf 29ff 583e
000000a0: 4bd1 06be 98be 723e fa18 a9be f426 193e
000000b0: b52d fbbd 69b4 a1be 7ce9 0bbd c0cc 89bc
000000c0: b06a 42be a297 98bb f23f a3be 09f7 933b
000000d0: 6df5 4dbe 99fc aabe ad03 50be e849 93bd
000000e0: ec8a 00be 363f d9bd 1048 55be d45b 37be
000000f0: 4c56 5ebd 62d6 8d3e 5247 f8bd b13d 5a3e
00000100: 25c1 b03d 0e43 173e 3df2 5ebe 82c0 40bd
00000110: a67c 8bbe a796 843e 117a aa3c d55d d63d
00000120: ccdd d5bd 5b00 10bd 318b dcbe f86e 6a3d
00000130: a57c ae3e e9ec c1b9 6c12 1b3e 001d b8bd
00000140: a222 72bd b278 3e3e 4eaa 7f3e 9bd1 fcbd
00000150: f930 bd3c 762a c83d 9fc6 76bd edd5 86be
00000160: 17c0 a6bc c988 2e3e 2458 f43b 2ae6 08bd
00000170: ee93 c9bc 4e65 babe 223a b63e 0eae b1be
00000180: 7d6e 443e 9d6f 29bd 838d aa3d 10a5 98bc
00000190: 132c f43c 50f2 353e 01cc b6be 53f5 8c3e
000001a0: 0b1c c1bd 5695 b6bc 6e62 4cbd 0542 9b3d
000001b0: 3389 13be 8c93 9c3e 2d02 bfbc d3db 4a3e
000001c0: 2125 d7bd 4498 9e3e c6c0 b33d 6df9 e33d
000001d0: 5f21 843e 1fec 0a3e 314c d0be e89c 163e
000001e0: 6e8b 4b3d 6881 1bbe 901a 4c3e 9478 6ebd
000001f0: c725 0bbe c960 d7bd 1fc8 24be 9f56 1d3e
00000200: 8e03 3fbe 28d7 e3be 6c63 4fbe 6225 45bd
00000210: a6f9 fa3d 5a76 91bd 4a9a 8bbc 294b 09bd
00000220: 64f6 74be f5aa 26bd 81a9 31be eace d2be
00000230: 6658 10be 1958 b3bd 46c4 7ebd b612 4ebe
00000240: 282d f13e 7541 98bd 480b b83b d8d4 ecbd
00000250: 864b 91bd 2452 cc3e 0066 c13d e9e2 ef3d
00000260: 6aab 98be 1315 b7bd 027c 02be f7fa a7bd
00000270: f0b8 043e 93f2 043e 522b 7ebd bcab 1bbe
00000280: 96e5 1a3e 7937 b6be 0dc6 ef3d 0b91 d03c
00000290: 6916 b93e 875f c8bd 8abf 09be 3f54 493e
000002a0: 6ecf 323e 8566 093e ab13 0dbe 04ab 37be
000002b0: 318d 213c a3c5 0b3e ef63 e4bd 452f f23d
000002c0: 4353 3f3e eaac 023d 6174 12ba c627 51be
000002d0: ef58 403e 0a77 f93c b038 ce3d 77b9 46be
000002e0: 47b6 9bbd 350b 06bd 6992 b2bd d9b2 86bd
000002f0: d446 983d bb98 9a3e 16ff 58bc a6b0 963e
00000300: 957b 393e 6da3 a8bc 119f 8cbe 1d6d f83d
00000310: 6977 93bd 1237 ff3b 5d8b ee3c 623d 1fbd
00000320: f27f 3d3d e7b7 7bbe b03c c3bd 18a7 57be
00000330: da00 ab3b 556e 7bbe e27f 353d 7882 113d
00000340: 7d66 a3bc b2a5 34be d403 76bd 269d 2dbe
00000350: ad64 a63d 60cc 853e 497f 9abe 20d0 c43b
00000360: f53f 8ab9 d408 013e 96b0 523e 687e f5bc
00000370: 0931 dd3d 1921 383e daa6 a4bd de38 c9be
00000380: 7d8d 993e e731 7f3e 63c0 a93b c8a8 5c3c
00000390: d32b d8be d280 44be eeeb 2dbe c532 cabe
000003a0: 6955 6a3e 65a7 ba3e de00 a33d 36ce 06bd
000003b0: c1fd 7e3d 70c5 51be 75a2 ab3e 6792 a63d
000003c0: 5e0c 1fbe 78f1 55be 953e 6e3e 54e4 83be
000003d0: 1283 90bd 5be1 733e 56db b0bd b8fc 7abd
000003e0: d3d6 8cbe 1083 8f3e b671 50be 191e 283e
000003f0: 8689 183d c023 2dbd 8da7 8bbd 6100 c3bd

actor_mean.2.bias f4 [64]
-0.0928021 -0.113699965 0.0756966 -0.09827331 -0.14950234 -0.08073178 0.10185344 -0.10930696
0.13543439 0.08097118 -0.086415775 0.06043202 -0.006923651 0.016520213 0.1588423 -0.091423556
-0.111936785 0.15166748 0.07172081 -0.086394206 0.1023837 0.031781707 0.14016713 -0.12909676
0.13201138 -0.09536166 -0.0709223 0.10183922 -0.07231092 0.19423336 0.039738495 -0.15321416
0.14244801 0.040791776 -0.124061905 -0.121900246 0.110025935 0.098083496 -0.06518515 0.112715825
0.14615124 0.10829661 0.042571068 0.058334544 -0.16164842 -0.08602219 -0.13439806 -0.09903875
0.069661304 -0.07620096 0.0896113 0.050110094 -0.027738038 -0.14875033 0.1772566 -0.03195008
-0.073403925 -0.11405957 -0.05821146 0.1483969 -0.064558625 0.0023901332 -0.17226335 0.061835673
00000000: 070f bebd 87db e8bd d206 9b3d 8443 c9bd
00000010: 2417 19be b456 a5bd 8998 d03d 54dc dfbd
00000020: 50af 0a3e 38d4 a53d c1fa b0bd 9187 773d
00000030: cbdf e2bb 6655 873c 8ea7 223e 463c bbbd
00000040: 1d3f e5bd b84e 1b3e 5ce2 923d 72ef b0bd
00000050: 8cae d13d 892d 023d f987 0f3e f131 04be
00000060: fe2d 073e f94c c3bd b63f 91bd 1591 d03d
00000070: bf17 94bd 1ce5 463e d5c4 223d 2ce4 1cbe
00000080: e4dd 113e 4715 273d 2b14 febd d6a6 f9bd
00000090: 4755 e13d 00e0 c83d cb7f 85bd 8ed7 e63d
000000a0: aca8 153e 9dca dd3d 005f 2e3d 34f0 6e3d
000000b0: 2a87 25be 672c b0bd a59f 09be d4d4 cabd
000000c0: 96aa 8e3d 400f 9cbd 2186 b73d 3e40 4d3d
000000d0: e23a e3bc 0252 18be c182 353e 16de 02bd
000000e0: cc54 96bd 1098 e9bd 246f 6ebd 5bf5 173e
000000f0: 5037 84bd c8a3 1c3b ce65 30be 6747 7d3d

actor_mean.4.weight f4 [2, 64]
-0.01899098 0.014001213 -0.03137751 -0.09127645 0.030244028 0.021927329 -0.0801963 0.027110875
-0.04576769 -0.0032358863 -0.0055976026 -0.05023894 -0.022368547 0.013556986 -0.068941 -0.012312399
-0.081130035 0.02652412 -0.015763124 -0.0028181516 0.09705422 -0.005250338 -0.02298171 0.031086199
-0.05196592 0.03877083 0.006337266 0.017845869 0.035429772 -0.019409832 0.047007 0.0214645
0.08841893 -0.027423255 -0.018247923 0.038612906 0.009418631 -0.050977055 0.071810804 0.062129725
0.01915893 -0.008804392 0.06835945 0.03532708 0.046474043 0.017764023 -0.039234247 0.005802417
-0.027561203 -0.058994886 -0.0933749 0.028055843 0.027588762 -0.033373177 0.034027018 0.009273062
0.039560355 0.040437713 0.06223451 0.09679628 0.010712059 0.060938433 -0.030341838 -0.015253912
0.035830893 0.08064475 0.021215817 0.026506772 0.015796361 0.019922953 -0.015093362 0.010228498
-0.050250407 -0.050950665 0.027612772 -0.026745494 -0.07472245 0.0026941933 -0.003370299 -0.028446952
0.05398365 -0.017469075 -0.073366396 0.055064265 -0.03248125 -0.032969657 -0.037158348 0.046766445
-0.010627559 0.024023047 0.012615209 -0.04066096 -0.010297237 -0.049768757 -0.012126535 0.041675273
-0.015628275 -0.00044852562 0.06311742 -0.07666054 -0.008208708 -0.011424195 0.076520905 0.080482095
-0.053686913 -0.04371969 -0.078349106 -0.007082779 0.013799405 0.07852041 0.050815877 -0.07570051
-0.07633098 0.013554912 -0.047907364 0.05829467 0.08168794 0.06657464 -0.013969315 -0.061123647
0.04343085 0.012712861 -0.057053518 -0.020146199 0.043008942 -0.036345102 0.009163181 -0.062444508
00000000: f992 9bbc 5865 653c b485 00bd 26ef babd
00000010: 53c2 f73c f1a0 b33c f53d a4bd a017 de3c
00000020: e776 3bbd 2a11 54bb 186c b7bb 59c7 4dbd
00000030: 3e3e b7bc 1f1e 5e3c f030 8dbd f2b9 49bc
00000040: 8127 a6bd 1c49 d93c ab21 81bc bdb0 38bb
00000050: 5dc4 c63d 070b acbb 2444 bcbc 7ca8 fe3c
00000060: 37da 54bd 29ce 1e3d d7a8 cf3b 8031 923c
00000070: cf1e 113d 5e01 9fbc 698a 403d 52d6 af3c
00000080: fc14 b53d bca6 e0bc ab7c 95bc 9128 1e3d
00000090: 9a50 1a3c 51cd 50bd 8b11 933d bd7b 7e3d
000000a0: 30f3 9c3c 4c40 10bc 0a00 8c3d 21b3 103d
000000b0: 915b 3e3d db85 913c 17b4 20bd 3422 be3b
000000c0: 08c8 e1bc 9fa4 71bd 573b bfbd 5ed5 e53c
000000d0: d401 e23c 50b2 08bd ea5f 0b3d 0bee 173c
000000e0: 0a0a 223d 04a2 253d 9de9 7e3d 213d c63d
000000f0: a281 2f3c 949a 793d 728f f8bc 8beb 79bc
00000100: 6ac3 123d 1329 a53d cbcc ad3c bb24 d93c
00000110: 5f67 813c 7635 a33c 264a 77bc 6e95 273c
00000120: 5fd3 4dbd a5b1 50bd 2e34 e23c 5e19 dbbc
00000130: 1508 99bd 1091 303b 3ce0 5cbb 9509 e9bc
00000140: f61d 5d3d 4e1b 8fbc 1f41 96bd 118b 613d
00000150: 0f0b 05bd 310b 07bd 5a33 18bd 2c8e 3f3d
00000160: 371f 2ebc fbcb c43c 06b0 4e3c 1b8c 26bd
00000170: beb5 28bc 53da 4bbd 60ae 46bc b1b3 2a3d
00000180: de06 80bc 1728 ebb9 b543 813d 3400 9dbd
00000190: d17d 06bc 8c2c 3bbc feb6 9c3d ccd3 a43d
000001a0: cfe6 5bbd 6b13 33bd 7f75 a0bd a816 e8bb
000001b0: e616 623c 4fcf a03d 4f24 503d de08 9bbd
000001c0: 6b53 9cbd 6c15 5e3c 833a 44bd 64c6 6e3d
000001d0: 024c a73d 4958 883d 8edf 64bc ca5c 7abd
000001e0: 8ce4 313d 9b49 503c f3b0 69bd a409 a5bc
000001f0: 252a 303d 9ade 14bd 2b21 163c d0c5 7fbd

actor_mean.4.bias f4 [2]
0.04133204 -0.1314822
00000000: c94b 293d 45a3 06be
