jsbgym/models/train_saves/ppo_ts4e-2_disturb_betacuri_tsteps2e6_1_62204_20-01_20:17:47.pt (torch, 62269 bytes, 14 tensors)

actor_logstd f4 [1, 2]
0	0xbd590426	-0.052982472
1	0xbe3be15a	-0.18347684

conv.0.weight f4 [3, 1, 5, 1]
0	0x3ed387a8	0.41314435
1	0xbea1e9b0	-0.31623602
2	0x3ec9d20f	0.39418074
3	0x3dd8a82e	0.10578953
4	0xbd98c904	-0.07460216
5	0xbd298553	-0.041386914
6	0xbea10815	-0.3145148
7	0x3f0f82f9	0.56059223
8	0xbf137a4f	-0.57608503
9	0xbe4a8cb3	-0.19780235
10	0x3e8b5c0b	0.2721866
11	0x3f42d281	0.76102453
12	0x3f0a4fae	0.5402783
13	0x3e900180	0.28126144
14	0x3f03a880	0.51428986

conv.0.bias f4 [3]
0	0x3c009e34	0.007850219
1	0xbca46548	-0.020067826
2	0xbd2f9ced	-0.042874265

critic.0.weight f4 [64, 42]
0	0xbddb1579	-0.10697455
1	0x3e60433d	0.2190065
2	0x3e2b8364	0.1674934
3	0x3e98c77a	0.2983969
4	0xbaace299	-0.001319009
5	0x3d80566f	0.06266486
6	0x3e951299	0.2911575
7	0xbe2cf3b7	-0.16889845
8	0x3e11589f	0.14193963
9	0x3e02a9d5	0.12760098
10	0x3d8b82ce	0.068120584
11	0x3cb57676	0.022151213
12	0x3d250367	0.040286448
13	0xbe2f49d3	-0.17118005
14	0xbde07d77	-0.109614305
15	0xbad2bc4e	-0.0016077848
16	0xbd6b0162	-0.057374366
17	0xbe875ab6	-0.26436394
18	0xbd09451a	-0.033513166
19	0xbe830828	-0.2559216
20	0x3f029567	0.5100922
21	0x3e78dc6c	0.24302834
22	0x3e33124d	0.1748745
23	0x3e24acf1	0.16081597
24	0xbe7e43fe	-0.24830624
25	0x3e44da0c	0.19223803
26	0x3ca4d060	0.020118892
27	0x3f048819	0.5177017
28	0x3dd991bc	0.106235
29	0xbe071a8a	-0.13193718
30	0xbbb347f8	-0.005471226
31	0x3d84e344	0.0648866
32	0xbe1a495f	-0.15067051
33	0x3e2e03aa	0.16993585
34	0xbdc41082	-0.09573461
35	0x3d61240d	0.05496602
36	0x3dba1aa1	0.0908711
37	0xbe7b429b	-0.24537127
38	0xbd298b5a	-0.04139266
39	0xbd8d39ef	-0.068958156
40	0xbdef3225	-0.11679486
41	0x3e9c9b74	0.3058735
42	0xbb8c4a18	-0.0042812936
43	0x3e3675df	0.17818402
44	0x3e60b517	0.2194408
45	0xbd997812	-0.07493605
46	0x3dad98b7	0.08476394
47	0xbe161d8e	-0.14659712
48	0x3c84a141	0.016190173
49	0xbeaa04de	-0.33206838
50	0x3d9a503f	0.07534837
51	0xbdc94629	-0.09827835
52	0xbdee2cef	-0.11629664
53	0x3dbb8328	0.091558754
54	0xbe8b1755	-0.27166238
55	0x3e92170e	0.28533214
56	0xbe8112bd	-0.2520961
57	0x3e0e0b89	0.13871588
58	0x3ef80f3c	0.48449123
59	0x3b480381	0.0030519667
60	0xbac263f9	-0.001483082
61	0x3cc9c45c	0.024629764
62	0x3bb28925	0.005448478
63	0x3e5ceb6e	0.21574184
64	0xbe6147bb	-0.22000019
65	0xbcb1817f	-0.021668194
66	0x3e7dba59	0.24778117
67	0xbde28f6a	-0.1106251
68	0x3e93235a	0.2873791
69	0xbe9ee9ad	-0.31037655
70	0x3eaf2ae1	0.34212402
71	0x3e97fc9e	0.2968492
72	0x3e104191	0.14087512
73	0x3da921a5	0.0825837
74	0x3d3f28b7	0.046669688
75	0x3dfa315a	0.12216444
76	0x3e125b44	0.14292628
77	0x3e96222d	0.2932295
78	0xbe5fcd4e	-0.21855661
79	0x3da9f3e6	0.08298473
80	0x3e52212e	0.2052047
81	0xbd078096	-0.033081613
82	0xbec14b6f	-0.37752864
83	0x3ec83974	0.39106333
84	0xbe9c8b91	-0.3057523
85	0xbec20807	-0.3789675
86	0x3da7db39	0.0819611
87	0xbe8009a2	-0.2500735
88	0xbddf771e	-0.10911392
89	0xbd9c5ed0	-0.076352715
90	0x3e99f3ee	0.30068916
91	0xbe0b27b9	-0.13589372
92	0xbd8852ae	-0.06656395
93	0x3d5c0c99	0.05372295
94	0xbe3607b2	-0.17776373
95	0x3cde8345	0.027162204
96	0x3e25a849	0.16177477
97	0x3b8af559	0.0042406735
98	0xbdf723bc	-0.12067363
99	0x3e820515	0.25394502
100	0x3e6d6cf2	0.2318609
101	0x3e016584	0.12636381
102	0xbc19e09f	-0.009391933
103	0x3d9881b4	0.07446614
104	0xbe34bc20	-0.17649889
105	0x3ea8181b	0.3283089
106	0x3d30de3b	0.043180685
107	0x3c9e4d25	0.019323895
108	0xbdd1ea78	-0.102497995
109	0x3e1ec8bd	0.15506263
110	0x3e195b51	0.1497624
111	0x3d226710	0.03964907
112	0x3eab1239	0.3341234
113	0x3ddd82f3	0.10815992
114	0xbe846e4b	-0.25865397
115	0xbd5f34b1	-0.05449361
116	0x3dd9c4bb	0.106332265
117	0xbd47c02c	-0.048767254
118	0xbe2d5563	-0.16927104
119	0x3db93ac8	0.09044415
120	0xbd602222	-0.05472005
121	0xbe184ddb	-0.1487345
122	0x3d45361d	0.04814731
123	0xbe0ab9e5	-0.13547476
124	0xbd8ba1ae	-0.06817947
125	0xbc98587f	-0.018596886
126	0x3da49228	0.080356896
127	0x3d0e1a48	0.034693033
128	0xbacfaffe	-0.0015845296
129	0xbb818965	-0.0039531463
130	0xbe059ed7	-0.13048874
131	0x3d08f9ad	0.033441234
132	0x3e078de3	0.13237719
133	0xbd5c88da	-0.05384145
134	0x3c66945c	0.014073458
135	0x3d4ebff9	0.05047605
136	0x3debc81e	0.11512779
137	0xbb839e0e	-0.0040166443
138	0xbe35d134	-0.17755586
139	0x3e352650	0.17690396
140	0xbdd4ced7	-0.10391014
141	0x3e555861	0.20834495
142	0xbde0da22	-0.109791055
143	0x3e9b7224	0.3036052
144	0xbd746a68	-0.05967179
145	0x3f1e1b25	0.6176017
146	0xbef99942	-0.4874974
147	0xbe232bb6	-0.15934643
148	0xbea77d25	-0.32712665
149	0xbebea72c	-0.37236917
150	0xbe200153	-0.15625505
151	0x3d81ab6c	0.06331524
152	0xbde7752e	-0.11301647
153	0xbe6b37d2	-0.22970513
154	0xbd04fbac	-0.032466576
155	0x3e43f844	0.19137675
156	0x3cc50730	0.024051279
157	0xbced45fc	-0.028964035
158	0x3caad087	0.020851387
159	0xbd83499d	-0.06410525
160	0x3e3bc5ba	0.18337145
161	0x3ea3f27f	0.32020947
162	0xbe17573e	-0.14779374
163	0xbd957622	-0.07297923
164	0xbe0e4263	-0.13892512
165	0xbc40362e	-0.011731667
166	0x3eb733ab	0.35781607
167	0x3c03812d	0.008026403
168	0x3e4fd1f1	0.2029493
169	0x3d6918e0	0.05690849
170	0x3e789ab5	0.24277766
171	0xbe0a5610	-0.13509393
172	0x3e0d1ab9	0.13779725
173	0x3eaf6f40	0.34264565
174	0x3e3120ee	0.17297718
175	0xbd94b1ac	-0.07260451
176	0x3c35bf3f	0.01109296
177	0xbe00e55d	-0.12587495
178	0x3dc57de6	0.09643154
179	0x3e5db202	0.21649936
180	0xbe14b4ee	-0.14522144
181	0xbe228481	-0.15870859
182	0x3e656e8e	0.22405455
183	0xbdccc011	-0.09997571
184	0x3e279240	0.16364384
185	0x3ebaceb0	0.36485815
186	0xbe827696	-0.254811
187	0x3dbf0e12	0.093288556
188	0x3e38900f	0.18023704
189	0xbe02f5f9	-0.12789144
190	0x3b438446	0.002983348
191	0xbd6b059e	-0.057378404
192	0xbdb6565f	-0.08903193
193	0xbd296b1f	-0.041361924
194	0x3ea4fc88	0.32223916
195	0x3e7ef91c	0.24899715
196	0x3e30ddee	0.1727216
197	0xbdfb58ad	-0.12272773
198	0x3e853dff	0.26023862
199	0xbd262b53	-0.04056866
200	0xbe014b1c	-0.12626308
201	0x3b20505d	0.0024461963
202	0xbece15c0	-0.4025097
203	0xbdc75ba4	-0.09734276
204	0xbe0e3d81	-0.1389065
205	0x3e468305	0.19385917
206	0x3b4e1edc	0.00314515
207	0xbd6e1a82	-0.05813075
208	0xbeb6a892	-0.35675484
209	0xbe61b672	-0.22042254
210	0x3c6e6f4c	0.014552902
211	0x3e8e915c	0.27845275
212	0xbe03ba05	-0.1286393
213	0x3d4251ea	0.0474414
214	0xbbbbbd18	-0.005729329
215	0xbe9da423	-0.3078929
216	0x3e0a7e48	0.13524735
217	0x3e256b62	0.16154245
218	0xbda5833a	-0.0808167
219	0xbe0d28b0	-0.13785052
220	0x3dfb8b00	0.122823715
221	0xbe453842	-0.19259742
222	0xbd8f8723	-0.07008197
223	0xbe6f5c03	-0.23374943
224	0x3ea66b63	0.32503805
225	0xbebd8b0f	-0.37020156
226	0x3e480764	0.1953407
227	0x3d9e58f0	0.07731807
228	0xbd9bc9c9	-0.07606847
229	0x3e09f766	0.13473281
230	0xbe9489f9	-0.29011515
231	0x3ecbf59b	0.3983582
232	0xbee33bdc	-0.44381607
233	0xbe340469	-0.17579807
234	0x3d746497	0.059666242
235	0xbe25cf46	-0.1619235
236	0x3ca7b639	0.020472633
237	0x3eb1fe88	0.34764504
238	0x3f125faf	0.5717725
239	0x3dd48acf	0.10378038
240	0x3c772655	0.015084823
241	0xbd3db900	-0.046319008
242	0x3cd16796	0.025562089
243	0xbdb75d96	-0.08953397
244	0x3dd51b1a	0.1040556
245	0xbcf772d4	-0.030206122
246	0x3e26fe0f	0.16307853
247	0x3e6a7721	0.22897007
248	0x3cd43d99	0.025908278
249	0x3d1dc22a	0.038515247
250	0x3e5900e4	0.21191746
251	0xbcc8ba8f	-0.02450302
252	0x3e2bfa05	0.16794594
253	0xbe023c38	-0.12718284
254	0x3e0dad59	0.13835658
255	0x3d94929b	0.07254525

critic.0.bias f4 [64]
0	0x3d027453	0.031849217
1	0x3c0a881b	0.008455302
2	0xbd6c6762	-0.05771578
3	0x3c9a39fc	0.018826477
4	0x3d28d23c	0.04121612
5	0xbc9d76d9	-0.01922171
6	0x3c4a4388	0.012345202
7	0xbc4c1149	-0.012455293
8	0x3c5d6e48	0.013515063
9	0xbe02b4b0	-0.1276424
10	0xbc434246	-0.011917656
11	0xbd82e453	-0.06391206
12	0xbd732823	-0.05936445
13	0xbd4cddc7	-0.05001619
14	0xbcaada60	-0.020856082
15	0x3d24b70e	0.040213637
16	0xbce8fa50	-0.02843967
17	0x3d3ae7e6	0.04563131
18	0xbd369249	-0.044573102
19	0xbd247014	-0.04014595
20	0x3d243942	0.040093668
21	0x3c272971	0.0102027515
22	0xbd6abb71	-0.057307664
23	0x3d9538aa	0.072861984
24	0xbde33b59	-0.11095304
25	0xbddb44db	-0.107064925
26	0xbc298502	-0.010346653
27	0x3d0a33d3	0.03374083
28	0x3dc82155	0.097719826
29	0x3c534086	0.012893802
30	0x3e5271ac	0.20551175
31	0x3cd212ac	0.02564367
32	0xbde91dbe	-0.11382626
33	0x3dfc1c85	0.12310127
34	0x3c1f7107	0.009731538
35	0xbd86bf90	-0.065795064
36	0xbe0dec18	-0.13859594
37	0x3d0504d5	0.03247531
38	0xbd32f1f5	-0.04368778
39	0xbdff1054	-0.12454286
40	0x3d9cd5cd	0.07657967
41	0x3d8631d3	0.06552472
42	0xbd02677a	-0.031836964
43	0x3d9bbafb	0.07604023
44	0xbd213f3a	-0.03936694
45	0x3d4a1b3e	0.049342386
46	0xbd9a246c	-0.07526478
47	0x3bf895f3	0.0075862347
48	0xbdb822eb	-0.08991035
49	0xbb70bf94	-0.0036735283
50	0x3d9b72f3	0.07590284
51	0x3dc4309f	0.09579586
52	0x3d4776ab	0.048697155
53	0x3c334261	0.010941119
54	0x3e06243d	0.13099761
55	0x3d2b5c2e	0.041835956
56	0x3d920f8c	0.071318716
57	0xbd8f648c	-0.070016
58	0x3cc6a485	0.02424837
59	0x3d6841b0	0.05670327
60	0x3d0681fd	0.03283881
61	0xbc750d52	-0.014956789
62	0x3d7913fe	0.06081008
63	0x3da403f5	0.08008567

critic.2.weight f4 [64, 64]
0	0x3e0b938d	0.13630505
1	0x3d581221	0.052751664
2	0x3dfe809b	0.12426873
3	0x3e0d370c	0.1379053
4	0x3d1b7b98	0.037959665
5	0x3ebc5d6d	0.36790028
6	0x3cd773be	0.026300307
7	0xbe98b91f	-0.29828736
8	0xbcdfbc77	-0.027311547
9	0xbe802dab	-0.25034842
10	0xbe95cb79	-0.292568
11	0x3cda1ef6	0.026626091
12	0xbe87bd6a	-0.265117
13	0xbe3a7751	-0.18209578
14	0x3e208cb1	0.1567867
15	0x3dd9cff6	0.106353685
16	0xbea1fb46	-0.3163702
17	0x3eba39bf	0.36372182
18	0xbe5ff685	-0.21871383
19	0x3dd45acd	0.103688814
20	0xbcde87eb	-0.02716442
21	0x3d9d1089	0.076691695
22	0x3c82ee8a	0.015982885
23	0xbc4015cc	-0.011723947
24	0x3dde2b5c	0.10848114
25	0x3e3d9ee8	0.18517649
26	0xbd28d2a2	-0.0412165
27	0xbc97a032	-0.018509004
28	0x3e10f394	0.14155418
29	0x3d8cccbe	0.06874989
30	0x3e60af84	0.21941954
31	0x3c587029	0.013210335
32	0xbdabd1a4	-0.08389595
33	0x3e0346d9	0.12819995
34	0xbe9a4c97	-0.30136558
35	0xbefa8a33	-0.48933563
36	0xbe8df178	-0.2772329
37	0xbd39e584	-0.0453849
38	0xbe4f629c	-0.2025246
39	0xbe1e011a	-0.15430108
40	0xbe5d12c4	-0.2158919
41	0x3d4ed90f	0.050499972
42	0xbe877abf	-0.26460835
43	0x3e68308f	0.22674774
44	0xbe12c5de	-0.14333293
45	0x3e9531f1	0.29139665
46	0x3db666d1	0.089063294
47	0xbc68f14a	-0.014217684
48	0xbe09c490	-0.13453889
49	0x3e0848fb	0.1330909
50	0xbdb5111d	-0.08841155
51	0x3e59b2b4	0.21259576
52	0x3e25b336	0.16181645
53	0x3e0755e9	0.13216366
54	0xbe02f16d	-0.12787409
55	0x3d23d79a	0.040000536
56	0x3e3489df	0.17630719
57	0xbdda92b8	-0.10672516
58	0x3e99a37b	0.30007538
59	0x3e28b618	0.16475713
60	0x3e2126dc	0.1573748
61	0xbdc90bbf	-0.098166935
62	0x3db7b286	0.089695975
63	0xbe73dbd3	-0.23814325
64	0x3cf91e90	0.030410081
65	0xbd5954d3	-0.05305941
66	0x3ea781e5	0.3271629
67	0xbd612a3d	-0.054971922
68	0x3ca0b5ca	0.019617934
69	0xbc946186	-0.018112909
70	0xbddfabc8	-0.109214365
71	0xbe27ea1b	-0.16397898
72	0xbe7ae8a6	-0.24502811
73	0x3e0163da	0.12635747
74	0x3e8a8276	0.2705266
75	0xbe169d6f	-0.14708494
76	0xbf09ef5c	-0.5388086
77	0xbd8d2049	-0.068909235
78	0x3de47dcd	0.11156807
79	0xbdf1bde0	-0.11803794
80	0x3e561b2e	0.20908806
81	0x3e0bada2	0.13640454
82	0xbe83e3a0	-0.25759602
83	0x3e025e2a	0.12731233
84	0x3eb9507e	0.36194223
85	0xbe669d3e	-0.2252092
86	0xbcd71f0a	-0.026259918
87	0xbd849d1d	-0.064752795
88	0xbccb22c0	-0.024796844
89	0xbda4fd41	-0.08056117
90	0x3e7fd45c	0.24983352
91	0xbe166e1b	-0.1469044
92	0x3e6dfcbe	0.23240945
93	0x3e3e31e2	0.18573716
94	0xbd7753a7	-0.06038251
95	0x3d660556	0.056157432
96	0x3de83984	0.11339095
97	0xbd3af97b	-0.04564808
98	0xbe727b1c	-0.23679775
99	0xbd5d7aa7	-0.05407205
100	0x3e0a803e	0.13525483
101	0x3c87d508	0.016581073
102	0x3e9f6a5d	0.31135836
103	0x3d93411d	0.07190154
104	0x3db5256f	0.088450305
105	0x3e171eb6	0.14757809
106	0x3e8e133e	0.27749056
107	0x3c43ae52	0.011943417
108	0x3d2c79a2	0.042108186
109	0xbeac0c12	-0.3360296
110	0x3da76bc4	0.081748515
111	0x3ce4e9fe	0.027943607
112	0x3d3f1e78	0.046659917
113	0x3e8c5db2	0.27415234
114	0xbb83b62c	-0.0040195193
115	0xbe4df1de	-0.20111796
116	0xbe6d8de9	-0.23198666
117	0x3c34dd30	0.011039063
118	0x3e8a8c2e	0.27060074
119	0xbeb702d3	-0.35744342
120	0x3dedaec2	0.11605598
121	0xbd08d6a1	-0.03340781
122	0xbda4f488	-0.08054453
123	0xbc3035a6	-0.010754978
124	0x3d0e9e17	0.034818735
125	0xbe384720	-0.17995882
126	0x3da35d9f	0.07976841
127	0x3dcd38e2	0.10020615
128	0xbd395e3b	-0.04525588
129	0x3c3fcdf3	0.011706817
130	0xbe012c55	-0.12614568
131	0x3cffe622	0.031237666
132	0xbd5acb16	-0.053416334
133	0xbda537cb	-0.08067282
134	0x3e78f814	0.24313384
135	0xbe35403d	-0.17700286
136	0x3e878cbd	0.26474562
137	0x3dea4c17	0.11440294
138	0x3f11ed1f	0.57002443
139	0xbc3da8e3	-0.01157591
140	0x3e61790b	0.2201883
141	0xbdc994c9	-0.09842832
142	0xbe3d73b7	-0.18501173
143	0x3dc17901	0.09446908
144	0xbe3d7f02	-0.18505481
145	0x3d1aaf58	0.037764877
146	0x3defe8e3	0.117143415
147	0x3da929b9	0.08259911
148	0x3d4fdf27	0.050749924
149	0xbd753f51	-0.059874836
150	0x3e10c6f7	0.14138399
151	0xbe7e5f7f	-0.24841116
152	0xbd307f03	-0.043089878
153	0x3e1f169d	0.1553597
154	0x3e5a1176	0.21295723
155	0xbd90b005	-0.07064823
156	0xbe5485dc	-0.20754188
157	0xbd08d855	-0.033409435
158	0x3d263919	0.040581796
159	0x3e519754	0.20467883
160	0x3de9ffee	0.11425768
161	0xbe79dbcf	-0.24400257
162	0xbe8cf7f1	-0.27532914
163	0x3e43a432	0.19105604
164	0xbeee2a34	-0.46516573
165	0x3e885328	0.26625943
166	0x3b8bd440	0.0042672455
167	0x3dc657b4	0.09684697
168	0xbe841f37	-0.25805065
169	0x3e2bf44f	0.16792415
170	0x3d3ae512	0.045628615
171	0x3dec341c	0.115333766
172	0xbdd4bd33	-0.103876494
173	0xba00f474	-0.0004919239
174	0x3e59178c	0.21200389
175	0xbd9ee76f	-0.07758986
176	0xbea6e472	-0.32596165
177	0x3e1506a1	0.1455331
178	0xbd836bae	-0.06417023
179	0xbe69440d	-0.22779866
180	0xbeca4e40	-0.39512825
181	0xbe12b201	-0.14325716
182	0xba977a9b	-0.0011556925
183	0xbdf54945	-0.11976866
184	0xbe1a4110	-0.15063882
185	0xbb894336	-0.0041889204
186	0x3d837603	0.06418993
187	0x3e0395a0	0.12850046
188	0xbdc95fd6	-0.098327324
189	0x3bc1a43b	0.0059094704
190	0x3e869ba8	0.2629063
191	0x3bff25e5	0.0077865
192	0x3e45921e	0.1929402
193	0x3dfd22d5	0.12360159
194	0x3d9fb319	0.07797832
195	0xbd00cd88	-0.03144601
196	0xbe33e546	-0.1756793
197	0xbe50dd66	-0.20396957
198	0xbeae6101	-0.34058383
199	0xbe0ddc30	-0.13853526
200	0xbe079871	-0.13241746
201	0xbd3db8f5	-0.046318967
202	0xbdda2374	-0.106512934
203	0x3db8bbd3	0.090201996
204	0x3d6e0044	0.058105722
205	0xbe82b997	-0.2553222
206	0xbcf8e83e	-0.03038418
207	0xbe5bb771	-0.21456696
208	0xbb75c54b	-0.003750163
209	0xbdb7b30e	-0.08969699
210	0xbecc94f6	-0.39957398
211	0xbdb7d199	-0.089755245
212	0xbd28b2ce	-0.041186146
213	0x3cffb224	0.031212874
214	0x3e400503	0.18751912
215	0xbdcd0fc4	-0.10012773
216	0x3e12b7be	0.14327905
217	0xbdf18489	-0.11792857
218	0xbdd5255e	-0.10407518
219	0x3deb1114	0.11477867
220	0xbe0666ca	-0.13125148
221	0x3eb502fd	0.35353842
222	0xbdda2f5b	-0.106535636
223	0x3c52153e	0.012822447
224	0x3ddb0705	0.10694698
225	0xbdf0ba81	-0.11754323
226	0x3cf1ae7f	0.029502152
227	0x3e90deec	0.28295076
228	0xbea7b77c	-0.32757175
229	0x3df955b7	0.12174552
230	0xbec83a53	-0.39106998
231	0x3e37fb0b	0.17966859
232	0xbda9ddd9	-0.08294267
233	0x3de44d1d	0.11147521
234	0x3d3a5fd0	0.04550153
235	0x3e2bdfff	0.16784666
236	0x3e619e0f	0.22032951
237	0xbdac952c	-0.0842689
238	0x3e4b0983	0.19827847
239	0x3e36e48b	0.1786062
240	0x3b70ba9b	0.003673232
241	0xbe4c1626	-0.19930324
242	0xbc8027a8	-0.01564391
243	0x3ec6a0e4	0.38794625
244	0xbd3a777c	-0.045524105
245	0x3ca68dbe	0.02033126
246	0x3eb0ad98	0.34507442
247	0x3d81e22d	0.06341968
248	0x3e55425d	0.20826097
249	0x3e0aed84	0.13567168
250	0xbe648e18	-0.2231983
251	0xbe3ae815	-0.18252595
252	0xbe8e2c0b	-0.27767977
253	0x3e9f4efa	0.31114942
254	0xbbd65105	-0.00654042
255	0xbe284cd3	-0.16435556

critic.2.bias f4 [64]
0	0x3e15e6e6	0.14638862
1	0xbdaba203	-0.08380511
2	0xbdae2315	-0.08502785
3	0xbd922b48	-0.071371615
4	0x3d8c8b04	0.068624526
5	0x3d7089c5	0.058725137
6	0x3d920890	0.071305394
7	0xbd925438	-0.0714497
8	0x3bb4194e	0.0054961806
9	0x3d6f6e7f	0.058454987
10	0xbd83c874	-0.06434718
11	0xbce04df2	-0.027380917
12	0xbc9a3d46	-0.018828046
13	0xbd311fc2	-0.043243177
14	0x3da94dcf	0.08266794
15	0x3c94ed83	0.01817966
16	0x3c8ff100	0.017570972
17	0xbd2e1a03	-0.042505275
18	0xbd8a2d4d	-0.06746922
19	0xbdd2cc14	-0.10292831
20	0xbdec6df9	-0.11544413
21	0x3e31cec6	0.17364034
22	0xbd7c2efb	-0.06156824
23	0xbe1ead52	-0.15495804
24	0x3da5f5e6	0.08103542
25	0x3e57f4d5	0.2108949
26	0x3d9fb829	0.07798798
27	0xbcb0cc9e	-0.021581944
28	0xbd2973d1	-0.041370217
29	0xbd6a6537	-0.057225432
30	0x3e47e5d6	0.19521269
31	0x3d54feec	0.052000925
32	0x3d3505cb	0.044194978
33	0xbcca5d84	-0.024702795
34	0xbdcc7a46	-0.09984259
35	0xbd4f047e	-0.050541393
36	0x3e5d8232	0.21631697
37	0xbd90eac2	-0.070760265
38	0xbd6c5fe2	-0.05770863
39	0x3db36084	0.08758643
40	0x3d9dbf61	0.07702518
41	0x3d08ca74	0.0333962
42	0x3e059867	0.13046418
43	0x3e3fad04	0.18718344
44	0x3d9db2e8	0.07700139
45	0xbdcdd25e	-0.1004989
46	0x3dae6367	0.08515053
47	0x3d18cd4d	0.037305165
48	0x3c8197d4	0.015819468
49	0xbdc7a24f	-0.09747755
50	0xbe1c6f53	-0.15276842
51	0xbe5cd0ca	-0.21564022
52	0xbd159c04	-0.03652574
53	0x3d131deb	0.035917204
54	0xbdba797b	-0.09105202
55	0xbdbcd6ad	-0.09220634
56	0xbd6e4def	-0.058179792
57	0xbdaa744e	-0.083229646
58	0xbd3d4c79	-0.046215508
59	0x3d25e3e3	0.040500533
60	0xbd544a09	-0.051828418
61	0x3e384a6d	0.17997141
62	0x3d5c1ef3	0.053740453
63	0x3c896b5c	0.016774826

critic.4.weight f4 [1, 64]
0	0xbe2dfe2e	-0.16991493
1	0x3d9b2569	0.07575495
2	0x3e07b889	0.13253988
3	0x3d765f0f	0.06014925
4	0xbd534e46	-0.05158832
5	0xbea564f7	-0.32303593
6	0xbe315518	-0.17317617
7	0x3d3dce70	0.046339452
8	0x3e9cc2ec	0.30617464
9	0xbe40d297	-0.18830334
10	0x3e8e6bcb	0.27816615
11	0x3d4c1353	0.049823117
12	0x3dcdce7e	0.10049151
13	0x3e2dc04a	0.16967884
14	0xbdcb9974	-0.09941378
15	0xbdbde7b4	-0.092727095
16	0x3ec05e31	0.37571862
17	0x3d6aba99	0.05730686
18	0x3cf00cbe	0.029302951
19	0x3e288e0b	0.16460435
20	0x3df4de07	0.11956411
21	0xbdc7928f	-0.09744751
22	0x3d5ae48c	0.053440616
23	0x3da2376c	0.07920727
24	0xbd9273c6	-0.07150988
25	0xbdcfb911	-0.101427205
26	0xbe28cb7e	-0.16483876
27	0x3de50b0d	0.111837484
28	0x3db8f8c6	0.09031825
29	0x3e4a3720	0.19747591
30	0xbdb967f9	-0.09053034
31	0xbe68c2e0	-0.22730589
32	0xbe3d9589	-0.18514074
33	0x3e415595	0.18880303
34	0x3e38e22b	0.18055026
35	0x3e6a3b3b	0.22874157
36	0xbe32c64b	-0.17458455
37	0x3e88a85e	0.26690954
38	0x3e4d1582	0.20027736
39	0xbdb6d6bb	-0.08927675
40	0xbddb97a7	-0.10722285
41	0xbdfa7cf6	-0.12230866
42	0xbdcae09d	-0.09906123
43	0xbdd9741b	-0.106178485
44	0xbe484bb0	-0.19560122
45	0x3e00d818	0.12582433
46	0xbe1e8e99	-0.15484084
47	0xbe8bcd4e	-0.27305073
48	0xbe0f63ad	-0.14002867
49	0x3e692c44	0.22770792
50	0x3eb4aa35	0.35286108
51	0x3df753e1	0.120765455
52	0x3d8c4133	0.06848373
53	0x3c814171	0.015778275
54	0x3e09de9e	0.13463828
55	0x3e1a3cd1	0.15062262
56	0x3e2b6f3d	0.16741653
57	0x3e8fbbf2	0.28073078
58	0x3e9d381f	0.3070688
59	0xbdba90e4	-0.09109667
60	0x3e65271b	0.22378199
61	0xbe34257f	-0.17592429
62	0xbd8be33f	-0.06830453
63	0xbe60b69b	-0.21944658

actor_mean.0.weight f4 [64, 42]
0	0x3e23e670	0.16005874
1	0x3e435258	0.1907438
2	0x3c79e9a8	0.015253462
3	0x3cba3ea5	0.02273495
4	0xbe3ff37f	-0.1874523
5	0x3d18f739	0.037345145
6	0x3e1fceec	0.15606278
7	0x3e50cc48	0.20390427
8	0xbd9fba43	-0.077991985
9	0xbd8f0538	-0.06983417
10	0xbe14539e	-0.14485022
11	0x3e21bf84	0.15795714
12	0x3f07203d	0.52783567
13	0xbd37009e	-0.044678323
14	0xbe458656	-0.19289526
15	0xb85dbe67	-5.2867832e-05
16	0x3e50d7da	0.20394841
17	0xbc338a43	-0.010958257
18	0x3e3fd5e4	0.18733937
19	0xbd913bc8	-0.070914805
20	0x3e7fd642	0.24984077
21	0xbe70ada2	-0.23503736
22	0xbe6e8c67	-0.23295747
23	0xbd98f011	-0.07467664
24	0xbde1b69a	-0.110211566
25	0x3cb928bd	0.022602433
26	0x3d31e3aa	0.043430008
27	0xbd59e23e	-0.053194277
28	0x3e158370	0.1460092
29	0xbcf04619	-0.0293303
30	0x3e2e57b6	0.17025647
31	0x3c107570	0.008817062
32	0x3cfde9b9	0.030995237
33	0xbdc8f587	-0.098124556
34	0xbe6b2e98	-0.22966993
35	0x3ec335bf	0.38126943
36	0x3e740346	0.23829374
37	0x3e84ba06	0.25923175
38	0x3e533f52	0.20629624
39	0x3bbe1bac	0.0058016386
40	0x3e0d9ef7	0.13830172
41	0xbdad89a9	-0.08473522
42	0xbcab5af2	-0.02091739
43	0x3efb478f	0.49078032
44	0xbc5c6f68	-0.013454296
45	0x3d865cbe	0.06560658
46	0x3e4ee60d	0.20204945
47	0x3d9ad59d	0.07560275
48	0xbe4ea11e	-0.20178649
49	0x3dd4a634	0.10383263
50	0xbe8ac475	-0.2710301
51	0xbe8dfb06	-0.27730578
52	0x3cae2936	0.021259885
53	0x3da3d40d	0.0799943
54	0x3ec3ad3d	0.38218108
55	0x3dc062da	0.093938544
56	0x3dcf856d	0.10132871
57	0x3e258a9e	0.1616616
58	0xbce802eb	-0.028321704
59	0xbe80dfa0	-0.25170612
60	0xbd17e4f4	-0.03708358
61	0xbe6c77a2	-0.23092511
62	0x3d847d17	0.064691715
63	0xbe9f3c90	-0.31100893
64	0x3df27ec8	0.11840588
65	0xbdcdb5fa	-0.10044475
66	0x3d00c37e	0.031436436
67	0x3c9d0d62	0.01917142
68	0xbe2007ef	-0.15628026
69	0xbe291136	-0.16510472
70	0xbd8521ac	-0.06500563
71	0xbb7cce7f	-0.003857523
72	0x3e56521b	0.20929758
73	0xbc4553cd	-0.012043905
74	0xbe652eb1	-0.22381093
75	0xbcd1a88d	-0.025593067
76	0xbe1c7126	-0.15277538
77	0x3e6c6078	0.23083675
78	0xbe3dcb8d	-0.1853468
79	0x3dc3c314	0.095586926
80	0x3dbe99dd	0.09306691
81	0xbcec7e03	-0.02886868
82	0x3e80e6ac	0.2517599
83	0x3dad21af	0.0845369
84	0x3e242829	0.16030945
85	0x3cd90e91	0.026496204
86	0xbe10924c	-0.14118308
87	0x3dc8fc8c	0.098137945
88	0x3cc74022	0.024322573
89	0xbdc01242	-0.093784824
90	0xbe93c058	-0.28857684
91	0x3d6137be	0.0549848
92	0x3d40f9b4	0.047113135
93	0x3e3fcbbd	0.18730064
94	0xbc713443	-0.014721933
95	0xbd7636fb	-0.060111027
96	0x3e7c7f69	0.24657978
97	0xbe238539	-0.15968789
98	0xbdcd10af	-0.10012948
99	0x3c62e5c0	0.013848722
100	0x3d935841	0.071945675
101	0x3dad160e	0.08451472
102	0x3d9d9286	0.07693963
103	0x3e2ed136	0.17071995
104	0xbd944eb3	-0.07241573
105	0xbeb1d684	-0.34733975
106	0x3cba3967	0.02273245
107	0xbe68f3e4	-0.22749287
108	0x3e7ebe85	0.24877365
109	0xbdf9e252	-0.1220137
110	0xbed119df	-0.4084005
111	0x3d572cf9	0.052533124
112	0x3b66de7d	0.0035227828
113	0x3e53baa0	0.2067666
114	0xbea0ab4f	-0.31380698
115	0xbb251dc6	-0.0025194748
116	0xbd1a7382	-0.037707813
117	0x3df4c099	0.119507976
118	0xbe8d7a4a	-0.27632362
119	0x3edec324	0.43508255
120	0x3d8aad6b	0.06771358
121	0xbdd0251c	-0.10163328
122	0x3e1593ce	0.14607164
123	0x3e0cb3f8	0.13740528
124	0xbd9fa5ea	-0.077953175
125	0x3dfb6e44	0.12276891
126	0x3e51d8de	0.20492885
127	0xbec86032	-0.3913589
128	0x3c0b9beb	0.00852106
129	0x3eb39307	0.3507311
130	0x3c132f76	0.008983484
131	0x3e9c345d	0.305087
132	0x3da09c97	0.07842367
133	0x3df4556a	0.11930354
134	0x3da0c646	0.07850318
135	0xbdeee2b0	-0.11664331
136	0x3c907f2e	0.017638769
137	0x3c922214	0.017838515
138	0x3e3e59af	0.18588899
139	0x3e02be50	0.12767911
140	0xbe86d76e	-0.26336235
141	0x3e9876da	0.29778177
142	0x3e309fda	0.17248479
143	0xbe82e693	-0.2556654
144	0x3e5f366c	0.21798104
145	0xbe4abf6e	-0.19799587
146	0xbdad5a63	-0.084645055
147	0xbea523dc	-0.3225392
148	0x3d7e57fa	0.06209562
149	0xbe179d31	-0.14806058
150	0xbd008a72	-0.03138203
151	0x3d108565	0.035283465
152	0xbcc7c108	-0.024384037
153	0x3d878479	0.06617064
154	0xbe035b5d	-0.12827821
155	0x3d6bef3c	0.0576012
156	0xbe461518	-0.19343984
157	0x3e467825	0.19381769
158	0x3da5348c	0.08066663
159	0x3d2c5083	0.04206897
160	0xbe8cda92	-0.27510506
161	0xba79019c	-0.0009498836
162	0xbe7871c5	-0.2426215
163	0x3e504b09	0.20341124
164	0xbe205085	-0.15655716
165	0xbdd34b6e	-0.103171214
166	0x3e8b655b	0.27225766
167	0xbe52d3b3	-0.2058857
168	0xbe1df00e	-0.15423605
169	0x3da5cea9	0.08096058
170	0x3cb7aabf	0.022420285
171	0x3de0c15e	0.10974382
172	0xbd2b03dd	-0.04175173
173	0xbdde300f	-0.1084901
174	0x3dd8d47e	0.10587405
175	0x3dcd64e8	0.10029012
176	0x3e955022	0.291627
177	0xbea461ca	-0.32105857
178	0x3d209f9e	0.039214723
179	0x3b6fa880	0.003656894
180	0xbe96ec2a	-0.29477054
181	0x3eb620c9	0.35571888
182	0x3d4c34ed	0.04985516
183	0x3ef65a14	0.481156
184	0xbebc4b4f	-0.36776206
185	0x3e4ffc48	0.20311081
186	0x3dca3943	0.09874203
187	0x3e8f22ca	0.2795623
188	0xbdd1bcc8	-0.10241085
189	0xbd41f0ab	-0.04734866
190	0xbc773d36	-0.015090277
191	0x3d59bd50	0.053159058
192	0x3df6c573	0.12049379
193	0x3de7cf7e	0.11318873
194	0xbc898c4b	-0.01679053
195	0x3d3d3717	0.046195116
196	0x3d366deb	0.04453842
197	0x3e353902	0.17697528
198	0xbc917a71	-0.01775858
199	0xbe59afdb	-0.2125849
200	0xbe4285e5	-0.18996389
201	0xbb53c883	-0.003231556
202	0xbe2f286a	-0.1710526
203	0xbc01c90d	-0.007921469
204	0x3ea10c60	0.31454754
205	0x3df0b8ed	0.11754022
206	0xbe5d876e	-0.21633694
207	0xbd4b070d	-0.04956727
208	0xbe9fa579	-0.31180933
209	0xbd22338f	-0.03959995
210	0x3df46343	0.11932995
211	0x3eb6330d	0.35585824
212	0x3e747fe9	0.23876919
213	0x3d0d176e	0.034446172
214	0xbd9c7661	-0.076397665
215	0x3db2cfb4	0.087310225
216	0xbdbd853c	-0.09253928
217	0xbecaad19	-0.39585188
218	0x3ac7cff6	0.0015244472
219	0xbe24b9cb	-0.160865
220	0xbd4912f1	-0.04909033
221	0xbd014b30	-0.031565845
222	0xbdc32d4d	-0.09530125
223	0x3dd88924	0.105730325
224	0x3e405958	0.18784082
225	0xbd819b4c	-0.06328449
226	0x3ce15073	0.027504181
227	0xbdb7e723	-0.08979633
228	0x3d5aa88b	0.05338339
229	0xbd07686c	-0.03305857
230	0xbdd8657b	-0.10566231
231	0x3e1402f2	0.14454249
232	0x3d7728d2	0.060341664
233	0xbe957857	-0.29193375
234	0xbd9f7fde	-0.077880606
235	0x3ca11272	0.019662116
236	0x3e4db487	0.20088397
237	0xbc8db8bd	-0.017300004
238	0x3e9a32a5	0.30116764
239	0x3ea2d5eb	0.3180383
240	0x3e8b88f0	0.27252913
241	0x3e3153e7	0.17317162
242	0x3e1b0097	0.15136944
243	0x3d965152	0.07339729
244	0x3d22d8c3	0.0397575
245	0x3e3a5e48	0.18200028
246	0xbc0a51ff	-0.008442401
247	0x3cd5c271	0.026093693
248	0xbe8cc4f7	-0.27494022
249	0xbe13909a	-0.1441063
250	0xbed9aeed	-0.4251627
251	0x3e9eba13	0.31001338
252	0xbe488b5b	-0.1958441
253	0xbe4de17f	-0.20105551
254	0x3ecbc3e3	0.39797887
255	0x3e317a69	0.17331852

actor_mean.0.bias f4 [64]
0	0xbda7ccf5	-0.08193389
1	0x3d844b7c	0.0645971
2	0xbc121ee2	-0.008918496
3	0xbb507982	-0.0031810706
4	0x3bf75d99	0.0075489995
5	0x3d0d11ff	0.03444099
6	0x3d1e691a	0.03867445
7	0xbd781f25	-0.060576577
8	0x3d974d81	0.073878296
9	0x3d7700e1	0.060303573
10	0xbc94c10f	-0.018158464
11	0xbd2f2999	-0.04276428
12	0x3cf507e9	0.029910998
13	0x3d2d8723	0.042365205
14	0x3dae0ff0	0.084991336
15	0x3cebd149	0.028786318
16	0xbce62e80	-0.028098345
17	0x3d4a3901	0.04937077
18	0x3c2b6b85	0.010462646
19	0x3ddf0fc4	0.10891679
20	0x3cacb1c1	0.021080853
21	0x3c0f441e	0.008744268
22	0x3deceab6	0.11568205
23	0xbd54231b	-0.05179129
24	0x3afea048	0.001942643
25	0x3df0ef79	0.11764426
26	0x3dd3cce7	0.103418164
27	0xbdb829b9	-0.08992333
28	0x3d8eb82c	0.06968722
29	0x3c135848	0.008993216
30	0xbd97302d	-0.07382236
31	0xbe1880fe	-0.14892957
32	0xb9eacc6f	-0.00044784273
33	0xbd449838	-0.04799673
34	0xbd334735	-0.04376908
35	0xbb00e2e7	-0.0019666494
36	0x3bc3d940	0.005976826
37	0xbe16b4cf	-0.1471741
38	0xbdd34998	-0.10316771
39	0x3d8a6562	0.067576185
40	0x3e274209	0.16333784
41	0xbd4f9e56	-0.05068811
42	0xbc1944f3	-0.009354818
43	0xbdc3a293	-0.09552493
44	0x3d575d38	0.052579135
45	0x3d186d94	0.037213877
46	0xbdb67dbf	-0.08910703
47	0x3db51491	0.08841813
48	0x3ce80ad9	0.028325485
49	0x3d6fb62e	0.05852335
50	0xbc8a6f11	-0.016898664
51	0x3d660c4f	0.056164082
52	0x3e3df52d	0.18550558
53	0xbd50eeb4	-0.051008895
54	0xbe078d08	-0.13237393
55	0xba6c2a14	-0.00090089557
56	0x3d032fd9	0.032028053
57	0xbe1f6931	-0.15567471
58	0x3c4e3045	0.012584751
59	0x3da3be96	0.07995336
60	0xbcee6d25	-0.029104779
61	0xbd7189fb	-0.05896948
62	0x3df7f415	0.12107102
63	0x3d986282	0.07440664

actor_mean.2.weight f4 [64, 64]
0	0xbe65d2aa	-0.22443643
1	0xbd0cff30	-0.034423053
2	0xbd17ba7f	-0.03704309
3	0xbe817039	-0.25280932
4	0xbe196bd9	-0.14982547
5	0xbb8cdf04	-0.0042990465
6	0xbd1c9436	-0.038227282
7	0x3e97d978	0.29658103
8	0xbe620d0e	-0.22075292
9	0xbe24ccfa	-0.16093817
10	0x3e411b86	0.18858156
11	0xbeeabec8	-0.4584868
12	0x3e3e074e	0.18557474
13	0xbeaeb6b7	-0.34123775
14	0xbd287ed1	-0.041136567
15	0xbd94b69c	-0.072613925
16	0xbea2c8e4	-0.31793892
17	0x3d5b6b1b	0.05356894
18	0xbdc2e8dd	-0.095170714
19	0x3f123e84	0.5712664
20	0x3e2dbae9	0.16965832
21	0x3d9afa4e	0.07567273
22	0x3f062498	0.5239959
23	0x3d9d1cc9	0.07671506
24	0x3da49257	0.080357246
25	0x3ebaae71	0.36461213
26	0x3f26e291	0.6518946
27	0xbdedce37	-0.11611598
28	0x3e8517a2	0.25994593
29	0xbdb68d3d	-0.08913658
30	0xbd436d2a	-0.04771153
31	0x3dc5ff81	0.09667874
32	0x3d367c1b	0.04455195
33	0x3e24d5a3	0.16097121
34	0xbf098fba	-0.53734934
35	0xbd8cfe0e	-0.068843946
36	0xbe13a4ca	-0.14418331
37	0x3c0c2519	0.008553767
38	0xbd0af1d2	-0.033922024
39	0xbe4a5c76	-0.19761834
40	0x3f051696	0.5198759
41	0x3de3f490	0.11130631
42	0x3ddf3c74	0.109002024
43	0x3cd1e5ef	0.025622336
44	0x3c7fa2f3	0.015602815
45	0xbddd3029	-0.108002014
46	0xbe034de2	-0.12822679
47	0xbe852f96	-0.26012868
48	0x3d317e10	0.043333113
49	0xbd119a91	-0.035547797
50	0xbd47e15f	-0.048798915
51	0x3e343c9f	0.1760125
52	0x3e5a9dd9	0.21349277
53	0xbd82fbaa	-0.06395657
54	0xbeb0df01	-0.34545138
55	0x3ec2b4c9	0.38028553
56	0x3da7f1ae	0.082003936
57	0x3e0ec0e5	0.13940771
58	0xbe5ddec0	-0.21667004
59	0xbe28dd4c	-0.16490668
60	0xbe0d9830	-0.13827586
61	0xbe38fba4	-0.18064743
62	0x3e58f082	0.21185496
63	0x3e9e1841	0.3087788
64	0x3d001615	0.03127106
65	0x3ea8de5d	0.3298215
66	0xbe664dc5	-0.22490604
67	0xbe122dc2	-0.14275268
68	0xbcd216b1	-0.025645586
69	0x3c15436c	0.009110313
70	0xbd507b08	-0.05089858
71	0x3de558b8	0.111985624
72	0xbdd7c3b4	-0.10535374
73	0xbec0726a	-0.3758729
74	0xbe5396f6	-0.20663056
75	0xbdaa1db7	-0.08306449
76	0xbe9e2b48	-0.30892396
77	0x3d4eed16	0.05051907
78	0x3e5e821d	0.21729322
79	0xbdf471ae	-0.11935745
80	0xbdb09c7f	-0.08623599
81	0xbe9255b6	-0.28581017
82	0x3b199c5e	0.002343915
83	0x3d718d8c	0.05897288
84	0xbde791e5	-0.11307124
85	0x3cae3338	0.021264657
86	0x3e73b8c0	0.23800945
87	0xbedb366d	-0.4281496
88	0xbe89cfeb	-0.2691644
89	0xbe82a93f	-0.2551975
90	0xbe2dadfa	-0.16960898
91	0xbe040055	-0.12890752
92	0xbe9b81d2	-0.30372483
93	0x3e9fc767	0.3120682
94	0x3dfee925	0.124468125
95	0xbdb304d2	-0.08741154
96	0x3eb6980b	0.35662875
97	0x3d310136	0.043214045
98	0x3cd80d2b	0.026373466
99	0x3d18c972	0.03730149
100	0xbdfd71c6	-0.12375216
101	0xbdfeb770	-0.12437332
102	0xbe368475	-0.17823966
103	0xbe0fe606	-0.1405259
104	0x3d7519e4	0.059839144
105	0x3e1f94b8	0.15584075
106	0xbe09c77e	-0.13455006
107	0x3da3f9fd	0.08006666
108	0xbe441672	-0.19149187
109	0x3e427ac9	0.18992151
110	0xbe0b2554	-0.13588458
111	0xbda30149	-0.079592295
112	0x3c05e302	0.008171799
113	0x3e8c56f0	0.27410078
114	0x3e7862a3	0.24256377
115	0x3d0aa3bd	0.03384756
116	0xbe86d490	-0.26334047
117	0x3b40c751	0.0029415677
118	0xbd5a2dd3	-0.053266358
119	0x3dd6e9fe	0.10493849
120	0x3cfc8bda	0.030828405
121	0x3e598c4c	0.21244925
122	0x3e030b98	0.12797391
123	0xbc118dbd	-0.008883891
124	0x3d96a5ed	0.073558666
125	0xbe7bf895	-0.24606545
126	0x3df17281	0.11789418
127	0xbe3f5f89	-0.18688788
128	0x3b29b159	0.002589306
129	0xbeab79f4	-0.3349148
130	0xbe9d30d1	-0.30701306
131	0x3ea0e551	0.31424955
132	0xbdb5469f	-0.088513605
133	0x3e0c1e7f	0.13683508
134	0x3d72e0c6	0.059296392
135	0xbe45ac54	-0.19304019
136	0x3edd2127	0.43189356
137	0xbe12409c	-0.14282459
138	0x3ea6ca88	0.32576394
139	0x3e2cf230	0.16889262
140	0x3c6f0c1f	0.014590292
141	0xbe1161bd	-0.1419744
142	0x3e3d4b36	0.18485722
143	0xbe835a03	-0.2565461
144	0x3e1a0840	0.1504221
145	0xbdf0d893	-0.11760058
146	0xbe47c309	-0.19507994
147	0xbd14f17c	-0.03636311
148	0xbdd2cf79	-0.102934785
149	0x3ddc7a20	0.10765481
150	0x3d9c813b	0.07641836
151	0x3e4e808d	0.20166226
152	0xbdc0fc43	-0.09423115
153	0x3e901310	0.28139544
154	0x3ead98a7	0.33905527
155	0xbb0ea2fc	-0.0021764627
156	0x3e10b5cc	0.1413185
157	0x3de9f0d5	0.11422888
158	0x3e28040c	0.16407794
159	0xbd8528fa	-0.06501956
160	0x3d6f0f94	0.058364466
161	0x3ec900ea	0.3925851
162	0x3dacb2cb	0.084325396
163	0xbd9a62f7	-0.07538407
164	0x3e45bb67	0.1930977
165	0x3e12f41f	0.14350937
166	0x3c901262	0.01758689
167	0x3de30584	0.110850364
168	0xbea40701	-0.32036594
169	0x3e352a06	0.17691812
170	0xbbc36a3c	-0.005963592
171	0x3e0b040a	0.1357576
172	0xbd8409cd	-0.06447182
173	0xbdc7ea01	-0.097614296
174	0xbc31eda7	-0.010859883
175	0x3dc272c4	0.09494546
176	0xbeae2a65	-0.3401672
177	0xbdb03cd8	-0.08605355
178	0x3e424918	0.18973196
179	0x3e0ef10b	0.13959138
180	0xbd674c3d	-0.05646919
181	0xbcf1c4ba	-0.029512752
182	0x3de21578	0.11039251
183	0x3e9a4346	0.3012945
184	0x3d041ec5	0.032255907
185	0x3b0441e1	0.0020180868
186	0xbe060385	-0.1308728
187	0x3cf136c6	0.029445063
188	0xbe539c7b	-0.20665161
189	0xbbbf036a	-0.0058292644
190	0xbe6fc712	-0.23415783
191	0xbe756c9e	-0.23967215
192	0xbe11abc6	-0.14225683
193	0xbd7a0dac	-0.061048195
194	0x3c2fb2cc	0.010723781
195	0xbd5ae7da	-0.053443767
196	0xbdc1e2b8	-0.09467071
197	0x3e6ce76d	0.23135157
198	0x3e3996d7	0.18123947
199	0x3d2750e6	0.040848635
200	0xbd254153	-0.0403455
201	0xbe650228	-0.22364104
202	0xbe968d30	-0.29404593
203	0xbd4c6ae9	-0.049906645
204	0x3d749cb3	0.059719753
205	0x3e606a2c	0.21915501
206	0xbe2a850b	-0.16652314
207	0x3c2e2331	0.0106285075
208	0xbe8330cf	-0.25623176
209	0xbe01f4a1	-0.12690975
210	0x3e2be2c6	0.16785726
211	0xbe38504e	-0.17999384
212	0xbe1f5552	-0.15559891
213	0x3a9a1641	0.00117559
214	0xbce870a3	-0.028374022
215	0xbbe99f88	-0.0071296133
216	0x3e58d70d	0.21175785
217	0x3e40af06	0.18816766
218	0x3e6305b6	0.22170147
219	0x3e8cd9da	0.27509958
220	0xbda2ac37	-0.079430036
221	0xbd457985	-0.048211593
222	0x3c242db4	0.010020662
223	0xbd704e9d	-0.05866872
224	0xbe017b28	-0.12644637
225	0xbc8f762f	-0.017512409
226	0x3def8dbc	0.116969556
227	0x3c4a2c2a	0.012339631
228	0x3e007a41	0.12546636
229	0xbe5f9854	-0.21835452
230	0xbe3b0819	-0.18264808
231	0xbef31ccd	-0.4748291
232	0x3c6a9688	0.014318116
233	0xbe77b49a	-0.24189988
234	0xbe51a03f	-0.20471285
235	0x3ea5c34f	0.3237557
236	0x3e1778df	0.14792202
237	0x3e77137d	0.24128528
238	0xbecd59fe	-0.4010772
239	0x3e83ee1c	0.257676
240	0xbca20e51	-0.019782217
241	0x3dac30ca	0.08407743
242	0xbd8f8ab7	-0.0700888
243	0xbeb3f9c7	-0.35151502
244	0x3d6d1e26	0.05789008
245	0xbe5dbfff	-0.21655272
246	0xbddf4ae0	-0.10902953
247	0x3e65483b	0.22390835
248	0x3e0d6591	0.13808276
249	0xbeed59d4	-0.46357596
250	0xbd5acdde	-0.053418986
251	0x3ea3135c	0.31850708
252	0xbe3993b1	-0.18122746
253	0xbe844fa3	-0.25842008
254	0x3e848a14	0.25886595
255	0xbe596c6a	-0.21232763

actor_mean.2.bias f4 [64]
0	0x3e2673b7	0.16255079
1	0x3b1b3b4c	0.0023686467
2	0xbd00a27a	-0.03140495
3	0x3d1a0099	0.037598226
4	0x3b79d949	0.0038123897
5	0xbd54ee89	-0.051985297
6	0x3b788571	0.0037921334
7	0x3d588f49	0.052871022
8	0xbc4f9a18	-0.012671016
9	0xbcd6d856	-0.026226204
10	0xbcc191ea	-0.023629148
11	0xbcac207d	-0.021011585
12	0x3db6d168	0.0892666
13	0xbd1155af	-0.035482105
14	0x3da89ec0	0.08233404
15	0x3d4fa539	0.050694678
16	0x3c88a799	0.01668148
17	0xbd6fc887	-0.058540847
18	0x3dbe0db6	0.09279959
19	0x3cfd11ce	0.030892279
20	0x3cb6b25b	0.022301843
21	0x3deaf811	0.11473096
22	0x3c331006	0.010929113
23	0xbd9b308a	-0.075776175
24	0xbc87ecd4	-0.01659242
25	0xbdc04ec1	-0.09390021
26	0xbdc98cc8	-0.09841305
27	0x3c2a3317	0.010388157
28	0xbc32400a	-0.010879526
29	0xbd48df01	-0.049040798
30	0xbd0bfb11	-0.034174982
31	0x3cca0ca6	0.024664234
32	0x3d211335	0.039324958
33	0x3d769d5a	0.060208656
34	0xbcafef7d	-0.021476502
35	0xbc857efa	-0.016295899
36	0xbc2cd6bd	-0.0105492445
37	0xbdc0dca4	-0.09417084
38	0x3cf6f310	0.030145198
39	0x3db3e05c	0.087830275
40	0xbd69c89c	-0.05707608
41	0xbc10e04c	-0.008842539
42	0xbd908564	-0.07056692
43	0xbd843763	-0.06455877
44	0xbdaf4816	-0.08558671
45	0xbd85b55c	-0.06528732
46	0x3cd1e5db	0.025622299
47	0xbce24169	-0.02761908
48	0x3a2a75e3	0.0006502552
49	0xbbc386fd	-0.0059670196
50	0xbd7d75d0	-0.061879933
51	0xbcb9c53b	-0.022677055
52	0xbc3055a5	-0.010762607
53	0x3dcb9780	0.09941006
54	0xbd148206	-0.036256813
55	0xbde93a7f	-0.1138811
56	0x3d3296a9	0.043600712
57	0x3d677e2c	0.05651681
58	0xbcbc126b	-0.022958001
59	0x3d9c8e77	0.076443605
60	0x3d7a4a79	0.06110618
61	0xbd690017	-0.05688485
62	0xbde6c3cc	-0.11267814
63	0x3c47615b	0.012169207

actor_mean.4.weight f4 [2, 64]
0	0xbe1ecc23	-0.1550756
1	0x3c29389c	0.010328438
2	0xbd73ef55	-0.059554417
3	0x3a8b5a5c	0.0010631788
4	0xbdd57c21	-0.10424066
5	0x3d7db054	0.061935738
6	0xbc878561	-0.016543092
7	0x3d99843b	0.07495924
8	0xbda7c38e	-0.08191596
9	0x3d99977a	0.07499595
10	0x3dbed54e	0.093180284
11	0x3c87b0de	0.016563829
12	0x3c9c5c56	0.019086998
13	0x3ca4f053	0.020134127
14	0xbc9e3625	-0.019312927
15	0xbe29e4f4	-0.16591245
16	0xbd5c89f9	-0.05384252
17	0xbbe9d4c5	-0.00713596
18	0x3d52e6ac	0.051489517
19	0x3db9d017	0.09072893
20	0xbd9b92b1	-0.075963385
21	0xbcb926e4	-0.022601552
22	0xbdb01596	-0.08597867
23	0x3dc59dcf	0.0964924
24	0x3d1faa52	0.03898079
25	0xbdf04f5d	-0.11733887
26	0xbdeb1834	-0.11479226
27	0xbcd3d9b3	-0.025860643
28	0x3d570f2c	0.052504703
29	0x3c9c6cc1	0.019094827
30	0x3d21eeeb	0.03953449
31	0xbdb2e79a	-0.08735581
32	0xbcc07618	-0.023493811
33	0xbbd9b7a7	-0.0066442075
34	0xbd37e982	-0.044900425
35	0xbc3c2256	-0.011482796
36	0xbd4f99b5	-0.050683696
37	0xbd0aaa48	-0.0338538
38	0xbd426f8b	-0.047469657
39	0xbc2a5983	-0.010397318
40	0x3cd3571d	0.025798375
41	0xbd812f45	-0.06307844
42	0xbd4e0310	-0.05029589
43	0x3ddf668a	0.1090823
44	0xbccc273a	-0.024921048
45	0xbbfb0fd1	-0.0076617976
46	0xbc5f1b92	-0.013617413
47	0x3d26cdc9	0.040723596
48	0xbdadbc80	-0.08483219
49	0xbdcd17f4	-0.10014334
50	0x3db39bd0	0.08769953
51	0x3d8f54fa	0.0699863
52	0xbcf0a2b7	-0.029374463
53	0x3c9dc6bc	0.019259803
54	0xbdb758bf	-0.08952474
55	0xbdb05345	-0.086096324
56	0xbd3d116f	-0.046159204
57	0xbd47fd77	-0.048825707
58	0x3d35f34e	0.044421487
59	0x3d23fc97	0.04003581
60	0x3d4d4666	0.050115965
61	0xbd1d6a7e	-0.038431637
62	0xbd236069	-0.039886866
63	0xbd15621a	-0.03647051
64	0xbd8aeb90	-0.06783211
65	0xbd3cde68	-0.04611054
66	0x3d081795	0.033225615
67	0x3d7bd838	0.0614855
68	0x3bd4f37f	0.0064987536
69	0x3c9a8350	0.018861443
70	0xbcdea74b	-0.02717938
71	0x3c995d89	0.018721359
72	0xbd2500f7	-0.040284123
73	0x3cc1c3e4	0.023652978
74	0xbc8ba049	-0.017044203
75	0x3db7dff4	0.089782625
76	0x3d8e64fa	0.069528535
77	0xbd0070d6	-0.03135761
78	0x3d946870	0.07246482
79	0xbdf6f9b7	-0.12059348
80	0x3bb99165	0.0056630843
81	0x3d75b91c	0.059990987
82	0x3cced30d	0.025247121
83	0xbd3c691f	-0.04599869
84	0x3c4d5f25	0.012534891
85	0xbd90455f	-0.070444815
86	0xbd85da48	-0.065357745
87	0xbc0f277e	-0.008737443
88	0xbd83f8c4	-0.06443933
89	0xbcd5caaa	-0.026097614
90	0x3dcaf8ca	0.09910734
91	0x3b4190e1	0.0029535817
92	0x3c937533	0.01800022
93	0xbd9f894e	-0.07789861
94	0xbda690fe	-0.08133124
95	0xbd246861	-0.040138606
96	0x3d8e2c7d	0.06942079
97	0xbd9b152e	-0.07572399
98	0x3c1ddb91	0.009634868
99	0x3da76a87	0.08174615
100	0xbcd05228	-0.0254298
101	0xbd4f5596	-0.05061873
102	0xbc364af7	-0.011126271
103	0x3d814a31	0.06312979
104	0x3dff73db	0.124732696
105	0x3c900f82	0.01758552
106	0xbdf7b7aa	-0.12095578
107	0xbb9899ee	-0.0046570217
108	0x3e1212bf	0.14264964
109	0xbdfb915b	-0.12283584
110	0xbdffaac0	-0.1248374
111	0xbd64862b	-0.055792015
112	0x3d7ed762	0.062217124
113	0x3c58fef6	0.013244381
114	0x3ccf68f8	0.025318608
115	0x3d71fc36	0.059078418
116	0x3d4b7832	0.049675174
117	0xbd1e0df4	-0.038587525
118	0x3d44fc56	0.04809221
119	0xbcc0ba03	-0.023526197
120	0x3d43a9b7	0.047769275
121	0x3ca301ad	0.01989826
122	0xbd3d9081	-0.046280388
123	0xbccc5cdc	-0.024946623
124	0xbc7ce70d	-0.015435946
125	0xbd7341b6	-0.05938884
126	0xbd543231	-0.05180568
127	0x3c5be02a	0.013420144

actor_mean.4.bias f4 [2]
0	0x3caf8419	0.021425294
1	0xbd40010f	-0.04687601
