jsbgym/models/train_saves/ppo_capsnosspa_ts3e-2_75393_10-01_23:07:39.pt (torch, 58827 bytes, 14 tensors)

actor_logstd f4 [1, 2]
000000 0e af d7 bd 68 e9 f6 bd
       -0.10531436 -0.120562375

conv.0.weight f4 [3, 1, 5, 1]
000000 f4 99 f9 be c9 5e 13 bf 3c 07 b3 3e bd 15 33 bf
       -0.4875027 -0.57566506 0.34966457 -0.69955045
000010 9c 8a 1c 3f f3 cb 6c bc f9 9e 04 3e 2c 9c b0 be
       0.61149 -0.014452922 0.12951268 -0.3449415
000020 38 44 94 3e ff 1c 5e 3f a2 f6 6f bc dc 11 63 be
       0.28958297 0.86762995 -0.014646204 -0.22174782
000030 19 38 6f bf c7 fc 15 3d 01 c9 09 be
       -0.93444973 0.03661802 -0.13455583

conv.0.bias f4 [3]
000000 e6 72 35 bc 66 30 4a 3e 87 97 06 3e
       -0.011074757 0.19745025 0.1314374

critic.0.weight f4 [64, 36]
000000 e6 65 36 be ed d1 b0 be 90 b9 ab be 2f d8 c6 3e
       -0.17812309 -0.3453516 -0.3354001 0.3883681
000010 32 5e e8 bc 3d 12 7f 3d 28 2f 4e bf d6 84 99 be
       -0.028365228 0.062273253 -0.80540705 -0.29984158
000020 3e 5c 15 3b a2 5e b6 bd 67 64 00 bd d4 5f fc 3d
       0.0022790576 -0.089047685 -0.03134575 0.12322965
000030 c2 d8 10 be 2f 5b 5c 3e c6 c6 b0 3e 9e 51 c5 bd
       -0.14145187 0.21519159 0.34526652 -0.09634708
000040 b1 18 4f be 8d b0 39 be 7f cc 0c 3e bf a0 bc 3e
       -0.20224263 -0.18133755 0.13749884 0.3684139
000050 5b f4 bb 3d 6d 44 e9 bc 57 4c 8a be 7a 6f 80 3d
       0.091774665 -0.02847501 -0.27011368 0.062712625
000060 72 cc 59 3e e1 aa 86 3e c1 76 d3 3d d9 51 ac 3a
       0.21269396 0.26302245 0.10325385 0.0013146951
000070 2f 30 ef bd e6 0c 0e 3e e3 c7 f6 be 7e 39 14 be
       -0.11679112 0.13872108 -0.48199376 -0.14475057
000080 44 97 73 bc 3d 87 09 be 89 58 85 bd 3e 10 9f bc
       -0.0148676075 -0.13430496 -0.06511027 -0.019416925
000090 3f 95 a4 3d 62 a9 7e be bc d8 9c be 30 55 6c be
       0.08036279 -0.24869302 -0.30634105 -0.23079371
0000a0 68 78 9f bd d3 24 2c bc 36 a2 f4 3d 66 42 25 3e
       -0.077866375 -0.010506826 0.11945002 0.1613861
0000b0 2c 4f a1 3d 62 50 f3 bd 2f 37 94 3d df 94 90 3d
       0.07876429 -0.11880566 0.07237088 0.07059645
0000c0 be f0 28 bc 3c 4f 31 be 25 e4 41 3e 79 c9 a2 bd
       -0.010311304 -0.17315382 0.18934686 -0.07948584
0000d0 b1 fb ba 3d 52 86 0e be 44 2c 0a be e1 b4 96 3d
       0.091300376 -0.13918427 -0.13493448 0.07358719
0000e0 63 51 f5 3d 65 23 f9 3d b5 29 a5 bd 3d b2 55 bd
       0.11978414 0.12164954 -0.080645956 -0.052171934
0000f0 62 19 35 3e 41 d1 01 3e 88 2c 08 bd 32 0c b9 3d
       0.17685464 0.1267748 -0.033245593 0.09035529
000100 19 c5 00 3e 70 f5 0a be cc d3 5a bd ed 2d 43 be
       0.12575187 -0.1357019 -0.05342464 -0.19060488
000110 fa 48 96 be 53 2c 53 bd c1 09 47 bd fb d3 38 bd
       -0.29352552 -0.051555943 -0.048593286 -0.045124035
000120 b4 c0 a1 3c 31 3d 55 3e cb 4e 21 be 37 e2 15 bc
       0.019745208 0.20824124 -0.15752713 -0.009148172
000130 aa 18 e7 bd 49 04 3d 3e e0 5a e1 3c 08 90 8b bd
       -0.11284001 0.18458666 0.027509153 -0.06814581
000140 c2 84 17 3e 32 43 bd 3e 87 68 7f 3d a3 24 84 bb
       0.14796737 0.36965328 0.062355544 -0.0040326877
000150 c2 dc f6 bd 2c 08 ec 3d 02 f2 b0 3e d5 a3 3b 3d
       -0.12053825 0.11524996 0.34559637 0.04581054
000160 f6 92 89 bd 50 c1 2b bc 7b 81 8e bc 0d 19 e2 be
       -0.06717484 -0.010483101 -0.017395725 -0.44159737
000170 5f 9c ad bd fb d1 34 3d 42 31 d6 bd 3e 74 81 bc
       -0.08477091 0.044145565 -0.10458614 -0.015802499
000180 3e b7 e3 bd 68 c8 94 bd 20 7d 3b 3d ac e4 69 be
       -0.11118935 -0.07264787 0.045773625 -0.22841138
000190 38 df 93 bc ec 17 e3 3c c9 7f 1a 3d 9f 11 82 bb
       -0.018050775 0.027721368 0.03771952 -0.0039693858
0001a0 c7 07 4f 3d 90 58 95 3d c9 f6 97 be 36 2f 4c 3d
       0.050544526 0.072922826 -0.2968047 0.04984971
0001b0 fc 26 8e be da 99 95 3e db fc cd bd c7 65 20 bd
       -0.27764118 0.29218942 -0.10057994 -0.039159562
0001c0 f3 37 43 bd 92 7f f1 bd d4 ee d8 be 13 23 0f 3e
       -0.04766078 -0.1179191 -0.4236971 0.13978224
0001d0 0a 2f ef bd cc 2e 43 be 4c 51 bf 3d 5b 61 50 3e
       -0.11678894 -0.1906082 0.09341678 0.20349638
0001e0 f7 41 e3 be 7c 33 50 bd a9 e4 c7 3e 77 b1 8f be
       -0.44386265 -0.05083035 0.3904164 -0.28065082
0001f0 d6 89 89 bb cd fd 30 3e 4d 64 a6 3d de bf 90 3c
       -0.0041973395 0.17284317 0.081245996 0.017669614
000200 2b ca 38 bc 40 d7 4c 3e 98 3b 1a 3e 04 5e ee be
       -0.011278669 0.20003986 0.15061796 -0.46556103
000210 81 31 6c bc 18 59 10 3e 1c f2 0b be 6f a0 55 bd
       -0.0144160995 0.14096487 -0.13666576 -0.052154955
000220 f4 c7 d0 3d 9b a2 8c bd eb 36 78 3e f6 45 76 be
       0.10194388 -0.06866952 0.242397 -0.24050125
000230 12 d7 d5 bd f2 e9 3f 3d b4 12 c1 3d c3 06 86 bd
       -0.10441412 0.046853967 0.094273955 -0.065442584
000240 07 87 dc 3b b8 80 6d be 56 73 04 be 39 29 32 be
       0.0067299637 -0.23193634 -0.12934622 -0.17398538
000250 e3 24 65 bd 17 d0 97 3e f6 56 c7 3c 74 01 9d be
       -0.05594338 0.29650947 0.024333458 -0.3066517
000260 e3 08 55 3e 92 6f 9d 3d df 4b 89 bd 60 56 ef 3b
       0.20804171 0.07687296 -0.067039244 0.007303998
000270 fb d3 23 3d 55 92 0a 3e 02 0d ae bc a7 95 a7 be
       0.039997082 0.13532384 -0.021246437 -0.32731363
000280 d4 49 1d bc 0b 9d c5 3d 26 7d 8e 3d 9d 90 94 3e
       -0.0096001215 0.09649094 0.06957464 0.2901658
000290 a6 5e c9 be a0 0b aa be 08 46 1b 3e 30 49 a3 bc
       -0.39330024 -0.33211994 0.15163434 -0.01993236
0002a0 88 fd 6e 3e a4 fb 74 3e 30 50 9f be ab 33 d2 bd
       0.23338902 0.23924118 -0.31115866 -0.10263761
0002b0 f8 70 55 bd b9 49 28 be 3c 92 e5 3c 48 09 1d be
       -0.05210969 -0.16434373 0.028023832 -0.15335572
0002c0 29 e2 ce bd aa cb 64 3d 7d fd 6b 3e c6 11 2d 3d
       -0.101017304 0.05585829 0.23045917 0.04225328
0002d0 63 10 66 bd 06 38 1b be d5 d8 64 bd 7e 7e 81 3e
       -0.05616797 -0.1515809 -0.05587085 0.25291818
0002e0 da 06 60 3d ef 56 9f be 0c ac e0 3e bc e9 9c bd
       0.054694034 -0.31121013 0.4388126 -0.07661769
0002f0 96 1c 36 3e 4f 4f 56 be 7f 44 b9 bc 9d d9 7d bd
       0.17784342 -0.20928691 -0.02261567 -0.06197511
000300 00 4c cd 3d b0 a3 8b 3e c6 2c 8a 3e 38 8c 51 be
       0.100242615 0.2727332 0.26987284 -0.20463645
000310 d2 3d 24 3d 3c 0f 86 bc 6c 99 93 3e 25 07 ac be
       0.04009802 -0.016364686 0.2882799 -0.335992
000320 3e 3d c6 ba c7 03 1f be d1 ca 72 3a b6 06 a8 bb
       -0.0015124453 -0.15528785 0.00092617894 -0.005127753
000330 f5 7d 58 3e d4 7f 2e 3e a4 e1 f2 bd 74 a0 3e be
       0.21141799 0.1704095 -0.11859444 -0.18615896
000340 29 68 0d be 2f 25 d3 3d ad 4f b9 3d 3a 09 18 3f
       -0.13809265 0.103098266 0.090484 0.5938908
000350 79 17 5d bd 68 b8 72 3d 82 41 4b 3a 6b e2 dd 3d
       -0.053977463 0.059257895 0.0007753597 0.108342014
000360 81 6e a3 bd 95 2d 05 3d ba 07 9b 3c 94 8e da 3d
       -0.07980061 0.032514174 0.018924583 0.10671726
000370 2c 7d af bd 16 33 c6 bd ca 05 61 3e 34 b4 c0 3e
       -0.085687965 -0.096777126 0.21974865 0.37637484
000380 89 64 7b 3e 19 bd 15 3e d8 9e e1 3d 4b a9 c1 3d
       0.2455007 0.14622916 0.11016625 0.09456118
000390 af b6 fc bd 3c 01 44 be 96 ce 3d be 50 dd 89 be
       -0.12339532 -0.19141096 -0.18535838 -0.2692666
0003a0 de b6 a2 be 9d 57 c1 3c d6 88 28 be d7 f3 60 3e
       -0.31780142 0.023601348 -0.16458449 0.21968018
0003b0 26 34 41 be a6 d7 9a 3e 8f 68 50 bd 28 df 9b 3d
       -0.1886755 0.30242652 -0.050880965 0.07610923
0003c0 8a fe b5 3d 0a 35 83 be d5 2a be bc 45 47 f9 3c
       0.0888644 -0.25626403 -0.023213783 0.030429492
0003d0 32 21 94 bd 53 d7 6c bb 8d f5 09 3e bc fc b1 be
       -0.07232894 -0.0036139085 0.13472576 -0.34763134
0003e0 62 4d 10 be e9 e6 4f 3c c4 78 d1 3c 8b b6 6a bd
       -0.14092019 0.012689331 0.02557028 -0.057302993
0003f0 48 70 8a be 11 cc 4e 3e fc da e9 3d 49 69 52 3d
       -0.2703879 0.20195033 0.11418721 0.05136994

critic.0.bias f4 [64]
000000 2d 90 cc 3d 21 2d c9 3d 56 fb 03 3d 4c e5 7c 3d
       0.09988437 0.09823061 0.032222115 0.061742112
000010 88 1a 88 3d 48 99 44 bc c5 4b 8e bd 1c a2 74 3c
       0.066456854 -0.011999436 -0.06948046 0.014931228
000020 d5 3a 8a 3d 3a cb fc 3c 5f 0c ab 3d 14 a4 7e 3d
       0.067495026 0.030858625 0.08351969 0.062168196
000030 d9 30 d6 3b e6 78 2b bd d4 b7 14 3c 2f a7 be 3d
       0.006536585 -0.041863345 0.009077031 0.093092315
000040 10 58 8b bd 0a e1 b5 bc 11 65 8f bd 88 88 10 bd
       -0.06803906 -0.022202034 -0.07001699 -0.035286456
000050 b8 83 32 be 16 3b bd 3d 08 76 86 bc 17 06 25 bd
       -0.17433059 0.092397854 -0.016413704 -0.04028901
000060 8d 62 16 3d cb cd a3 3d b6 60 d4 3b 84 4e 16 3d
       0.03671508 0.07998236 0.0064812554 0.036695972
000070 e5 a1 e1 3d d1 4b e7 ba b1 db 21 bb 18 ae ca bd
       0.11017207 -0.0017646496 -0.0024697597 -0.09896487
000080 cb a5 12 3d 31 02 2a 3d b4 06 81 3c 6a 49 27 3d
       0.035802644 0.041505996 0.015750267 0.040841497
000090 97 98 c2 3a ae 7d e4 bc 18 38 f7 bc ce 24 12 bd
       0.0014846501 -0.02789196 -0.030178115 -0.03567963
0000a0 ee 14 ca 3a 1f 02 9c bd 42 9a 56 3e 2a cc 19 3c
       0.0015417614 -0.07617592 0.20957282 0.009387055
0000b0 b4 2b 9f 3d 6c 89 a3 3c 43 86 e5 39 e2 10 01 3d
       0.077720076 0.019962989 0.00043778316 0.03151024
0000c0 50 e6 00 bd 48 9c b0 bc 88 93 da 3d be 76 1a 3c
       -0.031469643 -0.021558896 0.106726706 0.009427724
0000d0 db db 13 be 1b b7 18 3d be 56 b2 bd b6 0c 0d bd
       -0.14439337 0.037283998 -0.08707951 -0.03443595
0000e0 4b 6e 08 bd ad bf 74 3d bf 81 92 bd 11 59 6b 3d
       -0.03330831 0.05975311 -0.07153653 0.057457987
0000f0 a4 04 02 be 68 6b 36 bd 09 83 8e 3b b8 f4 03 3d
       -0.12697083 -0.044536024 0.0043491167 0.032215804

critic.2.weight f4 [64, 64]
000000 11 e9 e7 3d ed 1c 51 3e 5d e7 76 bd 67 3e 35 bd
       0.11323751 0.2042119 -0.06027924 -0.044248965
000010 d9 de 46 3e e1 36 40 3e 62 df b5 3d c0 e4 c5 3b
       0.19420947 0.18770935 0.088804975 0.006039232
000020 9e 69 90 bb a7 c7 cb 3d 18 6d 1b 3e f9 7a 79 3e
       -0.004407122 0.0995019 0.15178335 0.24363317
000030 c7 d3 98 3e de 85 91 bd c8 c7 0a 3e 52 68 99 3c
       0.29849073 -0.07105611 0.13552773 0.018726502
000040 85 2f de bd be a0 04 3e 77 f0 c1 3d f0 1d 5b be
       -0.108489074 0.12951943 0.09469693 -0.21398139
000050 5d 0e 5d be 65 ac aa bd 92 a4 9a 3e 40 7f de 3d
       -0.2158751 -0.08333663 0.30203682 0.10864115
000060 70 e9 b7 3e 56 68 39 3c f1 db 3f be 7c 75 98 bd
       0.35920286 0.0113163795 -0.18736245 -0.07444283
000070 7d 03 00 3d c5 59 44 bd 25 e3 03 bd aa bf cb be
       0.031253327 -0.047937173 -0.032199044 -0.39794666
000080 79 ea 0c 3e e3 ee 7e 3e 6e c8 f6 3d 1f 5a 2f be
       0.13761319 0.24895816 0.12049948 -0.17124222
000090 cb a0 38 3e 56 f0 87 be 26 b7 7c bd 71 91 a2 be
       0.18030088 -0.2655055 -0.0616981 -0.31751588
0000a0 ff c5 4c be 23 87 b3 bc 8d 0c 04 be 5a 16 6d bc
       -0.19997405 -0.021915024 -0.12895413 -0.014470661
0000b0 51 a4 fe bc 68 f5 36 3d c6 6c 2b bd e6 1d a3 3e
       -0.031084212 0.04466763 -0.04185178 0.31858748
0000c0 92 f1 83 3e 7e 91 1a 3d 8e 19 49 3d ca 07 dc 3d
       0.2577024 0.03773641 0.049096636 0.10743673
0000d0 5f d6 b4 bd 1d 7e 08 be 2a 0b b2 be 81 3a f0 bd
       -0.088299505 -0.13329358 -0.34774143 -0.11729909
0000e0 ed 3a 8b 3d 17 3a 5b be 69 76 5c be 15 4e f4 be
       0.067983486 -0.21408878 -0.21529545 -0.47715822
0000f0 dc 72 9d bd f2 7e f0 bc 1a fe 75 bd 9c 70 ca bd
       -0.07687923 -0.029357407 -0.060056783 -0.0988476
000100 33 1d 64 3e 31 fc 3e 3d 9f dc a5 3e 61 cf b4 bd
       0.22276764 0.046627227 0.32394883 -0.08828617
000110 34 21 29 be 4e dd f7 bd ad 16 c1 bc 21 61 a9 bd
       -0.16516572 -0.121027574 -0.023570383 -0.08270479
000120 cb 30 9d 3e 1a 6a 5c be f6 11 d6 bd e8 cb 8c bc
       0.3070129 -0.2152485 -0.104526445 -0.017187074
000130 0b bc 85 3e 2b fa da 3d 50 fe 34 3e bb 30 5b 3e
       0.26120028 0.10692247 0.17675138 0.21405308
000140 b5 4e d9 bd dc c8 81 3d b3 7a d5 3e 5c 94 0c be
       -0.10610715 0.06337139 0.41695175 -0.1372847
000150 d7 10 61 3d 85 c8 21 be 1d 24 91 3e 61 f1 43 bd
       0.0549477 -0.15799148 0.28347865 -0.04783762
000160 c1 0b 39 3e 7d ab bc 3e 4a 79 03 3f f8 1b 8d be
       0.1807089 0.36849585 0.5135695 -0.275604
000170 84 26 53 be 91 67 b7 bb 5d 8e 9e 3d 0c 42 81 3a
       -0.20620161 -0.005597063 0.077419974 0.0009861602
000180 d6 54 0d bc 42 74 a2 bd 7a c6 2e 3e 88 56 3a 3d
       -0.0086261835 -0.07932331 0.170679 0.04549268
000190 a6 96 3b be 35 94 9e be 73 fc 8f 3d 80 a5 fb 3d
       -0.18319187 -0.30972448 0.07030573 0.12287426
0001a0 12 da d9 3c 67 e4 09 be 8c b5 e4 3b 17 9b 92 3e
       0.026593242 -0.13466035 0.00697965 0.2863395
0001b0 8c 8f 04 3d f4 8d 17 bc 8c 9b a6 3e 7b 7c 3a 3e
       0.03236346 -0.009250153 0.32540548 0.18211548
0001c0 a6 8c bb 3d 20 84 6e be e0 f5 12 3e f3 58 98 3b
       0.09157686 -0.23292589 0.14351606 0.0046492754
0001d0 59 b3 24 be 59 eb b4 3e 97 83 77 3d 7b ce dc bd
       -0.1608404 0.35335806 0.06042823 -0.107815705
0001e0 ff 2d d0 bd a0 7f 88 be 3d c8 a8 3d a4 42 72 3e
       -0.10165023 -0.2665987 0.082413174 0.23658234
0001f0 b0 b8 ac bc f7 1b 32 3e 6a ae b5 3d 7e 22 f7 3d
       -0.02108416 0.1739348 0.088711575 0.12067126
000200 28 f5 83 be 10 3e fd 3d 00 02 52 3e a2 cd 50 3d
       -0.25772977 0.12365353 0.20508575 0.050977357
000210 08 82 a2 bd 83 65 17 3e 19 ca 28 3e 06 e8 f5 3d
       -0.07934958 0.14784817 0.16483344 0.120071456
000220 1b 48 63 3e 48 38 5a be 08 34 82 bd bd 22 e9 bd
       0.22195475 -0.21310532 -0.063575804 -0.11383579
000230 e1 7f b6 3d b9 bc 1f be 11 c2 68 be 09 2c 1a 3d
       0.0891111 -0.15599336 -0.2273028 0.03763965
000240 b3 1d 45 3e 69 89 0c be a0 15 67 be f6 c4 b0 bc
       0.1924961 -0.13724293 -0.22566843 -0.021578293
000250 3c f7 50 be 2b 84 49 3e 65 7c 5c 3d 37 2a 91 bd
       -0.20406812 0.19679324 0.05382957 -0.0708813
000260 b4 72 5f be 37 1c bf 3d 27 34 b8 3d b8 48 64 3d
       -0.218211 0.093315534 0.08994322 0.055733413
000270 af 5f 38 3e 49 0e 57 3e f8 77 4a 3d 72 f7 25 3e
       0.1800525 0.21001543 0.049430817 0.16207674
000280 73 bd 61 be c7 5f 4a bd 52 ea 86 3e cb 1b ac 3e
       -0.22044925 -0.049407747 0.26350647 0.33614954
000290 9e df 9e 3e fe fc 98 bd ad 4c a8 3d 2e 69 25 be
       0.3102998 -0.074701294 0.0821775 -0.16153404
0002a0 f1 e4 09 bc 51 4a 2f bc b7 d9 dd 3c 2b ac 76 3e
       -0.0084164 -0.010698871 0.027081354 0.24089114
0002b0 19 fb 76 3e 36 05 e4 3b 5a e1 3a be cc 99 03 3e
       0.24119224 0.006958629 -0.18250027 0.12851638
0002c0 62 f4 25 3e 19 13 b1 bd c8 b4 9f 3d 93 4e 46 3e
       0.16206506 -0.08646221 0.07798153 0.19365911
0002d0 74 76 01 3f 01 60 d3 3d c4 73 c9 bd 62 a1 f5 3d
       0.5057137 0.10321046 -0.09836534 0.11993672
0002e0 60 a0 6c be a9 f7 a9 b9 59 5a 4a be 4a 77 21 be
       -0.23108053 -0.00032418713 -0.19761027 -0.15768161
0002f0 02 5e 97 be 63 ce 3e 3e 79 25 be bd ae 61 93 bd
       -0.2956391 0.18633418 -0.09284491 -0.07196365
000300 23 72 81 3d 3c 0d 81 3e 8b 13 86 3e d2 ed ca 3d
       0.06320598 0.2520541 0.26186785 0.09908642
000310 17 7c 9e 3d 0b b2 6f bc 4a 43 e1 3d c2 ad cc 3d
       0.07738512 -0.014629851 0.109991625 0.09994079
000320 6e 24 2b be dc 5d 8e 3e 60 cf 5e be 71 ed ce bd
       -0.16713116 0.27805984 -0.21758795 -0.10103882
000330 99 08 45 bd 8e e6 95 bd bc 26 d8 bd 00 4f 2c 3d
       -0.048103902 -0.073193654 -0.10554263 0.042067528
000340 3e 1e a7 be 9a 58 c9 bd 1f cf 40 be 83 ad 5f 3e
       -0.3264026 -0.098313525 -0.1882901 0.21843533
000350 c4 11 33 3d fe 1d a2 3e 57 33 f6 bd fb fc cb bd
       0.043718114 0.31663507 -0.12021511 -0.099603616
000360 d1 51 ad 3d 0e 75 e1 3d d4 b2 15 3e 18 bf d4 bd
       0.08462871 0.110086545 0.14618999 -0.10388011
000370 87 d2 90 3d f9 aa 9b be ef 05 28 be 79 45 70 3d
       0.07071405 -0.3040388 -0.16408513 0.058660004
000380 b5 78 de 3d 4d b9 4a be 9e d8 3a bd 42 0b c2 be
       0.10862867 -0.19797249 -0.04561674 -0.37899214
000390 9c 3b 51 3e 86 d6 11 3e ed 44 0a be 4c 91 4b 3e
       0.20432895 0.1424199 -0.13502856 0.19879645
0003a0 fe 88 93 3d b6 d1 6b be 80 2e 81 3d 6c dc 6f bd
       0.072038636 -0.23029217 0.06307697 -0.05855982
0003b0 c5 3b 82 be fb c3 a5 3e ae dc 18 3e a2 c0 57 3e
       -0.25436226 0.32376084 0.14927933 0.21069577
0003c0 fc 25 8b bd b8 60 12 3e 45 93 f3 bd a2 95 04 3d
       -0.06794354 0.14294708 -0.11893324 0.032369263
0003d0 36 fa 7b 3d 8b 61 43 3b 6c 99 68 bc 03 89 c8 bd
       0.061517917 0.0029812779 -0.014196735 -0.09791758
0003e0 e6 26 06 bf 40 ca 8a bd f4 ed 13 3d 21 c7 18 be
       -0.52403104 -0.067768574 0.0361156 -0.14919712
0003f0 28 ec 76 be 62 ab dd 3d 2e 40 ad bc 40 73 88 3c
       -0.24113524 0.10823704 -0.021148767 0.016656518

critic.2.bias f4 [64]
000000 be 5f f3 3d e9 f6 14 3d 7c bd 7e 3d 25 84 67 3d
       0.11883496 0.036368284 0.062192425 0.056522507
000010 1b 27 8e 3d 67 96 16 be 92 35 1c 3d 2b 30 dd bc
       0.069410525 -0.14705811 0.038137026 -0.027000507
000020 90 39 77 bc 14 1e d9 bd d0 ea 81 3d 4e 85 6e bd
       -0.015089408 -0.1060144 0.06343615 -0.058232598
000030 32 87 40 3b 74 fb bb bd c9 a0 3c 3d 58 39 0c be
       0.0029377458 -0.0917882 0.046051774 -0.1369375
000040 16 f0 76 bd fe 71 a1 3d 06 95 8a bd f9 25 2b bc
       -0.060287558 0.078830704 -0.06766705 -0.010446065
000050 39 9a 5e bd 86 af 70 bd 29 c0 6c bd 69 b5 a4 bd
       -0.054346297 -0.058761142 -0.057800446 -0.08042414
000060 59 42 87 3d c8 20 87 bd 11 fe 91 bc 33 a1 16 3d
       0.06604452 -0.065980494 -0.017821344 0.036774825
000070 06 6e b1 3d 26 e7 f5 bd 46 aa e7 bc 0f cb 23 3e
       0.086635634 -0.12006979 -0.028279435 0.1599543
000080 31 74 3c 3d c5 a0 a9 3d 1b de 60 3c 3c cc 03 bd
       0.046009246 0.082826175 0.013724829 -0.032177195
000090 7b 86 7d bd dc b5 4b bd cc 9a 70 3d d0 5f 24 3d
       -0.06189583 -0.04973398 0.058741376 0.040130436
0000a0 ef 2d 49 3d 81 9c 79 bd 6c 7c 12 bd 1d f6 c7 3c
       0.04911607 -0.06094027 -0.03576319 0.024409348
0000b0 9b ff 1c 3e 84 a2 5d 3d 69 11 05 3e 4d c2 5f bd
       0.15331881 0.054110065 0.12994923 -0.05462866
0000c0 27 4a 8d 3c 30 26 0a 3e a7 68 b9 bc 28 35 ab 3d
       0.017247273 0.1349113 -0.02263291 0.08359748
0000d0 74 b1 0c 3d e6 40 4b bd b6 56 33 bd 99 74 89 3d
       0.03434892 -0.04962244 -0.043783866 0.06711692
0000e0 6b 8d cb bc 17 dd fd 3c 47 37 6f bc 5d 85 b2 bd
       -0.024847707 0.030989213 -0.0146005815 -0.08716843
0000f0 59 1e f2 3d c0 37 2a bd da 53 8b 3d ac 0f 81 bd
       0.118221946 -0.041557074 0.06803103 -0.06301817

critic.4.weight f4 [1, 64]
000000 5e a9 2a bd f2 27 84 3d 4f 0d 12 be 9f ad ce bd
       -0.041665427 0.064529315 -0.1426289 -0.10091709
000010 4a c9 0a be 48 1c ff 3d ba 1d fd bd 18 b1 5d 3d
       -0.13553348 0.12456566 -0.123591855 0.054123968
000020 c6 4a 4f 3e 76 64 6d 3e eb 6d b8 bd 86 87 f1 3d
       0.20243368 0.23182854 -0.0900534 0.11793427
000030 90 2f 2d 3d 91 65 9a 3e 2c 6f 08 bd c2 e0 ba 3d
       0.042281687 0.30155614 -0.033309147 0.091249004
000040 e4 69 43 3e d5 f4 6a bd ee ef 0a 3e 11 9f 49 3e
       0.19083363 -0.057362396 0.13568088 0.19689585
000050 e2 2d 88 3d ab 17 4b 3d cb 7d 08 3e d9 7e ed 3d
       0.066493765 0.04958312 0.13329236 0.1159646
000060 22 a3 f1 bd 1c 57 18 3e a9 ee de 3c b7 35 1f 3d
       -0.11798693 0.1487698 0.027213411 0.038869586
000070 c2 83 d1 bd 1e 44 73 3d d7 71 ee bc ea 64 89 bd
       -0.10230209 0.059391133 -0.029107017 -0.06708701
000080 a8 95 b4 bd 66 6a 23 bd ec ab 06 bc 4c 44 a0 3d
       -0.08817607 -0.03989639 -0.0082197 0.078255266
000090 33 6d 0a 3d 05 06 aa 3d ff df 5c be 15 aa 1f bd
       0.033795547 0.083019294 -0.21569823 -0.038980562
0000a0 7c fb ea bd 5f 14 d0 3d 68 9e d6 3d bc 85 3f be
       -0.11473748 0.101601355 0.10479432 -0.1870336
0000b0 b3 bb 54 bd 89 ea 0c be f0 bf 1c be 83 a7 fb 3c
       -0.051936816 -0.13761343 -0.15307593 0.030719524
0000c0 e1 6f 03 be 84 c4 37 be ad 2e cb 3e af c2 f8 bd
       -0.12835647 -0.17946059 0.39684048 -0.12146508
0000d0 d5 d4 a1 be 35 ea 61 3e 5f b0 90 3d 27 01 de bd
       -0.3160769 0.22061999 0.0706489 -0.108400635
0000e0 f8 9b 3e 3e d0 30 d2 bd ce 78 57 3e 23 93 73 3e
       0.18614185 -0.102632165 0.21042177 0.23786597
0000f0 ef fb 78 be 78 45 e6 3e 05 40 d9 bd 5d e8 14 3e
       -0.24314855 0.44974875 -0.10607914 0.14541765

actor_mean.0.weight f4 [64, 36]
000000 62 c0 95 bd a8 1c eb bd 04 3f 57 be b4 08 8c be
       -0.07312085 -0.11480075 -0.21020132 -0.2735039
000010 ff 1c 8e 3d 17 c6 57 be e3 56 d6 3d 7d 45 cc be
       0.06939124 -0.21071659 0.10465791 -0.39896765
000020 06 a8 f7 3c ce e9 0d be 27 85 a1 3b df 7b 08 3e
       0.030231487 -0.1385872 0.004929203 0.13328503
000030 a6 19 6f 3e 33 3e 6d bd 47 ce 23 bd e2 1d de be
       0.23349628 -0.057920646 -0.039991643 -0.43382174
000040 d7 78 16 be a9 6a 6d 3d 4f 4c a2 3e 90 40 62 3e
       -0.14694534 0.057963047 0.31698844 0.22094941
000050 42 1a ab bd e8 59 f5 bd cc 25 3d 3d f4 66 e0 bd
       -0.08354618 -0.11980039 0.046178624 -0.10957137
000060 10 24 7e 3e 31 be 32 3e bd 96 8f bc da dd 24 bd
       0.24818444 0.17455365 -0.017527932 -0.040250637
000070 f8 72 90 bd 18 c2 19 bc 27 2a 23 bc eb b9 03 bf
       -0.070531785 -0.009384654 -0.00995878 -0.51455563
000080 14 f9 8f 3d 42 f2 a0 3e 89 ca 7e bd 13 4e 0c bd
       0.0702993 0.31434828 -0.06220487 -0.034254145
000090 b7 11 42 3e 75 a7 9c be 2f 7d 81 be 52 57 05 bd
       0.1895207 -0.3059651 -0.2529082 -0.03255398
0000a0 90 a4 aa bd 86 6b a7 3d d0 1a e7 bd 75 ca 39 bd
       -0.08332169 0.08174805 -0.11284411 -0.045359094
0000b0 37 94 f8 3d 85 2d 38 3b 9f f5 cc bd a9 00 8a 3d
       0.12137645 0.0028103304 -0.10007786 0.06738407
0000c0 7c b8 39 3e 5d d1 a8 3e 8f 65 ee 3d c4 dd a7 3e
       0.18136781 0.32972232 0.116404645 0.3278638
0000d0 a4 5a 6a 3e e7 43 6f 3e 8d 92 60 3e d5 b4 a0 3e
       0.22886139 0.23365746 0.21930905 0.31387964
0000e0 2f 69 99 bd 86 76 0c be 07 d4 84 be 9a a4 93 bc
       -0.07490765 -0.13717088 -0.25943014 -0.018022824
0000f0 e0 02 5c 3c a3 1f e3 3c 2f c6 fc bd c2 af 86 bc
       0.01342842 0.027725047 -0.12342488 -0.01644123
000100 16 14 36 3e 63 54 88 bc b5 c5 32 3e f3 81 61 3e
       0.177811 -0.016641801 0.17458232 0.22022228
000110 55 61 14 bc 7e 77 80 3e f8 4d df bd d3 7a 16 3e
       -0.009056409 0.25091165 -0.10903543 0.14695291
000120 c0 74 74 3d 61 e8 18 be af 9c 82 3c ed e9 58 3e
       0.059681654 -0.14932396 0.015943853 0.21182986
000130 b6 d6 3a 3d 04 ca b3 3d d8 b7 72 be 85 92 a6 bc
       0.04561492 0.08778766 -0.23702943 -0.020333538
000140 1d 3d 00 be 6f 57 f3 bd b3 81 47 3d c1 d8 f9 bd
       -0.12523313 -0.11881911 0.048707675 -0.12199546
000150 d2 4f 75 be 36 18 97 be e5 8e 22 3e 50 fb 08 bd
       -0.2395623 -0.2951066 0.15874822 -0.033442795
000160 06 88 2d be 42 28 cf bd 2b 9d 24 3d 86 bc fa 3e
       -0.1694642 -0.101151004 0.04018895 0.48971957
000170 28 44 07 3e 94 82 8a be 0a 1c 8e bd 34 a6 7f 3e
       0.13209593 -0.27052748 -0.06938942 0.24965745
000180 e8 cf 7f 3d 48 73 bc bd 38 db d8 39 c7 cf f5 3b
       0.062454134 -0.09201676 0.0004136206 0.0075015756
000190 7f 38 a6 be 9b 35 86 3d b6 37 26 3e c2 7c 01 bd
       -0.32464978 0.06553193 0.1623219 -0.03161312
0001a0 ca 70 84 3d e3 11 94 be 5d ed 67 3d e0 cc c0 bd
       0.06466825 -0.28919896 0.05662285 -0.09414077
0001b0 f1 39 1c 3e 12 e4 87 be 0e b6 20 3e d5 30 60 3e
       0.15256478 -0.2654119 0.15694448 0.21893628
0001c0 95 85 6f be 32 1d 53 3e 4f 29 33 3e 7e b2 6b be
       -0.23390801 0.20616606 0.17496227 -0.23017308
0001d0 16 52 90 3e bf e7 ec bd 42 06 d1 bd 4a 67 cf 3d
       0.28187627 -0.115676396 -0.10206272 0.10127123
0001e0 c7 f0 3b be 72 cf 2f 3e 49 32 b5 3d 81 0d 25 be
       -0.18353568 0.17168978 0.08847482 -0.16118433
0001f0 02 0c 08 3e 0d bf 9e 3e 82 f5 12 be 0d 0a 01 3d
       0.1328583 0.31005135 -0.14351466 0.031503726
000200 9e 3f 02 be a1 17 02 3e 1e 78 32 bd 05 f7 bf 3c
       -0.1271958 0.12704326 -0.043571584 0.023433218
000210 be 78 06 3e 15 7f 21 be ff 30 d9 be 66 c8 ea bd
       0.13131997 -0.15771134 -0.42420194 -0.11464004
000220 79 56 f7 bd 0f 60 f2 bc bd f4 8f be 31 33 1e bf
       -0.1207704 -0.02958682 -0.28116408 -0.6179686
000230 72 57 b9 3d cb 4c 95 bd d3 60 ef bc d4 bc 97 3e
       0.09049882 -0.07290038 -0.029220974 0.29636252
000240 1e c2 1d be 76 e1 c7 3d 4e 67 f0 bd 41 b0 0c 3e
       -0.15406081 0.097598 -0.11738454 0.1373911
000250 88 17 13 3e 6b c7 89 be 47 7c d0 3d 75 7e cb 3e
       0.14364445 -0.26909956 0.10179954 0.39744917
000260 26 c5 95 3d e2 51 0e 3e fd 57 69 3d 74 63 9f bd
       0.07312994 0.13898423 0.056968678 -0.07782641
000270 0f cd 03 be b6 f0 24 3e d4 62 60 bc 8d 47 94 3c
       -0.12871192 0.16107449 -0.013695437 0.018100524
000280 19 e8 92 3e 84 45 ab 3d e2 8a e0 b9 cc ce dd be
       0.286927 0.083628684 -0.00042828085 -0.43321836
000290 6d 6f fb bd f6 18 10 be b4 82 b3 3d d6 7f 85 3d
       -0.12277112 -0.14072022 0.08765164 0.065185234
0002a0 b2 e8 d3 bd 00 8b 5f be 35 55 01 3d e9 ff a6 be
       -0.103471175 -0.21830368 0.0315754 -0.3261712
0002b0 15 a7 59 be ec 77 81 be c6 7f 65 3e 42 5d b6 3e
       -0.21255143 -0.25286806 0.22412023 0.35618025
0002c0 44 9e 00 be ee 5b 99 3e 2b f2 01 3e 61 2d 8a bd
       -0.12560374 0.2995295 0.12690036 -0.067469366
0002d0 82 a0 33 3e 31 cb 7e 3e 8f 4d fc bd 0b 51 f7 3c
       0.17541698 0.24882199 -0.12319481 0.030190011
0002e0 70 95 31 bc 54 cf 3b bd b4 29 c5 3e 04 84 53 be
       -0.010838851 -0.04585202 0.3850838 -0.20655829
0002f0 91 77 23 be c8 17 ad bd 86 da de bd 5d 33 a6 bd
       -0.1596358 -0.084518015 -0.10881524 -0.081152655
000300 cf e8 fd bc 55 d4 bd bd 33 77 38 bd e6 0f 60 be
       -0.0309948 -0.09269015 -0.045035552 -0.21881065
000310 7d ed 54 3c 4d b9 52 3d a1 f5 8f 3e a8 e8 f6 3e
       0.012996075 0.051446248 0.28117087 0.48224378
000320 d0 37 bc bd 27 9d 0b be da 6f ff 3b 11 4f 35 3d
       -0.09190333 -0.13634168 0.007795316 0.044264857
000330 55 b0 c3 bd f7 90 03 be fb 90 ad bd b8 b1 1c be
       -0.09555117 -0.12848268 -0.084749185 -0.1530217
000340 4f cb 68 3c fd a6 ab 3d e5 7f 0b bc 60 13 12 bf
       0.014208629 0.0838146 -0.008514379 -0.57060814
000350 78 26 f6 3d 9e 2c 17 be 20 43 bf bc 42 f9 2a be
       0.12019056 -0.14763114 -0.023347437 -0.16696647
000360 12 91 48 3d 86 8e 0a 3d c4 91 0e be 01 f1 d1 3e
       0.048966475 0.033827327 -0.13922793 0.41004184
000370 cd b1 99 be b2 dd 21 3e bd 0a b2 be e4 0f c3 3b
       -0.30018464 0.15807226 -0.34773818 0.005952822
000380 8d 1c b8 bd d5 d9 7e be 28 e1 07 3d 3d 43 4a bd
       -0.08989821 -0.24887784 0.03317371 -0.04938053
000390 96 ff 86 bd fb fb 7b 3d 58 3e b0 be bb 61 84 bb
       -0.06591718 0.061519604 -0.34422565 -0.0040399707
0003a0 bb dd fd 3b 4c b8 bb bb f0 b4 cd 3e d8 ff cb 3b
       0.0077473796 -0.005728757 0.40177107 0.0062255673
0003b0 90 ae df 3d 44 bc 07 3e e2 60 84 be d3 aa 51 3e
       0.10921967 0.13255411 -0.25855166 0.2047532
0003c0 ce 8f a6 bd bf 9f a1 3d 70 a9 0f 3e c2 9e 47 3e
       -0.08132897 0.07891797 0.14029479 0.19494155
0003d0 83 bb 7c 3d fe 6f 9a 3d c7 e5 26 be dc b1 1c be
       0.061702263 0.07540892 -0.1629859 -0.15302223
0003e0 d2 3a 67 bc f4 42 c7 3d f7 8b 0b be 8d 7b 18 3d
       -0.014113145 0.09729567 -0.13627611 0.037227202
0003f0 6a 11 44 be 8a 26 d9 bd 45 53 93 3e 23 b0 17 3d
       -0.19147268 -0.10603054 0.28774467 0.03703321

actor_mean.0.bias f4 [64]
000000 69 a5 a3 3d b0 b2 74 3d e2 3a 71 3d d2 63 03 3d
       0.07990534 0.059740722 0.058894046 0.032077618
000010 50 09 14 3d e9 79 dc bb 5b 56 2e bc 07 4d b0 3d
       0.036141694 -0.0067284 -0.010640706 0.08608442
000020 90 19 b0 3b 42 ea b2 bc 88 33 40 bd b1 39 b4 bc
       0.005374141 -0.021840218 -0.046924144 -0.022000166
000030 47 51 e6 bc 96 50 ea 3d ee 2f 04 bc e2 af e1 bc
       -0.028114928 0.11441152 -0.008068068 -0.027549688
000040 ce 8e 81 3d 10 eb 16 3d 7e 5a c4 3c d4 d6 b8 bc
       0.06326066 0.036845267 0.023968931 -0.022563376
000050 62 56 5d 3d 16 eb 10 3e 4d 1b 70 bb b1 2e 96 bc
       0.05403746 0.14152178 -0.0036637366 -0.018332811
000060 03 12 59 3d a8 a3 3e 3d 09 24 6f 3b 5a b6 91 bc
       0.052995693 0.046542794 0.0036489984 -0.017787147
000070 ff 57 72 3d fb 63 7f 3d 31 fe 03 bd 5a e0 d7 bc
       0.05916595 0.06235121 -0.032224838 -0.026352096
000080 a1 07 c2 3c ec ca 16 3d 8a b2 de bb af 24 28 3b
       0.023685278 0.036814615 -0.006796186 0.002565663
000090 d9 af f2 bc c1 6a 84 3c d1 22 19 3d ae 78 fb 3c
       -0.029624866 0.016164185 0.03738672 0.030697193
0000a0 37 d9 b6 3b 79 97 1d bb ca 84 2f 3d 4f 20 13 bc
       0.0055800932 -0.0024046584 0.042851247 -0.008979871
0000b0 b4 17 16 3d 5c 0d 2f 3d 40 81 6c bd 36 e1 42 3c
       0.0366437 0.04273735 -0.05774045 0.011894515
0000c0 9f 55 39 3d c8 57 8e bc 42 a1 db ba 86 fe 2c 3d
       0.04524767 -0.017375842 -0.0016756433 0.04223492
0000d0 5d 01 88 3c 89 30 81 39 78 0e 3a bd 28 fb b9 3d
       0.016602213 0.0002464096 -0.045423955 0.090811074
0000e0 e9 11 57 3c c5 98 d7 bb 45 e2 c5 bc 94 b2 03 bc
       0.013126829 -0.006579491 -0.024155745 -0.008038182
0000f0 e4 51 b4 bc 99 70 36 bd ac b2 7b bd 9e ae c3 bc
       -0.022011705 -0.044540975 -0.06144969 -0.023886975

actor_mean.2.weight f4 [64, 64]
000000 b2 52 88 bd d4 73 85 bd c6 be 93 3e ba f4 1b 3e
       -0.06656398 -0.06516233 0.28856486 0.15230075
000010 d8 ec 3f bd fc 7a 60 3d 61 86 9f bd d8 c5 0a bf
       -0.04685673 0.054804787 -0.077893026 -0.54208136
000020 78 f7 08 be 20 ef bc 3e 84 e2 14 be c6 49 b9 3d
       -0.13375652 0.36901188 -0.14539534 0.09047274
000030 40 4c 1a be 15 e6 f5 bb 6e d6 3c 3e 00 9f d4 3e
       -0.1506815 -0.0075042346 0.18441173 0.41527557
000040 af 7d 24 be 34 c3 96 be e8 a3 06 be 0d 98 cb bd
       -0.1606357 -0.29445803 -0.13148463 -0.09941111
000050 12 4f 86 be 1c 09 21 be 23 c2 a0 bc ec 42 4a be
       -0.262322 -0.15726131 -0.019623822 -0.19752091
000060 0c 58 83 bd 89 48 86 3e 10 d4 b7 3c 72 bb 24 be
       -0.06413278 0.26227215 0.022439986 -0.1608713
000070 b5 8a 21 be 37 64 4d 3d 02 9d b3 bd 85 78 b0 3d
       -0.15775569 0.0501444 -0.08770181 0.08616737
000080 68 a4 8c 3e e5 3f dd 3d 94 85 a1 3d f8 40 32 3d
       0.27469182 0.108032025 0.07886806 0.04351899
000090 0e 3e 44 3e 91 bf 88 be 8d ae 00 be 69 10 a6 3d
       0.19164297 -0.26708654 -0.12566586 0.08108599
0000a0 87 dd cb bd a4 d8 64 be 26 86 2f bd 39 88 e1 3e
       -0.09954362 -0.22348267 -0.042852543 0.44049242
0000b0 53 69 ba 3e 08 56 0a 3d 55 f8 9e 3e 18 34 12 3e
       0.3640848 0.033773452 0.31048837 0.14277685
0000c0 32 b7 b4 3e 8a 60 52 3e 98 47 0a bd 22 83 88 be
       0.35296017 0.20544639 -0.033759683 -0.26662546
0000d0 8a c1 44 3e 3a 69 86 be e0 d1 2f bc f0 b1 b3 bb
       0.19214454 -0.26252156 -0.01073119 -0.0054838583
0000e0 e2 fc 68 be 70 0c fb 3d fd 76 b3 bd 73 fa 26 bd
       -0.22752717 0.12258232 -0.087629296 -0.04076619
0000f0 e4 ab 32 be fb 42 b5 bd b5 2e 92 3e d3 fb 03 bd
       -0.17448384 -0.08850666 0.2855126 -0.03222258
000100 a6 45 30 be 43 34 a5 bd f8 13 6d be 54 e4 23 be
       -0.17214069 -0.08066609 -0.23152149 -0.16005069
000110 20 3f a9 3d a3 4a a3 be 68 ff cf 3d 66 f0 bb bd
       0.08263993 -0.3189288 0.10156137 -0.09176712
000120 7d 79 ca be 2b 4d 5b be d0 c4 5f 3d b6 ef de bd
       -0.39545813 -0.21416156 0.054631054 -0.10885565
000130 a8 de b6 3e 52 f7 96 be 22 ba f5 bc 96 9a 8f 3d
       0.35716748 -0.29485565 -0.029995982 0.07011907
000140 2d b8 0d bb 58 1f 05 3e d4 83 d5 3e 7f 5e c4 3d
       -0.002162467 0.13000238 0.4170214 0.09588336
000150 c9 1f 98 bd 04 6b e7 3d 5e 77 e2 bd 27 84 b0 3d
       -0.074279375 0.112997085 -0.11057924 0.08618956
000160 48 83 1e be 4b 42 27 3e 07 36 cc 3d f0 1c 6e be
       -0.15479767 0.16333883 0.099712424 -0.23253226
000170 86 17 8d 3e 08 36 e7 3d 07 96 81 3e aa 10 b2 3c
       0.2755701 0.112896025 0.25309774 0.021736462
000180 2a dc d0 3b bc 3d 3e 3e d7 ee 4d 3d ee 83 85 bd
       0.006373902 0.18578237 0.050276604 -0.06519304
000190 1e 38 85 3e 27 65 8c 3d 2e f0 0e be 5f a1 44 be
       0.26019377 0.06855231 -0.13958809 -0.19202183
0001a0 f9 7b 40 3e 5d 17 71 be 3b 5c 15 be 09 fd 01 3e
       0.18797292 -0.23544069 -0.14585964 0.12694182
0001b0 87 12 1b be d0 b3 77 bd 58 0a 30 be 87 60 07 be
       -0.15143786 -0.060474217 -0.17191446 -0.13220416
0001c0 51 fe 29 3e 31 ff af 3e 0e db c4 be 9b 1e e8 be
       0.1660092 0.34374383 -0.38448375 -0.4533585
0001d0 92 15 71 bc fc 51 1c be 78 bb 17 be a5 1b 78 3e
       -0.014714615 -0.1526565 -0.14817607 0.24229296
0001e0 bb 9d e8 be 75 7c 32 bd 56 8e 96 3d 3e 6e 95 be
       -0.4543284 -0.043575723 0.07351367 -0.2918567
0001f0 bf 2a 4b 3e 54 b1 8c 3d f1 f9 d3 3a 49 b9 03 be
       0.19840525 0.0686976 0.0016172511 -0.1286365
000200 d1 a7 dc bd 84 ab 48 3e d2 70 94 3e c6 7c fa 3d
       -0.10774196 0.19596678 0.28992325 0.1223083
000210 4d cb ad 3d 7d 80 6e 3e a7 00 a1 be ed 5e 1e 3d
       0.08486042 0.23291202 -0.3144581 0.038664747
000220 ef 1e 37 be b4 9f 53 be 2a 12 3a bd ff a8 47 3e
       -0.17882894 -0.2066639 -0.04542748 0.1949806
000230 1a 79 6d 3d 0f 51 82 3d 44 d7 81 3e fa b9 f5 3d
       0.05797682 0.06363117 0.25359547 0.11998363
000240 10 5d 2e 3e ab 3f 1d 3e 6b d7 2a be 25 0f a7 3c
       0.17027688 0.15356319 -0.16683738 0.020392964
000250 f6 c3 14 be db a2 2c bd b9 c9 f7 3d b3 45 84 3e
       -0.14527878 -0.0421475 0.120990224 0.25834426
000260 9e d6 be 3e 82 10 cf bc 7d 37 71 3e d1 a3 21 3d
       0.37273115 -0.025276426 0.23556323 0.039462868
000270 0b d9 e5 bd 75 3f 09 be 96 ba c2 bc d9 6b 1e bd
       -0.11223038 -0.13403113 -0.023770612 -0.03867707
000280 0f b5 39 be 6a 53 88 bd 43 69 13 be 30 67 1e be
       -0.18135475 -0.06656535 -0.14395623 -0.1546905
000290 c9 55 d7 3e ba d2 42 bc 27 d7 3a 3e c1 65 98 3d
       0.42057636 -0.011891061 0.18246137 0.07441283
0002a0 31 1a b4 bd 9d 2f a4 3d 6d 89 f2 3e a1 a0 30 be
       -0.08794058 0.08016894 0.47370473 -0.17248775
0002b0 e9 97 ad bd 9b ff 72 3e 24 3a 3c bc 0e 32 01 be
       -0.0847624 0.23730318 -0.011488471 -0.1261675
0002c0 65 62 0b 3e ee b8 3e 3d ec eb de 3d e7 77 54 3d
       0.13611753 0.04656308 0.10884842 0.05187216
0002d0 c0 08 02 be 94 47 a9 3e fd 7a 18 3e 8e 2c 9a 3e
       -0.1269865 0.33062422 0.14890666 0.30112118
0002e0 3c 56 cb be 48 ad 6b 3d fc 7f 18 3e 26 50 88 3e
       -0.3971423 0.0575383 0.14892572 0.26623648
0002f0 02 0c c5 be ff 6e 2a 3e c3 78 d5 3d 77 ab 4c bd
       -0.38485724 0.16643904 0.10423424 -0.04996821
000300 0c 2c 3e 3e 84 f2 f2 3c 2a e0 a4 be 93 6b 0a 3b
       0.1857149 0.029656656 -0.32202274 0.0021121248
000310 ad e0 18 3e d3 99 6e 3c 82 54 7a be 57 2d 69 3e
       0.14929457 0.014563042 -0.244463 0.22771202
000320 19 4b 37 3e 2a e0 68 be 58 c1 e9 3e 5c bd 2b be
       0.17899741 -0.22741762 0.45655322 -0.16771454
000330 ce 8f 1c be 21 b6 0e 3e 94 1a 4b be 57 47 9a 3e
       -0.15289232 0.13936664 -0.19834358 0.30132553
000340 d8 5b 46 be 48 22 83 be 0e c9 78 be 41 97 06 be
       -0.19370973 -0.25612092 -0.24295446 -0.13143636
000350 a0 c2 17 be 20 3d 1d be 24 e3 2c 3d c8 cd 13 3d
       -0.14820337 -0.15355349 0.042208806 0.03608492
000360 68 82 47 be e7 31 be 3d 8b c4 d2 3c d5 7c 8f be
       -0.1948334 0.09286862 0.025728485 -0.28024927
000370 d1 cb 8c 3e 87 0c b4 be e5 dc b8 be 21 78 99 3d
       0.2749925 -0.35165808 -0.3610603 0.07493616
000380 da 5d 53 3e bf a6 a5 3d eb 0d 1a 3d 79 85 e4 3d
       0.2064127 0.08088445 0.03761093 0.111582704
000390 f9 bf 6a 3e b2 ca 0d 3e 33 cf be bc e6 3d 9c be
       0.22924794 0.13846853 -0.02329216 -0.30515975
0003a0 4f c8 e8 bc 3c cb 59 3e 04 ba 06 3e c9 66 03 3e
       -0.028415827 0.21268934 0.13156897 0.12832178
0003b0 4f 0b 04 be 28 52 57 bd c0 38 0e be ed 73 42 be
       -0.12894939 -0.052568585 -0.13888836 -0.18989535
0003c0 5b aa 0b 3e 02 68 bc bc e4 d9 60 3b 01 51 a5 bd
       0.13639204 -0.022998814 0.003430956 -0.08072091
0003d0 4f 19 3f 3e 72 f4 a5 bd d1 95 a3 be a4 31 9f 3c
       0.18661998 -0.08103265 -0.31950238 0.01943285
0003e0 ad 2f 84 be c0 39 02 be 0b eb 9c bd bf 19 04 be
       -0.25817624 -0.12717342 -0.076620184 -0.12900446
0003f0 8d 59 93 3d 11 09 02 3e 0c 12 7d 3e 09 3b 92 3e
       0.07194815 0.12698771 0.24713916 0.28560665

actor_mean.2.bias f4 [64]
000000 76 6c 20 bd 14 af 44 bd b7 80 61 3d b7 9f 47 bd
       -0.039165936 -0.04801853 0.055054393 -0.0487363
000010 a1 86 15 bc 0f f1 14 3c e4 0b b4 3c 6f bd 03 bc
       -0.009126336 0.009090676 0.021978326 -0.00804077
000020 f6 63 79 bb 4b f1 56 3d 36 ad 43 bd ac 54 92 3b
       -0.0038053966 0.05247621 -0.04777261 0.00446566
000030 c3 5f 39 3c ef fe 64 3b 13 0b 5d bd b5 d8 a0 3c
       0.011314335 0.0034941991 -0.05396564 0.019634584
000040 d8 81 0a ba c0 e9 cf 3c 09 a3 fe bb cf 3b 4e bd
       -0.00052836305 0.025380015 -0.0077709 -0.050350007
000050 64 fa 9c bd fe 74 15 3c a7 fe 78 3d 94 0a 3f 3d
       -0.07664946 0.009122131 0.06078973 0.046640947
000060 4e 03 05 bd 67 db 93 bd 33 d1 9c 3b e6 23 12 bd
       -0.032473855 -0.07219582 0.0047856807 -0.035678767
000070 d6 66 cd 3c 82 d9 7a bc da b2 87 3c 0e 8d 79 3d
       0.02507345 -0.015310647 0.016564775 0.060925536
000080 9e c9 a4 bc 28 61 ed bc 69 e4 4b 3d d9 b7 9c 3c
       -0.02011567 -0.028976992 0.049778376 0.019130634
000090 9a e6 2a bd 27 9b 0c 3d 1d 8d 09 bc bd c1 13 3d
       -0.041723825 0.034327652 -0.00839546 0.036073435
0000a0 00 f2 98 3b 58 7e 21 bd 4e 22 50 bd 72 60 16 3a
       0.0046675205 -0.03942713 -0.050813965 0.00057364174
0000b0 90 1a a0 3c 53 ca ea bc 48 ac 6c bd 59 a3 2c 3d
       0.019543916 -0.028660929 -0.057781488 0.042147968
0000c0 93 ec f4 3b 69 1e 21 bd b6 fa a2 bc 8d 95 a6 3d
       0.007474491 -0.039335642 -0.019894939 0.08133993
0000d0 87 2e 92 bc 5a 37 46 3d 1f 65 ca bb ca df e1 ba
       -0.017844452 0.04839263 -0.0061766054 -0.0017232832
0000e0 95 f8 74 3d 2e a9 5a bd 54 84 8a bb 64 56 40 3d
       0.05980738 -0.053384 -0.0042272005 0.04695739
0000f0 65 2a 8a 3d e7 f3 8d 3d 71 79 02 3d 65 4e 0c 3c
       0.06746367 0.06931286 0.031854097 0.008563613

actor_mean.4.weight f4 [2, 64]
000000 c1 f7 9e bc 14 24 22 bd 1a 36 b6 bd d4 e8 a8 bb
       -0.019405248 -0.039585188 -0.08897038 -0.0051547084
000010 cc 2b 3c bc c3 5b 1d 3c 60 e3 93 3c 2f ab 04 bd
       -0.011485051 0.009604397 0.018052757 -0.032389816
000020 f0 0f c1 3c c8 3b 7b 3c 4c d4 d6 3b 28 b2 1a 3d
       0.02356717 0.015334077 0.0065560695 0.03776756
000030 9a 26 00 3d ca df 1d 3d 30 57 69 3d b2 2a 2a bd
       0.031286813 0.0385435 0.056967914 -0.041544624
000040 3f 3a dd bb 15 c9 aa 3c be cd 34 bd 51 e8 0f 3d
       -0.0067513282 0.020847837 -0.044141524 0.035133664
000050 8e e8 9f bd 22 3d 9f bd 6f f6 43 3d 27 74 d2 3d
       -0.07808028 -0.07775332 0.04784244 0.102760606
000060 84 a9 28 bb 74 01 81 bd bf 89 db 3d 71 64 4a 3c
       -0.0025735805 -0.06299105 0.10719632 0.012353049
000070 46 b9 98 bc 51 1d d0 bc bd 5e e6 bc b8 46 61 3d
       -0.018643033 -0.025404604 -0.028121347 0.054999083
000080 20 de eb 3a 5d 49 5b 39 ea 2d 95 bd 8c 24 05 bb
       0.0017995276 0.00020912797 -0.07284148 -0.0020315973
000090 4e b9 89 b9 66 f2 87 3d 7e 0c ec 3c 44 bf 16 3c
       -0.0002626874 0.06638031 0.02881455 0.009200875
0000a0 cb 84 0d bb b3 c2 48 bd 7b bd 87 3d 6a ea 44 bd
       -0.0021594043 -0.049013805 0.066279374 -0.048075117
0000b0 18 ae 1c 3d 6a 71 85 bd 74 4c 51 3c 64 1a 96 3b
       0.038251966 -0.06515773 0.0127745755 0.0045807827
0000c0 f1 b7 11 bd 82 0b e6 bd 0b a6 ec bc 51 05 1a 3d
       -0.03557581 -0.11232664 -0.02888777 0.037602726
0000d0 42 e7 0d ba 02 bd 1a 3d e2 1c d6 bd 04 46 b2 3c
       -0.0005413183 0.03777791 -0.10454728 0.021761902
0000e0 26 ce 58 3d 06 26 5f bd be f0 eb 3c af 86 ae bc
       0.052930973 -0.05447962 0.028801318 -0.021304457
0000f0 6b e2 de bd 4d 78 6c bd 8b d9 10 bd 87 16 3d bb
       -0.108830296 -0.057731915 -0.035363715 -0.0028852539
000100 9b d8 82 bd 08 6b 72 3d 97 71 eb bc a8 1a c5 3c
       -0.063889705 0.059184104 -0.028740687 0.024060562
000110 a3 54 9e bd 9e af 1d 3d 41 ec 53 3b 82 3e 7a ba
       -0.07730987 0.03849756 0.0032336863 -0.00095460576
000120 ea c7 50 3d 9c aa ee bc 5e 55 00 3e 55 4f b0 bc
       0.050971903 -0.029134087 0.12532565 -0.021522203
000130 6f 7a bf bc dc d3 8a ba aa a3 21 bd 47 18 b5 3d
       -0.02337381 -0.0010591703 -0.039462723 0.08842521
000140 39 f9 00 be d3 94 af 3b ce 59 89 bb 1b 23 87 3d
       -0.12595071 0.0053583174 -0.0041916138 0.06598493
000150 f7 45 80 bd 7d d0 14 bd 9d f4 8e bc f0 a5 1c bd
       -0.06263345 -0.036331642 -0.017450625 -0.038244188
000160 7a 04 c9 3c 9d df 18 3d 00 1b 62 3d 2e b6 86 3c
       0.024538267 0.03732263 0.05520153 0.016444292
000170 f0 51 93 bc 6b 06 9c 3d 35 07 72 bc 5b 46 e2 bc
       -0.017983407 0.07618412 -0.014772226 -0.027621439
000180 a4 82 a5 3d 37 82 48 3d 1a 8d ea 3b 6a d2 be bc
       0.08081558 0.048952308 0.007157934 -0.023293693
000190 35 bc 91 3d 52 d3 2a bc b6 5a 80 bd 17 a7 9d bd
       0.07115976 -0.010426359 -0.06267302 -0.076978855
0001a0 ef 55 b8 3d ba 4b 3d bd 7c 96 92 3c a8 f1 14 3c
       0.090007655 -0.046214797 0.017894022 0.009090818
0001b0 ea 1f 9f bd 26 e3 1d 3d ef 14 32 3d de ac 81 bd
       -0.07769759 0.038546704 0.043476995 -0.063318
0001c0 06 94 cd bd 78 cc 1a 3d 85 e5 fc 3b 22 3a 8d bc
       -0.10037999 0.037792653 0.0077177905 -0.017239634
0001d0 59 12 63 3d a5 bd 5e bd 7c 17 9f bd 78 77 17 3d
       0.05543742 -0.054380078 -0.07768151 0.03697917
0001e0 37 11 3e 3c c9 eb 74 bc 9c fe 5d bd 78 d7 c2 3d
       0.011600784 -0.014948794 -0.054197893 0.09513754
0001f0 e7 a9 98 3d d3 a3 15 bc b3 d3 6e bd 3b a2 a7 3c
       0.07454281 -0.009133297 -0.05830736 0.0204631

actor_mean.4.bias f4 [2]
000000 a6 1f b0 3b 2b 66 e3 bc
       0.0053748665 -0.027758678
