jsbgym/models/AttitudeControlTaskEnv-v0__ppo_continuous_action__1__1695119387.pt (torch, 59632 bytes, 14 tensors)

actor_logstd f4 [1, 3]
000000 98 4f 82 be c2 28 e9 be 68 2e 4d be
       -0.2545135 -0.45538908 -0.20037234

conv.0.weight f4 [3, 1, 5, 1]
000000 03 38 55 bf 90 a6 fd bb f7 27 19 bf 1f e5 60 3f
       -0.8328859 -0.007740803 -0.59826607 0.8784961
000010 d0 a3 f2 be 90 7f 03 be f6 df 24 3f 2a ea b2 3e
       -0.47390604 -0.1284163 0.6440424 0.34944278
000020 38 10 ae 3e dd 97 69 3f 7a 1a d2 be 72 5c 7c bf
       0.3399675 0.9124735 -0.41035825 -0.9857856
000030 1e 07 3c 3f a3 30 13 3e 9e e1 f9 3e
       0.7344836 0.14374022 0.48804945

conv.0.bias f4 [3]
000000 67 ba 5f bd 4f 57 0a be 57 7d 51 3d
       -0.054621127 -0.13509868 0.051144924

critic.1.weight f4 [64, 36]
000000 85 e6 26 3d 36 36 e1 3c c8 12 9a be e6 99 b6 3d
       0.040747184 0.02749167 -0.30092454 0.089160725
000010 18 d0 93 3b d3 27 21 be e7 0e 31 3e f0 51 14 3b
       0.0045108907 -0.15737848 0.17290841 0.0022631846
000020 e9 eb 92 bd a0 32 ae 3e e6 d4 5e bd c0 05 01 bd
       -0.071739025 0.34023 -0.054402255 -0.031499624
000030 55 4f 06 3e 98 ce 94 3e 90 7d 0e be 1b d3 1e 3e
       0.131162 0.2906387 -0.13915086 0.15510218
000040 d3 cf dc 3c 07 72 c8 bd 9b dd c7 3c 3a 0c 20 3e
       0.026954567 -0.09787374 0.024397662 0.15629664
000050 f8 66 6c 3d 7d a5 15 3e 0f bc 7d 3e 25 fd c5 3c
       0.057715386 0.1461391 0.2477877 0.02416856
000060 6c 01 6e 3e 31 05 05 bd 3c db 9f bc dc 01 1f be
       0.2324273 -0.032475654 -0.019513719 -0.15528053
000070 db 45 e4 bd fd 79 f1 bc 65 fd 5e be 7d 7c 01 3f
       -0.111461364 -0.029477114 -0.2177635 0.5058058
000080 84 10 ad be 7a f4 7c 3d 22 66 2f be 5b 97 29 3e
       -0.33801663 0.06175659 -0.17128804 0.16561644
000090 ba 73 be bd 27 9a e5 be 4e 58 c3 3d 60 39 85 be
       -0.09299417 -0.4484417 0.09538327 -0.26020336
0000a0 d2 4b 6b 3e 5f 9b 83 bd 82 77 21 bd e8 51 7c 3d
       0.22978142 -0.06426119 -0.039420612 0.06160155
0000b0 b1 05 e3 bd 72 99 b1 be f9 7f 81 be 06 8d 28 bc
       -0.1108507 -0.34687382 -0.25292948 -0.010287529
0000c0 94 c9 78 bc 77 65 80 3e f8 6d 2e 3e 22 6d 26 bc
       -0.015184779 0.25077412 0.17034137 -0.010157855
0000d0 d4 53 2f 3e 7f 74 21 be c3 8a 5e be 66 1b 30 3d
       0.17121822 -0.15767096 -0.21732621 0.04299488
0000e0 7a 69 26 3e 5f 7e 33 3b b0 31 91 3e 3e bb 10 3e
       0.16251174 0.0027388555 0.2835822 0.14133927
0000f0 e2 9c b1 bc 81 56 76 3c 6b 22 b5 3e 18 55 9e bd
       -0.021681253 0.015035273 0.3537782 -0.07731074
000100 6c 19 ab 3d 0d 6f 3f 3e f1 2d 2d 3e 32 2b 06 bc
       0.08354458 0.18694706 0.16912057 -0.0081890095
000110 95 60 fb 3d c4 53 9c 3e c2 97 ff 3d e6 c1 11 3e
       0.12274281 0.30532658 0.124801174 0.14234123
000120 1f 11 0f 3e 32 d4 f8 bd 40 35 50 bd 89 de 5b 3e
       0.13971375 -0.12149848 -0.050832033 0.21471609
000130 c8 7a 3d be 02 8e 02 bd 2d f5 44 be 98 c2 d6 be
       -0.18503869 -0.03187371 -0.19234152 -0.41945338
000140 38 09 fa bd 70 69 0f be 23 64 f2 3d 04 00 55 be
       -0.122087896 -0.14005065 0.11835506 -0.20800787
000150 98 bd 47 be be ff b4 bb e9 e6 f9 3c 12 4b 04 3e
       -0.19505918 -0.005523651 0.030505614 0.12919262
000160 d1 2a 03 3e 48 5c 69 be 57 66 8f 3c 1a 5d a2 3c
       0.12809302 -0.22789109 0.017504854 0.019819785
000170 5a 9f 1f be cb a9 a2 be e8 d3 2a 3e 39 e4 46 be
       -0.15588132 -0.31770167 0.16682398 -0.19422998
000180 3a a3 01 3d 5e ba e1 bd 04 ea 1c be f3 bf 0a be
       0.031649806 -0.11021875 -0.15323645 -0.13549785
000190 1f 98 7d 3e 4f c7 22 3e 22 42 cf 3d 43 0a cb bd
       0.24765061 0.15896343 0.10120036 -0.09914067
0001a0 ef 42 98 3d b7 75 29 3e bd bf 6d 3e 22 28 6d 3d
       0.074346416 0.16548811 0.23217674 0.0578996
0001b0 07 28 9e 3e c7 43 29 3e 4d 1f ef 3d 92 b2 98 3c
       0.30889913 0.16529761 0.11675892 0.018639836
0001c0 18 22 c8 bd 58 f5 22 3d 86 48 b9 bd f7 91 03 be
       -0.09772128 0.03978476 -0.09047036 -0.1284865
0001d0 1b 08 da be 6f ea d5 bd 6a 0e 5b 3e fb 31 09 3d
       -0.4258431 -0.10445105 0.21392217 0.03349493
0001e0 51 a4 ed 3d 98 79 56 3d 78 92 f0 bd 5f cf 0b 3e
       0.116036065 0.052362055 -0.11746687 0.13653325
0001f0 21 36 3b be 63 9d 6c 3e 79 b5 13 be 11 a0 48 3d
       -0.18282367 0.23106913 -0.14424695 0.048980776
000200 76 d1 d9 bd f9 3d 9f 3e 33 c7 0e bd d1 b3 20 3d
       -0.10635655 0.3110197 -0.03485794 0.039233986
000210 a1 17 a9 be 55 db f7 bd ac 60 f7 3d 14 c5 7d bd
       -0.3302584 -0.12102381 0.120789856 -0.061955526
000220 ea ee 56 be 5a 5e 16 be 29 cc 9c 3e 6f 87 ef 3d
       -0.20989576 -0.1468443 0.30624512 0.11695754
000230 b1 b6 d8 bd 2c 61 fe 3d 83 f7 a8 3d 33 63 a2 3e
       -0.105817206 0.12420878 0.08250334 0.31716308
000240 90 b7 7a 3d c4 0c c9 3d 62 c7 05 3e 1a 22 ba bd
       0.061210215 0.09816888 0.1306434 -0.090885356
000250 45 79 3f 3d 74 09 10 3d bc c8 e9 bd 1a 7c 22 3e
       0.04674651 0.035165265 -0.1141524 0.15867653
000260 e5 dd 3c be ec 2b ec bd 22 32 56 3d 9d a3 7f bd
       -0.18444021 -0.11531815 0.052293904 -0.062411893
000270 b4 6e 1d be 9f 99 44 bc c1 82 84 3e ee 35 36 be
       -0.15374261 -0.011999517 0.25881007 -0.1779401
000280 8a 74 00 bd a7 8c c8 be 38 52 86 3e 95 43 95 bc
       -0.03136114 -0.3916981 0.26234603 -0.018220702
000290 e4 3c fa 3e 12 99 29 be 04 f7 4e bd 21 80 98 bd
       0.4887458 -0.16562298 -0.05052854 -0.07446314
0002a0 2d be fe bd cb df 0d 3e 49 39 ed bd 92 7c d7 3c
       -0.12438617 0.13854901 -0.11583192 0.026304517
0002b0 03 80 d0 bd 79 3f cd 3d fd c5 ad be fb c7 79 3e
       -0.10180666 0.10021872 -0.33940116 0.24392693
0002c0 9b 0c 89 bd 8c 40 cb be e3 a3 11 3d 33 a1 9d be
       -0.066918574 -0.39697683 0.035556685 -0.30787048
0002d0 1c f3 76 be 52 59 8e 3e da 8a 15 be ad 3b 77 3e
       -0.24116176 0.2780252 -0.14603749 0.24143858
0002e0 d2 03 95 bd bc 69 11 be bc f8 f8 bc e4 69 7e 3e
       -0.07276119 -0.1420049 -0.030392043 0.24845082
0002f0 39 d9 0c 3e 85 00 58 bd 74 29 e3 bd e6 5e 64 3e
       0.13754739 -0.05273487 -0.11091891 0.22301826
000300 b4 e7 36 be e6 60 98 be 1f fb f2 3c 18 a1 f4 bd
       -0.17861825 -0.29761428 0.02966076 -0.11944789
000310 ce 6d 48 bc 1b 2b dc bd e5 bd 1a 3e 18 fe df 3e
       -0.012233211 -0.10750409 0.15111502 0.43748546
000320 46 be 95 3e ca 7a 4a bd 8f a6 39 3e 13 4e 8d 3e
       0.2924673 -0.049433507 0.18129943 0.27598628
000330 be e3 4a bd 25 b5 97 bc 0d c5 2e 3d b9 7d 48 be
       -0.049533598 -0.018518994 0.04266839 -0.1957921
000340 1e 84 cb bd b4 e5 32 be 06 7c 03 3d 8d f3 e2 be
       -0.09937309 -0.17470437 0.0321007 -0.4432644
000350 3b b1 98 be 50 8e ee bd fe db 7c be 72 81 64 be
       -0.29822716 -0.11648238 -0.24693295 -0.22315004
000360 a3 5c 58 3e 50 45 a5 3d 5e f8 43 3e c8 5c 29 be
       0.21129088 0.08069861 0.19137713 -0.165393
000370 7d 7d c5 be de 2d 90 3c 8b 07 7f 3d 39 d5 86 3e
       -0.38572302 0.017599996 0.062263053 0.2633455
000380 94 a8 ab bd fb d8 ee 3d 5c cb 61 be 2b ba 57 bd
       -0.08381763 0.116624795 -0.22050232 -0.052667778
000390 d8 75 bd be dc 5a 6d be 68 79 da 3b a6 56 18 3e
       -0.3700397 -0.23179191 0.006667305 0.14876804
0003a0 50 62 74 3e 9b 34 1a 3d 90 91 3f be dd 03 13 be
       0.23865628 0.037647825 -0.18707871 -0.14356942
0003b0 49 90 1f bc d5 ee a7 3d 51 eb 24 3c 76 e3 f1 3d
       -0.00973899 0.081998505 0.010065869 0.11810963
0003c0 de 54 ab be 44 7c 65 3e e6 47 44 3b d8 ae b8 bc
       -0.33463186 0.22410685 0.0029950081 -0.02254431
0003d0 da 45 a3 3d 30 b4 c5 3c 2c ef 80 be e1 b6 8b bb
       0.079723075 0.024133772 -0.25182474 -0.004263744
0003e0 47 3b 73 3d 45 82 94 3d 6c 24 37 be cd de 2a 3e
       0.059382703 0.072514094 -0.17884988 0.16686554
0003f0 fa a3 86 be c3 3a 7b bd e6 6d a2 3e 22 bc 09 be
       -0.2629698 -0.061335336 0.3172447 -0.13450673

critic.1.bias f4 [64]
000000 b6 43 a6 bd d0 f5 94 3d ff cd 91 3d f8 66 43 3d
       -0.081183836 0.072734475 0.07119369 0.04770562
000010 5f 53 34 bd ec d2 a9 be 23 07 05 3d 7c ce ad 3c
       -0.04402482 -0.33168733 0.03247751 0.021216623
000020 dd b1 8e bd e4 26 6e 3d b6 f4 cc 3d 03 53 b1 bd
       -0.069675185 0.058142558 0.100076124 -0.08658411
000030 91 24 32 3d 4e 76 cd b9 83 01 3c 3d ba 67 0d 3e
       0.043491904 -0.0003918879 0.04589988 0.138091
000040 f9 9b 3d bd 3a 13 45 3d c1 8d 32 3d 89 e6 37 bd
       -0.046291325 0.04811404 0.04359222 -0.04489759
000050 44 1a 2f bd 4d 97 82 bd e1 51 d4 3c 02 c3 d9 bd
       -0.04274966 -0.063765146 0.02591795 -0.10632898
000060 36 bf 18 3e dc d6 0f 3d 51 45 bb bd 7f ba 04 be
       0.14916691 0.035117015 -0.091440804 -0.12961768
000070 b5 e0 15 be 8a 27 fd 3d 09 de 40 3d f4 39 5f bd
       -0.146365 0.12361057 0.04708675 -0.054498628
000080 51 5d 82 bd 3a 7e 2f bd 96 35 17 bd e8 54 c6 3c
       -0.06365455 -0.04284499 -0.036916338 0.024210408
000090 e2 2b 35 be 4b 76 93 3d 56 e5 2f 3d a6 14 84 3d
       -0.17692521 0.07200297 0.04294332 0.06449251
0000a0 7e 99 81 3d e9 60 85 bd 14 93 9c 3d 34 7a bc bc
       0.063281044 -0.06512625 0.076452404 -0.02300749
0000b0 6c 30 9b bd 95 6e 89 3d 43 d2 73 3d 15 5b 7c bd
       -0.07577595 0.06710545 0.059526693 -0.0616103
0000c0 4a f8 8d bd cf eb 35 3d ea 3a 3c 3d d9 18 47 3d
       -0.06932123 0.044414338 0.045954622 0.04860768
0000d0 09 3b 7b bc d2 23 56 3d 73 dc 26 bd f5 58 28 bd
       -0.015333899 0.052280255 -0.04073758 -0.04110046
0000e0 de 1f 9b 3d ac f5 51 bd 06 ca c9 3c d8 2d 02 bd
       0.075744376 -0.05125968 0.024632465 -0.031782
0000f0 4e aa 4e bd 28 01 69 3d ce ad 4f bd 10 9e 84 3d
       -0.050455384 0.05688587 -0.050702862 0.064754605

critic.3.weight f4 [64, 64]
000000 8c 83 92 3e cd 32 50 3e 3f 1d 15 be 05 22 c9 bd
       0.28615987 0.20331879 -0.14561938 -0.09820942
000010 18 78 a5 be 17 ac 15 3e a5 0b 6d 3e fd ef 2f be
       -0.32318187 0.14616428 0.23148973 -0.17181392
000020 0d 15 34 3e e5 f0 92 3e e4 ad d9 bd 28 f7 09 3e
       0.17586155 0.28699413 -0.1062887 0.13473189
000030 97 14 da bd 63 c6 ed bd bf 02 84 3e 4d 58 ed bc
       -0.106484585 -0.11610105 0.25783345 -0.02897277
000040 6f a5 46 be 2d bc 0f be 33 59 92 3b 06 3f b0 3c
       -0.19399045 -0.14036627 0.0044662 0.021514427
000050 47 4c b6 3c dc 36 6c bd 25 9f 85 be dd bd 91 be
       0.022253169 -0.057669505 -0.2609798 -0.28465167
000060 0f 71 9c be 6f 9b d1 3d 05 59 22 3d 4f c7 1d 3e
       -0.30555007 0.10234725 0.039635677 0.15408061
000070 2d ed 0b 3e f9 09 38 3d 6a 30 a3 3d f1 63 65 be
       0.13664694 0.044931386 0.079682186 -0.22401406
000080 9b 7f 33 3e 17 83 9f 3e d1 68 c9 3d 31 a3 56 3e
       0.17529146 0.311547 0.09834445 0.2096069
000090 71 f3 67 3c ad c2 39 be 5b a7 99 3e 0a 3c f3 bd
       0.014157162 -0.18140669 0.30010495 -0.11876686
0000a0 ae e9 1a be b4 37 e7 3d 59 d3 ca 3d d3 23 e3 bd
       -0.15128204 0.112899214 0.099035926 -0.11090817
0000b0 56 2f f2 bd b4 25 a4 bd b2 4e f9 3b 5b df f7 3d
       -0.11825435 -0.08015004 0.007608258 0.121031485
0000c0 44 3e 11 3e dd 6d 86 bd 51 43 72 be 89 61 a3 bd
       0.14183909 -0.065639235 -0.23658492 -0.07977588
0000d0 4a 13 66 bd 3c 49 f1 3a c0 c5 9e 3d e6 3a e3 be
       -0.05617074 0.0018408666 0.077525616 -0.44380873
0000e0 65 84 c4 bd bd 65 b9 be b2 70 5f 3e c8 17 a7 be
       -0.09595565 -0.36210433 0.21820334 -0.3263533
0000f0 7d 2e 56 bd 31 0c 05 bd 30 a3 a6 bc b1 ab 90 3d
       -0.05229043 -0.03248233 -0.020341486 0.070639975
000100 b6 29 f4 3d 3f 06 92 3d 36 f4 39 3e 96 f3 31 bd
       0.11922018 0.071300976 0.18159565 -0.043445192
000110 ad ec 56 be 5d 8d 57 3e ee d5 06 3e 67 ac 5b bd
       -0.20988722 0.2105002 0.13167545 -0.053631213
000120 eb af c7 3d 4d cb bf be 61 b5 42 be 7b b5 e8 ba
       0.097503506 -0.37459794 -0.19014503 -0.0017754281
000130 be e5 27 3d e3 e9 1d 3e d2 65 62 3e 47 c6 3a bc
       0.040990584 0.15421252 0.22109154 -0.011399812
000140 b3 4c c9 bd bc eb b7 3e 71 4e 5d be 71 ba 4c 3e
       -0.09829082 0.3592204 -0.21611954 0.19992997
000150 40 72 47 bb 51 a4 43 3e c3 b7 40 bb 9e ca ff 3d
       -0.0030433089 0.1910565 -0.0029406406 0.12489818
000160 36 d9 57 3e a6 7e fd bd 26 d5 1e be b8 c3 69 3e
       0.21078953 -0.12377672 -0.15510997 0.22828567
000170 fb 87 8d bd 2b 80 b4 3e d4 7a 36 bd 80 85 6a 3e
       -0.06910702 0.35254034 -0.04455073 0.22902489
000180 75 65 b7 3c 9d 27 c8 bb ba 5f e2 bd 93 d1 64 bd
       0.022387246 -0.006108238 -0.11053415 -0.055863928
000190 f3 68 cb bd 06 f5 35 3e cb da 3b 3e c1 72 13 3d
       -0.09932127 0.1776925 0.18345182 0.03599811
0001a0 99 b1 80 be 2b bd 1b 3e b1 08 17 be 02 43 d8 3e
       -0.25135496 0.1520888 -0.1474941 0.42238623
0001b0 b9 61 ea 3d e4 84 ac bd 21 67 17 3e db b6 90 3e
       0.1144442 -0.084237844 0.14785434 0.28264508
0001c0 69 b5 e4 3d 2c 95 40 3e f8 72 43 be a6 50 69 3e
       0.11167414 0.18806905 -0.19086826 0.22784671
0001d0 8b c5 0e be 71 b4 ac 3d 6d 9a d7 3d d4 72 5f bc
       -0.13942544 0.08432854 0.10527501 -0.013638217
0001e0 2f 1b 65 3d 74 2c 24 3e 88 11 20 bd d3 89 19 be
       0.055934127 0.16032583 -0.03907922 -0.14993982
0001f0 49 b5 15 bd c4 01 83 3e 0d ad 36 3e 06 2d 2d 3e
       -0.03654984 0.25587285 0.17839451 0.16911706
000200 ea 87 66 3e 3a 5e e5 3d 2f a7 0b 3d 33 2a 1f be
       0.22512785 0.11199613 0.034094986 -0.15543441
000210 4e 70 1c 3e 17 49 17 3e a9 80 fb bd 70 0b 3a bd
       0.15277216 0.14773975 -0.12280399 -0.045421064
000220 5f d1 b5 3d 0e f8 13 3d 8d e1 89 3e 97 27 5e be
       0.08877825 0.036125235 0.26929894 -0.2169479
000230 cb d1 86 3e 31 97 85 3e 63 62 3b be f8 bd 24 3c
       0.26331934 0.26091912 -0.1829925 0.010055058
000240 72 f0 4b 3e b5 ce 54 be 91 6b 1c be 89 aa 79 3d
       0.19915941 -0.20781977 -0.15275408 0.06095365
000250 3b b3 ab be 5b 1b c9 bd 04 d1 dc bd 1a cc 3a 3d
       -0.3353518 -0.09819671 -0.10782054 0.045604803
000260 ec b4 75 bd 65 14 01 3e 2c d0 e6 bd f8 a1 9a 3d
       -0.059986994 0.12605436 -0.112701744 0.07550424
000270 d6 c5 a7 3c 40 61 b0 3e cb 7e 04 3c d2 61 53 3e
       0.020480078 0.34449196 0.00808687 0.20642784
000280 c9 a2 24 be f3 53 09 3e 7f 85 6b ba 23 cc ed bd
       -0.16077723 0.1341093 -0.0008984431 -0.116112016
000290 66 6f 91 3d ee 08 d8 3d 41 cb 02 3e e4 f1 07 be
       0.07101326 0.10548578 0.12772848 -0.13275868
0002a0 9c 90 44 be c1 41 6f be 6c 03 d3 3e 49 c6 74 be
       -0.19195789 -0.23364927 0.41213548 -0.23903765
0002b0 7c f7 a8 3a 79 ba 8b be 09 da 72 bd 34 63 9b 3c
       0.0012891139 -0.27290705 -0.059289966 0.018968202
0002c0 1d b9 18 be 3f 4c b4 3d c1 b9 78 be b5 bd a4 bd
       -0.14914365 0.08803605 -0.2428961 -0.08043996
0002d0 4d f2 62 be 68 d7 ce bd 3c e4 d0 bd a2 7c 0c 3e
       -0.22162743 -0.10099679 -0.10199782 0.13719419
0002e0 45 6c e5 3d b1 ea a6 3d 90 86 35 3c ef 68 9c be
       0.112022914 0.081502326 0.0110794455 -0.30548808
0002f0 d5 91 3d 3c 6b b7 00 3e 03 c7 39 3e 95 02 e3 be
       0.011570414 0.12569968 0.18142323 -0.44337907
000300 6a 6b bf be 1e 7b c1 3c e7 d6 06 3c 24 29 5c bc
       -0.37386638 0.023618277 0.008229948 -0.013437543
000310 76 00 91 3d 68 b2 37 3e 5a 67 98 3d 4a a7 50 be
       0.07080166 0.1793915 0.07441588 -0.20376316
000320 81 92 3c 3e 60 7d 3f bc 78 62 1f bd 6c 65 05 bd
       0.18415262 -0.011687607 -0.038912266 -0.032567427
000330 f5 44 fa 3d 2e 95 92 be 0c dd df 3d 8f 3a 35 3e
       0.12220184 -0.2862944 0.10930833 0.1769812
000340 bd da 8b 3e b1 2e 43 be 63 78 90 3d 1e 56 e6 3c
       0.27315322 -0.1906078 0.07054212 0.028117236
000350 2c e1 dc 3d a3 c5 60 be 7c ad d6 3d 66 7e 69 3e
       0.107851356 -0.21950392 0.10482308 0.22802123
000360 4f 1f 1f be 02 59 9b 3c 5f 4d 54 3d 47 1d 19 be
       -0.15539287 0.01896334 0.0518316 -0.14952575
000370 3e 8d 6a 3e b9 4b 9d 3d 4b 69 2b 3d 6a 52 4b 3e
       0.22905442 0.076804586 0.041848462 0.19855657
000380 cd e7 31 be d7 e6 5f 3e f8 64 30 3e e8 41 33 be
       -0.17373581 0.21865402 0.17226017 -0.1750561
000390 25 f1 fb bd 1e 14 b5 3d 92 43 a6 be cd 6d 22 3e
       -0.12301854 0.08841728 -0.32473427 0.15862198
0003a0 86 60 aa bd 20 21 62 3e 3c cc 93 3c 5b 91 4c bc
       -0.08319192 0.22082949 0.018041722 -0.012485827
0003b0 2b c4 4a be a3 d9 eb 3d 4f 75 96 3e 64 df 94 3e
       -0.19801395 0.1151612 0.29386374 0.29076684
0003c0 e7 65 a2 be 5b 35 3c bd a3 d8 b1 3d 26 8b a4 3d
       -0.3171837 -0.04594932 0.08683898 0.08034353
0003d0 5b 4a eb 3c 86 9d 08 bc 4b c9 93 3e a7 e1 53 3e
       0.028721979 -0.008338338 0.28864512 0.20691548
0003e0 49 bd 2e be 24 a4 65 be df 44 a4 3d 8a cf 9e be
       -0.17064394 -0.22425896 0.080209486 -0.31017715
0003f0 f3 e1 cb 3e 85 7c 65 bc 0d 3a bc be bb ee 6e bd
       0.39820823 -0.014006739 -0.3676304 -0.05833314

critic.3.bias f4 [64]
000000 9e bd f9 3c c0 67 98 3d fc 33 73 bd 9d 98 8a bd
       0.030485924 0.07441664 -0.059375748 -0.0676739
000010 ec f6 a6 bd 20 57 a8 bd d9 b8 d2 3d e0 9a 72 3d
       -0.08152565 -0.08219743 0.10289163 0.05922973
000020 cc 91 6f 3d b0 d6 a4 3d 34 73 7f bd c6 29 d8 3d
       0.058488652 0.08048761 -0.062365726 0.10554843
000030 b4 a7 d1 3d 79 7e 7e bc 57 23 21 bd 0b 1d 74 bd
       0.10237065 -0.015533083 -0.039340343 -0.05959801
000040 0a eb 49 bd 99 1c 34 3d f5 24 99 bd c2 28 97 3d
       -0.049296416 0.043972585 -0.07477752 0.07380821
000050 9a 7e 2c 3d 0a 1e 7f bd 1b 23 8e bd b0 ea dd 3d
       0.042112924 -0.062284507 -0.069402896 0.10835779
000060 b5 e3 a4 3d e8 91 b7 bc 57 ed c1 3d 88 22 5b 3d
       0.08051244 -0.02240844 0.09469097 0.05349973
000070 88 30 82 3d 9b 6a 9d bd fb 91 a5 3d 4f 3a 8d 3d
       0.06356913 -0.07686349 0.08084484 0.06895887
000080 6e e8 a2 bd 5a 91 3d bd b9 78 8b bd f1 d2 41 3d
       -0.07954489 -0.046281196 -0.068101354 0.04732031
000090 1c b8 5e bd 3c 16 8d 3d e9 bb 84 3d a8 d7 21 3d
       -0.0543748 0.068890065 0.064811535 0.039512306
0000a0 50 94 70 bd 0e 54 8a bd f3 d5 5f bd 1f 1d 38 bd
       -0.05873519 -0.067543134 -0.054647397 -0.044949647
0000b0 1a 91 d6 bd 97 9c bb bd 90 1d 8a 3d cd 75 9d 3d
       -0.10476895 -0.091607265 0.0674392 0.07688484
0000c0 d1 ad a9 3d e5 82 8e bd ae 5d d8 bd 44 36 b6 3d
       0.08285106 -0.0695856 -0.10564743 0.08897069
0000d0 72 83 66 3d 5a 80 a0 bd 1a 72 c2 bd d0 76 88 bd
       0.0562777 -0.07836981 -0.094944194 -0.06663287
0000e0 54 e7 56 3d 61 33 7e 3d 5f 4e a9 3d ab 7f 97 3d
       0.052466705 0.062060717 0.08266901 0.073973976
0000f0 02 c9 93 bd 62 18 74 3d 7a b0 97 bd a6 2e 86 3d
       -0.072160736 0.059593566 -0.07406707 0.06551866

critic.5.weight f4 [1, 64]
000000 40 27 d4 bd ad 7d 24 bd c8 46 03 3d 24 e7 e0 3d
       -0.10359049 -0.040158916 0.032049924 0.109815866
000010 e5 80 49 3e e1 5f a3 3d 0b b7 6a bd d2 f8 f7 bd
       0.19678076 0.07977272 -0.05730347 -0.121080056
000020 ea 47 dc bc a7 d9 e3 bd 30 ec 63 3e dd d5 31 be
       -0.02688976 -0.11125498 0.22258067 -0.17366739
000030 a3 56 90 be 74 84 09 3c b7 df 06 3e a9 7b db 3d
       -0.281911 0.008393396 0.13171278 0.10716946
000040 0a 9f c8 3d 60 76 14 be 66 a1 ab 3c 1d aa 9f bc
       0.09795959 -0.14498281 0.020950984 -0.019490296
000050 01 9f 54 bd 22 ad db 3d da ed 4e 3e 1f 37 f1 bd
       -0.05190945 0.10726382 0.2020792 -0.11778092
000060 e4 ad c0 bd 54 53 b8 3c 0d 09 aa bd 45 2e 63 bd
       -0.09408167 0.022500671 -0.083025075 -0.055464048
000070 35 bd 2d be 8a e8 1a 3e 7d 17 ee bd dc 38 81 be
       -0.16966708 0.15127769 -0.11625574 -0.25238693
000080 26 65 93 3e 23 e8 a4 3d 26 f7 ca 3d 58 e4 1d 3b
       0.28788108 0.08052089 0.09910421 0.0024092402
000090 4d 1e 06 3d e1 3a ec bd 06 3b d6 bd 08 b0 c7 bd
       0.03274374 -0.11534668 -0.104604766 -0.09750372
0000a0 a4 b5 b1 3c 06 6f 45 3e 93 f9 3f 3d 75 72 c2 3d
       0.021693058 0.19280633 0.046868872 0.09494487
0000b0 c4 b6 b5 3e d5 3e 8f 3e 45 89 d7 bd e4 43 29 be
       0.35491002 0.27977625 -0.10524229 -0.16529804
0000c0 af 7f dd bd ee f7 42 3e 8c 47 d2 3d 0a dc aa bd
       -0.10815369 0.1903989 0.10267553 -0.0834275
0000d0 61 29 7c bc 00 1e b9 3c 25 94 12 3e 11 29 ee 3c
       -0.015390725 0.022597313 0.14314325 0.029072316
0000e0 9b cd 81 bd a2 d5 e1 bd 71 f0 b9 bc e5 eb 02 be
       -0.06338044 -0.11027075 -0.02269766 -0.12785299
0000f0 0e 11 62 3e 8e 7b f3 bc c0 5d 06 3d 33 ad bf bc
       0.22076818 -0.029722001 0.03280425 -0.023398018

actor_mean.0.weight f4 [64, 36]
000000 dd e4 27 be 3a 5f bb be 12 15 c2 3e cc 75 0f 3e
       -0.16395898 -0.3659609 0.379067 0.1400978
000010 fd b8 fc 3d a7 e3 11 3e 5a f5 8c be 38 bd 21 3c
       0.12339971 0.14246999 -0.27530938 0.009871773
000020 f5 18 71 be ba 3c 37 3e 8b 32 be 3e a8 31 d3 bd
       -0.23544677 0.17894259 0.37147936 -0.103122056
000030 10 5d 10 bc aa 2b af 3e 69 6e 18 3e 56 d1 8e bc
       -0.00881125 0.34213 0.14885868 -0.017433804
000040 ea 99 5d 3d 17 36 6b 3e 5f 98 23 3e 23 11 27 bd
       0.054101862 0.22969852 0.15976094 -0.040787827
000050 9c b5 14 3e 82 2c ed 3d d4 cc 51 3d 1f 2b 64 be
       0.14522403 0.11580755 0.05122073 -0.22282074
000060 8c 2a fe 3d 21 88 46 bd c8 f6 71 be bf ad 0a 3d
       0.12410459 -0.048469666 -0.23629296 0.033857103
000070 fe 3c 74 3e b6 59 06 3e e9 72 cc bd c8 a4 c3 bd
       0.23851392 0.1312016 -0.09982855 -0.09552914
000080 b5 03 a4 be d0 8f 29 3e 5e 3a 5e be fe 5a e4 be
       -0.32034078 0.16558766 -0.21701953 -0.44600672
000090 b6 1a b2 be 3f 33 07 be 97 c7 68 bd 54 44 22 be
       -0.34786004 -0.13203143 -0.05683097 -0.15846378
0000a0 ab c5 6f 3e c6 bd 2b bd 54 4f 35 3e 16 6a 2e 3c
       0.23415248 -0.04192903 0.17706043 0.01064541
0000b0 65 02 ba bc a5 1c ba bd 7f a9 6f 3d d9 e8 7e 3c
       -0.02270622 -0.09087495 0.058511253 0.015558445
0000c0 6e 30 35 bd a8 7d ce be c2 72 00 3e 4e 7e f2 bd
       -0.04423564 -0.40330243 0.12543777 -0.11840497
0000d0 97 91 61 3d 7c a9 47 3e a5 ad 14 3d 92 b7 52 bd
       0.055070486 0.19498247 0.036298413 -0.051444598
0000e0 d4 bf 7b 3d a3 76 4a be ac 94 47 be 7b f4 33 3e
       0.06146224 -0.19771819 -0.19490308 0.1757373
0000f0 9f 7a 47 be 2a 37 05 bf 2a 22 1e be 5d a8 7e bd
       -0.1948037 -0.520373 -0.1544272 -0.062172282
000100 41 9b b4 bd a2 72 8e be 41 3f 93 3d b1 76 0d 3e
       -0.08818675 -0.27821833 0.07189799 0.13814808
000110 a6 d3 19 be 9e 69 ea 3b 66 56 4c bd 49 10 32 3e
       -0.15022144 0.007153704 -0.049887083 0.17389025
000120 d7 a2 de 3d 5b c1 be 3c c0 dc b3 3d dc 0f a9 bd
       0.10870903 0.023285558 0.08782339 -0.08254978
000130 80 85 26 3e 02 67 47 be 7d fd 74 3e a3 2c 47 be
       0.16261864 -0.19472888 0.23924823 -0.19450621
000140 44 23 94 be fc 71 ec bd 68 e4 6e 3d 90 9f e7 bd
       -0.28933156 -0.11545178 0.058323294 -0.11309731
000150 14 25 ba bd 3c 7b 87 bc 2e aa 01 bd fd 68 ef bd
       -0.09089103 -0.016538255 -0.031656437 -0.11689947
000160 e9 7d 8f 3c 33 3d ab 3c 21 89 bf be b6 09 3b 3e
       0.017516093 0.020903205 -0.3740931 0.18265423
000170 cd 94 47 be 8f dd 5e be 18 9b 66 3e a0 1e 42 be
       -0.19490357 -0.21764205 0.22520101 -0.18956995
000180 1e cd 17 3e bd 87 bf 3e af fb de 3d 42 99 22 3e
       0.1482434 0.37408248 0.108878486 0.15878776
000190 b9 c6 e3 bd 20 d1 90 3e 80 47 d0 3d 62 6c 5b be
       -0.11121888 0.2828455 0.101698875 -0.21428064
0001a0 55 3a de 3d 23 88 85 3b 68 59 f1 bd ea 13 a8 3d
       0.1085097 0.0040750667 -0.11784631 0.08206923
0001b0 ac 8f 0e be b3 60 a7 3e 7e 42 83 3d 68 88 9c 3c
       -0.13921994 0.32690963 0.06409167 0.019108012
0001c0 b2 13 cc 3c 78 53 9f be e3 3f 16 bc 4c 46 04 be
       0.024911735 -0.3111837 -0.009170505 -0.12917441
0001d0 fb ef 55 3d 3e d4 52 bc 44 a2 ea bd 4f 45 0c 3d
       0.052230816 -0.012867985 -0.11456731 0.034245785
0001e0 ba 02 20 be a1 ba dd be 5b a0 6b be 83 4c 19 be
       -0.1562604 -0.4330645 -0.2301039 -0.14970593
0001f0 a4 fc 60 3d b7 f3 4f 3e 83 13 bc 3e 2a e7 49 3e
       0.054928437 0.20307814 0.36733636 0.19717088
000200 61 fb 1d 3d 8e d8 45 3c bc e8 17 3b 7d 7f 82 3e
       0.03856981 0.012075556 0.0023179492 0.2548789
000210 c6 37 a9 3e 00 a5 df 3b 66 53 26 3e 6b d7 2e 3d
       0.33050364 0.0068250895 0.16242751 0.042685907
000220 89 50 71 be bd dd 97 3e c8 98 db bd 73 1e a3 be
       -0.23565878 0.2966136 -0.107225 -0.31859168
000230 96 b2 80 be 9b 85 0d bd 39 63 ff 3d 10 3c a3 be
       -0.2513625 -0.034551244 0.12470097 -0.31881762
000240 5d 13 af bc 2d d0 16 3e b5 95 5b bc f3 45 9c 3e
       -0.021371538 0.1472785 -0.013402392 0.30522117
000250 33 fd a6 3e 2c 28 80 be 44 da 8b bd 5d 5e 4a 3e
       0.3261505 -0.2503065 -0.0682874 0.19762559
000260 53 85 15 be 49 07 84 bd 5a bf 83 3d df 41 a7 3d
       -0.1460164 -0.06446702 0.06432982 0.08166861
000270 f7 cf 62 3e 50 2e 4b be fd cb 09 bb b3 ae 1e be
       0.22149645 -0.19841886 -0.0021026128 -0.1549633
000280 83 76 be 3d ef 03 04 be de fe 94 be 9b b3 0d 3e
       0.09299948 -0.12892126 -0.29100698 0.13838045
000290 23 dd 90 3b 05 a9 0d 3e e4 5f 81 bd 53 ac 69 bd
       0.004420893 0.13834007 -0.06317118 -0.057049107
0002a0 67 21 00 be 08 97 14 be 55 98 44 be 13 e8 24 3d
       -0.12512742 -0.14510739 -0.19198735 0.040260386
0002b0 60 8a 64 bd 3e e2 95 3d fd 75 74 be 9a e9 3c 3e
       -0.055796027 0.07318543 -0.23873134 0.18448487
0002c0 54 bd aa be 8f 9c 27 be 55 08 95 bd 1f 0d ac 3e
       -0.3334757 -0.16368316 -0.0727698 0.3360376
0002d0 5b 06 79 3e eb 37 c9 be 04 e8 0f be 30 30 bf bd
       0.2431883 -0.39300475 -0.1405335 -0.09335363
0002e0 2a 99 f5 3b 05 54 49 3e ee a1 df bc 59 49 68 3d
       0.007495065 0.19660957 -0.027298894 0.056710575
0002f0 58 37 91 3e 88 44 6d be 48 8d 6b be 4b c2 9f 3e
       0.28362536 -0.23170674 -0.23003113 0.3120292
000300 1d 02 43 bc 4c ee 9c be 68 66 51 3e a4 9f d1 3d
       -0.011902359 -0.30650556 0.20449221 0.10235527
000310 8a af 0b be 41 2c cb bd b0 b1 59 bd 48 dd a9 3e
       -0.13641182 -0.0992055 -0.05314797 0.33176637
000320 29 15 db bd f4 84 d3 3d a4 d4 7e be d5 b8 1c be
       -0.10697395 0.10328093 -0.24885803 -0.15304883
000330 21 77 8d 3d 7f 49 07 3c cc 56 08 3e e1 bf ce 3d
       0.06907488 0.008257269 0.1331436 0.10095192
000340 45 6e 4d 3e ea f0 98 be 19 e2 93 be d3 2a 9f be
       0.20061596 -0.29871303 -0.28883436 -0.3108736
000350 a2 2b 88 3e e4 80 d6 bd fe b4 cc bc 80 88 40 be
       0.2659579 -0.10473803 -0.024988648 -0.1880207
000360 79 d8 92 bd cf b8 a5 bc c6 dc 99 bd e1 bd 84 3e
       -0.07170195 -0.020229725 -0.07512812 0.25926116
000370 e9 40 3c be 3c a8 f1 3c da 32 14 bd 97 d3 9f 3e
       -0.18384136 0.029499166 -0.03618131 0.31216118
000380 d9 f8 cb be 4b 91 d3 bd 04 ca 8e bd 32 b8 4d 3e
       -0.39838293 -0.10330447 -0.06972125 0.20089796
000390 af 35 0c be 91 eb 99 be a3 14 9d be 89 77 71 be
       -0.13692354 -0.30062535 -0.30679807 -0.23580755
0003a0 f4 49 c2 3c a1 24 7b be 68 1c 96 3c 2e 72 81 be
       0.023716904 -0.24525692 0.018324092 -0.25282425
0003b0 88 59 9c be d3 ec 82 bd 91 a9 17 3d 16 0b 73 3c
       -0.30537057 -0.06392827 0.037026946 0.014834186
0003c0 98 b7 1f be b7 13 78 be 0f 79 8d 3e 1f a3 c5 be
       -0.15597379 -0.2422627 0.27631423 -0.38601014
0003d0 aa a7 11 3d 03 21 ab bd 09 08 9f 3d fd ce 33 3e
       0.035560288 -0.08355906 0.077652045 0.17559429
0003e0 44 9a 6e 3e 25 94 d3 bd c7 7b 9c 3d 49 07 67 3d
       0.23301035 -0.10330991 0.07640796 0.056403432
0003f0 63 e6 bb 3d ff 56 95 3e 8e 06 73 3d 43 1d c7 be
       0.09174802 0.29167935 0.059332423 -0.38889512

actor_mean.0.bias f4 [64]
000000 c9 27 46 bc 47 2f c3 bc ed 55 a8 3c b3 96 3b 3b
       -0.012094446 -0.023826255 0.020548785 0.002862376
000010 68 34 1e ba 75 ea 69 bc a1 be 25 3b 91 2d 39 bd
       -0.0006035031 -0.01427709 0.0025290626 -0.04520947
000020 ce e0 17 bd a2 d3 03 3e bc 79 93 3d 3d 81 9e 3d
       -0.037079625 0.128737 0.07200953 0.07739494
000030 25 d0 92 bd 42 f2 2c bd 62 3f a1 3b d0 86 e4 3a
       -0.07168607 -0.042223223 0.004920886 0.0017435197
000040 d4 0c 34 bd e7 8e 0f 3d e0 e8 5b 3c 62 f1 ba 3d
       -0.043957546 0.03504839 0.013422221 0.09128071
000050 f8 25 4b bd d2 73 7e bd 57 cf 8d bd 76 f2 07 bc
       -0.049596757 -0.062122174 -0.069243126 -0.008297553
000060 74 ac 42 3d dc a9 03 3b bd 0b 6d 3c 64 0e 69 3d
       0.047527745 0.0020090258 0.014468131 0.05689849
000070 ed 0b 21 3d f7 0d 0e bc e6 b8 3e bd 4c af 6f 3c
       0.039318014 -0.008670322 -0.04656305 0.014629196
000080 fa 20 12 3d ed 38 85 3d 86 4c ef 3d c5 23 61 3d
       0.03567598 0.06504998 0.116845176 0.054965753
000090 46 fb b2 3c 65 dc 65 3d 5c 2a 7d 3d ac ed e9 bc
       0.021848332 0.056118388 0.061807975 -0.028555714
0000a0 12 03 ba 3d e4 6c 1c 3d 9b 23 ad bb 26 c8 a5 3d
       0.09082617 0.038189784 -0.0052837855 0.08094816
0000b0 cb fd 49 3d 42 fa 6a 3d 60 78 38 3c 04 ac 4b 39
       0.0493143 0.05736757 0.011259168 0.0001942367
0000c0 77 57 b8 3c f3 99 a8 bd 3d 13 d2 3b 3d e8 3d bd
       0.022502644 -0.082324885 0.006410985 -0.046364058
0000d0 1d 79 25 3d 06 73 ab 3b a0 b6 a5 3c ac b2 d5 3b
       0.040398706 0.0052322177 0.020228684 0.0065215435
0000e0 ea 2f 1b 3d 6a fe bb 3c 23 d9 0f bc 5c d0 1e bd
       0.03788749 0.022948463 -0.008779797 -0.038772926
0000f0 c4 08 03 3d 9f 8d b4 3c f3 85 2e 3d c5 d9 ec 3c
       0.03199078 0.022040186 0.042608213 0.028912434

actor_mean.2.weight f4 [64, 64]
000000 36 d0 90 3e 08 5d 10 bd 69 8d c3 bd a8 48 17 be
       0.28283852 -0.03524497 -0.09548456 -0.1477381
000010 fa e7 67 3e 29 65 03 bd 2b ae cd 3d 24 4d 01 3e
       0.22647086 -0.032078896 0.100429855 0.12627083
000020 ac b5 a9 be 5e 37 99 bd 71 d3 0b 3c 95 ac a4 3d
       -0.33146417 -0.074812636 0.008534298 0.0804073
000030 53 f7 83 3e 56 99 d9 bd 83 8e de bd b6 5a 23 be
       0.2577463 -0.1062495 -0.10867026 -0.15952572
000040 f7 a1 6d bd 95 9a 7c 3d ae 4c 7d 3e 01 9f 33 3d
       -0.05801579 0.06167086 0.24736282 0.04385281
000050 45 3f b1 3e 46 ac 80 bd 5e 45 06 be c5 07 9a 3c
       0.34618583 -0.062828586 -0.13112399 0.018802533
000060 e0 c0 0b bd c4 21 49 3e 07 ba 87 3e b6 53 1b 3d
       -0.034119487 0.19641787 0.26509115 0.03792163
000070 d7 f0 6e 3d df fa 6b 3e 94 9e 4b 3e 0c cf eb be
       0.05833515 0.23044918 0.19884712 -0.46056402
000080 92 59 09 be 2e a3 33 bd 81 18 da bd 36 d8 c9 bd
       -0.13413075 -0.043856792 -0.10649205 -0.09855692
000090 d9 e9 0d be 50 b1 d5 3d b7 6e d8 3c 81 92 d3 3d
       -0.13858737 0.1043421 0.02641998 0.10330678
0000a0 f8 8e 32 3e 20 15 17 3e 9f 85 8c 3d ad c6 11 3d
       0.17437351 0.14754152 0.06861424 0.035589863
0000b0 21 0f ed bd e9 bb d6 be 20 fe 80 3d 7b c7 b3 bd
       -0.11575151 -0.4194024 0.062984705 -0.08778282
0000c0 f9 2b 43 bc d8 4a da be 37 34 c6 3d 89 23 2b bd
       -0.011912339 -0.42635226 0.09677928 -0.041781936
0000d0 5d f6 8e be a3 6a 85 3e c4 c8 32 ba 58 86 3a 3e
       -0.27922335 0.2605792 -0.00068200775 0.1821531
0000e0 65 4b a1 be 37 b7 6c be 36 8c cf 3d 6a a8 4e 3e
       -0.31502834 -0.23116766 0.10134165 0.20181432
0000f0 80 70 f2 3d 7e f9 96 be 30 b5 7e 3d 35 43 07 3e
       0.11837864 -0.29487222 0.062184513 0.13209231
000100 28 16 7b 3e f9 06 e1 be 0d 20 04 3e 40 de 97 3d
       0.2452017 -0.43950632 0.12902851 0.07415438
000110 67 fd ae 3d 98 93 6d bd 51 e3 4c bd 37 b0 ec 3c
       0.085444264 -0.058002084 -0.050021473 0.02889262
000120 16 f0 03 bc 09 9b d1 be 83 f2 db bc ef 56 5f 3e
       -0.008052846 -0.40938595 -0.026849037 0.21810506
000130 67 2f 63 be 8d 3e f7 3e 7f 09 14 bd 71 7b bc bd
       -0.22186051 0.4828991 -0.03614187 -0.09203232
000140 5b fc a3 be 42 8c 39 be e1 11 7e 3d 21 5f 2d be
       -0.3202847 -0.1811991 0.06202877 -0.1693082
000150 d6 7e 9b 3d 5d d4 64 bd 4e a6 68 3e 76 83 38 3e
       0.075925514 -0.055866588 0.2271969 0.18018898
000160 95 0d 8f 3e f5 bd a3 be db 22 50 3c a8 ea 69 3e
       0.2794005 -0.31980863 0.012703623 0.2284342
000170 de 0c 03 3e 19 c0 a9 3d 23 e2 2f be 8b d5 5b ba
       0.12797877 0.08288593 -0.17176108 -0.00083860074
000180 5f e3 04 3e ba f3 06 bc ae b2 5f 3e d7 14 5d bd
       0.1297736 -0.00823682 0.21845505 -0.053974953
000190 0c 3f 4b 3e 19 68 04 3e a3 c1 87 3e 6c 4f 03 be
       0.19848269 0.12930335 0.2651492 -0.12823266
0001a0 6e d4 8e bd ed b2 0a 3e 7b a9 d7 bd 23 0b 3e bc
       -0.069741115 0.13544817 -0.10530373 -0.011599335
0001b0 2d 16 c4 bc 83 80 63 bd 72 a8 f6 3e 0e 38 ce bd
       -0.023936355 -0.05554248 0.4817539 -0.10069285
0001c0 49 24 04 be 7b 3a 87 3e 12 7a 64 bd 8a 98 f6 bd
       -0.12904467 0.26411805 -0.055780478 -0.12040813
0001d0 1e 6d 9f 3e ab 7a 13 3e 55 2f 7a be c1 28 c2 be
       0.31137937 0.14402263 -0.24432118 -0.37921718
0001e0 3c 7d 96 bd 6c 48 1a 3e 34 4c 07 3e 03 f0 ce bd
       -0.07348105 0.15066689 0.13212663 -0.10104372
0001f0 64 72 fa bb 14 bc 47 be 55 6c cc 3d e2 a5 a3 3e
       -0.007643031 -0.1950534 0.099816 0.31962496
000200 2e e2 9a bd 3a 41 35 3e e5 9f c3 3e 1f 4d 2f 3e
       -0.075626716 0.17700663 0.38207927 0.17119263
000210 64 31 69 3d 1a ac 27 3e 38 73 31 bd 02 53 1c be
       0.05693187 0.16374245 -0.04332277 -0.1526604
000220 43 a4 a9 bd e9 df 09 3e 61 61 11 3c 95 dd 0a be
       -0.082832836 0.13464321 0.008873315 -0.1356109
000230 97 f3 d5 3d 1d 5b ce 3b ea 46 16 bd 02 48 32 be
       0.10446852 0.0062974826 -0.036688723 -0.17410281
000240 4d 68 96 3e 9c 0e 14 be d3 42 0a 3d 51 0d 03 bc
       0.2937645 -0.14458698 0.033755135 -0.00799878
000250 07 5d 15 be 05 5d 4d 3d 45 41 31 3e b2 e0 cc be
       -0.14586268 0.05013754 0.17310055 -0.4001518
000260 7e 9a 8f 3d d0 82 a3 be c2 66 94 bd a5 fd 12 3c
       0.07011889 -0.3193574 -0.07246162 0.008971606
000270 f0 b2 8c 3c 09 6f a1 3e 0b 08 64 bb bd 81 6b 3d
       0.017175168 0.31530026 -0.0034794833 0.057496775
000280 51 1a c2 3d 6a 9a 65 bd c0 e1 84 be dd a1 38 be
       0.09477676 -0.056055464 -0.25953484 -0.18030496
000290 04 34 37 3d c0 5d 1a 3e 76 b1 87 3e 49 94 33 be
       0.04472734 0.15074825 0.2650258 -0.17537035
0002a0 c2 22 42 3e fe 02 1c bd c7 7e 0b 3e 50 2f 1d be
       0.18958572 -0.03808879 0.1362258 -0.1535008
0002b0 70 44 ab be 3c d7 2f be 50 f4 32 3e a9 07 0a bd
       -0.3345065 -0.17171949 0.1747601 -0.03369871
0002c0 c1 06 a5 3e 71 3b 35 bc 31 60 9e be 82 68 bd 3b
       0.32231715 -0.011061535 -0.30932763 0.0057802806
0002d0 91 6c 5a be 52 16 cb bc 59 a8 08 3e 10 2d c8 3e
       -0.21330477 -0.024790917 0.1334547 0.3909688
0002e0 3b e3 87 3e eb cb 15 be 1d 18 09 3e a9 93 a9 be
       0.2654055 -0.1462857 0.13388105 -0.33120468
0002f0 63 ce ce 3d 83 db 4f be d8 4e f4 3d 55 bc 9c be
       0.10097959 -0.20298581 0.11929101 -0.30612436
000300 43 fb ae bd 3e ca 15 3e bb 46 a4 3e bc 7e f5 3d
       -0.08544018 0.1462793 0.32085213 0.11987063
000310 54 5c a6 3e 93 3a 16 3e 1c 8f 7e 3d 5f 39 dd bc
       0.32492316 0.14670782 0.0621482 -0.027004896
000320 cc e5 1b 3d f1 9c 41 be f0 a5 61 3e 44 3f 31 3d
       0.03806095 -0.18907525 0.22035956 0.043273225
000330 e5 86 97 3d ba df 92 bd cd 89 83 be e6 60 09 3d
       0.07398776 -0.07171579 -0.2569107 0.033539675
000340 72 5d 78 3d a9 5c 42 3e 1e 48 86 be f4 21 2e 3c
       0.06063599 0.1898066 -0.26226896 0.010628212
000350 29 6a e0 3d 0b 2e c4 3d b2 dd 87 bd f2 a3 34 be
       0.109577484 0.095790945 -0.06634082 -0.17640665
000360 d2 27 1c be 32 a6 0f 3e ab 38 7d 3d 7e d5 e5 3d
       -0.15249565 0.14028242 0.06182162 0.11222361
000370 1b 88 90 3d aa 58 e8 3d 4b 7f 6a bc b0 b4 c8 3e
       0.0705721 0.11345036 -0.014312576 0.39200354
000380 42 16 a7 be c7 d2 99 3d b6 35 d4 3d 8c a8 03 be
       -0.3263417 0.07510906 0.10361807 -0.12857264
000390 83 12 e7 3d cc b5 56 be b9 cd bb be a6 b3 f4 be
       0.11282828 -0.20967788 -0.3668039 -0.4779331
0003a0 89 ee 85 3d 35 6d 76 3e 81 79 11 be 19 4c 2e 3e
       0.065396376 0.24065097 -0.14206506 0.17021216
0003b0 55 0d 47 bd 01 29 dd bc bc 39 c6 3e 9f 38 f8 bc
       -0.0485967 -0.026997091 0.38715923 -0.030300437
0003c0 67 a1 6b bd cf 5e 34 3c 85 91 f4 bb 3f e9 77 be
       -0.057526972 0.011008932 -0.0074636363 -0.2421007
0003d0 c7 15 e4 bd bf 96 39 3e c4 00 3d be 15 f4 8b be
       -0.11136966 0.18123911 -0.18457323 -0.27334657
0003e0 45 c5 3f 3e ea 15 c2 3d 5b 63 3f be 30 9c 0c 3e
       0.18727596 0.09476836 -0.18690245 0.13731456
0003f0 7d 2b 07 3d 8f fc e3 bc 9d 63 d6 3e c5 7d 36 be
       0.033000458 -0.02783039 0.41872874 -0.17821415

actor_mean.2.bias f4 [64]
000000 68 c7 27 bd df 42 88 3c d2 f4 22 bc 9a 0f 33 3c
       -0.040961653 0.01663345 -0.009946065 0.010929013
000010 5a 8d 45 3d 33 ad 61 3c 1f b8 f4 3c f1 9a 00 bd
       0.048230506 0.013774204 0.029872952 -0.031397764
000020 80 b9 39 3c a7 3c 86 bc 82 91 82 bc 4a a3 3a 3d
       0.011335731 -0.016386343 -0.015938524 0.04556588
000030 c2 6d b1 bd d0 d6 ea 3d 33 be 7e 3d 35 18 78 3d
       -0.08663513 0.114667535 0.062193107 0.06056996
000040 6c 9c bb 3c 6f 96 ea 3c db eb 37 3c c7 11 49 3c
       0.022901736 0.028636185 0.011225666 0.012272305
000050 5f ea 8c 3d 99 84 97 bc df 02 d2 bb 35 42 a5 bc
       0.0688064 -0.018495845 -0.0064090337 -0.020173172
000060 4d d2 41 bc 6a 02 f8 3d 42 74 c1 bc c4 ad 4f 3d
       -0.011829925 0.121098354 -0.023615006 0.050702825
000070 c3 a9 62 bc 83 25 70 bd 10 2d 12 3d e0 7a 70 3d
       -0.01383442 -0.058629524 0.035687506 0.058710933
000080 b0 07 d5 3c 96 d7 cd bc 5d 5b 18 bc 2d 0c d1 bd
       0.026004642 -0.025127213 -0.009299126 -0.102074005
000090 5b 60 7e 3a f8 6b 01 bd 49 30 15 3d 81 ae c3 3b
       0.0009703689 -0.031597108 0.036423 0.00597173
0000a0 ca e3 fe 3b 04 3e de bc d2 48 34 3d 67 14 86 3d
       0.0077786194 -0.02712918 0.04401476 0.0654686
0000b0 7c 80 50 3d 4c 75 75 bb c4 b9 ae bb 5c dc 1c 39
       0.050903782 -0.0037453948 -0.0053322036 0.0001495941
0000c0 0c d5 13 bc bc 3a 28 bd 8d 80 18 bd 2c 38 17 bd
       -0.009022962 -0.04107164 -0.03723197 -0.036918804
0000d0 63 9c 57 bd d5 e6 39 3d 9b 58 13 bd 6e 1b 3b 3d
       -0.052639376 0.045386154 -0.035973173 0.045680456
0000e0 65 1a a2 bb f3 d9 92 bc 02 4c 64 bc ff 97 ba bc
       -0.004946994 -0.017926192 -0.013934137 -0.022777556
0000f0 8e 62 3f 3c 06 a8 ce 3c 68 f6 47 bb bb 29 53 bd
       0.011681212 0.025226604 -0.003051186 -0.05155347

actor_mean.4.weight f4 [3, 64]
000000 26 a1 3e 3d e0 a8 1d be ee c7 8a 3d e4 78 86 bc
       0.046540402 -0.15396452 0.06776415 -0.016415067
000010 79 78 73 3d 68 48 86 3d 35 2b 2f bc 85 e4 d1 3d
       0.059441064 0.06556779 -0.010691454 0.10248665
000020 57 9c 42 3d 24 3e a3 bc ee 94 bf bd af f3 62 3b
       0.04751238 -0.019927092 -0.09354578 0.003463011
000030 2b 1c 6e bd ab 47 76 3d c3 9e 81 bd c8 c6 47 3d
       -0.05813233 0.06012694 -0.063291095 0.048773557
000040 a6 84 96 3d 44 d9 83 3b 07 49 08 bd 70 a0 4e 3d
       0.073495194 0.004023703 -0.03327277 0.050445974
000050 32 9e bc bd 45 c4 34 3d ba 14 3b 3d 3e 23 aa bd
       -0.09209861 0.04413249 0.045674063 -0.08307503
000060 97 04 e7 3c 76 80 38 bd 1a 60 ec bc f2 84 83 bd
       0.02820043 -0.045044385 -0.028854419 -0.06421842
000070 8a eb f9 3c c3 21 89 3d e0 7f d6 bc 38 ae b8 3c
       0.030507822 0.06695893 -0.026184022 0.022544011
000080 50 52 40 bc 07 c0 22 3d 56 2a ef bb 60 32 bd bb
       -0.011738375 0.039733913 -0.007298748 -0.0057738274
000090 bd cb 9f bd a0 34 8c 3a 8b dc 8e bd 5c 87 96 bd
       -0.07802532 0.0010696836 -0.06975659 -0.073500365
0000a0 cd aa 23 bc 8f df a2 bd 64 55 37 bd f7 81 96 bd
       -0.009989453 -0.07952797 -0.04475917 -0.073490076
0000b0 38 50 0d bc fe d6 e1 3b 16 24 3d bd aa 65 c8 bd
       -0.008625083 0.006892084 -0.046176992 -0.09785016
0000c0 eb 93 07 3d d9 f3 04 3d 2a d1 ef 3a 8e 0a 0c 3d
       0.03310005 0.032459114 0.0018296589 0.034189753
0000d0 48 10 7f 3d bb d5 c7 3c 2c de ae bb 8b f9 eb 3c
       0.062271386 0.024393907 -0.0053365435 0.028805515
0000e0 00 7c 16 3d ff 1a f0 3c 3e 1c d0 bc bf bd 74 3d
       0.03673935 0.029309748 -0.025404092 0.05975127
0000f0 64 c2 97 3d 7c 12 1f 3b 14 06 80 3c df 0a a0 3b
       0.07410124 0.0024272492 0.015627898 0.0048841084
000100 e9 8d 10 3c fb 82 46 bc 40 27 59 bd 38 99 8a bd
       0.0088228965 -0.012116189 -0.053015947 -0.067675054
000110 7d 4b 3b bd a4 f1 31 3d 23 59 30 bd 13 d9 c5 3d
       -0.045726288 0.043443337 -0.043053757 0.09660544
000120 8c 6b 45 3c ac 4a 07 3e bf c8 d0 bc 9c 49 38 3e
       0.012049567 0.13212079 -0.025486348 0.1799683
000130 e4 71 20 bd 09 c0 d5 3c 85 ed e2 bb f4 b4 40 bb
       -0.039171115 0.026092546 -0.006925287 -0.0029404731
000140 ce b0 3e 3d 6e 59 9f 3d 40 07 3e be 2c 20 0b bd
       0.046555333 0.07780729 -0.18557453 -0.03396623
000150 ae e1 63 3d eb fb 86 bc dc 43 3b 3d 08 9b 76 bc
       0.055635147 -0.016477546 0.045719013 -0.015051611
000160 51 4b b9 3d 6e 8c 32 3e 74 3e 0e 3d 63 e3 a3 bd
       0.090475686 0.17436382 0.03472753 -0.08002355
000170 52 19 0d 3e 44 57 7b 3d b5 9c 55 3d 61 3a b0 bc
       0.1377919 0.06136252 0.0521514 -0.021512212
000180 6c 6b 9e 3c 17 95 1d bd e5 b8 d6 3d e5 68 aa 3b
       0.019338332 -0.03847226 0.104844846 0.0052004927
000190 bf ca 85 bd 7a 38 c8 3d ca e5 49 3a 18 6a fb bc
       -0.065328114 0.09776397 0.0007701783 -0.030690238
0001a0 b7 a5 b6 3c 55 3f ba 3d 2e 32 c4 3d 15 fb cc bd
       0.022295816 0.09094111 0.095798835 -0.100088276
0001b0 62 d9 7d 3c a1 e0 a5 3d 03 47 02 bc 34 01 06 3a
       0.015493723 0.08099485 -0.007951501 0.00051118736
0001c0 35 ba a9 3c 4b 42 db bc 2d 1a 7b bd d3 da 8e 3c
       0.020718673 -0.02676501 -0.06130426 0.017438328
0001d0 1f 1e f9 3d 96 79 60 bd 01 35 53 3c 6d e5 5e 3d
       0.12163948 -0.054803453 0.012891055 0.054418016
0001e0 da a8 ac 3d 8c ec 89 3d 8f 2d 8c 3c ae 48 55 bd
       0.084306434 0.06734571 0.017111568 -0.052071266
0001f0 89 11 1d 3d 2d d5 0b bd e9 31 df bc e6 14 85 3d
       0.0383468 -0.034138847 -0.027245479 0.06498127
000200 a7 ca 39 bc 1d ff 94 3b 76 ab ca bc 37 1d 07 bc
       -0.01133982 0.0045470134 -0.024739962 -0.008246711
000210 c8 27 f5 3b b3 35 55 bd 28 e8 87 3c 2a 7a 17 bd
       0.007481549 -0.052053165 0.016590193 -0.03698174
000220 97 26 9d 3c 62 e1 f7 3c 84 35 23 bb ba 5a 77 ba
       0.01918344 0.030258838 -0.0024903724 -0.00094358216
000230 b6 48 41 3a 04 ff b3 3a a4 59 1e bd 65 e2 23 bc
       0.00073732005 0.0013732617 -0.038659707 -0.010002707
000240 ab 67 12 3d 52 49 a1 3c 4d bc 17 3d 27 6e ad bd
       0.035743397 0.019688282 0.037044812 -0.084682755
000250 e3 cb e2 3c 7f 2f 82 3d 7b 13 d3 bc c7 31 ac 3c
       0.027685111 0.063567154 -0.025766125 0.02101983
000260 b5 6b 2f bd 42 6c 31 3d 25 85 3d bd ae 09 05 bc
       -0.042827327 0.043316133 -0.046269555 -0.008119984
000270 55 de ce 3c 8f f1 c2 bc 6b 32 c7 3c 96 32 2c 3d
       0.0252525 -0.023796825 0.024316033 0.04204043
000280 7b 7f 61 bd fd 1b 01 bd fe 5c 12 3d 6f 33 22 3d
       -0.055053215 -0.031520832 0.035733216 0.039599832
000290 bb 5e a4 3d e1 a8 2a bd 67 93 25 3d 79 6a b0 3c
       0.08025881 -0.04166496 0.040423777 0.021535145
0002a0 c0 0c 87 bc a0 ba 51 ba b7 8e 13 38 cf fa b9 3c
       -0.016485572 -0.00080005266 3.5180445e-05 0.022702603
0002b0 26 e1 83 bd 9a ef 17 bd 93 d8 e8 bc 04 22 ba bc
       -0.06439428 -0.037093736 -0.028423583 -0.022721298
0002c0 04 27 d3 3b e1 7a 2d 3d ed 05 b9 bc 67 00 40 bd
       0.00644386 0.042353515 -0.022585833 -0.046875384
0002d0 29 28 2d bb 1d ab 13 3d 7c be 15 bd 72 df 94 3d
       -0.0026421642 0.03605186 -0.036558613 0.07269181
0002e0 77 b9 a8 3c 0e 34 74 bd c1 55 8d 3d 1a 32 95 3c
       0.020596249 -0.059619956 0.06901122 0.018212367
0002f0 5e aa 8c bb b1 aa 9f bb 11 04 d9 3d 9d f4 a8 bc
       -0.0042927703 -0.004872643 0.10596479 -0.020624453

actor_mean.4.bias f4 [3]
000000 8b bf a6 bc 7c fa 28 3b ba f8 1a 3a
       -0.020355007 0.0025784066 0.0005911697
